neural-collaborative-filtering/src/checkpoints/gmf_factor8neg4-implict_Epoch137_HR1.0000_NDCG0.8306.model (torch, 281278 bytes, 4 tensors)

embedding_user.weight f4 [7700, 8]
000000 bc 57 e8 3e 24 f7 1f bf 2f 43 f5 be 91 06 97 3f
       0.45379436 -0.6248648 -0.4790282 1.1798879
000010 87 93 0a bf b9 d5 e6 3f 09 0b 91 bf e9 1e 8c bf
       -0.5413136 1.8033973 -1.1331493 -1.0946933
000020 f3 3e b9 bf 4b 83 64 3e cc 40 81 3f 7a b9 8a 3d
       -1.4472336 0.2231571 1.00979 0.06773658
000030 c1 72 df bf 0f 08 c7 3e c0 32 cd 3e 19 8d 16 3e
       -1.7456895 0.38873336 0.40077782 0.14702262
000040 6d e4 dc bf 39 ac 0c 3f e3 5f 29 bc e7 1b a7 3f
       -1.725721 0.5495029 -0.010337803 1.305539
000050 0a f0 26 40 6c 13 4a 3f e8 ef 17 c0 58 75 5d bf
       2.6084008 0.78935885 -2.3740177 -0.8650718
000060 14 7a ff bf 12 c3 08 40 52 c4 36 40 8f 4d e8 3f
       -1.995913 2.1369061 2.8557324 1.8148669
000070 39 cf 91 bf 9a fb b3 3f 63 e2 0d c0 d7 24 c5 bf
       -1.1391364 1.4061158 -2.2169425 -1.5401868
000080 87 3d 9d 3c ba 84 ae be a8 5e 00 3d 4f ef 53 be
       0.019194378 -0.34085637 0.03134027 -0.20696758
000090 43 4d 74 bf d9 da 02 3f 11 36 fa be 41 40 ff bf
       -0.9543039 0.51115185 -0.48869374 -1.9941484
0000a0 bc 39 30 c0 06 f8 79 3f 6d f0 9a 40 62 1e a9 be
       -2.7535238 0.9764408 4.841849 -0.33030993
0000b0 5d 77 8f c0 4b 58 4e 3f 1a 92 0c be c7 8c d5 bf
       -4.4833207 0.80603474 -0.13727608 -1.6683587
0000c0 9b 77 9d bf fc db 11 bf fa a7 92 be 6c 6e 89 3e
       -1.2302126 -0.56976295 -0.2864378 0.26842058
0000d0 e8 1e 0b bf 63 70 b4 3f 31 3d 33 be ef 82 05 bf
       -0.54344034 1.4096798 -0.17503811 -0.52152914
0000e0 5d d6 00 3e 90 d2 b9 be 93 46 88 3e f5 e6 5c 3f
       0.12581773 -0.3629346 0.26616344 0.8628991
0000f0 6e 65 88 bf be 94 f9 3e e2 ed 32 3f 65 08 1c c0
       -1.0655954 0.48746294 0.6989423 -2.4380124
000100 aa aa 78 3f a5 b2 85 3e 27 e6 50 be d2 da 8a bf
       0.9713541 0.26112857 -0.20400296 -1.0848029
000110 a2 b9 e6 be 56 94 a3 3e af 2c 8e bf b4 96 07 be
       -0.45063502 0.3194911 -1.1107386 -0.13241082
000120 6b 02 14 c0 37 1d 8e 3f 6d d4 b0 3f ec 1c da bf
       -2.3126476 1.1102666 1.3814827 -1.7040076
000130 58 73 d4 3e cf ac 75 40 69 fb a8 be 5e ae 25 be
       0.4149425 3.8386724 -0.3300431 -0.16179797
000140 20 bc 7a 3f 50 50 3b 3d fa c1 0b 40 03 4c 23 bf
       0.97943306 0.04573089 2.1837144 -0.6378786
000150 19 21 08 c0 4f 55 1f 40 4c 13 67 bf 2d f1 ac bf
       -2.1270201 2.4895818 -0.9026382 -1.3511101
000160 e9 6a 38 3d ab 48 01 bf c3 4e 0f 3f 76 86 ae be
       0.045023832 -0.5050151 0.55979556 -0.3408696
000170 64 a4 14 c0 14 a8 c0 bf 26 65 27 bf 7a bd 1f c0
       -2.3225336 -1.5051293 -0.65388715 -2.4959397
000180 0d 48 0e c0 69 8a 4a 40 84 30 98 bf 74 2d 02 bf
       -2.2231476 3.164698 -1.1889806 -0.50850606
000190 90 49 5c c0 3a 2a 9a 3f 1d d8 0b c0 eb b6 80 3e
       -3.44199 1.2044137 -2.1850655 0.25139555
0001a0 17 97 a7 be 69 4d 6a 3e 32 b5 ad 3d 16 7c 0e 40
       -0.3273246 0.22881092 0.08481826 2.2263236
0001b0 b8 24 07 c0 8a 73 d6 3f 05 a5 9d bf 8c 42 46 bf
       -2.1116161 1.675401 -1.2315985 -0.7744529
0001c0 1d ae a9 3e 4c a3 c3 3f 1c 4a 81 3f 3b 18 ce bf
       0.3314065 1.5284209 1.0100741 -1.6101145
0001d0 a8 a8 33 c0 c3 ae 4d 40 59 8c 53 be 4c e5 75 3e
       -2.807169 3.2137916 -0.20659007 0.24013251
0001e0 ac e4 8d bf d3 d2 8d bf 0a f2 23 bf 94 91 45 bf
       -1.108541 -1.1079963 -0.640412 -0.7717526
0001f0 c5 b6 72 bd f8 a9 12 3f 74 ac 8e 3d f3 6b c8 3e
       -0.059256334 0.572906 0.069664866 0.3914486
000200 2f df 0a c0 02 57 2e 3d fe d7 11 3f 53 e6 30 bf
       -2.169872 0.042563446 0.569702 -0.69101447
000210 f1 bc 5e c0 49 65 50 40 54 66 6c bf 48 ba 98 be
       -3.480282 3.256182 -0.9234364 -0.2982962
000220 bf c8 0f c0 f1 57 43 40 d7 66 1a bf 42 55 00 c0
       -2.2466276 3.0522425 -0.6031317 -2.0052037
000230 54 c6 03 c0 9f b7 16 3f 21 85 a1 be 67 55 a6 be
       -2.05898 0.58873934 -0.31546882 -0.32487032
000240 03 05 43 c0 a5 ae 40 3f 4a 9d fe be e7 f0 d2 bf
       -3.047181 0.75266486 -0.49729377 -1.6479768
000250 97 61 0f be d1 5e 8a 3f ca 30 2b c0 51 3f a4 3e
       -0.14002071 1.0810186 -2.6748528 0.32079557
000260 89 c1 76 bf d5 40 15 be 2e 77 1f 40 e8 c5 83 3d
       -0.9638906 -0.14575513 2.4916492 0.06434232
000270 63 97 66 3f 9a e2 28 40 a4 b6 f9 bf 91 8e c8 bf
       0.9007475 2.6388307 -1.9508862 -1.5668508
000280 2b 15 6c bf 2b 62 16 40 ce 9a c5 3f 7a 22 bc 3f
       -0.922198 2.3497417 1.5437868 1.4698021
000290 59 74 c7 bf 54 21 2b 3f 36 c0 4e c0 25 04 fa bf
       -1.5582381 0.6684773 -3.2304816 -1.9532515
0002a0 34 49 1f c0 f3 91 ba 3e dc 7c 8a 3e 1f 62 09 c0
       -2.488843 0.36439475 0.27048385 -2.1466138
0002b0 f1 7f 2d bd a5 5e 30 40 ec 41 5f bf f6 a3 30 bf
       -0.042358343 2.7557766 -0.87209964 -0.69000185
0002c0 c9 15 9e bf 69 d0 af 3f 21 28 1a 40 07 bc 7b bd
       -1.2350398 1.3735477 2.4086993 -0.061458614
0002d0 04 4b 2f be a6 b4 c0 be fe e3 18 c0 bd 3a 67 bf
       -0.1711846 -0.37637824 -2.3889155 -0.90324
0002e0 56 44 ec bf 32 4e ef 3f 38 55 f2 3f 93 0b 04 bf
       -1.8458354 1.8695738 1.8932257 -0.5158016
0002f0 3c f3 92 bf 4f fe 4f 40 b5 12 f0 be 8a 6c cb 3f
       -1.1480479 3.2498968 -0.46889272 1.5892498
000300 8e e0 8a bf 54 e2 f7 3f 12 cf 1e be 28 c9 85 bf
       -1.0849779 1.9365945 -0.15508679 -1.0452013
000310 6c b5 63 3f 53 1e a5 3e 64 73 3d 3e 89 88 8e be
       0.889487 0.32249698 0.1850105 -0.27838543
000320 96 22 ed bf a7 fa 71 bf a3 be 80 be 2d 58 3a bf
       -1.852618 -0.9452309 -0.25145444 -0.72790796
000330 fa e3 01 c0 28 d4 fb 3f 9b 86 4d be 7d c4 8c bf
       -2.0295396 1.967412 -0.20070879 -1.0997463
000340 c1 b2 13 c0 2d 8a b4 3f 35 75 43 40 1c 10 f3 3e
       -2.3077853 1.4104668 3.0540287 0.47473228
000350 80 96 bd be c5 d8 72 be 63 cf d3 bf 3c 67 08 c0
       -0.37028885 -0.23715504 -1.6547664 -2.131301
000360 d1 4b 48 c0 b8 4b db 3e c4 be 01 40 ec fe f1 3e
       -3.1296275 0.42831206 2.0272684 0.47264802
000370 00 f7 0f c0 6e fb 88 bf 90 88 0a c0 9c 53 0e c0
       -2.2494507 -1.070173 -2.164585 -2.223853
000380 55 33 66 3f 50 41 c5 bf 6d ad 79 3f 9b f6 a9 be
       0.89922076 -1.5410557 0.9753025 -0.33195958
000390 a6 3d 6f 3d a0 ea 69 3f 49 31 a4 3f 87 91 c9 3d
       0.058408402 0.91373634 1.2827541 0.0984221
0003a0 6c bd 66 be ee c6 2c be f4 f8 dd be cc 55 d0 bf
       -0.22533196 -0.1687276 -0.43354 -1.6276183
0003b0 f7 0a 82 be 9e da 53 bf c7 07 dd 3f 4a f8 23 bf
       -0.2539899 -0.8275546 1.7267998 -0.64050734
0003c0 c5 6b cd bf 0a 96 1c 40 42 eb 04 40 fd 46 8f 3f
       -1.6048514 2.4466577 2.076859 1.1193539
0003d0 e6 39 de bf e6 92 94 bf cd 7d 21 c0 43 ef 42 c0
       -1.7361419 -1.160733 -2.5233033 -3.0458534
0003e0 68 e6 69 3f 48 50 87 3e f6 7e b7 3f a2 69 3f 3d
       0.913672 0.26428437 1.433562 0.0467316
0003f0 17 64 34 c0 4d 34 70 3f 6f f0 ea be be fd 6d bf
       -2.818609 0.93829805 -0.4588656 -0.92965305

embedding_item.weight f4 [8, 1024]
000000 66 1d fd bc 4e 16 62 3e 50 d8 34 3e ed 75 c7 3e
       -0.030897807 0.22078821 0.17660642 0.38957158
000010 90 b1 ba 3d c8 57 66 3e c7 cb 86 3b 8e 0d 71 be
       0.091158986 0.22494423 0.0041136476 -0.23540327
000020 df 0c 57 3e dd b4 da be 78 1d b6 bd 3a ff dc 3d
       0.21001004 -0.42716113 -0.088923395 0.10790868
000030 dd 0f 1d be 0c f2 d0 bc 03 5c d7 bd f6 04 1a 3e
       -0.15338083 -0.025506042 -0.10515597 0.15040955
000040 89 86 fa be c9 d3 6d be aa 4e 80 3e e9 05 21 be
       -0.48930767 -0.23225321 0.25060016 -0.15724911
000050 89 de d5 3d 35 60 65 bd 3d d0 28 bc ea 41 0a be
       0.10442836 -0.055999953 -0.010303554 -0.13501707
000060 3b ef 10 3e 12 54 b3 bd a9 31 05 be ee fe 1f be
       0.14153759 -0.087562695 -0.13007225 -0.15624592
000070 3c 96 4c bd 4b d8 25 be a2 7c 49 bd 04 0b d5 3c
       -0.049947962 -0.1619579 -0.049191125 0.02600623
000080 69 3d 56 be f7 80 1d bd ac 36 2a be 35 2e c5 bc
       -0.20921864 -0.03845307 -0.16622418 -0.024069885
000090 92 67 c8 3c 34 7b 25 bd 3d de 82 bd 67 8c cb 3d
       0.024463449 -0.0404007 -0.06390045 0.09938889
0000a0 b6 8b 51 be 54 5a 27 be 55 13 89 bd 93 72 24 be
       -0.20463452 -0.16343051 -0.066931404 -0.16059332
0000b0 84 c8 11 3e bc 3c 88 be e4 6a 38 bd 5b 83 c8 be
       0.14236647 -0.26608837 -0.045023814 -0.39162716
0000c0 72 41 d4 3e 2e c7 23 be 21 42 07 be 41 d8 61 be
       0.4145618 -0.1599395 -0.1320882 -0.2205515
0000d0 db 45 d7 bd e6 85 83 bc 06 a4 29 3e cc 10 18 3e
       -0.10511371 -0.016055059 0.16566476 0.14850157
0000e0 65 62 35 3e 1e 8c 66 be 42 5a 68 3e d5 02 17 3e
       0.17713316 -0.22514388 0.2269068 0.14747174
0000f0 4e c2 d9 bd 08 7e fd bb 76 f8 ae 3d d5 94 2a 3d
       -0.10632764 -0.0077359714 0.08543484 0.041645844
000100 9e 02 ab be 1d e3 93 3d f0 2d 0b be a9 7b a9 3e
       -0.33400434 0.07221053 -0.13591743 0.33102158
000110 4d a3 cc 3d 02 23 8a bd fb f5 99 3e 46 51 ae 3d
       0.09992085 -0.067449585 0.3007048 0.085115954
000120 c3 5c b3 3d 8a 29 17 be 01 22 17 3e 43 1f 79 be
       0.08757927 -0.1476194 0.14759065 -0.24328332
000130 ef ba b5 be ab df fb 3d 6a 7c 4a be 0f 5a a7 3d
       -0.35494182 0.12298521 -0.19774023 0.08171474
000140 f1 50 b0 bd 33 12 e3 be 2f ed 4f 3e 47 bb 66 3d
       -0.08609188 -0.44349822 0.20305322 0.056330945
000150 24 68 e4 bc b6 a7 5b bd 30 bb 31 3e 08 7a 5d be
       -0.02788169 -0.05362674 0.17356563 -0.21628582
000160 a3 f3 7b 3e 07 3c 04 3e c6 c6 80 3e ab 50 db 3e
       0.24604659 0.12913524 0.25151652 0.42834982
000170 05 10 43 bd 3f 96 f4 be 8a cc c7 be fa 26 9b bd
       -0.0476227 -0.4777088 -0.39023238 -0.075757936
000180 40 e9 11 be 75 48 a1 be bf 17 7c bd d5 80 13 3e
       -0.14249134 -0.31500593 -0.061546084 0.14404614
000190 b8 be 1b 3e 90 de 78 bc f4 0d 14 3e d4 0a 53 3d
       0.15209472 -0.015189782 0.14458448 0.051524
0001a0 79 72 3c be a7 bb d7 be 8f a0 82 be f7 ec 0e 3e
       -0.18403043 -0.42135355 -0.2551312 0.13957582
0001b0 85 5e 34 3e c3 f8 41 3e 44 bf 10 be b1 25 32 be
       0.17614181 0.18942551 -0.14135462 -0.1739719
0001c0 85 ca 52 be 84 fe 5c 3e a1 59 d5 bd 50 7f ea be
       -0.20585068 0.21581465 -0.10417486 -0.45800257
0001d0 18 0e 49 be f4 89 1e be eb c2 84 bd 1e 6e 72 3e
       -0.19634283 -0.15482312 -0.0648249 0.23674819
0001e0 f8 4c 65 3d 07 22 9e 3d 9d bd 50 bd be 2d 88 be
       0.055981606 0.07721334 -0.05096208 -0.265974
0001f0 cb a3 6a be b1 f9 c9 3d e6 bd 09 3e 73 35 d8 3e
       -0.22914045 0.09862078 0.13451347 0.4222828
000200 d2 6c 1a be 80 f0 02 3e 34 1d 70 3d 47 23 3e 3e
       -0.15080574 0.12787056 0.0586216 0.18568145
000210 7a 23 ea 3d 34 30 e2 3d a3 4a 83 bd 07 26 e1 3d
       0.11432548 0.1104435 -0.0641072 0.10993581
000220 83 fd f8 3d fe 7b 57 3e 61 c2 69 3e b2 d0 8c 3e
       0.121577285 0.21043393 0.22828056 0.27502972
000230 74 c1 54 bd 1f df 45 be 01 0a 0e 3d 31 65 6c be
       -0.051942304 -0.19323395 0.03467751 -0.23085476
000240 ab c9 15 bd b2 5a 92 3e dc 33 23 bc 27 48 51 be
       -0.03656928 0.2858482 -0.009961095 -0.2043768
000250 d8 13 af 3d 12 4b 6c bd 7c 2c 12 bd da 8f 5e 3d
       0.08548707 -0.05768878 -0.035686955 0.054336406
000260 de c1 30 3e 43 9d c7 bd 29 e0 05 3e d8 a6 a7 3c
       0.17261454 -0.09746792 0.13073792 0.0204653
000270 9d 15 a8 3e 16 e7 b8 3d 76 48 53 be d6 c5 42 3e
       0.3282899 0.09028451 -0.2063311 0.19020781
000280 e8 c1 ea 3d e5 b4 ef 3c e4 24 bd bc 15 aa 62 be
       0.11462766 0.029261062 -0.02308888 -0.22135194
000290 65 05 d1 3d a5 36 15 3e 89 d5 a7 3c 7e 2a 1b bd
       0.10206107 0.14571626 0.020487564 -0.03788232
0002a0 32 1f 2b 3e dd 7e 17 bd 0e ac 92 be 61 2e 8b 3e
       0.16711119 -0.03698622 -0.28646892 0.27183822
0002b0 67 49 3c be 29 41 0c be c1 12 80 be a6 bd 7d be
       -0.18387376 -0.13696732 -0.25014308 -0.24779376
0002c0 3a a9 08 3e c0 5f 97 be e3 bf 15 3d a2 20 4e 3d
       0.13345805 -0.2956524 0.03655995 0.05032409
0002d0 6b 16 17 be b7 da b7 3e 35 31 86 be 91 fa 4a bd
       -0.14754646 0.35909054 -0.26209417 -0.049555365
0002e0 ea 32 eb 3d df ce 95 3d 42 0b dd 3d 41 ed b0 3c
       0.114843205 0.07314848 0.10793163 0.021597506
0002f0 af f9 8d 3e b2 b3 a6 bc 33 70 5d be b0 2c 07 bd
       0.27729556 -0.020349357 -0.21624832 -0.0330016
000300 c1 e2 a7 bd c3 dd 76 3d 4d 84 25 bf 75 30 a9 3d
       -0.08197547 0.060270082 -0.64655 0.082611956
000310 3c a6 4f bc 59 b8 a0 3d 2b f5 50 3d bf b8 89 3e
       -0.012673911 0.078476615 0.05101506 0.26898763
000320 e4 7f ed 3b 59 30 c7 bd d8 f2 8e be ad 8c 74 be
       0.0072479118 -0.097260185 -0.2791965 -0.23881789
000330 37 43 77 be 78 d3 b0 bc 77 7d 67 3b 1d 3e 95 bd
       -0.24146734 -0.021585211 0.0035322586 -0.07287238
000340 6b 04 f0 3c 1b 8c 21 3d d2 1d 98 bc 1a e0 98 3d
       0.029298982 0.039440256 -0.018568907 0.07464619
000350 d1 d7 d2 3e e4 52 08 3e aa 0c ad 3d 30 45 d2 3e
       0.4118028 0.1331287 0.08449681 0.4106841
000360 36 82 68 3e de 7e a4 3e a8 32 32 be 08 df 82 3e
       0.22705922 0.32128042 -0.17402136 0.25560784
000370 02 3b 3e 3e 38 a8 08 3e 6e de bb be c4 db 01 3e
       0.18577197 0.1334542 -0.36693138 0.1268149
000380 38 e2 91 3b 00 96 bb bb bc d7 8d bd 48 46 a2 bd
       0.004452016 -0.0057246685 -0.06925914 -0.07923561
000390 ef a3 3d bd 9b 2b 9a be a6 96 0d 3e 52 34 a4 3d
       -0.046298917 -0.30111393 0.13826999 0.08017792
0003a0 0c 39 08 be 49 13 27 bb a8 fa 88 3e 10 91 a5 bd
       -0.13303012 -0.0025493673 0.26753736 -0.08084309
0003b0 d8 a6 04 3e 9f 01 d1 bd f6 93 94 3e 25 4e f4 3d
       0.12954271 -0.10205387 0.29019135 0.119289674
0003c0 69 1c 51 3d 57 b3 ba 3d c9 52 32 be 4a 97 7e 3e
       0.051052485 0.091162376 -0.17414393 0.248624
0003d0 15 8b 9f 3d 07 10 04 bf 44 a3 e4 3d 94 4c 3b 3d
       0.077902 -0.51586956 0.11163953 0.045727327
0003e0 2d 94 2d be 32 ff 60 be 76 5e 6c 3e fe 7c a7 bd
       -0.16951056 -0.2197235 0.23082909 -0.08178137
0003f0 ea 4c 12 3e d2 54 c7 3e 95 f7 e5 3d 5f 71 ff 3d
       0.14287153 0.389319 0.11228863 0.12472796

embedding_item.bias f4 [8]
000000 f4 6b 87 be 0c 54 6e 3e 1e ce 43 be ae 26 7e be
       -0.2644955 0.23274249 -0.19121596 -0.24819443
000010 c6 24 9b 3e 34 21 67 3e 36 04 90 be 84 57 83 be
       0.30301493 0.2257126 -0.28128213 -0.25652707

affine_output.weight f4 [1, 8]
000000 6d f9 d2 bd 45 4a d1 bd 52 6b ec 3d 57 12 1f be
       -0.103014804 -0.10219244 0.11543907 -0.1553434
000010 ca 3b 05 3e f8 09 1f be 35 2c b1 bd a3 38 f7 bd
       0.13011089 -0.15531147 -0.0865101 -0.120713495
