neural-collaborative-filtering/src/checkpoints/gmf_factor8neg4-implict_Epoch70_HR1.0000_NDCG0.8366.model (torch, 281278 bytes, 4 tensors)

embedding_user.weight f4 [7700, 8]
0	0x3ee857bc	0.45379436
1	0xbf1ff724	-0.6248648
2	0xbef5432f	-0.4790282
3	0x3f970691	1.1798879
4	0xbf0a9387	-0.5413136
5	0x3fe6d5b9	1.8033973
6	0xbf910b09	-1.1331493
7	0xbf8c1ee9	-1.0946933
8	0xbfb93ef3	-1.4472336
9	0x3e64834b	0.2231571
10	0x3f8140cc	1.00979
11	0x3d8ab97a	0.06773658
12	0xbfdf72c1	-1.7456895
13	0x3ec7080f	0.38873336
14	0x3ecd32c0	0.40077782
15	0x3e168d19	0.14702262
16	0xbfdce46d	-1.725721
17	0x3f0cac39	0.5495029
18	0xbc295fe3	-0.010337803
19	0x3fa71be7	1.305539
20	0x4026f00a	2.6084008
21	0x3f4a136c	0.78935885
22	0xc017efe8	-2.3740177
23	0xbf5d7558	-0.8650718
24	0xbfa843c5	-1.3145682
25	0x3fa042d8	1.2520399
26	0x3ff6856a	1.9259465
27	0x3f8d2518	1.1026945
28	0xbe86cda8	-0.26328778
29	0x40075613	2.1146286
30	0xbf9051c4	-1.1274953
31	0xbf6f2286	-0.93412054
32	0xbd8f020c	-0.06982812
33	0xbe640d40	-0.2227068
34	0xbd99b3ad	-0.075049736
35	0x3df5bc87	0.11998849
36	0xbf083b64	-0.5321562
37	0x3f8836c2	1.0641711
38	0xbf42b826	-0.7606224
39	0xbfd90d16	-1.6957119
40	0xc03511f7	-2.8292215
41	0x3faa4b38	1.3304205
42	0x405257a1	3.2865984
43	0xbf0d20b3	-0.5512802
44	0xc048fe1e	-3.14051
45	0x3d9aafa3	0.07553031
46	0x3e58848f	0.21144317
47	0xbf625d35	-0.8842347
48	0xbf7b2851	-0.9810839
49	0xbf8299e8	-1.0203218
50	0xbe9703c5	-0.29495063
51	0x3f2f30b4	0.6843369
52	0xbf076d71	-0.5290137
53	0x3ff4515c	1.9087329
54	0xbf101a55	-0.5629018
55	0xbf85f000	-1.0463867
56	0x3eab0650	0.33403254
57	0xbda76acc	-0.08174667
58	0x3f7553c4	0.9583094
59	0x3fe13b69	1.7596256
60	0xbf32de14	-0.69870114
61	0x3f0272f7	0.5095667
62	0x3f098fee	0.53735244
63	0xc027f26a	-2.6241708
64	0x3f92e39c	1.1475711
65	0x3f1c414a	0.61037123
66	0xbf42cc4b	-0.76092976
67	0xbfa5e774	-1.2961259
68	0xbe02b820	-0.1276555
69	0x3f91c4f3	1.1388229
70	0xbf5badc2	-0.8581201
71	0xbeaee729	-0.34160736
72	0xc00a3754	-2.159627
73	0x3fbb946e	1.4654672
74	0x3f7b5429	0.98175293
75	0xbfa1b1c9	-1.2632381
76	0x3ed564df	0.4167852
77	0x402749e1	2.6138842
78	0x3e82e3ca	0.25564414
79	0x3e15760b	0.14595811
80	0x3f6a1c52	0.91449463
81	0x3ea48a0c	0.3213657
82	0x3fd660f4	1.6748338
83	0xbe890dbb	-0.26768288
84	0xc0118c56	-2.2741904
85	0x401eb7e1	2.479973
86	0xbf2af419	-0.66778713
87	0xbf9887f3	-1.1916488
88	0x3e1236dd	0.14278741
89	0xbf09a2f5	-0.5376428
90	0x3ed0aa90	0.4075513
91	0xbef42838	-0.47686934
92	0xbfc96d57	-1.5736493
93	0xbfb7a08c	-1.434587
94	0xbf335080	-0.7004471
95	0xbfefd528	-1.8736925
96	0xbfa620e1	-1.2978784
97	0x401dda95	2.4664662
98	0xbf90886a	-1.129163
99	0xbef5b976	-0.47993058
100	0xc0292cae	-2.643352
101	0x3eb14863	0.3462554
102	0xbfed61a1	-1.8545419
103	0xbe1fefc8	-0.15618813
104	0xbf3db0ce	-0.7409791
105	0x3ef91f62	0.48656756
106	0xbf5b188c	-0.8558433
107	0x3fe62443	1.7979816
108	0xbff13a5f	-1.8845938
109	0x3fb834ce	1.4391115
110	0xbf907cab	-1.1288046
111	0x3c974907	0.01846744
112	0x3f563e1d	0.8368853
113	0x3f8bbecc	1.0917602
114	0x3f33a762	0.7017728
115	0xbfa476dd	-1.2848774
116	0xc0132f0f	-2.2997472
117	0x40535548	3.3020802
118	0x3e8ec8c8	0.2788756
119	0x3ec86597	0.39140007
120	0xbf8de4ac	-1.108541
121	0xbf8dd2d3	-1.1079963
122	0xbf23f20a	-0.640412
123	0xbf459194	-0.7717526
124	0xbd72b6c5	-0.059256334
125	0x3f12a9f8	0.572906
126	0x3d8eac74	0.069664866
127	0x3ec86bf3	0.3914486
128	0xc0001d19	-2.001776
129	0x3f04866d	0.5176762
130	0x3eb3b5be	0.35099596
131	0x3f02c8b2	0.51087487
132	0xc011dbb2	-2.2790341
133	0x401f20a9	2.4863684
134	0xbfd2afff	-1.645996
135	0xbf5978c5	-0.84949905
136	0xbfe760ef	-1.8076457
137	0x4034b776	2.8236976
138	0xbf3537cf	-0.7078828
139	0xc008220e	-2.1270785
140	0xbfdcad1a	-1.7240326
141	0x3e5544d1	0.20827033
142	0xbd78a771	-0.06070656
143	0xbf0b1582	-0.54329693
144	0xc02e99c1	-2.7281344
145	0x3ee7bcd8	0.45261264
146	0xbf307254	-0.6892445
147	0xbfeabd90	-1.83391
148	0x3e44c755	0.19216664
149	0x3f6156b2	0.8802291
150	0xc014fdd9	-2.3279936
151	0x3e9eea33	0.31038055
152	0xbf9d1bf1	-1.2274152
153	0x3e90388a	0.28168136
154	0x3fc22567	1.5167664
155	0x3f8d3ead	1.1034752
156	0x3e92402a	0.28564578
157	0x40014dc6	2.020372
158	0xbfaac3d9	-1.3341018
159	0xbd881d25	-0.06646184
160	0xbd943356	-0.07236354
161	0x3fb19685	1.387406
162	0x3eef7c7c	0.46774662
163	0x3f4f4fb7	0.8098101
164	0xbf114ee7	-0.5676102
165	0x3fa09ec6	1.2548454
166	0xc002e997	-2.0455072
167	0xbf9ff875	-1.2497698
168	0xc018fdfd	-2.3905022
169	0x3f6a2568	0.9146333
170	0xbd83096e	-0.06398283
171	0xbfbff6eb	-1.4997228
172	0xbe8e8eed	-0.2784342
173	0x3fda588e	1.7058275
174	0xbecad276	-0.39613694
175	0xbf1444ac	-0.57917285
176	0xbf9af36f	-1.210554
177	0x3f6cac0b	0.92450017
178	0x3fbd0ebc	1.4770122
179	0xbec0faea	-0.37691432
180	0x3e83f13a	0.2576998
181	0xbe8c63be	-0.27419847
182	0xbfbda622	-1.4816325
183	0xbd1cd345	-0.03828742
184	0xbf8dc4d4	-1.1075692
185	0x3faf1c65	1.368054
186	0x3ff3ccb7	1.9046849
187	0xbe8f0e2a	-0.27940494
188	0xbf07c2dc	-0.53031707
189	0x4033244c	2.7990904
190	0x3d05117a	0.03248737
191	0x3fbac4c5	1.4591299
192	0xbf1f096a	-0.6212374
193	0x3fdaeb56	1.7103069
194	0x3eb8de83	0.36107263
195	0xbfbcb9f8	-1.4744253
196	0x3f81da69	1.0144778
197	0x3e45b460	0.19307089
198	0x3f316df3	0.69308394
199	0xbf25caf6	-0.6476282
200	0xbfe7574a	-1.8073514
201	0xbf49f50c	-0.78889537
202	0xbdbb3490	-0.09140885
203	0xbe812bc9	-0.25228718
204	0xbfe0c9a0	-1.7561531
205	0x3f71a66c	0.94394565
206	0xbe219bda	-0.15782109
207	0xbf17a0d5	-0.59229785
208	0xbfe52627	-1.7902268
209	0x3f62e0f4	0.886245
210	0x4019895e	2.3990092
211	0x3e9b6895	0.30353227
212	0x3e28ef10	0.16497445
213	0xbee38d48	-0.44443727
214	0xbf7bcae7	-0.9835648
215	0xbfd76dde	-1.6830404
216	0xc02446dd	-2.5668252
217	0xbde074fc	-0.10959813
218	0x3f9fd963	1.2488216
219	0xbe9632ab	-0.29335532
220	0xbfa3ddd8	-1.2802076
221	0xbf8a533d	-1.0806652
222	0xbfc7e763	-1.5617489
223	0xbfd13871	-1.634535
224	0x3f663355	0.89922076
225	0xbfc54150	-1.5410557
226	0x3f79ad6d	0.9753025
227	0xbea9f69b	-0.33195958
228	0x3d6f3da6	0.058408402
229	0x3f69eaa0	0.91373634
230	0x3fa43149	1.2827541
231	0x3dc99187	0.0984221
232	0xbe66bd6c	-0.22533196
233	0xbe2cc6ee	-0.1687276
234	0xbeddf8f4	-0.43354
235	0xbfd055cc	-1.6276183
236	0xbe820af7	-0.2539899
237	0xbf53da9e	-0.8275546
238	0x3fdd07c7	1.7267998
239	0xbf23f84a	-0.64050734
240	0xbf73a61b	-0.9517533
241	0x3ff34dd8	1.9008131
242	0x3fb4343b	1.407844
243	0x3f4c86a2	0.79892933
244	0xbf73aec8	-0.9518857
245	0xbfc5fa5d	-1.546703
246	0xbff5ffdd	-1.9218708
247	0xc0395416	-2.8957572
248	0x3f5a22d0	0.8520937
249	0x3ec16acf	0.377768
250	0x3f617a7f	0.8807754
251	0xbf116599	-0.5679565
252	0xbfae2e30	-1.3607845
253	0x3f945da4	1.1591077
254	0xbea120b1	-0.31470254
255	0xbf4ccc61	-0.7999936

embedding_item.weight f4 [8, 1024]
0	0x3c03d204	0.008045677
1	0x3e303187	0.17206393
2	0x3e18761a	0.14888802
3	0x3e84a2af	0.25905368
4	0x3df0906b	0.117462955
5	0x3e164530	0.1467483
6	0x3ac9b683	0.0015389476
7	0xbda258b9	-0.07927079
8	0x3e20beab	0.15697734
9	0xbe8d3500	-0.27579498
10	0xbd497800	-0.049186707
11	0x3d788b6b	0.060679834
12	0xbde83622	-0.1133845
13	0xbd74660a	-0.059667625
14	0xbca38c35	-0.019964317
15	0x3dc22eba	0.09481569
16	0xbeab230a	-0.3342517
17	0xbe1fa0d2	-0.15588692
18	0x3e6ac743	0.22927575
19	0xbe49e504	-0.19716269
20	0x3c0d1273	0.008610356
21	0xbdb36340	-0.08759165
22	0xbbedc825	-0.007256525
23	0xbd9b5a5e	-0.075855955
24	0x3d42fe1a	0.04760561
25	0xbd0095df	-0.03139293
26	0xbdabb8b3	-0.08384838
27	0xbd8fda91	-0.0702411
28	0xbc95e2bf	-0.018296598
29	0xbdba9f43	-0.09112408
30	0xbd2a9d34	-0.041653827
31	0xbc10179b	-0.0087946905
32	0xbde99eca	-0.1140724
33	0xbd4abe35	-0.0494978
34	0xbe33ce78	-0.1755923
35	0xbccd7e61	-0.025084676
36	0x3d5d7db2	0.05407495
37	0xbd4708cc	-0.048592374
38	0xbd9909a3	-0.07472541
39	0x3d9d3be3	0.07677438
40	0xbdd5379a	-0.10410996
41	0xbdbd4b6c	-0.09242901
42	0xbd9cda1e	-0.0765879
43	0xbd8742af	-0.06604516
44	0x3d87126e	0.06595312
45	0xbe1a4e1c	-0.15068859
46	0xbd44ea86	-0.04807522
47	0xbe8d5fe1	-0.27612212
48	0x3e9cce57	0.30626175
49	0xbe20d39b	-0.15705721
50	0xbd8f0667	-0.06983643
51	0xbe106b6d	-0.1410348
52	0xbd17f0dc	-0.037094936
53	0x3cedddaa	0.029036362
54	0x3e00214b	0.125127
55	0x3d9a45d5	0.07532851
56	0x3e20e461	0.1571212
57	0xbe7c8b7c	-0.24662584
58	0x3e4bc87a	0.19900694
59	0x3de8cff3	0.11367788
60	0xbdc7310b	-0.09726151
61	0xbd86e87f	-0.06587314
62	0x3ca194fb	0.01972436
63	0x3cef2664	0.02919311
64	0xbe39324c	-0.18085593
65	0x3d848f99	0.064727016
66	0xbde69e1a	-0.11260624
67	0x3e7754c6	0.24153432
68	0x3d3e398c	0.0464416
69	0xbd04db53	-0.032435726
70	0x3e7307e6	0.23733482
71	0x3d6ab801	0.057304386
72	0x3cf3e386	0.029771578
73	0xbd6233b9	-0.055225108
74	0x3daceaf8	0.08443254
75	0xbde4ddf2	-0.11175145
76	0xbe62312f	-0.22089075
77	0x3da2c7a6	0.07948236
78	0xbdea69d5	-0.11445967
79	0x3d8f560d	0.06998835
80	0xbdcb2a3b	-0.09920164
81	0xbea58204	-0.32325757
82	0x3df972ad	0.12180076
83	0x3db30aab	0.08742269
84	0xbd0e336a	-0.034717
85	0xbcfdd20f	-0.030983953
86	0x3e0fc40b	0.14039628
87	0xbe14fc93	-0.14549474
88	0x3def320b	0.11679467
89	0x3e0efe6b	0.1396424
90	0x3e0e1422	0.13874868
91	0x3eb20f17	0.34777138
92	0xbd4c20a4	-0.049835816
93	0xbed33e07	-0.4125826
94	0xbe914cb3	-0.2837883
95	0xbdc307a0	-0.09522939
96	0xbd9e6e6f	-0.07735907
97	0xbe293e84	-0.16527754
98	0xbd9e0c42	-0.07717182
99	0x3d6855c5	0.05672242
100	0x3dd5437b	0.104132615
101	0xbcd1b96c	-0.025601111
102	0x3d5b7f62	0.05358828
103	0x3dca8794	0.09889141
104	0xbde12216	-0.109928295
105	0xbe8fcdb6	-0.28086632
106	0xbe7156ae	-0.23568222
107	0x3dbae861	0.09126354
108	0x3d923bf5	0.07140342
109	0x3e0ba0c7	0.1363555
110	0xbdad33bf	-0.084571354
111	0xbddf1745	-0.1089311
112	0xbe2f428f	-0.17115234
113	0x3e601a5e	0.21885058
114	0xbd7920f5	-0.060822446
115	0xbe95a77b	-0.2922934
116	0xbdcd1a0f	-0.10014736
117	0xbdd2cbfb	-0.102928124
118	0x3bf87f1c	0.007583512
119	0x3de8543d	0.11344192
120	0xbd3ded10	-0.04636866
121	0x3d692d42	0.056927927
122	0xbd2b409a	-0.041809656
123	0xbe1daeca	-0.15398708
124	0xbe22867a	-0.15871611
125	0x3de74fcf	0.11294519
126	0x3e0a0aa8	0.13480628
127	0x3e98dde8	0.298568
128	0xbe168de7	-0.14702569
129	0x3da4290b	0.08015641
130	0x3d190a60	0.03736341
131	0x3e1e6e99	0.15471877
132	0x3d097d65	0.03356685
133	0x3dd5fd00	0.104486465
134	0xbca6389a	-0.020290662
135	0x3d4fd0a6	0.050736092
136	0x3dbaacf2	0.09115018
137	0x3e375c8d	0.17906399
138	0x3e4d94e5	0.2007633
139	0x3e7801e2	0.24219468
140	0x3bc45fa6	0.0059928475
141	0xbe138f48	-0.14410126
142	0x3c5b7991	0.013395683
143	0xbe6efc41	-0.23338415
144	0x3c8099a9	0.01569827
145	0x3e4f5373	0.20246677
146	0x3c9debdf	0.019277511
147	0xbe2ec5ee	-0.17067692
148	0x3d809487	0.06278329
149	0xbceb5ad4	-0.028729834
150	0x39cfaa6a	0.00039609085
151	0x3de93bf5	0.11388389
152	0x3e3ab96b	0.18234794
153	0xbd71eed4	-0.059065655
154	0x3df61a0f	0.12016689
155	0x3da1b24a	0.07895334
156	0x3e84540f	0.25845382
157	0x3d3b6240	0.045747995
158	0xbdc7a611	-0.097484715
159	0x3dae8db8	0.085231245
160	0x3da70b28	0.08156425
161	0xbca29710	-0.019847423
162	0x3a8b5400	0.0010629892
163	0xbe244a9d	-0.16044088
164	0x3d96b05b	0.07357856
165	0x3dad29ca	0.08455236
166	0x3b83c4bd	0.0040212558
167	0xbde0076c	-0.109389156
168	0x3e48dac7	0.19614707
169	0xbd6110ef	-0.05494779
170	0xbe1afc5a	-0.15135327
171	0x3e5828cf	0.21109317
172	0xbe23203d	-0.15930267
173	0xbd6cb84b	-0.057792943
174	0xbe18a032	-0.1490486
175	0xbe51ddf0	-0.20494819
176	0x3d7b5ede	0.06136977
177	0xbe795a8b	-0.24350946
178	0x3da1a6ca	0.078931406
179	0x3d94da22	0.07268168
180	0xbdc99f80	-0.09844875
181	0x3e2ffae2	0.17185548
182	0xbe4c3e07	-0.19945537
183	0xbdc67b6e	-0.09691511
184	0x3e19aa1f	0.15006302
185	0x3d023897	0.03179225
186	0x3e0fa41c	0.14027447
187	0x3d7211fe	0.05909919
188	0x3e561f46	0.20910367
189	0xbc91637d	-0.017747635
190	0xbe37d96f	-0.17954038
191	0x3c936186	0.017990839
192	0x39a81498	0.000320588
193	0x3d6a8e13	0.0572644
194	0xbed3377f	-0.41253278
195	0x3c8b34d3	0.016992962
196	0x3b44c1e4	0.0030022794
197	0x3d5f82bf	0.05456805
198	0x3d1df1a5	0.03856053
199	0x3e50018a	0.20313087
200	0xbce0746a	-0.02739926
201	0xbdacf038	-0.084442556
202	0xbe4d9974	-0.20078069
203	0xbe44ec71	-0.1923082
204	0xbe0386bf	-0.1284437
205	0x3ccc37a8	0.024928883
206	0xbd8ff93e	-0.07029961
207	0xbcbd5614	-0.023112334
208	0xbb9a9bd6	-0.004718284
209	0x3d9cf265	0.076634206
210	0x3d10a337	0.035311904
211	0x3c77b618	0.015119098
212	0x3e8d901e	0.27649015
213	0x3ad58c21	0.0016292372
214	0x3b9d0694	0.004792044
215	0x3eb3fc6b	0.35153517
216	0x3e1db8bf	0.15402506
217	0x3e35d151	0.17755629
218	0xbdce847d	-0.10083864
219	0x3e265c07	0.16246043
220	0x3dee39ea	0.1163214
221	0x3e0db7ba	0.13839617
222	0xbeaa579f	-0.33269975
223	0x3de8a994	0.113604695
224	0xbc9da55b	-0.019243887
225	0xbcbc4104	-0.02298022
226	0xbd4fcb9c	-0.050731286
227	0xbd3900a1	-0.045166615
228	0xbd1141fa	-0.03546331
229	0xbe3c399f	-0.18381356
230	0x3dccd7e6	0.10002117
231	0x3a92dde8	0.0011205049
232	0xbd840b99	-0.064475246
233	0x3ce85a5e	0.028363403
234	0x3e007058	0.12542856
235	0x3c87808e	0.016540792
236	0x3d83facc	0.0644432
237	0xbd3533f8	-0.044239014
238	0x3e38fa3d	0.18064208
239	0x3db19651	0.08671249
240	0xbc88a32a	-0.016679365
241	0x3e22142e	0.1582801
242	0xbdef2e93	-0.11678805
243	0x3e38780d	0.18014546
244	0x3d0ba55a	0.03409324
245	0xbeb09b45	-0.3449346
246	0x3dca71b9	0.09884972
247	0x3d7ee0fc	0.06222628
248	0xbe0b1ae0	-0.13584471
249	0xbe363ce2	-0.17796662
250	0x3e51135d	0.20417543
251	0xbd77f4b7	-0.060536113
252	0x3c179d1c	0.009253766
253	0x3e9436d0	0.2894807
254	0x3d7e56b7	0.062094416
255	0x3dd65b7f	0.1046667

embedding_item.bias f4 [8]
0	0xbe696163	-0.22791056
1	0x3e3b73d8	0.1830591
2	0xbe39143d	-0.18074127
3	0xbe44ec2f	-0.19230722
4	0x3e61cfd2	0.22051933
5	0x3e313a30	0.17307353
6	0xbe6a71de	-0.22895
7	0xbe477ab4	-0.19480401

affine_output.weight f4 [1, 8]
0	0xbdf40039	-0.11914105
1	0xbdf27d13	-0.11840262
2	0x3e01eb80	0.12687492
3	0xbe1e0b8e	-0.15434095
4	0x3e180fd2	0.14849785
5	0xbe34d90b	-0.1766092
6	0xbdddfcd0	-0.10839236
7	0xbe0c2a03	-0.13687901
