neural-collaborative-filtering/src/checkpoints/gmf_factor8neg4-implict_Epoch74_HR1.0000_NDCG0.8379.model (torch, 281278 bytes, 4 tensors)

embedding_user.weight f4 [7700, 8]
000000 bc 57 e8 3e 24 f7 1f bf 2f 43 f5 be 91 06 97 3f
       0.45379436 -0.6248648 -0.4790282 1.1798879
000010 87 93 0a bf b9 d5 e6 3f 09 0b 91 bf e9 1e 8c bf
       -0.5413136 1.8033973 -1.1331493 -1.0946933
000020 f3 3e b9 bf 4b 83 64 3e cc 40 81 3f 7a b9 8a 3d
       -1.4472336 0.2231571 1.00979 0.06773658
000030 c1 72 df bf 0f 08 c7 3e c0 32 cd 3e 19 8d 16 3e
       -1.7456895 0.38873336 0.40077782 0.14702262
000040 6d e4 dc bf 39 ac 0c 3f e3 5f 29 bc e7 1b a7 3f
       -1.725721 0.5495029 -0.010337803 1.305539
000050 0a f0 26 40 6c 13 4a 3f e8 ef 17 c0 58 75 5d bf
       2.6084008 0.78935885 -2.3740177 -0.8650718
000060 83 23 ad bf f7 ec a7 3f fc 30 fe 3f 37 1f 96 3f
       -1.3526462 1.3119191 1.9858699 1.1728276
000070 aa f9 a7 be 8c ea 02 40 27 f9 9b bf e3 f6 76 bf
       -0.32807666 2.0455656 -1.218541 -0.9647047
000080 72 51 4a bd cd d2 77 be a3 c0 a7 bd f0 15 a6 3d
       -0.04939408 -0.24201508 -0.081910394 0.08109653
000090 ed a2 0d bf 53 9e 84 3f 8f b0 3c bf bc af dc bf
       -0.5532673 1.0360817 -0.7370691 -1.724113
0000a0 e7 0e 33 c0 29 2a a5 3f 04 10 58 40 8f 79 02 bf
       -2.7977846 1.2903491 3.3759775 -0.50966734
0000b0 f6 4d 4f c0 68 b5 bd 3d c5 db 32 3e 0d f8 70 bf
       -3.2391334 0.09263116 0.17466648 -0.94128495
0000c0 1a 76 83 bf 9a 37 7a bf 65 e0 98 be 94 0e 26 3f
       -1.0270417 -0.9774109 -0.298587 0.64865994
0000d0 90 bf 02 bf 18 d6 ed 3f 07 24 0d bf c1 13 82 bf
       -0.5107355 1.8580961 -0.551331 -1.0162278
0000e0 2a e0 ac 3e c0 7a ed bd 84 96 67 3f 79 67 d8 3f
       0.33764774 -0.11595678 0.90464044 1.6906577
0000f0 ad 8c 3c bf 55 80 05 3f 60 0f 11 3f 97 6d 29 c0
       -0.73652154 0.52148944 0.56664085 -2.6473138
000100 71 83 90 3f c4 ce 1f 3f 71 fb 3f bf 6a e6 a6 bf
       1.1290113 0.62424874 -0.74993044 -1.3039067
000110 46 c8 e3 bd 61 f2 87 3f b2 39 5e bf 19 f0 a7 be
       -0.111221835 1.0620843 -0.86806786 -0.32800367
000120 bb 8a 09 c0 0c 77 b6 3f cd e4 81 3f 65 ac a8 bf
       -2.1490924 1.425508 1.014795 -1.3177611
000130 c7 36 e4 3e 2e af 2c 40 1e 3b 6c 3e 67 e5 d8 3d
       0.44573042 2.6981921 0.23069426 0.1059063
000140 a9 e6 62 3f 10 84 ad 3e 80 b8 e0 3f 5f 9d 98 be
       0.8863321 0.33889818 1.7556305 -0.29807565
000150 5b 29 12 c0 66 34 1c 40 24 37 37 bf 9d ed 9d bf
       -2.2837741 2.4406981 -0.7156851 -1.2338139
000160 06 ee 11 3e 80 90 09 bf 14 8e d6 3e 80 6f 09 bf
       0.14250955 -0.53736115 0.41905272 -0.5368576
000170 e1 e1 d2 bf d3 45 bb bf 94 f0 2e bf 68 85 f6 bf
       -1.6475183 -1.4630684 -0.68335843 -1.9259462
000180 85 05 b1 bf 5b 34 22 40 3d c4 91 bf f5 43 ef be
       -1.382981 2.5344455 -1.1388012 -0.46731535
000190 b6 06 2e c0 10 32 d8 3e eb d3 f1 bf 42 34 e3 bd
       -2.7191596 0.42225695 -1.8892797 -0.11093952
0001a0 76 48 2b bf 91 95 e0 3e 93 b6 4c bf 48 15 ee 3f
       -0.6690744 0.4386411 -0.79966086 1.8600245
0001b0 ef e3 f1 bf 74 c8 b9 3f 7e aa 90 bf 2d a2 09 bd
       -1.8897685 1.4514298 -1.130203 -0.03360193
0001c0 a9 29 55 3f f1 e3 8b 3f f7 17 30 3f 50 8e a5 bf
       0.83266693 1.0928937 0.6878657 -1.2934055
0001d0 00 54 13 c0 23 a2 53 40 c8 1e 90 3e 90 46 d4 3e
       -2.302002 3.306771 0.28148484 0.41460085
0001e0 ac e4 8d bf d3 d2 8d bf 0a f2 23 bf 94 91 45 bf
       -1.108541 -1.1079963 -0.640412 -0.7717526
0001f0 c5 b6 72 bd f8 a9 12 3f 74 ac 8e 3d f3 6b c8 3e
       -0.059256334 0.572906 0.069664866 0.3914486
000200 10 f6 00 c0 60 3d f4 3e 4e c7 a1 3e 10 45 de 3e
       -2.0150185 0.47703075 0.3159737 0.43412066
000210 24 ff 16 c0 9f 53 24 40 74 ad c8 bf 9f 84 4a bf
       -2.3593225 2.5676038 -1.5677934 -0.79108614
000220 0b 3a ed bf 70 53 37 40 70 d4 36 bf fd 53 07 c0
       -1.8533338 2.8644676 -0.71417904 -2.1145012
000230 09 09 e2 bf 21 21 55 3e dd c0 a6 bd 4a 0e 01 bf
       -1.7659007 0.20813419 -0.081422545 -0.5041243
000240 f2 54 31 c0 9f 32 f3 3e 70 a5 30 bf f1 58 e8 bf
       -2.7708097 0.47499558 -0.6900244 -1.8152143
000250 70 f0 26 3e 92 5c 6d 3f 9f 7e 16 c0 79 2d ab 3e
       0.16302657 0.92719376 -2.3514783 0.3343313
000260 7d 20 96 bf d8 ac 69 3e 72 37 cb 3f 6e 9d 86 3f
       -1.1728665 0.22819841 1.5876296 1.0516794
000270 75 c2 b1 3e cf 46 03 40 b6 56 ac bf 97 e5 1f be
       0.3471867 2.0511968 -1.3463962 -0.15614925
000280 c9 6e f8 bd 31 80 ba 3f 8d a9 08 3f 29 70 62 3f
       -0.121305056 1.4570371 0.53383714 0.8845239
000290 cd c0 23 bf bb 66 98 3f 1b d4 09 c0 cc f7 a4 bf
       -0.63966066 1.1906351 -2.153571 -1.2888122
0002a0 db de 16 c0 5a df 5c 3f 42 f0 18 bd be 84 c7 bf
       -2.357352 0.8627831 -0.037338503 -1.5587385
0002b0 32 29 72 be 15 31 e5 3f 33 9c d2 be 2b 30 1d bf
       -0.23648527 1.7905604 -0.41134796 -0.61401623
0002c0 43 2d 96 bf 5e b4 71 3f ba e6 c4 3f 38 d4 ac be
       -1.1732563 0.94415843 1.5382912 -0.3375566
0002d0 3f 58 63 3e d3 6b 9e be 31 56 c7 bf fc 63 dd bd
       0.22201632 -0.30941638 -1.5573179 -0.10810086
0002e0 45 34 9a bf 48 42 b8 3f 43 f1 f6 3f e0 41 97 be
       -1.2047201 1.4395227 1.9292377 -0.29542446
0002f0 ae c4 1a bf 02 17 35 40 2f 8c 51 bd 78 53 ba 3f
       -0.6045636 2.8295293 -0.05115908 1.4556723
000300 4a 1a 26 bf a3 6c e0 3f 9e 03 98 3e c3 e2 bc bf
       -0.64883864 1.7533153 0.2969026 -1.4756702
000310 11 02 85 3f d9 65 4d 3e 9b ca 2e 3f 8f a2 1c bf
       1.0391256 0.20058383 0.682779 -0.61185545
000320 58 1c e7 bf 4b 07 4e bf 63 6f b1 bd b3 6e a2 be
       -1.8055525 -0.8047988 -0.086638235 -0.31725082
000330 07 b7 e5 bf 67 7d 85 3f 9d 78 1f be c5 de 1f bf
       -1.794648 1.0428895 -0.15573354 -0.62449294
000340 ff 42 e8 bf 03 e0 6a 3f d9 d3 1d 40 8e 6d b4 3e
       -1.8145446 0.91748065 2.4660552 0.35239834
000350 9c 77 f4 3d 66 16 d1 be 00 1a 85 bf eb bc db bf
       0.11936876 -0.408374 -1.039856 -1.7167028
000360 c7 2d 27 c0 b3 16 68 bd 9b 35 a7 3f e5 85 64 be
       -2.612169 -0.056662273 1.3063234 -0.22316702
000370 9b 00 ac bf fe 69 90 bf 46 ae d0 bf 0b f4 d4 bf
       -1.3437685 -1.1282346 -1.6303184 -1.6636976
000380 55 33 66 3f 50 41 c5 bf 6d ad 79 3f 9b f6 a9 be
       0.89922076 -1.5410557 0.9753025 -0.33195958
000390 a6 3d 6f 3d a0 ea 69 3f 49 31 a4 3f 87 91 c9 3d
       0.058408402 0.91373634 1.2827541 0.0984221
0003a0 6c bd 66 be ee c6 2c be f4 f8 dd be cc 55 d0 bf
       -0.22533196 -0.1687276 -0.43354 -1.6276183
0003b0 f7 0a 82 be 9e da 53 bf c7 07 dd 3f 4a f8 23 bf
       -0.2539899 -0.8275546 1.7267998 -0.64050734
0003c0 02 a7 7d bf 06 56 fe 3f cc 03 b9 3f b3 95 53 3f
       -0.9908296 1.9870002 1.4454284 0.826503
0003d0 ec 94 80 bf 57 f1 c4 bf b2 8e fa bf 48 db 37 c0
       -1.0045447 -1.5386151 -1.9574797 -2.8727589
0003e0 61 18 5a 3f 93 de bd 3e d9 02 72 3f 38 34 0c bf
       0.8519345 0.37083873 0.94535595 -0.5476718
0003f0 d1 39 bd bf 1e 25 92 3f ea d2 ac be 68 15 58 bf
       -1.4783269 1.1417577 -0.33754665 -0.84407663

embedding_item.weight f4 [8, 1024]
000000 ad 96 94 3b 0f 47 30 3e db bd 10 3e 6b 46 8c 3e
       0.0045345635 0.17214607 0.14134924 0.27397475
000010 c2 a1 f5 3d 5e 05 16 3e 1a 61 b4 3b a9 12 af bd
       0.119937435 0.14650485 0.0055047395 -0.08548481
000020 49 3e 1d 3e 50 21 90 be a9 c4 5d bd 02 ed 8f 3d
       0.15355791 -0.28150415 -0.054142628 0.070276275
000030 2f c6 ea bd 8c 4a 5b bd 53 2c df bc 71 bb d4 3d
       -0.11463582 -0.05353789 -0.027242815 0.10387314
000040 49 20 b5 be 10 8f 22 be 1b 5f 6a 3e b3 76 46 be
       -0.35376194 -0.15874887 0.22887842 -0.19381218
000050 80 74 a4 3c a7 4d a7 bd 63 bf 18 bc 6b 3f b5 bd
       0.020075083 -0.08169108 -0.009322974 -0.08849987
000060 78 ea 5a 3d 08 cc 1f bd be fd b5 bd 5c d2 a0 bd
       0.053446263 -0.03901294 -0.08886288 -0.07852623
000070 02 fc 93 bc f8 97 cc bd cf 0e 31 bd 41 84 92 bb
       -0.018064503 -0.09989923 -0.043227013 -0.0044713323
000080 4f 30 03 be 8c 48 18 bd 89 33 2c be fc ef c4 bc
       -0.12811397 -0.03717856 -0.16816534 -0.024040215
000090 31 08 5f 3d cb 34 3e bd f8 3e a3 bd 66 59 bd 3d
       0.05445117 -0.046437066 -0.07970995 0.09245567
0000a0 8f 17 02 be 98 96 be bd b4 bb aa bd 9f 2a 7f bd
       -0.127043 -0.09306067 -0.08336583 -0.062296506
0000b0 1b 59 8f 3d ea 80 25 be be f6 41 bd 45 25 8f be
       0.069994174 -0.16162458 -0.047354452 -0.27958122
0000c0 be 76 9d 3e ec d6 25 be cf 5a 9f bd be 21 16 be
       0.30754656 -0.16195267 -0.07780992 -0.14661309
0000d0 d8 63 41 bd e4 4d d5 3c 8d 25 e9 3d 9b 48 9c 3d
       -0.04721436 0.026038118 0.11384115 0.07631036
0000e0 a4 06 2a 3e b9 7e 78 be 0b 9e 40 3e 10 3e fd 3d
       0.16604096 -0.24267091 0.18810289 0.12365353
0000f0 7a 7b d3 bd 9a 8e 7f bd fb 20 af 3c 36 07 1e 3d
       -0.10326286 -0.062391855 0.021378031 0.038581096
000100 82 42 50 be 7f 16 82 3d 88 67 ed bd 15 fb 76 3e
       -0.2033787 0.06351947 -0.11592013 0.24119218
000110 9d 96 43 3d 3e a7 03 bd 36 db 7e 3e d6 e7 8a 3d
       0.047751058 -0.032141916 0.2488831 0.067825004
000120 8f 45 eb 3c 3c 78 5c bd 97 56 bd 3d d8 61 f9 bd
       0.028719692 -0.053825602 0.09245031 -0.12176865
000130 c0 4d 72 be 08 7f ad 3d 69 4c 06 be b9 87 80 3d
       -0.23662472 0.08471495 -0.13115086 0.06275887
000140 2b 36 bd bd aa 16 ad be 4e 65 ea 3d b3 64 95 3d
       -0.09238847 -0.33806354 0.114451036 0.072945975
000150 36 56 0c bd ec 79 14 bd ad e1 05 3e 51 39 24 be
       -0.034261905 -0.036249086 0.1307437 -0.1603749
000160 7f 32 03 3e c8 f1 0c 3e b1 d6 24 3e 42 38 b5 3e
       0.12812231 0.13764107 0.16097523 0.35394484
000170 0d 59 43 bd f2 17 d5 be 6e 43 94 be 20 81 af bd
       -0.047692347 -0.4161983 -0.28957695 -0.085695505
000180 54 19 a6 bd a0 8a 3d be ac a3 98 bd 56 5d 7d 3d
       -0.081103 -0.18509912 -0.07453093 0.06185659
000190 84 15 d5 3d 31 05 b9 bc b1 ef 87 3d 87 27 d8 3d
       0.104044944 -0.022585483 0.066375144 0.10554414
0001a0 9f b3 f5 bd 92 52 91 be aa 1c 65 be 56 f3 c9 3d
       -0.11997151 -0.2838331 -0.22374216 0.09860866
0001b0 d9 7b 9c 3d 01 6d 12 3e 40 03 b8 bd 90 c6 e0 bd
       0.076408096 0.14299394 -0.08984995 -0.10975373
0001c0 d6 35 2c be 62 9c 62 3e fd 80 80 bd c4 27 9b be
       -0.16817412 0.22129968 -0.062746026 -0.30303776
0001d0 41 d9 e8 bd 78 6e e8 bd 55 ff a1 3b 3d 8c 0b 3e
       -0.11369563 -0.11349195 0.004943768 0.13627715
0001e0 d6 54 29 bd af 08 53 3d e2 74 25 bd 89 cb 28 be
       -0.04134067 0.051521953 -0.04039467 -0.16483893
0001f0 73 e7 22 be 32 1a e5 3d 22 77 09 3e 63 3d 9f 3e
       -0.15908603 0.11186637 0.13424352 0.31101522
000200 ac 33 13 be 5b 47 b7 3d 40 4a 21 3d 9d eb 1b 3e
       -0.1437518 0.08949157 0.03937745 0.15226598
000210 da e3 39 3d 5c 70 cf 3d a5 f9 cc bc 5a 15 85 3d
       0.04538331 0.10128853 -0.025021384 0.06498213
000220 cb 1b a6 3d fd 2a 3c 3e d5 05 37 3e 46 79 7f 3e
       0.0811077 0.18375774 0.17873318 0.24948606
000230 16 02 d4 bb a9 5d 11 be 97 b7 9c 3c 28 7c 64 be
       -0.006469975 -0.14195885 0.019130511 -0.22312987
000240 b8 a3 09 3b 6d ac 45 3e 62 2c ab 3b ea 71 2e be
       0.0021002125 0.19304056 0.0052237967 -0.17035642
000250 53 a2 74 3d 8f 03 16 bd 4d 4b ad 3b b0 11 e4 3d
       0.059725117 -0.036624487 0.0052885176 0.11136186
000260 0b db 37 3e da a3 7b bd 35 ae e1 3d 70 d3 8a 3d
       0.17954652 -0.061435558 0.110195555 0.0677861
000270 3d 04 8b 3e 53 e4 3c 3d c4 53 d9 bd cc 89 da 3d
       0.2715167 0.046116184 -0.1061168 0.10670814
000280 73 aa b6 3d da 5c 66 bc 24 de 3a 3c 68 a9 30 be
       0.08919229 -0.0140602235 0.0114055015 -0.17252123
000290 08 b3 94 3d 4d e6 ab 3d c6 06 e7 3b d8 3b d1 bd
       0.0726071 0.08393536 0.007050368 -0.102164924
0002a0 ce 98 3e 3e 39 c0 4b bd 91 97 2d be 79 a0 62 3e
       0.18612978 -0.049743865 -0.16952349 0.22131528
0002b0 96 84 28 be 85 a2 80 bd 7b de 24 be f8 49 4f be
       -0.16456828 -0.06280998 -0.16100495 -0.2024306
0002c0 cb 2d 71 3d 3b 61 81 be e0 2a 7c 3d f3 af 81 3d
       0.058881562 -0.25269493 0.061564326 0.06332388
0002d0 7f 7f c8 bd 80 b9 48 3e 0e 21 4e be 5d 03 c4 bd
       -0.09789943 0.19602013 -0.20129797 -0.09570954
0002e0 f2 10 19 3e a8 07 20 3d 82 0d 12 3e 87 52 42 3d
       0.1494787 0.0390698 0.14262965 0.047441985
0002f0 20 db 5c 3e fb fb 9e bc 7c 14 42 be 2b cb 92 3c
       0.21567965 -0.019407263 -0.18953127 0.017919144
000300 64 3e 31 bc 0d 4c 7b 3d a1 58 e0 be b4 8e 18 3d
       -0.010818098 0.061351825 -0.43817618 0.037245467
000310 d1 9b 64 3b a6 ee 6c 3d 6d 3b 25 3d ad b0 53 3e
       0.0034882913 0.05784478 0.040339876 0.20672865
000320 93 a4 9f bc 77 b4 c0 bd 3d 08 59 be af 75 4b be
       -0.019487655 -0.09409421 -0.21194549 -0.19869111
000330 22 f9 11 be de dc 4d 3c 37 11 8f bd 5a 20 9c bc
       -0.14255193 0.012564866 -0.06985705 -0.019058395
000340 f8 12 fe bb c0 2e 95 3d d9 49 00 3d 3d ff 68 3c
       -0.007753726 0.072843075 0.031320427 0.01422101
000350 2a 10 91 3e 16 68 8b 3c ce f7 aa 3c b3 e7 b4 3e
       0.28332645 0.017017405 0.020870116 0.35333022
000360 21 d0 24 3e c1 c8 3f 3e 79 cd ef bd 54 e5 38 3e
       0.1609502 0.18728925 -0.11709113 0.18056232
000370 46 be 02 3e ec c9 10 3e 6a bd aa be 6b cc e6 3d
       0.12767896 0.14139527 -0.33347636 0.112694584
000380 d8 77 32 bc a5 0d 9c bc 0d 50 61 bd 66 9c 19 bd
       -0.010892831 -0.019049475 -0.055007983 -0.03750267
000390 de 3d f8 bc 38 ce 44 be 00 83 d2 3d 8e 32 53 bb
       -0.030302938 -0.19219291 0.102788925 -0.0032226178
0003a0 85 0e ac bd 70 49 e2 3c 2e b1 0f 3e db 67 37 3c
       -0.08401207 0.027622908 0.14032432 0.011194195
0003b0 68 f8 8b 3d 38 f5 66 bd 81 ef 43 3e 2d 48 b0 3d
       0.06834489 -0.056386203 0.19134332 0.086075164
0003c0 36 c5 ad ba c9 e4 23 3e 31 18 fe bd a6 fe 44 3e
       -0.0013257626 0.16005243 -0.12406958 0.19237766
0003d0 bc 6e 18 3d 17 e0 b9 be 0e ed dc 3d 1f 8f 6a 3d
       0.03721498 -0.3630378 0.10787402 0.057265397
0003e0 16 54 14 be e5 af 46 be 64 77 4b 3e ee 06 90 bd
       -0.14485201 -0.19403036 0.19869763 -0.07032572
0003f0 c0 c1 ca 3c 8c 86 9a 3e d3 0a 97 3d 83 0e e2 3d
       0.02475059 0.30180776 0.073751114 0.11037924

embedding_item.bias f4 [8]
000000 1b 4b 6e be f3 2d 43 3e b5 19 3a be fb 79 4a be
       -0.23270838 0.19060497 -0.18173869 -0.19773094
000010 ad ac 69 3e 2f 42 2e 3e d3 1e 6e be c3 93 4a be
       0.22819777 0.17017435 -0.23253946 -0.19782929

affine_output.weight f4 [1, 8]
000000 01 2a f2 bd 53 71 ef bd ff 69 fa 3d 04 cb 1e be
       -0.11824418 -0.11691537 0.122272484 -0.15507132
000010 ea c8 12 3e bc ab 34 be 23 a1 d8 bd eb 45 07 be
       0.14334455 -0.17643636 -0.105776094 -0.13210265
