neural-collaborative-filtering/src/checkpoints/gmf_factor8neg4-implict_Epoch45_HR1.0000_NDCG0.8384.model (torch, 281278 bytes, 4 tensors)

embedding_user.weight f4 [7700, 8]
0.45379436 -0.6248648 -0.4790282 1.1798879 -0.5413136 1.8033973 -1.1331493 -1.0946933
-1.4472336 0.2231571 1.00979 0.06773658 -1.7456895 0.38873336 0.40077782 0.14702262
-1.725721 0.5495029 -0.010337803 1.305539 2.6084008 0.78935885 -2.3740177 -0.8650718
-1.132157 0.8332034 1.5119438 0.5909738 0.15286088 2.6355584 -0.44952154 -0.6313286
-0.21549067 -0.09686136 -0.06091739 0.37546888 -0.38968596 1.1416914 -0.91017365 -1.5211678
-3.0432675 1.4697977 2.668808 -0.92960715 -2.4540067 -0.02005293 0.5713899 -0.45408115
-0.78551275 -1.2210307 -0.22423908 0.78187984 -0.58616835 2.0842593 -0.62379104 -1.166366
0.25742087 0.14953817 1.3013996 2.0848482 -0.458259 0.3880042 0.35990238 -2.4462438
1.2252492 0.5231556 -0.8907295 -1.1553108 -0.18639742 1.3940861 -0.7636319 -0.33080748
-2.3181977 1.7790307 1.0193108 -0.8177545 0.13806173 2.0539975 0.14249289 0.24132212
0.9331074 0.35855904 1.2441269 -0.28379267 -2.064202 2.4708655 -0.46853605 -0.945616
0.096547455 -0.4805922 0.4794678 0.00500522 -1.2421999 -1.1565199 -0.8813561 -1.6346538
-0.78808975 1.8867806 -0.82438064 -0.31563354 -2.0926988 -0.008891524 -1.9226438 -0.5114293
-1.0793769 0.69358903 -1.2189529 1.4226029 -1.5524894 1.3167454 -1.0824045 0.34475258
1.1031091 0.85675377 0.7125478 -1.0838202 -2.1041293 3.2067828 0.45756117 0.2910084
-1.108541 -1.1079963 -0.640412 -0.7717526 -0.059256334 0.572906 0.069664866 0.3914486
-1.937718 0.8134045 0.5530034 1.1079113 -1.7492492 1.8864762 -2.2215455 -1.2109152
-1.4199893 2.4935052 -0.5249083 -2.0801606 -1.4335685 -0.08035109 -0.011024085 -0.8035311
-2.2610238 0.06891449 -0.6730231 -1.6614519 0.5009925 0.52740026 -2.1567266 0.18504311
-1.6394544 0.6232276 0.9951467 1.3948607 -0.04486898 1.8511883 -1.0845232 0.5410233
0.16413625 0.9321773 -0.0071441666 0.3546545 -0.11544437 1.7850137 -1.3739275 -0.9029189
-2.5784616 1.2523713 -0.16569607 -1.1022018 -0.5336438 1.1165171 -0.4415679 -0.42613596
-1.4830729 0.7814391 1.014863 -0.7533681 0.40698317 -0.038769096 -0.89069486 0.4151105
-0.67491156 1.1064914 2.2074244 -0.128451 -0.28162912 2.6327171 0.026371235 1.1328976
-0.33213183 1.4182435 0.68746096 -1.4704105 1.021618 0.17454056 0.81364626 -0.7808029
-2.0147405 -0.45695 0.19447549 0.2006473 -1.5509477 0.21527414 -0.54062366 -0.81294614
-1.6330438 0.6361232 1.9687791 0.25028336 0.4336841 -0.49602422 -0.5551904 -1.2719992
-2.3235843 -0.5148274 0.8596673 -0.77842164 -0.85184914 -0.65267396 -0.93582666 -1.3969835
0.89922076 -1.5410557 0.9753025 -0.33195958 0.058408402 0.91373634 1.2827541 0.0984221
-0.22533196 -0.1687276 -0.43354 -1.6276183 -0.2539899 -0.8275546 1.7267998 -0.64050734
-0.5032394 1.4844283 1.102979 0.44820866 -0.48867342 -1.5811737 -1.5096879 -2.8229027
0.58316845 0.62429583 0.62800574 -0.9379582 -0.5634405 0.8897297 -0.37015015 -0.68989885
00000000: bc57 e83e 24f7 1fbf 2f43 f5be 9106 973f
00000010: 8793 0abf b9d5 e63f 090b 91bf e91e 8cbf
00000020: f33e b9bf 4b83 643e cc40 813f 7ab9 8a3d
00000030: c172 dfbf 0f08 c73e c032 cd3e 198d 163e
00000040: 6de4 dcbf 39ac 0c3f e35f 29bc e71b a73f
00000050: 0af0 2640 6c13 4a3f e8ef 17c0 5875 5dbf
00000060: 85ea 90bf d14c 553f 6087 c13f 0f4a 173f
00000070: 9087 1c3e fdac 2840 b027 e6be c09e 21bf
00000080: 96a9 5cbe 405f c6bd 8384 79bd 753d c03e
00000090: eb84 c7be f222 923f 2401 69bf a0b5 c2bf
000000a0: e5c4 42c0 5522 bc3f c0cd 2a40 bcfa 6dbf
000000b0: 720e 1dc0 0b46 a4bc 9c46 123f 537d e8be
000000c0: 5d17 49bf bc4a 9cbf ee9e 65be 4729 483f
000000d0: 210f 16bf 8164 0540 c5b0 1fbf 7b4b 95bf
000000e0: abcc 833e 8920 193e 4394 a63f 276e 0540
000000f0: eca0 eabe 7da8 c63e 2045 b83e 428f 1cc0
00000100: f7d4 9c3f 87ed 053f d906 64bf 39e1 93bf
00000110: f7de 3ebe 6a71 b23f 617d 43bf 995f a9be
00000120: 5a5d 14c0 47b7 e33f c778 823f 5c58 51bf
00000130: 0e60 0d3e b274 0340 a8e9 113e 251d 773e
00000140: 20e0 6e3f 0d95 b73e 8d3f 9f3f 464d 91be
00000150: e31b 04c0 a922 1e40 f5e3 efbe e413 72bf
00000160: acba c53d 2e10 f6be ce7c f53e d402 a43b
00000170: 6800 9fbf d808 94bf 8ea0 61bf 563c d1bf
00000180: 40c0 49bf 0782 f13f 9c0a 53bf b89a a1be
00000190: c7ee 05c0 c1ad 11bc 3119 f6bf 08ed 02bf
000001a0: 0629 8abf 0d8f 313f a606 9cbf da17 b63f
000001b0: f9b7 c6bf 1d8b a83f 3b8c 8abf 6983 b03e
000001c0: ae32 8d3f 3754 5b3f 8869 363f 9fba 8abf
000001d0: 0eaa 06c0 ee3b 4d40 7545 ea3e 0eff 943e
000001e0: ace4 8dbf d3d2 8dbf 0af2 23bf 9491 45bf
000001f0: c5b6 72bd f8a9 123f 74ac 8e3d f36b c83e
00000200: 2507 f8bf 473b 503f a191 0d3f 0ad0 8d3f
00000210: 66e7 dfbf 0d78 f13f cd2d 0ec0 45ff 9abf
00000220: 36c2 b5bf 9795 1f40 6460 06bf 5a21 05c0
00000230: 2c7f b7bf 1d8f a4bd 5d9e 34bc 37b4 4dbf
00000240: 9db4 10c0 0a23 8d3d 3e4b 2cbf 75aa d4bf
00000250: 0b41 003f b403 073f cf07 0ac0 f17b 3d3e
00000260: a4d9 d1bf d88b 1f3f efc1 7e3f cc8a b23f
00000270: 89c8 37bd bdf3 ec3f a8d1 8abf 8180 0a3f
00000280: 5513 283e 2ca3 6e3f 9d19 eabb 4695 b53e
00000290: 196e ecbd 547b e43f dbdc afbf b125 67bf
000002a0: 8405 25c0 b44d a03f 3bac 29be f314 8dbf
000002b0: e19c 08bf 08ea 8e3f 3015 e2be 7e2e dabe
000002c0: 55d5 bdbf 650c 483f 08e7 813f bbdc 40bf
000002d0: 1960 d03e 58cc 1ebd 9404 64bf 5d89 d43e
000002e0: 01c7 2cbf 83a1 8d3f 7146 0d40 a988 03be
000002f0: b131 90be 707e 2840 7d08 d83c ca02 913f
00000300: 2f0d aabe 0189 b53f 71fd 2f3f 6936 bcbf
00000310: 61c4 823f c3ba 323e 1f4b 503f b3e2 47bf
00000320: 82f1 00c0 5af5 e9be 9524 473e 7c76 4d3e
00000330: 7485 c6bf d370 5c3e 5066 0abf 3d1d 50bf
00000340: 9407 d1bf f8d8 223f f400 fc3f 2425 803e
00000350: d80b de3e e3f6 fdbe f520 0ebf dfd0 a2bf
00000360: 9bb5 14c0 bacb 03bf 2813 5c3f a446 47bf
00000370: c912 5abf a415 27bf 5692 6fbf 5bd0 b2bf
00000380: 5533 663f 5041 c5bf 6dad 793f 9bf6 a9be
00000390: a63d 6f3d a0ea 693f 4931 a43f 8791 c93d
000003a0: 6cbd 66be eec6 2cbe f4f8 ddbe cc55 d0bf
000003b0: f70a 82be 9eda 53bf c707 dd3f 4af8 23bf
000003c0: 4cd4 00bf bf01 be3f 6a2e 8d3f 9b7b e53e
000003d0: 6733 fabe e663 cabf 743d c1bf 70aa 34c0
000003e0: 874a 153f dad1 1f3f fcc4 203f 071e 70bf
000003f0: a33d 10bf 53c5 633f 5284 bdbe 369d 30bf

embedding_item.weight f4 [8, 1024]
0.031482134 0.15100652 0.11629481 0.17302936 0.0796808 0.088391855 0.032737624 -0.04066982
0.107116126 -0.18430978 -0.041195657 0.07774238 -0.0719941 -0.0697843 0.007081505 0.06788281
-0.2825656 -0.10406626 0.20334056 -0.17917563 -0.008352848 -0.07724326 -0.05723904 -0.02824458
-0.006511193 -0.03152605 -0.065148324 -0.034153227 -0.027174646 -0.060410503 -0.025998438 -0.014424661
-0.0751836 -0.06434588 -0.13489904 -0.031039307 0.052639525 -0.06190999 -0.061172348 0.068109505
-0.07590499 -0.073298596 -0.08639371 -0.003844351 0.022892991 -0.09326124 -0.0143349245 -0.23017445
0.2339432 -0.12929559 -0.05855811 -0.07627368 -0.012792801 0.02882438 0.08232372 0.051084496
0.12630677 -0.23784985 0.19576259 0.1092798 -0.10063139 -0.11046557 -0.020968804 0.020752035
-0.117143944 0.02717177 -0.09447164 0.18464047 -0.0025156322 -0.029438239 0.18199474 0.049684808
0.011830569 -0.014601542 0.0897145 -0.05090973 -0.19596896 0.053137753 -0.095786154 0.07595279
-0.07048452 -0.25500178 0.06947471 0.08927727 -0.012946503 -0.014450428 0.11107501 -0.12028795
0.039824713 0.1592123 0.09210686 0.28149495 -0.055063345 -0.37199044 -0.21426147 -0.101900876
-0.039885413 -0.07813159 -0.093969055 0.010937637 0.06920099 -0.02415141 0.022604264 0.13237618
-0.07754894 -0.19182698 -0.19491479 0.09023161 0.046263773 0.09269987 -0.06264652 -0.06969849
-0.119878545 0.1710305 -0.069702916 -0.21748558 -0.030266248 -0.06175965 0.062936805 0.07549044
-0.09120427 0.026737418 -0.017640624 -0.083552584 -0.103632055 0.09525677 0.14277154 0.22183849
-0.12816547 0.04041317 0.0404508 0.13223109 -0.03184456 0.08339164 0.008810501 0.0004475785
0.0769138 0.16929525 0.1758813 0.19315939 0.034084827 -0.12238069 0.0035770868 -0.23484495
0.019517653 0.13826822 0.052119795 -0.13614221 0.050686367 -0.032882668 0.011426017 0.13922417
0.14857146 -0.07450806 0.08934505 0.10451681 0.21325137 0.018434117 -0.04458927 0.04012475
0.044165667 -0.045726966 0.035897125 -0.09029302 0.07138226 0.017797949 -0.016775493 -0.11276443
0.19924122 -0.049937356 -0.05958272 0.18438503 -0.15059178 -0.022433184 -0.11021537 -0.1506516
-0.0014283519 -0.22582306 0.084375754 0.04844424 -0.050694156 0.069408335 -0.1359689 -0.118119776
0.13810305 -0.010158669 0.13008934 0.040504694 0.15635544 -0.009322176 -0.15012182 0.034419555
0.010554449 0.06675032 -0.3043355 0.019955851 0.028989803 0.0547441 0.058661066 0.15311502
-0.049533594 -0.06937428 -0.1623077 -0.15280573 -0.06357694 0.046620797 -0.09271557 -0.023737168
-0.010417174 0.06717523 0.07189485 -0.035871416 0.19588436 -0.041817077 -0.0043145446 0.31053412
0.08286699 0.09414123 -0.05551194 0.12036912 0.08718234 0.12199292 -0.31426165 0.1093918
-0.041404434 -0.035865493 -0.019461455 -0.0066945003 -0.0040805535 -0.1411146 0.08904511 -0.024241958
-0.02690326 0.036628302 0.045067802 0.05344658 0.01926417 0.019639479 0.10164156 0.07749803
-0.039137654 0.17780934 -0.084194265 0.1406692 0.024637826 -0.25426057 0.09254748 0.05058796
-0.12905614 -0.13620657 0.20884617 -0.07513703 -0.057275724 0.23965433 -0.0004940414 0.0693763
00000000: 69f3 003d 74a1 1a3e f92b ee3d 9c2e 313e
00000010: b02f a33d ca06 b53d e317 063d 6695 26bd
00000020: b35f db3d b4bb 3cbe c7bc 28bd 6637 9f3d
00000030: a571 93bd 12eb 8ebd f80b e83b 2506 8b3d
00000040: 70ac 90be b120 d5bd 8238 503e d179 37be
00000050: 62da 08bc b731 9ebd 7c73 6abd 2d61 e7bc
00000060: d85b d5bb 7621 01bd 7c6c 85bd 41e4 0bbd
00000070: 5d9d debc 0171 77bd adfa d4bc 6a55 6cbc
00000080: dcf9 99bd c6c7 83bd f922 0abe 2546 febc
00000090: 8b9c 573d 5495 7dbd db8f 7abd ff7c 8b3d
000000a0: 1374 9bbd 931d 96bd 2fef b0bd 82f1 7bbb
000000b0: 158a bb3c c0ff bebd 08dd 6abc dab2 6bbe
000000c0: ce8e 6f3e 1066 04be a1da 6fbd 6035 9cbd
000000d0: e598 51bc 1b21 ec3c 5799 a83d fa3d 513d
000000e0: 9056 013e e98e 73be fd75 483e 16ce df3d
000000f0: d517 cebd c63b e2bd c5c6 abbc 2c00 aa3c
00000100: 2ae9 efbd 5597 de3c 597a c1bd 6412 3d3e
00000110: 4edd 24bb 7628 f1bc d45c 3a3e 4c82 4b3d
00000120: 01d5 413c 4e3b 6fbc 3cbc b73d b986 50bd
00000130: 16ac 48be f9a6 593d 882b c4bd 238d 9b3d
00000140: 305a 90bd 988f 82be c248 8e3d 00d7 b63d
00000150: 921d 54bc 7dc1 6cbc 4b7b e33d 8759 f6bd
00000160: 3d1f 233d 8d08 233e 85a2 bc3d 1b20 903e
00000170: 1a8a 61bd 8875 bebe 5c67 5bbe 68b1 d0bd
00000180: e35e 23bd 7403 a0bd d972 c0bd c633 333c
00000190: 40b9 8d3d 2ed9 c5bc 942c b93c 9f8d 073e
000001a0: fbd1 9ebd 4b6e 44be be97 47be 5acb b83d
000001b0: 157f 3d3d 6ed9 bd3d d24c 80bd 15be 8ebd
000001c0: e282 f5bd 9f22 2f3e 67c0 8ebd 8ab4 5ebe
000001d0: ecf0 f7bc b0f7 7cbd 03e5 803d bb9a 9a3d
000001e0: 4ec9 babd 6e08 db3c 1283 90bc 9e1d abbd
000001f0: 0b3d d4bd fb15 c33d b432 123e a129 633e
00000200: cf3d 03be 4888 253d bdaf 253d 9667 073e
00000210: 716f 02bd 3cc9 aa3d eb59 103c f8a8 ea39
00000220: fb84 9d3d bc5b 2d3e 3a1a 343e 93cb 453e
00000230: 889c 0b3d baa2 fabd 8f6d 6a3b 327b 70be
00000240: 7ce3 9f3c 2f96 0d3e 917b 553d dd68 0bbe
00000250: 829c 4f3d faaf 06bd 3034 3b3c c890 0e3e
00000260: 1e23 183e af97 98bd 8afa b63d e90c d63d
00000270: 915e 5a3e 2503 973c 3da3 36bd da59 243d
00000280: 0fe7 343d 334c 3bbd dd08 133d 8ceb b8bd
00000290: dd30 923d 01cd 913c c26c 89bc 0af1 e6bd
000002a0: e405 4c3e 1d8b 4cbd 030d 74bd 6ecf 3c3e
000002b0: bb34 1abe ccc5 b7bc 99b8 e1bd 6a44 1abe
000002c0: 8937 bbba 293e 67be 32cd ac3d 786d 463d
000002d0: ada4 4fbd f525 8e3d 6e3b 0bbe c8e8 f1bd
000002e0: e36a 0d3e 8c70 26bc 2436 053e 40e8 253d
000002f0: a41b 203e 0abc 18bc 89b9 19be 85fb 0c3d
00000300: 91ec 2c3c 64b4 883d ddd1 9bbe 747a a33c
00000310: 067c ed3c 593b 603d 9646 703d 2fca 1c3e
00000320: bde3 4abd 1a14 8ebd fd33 26be 1b79 1cbe
00000330: a034 82bd 73f5 3e3d a9e1 bdbd 7374 c2bc
00000340: cbac 2abc 2b93 893d 9b3d 933d e8ed 12bd
00000350: e995 483e 6248 2bbd 0661 8dbb 54fe 9e3e
00000360: 2bb6 a93d 1ecd c03d 7d60 63bd 1684 f63d
00000370: a88c b23d 6dd7 f93d e7e6 a0be cf08 e03d
00000380: b297 29bd b2e7 12bd a16d 9fbc 8a5d dbbb
00000390: 2ab6 85bb 5880 10be 485d b63d 1297 c6bc
000003a0: 3a64 dcbc 8f07 163d 0499 383d cdea 5a3d
000003b0: e5cf 9d3c f9e2 a03c 7329 d03d 4ab7 9e3d
000003c0: ce4e 20bd a713 363e 0b6e acbd 960b 103e
000003d0: 44d5 c93c 712e 82be 8889 bd3d 5235 4f3d
000003e0: 4b27 04be bc79 0bbe c5db 553e 71e1 99bd
000003f0: f399 6abd f267 753e 8f82 01ba 2915 8e3d

embedding_item.bias f4 [8]
-0.2101861 0.15478775 -0.15864614 -0.17686853 0.17198007 0.14395776 -0.18739739 -0.15894872
00000000: 063b 57be ae80 1e3e 2274 22be 061d 35be
00000010: 8b1b 303e aa69 133e 1ae5 3fbe 74c3 22be

affine_output.weight f4 [1, 8]
-0.13628702 -0.12944102 0.13960381 -0.14344898 0.17011444 -0.17128901 -0.12839127 -0.14750348
00000000: d38e 0bbe 308c 04be 4df4 0e3e 4ae4 12be
00000010: 7b32 2e3e 6366 2fbe 0079 03be 270b 17be
