neural-collaborative-filtering/src/checkpoints/gmf_factor8neg4-implict_Epoch192_HR1.0000_NDCG0.8179.model (torch, 281278 bytes, 4 tensors)

embedding_user.weight f4 [7700, 8]
0.45379436 -0.6248648 -0.4790282 1.1798879 -0.5413136 1.8033973 -1.1331493 -1.0946933
-1.4472336 0.2231571 1.00979 0.06773658 -1.7456895 0.38873336 0.40077782 0.14702262
-1.725721 0.5495029 -0.010337803 1.305539 2.6084008 0.78935885 -2.3740177 -0.8650718
-2.3664067 2.5639799 3.2350154 1.6705811 -1.5627114 1.5192021 -2.6066785 -1.9491217
0.058000736 -0.34191784 0.26725018 -0.21657294 -1.0688275 0.40953282 -0.39425978 -2.0094151
-2.9395485 1.1063097 5.690429 -0.51022464 -5.120132 1.1597046 -0.3710919 -2.1741185
-1.016181 -0.21880876 -0.09981544 0.0778102 -0.692509 1.2298328 0.11617531 -0.335662
-0.08132505 -0.34083983 -0.20462622 0.42594615 -1.0899949 0.4831051 0.45667008 -1.8414068
0.74304867 -0.083708346 -0.08762185 -1.0035695 -0.80658656 0.14384735 -1.1938201 0.019664655
-2.587517 0.892962 1.5957648 -2.2143934 0.4180121 4.587444 -0.8548236 -0.1758184
1.0696944 -0.16810143 2.3316271 -1.0227317 -1.9677416 2.4433997 -1.0275265 -1.2447208
-0.025429282 -0.4135245 0.6962948 -0.21346498 -2.3564694 -1.2791259 -0.7041116 -2.7659738
-2.6394694 3.3267272 -0.9286999 -0.48618886 -3.866649 1.635396 -2.5201306 0.19395736
-0.27196908 0.20389277 0.47146776 2.2484815 -2.1849058 2.0762923 -1.2042613 -1.0089148
0.014939688 1.7745211 1.1036817 -1.6630733 -3.167084 3.152532 -0.43576306 0.40774542
-1.108541 -1.1079963 -0.640412 -0.7717526 -0.059256334 0.572906 0.069664866 0.3914486
-2.4903514 0.08646914 1.1451072 -1.3141462 -4.312307 3.3195262 -0.9701695 -0.41577548
-2.562197 3.0041673 -0.34916222 -1.7095761 -2.3917615 0.93553096 -0.6267291 -0.4951858
-3.1575673 0.9505031 -0.3240217 -1.4875659 -0.35804915 1.2025301 -2.9563892 0.26667973
-1.1412246 -0.0761077 2.7810175 -0.7537931 1.034282 2.6465073 -2.2943842 -1.9050367
-1.262562 2.7331934 1.9033717 1.3687187 -1.957026 0.7782315 -3.5709474 -2.2862458
-2.7303936 0.28945732 0.5017853 -2.3648734 -0.11867266 3.2771168 -1.2959244 -0.7872278
-1.648762 1.7236884 2.9527159 0.050166 -0.5531154 -0.17921148 -2.9497652 -1.3399749
-2.2715492 2.227049 2.057518 -0.82999563 -1.5337288 3.4492066 -0.8182048 1.4002533
-1.3289092 1.3677951 -0.3649143 -0.7545997 0.7119191 0.4291566 -0.3111866 -0.06524687
-1.9987094 -0.9479511 -0.38527647 -0.78210455 -2.1465588 2.4180145 -0.27334088 -1.6601056
-2.6437593 1.7262539 3.40093 0.3354481 -0.6918221 0.0017432368 -2.0656812 -2.4941292
-3.4472566 0.79901505 2.4799383 0.50665116 -2.686233 -0.94572794 -2.5746794 -2.6982372
0.89922076 -1.5410557 0.9753025 -0.33195958 0.058408402 0.91373634 1.2827541 0.0984221
-0.22533196 -0.1687276 -0.43354 -1.6276183 -0.2539899 -0.8275546 1.7267998 -0.64050734
-1.9886636 2.7564259 2.4827318 1.0419854 -2.1220825 -0.91403985 -2.9185278 -3.3362112
1.0261706 0.15850566 1.4952376 0.2798642 -3.439477 1.1028557 -0.44324836 -0.91302043
00000000: bc57 e83e 24f7 1fbf 2f43 f5be 9106 973f
00000010: 8793 0abf b9d5 e63f 090b 91bf e91e 8cbf
00000020: f33e b9bf 4b83 643e cc40 813f 7ab9 8a3d
00000030: c172 dfbf 0f08 c73e c032 cd3e 198d 163e
00000040: 6de4 dcbf 39ac 0c3f e35f 29bc e71b a73f
00000050: 0af0 2640 6c13 4a3f e8ef 17c0 5875 5dbf
00000060: 3573 17c0 3f18 2440 7e0a 4f40 9ad5 d53f
00000070: ed06 c8bf 3775 c23f d2d3 26c0 d27c f9bf
00000080: 2e92 6d3d db0f afbe 04d5 883e 4cc5 5dbe
00000090: 57cf 88bf 49ae d13e 6bdc c9be 429a 00c0
000000a0: 9021 3cc0 8e9b 8d3f ff17 b640 159e 02bf
000000b0: 1fd8 a3c0 3371 943f c2ff bdbe c224 0bc0
000000c0: 3812 82bf 670f 60be 0a6c ccbd f45a 9f3d
000000d0: 4548 31bf 296b 9d3f 52ed ed3d e4db abbe
000000e0: bf8d a6bd 8f82 aebe 8989 51be 9d15 da3e
000000f0: f484 8bbf 8d59 f73e a9d0 e93e 38b3 ebbf
00000100: 7038 3e3f 486f abbd 1673 b3bd f774 80bf
00000110: 757c 4ebf b84c 133e 19cf 98bf c517 a13c
00000120: e199 25c0 2899 643f 0542 cc3f 9fb8 0dc0
00000130: af05 d63e 57cc 9240 b8d5 5abf bd09 34be
00000140: bfeb 883f c822 2cbe 6139 1540 dfe8 82bf
00000150: f5de fbbf a960 1c40 fd85 83bf 0353 9fbf
00000160: 1251 d0bc 7cb9 d3be 6040 323f 9096 5abe
00000170: 65d0 16c0 66ba a3bf a840 34bf b705 31c0
00000180: 11ed 28c0 19e9 5440 47bf 6dbf bfed f8be
00000190: 2d77 77c0 a854 d13f d249 21c0 c29c 463e
000001a0: 883f 8bbe 44c9 503e 3964 f13e 1fe7 0f40
000001b0: 7fd5 0bc0 f9e1 0440 3c25 9abf 1f24 81bf
000001c0: 98c5 743c 8223 e33f 7145 8d3f 96df d4bf
000001d0: 81b1 4ac0 16c3 4940 561c dfbe 02c4 d03e
000001e0: ace4 8dbf d3d2 8dbf 0af2 23bf 9491 45bf
000001f0: c5b6 72bd f8a9 123f 74ac 8e3d f36b c83e
00000200: eb61 1fc0 bc16 b13d df92 923f f135 a8bf
00000210: 6bfe 89c0 1e73 5440 075d 78bf 86e0 d4be
00000220: 09fb 23c0 4744 4040 64c5 b2be 64d3 dabf
00000230: 9f12 19c0 f57e 6f3f 5171 20bf fe88 fdbe
00000240: 9515 4ac0 2c54 733f 2ce6 a5be 8f68 bebf
00000250: 3852 b7be 82ec 993f 7b35 3dc0 3f8a 883e
00000260: a613 92bf 5bde 9bbd 31fc 3140 96f8 40bf
00000270: 5a63 843f 6060 2940 31d7 12c0 3ed8 f3bf
00000280: a29b a1bf a4ec 2e40 afa1 f33f 2d32 af3f
00000290: d47f fabf 2e3a 473f 678a 64c0 da51 12c0
000002a0: c5be 2ec0 c033 943e 0075 003f 165a 17c0
000002b0: a70a f3bd 48bc 5140 dae0 a5bf c387 49bf
000002c0: a20a d3bf d2a1 dc3f 4cf9 3c40 dd7a 4d3d
000002d0: f998 0dbf 3783 37be f4c8 3cc0 4c84 abbf
000002e0: 1061 11c0 f987 0e40 60ae 0340 987a 54bf
000002f0: 3a51 c4bf cdbf 5c40 df75 51bf 803b b33f
00000300: b219 aabf e913 af3f 0cd6 babe 722d 41bf
00000310: 5540 363f 6aba db3e da53 9fbe 27a0 85bd
00000320: b6d5 ffbf ecac 72bf f542 c5be 0138 48bf
00000330: 3861 09c0 c0c0 1a40 56f3 8bbe 577e d4bf
00000340: 5a33 29c0 e3f5 dc3f d6a8 5940 dabf ab3e
00000350: 411b 31bf 527d e43a 1f34 04c0 d09f 1fc0
00000360: da9f 5cc0 408c 4c3f 4fb7 1e40 e4b3 013f
00000370: 3eeb 2bc0 3a1b 72bf 8cc7 24c0 ebaf 2cc0
00000380: 5533 663f 5041 c5bf 6dad 793f 9bf6 a9be
00000390: a63d 6f3d a0ea 693f 4931 a43f 8791 c93d
000003a0: 6cbd 66be eec6 2cbe f4f8 ddbe cc55 d0bf
000003b0: f70a 82be 9eda 53bf c707 dd3f 4af8 23bf
000003c0: 878c febf 4869 3040 14e5 1e40 c75f 853f
000003d0: 33d0 07c0 84fe 69bf 29c9 3ac0 7c84 55c0
000003e0: 8f59 833f 4f4f 223e f263 bf3f 5c4a 8f3e
000003f0: 6420 5cc0 602a 8d3f 73f1 e2be b5bb 69bf

embedding_item.weight f4 [8, 1024]
-0.04427437 0.24479745 0.21748894 0.47111472 0.025468055 0.2852403 0.016178163 -0.3608742
0.21921098 -0.51354545 -0.106621 0.1676333 -0.214117 -0.006051468 -0.14351527 0.17311962
-0.5967222 -0.29805952 0.22789738 -0.1259544 0.17042148 -0.034605328 -0.033533666 -0.13336481
0.20285395 -0.15478012 -0.14514476 -0.19993255 -0.0889824 -0.2028843 -0.056004073 0.022290476
-0.25692248 -0.035293434 -0.13552931 -0.019151257 0.040195487 -0.07018177 -0.05968614 0.1285974
-0.25282803 -0.20927976 -0.034146864 -0.2298858 0.16586055 -0.30390885 -0.007149891 -0.45304567
0.47986332 -0.1731083 -0.1603226 -0.30159268 -0.1424123 -0.09335227 0.2012446 0.17013396
0.15232688 -0.2112027 0.2612516 0.16449226 -0.12055977 0.08048731 0.12800966 0.03048615
-0.40190542 0.07015787 -0.14554545 0.3523428 0.14928232 -0.08412455 0.36872104 0.098285384
0.14386362 -0.21817869 0.20117939 -0.3159636 -0.44794676 0.13188462 -0.24494779 0.10804598
-0.038645864 -0.49164924 0.25791603 0.03605121 -0.020121679 -0.03776525 0.22398087 -0.24132623
0.3120691 0.12143379 0.33830243 0.43553463 -0.046555363 -0.50705594 -0.4137105 -0.10906253
-0.18611458 -0.445683 -0.038783412 0.2285383 0.15141183 0.0049100933 0.21377428 0.0035216864
-0.23771234 -0.49420038 -0.2606766 0.17336874 0.2899859 0.22802451 -0.17324404 -0.2548646
-0.19810392 0.20732597 -0.14483917 -0.5479055 -0.268015 -0.18732885 -0.10807323 0.3297151
0.12260824 0.09106673 -0.086711854 -0.32808852 -0.3074937 0.081658006 0.1327769 0.44959778
-0.1343994 0.16451706 0.07891407 0.1841446 0.13360523 0.085464925 -0.05840048 0.11531129
0.17030121 0.25402746 0.26095846 0.2868606 -0.09301935 -0.20396543 -0.01486655 -0.24365003
-0.04911799 0.28892553 0.024364682 -0.24861613 0.15969905 -0.06429708 -0.046855528 0.0046609067
0.15990257 -0.13683642 0.15743499 -0.029211098 0.36735946 0.10219752 -0.2739916 0.27556714
0.07826015 0.045514587 -0.025506938 -0.18504293 0.11271923 0.17593245 0.017901529 0.062168706
0.15421285 -0.004681847 -0.3369039 0.28923297 -0.1979937 -0.17160925 -0.33250943 -0.25986525
0.19085497 -0.2727093 0.008338431 0.015859442 -0.1245593 0.45408046 -0.250672 -0.007772387
0.07991384 0.08313578 0.07376318 0.009858029 0.285351 0.0014711362 -0.22790466 -0.046325784
-0.16689497 0.05435186 -0.76798934 0.13042323 -0.013116976 0.06554042 0.043900453 0.2521418
0.062202454 -0.096511625 -0.3080762 -0.24610418 -0.35500696 -0.0617778 0.069329105 -0.10901185
0.0426191 -0.006355958 -0.04972862 0.10123054 0.49279836 0.20136693 0.14808309 0.4527412
0.22792232 0.4567932 -0.21066225 0.29788277 0.20478217 0.1060576 -0.33450177 0.14543307
0.019430112 -0.040016856 -0.08701279 -0.05653964 -0.06754105 -0.38496426 0.15689982 0.13193811
-0.16654256 -0.06154343 0.2999467 -0.1278865 0.1706373 -0.08852986 0.35498193 0.15454875
0.13200843 0.029122667 -0.23398976 0.26466277 0.13188061 -0.6236665 0.06823736 0.03866954
-0.20272037 -0.26582125 0.26027155 -0.116964 0.2306069 0.45104682 0.15238546 0.09463655
00000000: 0b59 35bd 2fac 7a3e 6cb5 5e3e f335 f13e
00000010: 62a2 d03c 040b 923e 1188 843c 81c4 b8be
00000020: d878 603e b777 03bf 1c5c dabd 10a8 2b3e
00000030: 7d41 5bbe 654b c6bb abf5 12be 4546 313e
00000040: c9c2 18bf 429b 98be ee5d 693e 31fa 00be
00000050: f882 2e3e 51be 0dbd 995a 09bd c990 08be
00000060: f2b8 4f3e ae7e 1ebe d4a0 14be 1ebb 4cbe
00000070: 683c b6bd e7c0 4fbe 8764 65bd 849a b63c
00000080: 588b 83be d98f 10bd 32c8 0abe 19e3 9cbc
00000090: 06a4 243d 76bb 8fbd 7479 74bd 09af 033e
000000a0: ad72 81be 6f4d 56be 95dd 0bbd 2f67 6bbe
000000b0: 59d7 293e f199 9bbe a249 eabb 9af5 e7be
000000c0: a5b0 f53e 4d43 31be 9c2b 24be 5b6a 9abe
000000d0: 88d4 11be 7a2f bfbd 1013 4e3e 9937 2e3e
000000e0: 94fb 1b3e 8545 58be c5c2 853e a970 283e
000000f0: 0ae8 f6bd 88d6 a43d f714 033e 17be f93c
00000100: 8cc6 cdbe eeae 8f3d de09 15be 4766 b43e
00000110: 77dd 183e 7e49 acbd 01c9 bc3e d949 c93d
00000120: fc50 133e 3c6a 5fbe f801 4e3e fbc5 a1be
00000130: 4759 e5be c30c 073e 98d3 7abe 3647 dd3d
00000140: 204b 1ebd 73b9 fbbe 920d 843e 6faa 133d
00000150: 38d6 a4bc bcaf 1abd 3e5b 653e 391e 77be
00000160: 85c7 9f3e 47b2 f83d fa35 ad3e 65fe de3e
00000170: d6b0 3ebd 6bce 01bf ddd1 d3be 2d5c dfbd
00000180: d294 3ebe 9030 e4be 5bdb 1ebd f205 6a3e
00000190: b40b 1b3e d9e4 a03b a5e7 5a3e 18cc 663b
000001a0: dd6a 73be d507 fdbe 6777 85be 9387 313e
000001b0: 0879 943e 427f 693e e366 31be 9d7d 82be
000001c0: c1db 4abe 424d 543e b850 14be 8943 0cbf
000001d0: 4339 89be 22d3 3fbe 7f55 ddbd 6bd0 a83e
000001e0: 071a fb3d 3281 ba3d fc95 b1bd 38fb a7be
000001f0: d06f 9dbe 503c a73d abf6 073e ae31 e63e
00000200: ff9f 09be 2977 283e b39d a13d 6790 3c3e
00000210: cfcf 083e 3c08 af3d 5735 6fbd 5328 ec3d
00000220: 7163 2e3e e30f 823e 599c 853e 64df 923e
00000230: ee80 bebd 50dc 50be d592 73bc 657f 79be
00000240: f22f 49bd 0cee 933e 7198 c73c 3a95 7ebe
00000250: 2688 233e 30ae 83bd 95eb 3fbd 85ba 983b
00000260: 80bd 233e d91e 0cbe a336 213e 1d4c efbc
00000270: 8a16 bc3e ef4c d13d a148 8cbe 2317 8d3e
00000280: dc46 a03d 816d 3a3d edf3 d0bc e57b 3dbe
00000290: 57d9 e63d a327 343e 3aa6 923c 9da4 7e3d
000002a0: f9e9 1d3e 2e6a 99bb ab7e acbe 5816 943e
000002b0: dcbe 4abe 56ba 2fbe ad3e aabe 0f0d 85be
000002c0: 7c6f 433e 8ea0 8bbe ea9d 083c a9eb 813c
000002d0: f218 ffbd 3c7d e83e 1558 80be 82af febb
000002e0: dea9 a33d 1843 aa3d 2611 973d 9283 213c
000002f0: 8719 923e 24d3 c03a d75f 69be 1bc0 3dbd
00000300: 84e6 2abe 0ea0 5e3d f39a 44bf ab8d 053e
00000310: 96e8 56bc 0e3a 863d f6d0 333d bb18 813e
00000320: 00c8 7e3d e3a7 c5bd 2abc 9dbe bc02 7cbe
00000330: 79c3 b5be b80a 7dbd 6bfc 8d3d 9b41 dfbd
00000340: 5e91 2e3d a445 d0bb 3db0 4bbd f551 cf3d
00000350: 1150 fc3e 2233 4e3e 18a3 173e b2cd e73e
00000360: 7864 693e cce0 e93e d8b7 57be 1784 983e
00000370: 6bb2 513e ba34 d93d d143 abbe 68ec 143e
00000380: e62b 9f3c b7e8 23bd c333 b2bd 1c96 67bd
00000390: f652 8abd 091a c5be 59aa 203e c91a 073e
000003a0: 228a 2abe f714 7cbd 9d92 993e aef4 02be
000003b0: 8bbb 2e3e 254f b5bd 31c0 b53e 0742 1e3e
000003c0: 382d 073e a992 ee3c 039b 6fbe e181 873e
000003d0: b60b 073e 9ca8 1fbf 07c0 8b3d f463 1e3d
000003e0: ee95 4fbe b919 88be 5042 853e d28a efbd
000003f0: 3724 6c3e 9cef e63e ef0a 1c3e cfd0 c13d

embedding_item.bias f4 [8]
-0.2705515 0.268998 -0.20642309 -0.28228417 0.33845899 0.259199 -0.29177055 -0.29262874
00000000: ba85 8abe 1bba 893e 9360 53be 8d87 90be
00000010: 7f4a ad3e bbb5 843e f362 95be 6fd3 95be

affine_output.weight f4 [1, 8]
-0.099345915 -0.09296544 0.11138777 -0.15506299 0.118257895 -0.14979008 -0.08680157 -0.11861779
00000000: df75 cbbd aa64 bebd 451f e43d d5c8 1ebe
00000010: 3231 f23d 9262 19be 06c5 b1bd e2ed f2bd
