neural-collaborative-filtering/src/checkpoints/gmf_factor8neg4-implict_Epoch115_HR1.0000_NDCG0.8319.model (torch, 281278 bytes, 4 tensors)

embedding_user.weight f4 [7700, 8]
00000000: bc57 e83e 24f7 1fbf 2f43 f5be 9106 973f
00000010: 8793 0abf b9d5 e63f 090b 91bf e91e 8cbf
00000020: f33e b9bf 4b83 643e cc40 813f 7ab9 8a3d
00000030: c172 dfbf 0f08 c73e c032 cd3e 198d 163e
00000040: 6de4 dcbf 39ac 0c3f e35f 29bc e71b a73f
00000050: 0af0 2640 6c13 4a3f e8ef 17c0 5875 5dbf
00000060: ec49 e3bf da0d ed3f e204 2540 80b8 d73f
00000070: 402c 5dbf 641e c53f c031 fcbf 0b11 a9bf
00000080: f9b0 f23b fa31 a9be 5c81 7ebc 0c2e 20be
00000090: 584f 5dbf afff 293f c07d 11bf 1b74 fabf
000000a0: e5ee 2dc0 62a3 7b3f ad6b 8a40 4b12 98be
000000b0: 0d3d 83c0 8789 0a3f 7919 2dbd 56d6 b7bf
000000c0: 8f77 a0bf 4ead 2ebf ce5c acbe fb39 c53e
000000d0: e120 01bf 2997 bf3f 00d7 9fbe 9f75 2abf
000000e0: d829 6b3e 0c49 a8be 4ffb ea3e 6570 8b3f
000000f0: 36c9 7dbf 3579 013f 10c9 3a3f 84ca 26c0
00000100: adf4 863f 2da0 dd3e f39b c6be b3fb 93bf
00000110: 2baf 72be 86a1 083f 55fc 84bf c9fb 39be
00000120: 0cb9 0bc0 a96e 9b3f 090e a33f c6f1 d6bf
00000130: 73f9 f03e b82d 5e40 1892 01be 43b5 35be
00000140: a6f6 763f 9775 173e 9a4b 0440 7671 f1be
00000150: e1a2 0cc0 5227 2040 14af 57bf 9f43 a9bf
00000160: 9ed1 a93d 841f 03bf bea9 fd3e 3f17 07bf
00000170: 9834 0cc0 5109 c6bf a65b 23bf a80c 16c0
00000180: ed05 00c0 9ff5 4140 2867 9ebf 7421 00bf
00000190: f15d 4dc0 da17 623f bbfc 02c0 de36 143e
000001a0: 7bbc d4be 1893 9d3e 9e06 1dbe cc07 0940
000001b0: cb7f 04c0 e14e c23f 1944 a2bf 02c9 17bf
000001c0: 4192 f83e c4ae b03f 7d76 6a3f 8ca6 bfbf
000001d0: cb05 2cc0 612e 5140 361d 44bd c719 9d3e
000001e0: ace4 8dbf d3d2 8dbf 0af2 23bf 9491 45bf
000001f0: c5b6 72bd f8a9 123f 74ac 8e3d f36b c83e
00000200: 1067 02c0 f10c 9c3d 15a2 a13e 21be 9abe
00000210: c91b 46c0 fbba 4c40 dd5c 78bf 918e a1be
00000220: 0919 09c0 1d99 4340 1a80 1dbf c8db 00c0
00000230: 0d9d fdbf 7ef6 fd3e f7a7 87be 5825 eebe
00000240: d9d2 3ec0 9de6 343f b77a 0fbf b41b d7bf
00000250: a521 b8bd e043 8a3f 524c 25c0 28ca 9d3e
00000260: e3ad 65bf b79a d8bd efe3 0b40 6e3e ed3e
00000270: fd0f 523f 267f 1c40 7fe6 d0bf e42c 8cbf
00000280: aa43 2abf ae4d 0440 c0d8 9e3f 0a83 b43f
00000290: c8cc a1bf 2936 363f 5b0e 3ec0 1a65 ddbf
000002a0: bd5b 15c0 bcb1 ec3e 3364 fe3d 122d f7bf
000002b0: 3da0 39bd 3a1b 2040 5337 27bf 879c 36bf
000002c0: 10d3 94bf a2b5 9c3f 81f8 0740 d52f f7bd
000002d0: 0193 31bd 8e5d c9be 3699 0cc0 8c59 34bf
000002e0: bd55 cdbf 4f6f db3f 2154 ee3f 8e9f cbbe
000002f0: 172f 6dbf 729c 3f40 bf25 a6be fe5b c83f
00000300: 1323 7abf 9df8 0040 58ef 32bd 3ebe 98bf
00000310: d181 763f d53c 983e e778 b93e 87c9 cabe
00000320: 4bd0 e5bf eb15 71bf 0c95 5abe 4fc2 38bf
00000330: ba64 f3bf 6433 e13f cb53 1dbe ce16 6cbf
00000340: 2ce1 06c0 9c5c 9a3f b1d0 3440 3c5f b83e
00000350: 645e 45be f444 5cbe 50d3 b7bf de40 0ac0
00000360: 8b24 41c0 18b6 a83e b7af eb3f 38f9 a33e
00000370: e181 f8bf 5147 8dbf 04fe 02c0 b992 fdbf
00000380: 5533 663f 5041 c5bf 6dad 793f 9bf6 a9be
00000390: a63d 6f3d a0ea 693f 4931 a43f 8791 c93d
000003a0: 6cbd 66be eec6 2cbe f4f8 ddbe cc55 d0bf
000003b0: f70a 82be 9eda 53bf c707 dd3f 4af8 23bf
000003c0: 21a7 b2bf 142b 1540 0f6c ec3f de09 853f
000003d0: 8532 c2bf 8cef a5bf 1d2d 15c0 8eb5 3cc0
000003e0: ca55 6f3f 7047 8d3e d582 a43f 35e9 10bd
000003f0: ac43 1bc0 f789 803f 93be cabe 687b 61bf
0.45379436 -0.6248648 -0.4790282 1.1798879 -0.5413136 1.8033973 -1.1331493 -1.0946933
-1.4472336 0.2231571 1.00979 0.06773658 -1.7456895 0.38873336 0.40077782 0.14702262
-1.725721 0.5495029 -0.010337803 1.305539 2.6084008 0.78935885 -2.3740177 -0.8650718
-1.7756934 1.8519852 2.578423 1.685318 -0.86395645 1.53999 -1.9702682 -1.3208326
0.0074063507 -0.33045942 -0.015533771 -0.15642565 -0.86449194 0.6640577 -0.56832504 -1.9566683
-2.717706 0.9829618 4.325644 -0.29701456 -4.1012025 0.541161 -0.04226062 -1.4362285
-1.2536486 -0.6823319 -0.33664554 0.38520798 -0.50440794 1.4968005 -0.3121872 -0.66585726
0.22965181 -0.3286823 0.45894858 1.0893675 -0.9913515 0.5057557 0.7296305 -2.6061106
1.0543419 0.43286267 -0.38790855 -1.1561188 -0.23699634 0.53371465 -1.0389506 -0.18162455
-2.1831694 1.2143146 1.2738658 -1.6792533 0.47065315 3.4715405 -0.12653387 -0.17744927
0.96470106 0.1479095 2.0671144 -0.47156876 -2.1974413 2.5024 -0.84251523 -1.3223761
0.082919344 -0.51219964 0.49543566 -0.52769846 -2.19071 -1.5471593 -0.6381172 -2.3445225
-2.0003617 3.0306165 -1.2375231 -0.50051045 -3.2088587 0.88317645 -2.0466754 0.14474055
-0.4155005 0.30776286 -0.15334556 2.141101 -2.0702999 1.5180322 -1.2677032 -0.5929109
0.48549083 1.3803334 0.9158705 -1.4972701 -2.6878536 3.2684557 -0.04787942 0.3068373
-1.108541 -1.1079963 -0.640412 -0.7717526 -0.059256334 0.572906 0.069664866 0.3914486
-2.0375404 0.07619656 0.3156897 -0.30223182 -3.0954459 3.1989124 -0.970167 -0.31554082
-2.142153 3.0562203 -0.6152359 -2.0134144 -1.9813553 0.4960212 -0.26495335 -0.46512866
-2.9816191 0.7066439 -0.56046623 -1.6805329 -0.08990792 1.0801964 -2.5827832 0.30818295
-0.89718455 -0.105763845 2.185787 0.46336693 0.82055646 2.4452605 -1.6320342 -1.09512
-0.665095 2.0672412 1.2409897 1.410249 -1.2640619 0.7117639 -2.9696262 -1.7296479
-2.3337243 0.4622935 0.12421455 -1.9310629 -0.04531883 2.5016618 -0.65318793 -0.7133259
-1.1626911 1.224293 2.1245425 -0.1206967 -0.043353084 -0.3932919 -2.1968513 -0.7044914
-1.604179 1.7143344 1.8619424 -0.39770168 -0.9264998 2.9939237 -0.32450673 1.5653074
-0.9770977 2.0151742 -0.043685287 -1.1933057 0.96291834 0.2973391 0.36225054 -0.39606878
-1.7954191 -0.9417407 -0.2134592 -0.7217149 -1.9015114 1.7593808 -0.15363996 -0.922223
-2.1074934 1.2059512 2.8252375 0.36010158 -0.19274288 -0.21510679 -1.4361362 -2.1602092
-3.0178554 0.32951427 1.8412999 0.32026076 -1.9414636 -1.1037389 -2.046754 -1.9810401
0.89922076 -1.5410557 0.9753025 -0.33195958 0.058408402 0.91373634 1.2827541 0.0984221
-0.22533196 -0.1687276 -0.43354 -1.6276183 -0.2539899 -0.8275546 1.7267998 -0.64050734
-1.3957254 2.3307543 1.8470477 1.0393636 -1.5171667 -1.2963729 -2.3308785 -2.9485812
0.9349028 0.27593565 1.2852427 -0.035378654 -2.4260054 1.0042104 -0.39598522 -0.8807893

embedding_item.weight f4 [8, 1024]
00000000: 26d8 90bc 0c10 463e 5106 2f3e d0e2 b53e
00000010: ff29 d83d f2a4 543e 2f07 c7bb 0774 34be
00000020: 776a 413e 5c3b c5be 0022 a6bd 38eb ba3d
00000030: d378 12be 9842 13bd 7c1f a1bd 41dc 0c3e
00000040: 2c5e e5be bbef 46be e407 7c3e d478 2fbe
00000050: ca23 8f3d c650 84bd 4cf6 24bb 4095 fcbd
00000060: 63c6 e83d bb6a 67bd f5f8 efbd 3994 00be
00000070: 28d0 e7bc 417f 13be 289a 1ebd 35e5 8b3c
00000080: 3e5a 42be 9dbf e2bc 2c51 2cbe 2e9d bfbc
00000090: 1a1b 2d3d bdb5 37bd e7a6 88bd cbba c33d
000000a0: 5538 35be eae3 11be a75b 8dbd fb9e 07be
000000b0: e886 f53d 565a 6fbe 324e 47bd 6197 b5be
000000c0: c6d7 c63e 26ba 22be 5828 e0bd e498 4dbe
000000d0: dc67 b2bd b29e 553b 873f 203e 5c6a 063e
000000e0: 8ec2 3c3e 476e 68be 2416 5f3e 79b8 093e
000000f0: 3aa7 ddbd f75c adbc 6cb1 8c3d 5f09 203d
00000100: edb3 94be f9a8 9f3d a566 f2bd 9458 9e3e
00000110: 8d76 b33d 0fc9 74bd 1bf0 8e3e db28 ad3d
00000120: f324 703d 4ee6 dabd 72af 043e 659c 4cbe
00000130: 9a60 a5be 75e1 db3d cd25 2fbe 318c 8b3d
00000140: d4c2 c9bd e1a9 d2be 3190 393e c5c3 893d
00000150: 5188 26bd 1dd9 7abd 4940 273e 0099 4bbe
00000160: 83ab 5f3e 81c8 033e 6a99 613e 0761 d13e
00000170: d0be 3bbd 5bc6 ebbe 37cc b7be 6adc a4bd
00000180: f6e7 07be 957b 8abe 7aa3 83bd 3e80 f23d
00000190: 1ca3 053e d114 26bc 9c46 0e3e 2f37 873d
000001a0: 5a4d 20be 8c11 c8be d944 81be ba09 e43d
000001b0: 0a6b 093e 923d 453e 69fb ffbd afa5 1cbe
000001c0: a855 59be 76b4 653e 1bf3 90bd beed d6be
000001d0: fc9c 2fbe db08 19be 1d66 27bd 87d9 513e
000001e0: 9db9 903c 771c 9a3d 7dd8 59bd 196a 72be
000001f0: 3b24 58be a830 e83d 0c05 fa3d 29a3 c63e
00000200: 9541 11be 64c9 e63d 16ab 4f3d 5dc1 393e
00000210: 4fa1 cb3d 4a2b e63d 32a9 38bd 20be d73d
00000220: a09d d83d ce1b 563e 911e 5b3e 55e0 8d3e
00000230: 109d 23bd 59fd 35be 08d4 da3c 50d6 6fbe
00000240: dc04 bbbc 2751 833e b769 5dbc ae5d 3ebe
00000250: 8c9c 9d3d 9824 20bd 9457 1abd 82c1 a53d
00000260: 932f 423e 91a3 b4bd 6ee1 f83d a3a2 2f3d
00000270: a6eb 983e cdbd 873d 3469 2dbe d19f 223e
00000280: bb3d ef3d ce71 493c f345 13bc 3bfa 5ebe
00000290: 12e7 b23d b6c2 043e 87be 0f3b 4d89 59bd
000002a0: 3f36 2d3e 4b3e 27bd aa11 89be 63e6 853e
000002b0: 3163 3abe 2e2d eebd dfce 52be 155f 6cbe
000002c0: 78ce e93d 1fcc 95be 461b 0a3d 87f5 623d
000002d0: 2610 04be d882 a03e 1294 80be 1c19 93bd
000002e0: 05fc f03d 9ed6 8a3d 2cc1 0b3e 9876 173d
000002f0: fcf0 833e 62b1 d4bc 0eae 4dbe ebec 47bc
00000300: f800 71bd 1953 763d 7fb2 15bf e3d0 663d
00000310: 32cb 87bc 3670 903d 4031 2a3d c422 823e
00000320: 3fc6 2cbc af57 c6bd 9912 82be bc56 70be
00000330: 50a3 59be 979e 1ebc 95f9 dcbc 709c 5bbd
00000340: 9d8b a43c d6fd 4f3d 16e2 5f3b aa77 743d
00000350: acb7 be3e c73e d13d 3dc7 7b3d bb9a ca3e
00000360: ccf9 583e cdf4 8d3e f0c6 1dbe 31f7 653e
00000370: b7f2 2d3e 2224 0a3e e425 b4be d8b7 fb3d
00000380: 3ad5 35ba 360c 23bc dc09 90bd fe8a 90bd
00000390: 278f 1abd 0e96 82be 48bb fe3d 0b4e 333d
000003a0: 3861 0abe 1a0d 873b bea8 6f3e 3af1 54bd
000003b0: ab3a f43d 64ee c5bd 52c2 823e 9b6c e13d
000003c0: 11f7 003d c0bf f03d e695 23be e563 6e3e
000003d0: 70d1 643d acee eebe 6d39 e13d ed32 673d
000003e0: f45b 1cbe 9e9d 4cbe d310 563e 1f10 9fbd
000003f0: 415c d43d ac97 b63e 4ed1 c93d 0f0f fa3d
-0.017681193 0.19342059 0.17092253 0.35524607 0.10554885 0.20766047 -0.0060738544 -0.17622386
0.1888827 -0.3852185 -0.08111954 0.09126896 -0.14303903 -0.03595218 -0.07867333 0.13755895
-0.4479841 -0.19427387 0.24612385 -0.17135936 0.06989248 -0.06460719 -0.0025171218 -0.12333155
0.11365964 -0.05649827 -0.11717407 -0.12556542 -0.028297499 -0.14404012 -0.038721234 0.017077068
-0.18979737 -0.027679259 -0.1682784 -0.023390379 0.042262174 -0.044851054 -0.06672459 0.09557112
-0.1769727 -0.14247099 -0.06902247 -0.1324424 0.11988622 -0.23374304 -0.048658557 -0.35467055
0.38836497 -0.15891322 -0.10945195 -0.20077854 -0.08711216 0.003259581 0.15649234 0.1312651
0.18433592 -0.22698317 0.2178579 0.13449277 -0.108229116 -0.021162493 0.06869778 0.039071437
-0.29043522 0.07795901 -0.11835984 0.30926955 0.08762846 -0.059762057 0.2791756 0.08455058
0.058628988 -0.106884584 0.12957552 -0.19981535 -0.32300264 0.10736362 -0.17104264 0.06813849
-0.09851614 -0.41145232 0.18121411 0.06726793 -0.040657345 -0.06124221 0.16333117 -0.19882584
0.2184277 0.12869455 0.22031179 0.40894338 -0.04583627 -0.4604977 -0.3589799 -0.08049853
-0.1327208 -0.2704741 -0.06427665 0.118408665 0.13050503 -0.010136799 0.13894123 0.06602322
-0.15654507 -0.39075887 -0.2524784 0.11134668 0.13419738 0.19261768 -0.124991246 -0.15297578
-0.21224082 0.22432122 -0.07077619 -0.41978258 -0.17149729 -0.14944784 -0.040868867 0.20493136
0.017666632 0.075249605 -0.053184975 -0.23673286 -0.21107571 0.113374054 0.12207994 0.38796356
-0.14185174 0.11268881 0.05070027 0.18140168 0.099428765 0.112387255 -0.045083232 0.1053431
0.105769396 0.20909044 0.21398379 0.27710214 -0.03994471 -0.17772426 0.026712433 -0.23421597
-0.022829466 0.25647852 -0.013513974 -0.18590423 0.076958746 -0.0390974 -0.037681177 0.08093549
0.1896346 -0.0882026 0.12152372 0.04287971 0.29867285 0.066279985 -0.16934663 0.15881278
0.11681696 0.0122952 -0.008988845 -0.21775143 0.087354794 0.12964901 0.0021933632 -0.053109456
0.16915224 -0.04083089 -0.2677129 0.26152334 -0.18201901 -0.11629711 -0.20586728 -0.23083146
0.11416334 -0.29257295 0.033717416 0.055409934 -0.12896785 0.31349826 -0.2511297 -0.071825236
0.11766819 0.06779216 0.13647908 0.036978334 0.25769794 -0.025963489 -0.20085928 -0.012202482
-0.058838814 0.06013784 -0.5847549 0.056351554 -0.016576383 0.070526525 0.041550875 0.2541715
-0.010545312 -0.09684693 -0.25404814 -0.23470587 -0.21253705 -0.009681365 -0.026974479 -0.053615987
0.020086104 0.050779186 0.0034161857 0.059684433 0.37249506 0.10217052 0.061469305 0.39571175
0.2118904 0.2772583 -0.1540792 0.22457577 0.1698712 0.13490346 -0.35185158 0.12290925
-0.0006936375 -0.009951642 -0.070331305 -0.07057761 -0.037734177 -0.25505108 0.12438065 0.0437756
-0.13513649 0.004121435 0.23404214 -0.051987864 0.119252525 -0.0966461 0.2553888 0.11007043
0.03148562 0.117553234 -0.1597515 0.23280294 0.055863798 -0.46666467 0.10997281 0.05644505
-0.15269452 -0.19982001 0.20904855 -0.07766747 0.103691585 0.3566259 0.09854375 0.122099034

embedding_item.bias f4 [8]
00000000: cc58 82be ccfa 5c3e 8949 43be 96a1 6cbe
00000010: eed6 8f3e 5d37 543e e117 89be 7dbf 74be
-0.25458372 0.21580046 -0.1907102 -0.23108515 0.28093666 0.20724244 -0.2677603 -0.23901172

affine_output.weight f4 [1, 8]
00000000: 7e8e ddbd a761 d4bd 2605 f03d b8c8 22be
00000010: 1ef5 063e 4945 27be 40ab bfbd ff7e 03be
-0.10818194 -0.10370188 0.11719732 -0.1589688 0.13179442 -0.16335024 -0.09358835 -0.12841414
