neural-collaborative-filtering/src/checkpoints/gmf_factor8neg4-implict_Epoch98_HR1.0000_NDCG0.8339.model (torch, 281278 bytes, 4 tensors)

embedding_user.weight f4 [7700, 8]
000000 bc 57 e8 3e 24 f7 1f bf 2f 43 f5 be 91 06 97 3f
       0.45379436 -0.6248648 -0.4790282 1.1798879
000010 87 93 0a bf b9 d5 e6 3f 09 0b 91 bf e9 1e 8c bf
       -0.5413136 1.8033973 -1.1331493 -1.0946933
000020 f3 3e b9 bf 4b 83 64 3e cc 40 81 3f 7a b9 8a 3d
       -1.4472336 0.2231571 1.00979 0.06773658
000030 c1 72 df bf 0f 08 c7 3e c0 32 cd 3e 19 8d 16 3e
       -1.7456895 0.38873336 0.40077782 0.14702262
000040 6d e4 dc bf 39 ac 0c 3f e3 5f 29 bc e7 1b a7 3f
       -1.725721 0.5495029 -0.010337803 1.305539
000050 0a f0 26 40 6c 13 4a 3f e8 ef 17 c0 58 75 5d bf
       2.6084008 0.78935885 -2.3740177 -0.8650718
000060 bd 8f cc bf f9 c7 d0 3f cd 85 15 40 87 c2 c1 3f
       -1.5981365 1.6311027 2.3362916 1.513749
000070 08 bf 27 bf ee c8 da 3f c8 e4 d9 bf c7 54 91 bf
       -0.65525866 1.7092569 -1.7022943 -1.1353997
000080 1a 6a bc ba 52 2d 9e be d8 83 75 bd fa d2 b7 bd
       -0.0014374882 -0.30893952 -0.05994019 -0.089757875
000090 3f 21 3e bf 55 e7 51 3f 16 49 20 bf 76 d1 ef bf
       -0.7426948 0.8199361 -0.6261152 -1.8735797
0000a0 c0 e5 2e c0 3c 66 8d 3f c5 88 7a 40 e8 36 a7 be
       -2.7327728 1.1046824 3.9145977 -0.32659078
0000b0 21 a7 70 c0 9c 28 9d 3e 64 72 0c 3c ca fd 9e bf
       -3.7602007 0.30695045 0.008572195 -1.24212
0000c0 54 02 99 bf a4 10 4b bf 21 67 b2 be b9 9e f5 3e
       -1.1953835 -0.79322267 -0.34844306 0.47972658
0000d0 b6 4e f4 be 74 03 cf 3f 94 24 d7 be 03 a0 4b bf
       -0.47716302 1.6172929 -0.42020094 -0.79541034
0000e0 82 86 99 3e e8 7a 87 be 97 63 1e 3f fb 83 a8 3f
       0.29985434 -0.26460958 0.6187071 1.3165277
0000f0 88 56 67 bf 0e d8 05 3f 69 36 34 3f f7 bf 2a c0
       -0.9036641 0.522828 0.70395523 -2.6679666
000100 0f 9d 88 3f fd f1 0e 3f b2 69 09 bf 87 3b 9a bf
       1.067293 0.55837995 -0.53676903 -1.2049416
000110 36 22 14 be 2c e6 3a 3f 82 99 7d bf b1 97 7c be
       -0.14466175 0.73007464 -0.9906236 -0.2466724
000120 c1 ad 07 c0 c3 2a a6 3f 10 a9 97 3f 99 31 ca bf
       -2.11998 1.29818 1.1848469 -1.5796386
000130 ee 82 fe 3e b7 08 4a 40 c8 cb eb 3c a9 24 c5 bd
       0.49709266 3.156782 0.028783694 -0.09626133
000140 25 f1 73 3f 64 0a 52 3e 1c f7 f8 3f 24 4d ba be
       0.9528983 0.20511776 1.9450412 -0.3638698
000150 1a 89 10 c0 6d 13 20 40 53 19 45 bf 03 56 a3 bf
       -2.258368 2.5011857 -0.76991767 -1.2760624
000160 3a 96 d7 3d df c6 02 bf c5 79 e5 3e 62 9a 1c bf
       0.105267 -0.51084703 0.44819465 -0.6117307
000170 69 76 01 c0 03 59 c8 bf d3 93 24 bf 5f a2 0b c0
       -2.0228522 -1.5652164 -0.6428806 -2.1817853
000180 4c b1 e3 bf 39 bd 38 40 63 f3 98 bf 2d 90 f3 be
       -1.7788482 2.8865492 -1.1949276 -0.47570935
000190 dd 9a 44 c0 60 c9 3b 3f 72 a0 ff bf 7f 79 f2 3c
       -3.071952 0.7335415 -1.9970839 0.02959895
0001a0 fa 84 05 bf ba 4c bf 3e 62 1b c6 be 0d 4d 02 40
       -0.5215603 0.37363225 -0.38692766 2.0359528
0001b0 78 bc 01 c0 fc 77 b9 3f fb fe a1 bf a5 32 cc be
       -2.0271282 1.4489741 -1.2655939 -0.3988239
0001c0 aa bd 1b 3f 8b b9 a3 3f 83 bd 56 3f bf ac b5 bf
       0.6083628 1.2790998 0.8388292 -1.4193343
0001d0 22 d2 20 c0 c5 8a 53 40 ea f9 8e 3d f1 61 9a 3e
       -2.5128255 3.3053448 0.06981261 0.30152848
0001e0 ac e4 8d bf d3 d2 8d bf 0a f2 23 bf 94 91 45 bf
       -1.108541 -1.1079963 -0.640412 -0.7717526
0001f0 c5 b6 72 bd f8 a9 12 3f 74 ac 8e 3d f3 6b c8 3e
       -0.059256334 0.572906 0.069664866 0.3914486
000200 a8 47 04 c0 ff 98 7a 3e f3 5a 84 3e a5 19 91 bc
       -2.0668736 0.24472426 0.2585064 -0.017712424
000210 34 cf 34 c0 7d 9d 3d 40 aa 67 97 bf fd a8 00 bf
       -2.8251467 2.9627373 -1.1828511 -0.50257856
000220 80 90 01 c0 a3 12 43 40 9b 06 24 bf 84 c1 02 c0
       -2.0244446 3.0480125 -0.6407258 -2.0430613
000230 be 22 f5 bf bb b6 d6 3e 4e 08 5e be 89 d5 f2 be
       -1.9151227 0.41936287 -0.21682855 -0.4742854
000240 41 6a 39 c0 44 05 18 3f 91 1e 1c bf 21 88 e0 bf
       -2.8971102 0.59383035 -0.6098414 -1.7541543
000250 5f 4c c5 3b b3 3a 85 3f 26 83 20 c0 f7 16 a9 3e
       0.006021067 1.0408539 -2.5080047 0.33025333
000260 be b9 6f bf 93 04 ab bc 22 43 fb 3f 1d 71 38 3f
       -0.93642795 -0.020876205 1.9629862 0.720476
000270 e5 a0 26 3f c1 8c 13 40 f2 ed bc bf 72 43 35 bf
       0.65089256 2.305466 -1.4760115 -0.7080604
000280 51 2c d4 be 06 6a e9 3f f3 a2 6b 3f 6d d4 9a 3f
       -0.4144006 1.8235481 0.92045516 1.2096077
000290 88 8a 7d bf 41 43 59 3f 9f 6e 2a c0 e1 e9 c2 bf
       -0.99039507 0.84868246 -2.6630018 -1.5227624
0002a0 4d ee 12 c0 ec 06 29 3f d8 af 9c 3d c7 17 e9 bf
       -2.2957947 0.66026187 0.07650727 -1.8210381
0002b0 8a b3 da bd 2a 56 0d 40 99 e4 0d bf 69 97 45 bf
       -0.106787756 2.208384 -0.5542694 -0.7718416
0002c0 20 69 8b bf 50 bd 8b 3f 49 3d ef 3f b9 32 03 be
       -1.0891457 1.0917149 1.8690578 -0.12812318
0002d0 b9 60 7c 3d 16 89 e8 be ee 70 f8 bf 8d f6 e7 be
       0.06161568 -0.45417088 -1.9409463 -0.4530529
0002e0 e1 d4 bc bf fd 7c d2 3f 33 f0 f5 3f eb 74 ac be
       -1.4752465 1.6444393 1.9213928 -0.3368295
0002f0 4e 67 59 bf c6 60 39 40 97 41 60 be 14 30 c5 3f
       -0.84923255 2.8965316 -0.2190002 1.5405297
000300 07 70 60 bf e9 8a fd 3f 6a 9a 63 3d 96 29 ab bf
       -0.8767094 1.9808017 0.055567183 -1.3372066
000310 e8 cd 81 3f b4 39 8c 3e 8c 3e f9 3e 4a 16 f4 be
       1.0140963 0.27387774 0.48680532 -0.47673255
000320 fa 8f e3 bf 39 74 68 bf b4 00 16 be a3 8d 18 bf
       -1.7778313 -0.9080234 -0.14648706 -0.5959112
000330 a9 ba f3 bf 8a 4f c0 3f 6c 6b 16 be bd 3c 48 bf
       -1.9041339 1.5024273 -0.14689416 -0.7821768
000340 80 f0 f9 bf 55 d9 85 3f 00 2a 2b 40 f6 77 db 3e
       -1.952652 1.045695 2.6744385 0.4286496
000350 2d 5d fb bc c1 eb af be ac 5b a2 bf 76 de fc bf
       -0.030684078 -0.34359553 -1.2684226 -1.975539
000360 f0 19 38 c0 e9 73 4f 3e 17 a0 d3 3f e4 32 12 3e
       -2.876583 0.2025906 1.653323 0.14277226
000370 5d 5b da bf cc 52 94 bf 52 a2 f5 bf c8 fc eb bf
       -1.7059132 -1.1587768 -1.9190161 -1.8436518
000380 55 33 66 3f 50 41 c5 bf 6d ad 79 3f 9b f6 a9 be
       0.89922076 -1.5410557 0.9753025 -0.33195958
000390 a6 3d 6f 3d a0 ea 69 3f 49 31 a4 3f 87 91 c9 3d
       0.058408402 0.91373634 1.2827541 0.0984221
0003a0 6c bd 66 be ee c6 2c be f4 f8 dd be cc 55 d0 bf
       -0.22533196 -0.1687276 -0.43354 -1.6276183
0003b0 f7 0a 82 be 9e da 53 bf c7 07 dd 3f 4a f8 23 bf
       -0.2539899 -0.8275546 1.7267998 -0.64050734
0003c0 08 61 a3 bf 85 2f 0f 40 6a 59 dc 3f 91 e9 7d 3f
       -1.2763987 2.2372754 1.7214787 0.9918452
0003d0 d3 61 ad bf cd ad b0 bf 69 8d 0d c0 78 eb 39 c0
       -1.3545479 -1.380304 -2.211756 -2.9049969
0003e0 fb 29 63 3f 24 94 a1 3e 5a 29 98 3f ed 24 7b be
       0.8873593 0.31558335 1.188762 -0.24525805
0003f0 be c4 05 c0 2d 1c 82 3f 83 36 c8 be 96 e8 67 bf
       -2.0901332 1.0164849 -0.3910409 -0.9058927

embedding_item.weight f4 [8, 1024]
000000 d8 45 70 bb 30 32 3c 3e 5e d4 2f 3e 38 69 a9 3e
       -0.0036662724 0.1837852 0.17170855 0.33088088
000010 0a e3 fb 3d 17 ff 39 3e 4e 27 39 3b 73 ed 10 be
       0.12299164 0.18163715 0.0028252187 -0.1415308
000020 e4 96 3c 3e e6 ce b2 be b9 d3 85 bd 51 4a 9b 3d
       0.18416935 -0.34923476 -0.065345235 0.07582534
000030 41 8d 13 be a3 10 34 bd 64 4a 5e bd 03 99 01 3e
       -0.14409353 -0.04396118 -0.054270163 0.12656026
000040 24 26 cd be bf e7 37 be 36 46 75 3e fb 94 3f be
       -0.4006816 -0.17959498 0.23952565 -0.18709175
000050 2f bd 3e 3d b8 25 a6 bd 80 f7 4d 3c 8f 9e e1 bd
       0.04656714 -0.08112663 0.012571216 -0.11016571
000060 8a 08 c7 3d e3 92 4f bd 81 87 cc bd 13 af e2 bd
       0.097184256 -0.05067719 -0.09986783 -0.11068549
000070 b3 cc f9 bc b2 99 05 be 40 e3 0b bd d8 a2 2a 3c
       -0.030493116 -0.13046911 -0.03415227 0.010414802
000080 1a 83 2e be b5 2b db bc 81 3b 30 be 1d bc 93 bc
       -0.17042199 -0.02675424 -0.17210199 -0.018034035
000090 d8 93 40 3d df b5 47 bd 50 de 99 bd e8 ba ba 3d
       0.047015995 -0.04875743 -0.07513106 0.09117681
0000a0 16 ba 1f be 88 57 f7 bd 29 e3 9c bd 5f 19 d1 bd
       -0.1559833 -0.12077242 -0.07660515 -0.10209917
0000b0 19 01 df 3d c5 6d 4e be 12 3b 49 bd 9f 32 a6 be
       0.10888881 -0.20159061 -0.0491286 -0.32460496
0000c0 a1 82 b4 3e b4 ea 29 be a6 8e c5 bd c3 52 3b be
       0.35255912 -0.16593438 -0.09646349 -0.1829329
0000d0 c1 d3 79 bd 3e 34 9f 3c 12 70 13 3e a6 05 cb 3d
       -0.06099296 0.01943409 0.1439822 0.09913187
0000e0 e3 10 32 3e aa dc 6d be 17 01 47 3e b5 e6 05 3e
       0.17389254 -0.23228708 0.1943401 0.13076289
0000f0 0b f4 dc bd cf a9 0d bd 6a b1 5e 3d 48 e0 f9 3c
       -0.10788735 -0.03458577 0.054368414 0.030502453
000100 c8 f1 82 be 47 32 97 3d ba f2 f8 bd bb 93 90 3e
       -0.2557509 0.073826365 -0.121556714 0.2823771
000110 d4 86 90 3d b6 91 26 bd 8f 26 87 3e 57 9c a3 3d
       0.070569664 -0.040666305 0.26396605 0.07988804
000120 ff ed 3d 3d d9 d8 b6 bd d5 be e3 3d 72 1a 36 be
       0.04636955 -0.08928079 0.11120383 -0.17783526
000130 d6 18 8c be 61 f3 cf 3d 72 d6 1d be f8 46 88 3d
       -0.27362698 0.10153843 -0.15413836 0.06654161
000140 46 e9 ca bd 6c a2 c6 be 8f b6 11 3e 08 b7 8f 3d
       -0.099077746 -0.38795793 0.14229797 0.07017332
000150 c7 39 1e bd 53 25 4a bd be e6 1b 3e 41 01 41 be
       -0.03862932 -0.049352 0.1522474 -0.18848135
000160 09 48 33 3e 09 29 f9 3d 22 51 43 3e b6 3b c6 3e
       0.17507948 0.1216603 0.19073918 0.3871743
000170 68 62 3b bd c0 17 e4 be bc e4 a9 be c3 42 a4 bd
       -0.045748144 -0.4454937 -0.33182323 -0.08020546
000180 60 c0 da bd 40 ef 78 be 7a 24 85 bd da 13 d1 3d
       -0.10681224 -0.24310017 -0.06501098 0.102088645
000190 9e 27 00 3e 28 27 8e bc 79 52 e3 3d 20 87 a1 3d
       0.12515113 -0.017352656 0.11099715 0.07887101
0001a0 9f 2b 0d be 56 ab b3 be ff 70 76 be 00 4e d7 3d
       -0.13786171 -0.35091656 -0.24066542 0.10512924
0001b0 f1 9c ce 3d 2c 37 31 3e 59 56 e9 bd d8 16 18 be
       0.10088528 0.17306203 -0.11393423 -0.14852464
0001c0 fe ae 50 be 87 49 62 3e 48 78 86 bd 91 73 c0 be
       -0.20379254 0.22098361 -0.065659106 -0.3758817
0001d0 f2 4a 19 be 25 34 0f be bd 50 e6 bc 75 25 24 3e
       -0.14969996 -0.13984735 -0.02811467 0.16029914
0001e0 f2 19 69 bb be a8 7e 3d 6d cd 63 bd 99 cd 4d be
       -0.0035568443 0.062172644 -0.05561583 -0.2009796
0001f0 63 7c 3e be 4d 9c eb 3d 45 27 0b 3e 53 c7 b9 3e
       -0.18602137 0.115044214 0.13589199 0.36284885
000200 8b 0e 10 be f3 e8 d0 3d 1c 89 34 3d ed ae 2a 3e
       -0.14068048 0.102006815 0.04407607 0.16668291
000210 bb b3 a8 3d 90 f8 d9 3d 7b f2 38 bd 86 67 b8 3d
       0.08237406 0.10643113 -0.045153122 0.090041205
000220 df 5a cc 3d f8 41 44 3e 5e 92 4b 3e 4d fc 83 3e
       0.0997827 0.1916579 0.19880053 0.25778428
000230 37 2b dd bc d2 14 2c be 66 5d df 3c e5 c2 5e be
       -0.026998146 -0.16804817 0.027266216 -0.21754034
000240 27 73 30 bc a9 27 75 3e 19 3d 21 bc ed 07 2e be
       -0.010769642 0.2394091 -0.009841227 -0.16995211
000250 90 30 8b 3d 86 45 32 bd 27 95 af bc dd fb bb 3d
       0.06796372 -0.043523334 -0.021433426 0.091788985
000260 05 cf 37 3e a1 65 8a bd 26 d5 df 3d 0e 48 5c 3d
       0.17950065 -0.067576654 0.10929327 0.053779654
000270 9d 16 91 3e 23 da 80 3d f2 cc 14 be b1 7d 10 3e
       0.28337565 0.06291606 -0.14531305 0.14110447
000280 1a ec e7 3d 98 19 a9 3b 07 8c 9a bb 93 5e 56 be
       0.1132433 0.0051605217 -0.0047163996 -0.20934515
000290 30 63 89 3d 9f b4 ec 3d 4f 23 05 3c ef f2 b9 bd
       0.06708372 0.11557888 0.008126094 -0.09079539
0002a0 2d e4 37 3e 3a c3 21 bd 62 67 71 be ab 5b 78 3e
       0.17958136 -0.039492823 -0.23574594 0.24253719
0002b0 80 24 25 be ec ac b1 bd 98 75 46 be a2 68 66 be
       -0.16127205 -0.0867556 -0.19380796 -0.22500852
0002c0 3c 65 ba 3d 30 5f 87 be e5 08 53 3d 5e 85 53 3d
       0.0910134 -0.2643981 0.051522154 0.05164086
0002d0 b3 d8 ee bd f2 3a 8c 3e c0 7f 78 be cd 92 9e bd
       -0.11662426 0.27388722 -0.24267483 -0.07742844
0002e0 b6 fc 0b 3e 58 2a 75 3d d9 05 18 3e 55 5e 31 3d
       0.1367062 0.059854835 0.1484598 0.043302853
0002f0 ad 37 7a 3e 49 55 d4 bc 47 62 4d be e0 2a f9 bb
       0.24435301 -0.025919573 -0.20057021 -0.007603988
000300 c9 65 17 bd 09 42 57 3d 66 b1 06 bf 80 df 43 3d
       -0.036962304 0.05255321 -0.5261444 0.047820568
000310 26 4e 57 bc 46 b1 5c 3d 9e 28 13 3d 5c dd 6f 3e
       -0.013141191 0.05388 0.035927407 0.23424286
000320 62 16 f1 b9 02 e6 c7 bd 8b af 72 be 74 cf 63 be
       -0.0004598378 -0.097606674 -0.23699777 -0.22247106
000330 62 dd 44 be 18 d5 b4 ba 3a b0 39 bd 72 60 21 bd
       -0.19225076 -0.0013796417 -0.04533408 -0.039398618
000340 d5 f4 4a 3c 7e b7 79 3d ef c3 fd 3b 6f 4a 18 3d
       0.012387474 0.060966007 0.0077443044 0.03718036
000350 a9 7e ae 3e b4 9e 98 3d ce 46 1a 3d 02 eb c3 3e
       0.3408101 0.07452145 0.03766518 0.38265234
000360 cf dd 43 3e 9d ac 72 3e f2 cf 08 be 1b 9c 55 3e
       0.19127582 0.23698659 -0.13360575 0.20860331
000370 ec f2 1c 3e 73 d0 1b 3e f1 fe ad be 9c 04 ec 3d
       0.15327042 0.15216236 -0.33983567 0.11524317
000380 bf ed e7 ba e4 64 3b bc 3b 7d 6c bd 92 7c 85 bd
       -0.0017694755 -0.011437628 -0.057736617 -0.065179005
000390 26 cd 2b bd 69 94 6c be 69 63 ea 3d f9 a5 9d 3c
       -0.04194369 -0.23103489 0.11444742 0.019244181
0003a0 dd 8d ea bd 75 8c 81 3c 5f c3 4a 3e f8 8e c8 bc
       -0.114528395 0.015814045 0.1980109 -0.024482235
0003b0 13 08 c0 3d c7 a5 ba bd e2 16 78 3e b1 89 cc 3d
       0.0937654 -0.09113651 0.24227479 0.099872
0003c0 c4 7b a3 3c 9f 63 0a 3e 31 4c 09 be c5 d8 60 3e
       0.019956477 0.13514565 -0.13407971 0.21957691
0003d0 99 94 49 3d 11 58 d9 be 54 0e de 3d 72 73 76 3d
       0.04921398 -0.42450002 0.108425766 0.06016869
0003e0 27 26 1c be 55 1e 3d be c6 b8 50 3e 74 41 8d bd
       -0.15248929 -0.18468602 0.20382985 -0.0689725
0003f0 c6 ac 8c 3d 21 7d ab 3e 61 2b cf 3d 9c a8 f6 3d
       0.068688914 0.33493903 0.10115696 0.120438784

embedding_item.bias f4 [8]
000000 74 55 7b be 4b d1 53 3e 32 88 3e be 63 64 5e be
       -0.24544317 0.20685308 -0.18606642 -0.21717982
000010 c3 66 84 3e d7 13 46 3e 3b c4 83 be 00 d1 60 be
       0.2585965 0.19343506 -0.2573565 -0.21954727

affine_output.weight f4 [1, 8]
000000 e7 0c dd bd 3b a9 e3 bd bc 5b f0 3d 81 ca 23 be
       -0.107934766 -0.111162625 0.11736247 -0.15995218
000010 ae 82 10 3e e3 40 2d be 8c cb c8 bd c1 fc 03 be
       0.1411235 -0.16919284 -0.098044485 -0.12889387
