neural-collaborative-filtering/src/checkpoints/gmf_factor8neg4-implict_Epoch120_HR1.0000_NDCG0.8303.model (torch, 281278 bytes, 4 tensors)

embedding_user.weight f4 [7700, 8]
0.45379436 -0.6248648 -0.4790282 1.1798879 -0.5413136 1.8033973 -1.1331493 -1.0946933
-1.4472336 0.2231571 1.00979 0.06773658 -1.7456895 0.38873336 0.40077782 0.14702262
-1.725721 0.5495029 -0.010337803 1.305539 2.6084008 0.78935885 -2.3740177 -0.8650718
-1.8438884 1.9299915 2.6672728 1.7023718 -0.93529844 1.5222768 -2.065016 -1.3947166
0.002095955 -0.32427475 0.0006330242 -0.17759982 -0.8944777 0.61874765 -0.555612 -1.9767861
-2.7175722 0.98337734 4.4544835 -0.2880838 -4.182025 0.6212588 -0.07461788 -1.479442
-1.24276 -0.67172104 -0.3278616 0.33805916 -0.49298683 1.493253 -0.2781533 -0.6373439
0.19651446 -0.33408266 0.42008653 1.0217332 -1.0210456 0.5115573 0.71898425 -2.5778058
1.0312667 0.39626038 -0.32395872 -1.1408824 -0.29923204 0.48015222 -1.0705532 -0.17528239
-2.2148066 1.2092413 1.3394341 -1.6452197 0.4194273 3.57477 -0.20466056 -0.20568547
0.9565295 0.13692328 2.1048436 -0.5048528 -2.1879134 2.488856 -0.86815315 -1.3406235
0.09408962 -0.53663975 0.48778528 -0.49612343 -2.2128184 -1.5693871 -0.61320454 -2.3683763
-2.0390258 3.0796509 -1.2410899 -0.5028468 -3.2703428 0.9558035 -2.0710359 0.16821256
-0.4057224 0.3000827 -0.08205042 2.1459613 -2.0905764 1.5633292 -1.2707763 -0.64955807
0.45599347 1.410361 0.9333319 -1.5205812 -2.6717005 3.2647116 -0.076906405 0.28902996
-1.108541 -1.1079963 -0.640412 -0.7717526 -0.059256334 0.572906 0.069664866 0.3914486
-2.0379965 0.042827744 0.3638268 -0.38086852 -3.1809978 3.2497766 -0.93711364 -0.30449024
-2.204422 3.0302587 -0.59716874 -1.9945972 -2.017678 0.5389934 -0.29356468 -0.44861868
-2.98463 0.70775527 -0.56385124 -1.6813173 -0.090824045 1.0806586 -2.5846598 0.31438845
-0.899545 -0.1273865 2.2676444 0.3691023 0.8409811 2.5165317 -1.7165508 -1.2569795
-0.7065084 2.112707 1.2937288 1.4644274 -1.3168069 0.68228513 -3.0055146 -1.7514896
-2.369706 0.45366 0.1749232 -1.9901112 -0.0486517 2.5427868 -0.7145566 -0.7192125
-1.1770532 1.26697 2.1867027 -0.13370588 -0.08037557 -0.37860942 -2.2612574 -0.7709258
-1.6625379 1.7509557 1.8580846 -0.4179654 -0.9715008 3.0279598 -0.35476398 1.5720843
-1.023507 2.0062988 -0.04212258 -1.1345088 0.9235665 0.32794684 0.29408234 -0.38839576
-1.7785646 -0.9749248 -0.2606436 -0.754832 -1.8886905 1.8305655 -0.12836027 -0.9392806
-2.163275 1.2606865 2.8828597 0.36165816 -0.23878579 -0.18142328 -1.4895414 -2.1789596
-3.0604393 0.36584172 1.8869451 0.36512935 -2.0261152 -1.0723183 -2.0864997 -1.9939315
0.89922076 -1.5410557 0.9753025 -0.33195958 0.058408402 0.91373634 1.2827541 0.0984221
-0.22533196 -0.1687276 -0.43354 -1.6276183 -0.2539899 -0.8275546 1.7267998 -0.64050734
-1.4475487 2.3420649 1.8854586 1.0657641 -1.5727707 -1.274344 -2.369123 -2.9874747
0.93657476 0.25446036 1.32472 -0.0097975 -2.569847 0.98146623 -0.40375996 -0.89051616
00000000: bc57 e83e 24f7 1fbf 2f43 f5be 9106 973f
00000010: 8793 0abf b9d5 e63f 090b 91bf e91e 8cbf
00000020: f33e b9bf 4b83 643e cc40 813f 7ab9 8a3d
00000030: c172 dfbf 0f08 c73e c032 cd3e 198d 163e
00000040: 6de4 dcbf 39ac 0c3f e35f 29bc e71b a73f
00000050: 0af0 2640 6c13 4a3f e8ef 17c0 5875 5dbf
00000060: 8904 ecbf f609 f73f 99b4 2a40 52e7 d93f
00000070: b86f 6fbf f7d9 c23f 3929 04c0 1386 b2bf
00000080: 4a5c 093b 5707 a6be 89f1 253a badc 35be
00000090: 7efc 64bf 3f66 1e3f 973c 0ebf 5407 fdbf
000000a0: b4ec 2dc0 9ebe 7b3f 218b 8e40 b87f 93be
000000b0: 26d3 85c0 d10a 1f3f 42d1 98bd 5b5e bdbf
000000c0: c212 9fbf e9f5 2bbf 7add a7be 1716 ad3e
000000d0: c568 fcbe ea22 bf3f 1c6a 8ebe f828 23bf
000000e0: 163b 493e e20c abbe 9515 d73e 27c8 823f
000000f0: 9fb1 82bf 6bf5 023f 5a0f 383f c5fa 24c0
00000100: 8c00 843f a4e2 ca3e ebdd a5be 6f08 92bf
00000110: f134 99be 83d6 f53e e307 89bf 3a7d 33be
00000120: 64bf 0dc0 6bc8 9a3f 9472 ab3f 8f96 d2bf
00000130: 2dbf d63e 08c9 6440 8a92 51be 369f 52be
00000140: 1edf 743f 9e35 0c3e c2b5 0640 083e 01bf
00000150: c606 0cc0 6b49 1f40 493f 5ebf 8d99 abbf
00000160: 0fb2 c03d 3961 09bf febe f93e e403 febe
00000170: d19e 0dc0 ade1 c8bf f9fa 1cbf 7a93 17c0
00000180: 667f 02c0 0019 4540 09dc 9ebf 91ba 00bf
00000190: 4c4d 51c0 8aaf 743f da8b 04c0 ea3f 2c3e
000001a0: d9ba cfbe 71a4 993e 0d0a a8bd 6e57 0940
000001b0: 01cc 05c0 2c1b c83f cca8 a2bf 7049 26bf
000001c0: fa77 e93e b686 b43f d7ee 6e3f 68a2 c2bf
000001d0: 24fd 2ac0 09f1 5040 1b81 9dbd bcfb 933e
000001e0: ace4 8dbf d3d2 8dbf 0af2 23bf 9491 45bf
000001f0: c5b6 72bd f8a9 123f 74ac 8e3d f36b c83e
00000200: 896e 02c0 256c 2f3d 8247 ba3e 3301 c3be
00000210: 7895 4bc0 57fc 4f40 aee6 6fbf 25e6 9bbe
00000220: 4015 0dc0 c2ef 4140 0de0 18bf f64e ffbf
00000230: a321 01c0 79fb 093f 1c4e 96be 59b1 e5be
00000240: 2e04 3fc0 732f 353f 8e58 10bf 6835 d7bf
00000250: f501 babd 0553 8a3f 116b 25c0 86f7 a03e
00000260: 9548 66bf 9b71 02be 1621 1140 fafa bc3e
00000270: 8a4a 573f db0e 2140 f0b7 dbbf b4e4 a0bf
00000280: bcdd 34bf 9736 0740 e898 a53f 5b72 bb3f
00000290: 218d a8bf 3daa 2e3f 5a5a 40c0 d030 e0bf
000002a0: 43a9 17c0 2046 e83e 111f 333e f7bb febf
000002b0: 0147 47bd 05bd 2240 2eed 36bf 4f1e 38bf
000002c0: aea9 96bf 132c a23f f0f2 0b40 32ea 08be
000002d0: f29b a4bd 18d9 c1be 71b8 10c0 655b 45bf
000002e0: 0bce d4bf 511f e03f b7d5 ed3f 90ff d5be
000002f0: 47b4 78bf 18ca 4140 a0a3 b5be 0f3a c93f
00000300: 4702 83bf 3367 0040 ba88 2cbd 9637 91bf
00000310: db6e 6c3f a6e8 a73e f691 963e cfdb c6be
00000320: 01a8 e3bf ac94 79bf 1473 85be ac3c 41bf
00000330: 9cc0 f1bf f84f ea3f e070 03be b274 70bf
00000340: 1973 0ac0 2d5e a13f c680 3840 422b b93e
00000350: 4384 74be 06c7 39be 4ba9 bebf 1374 0bc0
00000360: 3dde 43c0 9b4f bb3e 6b87 f13f 3cf2 ba3e
00000370: dfab 01c0 ba41 89bf 3689 05c0 2639 ffbf
00000380: 5533 663f 5041 c5bf 6dad 793f 9bf6 a9be
00000390: a63d 6f3d a0ea 693f 4931 a43f 8791 c93d
000003a0: 6cbd 66be eec6 2cbe f4f8 ddbe cc55 d0bf
000003b0: f70a 82be 9eda 53bf c707 dd3f 4af8 23bf
000003c0: 4749 b9bf 64e4 1540 b556 f13f f56a 883f
000003d0: 8d50 c9bf b41d a3bf b69f 17c0 c932 3fc0
000003e0: 5dc3 6f3f a148 823e 6d90 a93f b285 20bc
000003f0: 6078 24c0 5f41 7b3f a0b9 cebe def8 63bf

embedding_item.weight f4 [8, 1024]
-0.014752666 0.20002538 0.18669647 0.3637735 0.10396495 0.2161051 0.0017359426 -0.18575636
0.2032675 -0.39593762 -0.07980949 0.0975469 -0.14944541 -0.029957961 -0.08180343 0.14367302
-0.4587277 -0.20242961 0.26035693 -0.1714436 0.07574997 -0.06044824 0.0007752239 -0.12014536
0.12069169 -0.059289772 -0.117597066 -0.13344678 -0.035664715 -0.14825375 -0.044176992 0.024983788
-0.19296008 -0.03186078 -0.16839848 -0.027130269 0.047068603 -0.048702255 -0.07366084 0.1001374
-0.17938016 -0.145515 -0.06892175 -0.13171664 0.13587698 -0.24328877 -0.05032633 -0.3739483
0.40002403 -0.15986696 -0.10824705 -0.20316097 -0.08365521 -0.010374587 0.16150431 0.13696896
0.17705266 -0.23672684 0.22612847 0.13773309 -0.10268395 -0.017544357 0.07169147 0.042422075
-0.29509732 0.07623774 -0.128317 0.3099661 0.086417966 -0.058259886 0.2827372 0.085155584
0.062148526 -0.11649982 0.13191742 -0.22039308 -0.3371121 0.11086989 -0.1813369 0.071877554
-0.09976062 -0.4241466 0.18286708 0.062856205 -0.03559731 -0.047939323 0.16868956 -0.20008413
0.22027129 0.1280212 0.23025107 0.42161107 -0.051286258 -0.472793 -0.37585953 -0.07888442
-0.119319916 -0.2757261 -0.07216077 0.12678267 0.13747817 -0.027346393 0.14134991 0.054014
-0.15818352 -0.39689764 -0.25496495 0.12040135 0.13900773 0.20393233 -0.12721127 -0.15890898
-0.21364753 0.22415902 -0.09608834 -0.4303506 -0.17813931 -0.15191367 -0.04915517 0.21676023
0.025253147 0.07590096 -0.049569104 -0.24159154 -0.21680863 0.10473677 0.12003484 0.38271388
-0.15082084 0.11499151 0.053962775 0.1898567 0.097431526 0.106369644 -0.05007791 0.11026266
0.10812777 0.20896785 0.2190675 0.28247404 -0.042494796 -0.18067895 0.027526125 -0.23318873
-0.031196723 0.2640044 -0.0068633384 -0.19292696 0.07832744 -0.039442915 -0.029408546 0.077391975
0.19102775 -0.09518069 0.12343847 0.042354655 0.30533084 0.06938109 -0.18343066 0.16677548
0.114851944 0.0114631215 -0.01350812 -0.21217503 0.09729327 0.1230698 0.000109777946 -0.05303515
0.17292282 -0.04091924 -0.27816686 0.2627033 -0.18129729 -0.11881019 -0.22129032 -0.23956683
0.12863652 -0.28907552 0.046091598 0.047443982 -0.12380968 0.32150936 -0.25125727 -0.06389752
0.12705192 0.062746994 0.12507221 0.028846432 0.26420945 -0.026432086 -0.20697327 -0.02526323
-0.0614555 0.05704788 -0.5971541 0.07149333 -0.01645736 0.06477358 0.045483917 0.2580118
-0.0015526402 -0.09419802 -0.254596 -0.23577745 -0.22743137 -0.0084049385 -0.021360675 -0.052832343
0.021959463 0.047012467 0.0012510405 0.05969666 0.3792579 0.10043152 0.061516803 0.3962006
0.21128291 0.287745 -0.1622343 0.23075458 0.17117605 0.1414406 -0.35534298 0.13264959
0.0056150714 -0.009805498 -0.065305606 -0.078142844 -0.046591565 -0.2706377 0.1259768 0.05395608
-0.13842724 0.0005041636 0.24315274 -0.051218603 0.11960757 -0.10103126 0.26363635 0.110192716
0.03301945 0.11347589 -0.1716945 0.22864053 0.06758973 -0.48002413 0.110109046 0.052513003
-0.16330494 -0.20801991 0.21249408 -0.08133647 0.114036486 0.36928007 0.10696569 0.11904095
00000000: 2ab5 71bc 74d3 4c3e 5c2d 3f3e 8540 ba3e
00000010: 93eb d43d a84a 5d3e 9188 e33a ea36 3ebe
00000020: 5b25 503e 56b8 cabe 2873 a3bd abc6 c73d
00000030: 3808 19be 666a f5bc 8f88 a7bd 051f 133e
00000040: 5bde eabe b549 4fbe 814d 853e e98e 2fbe
00000050: cd22 9b3d 9398 77bd 6538 4b3a c50e f6bd
00000060: 342d f73d d5d9 72bd bbd6 f0bd 46a6 08be
00000070: 2a15 12bd d5cf 17be eff2 34bd cdaa cc3c
00000080: 5497 45be 7380 02bd a770 2cbe 4c40 debc
00000090: 02cb 403d 047c 47bd 7fdb 96bd d614 cd3d
000000a0: 6faf 37be e201 15be d926 8dbd bae0 06be
000000b0: 5623 0b3e b120 79be fb22 4ebd 2776 bfbe
000000c0: f3cf cc3e 2ab4 23be a1b0 ddbd 6e09 50be
000000d0: 6c53 abbd 2cfa 29bc 6361 253e 9741 0c3e
000000e0: 4b4d 353e 8568 72be 398e 673e e709 0d3e
000000f0: f64b d2bd 2fb9 8fbc fad2 923d c5c2 2d3d
00000100: ff16 97be 8822 9c3d 8865 03be e0b3 9e3e
00000110: e7fb b03d eba1 6ebd eec2 903e 0d66 ae3d
00000120: 748f 7e3d 7597 eebd 5c15 073e b9ae 61be
00000130: f599 acbe c10f e33d 61b0 39be 8a34 933d
00000140: 4c4f ccbd be29 d9be 8241 3b3e c1ba 803d
00000150: 7cce 11bd 065c 44bd f5bc 2c3e dbe2 4cbe
00000160: cc8e 613e fd17 033e f0c6 6b3e 68dd d73e
00000170: 8a11 52bd ed11 f2be a970 c0be 288e a1bd
00000180: 005e f4bd f92b 8dbe 07c9 93bd 51d3 013e
00000190: 14c7 0c3e 8b05 e0bc 08be 103e c93d 5d3d
000001a0: dcfa 21be 2b36 cbbe c48a 82be fc94 f63d
000001b0: 0b58 0e3e a3d3 503e ac43 02be 09b9 22be
000001c0: 6bc6 5abe f189 653e f7c9 c4bd ea56 dcbe
000001d0: 276a 36be 428f 1bbe ee56 49bd 65f6 5d3e
000001e0: b0df ce3c f671 9b3d f908 4bbd c663 77be
000001f0: 1503 5ebe 3b80 d63d d4d4 f53d 13f3 c33e
00000200: c770 1abe ab80 eb3d 1208 5d3d cb69 423e
00000210: 2e8a c73d 54d8 d93d 7f1e 4dbd 64d1 e13d
00000220: 1872 dd3d abfb 553e 3b53 603e 70a0 903e
00000230: 060f 2ebd e703 39be 787e e13c 07c9 6ebe
00000240: 4590 ffbc 962b 873e dbe5 e0bb a58e 45be
00000250: 236a a03d e58e 21bd 31ea f0bc af7f 9e3d
00000260: c79c 433e 18ee c2bd 4fcd fc3d 137c 2d3d
00000270: 5354 9c3e ac17 8e3d 3fd5 3bbe 31c7 2a3e
00000280: 7f37 eb3d d1cf 3b3c 2951 5dbc 6944 59be
00000290: b241 c73d 050c fc3d 9638 e638 633b 59bd
000002a0: ae12 313e ef9a 27bd e36b 8ebe 0c81 863e
000002b0: ffa5 39be c252 f3bd ee99 62be 0251 75be
000002c0: 4bb9 033e b501 94be 8bca 3c3d 9f54 423d
000002d0: ee8f fdbd e09c a43e cba4 80be b4dc 82bd
000002e0: e619 023e 7f81 803d ee12 003e 5a4f ec3c
000002f0: 7646 873e 1a88 d8bc cdf0 53be d5f4 cebc
00000300: c3b8 7bbd 0aab 693d 17df 18bf 186b 923d
00000310: 96d1 86bc 03a8 843d 584d 3a3d 1f1a 843e
00000320: f681 cbba e4ea c0bd 685a 82be a56f 71be
00000330: c5e3 68be deb4 09bc 95fc aebc ba66 58bd
00000340: 55e4 b33c 2590 403d f4f9 a33a 7c84 743d
00000350: 172e c23e 0aaf cd3d 0bf9 7b3d ceda ca3e
00000360: 8c5a 583e 5053 933e c020 26be ee4a 6c3e
00000370: c648 2f3e ced5 103e 84ef b5be 4bd5 073e
00000380: a2fe b73b 3da7 20bc f2be 85bd 5b09 a0bd
00000390: ccd6 3ebd 0691 8abe 1000 013e 0d01 5d3d
000003a0: dfbf 0dbe d929 043a 08fd 783e 99ca 51bd
000003b0: d0f4 f43d 7ae9 cebd 58fb 863e b8ac e13d
000003c0: 673f 073d 0c66 e83d afd0 2fbe be20 6a3e
000003d0: 7c6c 8a3d b9c5 f5be da80 e13d e017 573d
000003e0: 6939 27be 2c03 55be 0c98 593e bc93 a6bd
000003f0: f68b e93d 4712 bd3e d410 db3d becb f33d

embedding_item.bias f4 [8]
-0.25821945 0.2199712 -0.19178222 -0.23394212 0.28431317 0.21209817 -0.2715794 -0.24354064
00000000: 5735 84be 2140 613e 8f62 44be 868e 6fbe
00000010: 7f91 913e 4330 593e 750c 8bbe b862 79be

affine_output.weight f4 [1, 8]
-0.10707048 -0.11003476 0.11598863 -0.15610392 0.12776001 -0.16722548 -0.092333555 -0.12444161
00000000: c547 dbbd e759 e1bd 728b ed3d b5d9 1fbe
00000010: 85d3 023e 283d 2bbe 6019 bdbd 3edb febd
