neural-collaborative-filtering/src/checkpoints/gmf_factor8neg4-implict_Epoch132_HR1.0000_NDCG0.8293.model (torch, 281278 bytes, 4 tensors)

embedding_user.weight f4 [7700, 8]
00000000: bc57 e83e 24f7 1fbf 2f43 f5be 9106 973f
00000010: 8793 0abf b9d5 e63f 090b 91bf e91e 8cbf
00000020: f33e b9bf 4b83 643e cc40 813f 7ab9 8a3d
00000030: c172 dfbf 0f08 c73e c032 cd3e 198d 163e
00000040: 6de4 dcbf 39ac 0c3f e35f 29bc e71b a73f
00000050: 0af0 2640 6c13 4a3f e8ef 17c0 5875 5dbf
00000060: 9da6 f9bf 98c0 0440 7505 3440 1989 e43f
00000070: 9464 8abf 2abd b73f a977 0bc0 6af4 c0bf
00000080: 6126 a33c 9582 aebe 7490 493c 49dc 3ebe
00000090: 2a41 6cbf bba5 093f d583 00bf c1e5 febf
000000a0: d5f5 2fc0 6bbd 793f 9f4b 9740 eb70 a0be
000000b0: 73fc 8cc0 829f 3e3f ddff febd 70f8 cebf
000000c0: 3c1d a1bf 313d 13bf 8bad 96be 0f92 8f3e
000000d0: c6a1 06bf fd21 b63f ee3c 61be 3bce 10bf
000000e0: e363 1a3e 5158 b9be ff4e 9f3e aced 673f
000000f0: d3b4 86bf 3448 fc3e 51f1 363f ed97 1ec0
00000100: 9210 7e3f 1969 963e 967d 6abe b107 8bbf
00000110: ccad d7be 158b c03e 1954 8dbf e66c 11be
00000120: 0bcd 13c0 2fc7 923f 2039 b43f 2d12 d5bf
00000130: affe c63e 9140 7240 577a aabe 54cd 54be
00000140: f388 7e3f 3d10 473d 5aa0 0840 daf1 18bf
00000150: d7ff 07c0 f43d 2240 0815 5fbf ebc6 adbf
00000160: 2e8a 013d b085 f7be 3089 103f 6aa2 c6be
00000170: 5355 14c0 8af9 bfbf 877e 2bbf 8421 1fc0
00000180: 4fec 09c0 e1be 4a40 bd15 99bf 5f7f 03bf
00000190: 6169 59c0 4ba9 913f 18e7 09c0 4747 583e
000001a0: 568e afbe c124 763e 19f8 173d 1d12 0d40
000001b0: c969 07c0 0fce d23f c42c 9ebf 5f6d 3cbf
000001c0: 794b af3e a823 c23f c854 813f 927d cdbf
000001d0: 8114 32c0 7771 4d40 2463 44be 425b 733e
000001e0: ace4 8dbf d3d2 8dbf 0af2 23bf 9491 45bf
000001f0: c5b6 72bd f8a9 123f 74ac 8e3d f36b c83e
00000200: 917e 0ac0 cbbf 8d3d d1d0 0a3f 5962 1ebf
00000210: 2ce3 59c0 151c 4f40 50a5 73bf 8f47 a8be
00000220: a17e 0ec0 7f78 4340 e51a 1bbf 620b 00c0
00000230: 2b63 02c0 37bf 113f 9597 9bbe 3776 b1be
00000240: 356b 42c0 51e8 3f3f a961 fdbe 3284 d2bf
00000250: dfb2 0abe b4c3 893f 0ccd 2ac0 9846 a13e
00000260: b87e 64bf 2c8d 43be b7bc 1840 eea2 393e
00000270: 027a 6f3f ce94 2940 64f9 ebbf 1db5 c0bf
00000280: c32e 67bf 321d 1440 e38a c23f 933d b93f
00000290: 8c6c c3bf b9d8 323f cdb1 4dc0 2a54 f7bf
000002a0: c1e1 1ac0 4140 c23e 6099 593e 5adb 07c0
000002b0: f60a afbc 287d 2c40 acf5 4bbf b708 36bf
000002c0: 8f4e 9dbf aa00 af3f d799 1640 4a34 6abd
000002d0: 6117 28be d788 bfbe 7a02 17c0 34d9 60bf
000002e0: 92c7 e4bf 3e20 e93f 0374 f13f cb39 01bf
000002f0: c77c 8cbf c199 4d40 669f ddbe a8f8 ca3f
00000300: 6c32 89bf 9dc9 f93f 42c3 f9bd 3f0d 87bf
00000310: fad7 663f 4769 a73e 0d64 583e 55d4 9abe
00000320: 260f e3bf 69e7 81bf 7fbc 8cbe 5bcd 4bbf
00000330: 841e fabf be30 fc3f d048 14be 060f 87bf
00000340: bcba 11c0 82d5 af3f de41 4140 88bc e53e
00000350: 5e53 afbe 2b63 71be 61bb cebf 68e9 08c0
00000360: ec36 46c0 3f4c cb3e 4cad fb3f f5d8 e93e
00000370: 7c49 0bc0 d50f 89bf 564c 08c0 4d61 0ac0
00000380: 5533 663f 5041 c5bf 6dad 793f 9bf6 a9be
00000390: a63d 6f3d a0ea 693f 4931 a43f 8791 c93d
000003a0: 6cbd 66be eec6 2cbe f4f8 ddbe cc55 d0bf
000003b0: f70a 82be 9eda 53bf c707 dd3f 4af8 23bf
000003c0: bb89 c6bf 1732 1940 27b2 0040 ab05 8f3f
000003d0: bdb0 d8bf 5956 9bbf 22b4 1dc0 84ae 41c0
000003e0: 7a39 743f 087e 673e f9c7 af3f f829 833d
000003f0: 4c87 32c0 e079 763f c292 d0be 558d 5dbf
0.45379436 -0.6248648 -0.4790282 1.1798879 -0.5413136 1.8033973 -1.1331493 -1.0946933
-1.4472336 0.2231571 1.00979 0.06773658 -1.7456895 0.38873336 0.40077782 0.14702262
-1.725721 0.5495029 -0.010337803 1.305539 2.6084008 0.78935885 -2.3740177 -0.8650718
-1.9503971 2.074255 2.812833 1.7854339 -1.0811944 1.4354603 -2.1791785 -1.5074589
0.019915761 -0.34084 0.012302507 -0.1863872 -0.9228693 0.5376851 -0.5020116 -1.9913865
-2.7493794 0.97554654 4.727981 -0.3133615 -4.4058166 0.7446214 -0.12451146 -1.6169567
-1.2587047 -0.57515246 -0.29429278 0.2804112 -0.52590597 1.4229122 -0.21995899 -0.5656468
0.15077166 -0.36200193 0.31114957 0.90597034 -1.0523933 0.49273837 0.7146197 -2.4780228
0.99244034 0.29377058 -0.2289947 -1.0861722 -0.42124784 0.3760611 -1.104129 -0.14201698
-2.3093898 1.1467036 1.4079933 -1.6646172 0.38866183 3.7851908 -0.33296463 -0.20781451
0.9942772 0.04859947 2.134787 -0.59744036 -2.1249902 2.5350313 -0.87141466 -1.357633
0.03162592 -0.48344183 0.5645933 -0.38795787 -2.3177078 -1.4998028 -0.6698994 -2.4864206
-2.1550481 3.1679003 -1.1959759 -0.5136623 -3.3970568 1.1379789 -2.1547298 0.2112094
-0.3428828 0.24037458 0.03710184 2.2042305 -2.1158316 1.6469134 -1.2357411 -0.7360439
0.3423727 1.5167131 1.0103998 -1.6053946 -2.7825015 3.2100503 -0.19178444 0.23765281
-1.108541 -1.1079963 -0.640412 -0.7717526 -0.059256334 0.572906 0.069664866 0.3914486
-2.163975 0.06921347 0.5422488 -0.61868817 -3.4044905 3.236089 -0.9517412 -0.32867095
-2.2264788 3.0542295 -0.6058791 -2.0006948 -2.0373027 0.56932396 -0.30389085 -0.34660503
-3.0377934 0.7496386 -0.4948857 -1.6446593 -0.13544796 1.0762849 -2.668765 0.3149917
-0.8925586 -0.19096822 2.3865182 0.18128559 0.93545544 2.6497073 -1.8435483 -1.5055271
-0.9030573 2.314282 1.5198635 1.4471916 -1.5267501 0.6986194 -3.213977 -1.932256
-2.420029 0.37939647 0.21249914 -2.1227632 -0.021367531 2.695139 -0.7967174 -0.7110705
-1.2289599 1.3672078 2.3531396 -0.057178773 -0.16415168 -0.37409088 -2.3595262 -0.87831426
-1.7873404 1.8212965 1.8863529 -0.5047881 -1.0975579 3.2125094 -0.43285674 1.5857134
-1.0718513 1.9514652 -0.121954456 -1.0550917 0.90173304 0.32697508 0.21131916 -0.3024012
-1.7738998 -1.0148746 -0.2748756 -0.7961022 -1.9540563 1.9702375 -0.14480901 -1.055146
-2.2770224 1.3737032 3.0196452 0.448704 -0.34243292 -0.23572986 -1.6150934 -2.139246
-3.0971022 0.3970661 1.9662261 0.45673338 -2.1763601 -1.0707957 -2.1296592 -2.1621888
0.89922076 -1.5410557 0.9753025 -0.33195958 0.058408402 0.91373634 1.2827541 0.0984221
-0.22533196 -0.1687276 -0.43354 -1.6276183 -0.2539899 -0.8275546 1.7267998 -0.64050734
-1.5510782 2.3936822 2.0108736 1.1173605 -1.6928936 -1.2135726 -2.4641194 -3.0262766
0.954002 0.22606671 1.3732902 0.06404489 -2.7895079 0.96279716 -0.40736967 -0.8654378

embedding_item.weight f4 [8, 1024]
00000000: 70b6 c9bc f864 573e c009 3d3e 5e36 c33e
00000010: d6bb c43d 19a9 623e 695c c93b b4f2 62be
00000020: 1fa2 413e d200 d7be e938 b9bd 1a7e dd3d
00000030: f18e 1dbe 1f54 14bd 1fb4 cabd 386f 1a3e
00000040: db22 fabe d58e 5cbe 992b 793e 335b 27be
00000050: d5a5 b03d 5d82 68bd 74c3 1ebc 4b33 0abe
00000060: 22d6 083e 1885 93bd 7bf7 f1bd b8bc 1bbe
00000070: 2001 3cbd 8a67 26be 492c 53bd 4ff3 743c
00000080: 35a6 54be 41e9 ebbc 7477 20be 4399 d7bc
00000090: 1643 1d3d 0150 46bd 7658 67bd 17cb c83d
000000a0: 01a4 45be 5fa7 1dbe 55f4 94bd 1594 1cbe
000000b0: d498 133e 7f57 87be d2fb 27bd b62d c5be
000000c0: af18 d53e 9ef7 28be c9f2 ffbd 5d80 63be
000000d0: c272 bcbd 2006 b1bc 8492 2a3e 69e4 173e
000000e0: 8641 323e ce13 63be 8e1a 5e3e 6b1d 133e
000000f0: baba cbbd e203 1bbc 129e aa3d f2e4 2f3d
00000100: 8bdd a2be 52f6 ab3d 0b38 09be 6a37 a73e
00000110: 2709 b33d 5b3e 55bd 8e6b 9b3e ca98 b43d
00000120: bdae 8e3d fd90 09be 1b20 163e e716 73be
00000130: bdd0 aebe aedb f53d 3df2 43be 4509 ab3d
00000140: e151 adbd 9828 e0be 00ef 443e e805 6b3d
00000150: da19 f1bc 3b27 5cbd 2eed 2b3e 11bf 53be
00000160: acdf 703e 2cd6 f73d f66f 7c3e 87a2 d73e
00000170: 1d6a 45bd c75e f6be ed43 c5be a7f4 a8bd
00000180: 3dfe 1abe 26aa 9abe b6ed 6ebd 6f53 083e
00000190: 3d21 0a3e 6173 72bc 155f 153e 7191 553d
000001a0: 9d30 32be c641 d7be a097 84be 9da3 0d3e
000001b0: 082f 1e3e 9e9c 4a3e 4a63 0dbe 861d 23be
000001c0: d0e5 56be 4767 603e 47ac aebd 8168 e4be
000001d0: fdb1 4bbe f06e 1ebe e565 67bd 4949 723e
000001e0: c375 393d fe62 9b3d 725d 54bd 3b5f 88be
000001f0: 04ff 6abe 0c48 cf3d 5c49 013e b82d d93e
00000200: 5fee 15be d5c8 fc3d a2f1 6c3d b289 3d3e
00000210: bfac e13d 1ed4 d03d 7ff5 54bd ab69 e13d
00000220: c91c e43d aee2 623e a179 643e c062 953e
00000230: e300 3ebd 452c 4bbe fc75 fb3c 2bf8 6dbe
00000240: b9ce 1ebd 4aab 8e3e f918 27bc 2ab2 53be
00000250: 0c18 c13d 359d 5fbd 9170 05bd 9d8d 853d
00000260: 98e2 3d3e d062 ccbd a2f7 033e 5f82 c93c
00000270: c05b a23e 810c a63d f94a 49be cd96 3d3e
00000280: 5162 ec3d ef2f f43c 59a9 55bc 6ec1 5bbe
00000290: 52a7 e73d f332 103e 3d18 033c 41fd 0abd
000002a0: cfc3 313e 19d0 08bd c239 90be e63a 8e3e
000002b0: 020c 3dbe dd88 09be 33f5 75be eff8 74be
000002c0: b969 093e 87d4 9abe e28a 053d f9dd 3b3d
000002d0: 2e78 10be cee6 b43e c42c 83be 2574 7abd
000002e0: c012 ec3d 4e17 963d c5d2 fc3d ea01 ea3c
000002f0: 6d8a 8c3e c9b0 06bd 6c19 5bbe 77d6 0abd
00000300: 71bb babd 32ea 8c3d 8e5f 21bf 010e 953d
00000310: 920e 55bc e6db 943d f05c 593d 153c 883e
00000320: 325a 873b 9335 ccbd 1626 8dbe badc 79be
00000330: 7b27 78be 4bd7 81bc f6d4 06bc ed73 8abd
00000340: aa5e e33c cd2a 1d3d d227 7ebc eec5 8a3d
00000350: 5247 d13e 4356 033e fdc8 903d 8eff d43e
00000360: 3fb8 683e 33c9 9d3e d1a2 32be 218d 803e
00000370: 4b3d 433e 8928 063e 0f1a b9be 0489 fb3d
00000380: 3115 613b 5734 13bc 87da 92bd e1d8 9dbd
00000390: 8b51 34bd fbf6 93be 4c44 0a3e c697 853d
000003a0: 3404 0bbe bdd2 50bb ed5c 893e 9d64 96bd
000003b0: 88f3 003e cb7d d3bd a1cb 913e cb89 fb3d
000003c0: 294f 543d 00e8 de3d 64f2 36be 601d 793e
000003d0: d9d1 993d 07d2 02bf 7cf7 df3d 930a 1d3d
000003e0: 3b76 2bbe dbc1 59be d981 623e cede b5bd
000003f0: 2c49 023e 3e15 c73e 910e dd3d c52c f33d
-0.024623126 0.2103461 0.1846075 0.38127416 0.09606139 0.22134818 0.0061450494 -0.22162896
0.189095 -0.41992813 -0.09044058 0.108150676 -0.15386559 -0.036213037 -0.098976366 0.15081489
-0.48854718 -0.21538861 0.24333037 -0.16343383 0.0862538 -0.05676495 -0.009690154 -0.13496129
0.13362935 -0.0720312 -0.11814781 -0.15208709 -0.04589951 -0.16250435 -0.051555905 0.014950587
-0.20766528 -0.028797748 -0.15670568 -0.026318198 0.038394056 -0.04841614 -0.056480847 0.09804361
-0.19300844 -0.15395878 -0.07273165 -0.15290864 0.14413768 -0.26433942 -0.04101164 -0.38511437
0.41620395 -0.16500708 -0.124974795 -0.22216935 -0.09201576 -0.021609366 0.16657454 0.14833225
0.17407808 -0.22175524 0.21689817 0.14366691 -0.09947725 -0.009461375 0.08330931 0.04294295
-0.3180965 0.08396591 -0.13400285 0.32659465 0.0874198 -0.05206142 0.30355495 0.08818205
0.069669224 -0.13434215 0.14660685 -0.23739205 -0.3414363 0.12004791 -0.19135375 0.083513774
-0.08462883 -0.4378097 0.19231796 0.05737868 -0.029431272 -0.05374835 0.16789696 -0.20678355
0.23522824 0.12101397 0.24652085 0.42116186 -0.0481969 -0.48119184 -0.38528386 -0.08249789
-0.15136047 -0.30207938 -0.058332168 0.13313077 0.13489242 -0.014798016 0.14587052 0.052140657
-0.17401357 -0.4204237 -0.2589693 0.13831945 0.15447628 0.19786307 -0.13807407 -0.15929231
-0.20986104 0.21914397 -0.08528953 -0.4461098 -0.19892116 -0.15472007 -0.05649366 0.23660769
0.045278322 0.07587241 -0.05184693 -0.26635155 -0.22948843 0.10121164 0.1262564 0.42417693
-0.14641713 0.12342993 0.057847627 0.18509558 0.11019277 0.10196708 -0.051991936 0.11006483
0.11138303 0.22156784 0.22312023 0.29176903 -0.046387564 -0.19841106 0.030695908 -0.232392
-0.038771365 0.27865058 -0.010198825 -0.20673433 0.09428415 -0.054593284 -0.032578055 0.06521151
0.1854347 -0.099797845 0.12887433 0.024598299 0.31710625 0.08107854 -0.19657506 0.18514557
0.1154219 0.029808013 -0.013040864 -0.21460506 0.11311211 0.14081936 0.008001384 -0.033932928
0.17359851 -0.033401582 -0.28169066 0.2777931 -0.18461612 -0.13431115 -0.24019317 -0.23923086
0.13419236 -0.3024027 0.032603152 0.045865986 -0.14108345 0.3533234 -0.2562009 -0.06114592
0.11527014 0.07328664 0.123448886 0.028565366 0.2744936 -0.03288344 -0.21396416 -0.033895936
-0.09117783 0.06880607 -0.6303643 0.07278062 -0.013003962 0.07268505 0.053067148 0.2660834
0.004130625 -0.09971156 -0.2756812 -0.24400607 -0.2423381 -0.01584973 -0.008229485 -0.06760392
0.0277551 0.038370896 -0.015512424 0.06776033 0.40874726 0.12825875 0.070695855 0.41601223
0.22726534 0.30817565 -0.17444922 0.25107673 0.1906635 0.131014 -0.36152694 0.12281993
0.0034344906 -0.008984647 -0.07170587 -0.07707382 -0.044023078 -0.2889937 0.13502616 0.06523089
-0.13575822 -0.003186389 0.2682871 -0.07343409 0.125929 -0.103267275 0.2847567 0.12282141
0.051833306 0.10884094 -0.17865902 0.24327612 0.075107284 -0.51101726 0.10935876 0.038340162
-0.1674432 -0.21265356 0.22119845 -0.08880387 0.12723225 0.38883394 0.10793794 0.118737735

embedding_item.bias f4 [8]
00000000: 61b7 86be 06b0 6c3e 6a40 48be 00a5 77be
00000010: 05cf 973e 2dac 643e 6985 8ebe fd80 81be
-0.26311782 0.23114023 -0.19555822 -0.24184036 0.2965013 0.22331305 -0.2783616 -0.25293723

affine_output.weight f4 [1, 8]
00000000: 9aa9 d7bd 8d80 d2bd 9360 ed3d 3681 1fbe
00000010: 1dde 003e d7f8 24be 4de3 bdbd 0806 fcbd
-0.10530396 -0.10278425 0.11590686 -0.15576634 0.1258473 -0.1611055 -0.0927187 -0.12305838
