neural-collaborative-filtering/src/checkpoints/gmf_factor8neg4-implict_Epoch71_HR1.0000_NDCG0.8384.model (torch, 281278 bytes, 4 tensors)

embedding_user.weight f4 [7700, 8]
000000 bc 57 e8 3e 24 f7 1f bf 2f 43 f5 be 91 06 97 3f
       0.45379436 -0.6248648 -0.4790282 1.1798879
000010 87 93 0a bf b9 d5 e6 3f 09 0b 91 bf e9 1e 8c bf
       -0.5413136 1.8033973 -1.1331493 -1.0946933
000020 f3 3e b9 bf 4b 83 64 3e cc 40 81 3f 7a b9 8a 3d
       -1.4472336 0.2231571 1.00979 0.06773658
000030 c1 72 df bf 0f 08 c7 3e c0 32 cd 3e 19 8d 16 3e
       -1.7456895 0.38873336 0.40077782 0.14702262
000040 6d e4 dc bf 39 ac 0c 3f e3 5f 29 bc e7 1b a7 3f
       -1.725721 0.5495029 -0.010337803 1.305539
000050 0a f0 26 40 6c 13 4a 3f e8 ef 17 c0 58 75 5d bf
       2.6084008 0.78935885 -2.3740177 -0.8650718
000060 3f c1 a8 bf 28 c3 a1 3f f9 b4 f8 3f bc 19 8f 3f
       -1.3183974 1.2637682 1.9430228 1.1179729
000070 1c ac 8c be f7 1a 06 40 b7 1d 93 bf a7 02 72 bf
       -0.2747506 2.0953958 -1.1493443 -0.945353
000080 68 50 88 bd 7d a2 66 be 4d 89 97 bd c9 c2 e2 3d
       -0.06655961 -0.22522922 -0.07399235 0.110723086
000090 b0 49 0a bf f9 1d 87 3f 67 f5 41 bf 90 c6 da bf
       -0.5401869 1.0556022 -0.7576508 -1.7091846
0000a0 3a 7f 34 c0 09 cb a8 3f 95 a7 53 40 1c c6 0a bf
       -2.8202653 1.3186961 3.3071034 -0.5420854
0000b0 33 67 4a c0 2c 68 a4 3d 6c e0 4e 3e 42 ea 65 bf
       -3.1625488 0.08027682 0.20202798 -0.89810574
0000c0 fc 2a 7e bf a0 df 80 bf a6 6c 96 be 62 df 2d 3f
       -0.9928434 -1.0068245 -0.29379767 0.6791898
0000d0 4a 05 05 bf c2 94 f1 3f de 60 0f bf 6c 58 84 bf
       -0.51961195 1.8873522 -0.5600718 -1.0339484
0000e0 48 e8 ac 3e da 16 c0 bd 57 96 71 3f 50 a4 df 3f
       0.33770967 -0.093793586 0.94370025 1.7472019
0000f0 7d dc 34 bf be e6 02 3f 82 7c 0b 3f 30 13 28 c0
       -0.7064894 0.51133335 0.5448686 -2.626171
000100 1a 01 91 3f 86 3c 1f 3f 2d da 3e bf de 71 a6 bf
       1.1328461 0.62201726 -0.7455166 -1.30035
000110 77 36 09 be d3 7f 8f 3f 43 3f 5f bf 49 c8 af be
       -0.13399683 1.1210884 -0.87205905 -0.34332493
000120 35 1b 0a c0 5d ec b9 3f 59 c6 81 3f 71 4b a3 bf
       -2.1579106 1.4525257 1.0138656 -1.2757398
000130 74 e8 d3 3e 0b 4e 29 40 41 87 6e 3e 0f 26 fe 3d
       0.41388285 2.6453884 0.23293783 0.12409603
000140 0c 19 65 3f 5d 38 ac 3e e1 9c da 3f 0b 3e 94 be
       0.89491343 0.33636752 1.7079126 -0.28953585
000150 07 6c 11 c0 08 20 1d 40 66 0a 32 bf de ee 9b bf
       -2.2722185 2.45508 -0.69547117 -1.2182271
000160 e8 9f 17 3e 90 34 0a bf f4 75 d2 3e 89 44 01 bf
       0.14807093 -0.53986454 0.41105616 -0.504952
000170 7d f6 cb bf f5 3b b8 bf bd 49 31 bf c7 cd f1 bf
       -1.5934597 -1.4393297 -0.6925314 -1.8890923
000180 75 df a7 bf fc ac 1f 40 9d 4f 91 bf d6 ce f7 be
       -1.3115069 2.4949331 -1.1352421 -0.4839999
000190 cb 09 2a c0 74 d3 b8 3e 53 96 ed bf 43 d7 15 be
       -2.6568477 0.36098826 -1.85615 -0.14632897
0001a0 15 49 39 bf 32 18 f3 3e 0b bf 56 bf ff 73 e7 3f
       -0.7237714 0.47479397 -0.8388526 1.8082274
0001b0 a0 da f2 bf e9 24 b9 3f 84 c7 90 bf 44 71 eb 3a
       -1.8972969 1.4464389 -1.1310887 0.0017962833
0001c0 7f 18 56 3f c3 c3 8b 3f a4 06 33 3f 52 9f a4 bf
       0.8363113 1.0919117 0.6993201 -1.2861121
0001d0 10 35 13 c0 8a 62 53 40 2e 07 8f 3e 93 58 ca 3e
       -2.3001137 3.3028893 0.27935165 0.39520702
0001e0 ac e4 8d bf d3 d2 8d bf 0a f2 23 bf 94 91 45 bf
       -1.108541 -1.1079963 -0.640412 -0.7717526
0001f0 c5 b6 72 bd f8 a9 12 3f 74 ac 8e 3d f3 6b c8 3e
       -0.059256334 0.572906 0.069664866 0.3914486
000200 cc 28 00 c0 fd fd 00 3f eb c9 af 3e 46 1e fb 3e
       -2.00249 0.50387555 0.3433374 0.49046534
000210 ab 16 13 c0 53 92 20 40 bb 1d d0 bf 67 64 56 bf
       -2.2982585 2.508931 -1.6259073 -0.8374695
000220 cc 25 e8 bf 7c 0b 35 40 81 61 36 bf c0 4b 08 c0
       -1.8136535 2.828826 -0.7124253 -2.1296234
000230 91 0b dd bf c1 14 59 3e 53 f7 78 bd ab 0a 09 bf
       -1.7269155 0.21199323 -0.06078274 -0.53531903
000240 48 f2 2e c0 4f 1d e9 3e 87 cf 31 bf d4 1a eb bf
       -2.7335377 0.45530173 -0.69457287 -1.8367562
000250 0f 24 44 3e 09 42 63 3f 82 f8 14 c0 90 a6 a1 3e
       0.1915438 0.88772637 -2.3276677 0.3157239
000260 f9 44 9b bf 50 61 88 3e dd 39 c4 3f c6 56 8b 3f
       -1.2130424 0.26636744 1.5330158 1.0885856
000270 8d cf 9a 3e 88 f8 01 40 37 d8 aa bf b6 e8 b2 bd
       0.30236474 2.0307941 -1.3347234 -0.08735792
000280 71 7e b0 bd 3b 90 b4 3f e1 1b f9 3e 9a 01 55 3f
       -0.08617867 1.4106516 0.48654082 0.8320557
000290 1a a4 16 bf 53 fd 9c 3f 6b f8 04 c0 69 12 a1 bf
       -0.5884415 1.2264808 -2.0776622 -1.2583743
0002a0 97 5a 18 c0 8c 71 66 3f 4d 92 84 bd 3a 50 c2 bf
       -2.3805292 0.9001701 -0.06473217 -1.5180733
0002b0 7c 89 86 be 54 3a dc 3f 90 d9 c9 be ac d3 15 bf
       -0.26276767 1.72053 -0.394238 -0.5852611
0002c0 d4 2c 9a bf c0 ed 71 3f 49 be be 3f 6a 76 bf be
       -1.204493 0.945034 1.490182 -0.3739503
0002d0 aa 95 6c 3e cd 39 8c be 1c 34 c1 bf a2 27 7b bd
       0.23103967 -0.27387848 -1.5094028 -0.061317094
0002e0 53 a0 93 bf 21 20 b2 3f d5 99 f5 3f f6 69 8c be
       -1.1533302 1.3916055 1.9187571 -0.27424592
0002f0 77 cf 11 bf 80 a5 34 40 a6 7b 8e bc bb 78 ba 3f
       -0.5695719 2.8226013 -0.017392945 1.4568094
000300 ac f4 20 bf 9b 01 dc 3f 16 a7 ad 3e 89 b8 bb bf
       -0.6287334 1.718799 0.3391654 -1.4665691
000310 41 9c 83 3f 73 6e 40 3e 9a 64 31 3f dc 46 21 bf
       1.028206 0.18792133 0.6929413 -0.6299875
000320 49 8c e5 bf 58 88 4d bf 8b 06 b0 bd 9a 53 81 be
       -1.7933437 -0.8028617 -0.08594998 -0.25259095
000330 83 0e e3 bf c1 67 7a 3f cb 75 1f be 32 0c 19 bf
       -1.7738804 0.97814566 -0.15572278 -0.59784234
000340 8f bf e7 bf d7 27 6a 3f 4a 5c 1b 40 51 84 a7 3e
       -1.8105334 0.9146704 2.4275079 0.32718137
000350 2e 79 14 3e bc af d4 be f0 8c 81 bf 6f e4 d7 bf
       0.14499351 -0.41540325 -1.0121136 -1.6866587
000360 f3 8f 24 c0 c9 9a c6 bd 74 7d a2 3f 36 cc 8e be
       -2.571286 -0.09697492 1.2694535 -0.27890176
000370 eb aa a5 bf 33 bf 8b bf 32 88 ca bf 44 e5 d2 bf
       -1.2942785 -1.0917724 -1.5822814 -1.6476216
000380 55 33 66 3f 50 41 c5 bf 6d ad 79 3f 9b f6 a9 be
       0.89922076 -1.5410557 0.9753025 -0.33195958
000390 a6 3d 6f 3d a0 ea 69 3f 49 31 a4 3f 87 91 c9 3d
       0.058408402 0.91373634 1.2827541 0.0984221
0003a0 6c bd 66 be ee c6 2c be f4 f8 dd be cc 55 d0 bf
       -0.22533196 -0.1687276 -0.43354 -1.6276183
0003b0 f7 0a 82 be 9e da 53 bf c7 07 dd 3f 4a f8 23 bf
       -0.2539899 -0.8275546 1.7267998 -0.64050734
0003c0 24 55 74 bf 98 a7 f4 3f 65 71 b4 3f 41 91 4d 3f
       -0.95442414 1.9113646 1.4097105 0.80299765
0003d0 c1 22 75 bf c5 7a c6 bf 3f 40 f6 bf 8d 02 39 c0
       -0.95756155 -1.5506216 -1.9238356 -2.8907807
0003e0 9c 63 59 3f fb 32 c0 3e 9d cf 67 3f 47 c0 0f bf
       0.84917617 0.37538895 0.9055117 -0.56152767
0003f0 be 70 b3 bf 6c 06 93 3f 08 c7 a4 be 67 00 50 bf
       -1.4018781 1.1486335 -0.321831 -0.81250614

embedding_item.weight f4 [8, 1024]
000000 5a 33 c8 3b cf 13 28 3e dc 22 15 3e bd 2e 87 3e
       0.006109637 0.16413806 0.14564079 0.26402846
000010 c5 5b 05 3e 92 21 15 3e b6 66 0a 3c ed 7f b1 bd
       0.13023289 0.14563587 0.00844734 -0.08666978
000020 94 78 1a 3e d3 82 8b be 1b 76 60 bd be 45 8e 3d
       0.1508506 -0.27248248 -0.054800134 0.06946896
000030 49 cf ec bd 17 05 80 bd 49 6e c0 bc b4 3a d1 3d
       -0.11562974 -0.06250971 -0.023490088 0.10216275
000040 bc 72 b2 be fb 68 17 be 56 7a 68 3e 22 84 49 be
       -0.3485316 -0.1478614 0.22702917 -0.19679311
000050 be 5f 91 3c 75 41 b7 bd 9d 5a 5b bc cc a2 a1 bd
       0.017745849 -0.08948032 -0.013388303 -0.07892379
000060 bd 51 4a 3d 5b 07 12 bd c8 9d a4 bd 99 2d 8c bd
       0.049394358 -0.035651546 -0.08037907 -0.068446346
000070 56 aa b9 bc d0 c6 c9 bd b4 63 19 bd 47 a5 71 bc
       -0.02266423 -0.098523736 -0.0374486 -0.014748878
000080 27 4c f8 bd 77 d0 36 bd de d1 2e be 49 b2 bf bc
       -0.121239 -0.0446324 -0.17072245 -0.023400443
000090 70 97 7c 3d 10 88 61 bd 96 0b 98 bd bb 53 a5 3d
       0.06166786 -0.0550614 -0.07424085 0.08072611
0000a0 4a 94 e9 bd 28 fa ab bd 5f 80 a3 bd 68 a7 71 bd
       -0.11405237 -0.08397323 -0.07983469 -0.05899754
0000b0 5a 0b 97 3d f8 f4 21 be 50 17 38 bd ea 1f 91 be
       0.07375212 -0.15816104 -0.044944108 -0.2834466
0000c0 4b 25 9e 3e c7 08 1e be 73 07 94 bd b5 eb 14 be
       0.30887827 -0.15433036 -0.07227983 -0.1454304
0000d0 90 c9 1a bd 43 45 04 3d 95 fb ed 3d bc 88 9d 3d
       -0.03778988 0.032292616 0.11620251 0.07692096
0000e0 b8 d7 25 3e 56 9b 79 be a7 53 43 3e b8 b0 f2 3d
       0.16195571 -0.24375662 0.1907488 0.11850113
0000f0 b8 0e cb bd 72 f9 87 bd 9e 13 de 3c 23 ad fa 3c
       -0.09914917 -0.06639375 0.027108964 0.030600136
000100 61 e3 42 be 31 4e 7c 3d b8 a1 f4 bd 01 49 72 3e
       -0.1903205 0.061598007 -0.11944908 0.23660661
000110 36 1c 33 3d cf be 00 bd 48 66 6e 3e 27 75 91 3d
       0.043728076 -0.03143197 0.23281205 0.07102423
000120 a6 f6 f4 3c 5f e0 5a bd 14 45 af 3d 32 5e e6 bd
       0.029902767 -0.053436633 0.085580975 -0.11248435
000130 b5 a7 64 be 20 bc a6 3d fe 04 eb bd c1 a0 90 3d
       -0.223296 0.08141351 -0.114755616 0.070619114
000140 aa 4f b4 bd fe a8 ac be 2b da f5 3d df 96 a8 3d
       -0.08804257 -0.3372268 0.12004503 0.082319014
000150 a0 1e 13 bd 83 a8 14 bd e9 4c 0e 3e dd 55 1d be
       -0.03591788 -0.036293518 0.13896526 -0.15364785
000160 3b 2c ed 3d cf ee 07 3e 38 55 16 3e ee 7e b7 3e
       0.11580702 0.13274692 0.14680946 0.35839027
000170 89 a4 51 bd e7 55 cd be f5 d1 92 be 0a 55 a8 bd
       -0.051182304 -0.401046 -0.2867581 -0.08219345
000180 c8 aa a7 bd b4 09 2e be 2f 84 99 bd 3f b9 62 3d
       -0.08186871 -0.16995889 -0.07495915 0.055352446
000190 e7 b1 e2 3d a1 4b f9 bc e6 0e 68 3d 19 ab cc 3d
       0.110690884 -0.03043157 0.056654833 0.09993572
0001a0 0e 0f f2 bd 11 35 91 be a1 7e 62 be 8d 14 c9 3d
       -0.11819278 -0.283608 -0.22118618 0.09818373
0001b0 2f e8 92 3d 3d 0c 0b 3e 8e 5a b5 bd 25 f3 e4 bd
       0.07173192 0.13578887 -0.088551626 -0.11179189
0001c0 14 07 2d be ab e4 56 3e 98 54 8f bd ef c2 96 be
       -0.16897231 0.20985667 -0.06998557 -0.29445598
0001d0 da 27 cb bd 24 f4 e4 bd e5 55 d4 3b 43 83 e8 3d
       -0.099197105 -0.11179379 0.006479966 0.11353161
0001e0 4c 02 53 bd 0d 50 5b 3d ce c1 4f bd a7 24 26 be
       -0.051515862 0.05354314 -0.050721936 -0.1622492
0001f0 8c 3e 22 be 1f 90 e5 3d f8 54 14 3e 2d 9c 9b 3e
       -0.15844172 0.112091295 0.14485538 0.3039259
000200 18 ea 0d be 70 73 9e 3d d9 68 24 3d 23 d6 23 3e
       -0.13858831 0.07736862 0.040139053 0.15999655
000210 93 9a 17 3d 77 14 cf 3d 6f ce c2 bc d3 7c 62 3d
       0.037012648 0.10111325 -0.023780076 0.055294823
000220 80 f8 ac 3d fe 8b 35 3e 45 f9 49 3e f4 b8 7c 3e
       0.08445835 0.17729184 0.19723995 0.24679929
000230 eb 3f 12 3b db ff 12 be e6 2c f5 3c 85 17 6f be
       0.002231593 -0.14355414 0.029928636 -0.23348816
000240 cc 9e 49 3c b0 05 4c 3e b1 d0 71 3c f7 3c 22 be
       0.0123059265 0.19924045 0.014759229 -0.15843569
000250 91 36 7b 3d 9e c3 ca bc 10 97 ce bb bd a9 f2 3d
       0.061331335 -0.02475148 -0.006304629 0.11848781
000260 28 82 3f 3e de c2 60 bd 2c 42 f1 3d c8 54 9c 3d
       0.18701994 -0.05487334 0.117801994 0.07633358
000270 b1 07 85 3e 31 ef 39 3d 65 12 d0 bd 06 b1 d9 3d
       0.2598243 0.045394126 -0.101597585 0.10629468
000280 41 cf b2 3d 69 b4 92 bc 81 a3 9b 3b 4e 12 2c be
       0.08730937 -0.017908292 0.004749716 -0.16803858
000290 5b b5 93 3d d3 34 a4 3d 00 c3 9f 3b 1a 0a d7 bd
       0.07212325 0.08017888 0.0048755407 -0.104999736
0002a0 c0 82 47 3e 79 1f 5c bd 76 22 20 be b3 57 5b 3e
       0.19483471 -0.053740952 -0.15638146 0.21420173
0002b0 ad 71 2c be 81 89 74 bd dc ff 1f be bf f7 55 be
       -0.16840239 -0.059701446 -0.15624946 -0.20895289
0002c0 4e de 80 3d fb d1 71 be 37 14 85 3d 86 df 8f 3d
       0.06292401 -0.23615257 0.06497996 0.070250556
0002d0 2a db b9 bd de f2 30 3e c4 a7 48 be 5f 0c c5 bd
       -0.09075005 0.17280146 -0.19595248 -0.096215
0002e0 43 9a 1c 3e e9 df f8 3c 6d 84 0b 3e 77 74 51 3d
       0.15293221 0.030380206 0.13624735 0.05113646
0002f0 db e6 5b 3e 50 01 b6 bc fc 04 3e be 0c ed c8 3c
       0.21474783 -0.022217423 -0.18556589 0.024527095
000300 dc 1d 70 bb 50 e2 7f 3d bd fe d7 be ba be 7f 3c
       -0.0036638891 0.062471688 -0.42186537 0.015609438
000310 10 1e 00 3c 70 49 66 3d ce 4d 21 3d 15 43 45 3e
       0.007819667 0.05622238 0.03938084 0.19263871
000320 4b bd dd bc 58 27 c1 bd ff 87 53 be 6c b2 48 be
       -0.027067801 -0.09431332 -0.20657347 -0.19599313
000330 82 69 03 be 8a 77 d3 3c f0 0c 88 bd 67 48 c8 bc
       -0.12833217 0.025813837 -0.06643093 -0.024448587
000340 1a 77 d0 bb 6a ec 9b 3d 51 86 11 3d 1d e7 7c 3c
       -0.0063618543 0.07613452 0.035528485 0.015435961
000350 a3 7d 93 3e fd 04 6b 3c 69 60 c6 3b d5 6a b2 3e
       0.2880679 0.014344451 0.0060539735 0.3484713
000360 76 12 1b 3e 46 4b 3b 3e 8f 95 cf bd 9a e0 2b 3e
       0.15143761 0.18290433 -0.10135948 0.16784897
000370 23 9a f3 3d 23 1e 17 3e 47 08 ac be 3c 59 f8 3d
       0.118946336 0.1475759 -0.33600065 0.12126395
000380 7c 27 75 bc 80 aa b0 bc d2 bf 64 bd 9a 52 0f bd
       -0.014963027 -0.021565676 -0.055846997 -0.034990884
000390 ff 77 02 bd 9e cf 3c be 46 d6 d7 3d 48 7d 8b bb
       -0.03185272 -0.18438575 0.10538916 -0.004256878
0003a0 49 94 a4 bd 99 c7 c7 3c b9 60 07 3e ac 91 2e 3c
       -0.08036096 0.024387168 0.1322049 0.010654848
0003b0 78 1e 89 3d c2 13 49 bd 09 2b 38 3e 9f 0e a8 3d
       0.066952646 -0.04909111 0.17985167 0.08205914
0003c0 43 45 5e bc a8 42 25 3e 15 93 ed bd 2a b1 3d 3e
       -0.013566318 0.16138709 -0.11600319 0.18524614
0003d0 82 37 39 3d 7d 86 b6 be 47 04 cc 3d a5 4d 79 3d
       0.045218952 -0.3564948 0.09961753 0.060865063
0003e0 38 a1 0b be 9b fb 32 be 1b b8 54 3e 81 8a 73 bd
       -0.13635719 -0.17478792 0.20773356 -0.05945826
0003f0 8e f7 9f 3c 3e 0e 96 3e 1e 55 83 3d e3 ee d7 3d
       0.019527223 0.2930774 0.06412719 0.10543611

embedding_item.bias f4 [8]
000000 bd 5b 6c be c7 44 3e 3e ed a3 38 be de c3 49 be
       -0.2308187 0.18580924 -0.18031283 -0.19703624
000010 52 9b 62 3e 7d 41 30 3e 68 2b 6a be 65 fa 48 be
       0.22129562 0.17212482 -0.2286812 -0.19626768

affine_output.weight f4 [1, 8]
000000 ef a3 f5 bd 78 71 f3 bd c8 d7 fa 3d 7f e4 1c be
       -0.119941585 -0.11886877 0.12248188 -0.1532154
000010 7c c0 17 3e b0 9f 2f be 5e 5f d3 bd f7 07 05 be
       0.1481952 -0.1715076 -0.10320924 -0.1299132
