neural-collaborative-filtering/src/checkpoints/gmf_factor8neg4-implict_Epoch29_HR1.0000_NDCG0.8401.model (torch, 281278 bytes, 4 tensors)

embedding_user.weight f4 [7700, 8]
000000 bc 57 e8 3e 24 f7 1f bf 2f 43 f5 be 91 06 97 3f
       0.45379436 -0.6248648 -0.4790282 1.1798879
000010 87 93 0a bf b9 d5 e6 3f 09 0b 91 bf e9 1e 8c bf
       -0.5413136 1.8033973 -1.1331493 -1.0946933
000020 f3 3e b9 bf 4b 83 64 3e cc 40 81 3f 7a b9 8a 3d
       -1.4472336 0.2231571 1.00979 0.06773658
000030 c1 72 df bf 0f 08 c7 3e c0 32 cd 3e 19 8d 16 3e
       -1.7456895 0.38873336 0.40077782 0.14702262
000040 6d e4 dc bf 39 ac 0c 3f e3 5f 29 bc e7 1b a7 3f
       -1.725721 0.5495029 -0.010337803 1.305539
000050 0a f0 26 40 6c 13 4a 3f e8 ef 17 c0 58 75 5d bf
       2.6084008 0.78935885 -2.3740177 -0.8650718
000060 74 e4 7a bf 07 59 04 3f 30 71 98 3f 5d 6b 95 3e
       -0.9800484 0.51698345 1.1909542 0.29183474
000070 78 83 e8 3e fe 8b 3e 40 c9 19 79 bd a1 65 b9 be
       0.45412803 2.9772944 -0.060815606 -0.3621035
000080 08 78 cf be 5f d1 9d 3d f2 1f dd bb 2d 85 00 3f
       -0.40521264 0.0770595 -0.006748193 0.5020321
000090 51 9c a8 be 1f d7 88 3f f5 4e 87 bf 6a d2 b8 bf
       -0.3293176 1.069065 -1.0570971 -1.4439213
0000a0 38 cf 3f c0 89 87 9e 3f 14 79 07 40 c6 45 a1 bf
       -2.9970226 1.2385112 2.116765 -1.2599418
0000b0 d2 2d f8 bf b5 12 18 be bf 55 8a 3f 75 d5 9e bd
       -1.9388983 -0.14850886 1.0807418 -0.077555574
0000c0 1e 08 3f bf 11 36 a6 bf f7 fa 43 be c4 44 61 3f
       -0.7462176 -1.298525 -0.19138704 0.87995553
0000d0 8f 05 1e bf 1f 88 05 40 a0 7b 2e bf af f4 99 bf
       -0.6172723 2.0864332 -0.68157387 -1.2027797
0000e0 80 04 65 3e 86 40 88 3e 33 7d bc 3f f7 f6 0b 40
       0.22364998 0.26611727 1.4725708 2.1869485
0000f0 42 bb 9f be 2c 13 a7 3e f5 3a 8e 3e 68 dd 13 c0
       -0.31197554 0.32631814 0.27779356 -2.3103886
000100 6d 26 96 3f 61 9a 06 3f a1 c3 68 bf 3e d4 83 bf
       1.1730477 0.52579314 -0.90923506 -1.0299146
000110 7b 04 54 be 80 7e b7 3f b5 4d 49 bf 4c cb ad be
       -0.20704834 1.433548 -0.78634197 -0.33944166
000120 23 3b 0c c0 2d 71 f5 3f 0e 36 85 3f c4 26 db be
       -2.1911094 1.9175164 1.0407121 -0.42803013
000130 af 98 ac 3d c5 c9 cf 3f 39 fe 60 3e d7 c4 41 3e
       0.084275596 1.623345 0.21971978 0.18922745
000140 7a 11 62 3f 73 1b e8 3e b4 d8 6f 3f b0 8a c9 be
       0.8830792 0.45333442 0.9369004 -0.39363623
000150 2a b7 e1 bf fd 14 11 40 8c a6 bd be 5e 16 48 bf
       -1.7634022 2.266906 -0.37041128 -0.7815913
000160 61 8b 6b 3d 28 5d d8 be be 80 04 3f cc 0f 91 3e
       0.05750597 -0.42258573 0.51758945 0.28332365
000170 82 5c 8f bf 0d 34 7a bf c4 f6 80 bf 4d c3 c1 bf
       -1.1200106 -0.97735673 -1.0075307 -1.5137726
000180 ea 64 b0 be 3b 22 b4 3f 16 5d 21 bf 2c e9 86 be
       -0.3445199 1.4072946 -0.6303266 -0.2634977
000190 4e 00 d0 bf 42 64 6f be 54 98 ce bf 1b 06 48 bf
       -1.6250093 -0.23378089 -1.6140237 -0.78134316
0001a0 49 cf a0 bf c3 f5 55 3f 5d 2f b5 bf b3 04 9b 3f
       -1.2563258 0.8357813 -1.4155079 1.2110809
0001b0 99 b3 a0 bf d2 45 81 3f 7f fb 8f bf d2 ca 00 3f
       -1.2554809 1.0099432 -1.1248626 0.5030948
0001c0 5c 30 b3 3f b4 22 14 3f d9 19 30 3f 63 e5 46 bf
       1.3999133 0.5786545 0.6878944 -0.77693766
0001d0 63 89 e8 bf d2 85 40 40 cb 10 30 3f 18 7f 7b 3e
       -1.8166927 3.0081677 0.68775624 0.24560201
0001e0 ac e4 8d bf d3 d2 8d bf 0a f2 23 bf 94 91 45 bf
       -1.108541 -1.1079963 -0.640412 -0.7717526
0001f0 c5 b6 72 bd f8 a9 12 3f 74 ac 8e 3d f3 6b c8 3e
       -0.059256334 0.572906 0.069664866 0.3914486
000200 0c 65 e3 bf 12 bd 5d 3f f5 11 20 3f 77 d0 c1 3f
       -1.7765212 0.86616623 0.625274 1.5141743
000210 d1 30 af bf 12 30 bc 3f 4d 9b 1f c0 c9 95 b7 bf
       -1.3686773 1.470217 -2.4938538 -1.4342586
000220 57 ee 8e bf ac e4 0c 40 4f 82 b8 be 84 9e eb bf
       -1.1166486 2.201457 -0.36036918 -1.840775
000230 f8 f5 9c bf 97 ee c0 be f0 43 d8 3d 7b b0 83 bf
       -1.2262564 -0.3768203 0.10559833 -1.0288233
000240 eb 7f f2 bf e5 89 71 be 92 de 09 bf 58 29 b2 bf
       -1.8945287 -0.23587759 -0.5385524 -1.3918867
000250 99 59 4b 3f 73 31 55 3e c6 76 fb bf 91 aa bf 3c
       0.7943359 0.20819645 -1.9645622 0.023396762
000260 7f c9 de bf 4f 02 43 3f 96 4b 0b 3f 39 7f cd 3f
       -1.7405242 0.761754 0.5441221 1.605445
000270 96 a4 49 be 33 d6 df 3f 01 ec 5e bf 71 9d 81 3f
       -0.19691691 1.7487243 -0.87078863 1.0126172
000280 80 30 e3 3e e9 95 09 3f 52 bb d4 be 39 98 68 3e
       0.4437294 0.5374437 -0.41549164 0.22714318
000290 7d ae 96 3e 62 1f fa 3f 80 ac 70 bf f8 dd 09 bf
       0.2943 1.9540827 -0.94013214 -0.5385432
0002a0 f4 b7 24 c0 c9 6f b4 3f 3e 07 28 be 60 4b 40 bf
       -2.5737276 1.4096614 -0.16409013 -0.75115013
0002b0 c0 07 1d bf 03 d8 2e 3f 34 36 b6 be 92 63 ee be
       -0.6133995 0.6829836 -0.3558823 -0.4656034
0002c0 08 83 c6 bf 49 78 36 3f 99 d6 20 3f 18 69 6e bf
       -1.5508738 0.7127729 0.6282745 -0.9312911
0002d0 0e aa 02 3f 1b 95 7c 3d 76 df 0c bf 35 23 46 3f
       0.5104073 0.061665636 -0.55028474 0.7739747
0002e0 04 00 a8 be 31 7e 4e 3f 22 b9 14 40 21 be e1 3d
       -0.32812512 0.806613 2.3237996 0.11022592
0002f0 6d 33 29 3d 97 b3 15 40 b6 2c 7f 3e d3 69 73 3f
       0.04130881 2.3390863 0.249194 0.9508335
000300 00 2d 3e be 9f 6a 9d 3f 34 e5 65 3f 43 7a ae bf
       -0.18571854 1.2298163 0.8980286 -1.3631061
000310 ab 5e 7e 3f 55 8e 6f 3e 77 38 59 3f d6 9c 5b bf
       0.993632 0.23394139 0.84851784 -0.8578619
000320 4b 68 07 c0 3c 05 84 be 43 c7 a6 3e 85 25 1d 3f
       -2.1157405 -0.25785244 0.325739 0.61385375
000330 4b 92 af bf 39 22 99 be 30 34 3d bf c2 bb 70 bf
       -1.371652 -0.29908922 -0.73907757 -0.94036496
000340 e0 0d c8 bf 95 b9 de 3e 51 98 c7 3f 1a e3 61 3e
       -1.5629234 0.43500963 1.5593358 0.22059289
000350 8b b1 39 3f fc bb 0e bf 4c 7b 5c be 65 d6 65 bf
       0.72536534 -0.5575559 -0.21531409 -0.89780265
000360 90 f2 07 c0 7b f0 60 bf ce 60 05 3f c6 28 8b bf
       -2.1241798 -0.87866944 0.5210084 -1.0871818
000370 af de eb be 75 d1 f9 be 27 9d 00 bf 1e 66 8d bf
       -0.46068332 -0.48792616 -0.50239795 -1.1046789
000380 55 33 66 3f 50 41 c5 bf 6d ad 79 3f 9b f6 a9 be
       0.89922076 -1.5410557 0.9753025 -0.33195958
000390 a6 3d 6f 3d a0 ea 69 3f 49 31 a4 3f 87 91 c9 3d
       0.058408402 0.91373634 1.2827541 0.0984221
0003a0 6c bd 66 be ee c6 2c be f4 f8 dd be cc 55 d0 bf
       -0.22533196 -0.1687276 -0.43354 -1.6276183
0003b0 f7 0a 82 be 9e da 53 bf c7 07 dd 3f 4a f8 23 bf
       -0.2539899 -0.8275546 1.7267998 -0.64050734
0003c0 b5 55 3e be 53 08 8c 3f 9b 51 46 3f 9a 48 64 3e
       -0.18587382 1.094004 0.7746827 0.2229332
0003d0 0f a5 c9 bd d1 e3 c4 bf 54 95 93 bf f4 91 24 c0
       -0.098459356 -1.5382024 -1.1529946 -2.5714083
0003e0 43 3b c0 3e 9f 2a 54 3f 3f 5c f7 3e f0 af 90 bf
       0.37545213 0.82877535 0.48312566 -1.1303692
0003f0 4e be d6 bd 98 c1 fb 3e ac 9e fb be 25 39 24 bf
       -0.104855165 0.49171138 -0.49144495 -0.64149696

embedding_item.weight f4 [8, 1024]
000000 e0 b5 1d 3d ed cb 01 3e 2c 86 ab 3d 49 e9 e9 3d
       0.038503528 0.12675448 0.08375201 0.11421449
000010 44 14 a9 3c 96 e3 82 3d e6 6f 29 3d c7 fc 1a 3b
       0.020639546 0.06391065 0.04136648 0.0023649202
000020 51 fe 8a 3d e2 26 f1 bd e6 4e ea bc e9 c2 83 3d
       0.06786788 -0.117749944 -0.028602075 0.064336605
000030 86 8f 66 bd d1 5e 62 bd 6d 51 ee 3c ae 08 5c 3d
       -0.05628922 -0.055266205 0.029091561 0.053719215
000040 80 e2 60 be c6 25 98 bd 8c 57 2e 3e ca 55 17 be
       -0.21961403 -0.0742908 0.17025584 -0.1477882
000050 1f bb fb bc 33 0a 9c bd 47 e2 92 bd 10 92 e3 bb
       -0.030728875 -0.07619133 -0.07172065 -0.0069449022
000060 6e ec ac bc 82 66 52 bc 22 97 80 bd d7 c8 6e bc
       -0.021108832 -0.012841823 -0.06278826 -0.014574251
000070 4a 93 5f bc 69 23 0d bd c1 b1 4c bc 96 09 99 bc
       -0.013645956 -0.034457598 -0.012493552 -0.018681329
000080 69 2c 2d bd 2f ca 84 bd 5c ad f3 bd 1b 34 32 bd
       -0.04227868 -0.06483876 -0.118983 -0.043506723
000090 e1 79 11 3d 93 05 90 bd bc 84 2c bd 9a 8b 74 3d
       0.035516623 -0.07032313 -0.042118773 0.059703447
0000a0 51 b4 61 bd cf 1c 55 bd f8 43 8f bd 43 b1 2c 3c
       -0.055103604 -0.052029427 -0.06995386 0.010540309
0000b0 b1 5d 35 bb 6e 81 61 bd 9c f3 1f bb 66 c6 3c be
       -0.0027674253 -0.055055074 -0.0024406677 -0.18435058
0000c0 4b fb 3c 3e bd 12 d1 bd 3e 93 19 bd 15 2a fa bc
       0.18455236 -0.10208652 -0.037493937 -0.030537644
0000d0 1b 5e 0d bc 0b b8 7d 3c 81 22 73 3d 0c 35 40 3d
       -0.0086283935 0.015485774 0.059359077 0.04692559
0000e0 c8 46 b1 3d 0d 34 55 be dd 82 29 3e 8b eb b5 3d
       0.086560786 -0.20820637 0.16553827 0.08882817
0000f0 b5 c3 d6 bd 9e 25 dc bd 61 4c 3c bd 35 23 c4 3b
       -0.10486547 -0.107493624 -0.045971278 0.0059856423
000100 f3 fd 67 bd c7 dd aa 3c 15 9c 99 bd 50 fd 09 3e
       -0.05663867 0.020857705 -0.075004734 0.13475537
000110 39 bc 54 bc d7 81 c6 bc 2b d8 1c 3e 36 68 1f 3d
       -0.012984329 -0.024231834 0.15316837 0.038917743
000120 cb 3b ab 3c aa f8 fe bb 99 49 91 3d 07 d8 e5 bc
       0.020902535 -0.007781108 0.07094116 -0.028057111
000130 cb 40 22 be f7 b8 28 3d 31 47 b4 bd ed 76 57 3d
       -0.15845029 0.04119202 -0.08802641 0.05260365
000140 ec cc 5f bd 14 7e 3e be 0e 1d 25 3d e6 ad b7 3d
       -0.054638788 -0.18602782 0.04031091 0.08968715
000150 64 9d 17 bc 80 c1 25 3c c3 69 bf 3d 0f 7d b5 bd
       -0.009253833 0.010116935 0.09346344 -0.08861744
000160 96 4f 73 3c 7f 68 18 3e b2 df 62 3d 9a c8 57 3e
       0.014850518 0.14883612 0.055389114 0.21072617
000170 5f c6 55 bd 21 ae a0 be 2e 40 2b be 52 b9 d4 bd
       -0.052191135 -0.3138285 -0.16723701 -0.103869095
000180 cc 10 c2 bc 05 66 d9 bc d8 dc aa bd d7 24 dc bb
       -0.02368965 -0.026537905 -0.08342904 -0.006718259
000190 68 a0 5c 3d 76 fe 7e bc 4a 8a 38 bc c5 94 fc 3d
       0.053863913 -0.015563598 -0.011263439 0.12333063
0001a0 88 40 2e bd b8 b3 01 be 10 5f 16 be 69 a0 c3 3d
       -0.04254201 -0.12666214 -0.14684701 0.0955208
0001b0 82 34 13 3d c2 7a 58 3d ce 33 6a bd 18 40 26 bd
       0.035938747 0.052851446 -0.05717831 -0.04058847
0001c0 df 48 a2 bd b3 4f 03 3e e0 77 90 bd d3 e2 23 be
       -0.07924055 0.12823372 -0.07054114 -0.16004495
0001d0 e4 9d 5c bb 68 2c 03 bd fa 10 9d 3d bc 77 54 3d
       -0.0033663446 -0.03202477 0.07669254 0.051872
0001e0 57 d8 af bd 2e 0f c7 3c 54 7f 40 3c 48 e9 24 bd
       -0.085861854 0.02429923 0.011749107 -0.040261537
0001f0 b9 df a5 bd d9 31 98 3d 50 1d 11 3e ce 64 2a 3e
       -0.08099312 0.07431383 0.14171338 0.16640016
000200 9b 91 06 be aa 28 5e 3c 15 86 26 3d 78 4a d2 3d
       -0.13141482 0.0135595 0.040655214 0.1026811
000210 83 d2 61 bd ab f3 90 3d 16 8f 02 3d d7 97 d6 bc
       -0.0551324 0.07077726 0.03187474 -0.02619545
000220 a0 08 3c 3d d2 b4 1f 3e af 80 20 3e 5b ea 10 3e
       0.045906663 0.15596321 0.15674089 0.141519
000230 4c 47 45 3d 63 94 b9 bd 93 4a 2c 3b 9c 0e 5b be
       0.048163697 -0.09061506 0.0026289567 -0.21392292
000240 78 7c 60 3c 0b c9 ac 3d d8 a3 48 3d 72 a8 f0 bd
       0.013701551 0.084367834 0.04898438 -0.117508784
000250 e2 15 30 3d 30 9d ff bc 11 45 93 3c 84 b0 01 3e
       0.04298962 -0.031202883 0.01797727 0.12664992
000260 f7 f0 cf 3d f3 d5 a7 bd 8f cb 9e 3d d5 3d df 3d
       0.10153382 -0.081951044 0.077536695 0.109004654
000270 fe 8b 38 3e 1a d3 63 3a 39 47 2b bb 70 75 5a 3c
       0.18022153 0.00086908194 -0.0026134981 0.013333663
000280 87 fa 94 3c 0f 3b 2d bd 49 5c 27 3d bf 66 63 bd
       0.018185867 -0.04229265 0.040859494 -0.05551791
000290 65 3d 8e 3d 93 9e c7 bc b7 68 aa bc 9c 2e ea bd
       0.06945304 -0.024367606 -0.020801885 -0.11434671
0002a0 de 9c 3c 3e 69 28 65 bd 42 04 12 bc 98 00 22 3e
       0.18419215 -0.05594674 -0.008912148 0.15820539
0002b0 8c 42 02 be ab 4c 87 bc 50 3a a4 bd da ea d4 bd
       -0.12720698 -0.01651605 -0.08018935 -0.10396357
0002c0 c5 b6 c8 bc 3a 90 3c be cc 7b c1 3d 7d 5f 2f 3d
       -0.024501214 -0.18414393 0.094474405 0.042815674
0002d0 bf d1 0e bd 77 ca c4 3c 45 00 aa bd 0d 23 c4 bd
       -0.034868 0.024022324 -0.08300833 -0.09576998
0002e0 5b 2c f8 3d 6a 2f ab bc fc 7d e0 3d 5c 3a 1c 3d
       0.12117835 -0.020896632 0.109615296 0.038141593
0002f0 4e c8 de 3d ff b4 81 bb a2 f9 05 be 10 f0 c9 3c
       0.10878049 -0.003958344 -0.13083509 0.024650604
000300 4d 19 a1 3c 90 59 79 3d 90 8d 5e be 34 fd b9 3c
       0.019665385 0.06087643 -0.2173369 0.022703744
000310 be d8 e2 3c ed 26 3b 3d 54 da 73 3d 7e 29 f3 3d
       0.027691241 0.04569142 0.059534386 0.118731484
000320 d5 94 36 bd cc 95 38 bd 93 21 03 be 5e 4d e3 bd
       -0.04457553 -0.045064732 -0.12805776 -0.11098741
000330 29 e2 e2 bc c4 50 0a 3d 9e 39 c7 bd 0f 29 af bc
       -0.027695732 0.03376843 -0.097277865 -0.021381883
000340 bc 8a 02 bc d6 81 57 3d 48 0c 9c 3d 79 d3 68 bd
       -0.007967647 0.052614056 0.0761953 -0.0568423
000350 17 8d 0f 3e f0 26 6a bd b2 b0 26 bc ec ab 83 3e
       0.14018665 -0.05716604 -0.010173963 0.25717103
000360 9f a2 33 3d 31 84 53 3d bf 17 f7 bc 68 c8 b9 3d
       0.04385626 0.05163974 -0.03016269 0.090714276
000370 24 7f 81 3d 56 2a b5 3d 0c e7 8f be fe 62 ba 3d
       0.06323078 0.088459656 -0.28105962 0.091009125
000380 7a aa 48 bd 6c e1 77 bd ad d4 25 3c bf 3e 81 3c
       -0.048990704 -0.060517713 0.010121507 0.01577699
000390 82 f2 10 3b 20 5d cd bd ea aa 86 3d 19 ac 93 bc
       0.0022117202 -0.10027528 0.06575568 -0.018026398
0003a0 21 44 38 b9 f1 fe 2b 3d 3a 1a 3c 3c 10 91 99 3d
       -0.00017572987 0.041991178 0.011480862 0.074983716
0003b0 4d ad 83 39 8c a1 78 3d cb d5 57 3d 86 fb a0 3d
       0.00025115386 0.060700938 0.052694123 0.07860474
0003c0 22 52 40 bd e5 56 30 3e 67 5f 87 bd d8 3d c5 3d
       -0.046953328 0.17220648 -0.066099934 0.096309364
0003d0 89 e7 13 3c 82 9e 40 be e2 42 90 3d 72 8a e5 3c
       0.00902737 -0.18810466 0.07044007 0.028020117
0003e0 8b 49 c6 bd 5f 42 e2 bd fc e5 3e 3e a1 f2 8e bd
       -0.09681996 -0.110478155 0.1864242 -0.069798715
0003f0 7c 4a c6 bd 99 fa 44 3e 92 5d 0f bd 4d 17 53 3d
       -0.096821755 0.1923622 -0.035001345 0.051535893

embedding_item.bias f4 [8]
000000 3b 5b 37 be 20 bb f7 3d c7 43 f5 bd 03 1d 22 be
       -0.17905895 0.12096238 -0.11975818 -0.1583138
000010 54 70 05 3e 9f 65 f6 3d bb 73 12 be 89 7d f4 bd
       0.13031131 0.120311014 -0.1430196 -0.119380064

affine_output.weight f4 [1, 8]
000000 b1 0c 1c be 15 2e 24 be 2a 37 20 3e ad 9b 19 be
       -0.15239216 -0.16033204 0.15646043 -0.15000792
000010 0a 67 3c 3e fe e9 34 be 96 71 18 be c0 96 22 be
       0.18398681 -0.17667386 -0.1488708 -0.15877819
