neural-collaborative-filtering/src/checkpoints/mlp_factor8neg4_bz256_166432168_pretrain_reg_0.0000001_Epoch148_HR1.0000_NDCG0.7564.model (torch, 298910 bytes, 12 tensors)

embedding_user.weight f4 [7700, 8]
000000 ab 69 f5 04 11 d4 f1 84 71 7c f3 84 7c 1a f5 04
       5.7696264e-36 -5.685358e-36 -5.7243307e-36 5.7623545e-36
000010 3c ce f2 84 e0 35 f7 04 df 3a f4 84 84 5d f6 84
       -5.7083323e-36 5.8118897e-36 -5.741819e-36 -5.7920203e-36
000020 fa 7d f2 84 6c 73 f2 04 6c 5d f4 04 1e 19 ee 04
       -5.7009618e-36 5.6999925e-36 5.744992e-36 5.5976598e-36
000030 08 3a f7 84 a1 e1 f3 04 59 3d f6 04 2f 00 f3 04
       -5.8122714e-36 5.7336233e-36 5.789066e-36 5.7129194e-36
000040 14 25 f5 84 1d 9d f4 04 d8 a9 eb 84 68 e0 f1 04
       -5.7633274e-36 5.750841e-36 -5.540421e-36 5.6864912e-36
000050 a6 4e f7 04 c6 5a f4 04 b9 66 f2 84 a0 2e f5 84
       5.8141648e-36 5.7447487e-36 -5.6988262e-36 -5.764204e-36
000060 ff 50 80 bf c2 82 5b 3f 16 70 fe 3e 26 a7 19 bf
       -1.0024718 0.85746396 0.4969489 -0.60020673
000070 17 c4 87 bf 66 94 45 3f 22 2e 8e bf 91 8f 46 bf
       -1.0606717 0.77179563 -1.1107829 -0.77562815
000080 73 da d7 bd 59 84 37 3e 44 20 bf 3f 17 5a 60 bf
       -0.10539713 0.1792158 1.4931722 -0.87637466
000090 eb 32 7e bf 5c 4c 60 3f c3 6e 18 bf 5b 81 e4 bf
       -0.99296445 0.87616515 -0.5954401 -1.7851976
0000a0 65 ff 8e bf 90 a7 88 3f 07 95 39 3f 52 1a 5b bf
       -1.117169 1.0676136 0.7249302 -0.85587037
0000b0 80 45 aa bf 67 92 71 3f 91 46 90 bf d4 95 69 bf
       -1.330246 0.9436402 -1.1271535 -0.91244245
0000c0 13 6d a8 bf 63 e6 3e be e7 c3 f4 3c 0c de a1 be
       -1.3158287 -0.18642573 0.02987857 -0.3161472
0000d0 ca db 7a bf 29 85 64 3f e8 42 17 3c da 7a c2 bf
       -0.9799162 0.89265686 0.00923226 -1.5193741
0000e0 15 82 8e 3d d6 ba 61 3f 9c 2f ed 3e fa 1e ef 3f
       0.06958405 0.88175714 0.46325386 1.8681328
0000f0 57 f9 5b bf bf 59 aa 3f ef 43 81 3f d7 a3 91 c0
       -0.8592734 1.3308638 1.0098857 -4.55125
000100 39 8e 5d 3f 36 7b 30 3f ea d6 22 3f 7f 80 8b bf
       0.8654514 0.68938005 0.6360918 -1.0898589
000110 82 88 eb be 24 32 f8 3d 6a 56 f4 bf 0d 3c ab bf
       -0.46002585 0.121189386 -1.9088871 -1.3377701
000120 07 b2 90 bf 2c 9e 4d 3f c0 26 f1 3e 2a 40 86 bf
       -1.130433 0.80319476 0.47099876 -1.0488331
000130 d2 5d 66 bf 43 bb 87 3f bb 3e 94 bf 90 37 38 bf
       -0.8998691 1.0604023 -1.1581644 -0.7195978
000140 fb 72 0a 3e b5 c3 cc 3e e8 04 39 40 30 71 64 bf
       0.13520424 0.39993063 2.8909245 -0.8923521
000150 71 fa 18 c0 de b1 6b 3f 36 5e 83 bf 62 a0 9c bf
       -2.3902857 0.9206828 -1.0263126 -1.2236445
000160 6d 87 2f bf aa f7 2d 3e ae 5d ea 3f 99 5f 06 bf
       -0.6856602 0.16989008 1.8309839 -0.5248962
000170 d5 cc 1e c0 00 36 0a bf 60 7b 1a bf a8 f1 36 c0
       -2.481252 -0.5398865 -0.60344505 -2.8584995
000180 22 9e 76 bf 3b 0b 7a 3f fe 04 b1 3e a1 e1 3b bf
       -0.9633504 0.97673386 0.3457412 -0.7339116
000190 0f 0d 8e bf 81 fe 73 3f a3 ce 62 bf e3 3b 1b bf
       -1.1097735 0.9531022 -0.8859655 -0.60638255
0001a0 06 37 40 bf 0c e6 59 3f 08 49 ac 3d 00 a3 f9 3e
       -0.7508396 0.8511665 0.08412367 0.48757172
0001b0 af cd dd bf 00 a0 e9 3f 9c 3d a3 bf b4 0d 3d bf
       -1.7328395 1.8251953 -1.2753177 -0.73849034
0001c0 b5 ef 48 bf 0d 70 56 3f e7 e3 dc 3e 94 59 33 bf
       -0.78490764 0.83764726 0.43142626 -0.7005856
0001d0 2f bf 83 bf 2e ab 6f 3f 9c 3e 42 bf 45 9c f2 be
       -1.029272 0.93620574 -0.75876784 -0.4738485
0001e0 2a c0 f6 84 14 26 f6 84 94 24 f4 84 90 8f f5 84
       -5.8010797e-36 -5.786929e-36 -5.7397716e-36 -5.7731065e-36
0001f0 a6 ba ef 84 a3 c5 f5 04 d6 93 f0 04 ab 1a f7 04
       -5.636004e-36 5.7780724e-36 5.6559495e-36 5.809391e-36
000200 c9 92 87 bf a4 e6 51 3f 87 55 0b 3f f2 5f 64 bf
       -1.059167 0.81992555 0.5442738 -0.892089
000210 29 77 96 bf a1 a7 79 3f d8 8a 5b bf 89 2e 2d bf
       -1.1755115 0.97521406 -0.85758734 -0.6764913
000220 72 e2 74 bf 41 98 6b 3f 33 1d e5 3e 62 1e 4f bf
       -0.9565803 0.92029196 0.4474884 -0.80905735
000230 58 93 85 bf bf 4c 6f 3f af 1e 4e bf 64 77 0b bf
       -1.0435591 0.9347648 -0.8051557 -0.5447905
000240 ac 69 54 bf 86 0a 53 3f 70 af c5 3e ec b6 60 bf
       -0.8297374 0.8243793 0.3861041 -0.87779117
000250 17 bf 7e bf 8d 16 5c 3f c7 96 63 bf 70 10 09 bf
       -0.9951033 0.8597191 -0.8890194 -0.53540707
000260 44 31 82 bf ca 7c 39 3f 28 20 0d 3f 02 70 4e bf
       -1.0171285 0.7245604 0.5512719 -0.8063966
000270 ef e3 3c bf e7 2f 5c 3f 3c b9 ad bf 21 1b 60 bf
       -0.737853 0.86010593 -1.3572154 -0.87541395
000280 3f e3 68 bf 85 10 66 3f fc 1e 08 3f 8a 24 26 bf
       -0.9097175 0.89868957 0.5317228 -0.64899504
000290 5a 6a 88 bf 0b c9 49 3f 4a 15 89 bf c5 34 40 bf
       -1.0657456 0.7882239 -1.0709622 -0.7508052
0002a0 05 26 82 bf 8a 8a 3f 3f 18 ea c4 3e da a2 81 bf
       -1.0167853 0.7482077 0.3845985 -1.0127823
0002b0 ba 61 6d bf 1a f2 86 3f 69 cb 86 bf 0f f9 37 bf
       -0.92727244 1.0542634 -1.0530826 -0.7186441
0002c0 f6 a0 3d bf 73 f8 53 3f 84 81 12 3f ca a9 08 bf
       -0.7407373 0.8280098 0.57228875 -0.5338408
0002d0 7c 84 80 bf cc 25 4e 3f cb 7c 68 bf 62 9e 3a bf
       -1.0040431 0.80526423 -0.9081542 -0.72897923
0002e0 7d 80 54 bf 9f c7 54 3f 7a 07 eb 3e 02 53 56 bf
       -0.8300856 0.831171 0.45904142 -0.8372041
0002f0 ee cb 7f bf 80 07 49 3f f6 25 6c bf a6 24 0d bf
       -0.99920547 0.7852707 -0.92245424 -0.55134046
000300 66 7d 4a bf 0e 7e ff 3f 1d d8 0a bf 15 77 9a bf
       -0.7909759 1.9960344 -0.5423601 -1.2067591
000310 b0 61 92 be fc d5 be be 63 cb 83 bf f0 55 86 bf
       -0.28590155 -0.37272632 -1.0296444 -1.0494976
000320 39 d6 b1 bf 5d de d5 3d c9 2d e1 3e 9d bd 91 bf
       -1.38935 0.10442803 0.43980244 -1.138599
000330 43 a1 ae bf ec 70 c3 3f 5b a3 54 bf 69 fc b6 bf
       -1.3642963 1.5268836 -0.8306176 -1.429578
000340 5b cf 70 bf 4a 9b 56 3f b2 7d 0a 3f c3 05 12 bf
       -0.940664 0.838307 0.54098046 -0.5704004
000350 99 6a 83 bf ae d1 4d 3f 91 43 89 bf 83 14 4d bf
       -1.0266906 0.8039807 -1.0723745 -0.80109423
000360 96 70 81 bf 66 3a 78 3f 99 56 df 3e 93 ae 1f bf
       -1.0112484 0.9696411 0.43620756 -0.62375754
000370 b1 9a 88 bf 18 fc 3f 3f da 21 95 bf 10 09 3c bf
       -1.0672208 0.7499404 -1.1650956 -0.7345133
000380 d6 a1 f4 04 14 ea f3 84 d4 bd f5 04 6d e5 f2 84
       5.7512747e-36 -5.7343992e-36 5.7773553e-36 -5.710462e-36
000390 b8 53 f2 04 ba d9 f5 04 60 54 f7 04 ae 6a f0 04
       5.697081e-36 5.7799173e-36 5.8146907e-36 5.65217e-36
0003a0 a6 31 f5 84 20 6c f4 84 9b 66 f3 84 c8 79 f6 84
       -5.7644818e-36 -5.746342e-36 -5.7223254e-36 -5.794616e-36
0003b0 e7 03 f5 84 2e c3 f6 84 81 92 f7 04 ce 9a f6 84
       -5.7602807e-36 -5.8013566e-36 5.8203964e-36 -5.7976488e-36
0003c0 2c 82 69 bf 65 41 5e 3f bf 97 ea 3e b6 44 1f bf
       -0.9121425 0.86818534 0.45818898 -0.6221422
0003d0 0b cd 8a bf c9 4c 3b 3f aa c5 8e bf 2d 5f 53 bf
       -1.0843824 0.7316404 -1.1154072 -0.825671
0003e0 f2 e3 04 bf 7f 9f 3e 3f 22 79 be 3f 45 cf d1 bd
       -0.51910317 0.7446212 1.4880717 -0.10244612
0003f0 74 77 2e c0 a4 d1 3e 3f 40 9f 6c bf 72 03 03 bf
       -2.7260408 0.74538636 -0.92430496 -0.5117713

embedding_item.weight f4 [8, 1024]
000000 11 9f 74 3e ba 2b c0 3e a4 1d f1 3e e5 05 f9 3e
       0.23888804 0.3753336 0.47092927 0.4863731
000010 67 18 1b 3e c3 f7 55 3e 3e 59 d4 3d f5 94 6d be
       0.15146028 0.20895295 0.10368584 -0.23201354
000020 04 81 cc 3e 75 7b 95 be 72 bd 0c 3e a6 fd 73 3e
       0.3994218 -0.29195753 0.13744143 0.23827228
000030 7e 11 3e 3d 77 73 86 3d d2 92 49 bd 8c 90 4f bc
       0.0464034 0.06564992 -0.049212284 -0.01266874
000040 da 0f 27 bf bb 8e 9e be 90 72 a8 3d 45 99 a3 be
       -0.6525856 -0.3096827 0.08224976 -0.31952873
000050 48 2f 55 3d 5b c4 ea bd c0 bf 8b be 56 69 eb bd
       0.052047044 -0.11463233 -0.2729473 -0.114947006
000060 9a 0c 49 3e d7 c3 ad 3c 3f cd 98 be 02 8d 80 3d
       0.19633713 0.021211548 -0.2984409 0.06276895
000070 d9 1e 50 3d 94 5c 7e be b1 33 a2 3b f3 6b 45 3e
       0.05081067 -0.24840003 0.0049500098 0.1927946
000080 52 1f 32 bc bb 1b 2c be 40 cb a7 be 41 ff e4 bd
       -0.010871725 -0.16807453 -0.32772255 -0.11181498
000090 0a 53 3a 3e 2f c9 2b 3e 40 df 87 be 65 0d c8 bd
       0.1819574 0.16775964 -0.26537514 -0.0976818
0000a0 a1 5b 0a be 00 ee 39 be b0 21 b8 be 8c ec 95 bd
       -0.13511516 -0.18157196 -0.35963202 -0.07320508
0000b0 5c 0d 41 3e c8 a1 81 be 6a 25 af be 5e 77 ab be
       0.18852752 -0.25318742 -0.34208232 -0.33489507
0000c0 92 e2 8e 3e e4 62 86 be 20 c3 f6 ba c3 83 5d be
       0.27907234 -0.26247323 -0.0018826462 -0.21632294
0000d0 c6 a3 6c 3e 69 96 76 3e 0c 8f 5a 3e d8 69 60 be
       0.2310935 0.24080814 0.2134363 -0.21915376
0000e0 20 80 0c 3e 98 7c 9b be 85 7c 34 3d af 79 3b 3d
       0.13720751 -0.30368495 0.044064064 0.045770343
0000f0 e7 77 2d bd 99 1e 99 bd b6 50 97 3d 3d c4 e2 3c
       -0.042350676 -0.07476539 0.07388441 0.027681464
000100 1f 9e cc be 4d 85 95 3d 40 dd 68 be 5a c5 9a 3e
       -0.39964387 0.07300816 -0.2274065 0.30228692
000110 fa ad 5e be e1 52 d6 bd a0 70 b6 3d 6c 42 8f 3e
       -0.21746054 -0.10465027 0.089082 0.27980363
000120 00 95 fb bd 7d 9e b4 be 6a 11 cc 3c a5 fe 4e be
       -0.12284279 -0.35277167 0.024910647 -0.20214327
000130 bb 30 5b be 28 c5 48 3d 07 68 9e be fd 40 08 3e
       -0.21405308 0.049016148 -0.30938742 0.13306041
000140 fd a7 73 bd 6b 28 a7 be 62 73 de 3d a8 d2 95 3d
       -0.059486378 -0.32648024 0.10861851 0.0731557
000150 06 ce 58 bd 99 56 5c be 2c c4 28 3e a6 dc b2 bd
       -0.052930854 -0.2151741 0.16481084 -0.087334916
000160 4b 7e b3 3e e8 b0 71 3e 2e 78 49 3e b1 08 1d 3f
       0.3505729 0.2360264 0.19674751 0.6134139
000170 42 9b 55 3e d4 bb 3b bf a1 25 98 be a7 2b 4a be
       0.20860007 -0.7333348 -0.2971621 -0.19743215
000180 bd c5 81 3d 87 76 84 be 58 47 9e bd d4 b5 4c 3d
       0.06336544 -0.2587168 -0.077284515 0.049978092
000190 61 4f 49 be 20 c4 06 be 64 04 dd bd 03 84 c2 3e
       -0.19659187 -0.13160753 -0.10791853 0.37991342
0001a0 7f bd eb 3d b7 12 cd be 26 40 bc be b8 e3 bd 3c
       0.11510753 -0.4005334 -0.3676769 0.023179874
0001b0 0b 5b 24 3e 76 d7 57 3e 65 64 3e 3e 4c 42 cc be
       0.16050355 0.21078286 0.18592985 -0.3989433
0001c0 90 57 54 be 7d 4b 8f 3e 5d c2 85 3e db ae 09 bf
       -0.20736527 0.2798728 0.2612485 -0.53782433
0001d0 a5 aa 38 be 92 10 af bb a1 bc fc bb 98 35 c7 3d
       -0.18033846 -0.0053425515 -0.007712916 0.09727019
0001e0 ee 91 73 bd 78 b6 8d 3d 1d ab c1 be 0f 04 52 be
       -0.05946534 0.06919569 -0.37825862 -0.2050936
0001f0 d8 74 26 be 94 51 6b 3e 7d a3 b5 3e d8 bf 2f 3f
       -0.1625551 0.22980338 0.35476294 0.68652105
000200 3e 2c 84 bb b1 e2 36 3e 16 4f ab bd 36 9c 1a be
       -0.0040335944 0.17859913 -0.08364694 -0.15098652
000210 ec 19 95 3e 37 e3 da 3d d3 7a e8 3d c5 3d 19 3e
       0.2912134 0.10687869 0.11351552 0.1496497
000220 11 bc 77 3e 6a aa d3 3e 07 fb 0f 3d cf a6 86 3e
       0.24192835 0.41340953 0.035151508 0.2629914
000230 6d 90 4f bd 90 4e 36 be 91 8f 42 bd 4d 0c 8b be
       -0.050674845 -0.17803407 -0.047500197 -0.27157822
000240 c0 89 19 bd b6 3c e6 3e ce 8f a9 be 17 be 21 be
       -0.037484884 0.44968194 -0.33117527 -0.1579517
000250 8f b8 57 bd d1 4b a9 bd f1 8d f0 3c d2 cf 2c 3e
       -0.052666243 -0.08266414 0.029364558 0.16876152
000260 b9 5b f9 3e f0 63 65 be a7 10 86 3e 26 fc 65 3e
       0.4870279 -0.22401404 0.2618458 0.22459468
000270 8f da 46 3e 32 01 5a 3e c2 8b ca 3d 3d e6 09 3e
       0.19419311 0.21289518 0.09889938 0.13466735
000280 0d 13 5a 3e 63 e2 2f 3d ff 64 d9 3d f1 d1 bf be
       0.2129633 0.04294051 0.106149666 -0.3746486
000290 ca 5d c1 3d cb c8 06 3f f4 f7 2d 3c 41 3a 8b be
       0.09441717 0.52650136 0.010618199 -0.27192882
0002a0 26 2c da 3e 6a 73 53 3d 00 1c a2 be 5e 01 f6 3e
       0.42611808 0.05162374 -0.31661987 0.48047918
0002b0 0a 3a 53 be a3 6c 9c 3d 6b 51 09 bf b7 5d d9 bd
       -0.20627609 0.07637908 -0.5363986 -0.10613578
0002c0 67 28 b0 3e 87 f6 01 bf 50 0a 8e 3e 53 f1 88 3d
       0.34405825 -0.50766796 0.27742243 0.06686654
0002d0 93 64 31 3c 76 57 eb 3e dd 40 1b be b7 6c cb be
       0.010827201 0.45965165 -0.15161462 -0.3973138
0002e0 8f 44 a0 bc 65 d1 24 bd b6 4c 93 3e 17 0a 55 3d
       -0.019563941 -0.040238757 0.28769463 0.052011576
0002f0 05 c7 15 3e 02 e0 32 3e bd 3b 70 bd a5 7e 00 3e
       0.14626701 0.17468265 -0.05865072 0.12548311
000300 6e 4f 09 be b3 d0 41 bd ea 60 87 be ff df 28 be
       -0.13409206 -0.04731817 -0.26441127 -0.16491698
000310 e5 ed 3e be 34 ac 29 3e 2f be 8d be 50 7f 57 3c
       -0.18645437 0.16569597 -0.2768416 0.013152912
000320 38 89 1d be 3a a9 05 be 9e 55 b4 be 8d 13 1d be
       -0.15384376 -0.13052836 -0.3522157 -0.1533949
000330 6d b6 51 be c0 b1 fb 3d e6 61 41 3d 96 83 7a bd
       -0.20479746 0.122897625 0.047212504 -0.061160646
000340 dd be 14 3d d7 86 1f 3e 74 32 14 be b5 95 a0 3d
       0.036314834 0.15578781 -0.14472371 0.07841054
000350 a5 41 87 3e 2a 77 aa be 9c c6 05 be d5 ed 0d 3f
       0.2641727 -0.3329404 -0.13064045 0.5544103
000360 b9 22 42 3e 38 67 8a bd e9 66 8a be 7c 4d 69 3e
       0.18958558 -0.06757969 -0.2703164 0.22783464
000370 ec 0f c7 bd f8 43 bc 3e a8 87 f6 be 84 31 80 3e
       -0.09719834 0.36770606 -0.48150373 0.25037777
000380 26 e0 d2 3d 03 da 27 3e d4 a6 57 bd 45 05 1c be
       0.10296659 0.16391759 -0.052649334 -0.15236385
000390 e1 96 b4 3c d8 6e 81 be fb 78 8c bb a5 65 7f 3e
       0.0220446 -0.2527988 -0.004286883 0.24941118
0003a0 6b 9c 07 bd 7a ee e3 3d 27 c3 13 3e 21 9e 82 3d
       -0.033108156 0.1112947 0.14429913 0.06377817
0003b0 5f b7 6a 3e 76 55 37 3e 16 76 23 3e 91 f5 03 3e
       0.22921513 0.17903695 0.15963015 0.12886645
0003c0 10 fe bb 3d 3d 88 d1 3e e7 7f 32 bd 35 fa a1 3e
       0.09179318 0.40924254 -0.04357901 0.31636205
0003d0 d7 08 87 3b e2 f7 02 bf 08 3e e8 3d 8d a4 cb 3e
       0.004120927 -0.5115949 0.113399565 0.3977398
0003e0 01 49 78 be 2f 3d 8b be b7 13 67 3e bd f4 82 be
       -0.24246599 -0.27195117 0.22566114 -0.25577345
0003f0 03 c2 5b be 9c c3 cd 3e e1 b7 e6 bd 9c 28 1b 3d
       -0.21460728 0.401883 -0.11265541 0.037880525

embedding_item.bias f4 [8]
000000 72 a9 15 3e b3 40 f4 3c 44 61 5a 3d f6 af c0 3b
       0.1461542 0.029816007 0.053315416 0.005880351
000010 6f c1 60 3d 27 0e df bd 1c 7e 9d 3d 10 d1 d4 bd
       0.054871973 -0.10891371 0.07690069 -0.10391438

fc_layers.0.weight f4 [64, 16]
000000 fd 53 43 bf 96 16 9f 3f 03 87 93 3f a4 cd 10 c0
       -0.7630003 1.2428768 1.1525577 -2.2625513
000010 e2 5b 34 3f fb 96 01 3f ba ce 55 bf 9f f7 0e bf
       0.704527 0.50621 -0.83518565 -0.5584659
000020 a9 7c 38 3c f5 df a0 bd 79 c7 d9 bd b5 4d 0d be
       0.01126019 -0.078552164 -0.106337495 -0.13799174
000030 35 87 7c be b9 36 2e 3d af c3 0c be 76 88 6e 3d
       -0.24660952 0.042532656 -0.13746522 0.058235608
000040 15 a0 ed be 1f f3 76 3f 9d 42 b2 3f 0d 7c c0 3d
       -0.46411195 0.96464723 1.3926579 0.09398661
000050 6d b9 15 3f 6a ca dd bf 2d 41 71 bf de d8 52 3e
       0.5848606 -1.7327397 -0.94240075 0.20590541
000060 80 ec f8 3d d8 a0 d3 3d 2f c3 16 be 76 be 02 3e
       0.12154484 0.10333413 -0.14722894 0.12767968
000070 c2 96 78 3d 81 dc 4a be e2 c4 73 3b f0 3e db bc
       0.06069065 -0.19810678 0.0037196209 -0.02676341
000080 dd 1f a8 bf 63 66 3a 3f 55 90 d6 bf 36 7d a3 3e
       -1.3134724 0.7281248 -1.6762797 0.31931466
000090 28 98 75 bf 78 41 db bf 6e d8 d0 be 1a 70 e3 bf
       -0.95935297 -1.7129354 -0.40790123 -1.7768586
0000a0 49 59 d8 bd 88 c3 30 be eb ec ae 3d c3 0e bd bd
       -0.10563905 -0.17262089 0.08541282 -0.09231331
0000b0 d2 68 6e bd e1 ff aa bc 5e 55 15 3d 4a e0 e6 bd
       -0.058205433 -0.020873966 0.036458366 -0.112732485
0000c0 80 74 72 3f a9 6a 29 3e 98 2c 2c 3f 55 3b 65 3e
       0.94709015 0.16544594 0.67255545 0.22385915
0000d0 6e 26 e2 bf cc 15 94 3e 75 d5 93 bf f5 73 0a 40
       -1.7667978 0.2892288 -1.1549517 2.1633275
0000e0 19 9a 29 3d bc 36 74 be 24 e7 b5 3b d8 c7 19 3d
       0.041406725 -0.23849005 0.0055512358 0.0375441
0000f0 c2 a3 8f 3e 48 76 be bd 35 a5 89 be 51 f3 98 3e
       0.28054625 -0.09299904 -0.26883855 0.29873136
000100 73 44 23 bf 87 c1 c5 be 87 f8 87 3f 4b 83 fc 3f
       -0.6377632 -0.38624212 1.062272 1.9727567
000110 19 cc d9 3e 5b fa 02 40 9d f5 ec bf 10 f5 40 3e
       0.42538527 2.0465305 -1.8512455 0.18843484
000120 68 4b 2b 3e a6 cf 33 be ce 63 c4 bd 8b 83 21 3e
       0.16727984 -0.1755968 -0.09589349 0.15772836
000130 09 04 7d be 32 5b 3a 3e 89 85 d8 bd b2 35 55 3e
       -0.2470857 0.18198851 -0.10572345 0.20821264
000140 94 32 aa 3e 46 58 25 c0 d0 d4 3a bf 6a 61 47 bf
       0.33241713 -2.5835128 -0.72980976 -0.7788302
000150 bc d9 b7 bf 9e 24 6d bf 7c c3 d4 3f 0c b6 58 bf
       -1.4363322 -0.92634 1.6622157 -0.8465278
000160 5c 53 c1 bc c8 21 76 3e 5a 68 a8 3d ab 9c 0b be
       -0.02359932 0.24036324 0.082230285 -0.13633983
000170 f5 ef 20 be 5f 79 9b bd 66 53 0a be 98 d6 a8 3e
       -0.15716536 -0.07591509 -0.13508376 0.32976222
000180 95 18 00 bf 8d f2 e3 be 5d 7b c0 3e ca ee b7 3e
       -0.5003751 -0.4452099 0.3759412 0.3592437
000190 1c 7d fc be 8a 19 b0 3f b2 89 a7 bf 07 83 03 bf
       -0.493142 1.3757794 -1.3088896 -0.51371807
0001a0 01 96 b2 be 9f c2 27 be 72 22 8a 3d 74 03 fe bc
       -0.3488007 -0.16382836 0.06744851 -0.031007506
0001b0 59 71 90 3d c5 a4 9a 3e 0a 24 1f 39 8e 51 4e 3c
       0.07052869 0.30203834 0.00015176847 0.012592686
0001c0 ff 9f fd be 06 4b 5a 3f d9 eb 0e bf a1 14 85 be
       -0.4953613 0.85270727 -0.55828625 -0.259923
0001d0 d5 ac fc bd f6 33 ae 3f 33 25 de 3f ea 22 db 3e
       -0.123376526 1.3609607 1.7355102 0.42800075
0001e0 72 6d 80 3e 86 33 45 be a7 5d ca be 6e 89 d2 bd
       0.250835 -0.19257936 -0.39524576 -0.10280119
0001f0 c4 a6 82 bd cf 3b 15 3e 98 a1 3a be 45 20 f3 3e
       -0.06379464 0.14573596 -0.18225706 0.47485557
000200 71 dc a8 3e 25 d0 02 bf 1c 5c 79 3f 55 54 41 3e
       0.32980683 -0.51098853 0.9740617 0.18879826
000210 ca 4b 11 c0 6f 43 07 c0 5f 3a c7 bf a0 da b3 be
       -2.2702508 -2.1134908 -1.5564688 -0.35127735
000220 37 29 a3 bd 7a c6 50 bd f8 5e a4 3c 67 5b 01 be
       -0.079668455 -0.050970532 0.020064816 -0.12632523
000230 1b c8 93 be 64 b7 74 3e ac b8 82 3e 55 d2 a6 3e
       -0.28863606 0.23898083 0.25531518 0.32582346
000240 d5 b6 96 3e 92 61 28 c0 81 44 13 be 3a df 83 3e
       0.29436365 -2.6309552 -0.14381601 0.25756246
000250 b5 ed a7 3e db a5 f9 3f cc ba 03 bd 95 a0 0a 3f
       0.32798544 1.950374 -0.032160565 0.5415128
000260 41 24 63 3e ce be 11 be 2e 38 24 3d 52 ba 40 be
       0.22181799 -0.14232942 0.04009264 -0.18821076
000270 6b 87 a1 be b0 bc 02 3e 57 d3 e4 bd 1c 07 0d 3e
       -0.31548628 0.12767291 -0.111731224 0.13772243
000280 17 74 a7 3e e3 c4 79 bf 54 9b a3 bf ee 52 e0 bf
       0.32705757 -0.9756605 -1.2781777 -1.7525308
000290 6e 6c 30 40 1b 52 92 3e cb b1 3e bf ac 66 b7 be
       2.756618 0.28578267 -0.7449004 -0.3582052
0002a0 9c 59 15 3e 61 33 4c bc fa 69 14 be f6 2e 73 bc
       0.14584965 -0.012463422 -0.14493552 -0.014842739
0002b0 c9 1e 5c 3e 40 a7 13 3d 85 57 86 3e 71 7f 2c 3e
       0.21496119 0.036048174 0.26238647 0.1684549
0002c0 3d d7 d1 3f 9e ef a0 bf 6d 88 84 be a7 b4 ad 3f
       1.639381 -1.2573125 -0.25885335 1.3570756
0002d0 c5 63 9a bf 89 35 00 40 a0 fc ac 3e ac bf 8d 3e
       -1.2061697 2.0032675 0.33786488 0.27685297
0002e0 73 36 4e be 9f b9 03 be 3d 94 08 bd 5e 98 04 be
       -0.20137958 -0.12863778 -0.033344496 -0.12948748
0002f0 1d 43 c3 be a7 b2 85 be b4 2a 08 3e c3 71 f6 3d
       -0.3813714 -0.26112863 0.1329754 0.12033417
000300 6c db 41 be 73 38 48 3f 6e 16 1f 3c e5 42 12 c0
       -0.18931359 0.78211135 0.0097099375 -2.285333
000310 6e 83 23 3f 2e 52 18 bf 7c 87 16 40 91 ea 6a bf
       0.6387242 -0.59500396 2.3520193 -0.9176417
000320 b0 e9 ef 3d 8c 9d 9e be b3 59 c7 3d 42 f1 8d bd
       0.11714494 -0.30979574 0.09733906 -0.06930782
000330 57 51 16 3c 0a 75 65 3e 3d a0 9d be dc 71 01 3e
       0.009174666 0.22407928 -0.30786315 0.1264109
000340 d8 83 68 3f 00 2b 6e bf 5e 95 ca 3f c3 c6 49 bf
       0.9082618 -0.9303436 1.5826833 -0.7881891
000350 92 58 16 40 e0 7a 20 3f 65 10 de be 0a 63 81 bf
       2.349156 0.6268749 -0.43371883 -1.0108349
000360 ac 06 62 be d6 be b8 be 79 25 64 3d 02 ff 26 3e
       -0.22072858 -0.36083096 0.0556998 0.16308215
000370 e6 d0 1f bd 9a c9 9d 3d 04 b6 1f 3d 5e 0d b8 3e
       -0.03901758 0.07704468 0.038991943 0.35947698
000380 43 e9 2e 3d 79 3a 1a c0 79 3d f9 bd 3f 0c be 3f
       0.042702924 -2.409819 -0.12169928 1.4847487
000390 4c ba 59 bd 2b 3f c4 3e e2 cf 4e bf dc d4 d7 3f
       -0.053156182 0.38329443 -0.80785954 1.6861835
0003a0 9d e9 a0 be 8a 97 87 3d 37 1e 9b 3e 73 29 a1 be
       -0.31428233 0.06620701 0.3029649 -0.31476936
0003b0 e0 af a3 bd d4 38 10 3e f0 7f ae 3e f5 bf 54 3e
       -0.0799253 0.14084178 0.34081984 0.20776351
0003c0 03 2d b7 3f 64 ee 21 3f f8 e6 92 3f 5b 83 eb 3f
       1.4310611 0.6325438 1.1476736 1.8399462
0003d0 d4 e8 ad 3f e9 43 aa bf d6 8b a7 bf 0c 32 14 3f
       1.3586679 -1.3301975 -1.308955 0.57888865
0003e0 dd 16 94 bd c5 68 23 bd 42 90 82 be d8 8e 51 be
       -0.07230923 -0.039894838 -0.25500685 -0.20464647
0003f0 8a a3 1a 3d e8 82 23 bd 58 0d 2d 3e 82 af 6b be
       0.03775362 -0.039919764 0.16899621 -0.2301617

fc_layers.0.bias f4 [64]
000000 80 b3 62 bf 75 f4 7b bf c3 39 90 bf 72 52 b8 be
       -0.88555145 -0.98419887 -1.1267627 -0.360004
000010 35 88 29 bf 7a fa 98 be 53 de 64 bf ed 52 87 bf
       -0.6622346 -0.29878598 -0.8940174 -1.0572182
000020 9c 64 19 be dc a5 e1 bf 00 44 27 bf 9e 96 6e bf
       -0.14979786 -1.7628741 -0.65338135 -0.93198574
000030 94 f4 9c 3e df 73 51 bf f5 d7 a5 be 5d da 1d 3f
       0.30655348 -0.8181743 -0.32391325 0.6166132
000040 97 64 31 bf 0b 1a 72 be a8 99 6f be aa 30 7e bf
       -0.6929411 -0.23642747 -0.23398459 -0.99293005
000050 1b 94 a6 be 51 97 9f bc 0f fc 16 bf 04 ae 17 3f
       -0.3253487 -0.019481333 -0.5897836 0.592499
000060 65 e0 bd bf ec d5 65 bf f6 b9 95 3d 4f 72 ab bf
       -1.4834105 -0.89779544 0.0731086 -1.3394259
000070 70 21 46 3f d9 61 85 bf 68 41 49 be 5f 37 3f bf
       0.7739477 -1.0420486 -0.19653857 -0.74693865
000080 79 fb 99 3d 61 d2 48 3f 9b b5 b2 3f 08 3b 4a bf
       0.07518668 0.7844601 1.3961672 -0.78996325
000090 2a 64 f1 be 84 fc ed be 1a 3a 86 bf 55 d3 4f bf
       -0.47146732 -0.46481717 -1.0486481 -0.8118184
0000a0 f5 da 84 be 25 c6 ee bf 6c e0 86 bd 4c 11 19 bf
       -0.259483 -1.8654219 -0.06585774 -0.5979202
0000b0 b2 4c 7a bf 71 da 87 bf 1d 17 78 bf 5d 97 0c bf
       -0.9777328 -1.0613538 -0.9691027 -0.5491846
0000c0 f3 bf 45 bf cc 71 ad 3e 50 ba 88 bf 59 fd c7 be
       -0.77246016 0.33875883 -1.0681858 -0.39060476
0000d0 e5 cb 83 bf 6e b3 1f bf 62 16 20 bf 60 56 55 bf
       -1.0296599 -0.6238316 -0.62534153 -0.8333492
0000e0 5a 46 e4 be 77 ae 57 bf 1d df 08 bf 2d bb af 3f
       -0.44584924 -0.8425059 -0.53465444 1.3728997
0000f0 af 12 ee be a5 95 d0 3d 4a f6 21 bf 72 ea 18 bf
       -0.4649863 0.101847924 -0.6326643 -0.59732735

fc_layers.1.weight f4 [32, 64]
000000 67 28 9c be cd b4 da 3e b3 da a5 3e 2f ad 7c 3d
       -0.30499575 0.42716065 0.32393417 0.0616886
000010 7e cf 7f 3f 82 83 cb be fd 3b e2 3c e2 7c 83 be
       0.9992598 -0.3974877 0.027616495 -0.25681216
000020 b0 16 9f be 34 c4 e3 3e 09 23 50 bf 4b 88 af 3d
       -0.31071997 0.4448563 -0.8130346 0.08570918
000030 ad c8 a6 be e6 a1 b2 be cc 01 b1 be 35 2f 0f be
       -0.32574978 -0.34889144 -0.34571683 -0.13982852
000040 82 ba 07 3f 7c 82 6f bd 97 94 33 bc 2a c6 25 3e
       0.53018963 -0.05847405 -0.01096072 0.16188875
000050 64 cf d6 be 82 29 dd bc e6 41 54 3f a3 24 f4 3b
       -0.419551 -0.026997332 0.82913053 0.0074506565
000060 a9 2b e1 be 17 89 e4 3d bc f5 1f be 73 f8 cd 3d
       -0.43978623 0.1115896 -0.15621084 0.100571536
000070 20 b0 59 bf 4c 80 dd be ca 4a 59 bf 94 a4 9e 3e
       -0.8503437 -0.43261945 -0.84879744 0.30984938
000080 61 51 f1 bc 60 ef 14 3d 96 fc 33 bf 54 a0 b8 3e
       -0.02945775 0.0363611 -0.7030729 0.3605982
000090 30 92 a2 bf cd de 44 be a7 42 54 3e d6 bd 4a 3d
       -1.2700863 -0.19225617 0.20728551 0.049497448
0000a0 1b 50 f4 be ce eb 39 be 1f 0b 12 be 10 db 86 3e
       -0.47717366 -0.18156359 -0.14262055 0.26339006
0000b0 e5 25 fd be 8a 12 11 bf 91 30 81 3d 57 cf 0e 3f
       -0.49442974 -0.56668913 0.063080914 0.55785125
0000c0 71 fa 10 be 0a 6f cc be ea b2 21 be 98 6c 62 3e
       -0.14158036 -0.39928466 -0.15790907 0.22111738
0000d0 eb 02 02 3f 7b 82 94 3f f2 45 de 3e b6 b2 dd bd
       0.507857 1.160232 0.4341274 -0.10825102
0000e0 97 55 8c 3e af 1a 3d 3f 8d 7d 78 be 4c 7c cf 3e
       0.2740905 0.7386884 -0.24266644 0.40524518
0000f0 12 e1 c9 3e 38 38 eb 3d 51 e3 5d be 1c 94 54 be
       0.39429528 0.11485332 -0.21668746 -0.20759624
000100 39 1e 98 3e 41 e9 90 3e 99 65 63 be c3 66 86 3d
       0.29710558 0.2830296 -0.22206725 0.06562569
000110 1b f2 10 3f a2 b0 8f bd 83 61 18 3e a1 24 47 3e
       0.56619424 -0.07016112 0.14880948 0.19447567
000120 ce 41 02 3e 26 cd bc bd 7f 15 08 bf 2e df 1b be
       0.12720415 -0.092188165 -0.531578 -0.15221855
000130 9a 50 02 3f 71 91 6e be c7 e4 d9 3d 44 87 b2 bc
       0.5090424 -0.23297669 0.10639339 -0.021793015
000140 b5 79 09 3e c0 07 7d 3e 9c af db be a0 d8 97 bc
       0.13425334 0.24709988 -0.42907417 -0.018535912
000150 2a 21 21 3e f0 43 43 bf f6 32 71 bb ad 9e 95 3d
       0.15735307 -0.7627554 -0.0036804057 0.07305656
000160 14 dd 0d 3e 2c 35 8a 3e 31 20 1d 3e f0 0e 96 be
       0.13853866 0.26993692 0.15344311 -0.2930827
000170 45 e9 af 3e 21 92 84 be a5 f3 1c be bb 6b 1f 3f
       0.34357658 -0.25892738 -0.15327318 0.6227376
000180 f0 e4 9d be fb d7 4b 3e 3d 87 3d be 61 3e ec be
       -0.30838728 0.19906609 -0.1850862 -0.4614134
000190 31 4e 89 3e 46 22 b7 3e 52 ad 26 be c1 c6 b8 bf
       0.26817468 0.35768336 -0.16277054 -1.4435655
0001a0 b3 ef 19 bf d6 90 9e bd 59 06 23 3c 62 23 10 3f
       -0.60131377 -0.07742469 0.009950244 0.5630399
0001b0 56 22 78 bf 13 29 0e 3f 25 af 23 bf 98 8a e9 3e
       -0.9692739 0.55531424 -0.63939124 0.4561355
0001c0 a4 be bf be 6c 2b 40 be 12 3c af 3e 87 1a bb 3e
       -0.37450135 -0.18766564 0.34225518 0.36543676
0001d0 6f 5d c4 be dd e2 cd 3e c8 e5 3c 3f 7e 73 4d be
       -0.38352534 0.40212145 0.7378812 -0.20063588
0001e0 77 d8 ce be 5f 3e d7 be 35 69 03 be 49 97 01 bf
       -0.40399525 -0.42039773 -0.12833102 -0.5062147
0001f0 7c ba 80 3e 98 2a 9b 3e 32 2c 79 bf 4b 17 6d 3e
       0.25142276 0.30305934 -0.9733306 0.23153417
000200 03 c7 49 be bd c7 2a 3e 22 c8 4a be ba 71 f7 3e
       -0.19704823 0.16677757 -0.19802907 0.48328954
000210 65 80 16 3f 6d 53 4a bf 5b 44 f4 be 2a 2f bc be
       0.58789665 -0.7903355 -0.477084 -0.36754733
000220 74 7c cf bc 95 18 1f bf 61 75 23 3e 9a 50 63 3e
       -0.025327899 -0.62146884 0.15962745 0.22198716
000230 8f f3 3f 3f 38 99 74 bf ec 81 cb 3d 0a 02 6c 3e
       0.74981016 -0.95546293 0.0993689 0.23047653
000240 57 76 ce be 58 53 70 bf 71 da fc be 62 f7 1c bf
       -0.4032466 -0.9387717 -0.49385408 -0.61314976
000250 0e 6e 9b be 84 dc ae be 49 54 58 bf 64 ee f9 3d
       -0.30357403 -0.34152615 -0.8450361 0.122036725
000260 2e a1 30 3f b6 c5 5e 3e b5 49 ff bd 5f 7c ac bc
       0.6899594 0.21755108 -0.124652304 -0.021055399
000270 0d a9 03 c0 4e 09 6a be f2 2f 38 bf 1b b9 cb 3e
       -2.057193 -0.22855112 -0.7194816 0.39789662
000280 ba 0e 17 bf b5 3a d2 bd 03 68 19 be 69 75 42 3f
       -0.59006846 -0.10265104 -0.14981084 0.75960404
000290 52 25 01 bd 9e 9c e6 bc 62 46 d0 be c2 41 1b bf
       -0.031529732 -0.028150853 -0.40678698 -0.60647213
0002a0 84 63 10 be 4d 15 fc 3e 03 07 97 bf e9 8b 45 3f
       -0.14100462 0.49235 -1.1799015 0.7716661
0002b0 fa 64 8b bf 74 09 bc bd c1 73 5a bd 56 71 ae 3e
       -1.0890191 -0.091814905 -0.053333048 0.34070843
0002c0 5c a2 c2 be 35 66 6c bd 47 4f a1 3e ef 4a 93 3e
       -0.38014495 -0.05771466 0.31505796 0.28768107
0002d0 84 91 2f be ff 00 76 3f e0 b0 20 3f b1 0c 64 bd
       -0.17145354 0.9609527 0.6276989 -0.055676166
0002e0 73 c4 38 be ca 3d 7e 3d 6c 0f 57 be 3d f0 e6 3d
       -0.1804369 0.062070645 -0.21001977 0.112762906
0002f0 47 8b 09 bc 82 ef 7a be 28 ac 27 bf fa 3b 3a 3b
       -0.008395023 -0.24505427 -0.65497065 0.0028417096
000300 1c 7a 39 bf 14 28 f7 be 0b d3 91 bf 60 aa 11 3e
       -0.7245195 -0.48272765 -1.139253 0.14225149
000310 2d 6d b2 be dc 54 c0 3e 59 6c 9d bb d7 54 df 3d
       -0.3484892 0.37564743 -0.004804176 0.10904854
000320 6c fd e1 bd c7 81 25 3f 92 ac e6 3e 02 fb c4 3d
       -0.110346645 0.6465115 0.45053536 0.096181884
000330 4d 3f 60 bd 23 73 1b bd 1c 75 0f 3f 13 1f a3 3e
       -0.05474787 -0.0379516 0.5603807 0.31859645
000340 6b 65 28 3f 05 40 36 bd 19 58 83 be 14 4e 37 bf
       0.6577975 -0.044494648 -0.2565315 -0.7160351
000350 63 ec 99 bd 3c 12 98 be 3f fb c0 bf 50 b2 06 3f
       -0.0751579 -0.29701412 -1.5076674 0.52615833
000360 1e f2 a8 3f e6 7e ad 3e b0 e5 99 be 51 54 42 bf
       1.3198888 0.33885878 -0.3005805 -0.75909907
000370 ff 22 f9 3d 30 22 6c bf 08 f1 49 3f 55 41 b6 3d
       0.12164878 -0.92239666 0.7888341 0.0889918
000380 6c 86 58 bc d1 82 24 3c a7 7c a6 3e 53 53 76 3f
       -0.013215642 0.010040955 0.32516977 0.9622089
000390 59 ba 5f 3e b4 e2 77 3e 3d 5f 4f be 38 17 2b bf
       0.2184843 0.24207574 -0.20251174 -0.66832304
0003a0 e5 3d f6 bd 5d a3 1a be 07 20 ed bc 5f 92 47 bc
       -0.12023524 -0.1510138 -0.028945936 -0.012180894
0003b0 2c 9b 28 3f 5c 2d 8b 3e b0 d1 ea be 4a 48 3c be
       0.65861773 0.27183044 -0.45863104 -0.18386951
0003c0 6b f0 e7 be 5f b8 c6 3e b1 d0 e0 bf 24 26 5f 3d
       -0.45300612 0.3881254 -1.7563688 0.054479733
0003d0 32 73 7e bf d3 20 9f be f5 23 99 bd 3e 54 cd be
       -0.99394524 -0.3107973 -0.074775614 -0.40103334
0003e0 cd 6d b4 3e 51 42 02 3e e6 81 76 3f e5 7a 86 3d
       0.3524002 0.1272061 0.9629196 0.06566409
0003f0 7b 38 05 bf ef c0 1c 3e 3c c3 be bb da 1b 61 be
       -0.5203931 0.15307973 -0.0058216136 -0.21983281

fc_layers.1.bias f4 [32]
000000 fb 56 88 bd 1d 96 b1 3e fa 35 45 be dd bb a5 3d
       -0.06657215 0.3468484 -0.19258872 0.08092473
000010 5e 48 8c 3d ec 5f 9f 3e 80 a7 45 be dc 21 1c be
       0.068497404 0.3112787 -0.19302177 -0.15247291
000020 22 34 f0 3d c4 27 f5 84 2f a4 63 3e 9b a6 0f bd
       0.117286935 -5.7635742e-36 0.222306 -0.035070997
000030 f9 e6 bb be 2f 64 80 be 99 b3 e5 be 69 e6 1d 3e
       -0.36699656 -0.25076434 -0.44863585 0.15419926
000040 f7 8d 08 bf 0e 18 f4 84 f0 33 41 bf bd 45 f2 84
       -0.5334162 -5.7386215e-36 -0.75469875 -5.695797e-36
000050 ac 77 15 bf 4b 71 f0 be c9 1e 4e be 5e 86 cc be
       -0.5838573 -0.46961436 -0.20128931 -0.39946264
000060 e5 41 ee bd 03 2e 3a be 25 f8 13 3e 44 7f b4 3d
       -0.11633662 -0.18181615 0.14450128 0.088133365
000070 99 8e fb be 05 29 35 bf 68 cb 54 bf be 24 a6 be
       -0.4913223 -0.70765716 -0.83122873 -0.32449907

fc_layers.2.weight f4 [16, 32]
000000 1a b5 65 bf 7e 54 50 be 09 20 2e bf 19 29 b2 be
       -0.89729464 -0.20344731 -0.6801763 -0.3479698
000010 2b 5a ce 3e fb 0c 7f bf b6 e2 04 3f f7 bb 4a bf
       0.40303168 -0.9962918 0.51908433 -0.7919306
000020 90 1f 06 bf a0 10 f4 84 1b e5 0a be 20 80 4a be
       -0.5239191 -5.7379392e-36 -0.1356396 -0.19775438
000030 b1 83 49 be c8 33 75 bc e0 02 41 bf 5c 47 99 3e
       -0.19679143 -0.014965959 -0.7539501 0.29937255
000040 1b 66 9a 3f 00 90 f7 04 fb de 11 3f 17 37 f6 04
       1.206241 5.8201664e-36 0.56980866 5.7884914e-36
000050 b4 f6 25 bd 91 a8 82 bf 7b e9 2f bf 81 ae 9f bb
       -0.040518478 -1.0207692 -0.6871564 -0.0048730974
000060 dc 45 b0 bd 6c 76 e8 3e fb 93 36 3f 22 f7 5f bf
       -0.086070746 0.4540285 0.7131955 -0.8748647
000070 87 ec 09 3f 63 b3 aa 3e 8e 55 cc 3f 0e ca 9b bd
       0.5387654 0.33339986 1.5963609 -0.07606898
000080 d0 d5 bb 3e c9 f0 92 3e fd 9a f9 3e 09 8b d2 3e
       0.36686563 0.2869933 0.4875106 0.411217
000090 90 02 5c be 9e 35 52 3f 18 da 01 3e 74 36 03 3f
       -0.21485353 0.82113063 0.12680852 0.51254964
0000a0 6e 25 60 be 17 ac f3 84 b8 e1 db 3d 21 66 20 bf
       -0.21889278 -5.7287065e-36 0.10736412 -0.62655836
0000b0 78 c4 06 be ec 36 9e 3e 29 59 13 bf b3 9f 1f bf
       -0.13160884 0.30901277 -0.5755792 -0.62353057
0000c0 33 8a dd bd f2 8f f2 84 30 89 d9 3e 15 eb f5 84
       -0.10817375 -5.702612e-36 0.42487478 -5.7815112e-36
0000d0 90 f8 1a 3f 63 bc e4 3d 12 c2 f3 be 89 12 78 3e
       0.60535526 0.111687444 -0.47609 0.2422582
0000e0 71 09 1f 3e 00 da 6b bf 0d 9b be 3d ac d7 9a be
       0.15530945 -0.92129517 0.09306917 -0.3024267
0000f0 c3 49 a8 3e 44 1a bf 3d 7a 4a 98 3f 0b bc 25 bf
       0.32868776 0.09331182 1.1897728 -0.64740056
000100 7b 3d b4 bd 56 38 42 bf 1b c9 d8 3e fd 47 5e bf
       -0.08800789 -0.7586721 0.4234093 -0.86828595
000110 0a 09 64 3e ca a5 05 bf 9c 1d e5 be 7d eb 3b 3f
       0.22269073 -0.522061 -0.44749153 0.734062
000120 78 33 0d bf 27 3e f2 84 89 a7 9e 3d 90 85 cd 3e
       -0.5515666 -5.6951004e-36 0.077467985 0.40140963
000130 e8 74 3f 3e e6 cb 70 3c 02 2a d3 3e 58 64 88 3e
       0.1869694 0.014697051 0.41242987 0.26639056
000140 cd 34 90 3f 65 47 f6 04 6a 39 8a 3f 8b ac f3 84
       1.1266114 5.7899888e-36 1.0798771 -5.728748e-36
000150 38 76 49 3e e4 58 f7 bd 4d ed a3 3d c1 ad 43 3d
       0.19674003 -0.120775014 0.08004246 0.047773127
000160 6b 4f 0c be 0b b6 84 bf f9 5e 15 3e 87 cf 03 3f
       -0.1370217 -1.0368055 0.1458701 0.51488537
000170 07 a4 ef 3e 24 98 cb 3f be ec c0 3f 0c d6 c7 bd
       0.4680483 1.5905805 1.5072248 -0.09757623
000180 e1 2c 2e 3f dc 2e 7b 3d fd 59 e1 3e bb 0f 95 3e
       0.6803723 0.061323985 0.44013968 0.29113564
000190 97 6a 1a bf 98 bb eb be 70 d0 74 be 22 3f 37 bf
       -0.60318893 -0.4604156 -0.23907638 -0.7158071
0001a0 bd cb 6b 3d 9f b9 f4 04 0a 7c d2 3d 5e 1f f8 3d
       0.057567347 5.753459e-36 0.10277565 0.12115358
0001b0 33 d7 82 3e b7 e3 39 bf d9 ab a0 3e 96 73 2f bf
       0.2555481 -0.7261309 0.3138111 -0.68535745
0001c0 33 4b 67 bf eb b4 f3 04 d0 4c 8c be b3 26 f2 84
       -0.9034912 5.7295172e-36 -0.27402353 -5.6929466e-36
0001d0 49 20 68 bf bb 66 ee 3e a9 3f c7 bd 70 cd ca 3e
       -0.90674263 0.46562752 -0.09728939 0.3960986
0001e0 dd 0f 8e bc 57 80 e7 3e 59 db 52 3e 99 a8 aa 3e
       -0.017341549 0.45215103 0.20591487 0.33331755
0001f0 05 b5 52 bf 33 36 50 bf 03 3f 42 bf 7e 22 93 be
       -0.82307464 -0.813327 -0.758774 -0.28737253
000200 8a c2 5e 3e 1d f2 07 3e 3c a4 8b be c1 92 36 bf
       0.21753898 0.13275953 -0.27273738 -0.7131768
000210 3d 6c 44 3f b2 e8 b9 3d c9 50 f6 3e 35 d1 4f 3f
       0.7672766 0.09077586 0.4810851 0.811786
000220 f0 f3 f2 bb 90 45 f2 84 aa 18 c2 3e d4 f9 e9 bc
       -0.0074143335 -5.695781e-36 0.37909442 -0.02856151
000230 86 ac 44 3e 2b 9b 9d 3e b3 d2 a8 bf 7b 7d 0a 3f
       0.19206437 0.30782446 -1.31893 0.5409772
000240 20 05 9e 3f 07 32 f2 84 3c b8 44 3f 8b 42 f5 84
       1.2345314 -5.693987e-36 0.7684362 -5.7660333e-36
000250 f6 ec bf 3d 46 0a da bf 9f d9 0e 3f 0b 7c 0f be
       0.093713686 -1.7034385 0.55800813 -0.14012162
000260 7b 99 50 be 2a c1 ad bd 77 9f d2 be e4 9d 18 bd
       -0.20371048 -0.08484109 -0.41137287 -0.03725995
000270 3c a7 b1 3e 72 bb 13 3e e4 6c 8a 3f 8b 45 94 3e
       0.34697902 0.14426973 1.0814481 0.28959307
000280 14 ae fb 3e a4 69 05 bf a9 fd 65 be e7 42 99 3e
       0.4915625 -0.5211432 -0.22460045 0.29933855
000290 c5 de 43 bf 27 dd cc be d3 e3 0e bf 3d 22 b1 3d
       -0.76511794 -0.40012476 -0.5581638 0.086491086
0002a0 9d 0a 6d bf a2 7f f2 84 4d c4 23 be 86 2a da be
       -0.9259432 -5.701114e-36 -0.15992852 -0.42610568
0002b0 04 02 3d be 61 c2 02 bf bf 3e 02 bd 86 5d 78 be
       -0.184578 -0.5107785 -0.03179812 -0.24254426
0002c0 33 3d 80 3f ba 0f f2 84 4c 85 49 3f 9b 36 f3 84
       1.0018677 -5.690837e-36 0.7871902 -5.7179173e-36
0002d0 65 20 be bf d0 4d 4b 3f c5 ce ab be 1f 41 95 3e
       -1.4853636 0.7941561 -0.3355619 0.29151246
0002e0 ad f0 95 be 0e dc bc be 43 b1 38 bf 2c e3 b6 bf
       -0.29285184 -0.36886638 -0.7214548 -1.4288077
0002f0 a1 86 91 bd 70 31 9d bf f8 dd ac be 95 d3 81 3d
       -0.071057566 -1.2280712 -0.337631 0.06339184
000300 a4 93 28 3e 2e 1b 5c bf 14 21 3c bd 52 c2 f7 3e
       0.1646257 -0.8597897 -0.045929983 0.48390442
000310 b1 9e 80 be b5 65 bd bf ce f3 de 3e 93 03 a9 3e
       -0.25121072 -1.4796664 0.43545383 0.3301054
000320 8a aa ac be 34 cb f2 84 f3 89 82 bf 22 83 63 bc
       -0.3372386 -5.708054e-36 -1.0198349 -0.013886245
000330 5f f3 c6 3e 31 22 5e 3e 9c 21 d0 3c 59 cb e5 bd
       0.38857552 0.2169273 0.025406651 -0.11220426
000340 34 91 84 3e dc 73 f5 84 32 e7 9b 3f a5 cc f6 84
       0.2589203 -5.7705623e-36 1.217993 -5.802226e-36
000350 a9 e4 19 3f 6d 7a e3 3d 3b a4 35 3e 95 d5 a0 be
       0.6011453 0.11107335 0.1773843 -0.3141295
000360 c4 5c c4 bf 86 90 58 be bf 0c c7 3e 78 f9 ae bd
       -1.534081 -0.21148881 0.38876912 -0.08543676
000370 29 60 e8 3e 06 e7 f8 be 2d 78 c6 3f e5 a6 01 3e
       0.45385864 -0.48613757 1.5505425 0.12661321
000380 c6 05 69 bd 93 3c a7 be a3 8e 76 bf 29 2f 08 bf
       -0.05689027 -0.32663402 -0.96311396 -0.5319696
000390 bb 60 e0 3e 65 f9 07 be dc 0a 9c bd 8c db 33 3f
       0.438238 -0.1327873 -0.07619259 0.70256877
0003a0 d0 62 59 3e 6d 6f f6 84 a2 35 63 3e e2 7b 64 3e
       0.212291 -5.793665e-36 0.22188428 0.22312883
0003b0 55 c0 6c 3d 73 66 97 3e e4 47 cb be df bf 13 3f
       0.05780061 0.2957035 -0.39703286 0.5771465
0003c0 6c a6 55 3f 8c 96 f2 84 05 6e cf 3e b6 cd f5 84
       0.83457065 -5.7032182e-36 0.40513626 -5.778814e-36
0003d0 4a 9d 09 3f e0 c2 ea be 11 10 34 3f 12 31 5f bf
       0.5375563 -0.45851803 0.70337015 -0.8718425
0003e0 a3 bf 08 bf aa 0e 3e 3e 24 72 fd 3d ee 39 f1 be
       -0.53417414 0.18560281 0.12375286 -0.4711451
0003f0 41 1f 6b 3d f4 4a e6 3f 5d f7 d5 3f cd a7 77 3e
       0.057402853 1.7991624 1.6716114 0.24185105

fc_layers.2.bias f4 [16]
000000 f5 77 08 bd 04 c1 06 3f 67 6d e9 be 8f 03 d7 bd
       -0.033317525 0.5263827 -0.4559128 -0.104987256
000010 24 85 17 3c 79 7f e8 be bb 88 8f bf 98 2d 51 bd
       0.009248052 -0.45409754 -1.1213602 -0.051068872
000020 3a 69 0a 40 43 ee 9b be 26 3f 1b bd fc 91 ed 84
       2.1626725 -0.30455217 -0.03790202 -5.5852498e-36
000030 aa e5 91 3e cb 30 bb 3f 3b 17 23 3f 1c 35 ed 84
       0.28495532 1.4624265 0.6370732 -5.5767205e-36

fc_layers.3.weight f4 [8, 16]
000000 37 d7 db bf 10 9b 22 3f 59 a0 95 be 44 f3 5a 3e
       -1.7175053 0.63517857 -0.29223898 0.21381861
000010 2f 71 1c be 45 a3 b5 bf 10 8d 36 bf 09 70 ef be
       -0.15277551 -1.4190451 -0.71308994 -0.46765164
000020 ce 8e 21 3f 18 4e c8 3d a8 cc 9e 3e 60 0f ee 84
       0.6310853 0.0978052 0.31015515 -5.596765e-36
000030 38 db 42 3f 1b 27 e0 3b 91 c0 3c 3c 36 a1 11 05
       0.7611575 0.0068405992 0.011520521 6.847477e-36
000040 5c 33 b7 3e 26 89 5a be e4 06 8a 3e 77 8b 2a c0
       0.35781372 -0.2134138 0.26958382 -2.6647623
000050 c0 03 e0 3e 0f 96 6d 3e 3a c4 9c 3e 65 5f 8b 3e
       0.4375286 0.23201774 0.3061846 0.27221218
000060 cb 6d a7 3d 6c 97 c4 bd bd 4d 2c bd cf e2 d8 84
       0.08175238 -0.09599194 -0.042066325 -5.0989647e-36
000070 f2 33 4e 3b 50 23 ad bf c2 fb 38 bf 9f 7c e4 04
       0.0031464067 -1.3526402 -0.7225915 5.371699e-36
000080 d9 7d 68 bf 8d a4 3e 3e f7 c3 25 bf b6 ec 2d 3e
       -0.9081703 0.18617459 -0.64752144 0.1698483
000090 00 2c 9d be a1 f5 44 bf 83 5c db bf ab f2 53 be
       -0.30697632 -0.769373 -1.7137607 -0.20698039
0000a0 e6 80 dc 3e 23 bb 4b 3f 66 b6 75 3e 7b 23 ef 84
       0.43067092 0.7958242 0.2399536 -5.6221214e-36
0000b0 e3 1f 0f 3f 94 5d 06 bd 90 2a c6 3e ce f4 03 05
       0.5590803 -0.032804087 0.38704348 6.204554e-36
0000c0 07 9c f3 84 cd 86 f2 84 41 f7 f5 84 56 b6 f7 84
       -5.7272314e-36 -5.701772e-36 -5.782629e-36 -5.823687e-36
0000d0 9e c9 f3 84 80 dd f4 84 b5 a2 f5 84 47 84 f6 84
       -5.731418e-36 -5.756754e-36 -5.7748646e-36 -5.79558e-36
0000e0 9f 82 f6 84 68 0a f3 84 22 2d f4 84 a6 c2 f0 04
       -5.795428e-36 -5.7138582e-36 -5.7405572e-36 5.6602485e-36
0000f0 47 db f4 84 9a 28 f4 84 9e 26 f7 84 5c 6e ed 84
       -5.75655e-36 -5.740141e-36 -5.8104885e-36 -5.581978e-36
000100 f2 dd c8 be 26 c9 e4 bd 0a 9b ea be 0b 12 ae 3e
       -0.3923183 -0.111711785 -0.4582141 0.3399814
000110 b5 5b 33 bf d6 a9 23 be d3 af 01 bf 23 08 26 be
       -0.7006181 -0.15982756 -0.5065891 -0.16214041
000120 f7 e4 01 3f 26 e4 15 be 46 13 60 be a1 fb ef 84
       0.5074 -0.14637813 -0.21882352 -5.6419715e-36
000130 63 67 18 bf fa 41 9c 3e 7a 2b f9 bd 52 6d 70 84
       -0.59532756 0.30519086 -0.121664956 -2.8262062e-36
000140 40 cd f9 be 90 e3 1c be e3 88 d1 be c1 56 2e 3e
       -0.48789406 -0.15321183 -0.4092475 0.17025281
000150 ba 15 64 bf 2a 5c 07 bb 59 65 58 bf e7 94 5b bf
       -0.8909565 -0.00206543 -0.84529644 -0.8577408
000160 48 28 0d 3f d7 ca b3 be de a4 9d bc 83 5f ef 84
       0.5513959 -0.35115692 -0.019243654 -5.6276344e-36
000170 36 b8 20 bf 7b 78 f9 3e f3 ad 71 bc 32 68 49 84
       -0.62781084 0.48724732 -0.014750945 -2.367528e-36
000180 25 02 85 bf aa 7a bc be 4a cc 61 bf f4 cb ba 3e
       -1.039128 -0.36812335 -0.88202345 0.3648373
000190 ec 64 79 be 2c 48 99 c0 7c e3 42 bc 89 30 0e 3f
       -0.24354905 -4.79006 -0.011895057 0.5554281
0001a0 90 4a 91 bf f8 78 08 bf 87 4e 85 3e 28 e7 f4 84
       -1.135088 -0.53309584 0.26036474 -5.7576408e-36
0001b0 d9 7d 84 3f 85 7b 8a 3d df 40 56 3f 4e 95 5b 04
       1.0350906 0.06761841 0.83692735 2.5811884e-36
0001c0 69 60 1e 3e e0 a9 40 3e 79 cf cb 3e 49 b7 8a bf
       0.15466465 0.18814802 0.39806727 -1.0837184
0001d0 1a 20 a6 3e bf 1c 59 3f b3 73 e4 3e ae 6d 19 bc
       0.32446367 0.8480949 0.44619521 -0.009364529
0001e0 c1 99 e4 3e 06 63 73 3e e5 8c 6b bf 7e c5 f3 84
       0.44648555 0.23768243 -0.92011863 -5.7310393e-36
0001f0 d1 c5 bf be 87 c5 07 3f 28 ff 5e bf 3c b4 ef 04
       -0.3745561 0.5303578 -0.8710809 5.635415e-36

fc_layers.3.bias f4 [8]
000000 66 1b c2 3e fa e5 8b 3f a1 db 59 3e dd c1 f4 84
       0.37911528 1.0929558 0.21275188 -5.754216e-36
000010 8f 4d 16 3f 81 c6 16 3f 6d bb 35 bf ef 37 ae 3e
       0.58712095 0.5889664 -0.70989114 0.3402705

affine_output.weight f4 [1, 8]
000000 ba db c3 be 95 fd a6 be 53 60 a0 be 0c f0 f4 04
       -0.38253576 -0.32615343 -0.3132349 5.7584573e-36
000010 2f 94 26 be 85 ce ae be da 00 f5 3e 06 55 e5 3e
       -0.16267465 -0.34141937 0.47852212 0.4479143
