neural-collaborative-filtering/src/checkpoints/mlp_factor8neg4_bz256_166432168_pretrain_reg_0.0000001_Epoch156_HR1.0000_NDCG0.7829.model (torch, 298910 bytes, 12 tensors)

embedding_user.weight f4 [7700, 8]
000000 ab 69 f5 04 11 d4 f1 84 71 7c f3 84 7c 1a f5 04
       5.7696264e-36 -5.685358e-36 -5.7243307e-36 5.7623545e-36
000010 3c ce f2 84 e0 35 f7 04 df 3a f4 84 84 5d f6 84
       -5.7083323e-36 5.8118897e-36 -5.741819e-36 -5.7920203e-36
000020 fa 7d f2 84 6c 73 f2 04 6c 5d f4 04 1e 19 ee 04
       -5.7009618e-36 5.6999925e-36 5.744992e-36 5.5976598e-36
000030 08 3a f7 84 a1 e1 f3 04 59 3d f6 04 2f 00 f3 04
       -5.8122714e-36 5.7336233e-36 5.789066e-36 5.7129194e-36
000040 14 25 f5 84 1d 9d f4 04 d8 a9 eb 84 68 e0 f1 04
       -5.7633274e-36 5.750841e-36 -5.540421e-36 5.6864912e-36
000050 a6 4e f7 04 c6 5a f4 04 b9 66 f2 84 a0 2e f5 84
       5.8141648e-36 5.7447487e-36 -5.6988262e-36 -5.764204e-36
000060 51 5b 72 bf bc 0b 56 3f 22 8f f9 3e 65 e6 1f bf
       -0.9467059 0.83611655 0.48742014 -0.6246093
000070 71 ef 88 bf bf 97 59 3f cd 5c 8b bf ab dd 46 bf
       -1.0698072 0.8499717 -1.0887696 -0.7768199
000080 c4 b6 89 bd 9c fb 79 3e ce da c3 3f 53 1a 60 bf
       -0.06724313 0.24412388 1.5301149 -0.8754017
000090 ad 03 79 bf 5e b9 73 3f 90 c0 20 bf 38 28 e7 bf
       -0.97271234 0.9520472 -0.6279383 -1.8059149
0000a0 69 43 87 bf 6f fd 82 3f 53 57 2f 3f ff c1 5b bf
       -1.0567447 1.0233592 0.6849262 -0.8584289
0000b0 5a eb a8 bf fa 6b 6a 3f 6b b6 89 bf f3 9b 68 bf
       -1.3196824 0.9157101 -1.0758795 -0.9086296
0000c0 1f 43 a6 bf d6 76 cc bd 2b 9a 58 3d 21 39 a0 be
       -1.2989234 -0.09983604 0.0528814 -0.31293586
0000d0 80 9d 85 bf b6 25 65 3f 7a 6b 37 bc 4d 95 c3 bf
       -1.043869 0.8951067 -0.011195058 -1.5279938
0000e0 ea e1 ce 3d f0 ae 7e 3f f7 f0 fd 3e 52 0c f7 3f
       0.101016834 0.99485683 0.49597904 1.9300635
0000f0 b8 95 53 bf cf 95 ab 3f 77 7f 87 3f 84 9f 96 c0
       -0.8265033 1.3405093 1.0585774 -4.706972
000100 89 68 52 3f e3 d5 26 3f f3 c0 33 3f 6b bc 90 bf
       0.8219076 0.65170115 0.7021629 -1.1307501
000110 94 0c ef be 64 1a b2 3d 95 8b ee bf 3a b3 b6 bf
       -0.46689284 0.0869644 -1.8636347 -1.4273446
000120 c2 45 84 bf d8 ea 52 3f 79 88 b3 3e 7e 66 7a bf
       -1.0333788 0.82389593 0.35065058 -0.9781264
000130 f9 2c 66 bf 3d 58 88 3f 32 57 92 bf 23 51 43 bf
       -0.8991237 1.0651928 -1.143286 -0.7629568
000140 0b 9c 3b 3d c2 96 ea 3e ba 9e 3b 40 6d 7c 70 bf
       0.04580311 0.45818144 2.931563 -0.9393986
000150 1b d2 1c c0 81 8f 5a 3f bf 65 85 bf 34 1d 9c bf
       -2.4503238 0.8537522 -1.0421675 -1.2196412
000160 59 09 49 bf 43 45 e0 3d 39 aa ec 3f 74 a3 00 bf
       -0.7852989 0.109507106 1.8489448 -0.5024941
000170 b0 7e 1c c0 80 d1 07 bf 25 f0 07 bf 4f ed 39 c0
       -2.4452324 -0.53054047 -0.53100806 -2.9051092
000180 ff a9 7b bf cf 4f 80 3f 0a 1d d2 3e 93 07 43 bf
       -0.9830627 1.0024356 0.4103778 -0.7618343
000190 43 d6 91 bf b3 f0 74 3f 3d c6 73 bf 50 65 12 bf
       -1.1393512 0.9567978 -0.9522436 -0.5718584
0001a0 1a b7 3e bf 3b 20 5e 3f b5 cc 89 3d cc 55 08 3f
       -0.7449814 0.8676793 0.06728498 0.53255916
0001b0 f8 de d4 bf e1 f2 ee 3f 7a 32 a0 bf 59 56 2d bf
       -1.6630545 1.8667871 -1.2515404 -0.6770988
0001c0 2d af 54 bf d1 82 5d 3f 1b 96 ce 3e 03 38 2b bf
       -0.830798 0.86527735 0.40348896 -0.6688234
0001d0 51 99 87 bf d5 a7 6f 3f 9e 42 47 bf be 8c db be
       -1.0593663 0.93615466 -0.77836025 -0.42880815
0001e0 2a c0 f6 84 14 26 f6 84 94 24 f4 84 90 8f f5 84
       -5.8010797e-36 -5.786929e-36 -5.7397716e-36 -5.7731065e-36
0001f0 a6 ba ef 84 a3 c5 f5 04 d6 93 f0 04 ab 1a f7 04
       -5.636004e-36 5.7780724e-36 5.6559495e-36 5.809391e-36
000200 a4 cc 88 bf cd 00 66 3f 4c a5 01 3f 54 6b 5d bf
       -1.0687451 0.8984497 0.5064285 -0.86491895
000210 e0 b3 a1 bf 72 56 74 3f b8 57 62 bf c8 96 2d bf
       -1.2633018 0.95444405 -0.884151 -0.678082
000220 8b f4 6d bf c8 36 5a 3f 1c b2 ce 3e f6 d8 33 bf
       -0.9295127 0.8523984 0.40370262 -0.7025293
000230 65 19 7b bf b4 ee 59 3f cb 8d 41 bf cb 7b f2 be
       -0.98085624 0.8512986 -0.75606984 -0.47360072
000240 37 34 4d bf 57 a6 4d 3f 4f 1a bc 3e 68 60 46 bf
       -0.801578 0.8033194 0.36738822 -0.77490854
000250 ae 8b 7c bf 1d 30 65 3f 39 c4 56 bf 37 8a f0 be
       -0.98650634 0.8952654 -0.8389316 -0.4698045
000260 88 fd 86 bf 7d 91 3b 3f d3 d9 02 3f 92 ac 5c bf
       -1.0546122 0.7326887 0.51113623 -0.8620082
000270 67 00 4a bf 76 1e 5b 3f 2b 34 b0 bf b4 b2 5e bf
       -0.78906864 0.85593355 -1.376592 -0.8699143
000280 67 f7 83 bf e7 00 80 3f 11 a8 02 3f 68 c5 24 bf
       -1.0309876 1.0000275 0.510377 -0.6436372
000290 36 17 8b bf 5c 69 57 3f e4 51 8e bf cd ab 43 bf
       -1.0866458 0.8414514 -1.1118741 -0.7643402
0002a0 b0 0b 81 bf 8a 4d 4b 3f ba 33 b0 3e 41 72 7e bf
       -1.0081692 0.7941519 0.34414464 -0.9939309
0002b0 e0 d9 70 bf fb c0 83 3f 82 e6 88 bf cd d5 3e bf
       -0.9408245 1.0293268 -1.0695345 -0.74544984
0002c0 15 4a 49 bf 04 dc 53 3f 25 05 1e 3f 22 23 0d bf
       -0.78628665 0.8275759 0.617266 -0.55131733
0002d0 22 cb 81 bf 51 e5 43 3f 43 be 66 bf fc 65 29 bf
       -1.0140116 0.76521784 -0.90134066 -0.6617124
0002e0 1a 84 5b bf 1f fe 52 3f 19 75 d4 3e af af 68 bf
       -0.85748446 0.8241901 0.41495588 -0.9089307
0002f0 ef ca 86 bf ff 34 60 3f d0 88 57 bf aa 9b 00 bf
       -1.053068 0.87580866 -0.84193134 -0.50237525
000300 67 2f 5c bf 5f 45 fe 3f a9 d3 10 bf 51 c7 97 bf
       -0.8600983 1.986492 -0.5657297 -1.1857702
000310 74 68 a0 be 02 ae c8 be 78 2d 81 bf 23 d9 89 bf
       -0.3132969 -0.39195257 -1.0092001 -1.076939
000320 8b d1 af bf 94 6e 1b 3e da 2f de 3e e2 da 8f bf
       -1.3735822 0.15178901 0.43395883 -1.1238673
000330 a4 a4 b1 bf 18 12 bf 3f b3 f1 62 bf 33 fa b1 bf
       -1.3878369 1.4927397 -0.88650054 -1.390448
000340 0e 19 64 bf 04 d5 55 3f e4 54 fd 3e 6b ad 02 bf
       -0.8910073 0.8352816 0.4947883 -0.51045865
000350 f3 7e 61 bf da 57 38 3f f7 f0 78 bf cb 38 44 bf
       -0.88084334 0.7200905 -0.97242683 -0.7664916
000360 75 95 6d bf 73 ec 77 3f cf aa e9 3e 19 26 21 bf
       -0.9280618 0.9684517 0.4563813 -0.6294876
000370 c8 67 8b bf b1 94 4e 3f 70 32 9b bf aa 5d 44 bf
       -1.0891047 0.80695635 -1.2124767 -0.7670542
000380 d6 a1 f4 04 14 ea f3 84 d4 bd f5 04 6d e5 f2 84
       5.7512747e-36 -5.7343992e-36 5.7773553e-36 -5.710462e-36
000390 b8 53 f2 04 ba d9 f5 04 60 54 f7 04 ae 6a f0 04
       5.697081e-36 5.7799173e-36 5.8146907e-36 5.65217e-36
0003a0 a6 31 f5 84 20 6c f4 84 9b 66 f3 84 c8 79 f6 84
       -5.7644818e-36 -5.746342e-36 -5.7223254e-36 -5.794616e-36
0003b0 e7 03 f5 84 2e c3 f6 84 81 92 f7 04 ce 9a f6 84
       -5.7602807e-36 -5.8013566e-36 5.8203964e-36 -5.7976488e-36
0003c0 69 10 74 bf d7 b1 72 3f 20 c7 15 3f c0 89 1d bf
       -0.9533754 0.9480261 0.58506966 -0.61538315
0003d0 2b a0 8f bf e5 68 3b 3f 2d 81 94 bf 08 51 4d bf
       -1.1220754 0.7320693 -1.1601921 -0.8020177
0003e0 95 7c 1f bf 30 a6 4c 3f 7d 64 c3 3f 3a 86 07 be
       -0.6229947 0.7994108 1.5265042 -0.13234797
0003f0 79 4d 29 c0 91 65 24 3f e3 3e 7b bf 33 d5 15 bf
       -2.6453536 0.6421748 -0.9814283 -0.5852844

embedding_item.weight f4 [8, 1024]
000000 bb 34 73 3e 58 93 c7 3e e4 4f f0 3e df 80 fd 3e
       0.23750584 0.38979602 0.46935952 0.49512383
000010 ba 5f 2c 3e 18 f2 48 3e e2 9c c3 3d 22 bb 80 be
       0.16833392 0.19623601 0.095514074 -0.2514277
000020 82 88 d0 3e c3 16 8f be 68 96 fc 3d bc 45 76 3e
       0.40729147 -0.27947053 0.12333375 0.24050039
000030 b5 1c cf 3c d2 99 8f 3d de fb e5 bc 70 96 8c bc
       0.025282243 0.07011761 -0.028074201 -0.017161578
000040 f4 01 2e bf a8 2d a2 be c3 28 a2 3d 95 79 a2 be
       -0.6797173 -0.31675458 0.07917931 -0.31733385
000050 90 88 9a 3d cf 62 ff bd 65 a6 93 be 45 13 cb bd
       0.075455785 -0.12470018 -0.28837886 -0.09915785
000060 92 0f 5b 3e 89 1b b3 3c f0 ca 8d be f7 c8 b7 3d
       0.21392658 0.021863716 -0.27693892 0.08973878
000070 74 3e 83 3d de 25 86 be 1b 48 98 3c cf 1f 40 3e
       0.06408396 -0.26200765 0.01858907 0.18762134
000080 25 77 a7 bc f0 a3 32 be f6 17 b9 be eb d1 e0 bd
       -0.020442555 -0.1744535 -0.36151093 -0.10977539
000090 50 12 39 3e db 5d 2a 3e fe 37 76 be 01 f0 fb bd
       0.18073392 0.16637366 -0.24044797 -0.123016365
0000a0 89 96 0e be e0 ec 41 be 0a 1c bf be db 7d 82 bd
       -0.13924612 -0.18938017 -0.3732608 -0.06371661
0000b0 02 a9 42 3e 89 02 87 be bb 50 ab be a2 44 a0 be
       0.19009784 -0.26369122 -0.3346003 -0.31302363
0000c0 b1 e6 9d 3e 70 ab 81 be 00 2e bf ba 57 15 70 be
       0.30840066 -0.2532611 -0.0014585853 -0.2344564
0000d0 c3 42 6d 3e 38 1d 7d 3e dc ad 56 3e 07 7a 6c be
       0.23169999 0.24718177 0.2096476 -0.23093425
0000e0 3e ce 20 3e 15 99 a7 be b8 4a 4e 3d d1 aa 33 3d
       0.15703675 -0.3273398 0.050364226 0.043864075
0000f0 95 05 8a bc 9b 38 a3 bd 08 05 96 3d f6 65 e2 3c
       -0.016848365 -0.07969781 0.073251784 0.02763651
000100 9c f2 ca be c6 13 83 3d 6b b9 70 be 03 41 97 3e
       -0.3963822 0.06400256 -0.23508231 0.29541788
000110 da da 65 be 35 4c e8 bd cd 01 d5 3d c9 ad 91 3e
       -0.22446766 -0.1134266 0.10400734 0.284529
000120 f0 be cc bd 91 92 bd be 7f ca 88 3c d3 91 45 be
       -0.09997356 -0.37025884 0.01669812 -0.19293909
000130 66 c0 67 be 73 71 4a 3d 44 72 a6 be d5 c6 f0 3d
       -0.22631988 0.0494246 -0.32509053 0.11756674
000140 73 f7 8b bd 24 74 ad be 63 05 e6 3d 5f 1d 9d 3d
       -0.068343066 -0.3387767 0.11231496 0.07671618
000150 71 73 88 bd 59 15 55 be c2 ca 2a 3e 00 20 b8 bd
       -0.06662644 -0.20808925 0.16678908 -0.089904785
000160 e9 24 ae 3e 42 b9 81 3e fb b8 50 3e 12 41 27 3f
       0.34012535 0.25336653 0.20383064 0.65333664
000170 e4 d1 50 3e fe a5 3d bf c8 82 9a be 0f 77 4f be
       0.20392567 -0.7408141 -0.30177903 -0.20260261
000180 3c c9 8a 3d db 02 87 be 33 a3 a9 bd 2b aa 7a 3d
       0.06776664 -0.26369366 -0.08283081 0.06119744
000190 49 40 2e be 06 77 25 be 45 d3 f7 bd 75 2e be 3e
       -0.1701671 -0.16158685 -0.12100843 0.3714482
0001a0 a4 15 f8 3d fd a7 d3 be bf 0d ab be 82 2a 91 3c
       0.121135026 -0.41339102 -0.33408925 0.017720465
0001b0 6e be 1f 3e 40 87 6e 3e e5 e1 41 3e ea fb d6 be
       0.15599987 0.23293781 0.18933828 -0.4198907
0001c0 ce 97 5d be 81 a1 94 3e 78 26 80 3e 95 e5 0c bf
       -0.2163994 0.29029468 0.2502935 -0.55037814
0001d0 32 df 22 be d3 41 fd bb 4a 56 24 bc 0f 48 db 3d
       -0.15905455 -0.007728794 -0.010030339 0.107071035
0001e0 e9 e2 8e bd 73 d5 95 3d e6 6b c4 be f4 ba 43 be
       -0.069768734 0.07316103 -0.3836357 -0.19114286
0001f0 a1 a6 0b be 14 ba 80 3e ca 00 c7 3e bd 57 35 3f
       -0.13637783 0.25141966 0.3886779 0.70837003
000200 24 96 60 3c 55 5b 3d 3e 12 be 98 bd 02 8b 23 be
       0.013707671 0.18491872 -0.07458128 -0.15970996
000210 2a ac a0 3e d4 ab fa 3d ca 64 e1 3d 7a d3 1f 3e
       0.3138135 0.12239805 0.11005552 0.15608016
000220 28 8c 74 3e 9c 58 df 3e f4 2e 3d 3d fd d5 7d 3e
       0.2388159 0.4362229 0.046187356 0.24788661
000230 2f 8d 75 bd 39 d4 2e be 43 7a 83 bc 01 98 84 be
       -0.059949096 -0.17073144 -0.01604951 -0.2589722
000240 18 0a f0 bc e9 dd e4 3e d4 c7 a7 be f9 1f 20 be
       -0.029301688 0.44700554 -0.32769644 -0.15637197
000250 ee 45 3a bd 7e 7e aa bd 00 ec 87 3c 8d bf 32 3e
       -0.045476846 -0.08324908 0.016592026 0.17455883
000260 8e 0b ec 3e 18 1e 65 be a6 02 91 3e 5e c6 63 3e
       0.46102566 -0.22374761 0.28322333 0.2224364
000270 dd 2a 53 3e ab 51 64 3e c8 80 d4 3d cb 9d df 3d
       0.2062182 0.22296779 0.103761256 0.109187685
000280 36 26 74 3e 2d 12 49 3d 28 d0 d7 3d 49 56 bf be
       0.23842701 0.0490896 0.105377495 -0.37370518
000290 22 e9 b9 3d 4e fd 07 3f 67 26 f2 3c eb 54 97 be
       0.0907767 0.5312089 0.029559327 -0.29556975
0002a0 c7 20 db 3e a7 dc 8f 3d 38 f2 a7 be 6b 8e f3 3e
       0.42798445 0.07024508 -0.32801986 0.47569594
0002b0 4e 88 42 be 34 2f d7 3d 42 2c 11 bf 8e 8e 00 be
       -0.18997309 0.1050705 -0.5670816 -0.1255438
0002c0 f0 40 a9 3e 31 5c 00 bf 48 10 99 3e 9f 0f a5 3d
       0.33057356 -0.5014067 0.29895234 0.0805962
0002d0 1e 5e 07 3c 7b 7f f3 3e 78 f7 20 be 23 35 c6 be
       0.008262185 0.47558197 -0.15719402 -0.38712415
0002e0 d4 f7 11 bb 7a a6 4e bd 0b 95 9c 3e d2 c3 7e 3d
       -0.0022272961 -0.050451733 0.3058246 0.062198468
0002f0 98 f0 0c 3e 3a 35 3a 3e 0d 46 85 bd a1 42 0b 3e
       0.13763654 0.18184367 -0.06507502 0.13599636
000300 48 84 0c be 8f 8e 0f bd 6b df 89 be ce e9 1a be
       -0.13722336 -0.035048064 -0.26928267 -0.15128252
000310 0e 1c 44 be ea 8f 23 3e 2f 10 9b be 88 82 e4 3b
       -0.19151327 0.15972868 -0.30285785 0.0069735684
000320 2b 3f 23 be 78 a7 0c be f2 33 b8 be 46 d7 21 be
       -0.15942065 -0.1373576 -0.3597713 -0.15804777
000330 1f f7 55 be df 0b 0b 3e 19 1a 6a 3d 45 c6 a2 bd
       -0.2089505 0.13578747 0.057153795 -0.07947973
000340 4e 27 b1 3c f7 34 3b 3e 7e 08 04 be 90 ff 91 3d
       0.021625187 0.18281923 -0.12893865 0.07128823
000350 f7 3c 8b 3e 6c 79 a9 be 10 03 06 be 2f 90 10 3f
       0.2719495 -0.3310045 -0.13087106 0.56470007
000360 af bd 35 3e 24 18 45 bd 51 ee 92 be 02 ab 72 3e
       0.1774814 -0.048118725 -0.28697446 0.23698047
000370 f7 f0 cf bd ea 81 b8 3e 95 40 f5 be eb e8 7a 3e
       -0.10153382 0.36036617 -0.47900835 0.24502914
000380 4c 54 dd 3d 9b ad 25 3e 67 40 30 bd 2b 98 28 be
       0.10807094 0.16179506 -0.04303017 -0.16464297
000390 90 a3 4b 3c d7 d2 85 be 87 2a b3 3b 2d 80 7b 3e
       0.012429133 -0.2613742 0.005467716 0.24560614
0003a0 45 75 e5 bc 07 f4 e7 3d b0 ae 1d 3e 4a fa 83 3d
       -0.02801002 0.113258414 0.15398669 0.06444223
0003b0 43 31 69 3e dc 22 37 3e c5 d8 26 3e 58 5b 01 3e
       0.22772698 0.17884392 0.16293629 0.12632501
0003c0 e4 00 cc 3d d7 8d d5 3e 26 92 0c bd f5 dc a2 3e
       0.099611074 0.41709778 -0.034319066 0.31809202
0003d0 d6 f1 3c 3c 27 c7 07 bf c6 54 f3 3d 9e c8 d7 3e
       0.011532268 -0.5303826 0.118814036 0.42145246
0003e0 8f 84 85 be 66 05 8d be 11 2e 63 3e f9 61 7e be
       -0.26077697 -0.2754318 0.22185542 -0.24842061
0003f0 7c 7b 45 be 87 60 d0 3e b1 d4 e3 bd 20 df bf 3c
       -0.19285387 0.40698645 -0.11124552 0.023421824

embedding_item.bias f4 [8]
000000 42 d7 18 3e 69 2b 16 3d a2 9d 76 3d 66 d5 0d bb
       0.14925864 0.036662493 0.060208924 -0.0021642088
000010 0e 8a 71 3d f7 cd de bd de df 94 3d ee fd ed bd
       0.05896955 -0.108791284 0.07269262 -0.11620699

fc_layers.0.weight f4 [64, 16]
000000 85 0d 4b bf c7 ec a0 3f 21 59 98 3f 10 ee 14 c0
       -0.79317504 1.2572259 1.19022 -2.3270302
000010 74 42 39 3f 62 91 06 3f 90 fa 57 bf d4 df 18 bf
       0.72367024 0.52565587 -0.84366703 -0.59716535
000020 48 1a ad 3c ae 64 ad bd d4 ac f9 bd 0d f6 0d be
       0.021130696 -0.08466469 -0.121911675 -0.13863392
000030 89 66 7d be db 7e 2e 3d 7b 2b 09 be 69 9b 81 3d
       -0.24746145 0.042601448 -0.13395493 0.0632847
000040 aa b6 f9 be 55 4a 80 3f dc 0b b7 3f 27 ed ad 3d
       -0.48772174 1.0022684 1.4300494 0.08492499
000050 46 12 08 3f 96 3b e6 bf d1 3f 75 bf 4d dd 33 3e
       0.53152883 -1.7986934 -0.958005 0.17564888
000060 e8 6d fa 3d 7a 28 db 3d 15 31 19 be c3 17 14 3e
       0.12227994 0.1070108 -0.1496013 0.1446219
000070 e7 b9 7c 3d cb cc 4a be 30 56 a3 bb e2 e5 c7 bc
       0.061700728 -0.19804685 -0.0049846396 -0.024401609
000080 8f 31 aa bf 6b 76 2f 3f e0 17 e0 bf 3f 92 ae 3e
       -1.3296374 0.68540066 -1.7507286 0.34095952
000090 97 6e 78 bf 98 c7 dc bf 05 59 bf be ed bb ef bf
       -0.97043747 -1.7248411 -0.37372604 -1.8729225
0000a0 e9 c3 e3 bd 7a 28 2e be 13 21 aa 3d 84 0c f2 bd
       -0.11121351 -0.17007628 0.0830709 -0.118187934
0000b0 df 62 13 bd 4c 6e ec bc cb e8 9e 3c a6 8a 06 be
       -0.035982963 -0.028861187 0.019398114 -0.13138828
0000c0 e9 18 7a 3f 7e d2 3a 3e 95 87 31 3f a7 de 69 3e
       0.9769426 0.18244359 0.69347507 0.22838841
0000d0 a8 12 e4 bf ce 23 87 3e 69 fb 99 bf 59 c5 0e 40
       -1.7818193 0.26394504 -1.2029849 2.2307951
0000e0 26 c8 4d 3d 51 42 6a be e6 e6 b0 bb da 84 1f 3d
       0.050239705 -0.2287686 -0.005398619 0.038945056
0000f0 90 f1 8d 3e 79 b0 ed bd 3a 40 89 be 41 3e 9d 3e
       0.2772336 -0.11605925 -0.26806813 0.30711558
000100 92 3b 26 bf c4 30 c3 be 5b a0 8c 3f 1d 28 02 40
       -0.6493465 -0.38123143 1.0986437 2.0336983
000110 0e 64 02 3f a7 c0 05 40 99 4a f8 bf da 78 4a 3e
       0.5093392 2.0898836 -1.9397765 0.19772664
000120 4a db 37 3e 66 4c 37 be 14 d7 cc bd 1f 78 27 3e
       0.17954746 -0.17900237 -0.100019604 0.16354416
000130 70 1e 81 be 2c 65 28 3e d2 91 cf bd f8 63 50 3e
       -0.25218534 0.16444844 -0.10135235 0.20350635
000140 6a 97 bb 3e 2b ff 2b c0 9b 25 43 bf b2 df 52 bf
       0.36638957 -2.6874492 -0.76229256 -0.8237258
000150 c1 82 ba bf f1 ea 78 bf b6 d9 dc 3f 95 17 53 bf
       -1.4571153 -0.9723349 1.725394 -0.8245786
000160 66 bc a9 bc f7 f7 6a 3e 26 fc 96 3d 85 6d 09 be
       -0.020719718 0.22946154 0.07372312 -0.13420685
000170 4d bd 20 be 6f d1 95 bd 35 87 0c be dc cd a8 3e
       -0.15697213 -0.07315337 -0.13723452 0.32969558
000180 02 da 08 bf 33 c6 08 bf b1 5d 9f 3e 2e c3 a7 3e
       -0.53457654 -0.5342743 0.31126168 0.32766098
000190 c3 48 09 bf 91 f6 b6 3f 75 bc b4 bf cf 72 ff be
       -0.5362665 1.4293996 -1.4120013 -0.4989228
0001a0 fa aa b3 be e5 1a 39 be 86 95 9b 3d e0 45 bc bc
       -0.35091382 -0.18076666 0.07596879 -0.022982538
0001b0 aa 57 b1 3d fe 0d 98 3e 8a f7 1c 3c bd 34 a0 3c
       0.08659299 0.29698175 0.009580502 0.019556398
0001c0 40 a1 e8 be a6 1f 5f 3f 4b 55 1e bf b0 c8 4e be
       -0.45435524 0.87157667 -0.61848897 -0.20193744
0001d0 a7 2f ef bd e6 52 b5 3f 89 1e e4 3f 1e 67 e9 3e
       -0.11679011 1.4165924 1.7821819 0.45586485
0001e0 b2 cd 87 3e c8 fc 60 be 60 a3 b9 be 2a 00 de bd
       0.2652412 -0.21971428 -0.36257458 -0.10839875
0001f0 a3 fe 23 bd c7 1b 17 3e c8 ff 24 be da 09 fa 3e
       -0.040037762 0.1475669 -0.16113198 0.4883564
000200 5c df ac 3e 6a ed 07 bf 68 05 78 3f 5b d1 48 3e
       0.3376416 -0.5309664 0.9688325 0.19611113
000210 e7 a0 14 c0 03 a4 0a c0 b1 0d cc bf 61 d4 be be
       -2.3223207 -2.1662605 -1.5941678 -0.37271407
000220 b0 7c 95 bd 04 06 48 bd c8 35 c3 3c 91 be 0d be
       -0.07299173 -0.048833862 0.023829356 -0.13842227
000230 65 c8 9d be 34 48 81 3e 90 54 7d 3e e3 15 a2 3e
       -0.3081695 0.252504 0.2473929 0.31657323
000240 d0 3c 83 3e cf 25 2b c0 1d 15 d0 bd 18 a0 78 3e
       0.25632334 -2.6741827 -0.10160277 0.24279821
000250 53 02 b3 3e 11 11 03 40 fb 2f 29 bd 62 74 fa 3e
       0.3496271 2.0479167 -0.041305523 0.48916918
000260 47 dd 5c 3e 0c b8 13 be 57 f6 10 3d 9d 54 38 be
       0.21568786 -0.14425677 0.035391178 -0.18001027
000270 7f 5b a2 be 1d cb 0a 3e dd 45 bc bd b0 59 1c 3e
       -0.3171043 0.13554044 -0.09193013 0.15268588
000280 08 6b b4 3e 12 2b 80 bf 4e 0c a8 bf db 0a ed bf
       0.35237908 -1.0013144 -1.3128755 -1.8518938
000290 81 02 38 40 c4 ab 9a 3e 7c 23 4d bf 8c 40 c1 be
       2.8751528 0.30209172 -0.8013227 -0.37744558
0002a0 9c fc 13 3e 79 fc 6e bc 8b 82 24 be 5d c1 a9 bb
       0.14451832 -0.014586561 -0.16065423 -0.0051805214
0002b0 3a d7 53 3e ce f8 1d 3d a6 33 88 3e e0 fc 2d 3e
       0.20687571 0.038567357 0.26601905 0.16990995
0002c0 9b 38 d9 3f a1 fe a2 bf a7 5f 7e be d9 6e b3 3f
       1.69704 -1.2733957 -0.24841176 1.4018203
0002d0 ef ac 9a bf cb 63 04 40 47 2a b8 3e bf b2 8f 3e
       -1.2084025 2.0685909 0.35969755 0.2806606
0002e0 f0 c0 54 be 9c 82 19 be 3b 4c dd bc 1c e6 e9 bd
       -0.20776725 -0.1499123 -0.027013889 -0.11420843
0002f0 f8 1b be be 54 10 8e be 6e 91 18 3e c9 63 06 3e
       -0.37130713 -0.27746832 0.14899227 0.13124003
000300 5f dd 4e be 30 b3 49 3f 12 2a 52 3d 4f fd 12 c0
       -0.20201634 0.78789043 0.051309653 -2.2967107
000310 d3 d3 25 3f b4 d2 17 bf 7d 6c 19 40 d5 57 78 bf
       0.64776343 -0.5930588 2.3972466 -0.9700902
000320 6b 26 f2 3d 3d fd a4 be b4 f1 bb 3d 9a d2 9a bd
       0.11823734 -0.32224455 0.091769606 -0.075597
000330 c2 a2 02 bc 7a 37 74 3e 49 37 9e be 2c 59 de 3d
       -0.007973375 0.23849288 -0.30901554 0.10856852
000340 ad a7 82 3f ab ac 6b bf de 14 d1 3f 37 a8 4c bf
       1.020742 -0.92060345 1.6334493 -0.79944175
000350 b1 15 1e 40 d3 22 29 3f 90 b8 e1 be 31 8d 88 bf
       2.470074 0.6606876 -0.44086123 -1.0668088
000360 cd 84 57 be 3c 28 b1 be 78 eb 3c 3d 9a 35 24 3e
       -0.21046753 -0.3460101 0.046122998 0.16036072
000370 de 53 2f bd 1b 91 cb 3d 8c 4b bb 3c ab fa b9 3e
       -0.04280459 0.09939786 0.022863172 0.36324057
000380 18 a7 05 bc bb 26 1c c0 ad c0 22 be 54 e4 bc 3f
       -0.008157514 -2.439864 -0.15893812 1.475718
000390 a5 ce b2 bd a5 0a c8 3e 83 22 59 bf a5 41 dc 3f
       -0.087308206 0.3907062 -0.84818286 1.7207533
0003a0 e3 cb ad be 73 49 8e 3d 0a 87 a2 3e b0 37 9f be
       -0.33944616 0.06947603 0.31743652 -0.31097174
0003b0 47 4f d1 bd 3a 5d 17 3e 7c 68 a7 3e 0d f4 67 3e
       -0.10220199 0.14781657 0.32696903 0.22651692
0003c0 a3 4b be 3f fa 24 31 3f 3e 56 96 3f 13 1a ee 3f
       1.4866832 0.69197047 1.1745069 1.8601707
0003d0 09 32 b3 3f 2a 9a af bf 87 df b2 bf ea 38 16 3f
       1.3999645 -1.3718922 -1.3974465 0.58680594
0003e0 f3 a4 a0 bd 1a 8f 38 bd dc 97 88 be c0 57 55 be
       -0.078439616 -0.045058347 -0.2667836 -0.20834255
0003f0 a9 e5 23 3d 50 cf 19 bd fd 12 2f 3e ea b5 72 be
       0.040013943 -0.037551224 0.17097087 -0.23702207

fc_layers.0.bias f4 [64]
000000 2f 88 65 bf e4 9c 80 bf 61 84 98 bf 1c 67 bb be
       -0.89660925 -1.0047879 -1.1915399 -0.36602104
000010 66 6e 2a bf 69 df a1 be 97 1a 6f bf 20 f2 92 bf
       -0.66574705 -0.3161576 -0.9339995 -1.1480141
000020 69 67 35 be 66 8e e4 bf 82 33 22 bf 8e e5 79 bf
       -0.17715229 -1.7855957 -0.63359845 -0.976159
000030 e4 29 a9 3e c3 81 53 bf 80 86 be be f7 75 1e 3f
       0.33039773 -0.82619876 -0.3721199 0.6189875
000040 d1 25 33 bf 7d 43 60 be 31 0c 68 be 92 bc 89 bf
       -0.6997958 -0.21900745 -0.226609 -1.0760672
000050 fe 53 b3 be 21 88 cb bc d6 8d 16 bf e9 40 1b 3f
       -0.35025018 -0.024845185 -0.58810174 0.6064592
000060 e2 5b cd bf d1 dc 6a bf 86 95 89 3d e7 41 b3 bf
       -1.6043665 -0.9174319 0.067179725 -1.4004487
000070 98 85 4f 3f b7 17 88 bf 4b 4a 51 be cd 91 3e bf
       0.8106322 -1.0632237 -0.20438497 -0.74441224
000080 23 94 85 3d 7f af 4c 3f c6 76 b4 3f 32 8c 4c bf
       0.065223955 0.79955286 1.4098747 -0.7990142
000090 b5 92 09 bf 3a aa 03 bf 3f c9 8e bf d6 eb 52 bf
       -0.5373948 -0.5143162 -1.1155165 -0.8239111
0000a0 1b bf 8b be 8b db f5 bf cb ca 6a bd 21 df 21 bf
       -0.2729424 -1.9207624 -0.057322305 -0.6323109
0000b0 3f 5b 7d bf 16 75 8b bf fd f2 7a bf 92 ad 10 bf
       -0.98967355 -1.0895107 -0.9802702 -0.5651485
0000c0 06 b3 4c bf fc d3 b7 3e ca c2 91 bf 98 7d c6 be
       -0.7996067 0.3590392 -1.138757 -0.38767695
0000d0 13 69 83 bf 9a d0 24 bf a5 2c 2e bf 62 13 5b bf
       -1.0266441 -0.643808 -0.6803687 -0.8557645
0000e0 2c 62 e0 be 64 93 4e bf 31 03 17 bf 99 42 b2 3f
       -0.438249 -0.8069365 -0.58989245 1.3926574
0000f0 f8 d6 e2 be 1b 4e c1 3d c5 29 28 bf ae 7d 1c bf
       -0.44304633 0.094387256 -0.65688735 -0.6112927

fc_layers.1.weight f4 [32, 64]
000000 2c bd 9c be 94 e1 da 3e 9a ea aa 3e ca 4b 69 3d
       -0.30613077 0.42750227 0.33382112 0.056957044
000010 f6 6e 85 3f c9 1b c9 be 3c 6e 92 3d 51 dc 89 be
       1.0424488 -0.3927901 0.07149932 -0.269259
000020 74 26 a3 be 16 81 ea 3e 66 7d 5c bf e6 f9 a8 3d
       -0.31865275 0.4580161 -0.8612884 0.08250789
000030 a5 ff a6 be 87 cc c9 be 2a b7 94 be d2 e7 30 be
       -0.32616916 -0.39413854 -0.29045993 -0.17275932
000040 ea cb 0a 3f ed 26 f3 bd 11 eb 2a 3c 37 8d 2f 3e
       0.542174 -0.11872659 0.010432021 0.17143713
000050 29 3a be be 2d 80 7d bc 50 c0 5c 3f 67 12 f3 bb
       -0.37153748 -0.015472454 0.86230946 -0.007417965
000060 fe 57 cc be 29 99 1c 3e f9 50 1e be c5 69 dc 3d
       -0.39910883 0.15292801 -0.15460576 0.107623614
000070 2e a9 5b bf 67 cd e6 be 9f 11 51 bf ff b9 a9 3e
       -0.8580502 -0.45078585 -0.8166751 0.33149716
000080 81 77 79 bc f3 20 8c 3d 34 d0 32 bf 23 86 bb 3e
       -0.015226246 0.06842222 -0.6984894 0.36625776
000090 c2 a3 a4 bf ed 56 45 be 70 d8 67 3e b6 94 12 3c
       -1.2862475 -0.19271441 0.22641158 0.008946588
0000a0 9c 0b e8 be 94 a7 14 be a3 28 2b be 94 5f 87 3e
       -0.45321357 -0.14517051 -0.1671472 0.26440108
0000b0 6f 18 f9 be 77 6d 1e bf a5 31 a3 3d b7 1d 0a 3f
       -0.48651454 -0.6188578 0.07968453 0.5395159
0000c0 32 ea f5 bd 15 c8 d3 be 58 2f 27 be a4 f2 72 3e
       -0.1200756 -0.41363588 -0.16326654 0.23725373
0000d0 43 e1 02 3f 6a 72 94 3f 77 8c e2 3e 46 9a 18 be
       0.5112497 1.1597416 0.4424779 -0.149026
0000e0 77 dd 93 3e 76 79 49 3f 33 72 8b be 4b e0 d9 3e
       0.28879902 0.7870096 -0.27235565 0.42553934
0000f0 08 d1 c5 3e 63 15 ee 3d b9 fd 61 be 9a b8 6f be
       0.3863604 0.11625173 -0.22069444 -0.23410264
000100 a2 9e 9b 3e 62 f4 90 3e b6 ac 4d be f0 70 92 3d
       0.30394465 0.2831145 -0.20085415 0.07150447
000110 c0 11 11 3f c9 3c af bd eb c8 f1 3d f5 24 53 3e
       0.5666771 -0.08556516 0.118059 0.20619567
000120 6a f8 13 3e e9 16 2a be e3 40 05 bf a2 8c 19 be
       0.14450231 -0.16610302 -0.52052134 -0.14995053
000130 9e ed 03 3f 03 45 7c be ad e8 b2 3d 8b 9f ff bc
       0.5153445 -0.24635701 0.08735786 -0.031204006
000140 c7 2f 06 3e de dd 77 3e 22 b5 de be 75 f0 ff bc
       0.13104163 0.2420573 -0.43497568 -0.031242589
000150 09 26 39 3e b1 cc 51 bf 53 b2 65 bc c6 55 84 3d
       0.18080916 -0.8195296 -0.014019567 0.064616725
000160 ba e2 05 3e c3 8e 7c 3e be 7c 21 3e c1 84 aa be
       0.1307477 0.24663834 0.15770242 -0.33304408
000170 fc f6 ad 3e c3 8a 83 be 22 bc 32 be bc 66 28 3f
       0.33977497 -0.25691804 -0.1745458 0.6578176
000180 33 c2 9d be 87 04 2e 3e e5 92 4b be 62 9f df be
       -0.30812225 0.16993915 -0.19880255 -0.43676287
000190 ec b8 80 3e e0 8d a2 3e b6 97 43 be b9 64 c2 bf
       0.25141084 0.31748867 -0.19100842 -1.5186988
0001a0 4a 13 21 bf ca 11 ee bd 8d ea f1 bb b0 bc 1b 3f
       -0.6292006 -0.11624487 -0.007382697 0.6083479
0001b0 8c ef 7d bf 09 82 09 3f c0 78 2a bf 5e 25 f8 3e
       -0.99193645 0.5371404 -0.665905 0.4846601
0001c0 60 a0 b9 be 87 71 57 be 10 ab bb 3e 16 ca be 3e
       -0.3625517 -0.21039401 0.36653948 0.37263554
0001d0 d6 1d c3 be 04 84 b7 3e 9e 61 40 3f df 28 42 be
       -0.381087 0.35842907 0.7514895 -0.18960904
0001e0 b4 3e c7 be 46 24 ed be 65 6d e6 bd e1 fa f6 be
       -0.38915026 -0.46316737 -0.11251334 -0.4823828
0001f0 f0 e4 7f 3e 24 70 92 3e 2c 0a 7c bf 0d e0 6d 3e
       0.24989676 0.28601182 -0.9845302 0.2323
000200 6d 2c 81 be 58 73 0b 3e 4e b0 6b be ff 56 01 3f
       -0.25229207 0.13618219 -0.23016474 0.5052337
000210 0e 59 11 3f 3e fc 48 bf b9 c4 04 bf 8d 3c cc be
       0.5677651 -0.7850989 -0.51862675 -0.39889947
000220 e0 a9 41 bd 10 a8 1e bf 38 49 19 3e 18 4d 6e 3e
       -0.047281146 -0.61975193 0.14969337 0.23271596
000230 09 13 41 3f 17 ab 7e bf 63 4e 03 3e 1a cd 63 3e
       0.7541967 -0.9947981 0.12822871 0.22246209
000240 e3 d0 bf be 26 f2 7d bf dc 5b e3 be f8 60 18 bf
       -0.37464055 -0.99197614 -0.4440602 -0.5952296
000250 79 fe 96 be c9 86 bf be 2b 83 5e bf 06 ce e1 3d
       -0.29491022 -0.3740752 -0.86918896 0.11025624
000260 b9 b0 46 3f 71 0d 7b 3e 01 cc 16 be ad d0 11 bd
       0.7761341 0.24516846 -0.14726259 -0.0355994
000270 a8 6a 0a c0 a6 0f 7a be 20 5c 3f bf e4 d2 d6 3e
       -2.1627598 -0.24420032 -0.74749947 0.41957772
000280 39 0c 13 bf b4 b3 eb bd 8b ca 15 be 83 96 3a 3f
       -0.57440525 -0.11508885 -0.14628045 0.7288591
000290 e7 1b cf bc db 50 0c bd 98 3a b6 be 53 02 3b bf
       -0.02528186 -0.034256797 -0.35591578 -0.7305042
0002a0 0e 8f 22 be b0 3d ff 3e 7b b7 9c bf 1a 38 3e 3f
       -0.15874884 0.4985175 -1.2243494 0.74304354
0002b0 bd a4 93 bf 4a 62 d9 bd 85 bd 68 bd 49 b2 ae 3e
       -1.1534649 -0.1061445 -0.056821365 0.34120396
0002c0 a5 ea cc be 93 7c 5c bd ec 21 a4 3e 81 e8 a0 3e
       -0.4002277 -0.05382974 0.3205713 0.31427386
0002d0 67 e5 2d be 35 3a 81 3f 9f da 28 3f fd f2 18 bd
       -0.16982041 1.0095888 0.6595859 -0.037341107
0002e0 58 24 55 be 4a 45 b6 3d 9c 6c a7 be 43 28 07 3e
       -0.20814645 0.088999346 -0.3270005 0.13198952
0002f0 1d db 26 bc 2c 23 99 be 63 c6 29 bf d5 d7 94 bc
       -0.010184077 -0.29909647 -0.6631834 -0.018169323
000300 90 27 3f bf 3a 4f 01 bf 49 64 8e bf e7 11 fb 3d
       -0.7466974 -0.50511515 -1.1124355 0.12259274
000310 b4 22 ba be ec b6 b5 3e c8 ee 83 3c eb f3 dd 3d
       -0.363546 0.3549112 0.01610507 0.10837539
000320 0a 40 0b be c2 4a 21 3f c2 62 dc 3e cb fc 9b 3d
       -0.13598648 0.63004696 0.43044096 0.07616576
000330 ac 7b 48 bd 57 d5 77 bd 0f 24 0f 3f 92 1b b8 3e
       -0.048946068 -0.06050619 0.55914396 0.35958534
000340 cc 47 2f 3f 2f 8f c7 bc a7 30 84 be 9e d3 34 bf
       0.6846893 -0.024360267 -0.2581837 -0.706354
000350 8b fa 16 bd 88 3e 94 be ae 17 c6 bf f0 bd 04 3f
       -0.03686003 -0.28953958 -1.5475976 0.5185232
000360 85 50 aa 3f ec 53 b9 3e 9e 1a ae be 58 55 4f bf
       1.3305823 0.3619684 -0.34004682 -0.809896
000370 8a 74 38 3e af cc 70 bf bf 2c 4b 3f 16 6c c0 3d
       0.18013206 -0.9406232 0.7936515 0.09395616
000380 af e2 00 3c f8 71 65 3c 10 29 b1 3e a9 bc 80 3f
       0.007866546 0.014004223 0.3460164 1.0057575
000390 4e d3 84 3e 3f 9a 80 3e ee 5b 40 be a6 8d 3e bf
       0.25942463 0.2511768 -0.18785068 -0.7443489
0003a0 be da d7 bd 2b 2f 3c be 3c ac cd bc d8 c7 48 3c
       -0.10539769 -0.18377368 -0.025106542 0.012254678
0003b0 cd 92 26 3f 5f fc 94 3e 55 1e e5 be a6 fb 49 be
       0.6506775 0.29098794 -0.44749704 -0.19724903
0003c0 d9 bb 05 bf c2 d4 c6 3e ac 35 e8 bf 4d 48 a4 3d
       -0.5223976 0.38834196 -1.8141379 0.08021603
0003d0 de 3a 7e bf e2 be 8a be 2d c6 b7 bd cb d1 d7 be
       -0.99308574 -0.27098757 -0.08973346 -0.42152247
0003e0 e2 20 ae 3e 88 55 f8 3d f8 58 81 3f 4d b3 53 3d
       0.34009463 0.12125689 1.0105276 0.051684666
0003f0 39 ca 07 bf b0 50 20 3e b3 b6 c9 bb 17 96 64 be
       -0.5304294 0.1565578 -0.0061558126 -0.2232288

fc_layers.1.bias f4 [32]
000000 ee 2a 43 bd 21 72 bc 3e 18 96 40 be 7d c4 94 3d
       -0.047648363 0.36805823 -0.18807256 0.0726404
000010 69 04 46 3d dc 62 b5 3e 8e 19 54 be 68 78 20 be
       0.04834405 0.35426986 -0.20712873 -0.15670931
000020 e0 7e 03 3e c4 27 f5 84 d3 65 66 3e 8f 97 02 bc
       0.12841368 -5.7635742e-36 0.2249978 -0.007970705
000030 f7 57 ca be 1c e4 8c be c3 00 e0 be 83 81 1a 3e
       -0.39520237 -0.27517784 -0.4375058 0.15088467
000040 ad 42 0b bf 0e 18 f4 84 40 b0 45 bf bd 45 f2 84
       -0.54398614 -5.7386215e-36 -0.7722206 -5.695797e-36
000050 cf 57 15 bf 36 88 eb be b6 a4 4c be 1e 09 dd be
       -0.5833711 -0.46002358 -0.19984707 -0.43171018
000060 a6 50 e9 bd 2a d8 40 be ac ea 19 3e f5 6b b6 3d
       -0.113923356 -0.1883246 0.15030926 0.0890731
000070 18 1d f8 be ea 53 36 bf c6 3b 59 bf 47 d1 ad be
       -0.48459697 -0.7122179 -0.8485683 -0.33948728

fc_layers.2.weight f4 [16, 32]
000000 13 91 73 bf 78 a5 85 be 92 d0 37 bf 13 72 d0 be
       -0.9514324 -0.26102805 -0.7180263 -0.40712032
000010 96 3c ce 3e 5a 64 81 bf 1d a7 04 3f 13 03 5a bf
       0.40280598 -1.010875 0.51817495 -0.8516094
000020 ca 68 03 bf a0 10 f4 84 48 44 26 be d5 9f 4b be
       -0.5133177 -5.7379392e-36 -0.16236985 -0.1988519
000030 d6 57 31 be 83 be fd bc 8b db 45 bf 4a 9f 9c 3e
       -0.17318663 -0.030974632 -0.7728812 0.30590278
000040 58 38 95 3f 00 90 f7 04 ca f3 0a 3f 17 37 f6 04
       1.165782 5.8201664e-36 0.5427824 5.7884914e-36
000050 30 f6 d5 bc 81 55 75 bf 64 7e 38 bf 8c c8 09 bc
       -0.026118368 -0.95833594 -0.72067857 -0.0084096305
000060 d0 6c 8d bd 42 6c dc 3e d3 1b 3d 3f 30 0a 68 bf
       -0.0690552 0.43051344 0.7387058 -0.90640545
000070 40 50 07 3f 4b 20 ba 3e 24 27 ce 3f 08 de 95 bd
       0.52856827 0.36352763 1.6105695 -0.0731774
000080 e9 cf ac 3e 0e 5c 98 3e df 74 02 3f 20 03 ec 3e
       0.33752373 0.29757732 0.5095958 0.46096134
000090 6e fd 6a be 7d b6 54 3f e9 a9 14 3e ce d8 ff 3e
       -0.22948238 0.83090955 0.1451794 0.49970096
0000a0 99 ee 77 be 17 ac f3 84 07 36 be 3d 56 43 1f bf
       -0.24212112 -5.7287065e-36 0.09287649 -0.6221212
0000b0 da 39 0d be 26 37 a2 3e 2f 71 16 bf 1d 3e 29 bf
       -0.137916 0.316827 -0.58766454 -0.661104
0000c0 b9 17 81 bd f2 8f f2 84 d7 50 d4 3e 15 eb f5 84
       -0.06303353 -5.702612e-36 0.41467926 -5.7815112e-36
0000d0 bf a5 1f 3f 03 fa e7 3d 7a 5d fe be fd d8 79 3e
       0.62362283 0.11326983 -0.49680692 0.2439918
0000e0 a2 5f 1e 3e 37 37 76 bf c5 96 eb 3d f0 dc 99 be
       0.15466169 -0.96178 0.115033664 -0.30051374
0000f0 bd f2 a6 3e 4c e9 e7 3d 89 57 9b 3f 82 65 32 bf
       0.3260707 0.11323795 1.2136089 -0.6968614
000100 d5 90 cf bd 55 5f 41 bf c1 19 f0 3e 7f 38 68 bf
       -0.101350464 -0.7553609 0.4689465 -0.90711206
000110 29 57 59 3e 79 59 07 bf c1 b9 de be a6 66 49 3f
       0.21224655 -0.528709 -0.43501094 0.78672254
000120 47 35 0f bf 27 3e f2 84 fa 52 5f 3d 85 33 cd 3e
       -0.5594067 -5.6951004e-36 0.054522492 0.4007837
000130 97 a6 58 3e dc 64 cc 3c 21 a1 cb 3e fb 59 90 3e
       0.21157299 0.024950437 0.3977137 0.2819365
000140 22 06 97 3f 65 47 f6 04 70 51 90 3f 8b ac f3 84
       1.1798747 5.7899888e-36 1.1274853 -5.728748e-36
000150 3c 30 2c 3e 0c cb b2 bd c5 8c e2 3d 68 f8 c5 3c
       0.16815275 -0.08730134 0.11062006 0.0241663
000160 cc 5c 02 be 99 52 88 bf 8a 36 27 3e dd d0 0e 3f
       -0.12730712 -1.0650207 0.16329399 0.5578745
000170 14 51 e5 3e 11 89 d5 3f 2b 24 c0 3f dc fc 00 be
       0.4478842 1.6682454 1.5011038 -0.12596458
000180 c9 da 30 3f 3b 7f 80 3d 2e a4 e5 3e 4e f4 8d 3e
       0.6908384 0.06274267 0.44851822 0.27725452
000190 e9 51 18 bf a1 bb eb be 7e 64 65 be dc 08 30 bf
       -0.59499985 -0.46041587 -0.22401616 -0.6876352
0001a0 e5 f6 2d 3d 9f b9 f4 04 43 5e d9 3d f5 6f 14 3e
       0.042471785 5.753459e-36 0.10613682 0.14495833
0001b0 26 47 8d 3e 2a c5 3e bf e0 30 91 3e 30 fd 34 bf
       0.27593344 -0.745196 0.283576 -0.70698833
0001c0 6f fa 73 bf eb b4 f3 04 13 a3 8b be b3 26 f2 84
       -0.95304006 5.7295172e-36 -0.27272853 -5.6929466e-36
0001d0 8f 60 74 bf 80 2b f3 3e a6 1a bb bd c4 f3 cd 3e
       -0.95459837 0.47494125 -0.09135942 0.4022504
0001e0 7c 13 fd bb cc 69 e6 3e 2d 87 3c 3e 73 a5 c7 3e
       -0.00772327 0.45002592 0.1841094 0.38993415
0001f0 61 f6 4d bf ca 58 53 bf 87 51 3e bf 2c fe a3 be
       -0.8045407 -0.82557356 -0.7434315 -0.32029855
000200 f3 4f 62 3e c1 bf 09 3e 8d 2d 76 be 0f b3 36 bf
       0.2210081 0.13452055 -0.24040814 -0.7136697
000210 f4 72 53 3f a5 69 c3 3d 6e ca fe 3e aa fb 56 3f
       0.8259728 0.095416345 0.49763817 0.8397776
000220 2c 9c bb bb 90 45 f2 84 8d 06 bf 3e 7c 20 0b bd
       -0.0057254042 -5.695781e-36 0.37309685 -0.033966526
000230 14 1e 54 3e 1f 56 9c 3e 9e a1 af bf fe d8 0c 3f
       0.20714599 0.30534455 -1.3721197 0.55018604
000240 cb 36 a9 3f 07 32 f2 84 14 94 4d 3f 8b 42 f5 84
       1.3219846 -5.693987e-36 0.80304074 -5.7660333e-36
000250 05 3f a5 3d eb e3 dd bf 18 d4 0f 3f 99 c8 10 be
       0.08068661 -1.733518 0.56183004 -0.14139022
000260 cd 69 4e be 44 80 ba bd 73 9f d3 be 2b e7 9b bd
       -0.20157547 -0.09106496 -0.41332588 -0.07612451
000270 e0 9d ba 3e 32 42 d4 3d c0 1f 8c 3f 24 c5 98 3e
       0.36448574 0.10364188 1.0947189 0.29837906
000280 37 a6 00 3f 2a 6a 13 bf 12 8f 8f be 26 dc 82 3e
       0.50253624 -0.5758387 -0.2803884 0.25558585
000290 e5 94 35 bf 8f ce ce be 11 44 01 bf 95 4b 10 3e
       -0.7093032 -0.40391967 -0.50494486 0.14091332
0002a0 0d 43 72 bf a2 7f f2 84 86 d2 35 be af 1c df be
       -0.9463356 -5.701114e-36 -0.1775609 -0.4357657
0002b0 13 6b 43 be b8 3f 06 bf 60 1e 32 bd 9d 14 75 be
       -0.19083814 -0.5244098 -0.043486 -0.23933645
0002c0 3b c1 7e 3f ba 0f f2 84 0f 07 3e 3f 9b 36 f3 84
       0.99513596 -5.690837e-36 0.7422952 -5.7179173e-36
0002d0 f8 8b bf bf 73 7e 50 3f d5 08 aa be 38 fd ab 3e
       -1.496459 0.81442946 -0.33209863 0.33591628
0002e0 ec d8 96 be 23 60 b8 be d4 df 45 bf 18 01 b8 bf
       -0.29462373 -0.36010846 -0.7729466 -1.4375334
0002f0 9c fc 7b bd 21 3a 92 bf 17 bd d5 be d4 a5 34 3d
       -0.061520204 -1.142399 -0.41745827 0.04410346
000300 2e b5 20 3e be d9 5c bf f8 c6 80 bd ad 29 f7 3e
       0.15694115 -0.8626975 -0.0628795 0.48273984
000310 ed 2a 83 be d4 86 c7 bf 08 99 e5 3e bd 85 af 3e
       -0.25618687 -1.5588021 0.44843316 0.34281722
000320 da 1e ab be 34 cb f2 84 88 92 84 bf 36 1b 2d bc
       -0.33421975 -5.708054e-36 -1.0357218 -0.01056557
000330 26 b3 c3 3e 7f 37 53 3e e3 0e 2c 3d dd d2 ce bd
       0.38222617 0.20626639 0.042006385 -0.10098813
000340 c7 55 8d 3e dc 73 f5 84 be e3 9c 3f a5 cc f6 84
       0.27604505 -5.7705623e-36 1.2257001 -5.802226e-36
000350 a9 6c 1f 3f 0e 63 08 3e 95 4a 40 3e aa 3b a8 be
       0.6227518 0.13319036 0.18778451 -0.3285802
000360 f9 63 cb bf a7 c7 6a be e8 1b cf 3e b8 ac 9c bd
       -1.5889884 -0.22927724 0.40450978 -0.07650131
000370 f5 cc e3 3e 3d 20 f0 be b6 4e c4 3f 6a 03 11 3e
       0.44492307 -0.46899596 1.5336521 0.14161459
000380 e1 48 88 bd 55 f5 9b be 63 38 7a bf 04 77 13 bf
       -0.066545255 -0.3046061 -0.9774229 -0.5760348
000390 7b d0 e7 3e de 25 00 be f9 67 de bd 8d 71 42 3f
       0.45276245 -0.12514445 -0.10859675 0.75954515
0003a0 03 f0 40 3e 6d 6f f6 84 07 99 5d 3e e8 b0 68 3e
       0.18841557 -5.793665e-36 0.21640407 0.22723734
0003b0 22 4a 77 3d 8b 42 8d 3e 4e f1 c8 be 5c ad 17 3f
       0.060373433 0.2758983 -0.392466 0.592489
0003c0 ed 50 6b 3f 8c 96 f2 84 c9 f5 ca 3e b6 cd f5 84
       0.9192036 -5.7032182e-36 0.39640644 -5.778814e-36
0003d0 2a 4f 01 3f 92 88 f2 be bd 6f 42 3f 4e fa 69 bf
       0.5051142 -0.4736982 0.7595175 -0.9139756
0003e0 f7 20 00 bf 53 ef 44 3e 3e 40 05 3e b5 5c f3 be
       -0.500503 0.1923192 0.13012788 -0.47531667
0003f0 b4 76 6e 3d 05 5e ea 3f cf 3d db 3f c8 40 8f 3e
       0.058218673 1.8309942 1.7128237 0.27979112

fc_layers.2.bias f4 [16]
000000 81 5f 8f bd cf 75 0d 3f 43 27 05 bf c6 54 ad bd
       -0.07000638 0.55257887 -0.52013034 -0.08463435
000010 90 f6 1f 3d a4 55 e0 be 64 8a 99 bf 77 57 84 bd
       0.0390535 -0.4381534 -1.1995358 -0.06461995
000020 4c 6b 0e 40 e7 1f b1 be bc 86 02 bd fc 91 ed 84
       2.225299 -0.34594652 -0.031866774 -5.5852498e-36
000030 99 2b 93 3e 72 02 c4 3f 5d d6 28 3f 1c 35 ed 84
       0.287442 1.5313246 0.6595209 -5.5767205e-36

fc_layers.3.weight f4 [8, 16]
000000 ce 0d de bf fe 87 29 3f f1 03 95 be 40 20 53 3e
       -1.7347963 0.6622313 -0.2910457 0.20617771
000010 65 ed 28 be ec 8d ac bf 61 5c 38 bf cc b7 f8 be
       -0.16496809 -1.3480811 -0.7201596 -0.48577726
000020 8e 37 1f 3f 8a b5 dd 3d 3e 21 a0 3e 60 0f ee 84
       0.62194145 0.108256415 0.31275362 -5.596765e-36
000030 d3 f3 48 3f d8 84 a9 3a f5 2f d3 3c 36 a1 11 05
       0.78497046 0.0012933267 0.025779704 6.847477e-36
000040 68 44 b5 3e 9a f7 69 be 13 69 8c 3e c8 5a 2f c0
       0.35403752 -0.22848359 0.27423915 -2.7399158
000050 8d 35 e3 3e 53 56 9a 3e b8 83 9c 3e 1b 0e 89 3e
       0.44376794 0.30143985 0.30569243 0.26768574
000060 f3 4d a3 3d 7c 72 d9 bd af e2 4d bd cf e2 d8 84
       0.07973852 -0.10617539 -0.05026501 -5.0989647e-36
000070 0d 78 3a 3c db 02 b1 bf 7b 45 32 bf 9f 7c e4 04
       0.011381161 -1.3828996 -0.6963727 5.371699e-36
000080 68 27 7c bf da 56 30 3e f6 5f 37 bf df d3 35 3e
       -0.9849763 0.17220631 -0.716308 0.17756604
000090 fd c0 98 be cf 45 27 bf e1 e4 dc bf 88 8d 68 be
       -0.29834738 -0.65340894 -1.7257348 -0.2271024
0000a0 c1 88 d5 3e ce f5 4f 3f 7e 25 75 3e 7b 23 ef 84
       0.41705897 0.81234443 0.23940083 -5.6221214e-36
0000b0 d0 6d 14 3f 62 fa 1b bd e4 e8 d7 3e ce f4 03 05
       0.5798006 -0.03808058 0.4216987 6.204554e-36
0000c0 07 9c f3 84 cd 86 f2 84 41 f7 f5 84 56 b6 f7 84
       -5.7272314e-36 -5.701772e-36 -5.782629e-36 -5.823687e-36
0000d0 9e c9 f3 84 80 dd f4 84 b5 a2 f5 84 47 84 f6 84
       -5.731418e-36 -5.756754e-36 -5.7748646e-36 -5.79558e-36
0000e0 9f 82 f6 84 68 0a f3 84 22 2d f4 84 a6 c2 f0 04
       -5.795428e-36 -5.7138582e-36 -5.7405572e-36 5.6602485e-36
0000f0 47 db f4 84 9a 28 f4 84 9e 26 f7 84 5c 6e ed 84
       -5.75655e-36 -5.740141e-36 -5.8104885e-36 -5.581978e-36
000100 86 be a5 be 83 86 40 bd 42 39 f2 be e6 66 a7 3e
       -0.3237192 -0.04700328 -0.4730931 0.32695693
000110 2d 45 37 bf 80 37 1a be ad 9c 05 bf b1 a0 44 be
       -0.7158993 -0.15060234 -0.52192193 -0.19201924
000120 30 bf ee 3e 52 21 01 be 3a c6 58 be a1 fb ef 84
       0.4663024 -0.12610367 -0.21169367 -5.6419715e-36
000130 4e 70 2c bf ed 92 a0 3e da be 07 be 52 6d 70 84
       -0.67358863 0.31362095 -0.13256398 -2.8262062e-36
000140 52 8e ec be 3f 43 31 be 61 39 da be 13 c5 36 3e
       -0.46202332 -0.17310809 -0.42621902 0.17848615
000150 66 9c 6a bf 5c 2a c7 bc fb 2e 4f bf 5c 5d 5d bf
       -0.91644895 -0.02431219 -0.8093106 -0.8647058
000160 71 98 05 3f 03 e9 db be 30 07 df bc 83 5f ef 84
       0.5218573 -0.4295121 -0.027225107 -5.6276344e-36
000170 a0 9b 23 bf 8f 01 fa 3e 76 1b e8 bc 32 68 49 84
       -0.6390934 0.48829314 -0.028333407 -2.367528e-36
000180 d3 40 85 bf b9 73 ba be 36 e9 5e bf 0a 60 bb 3e
       -1.0410408 -0.36416414 -0.870746 0.3659671
000190 a4 6a 6e be 23 22 9d c0 62 07 13 3d 08 89 06 3f
       -0.23282868 -4.910417 0.035895713 0.52552843
0001a0 22 ba 93 bf e6 4f 0d bf d4 23 87 3e 28 e7 f4 84
       -1.1541178 -0.5520004 0.26394522 -5.7576408e-36
0001b0 f3 b5 87 3f 9b e6 9c 3d 60 66 5a 3f 4e 95 5b 04
       1.0602401 0.07661172 0.8531246 2.5811884e-36
0001c0 3d 4a 1e 3e cd 27 1b 3e 95 28 cd 3e 63 5e 8e bf
       0.15458007 0.15151902 0.40070024 -1.1122555
0001d0 ac 53 aa 3e 2b b4 50 3f 2f d5 e0 3e ad f5 74 bc
       0.33266962 0.81524915 0.43912646 -0.014951152
0001e0 1c cc e4 3e c6 9a 78 3e e5 84 6c bf 7e c5 f3 84
       0.44686973 0.24277791 -0.9239028 -5.7310393e-36
0001f0 89 1f c8 be 31 33 08 3f b9 67 60 bf 3c b4 ef 04
       -0.3908656 0.5320311 -0.8765827 5.635415e-36

fc_layers.3.bias f4 [8]
000000 21 26 c5 3e fa 8c 9c 3f 6e 0d 6d 3e dd c1 f4 84
       0.38505653 1.2230523 0.23149654 -5.754216e-36
000010 e9 b2 1e 3f 7d 0a 1b 3f 01 94 37 bf d7 29 a7 3e
       0.61991745 0.6056288 -0.7171021 0.3264911

affine_output.weight f4 [1, 8]
000000 8a 09 ba be eb 80 a8 be 3d 79 9f be 0c f0 f4 04
       -0.36335403 -0.32910857 -0.31147185 5.7584573e-36
000010 e1 63 0d be 43 a2 a8 be b2 83 ed 3e 9f d2 dd 3e
       -0.13807632 -0.32936296 0.46389538 0.43324754
