neural-collaborative-filtering/src/checkpoints/mlp_factor8neg4_bz256_166432168_pretrain_reg_0.0000001_Epoch65_HR1.0000_NDCG0.7963.model (torch, 298910 bytes, 12 tensors)

embedding_user.weight f4 [7700, 8]
5.7696264e-36 -5.685358e-36 -5.7243307e-36 5.7623545e-36 -5.7083323e-36 5.8118897e-36 -5.741819e-36 -5.7920203e-36
-5.7009618e-36 5.6999925e-36 5.744992e-36 5.5976598e-36 -5.8122714e-36 5.7336233e-36 5.789066e-36 5.7129194e-36
-5.7633274e-36 5.750841e-36 -5.540421e-36 5.6864912e-36 5.8141648e-36 5.7447487e-36 -5.6988262e-36 -5.764204e-36
-1.1313856 1.0971382 0.5986181 -0.6355586 -1.062122 0.8506899 -1.226951 -0.90564287
-0.24779086 -0.14628008 0.70661134 -0.7836586 -0.8389637 0.75129807 -0.56382716 -2.0102534
-1.1364398 0.98003143 1.0269215 -0.7080429 -1.2817748 0.83131874 -1.155886 -0.88563216
-1.418588 -0.69232833 0.012836538 -0.2683078 -0.895288 1.0446949 -0.42420807 -1.1173198
-0.1584248 0.28664166 0.48796746 2.048234 -1.1920134 0.5343115 0.54488444 -3.7785122
1.2347426 0.6343439 0.76803863 -0.83861804 -0.25181377 0.19074017 -1.514018 -1.2784039
-1.3373317 0.76040894 0.6116973 -0.999649 -0.60772884 1.4635118 -0.9559383 -0.8008699
0.538421 0.2725345 2.398476 -0.62425107 -1.9848047 1.6813173 -0.82707757 -1.3986497
-0.32033974 0.06523373 1.4859474 -0.3142323 -1.9420209 -0.9311244 -0.9526191 -2.5809321
-1.0457996 1.027687 0.3590494 -0.64586854 -1.2437129 0.76753384 -1.1477989 -0.50815094
-0.6757502 0.54631186 0.32071155 0.8935087 -2.0480766 1.7538917 -0.9874519 -0.66838014
-0.52853554 1.0384095 0.57320374 -0.7277818 -1.1732084 1.1306341 -0.71263045 -0.3595411
-5.8010797e-36 -5.786929e-36 -5.7397716e-36 -5.7731065e-36 -5.636004e-36 5.7780724e-36 5.6559495e-36 5.809391e-36
-1.0900439 0.79245853 0.5701133 -0.74115294 -1.1960665 1.1277863 -0.89878166 -0.51242423
-0.9656841 1.1813167 0.3407394 -0.7704349 -1.2012699 0.7880714 -0.7833881 -0.5177528
-1.1046069 0.6718406 0.42755246 -0.7385664 -0.90323055 0.9418837 -1.3362178 -0.45244664
-1.2127813 0.48041284 0.87035066 -0.5794973 -0.3152729 1.3537822 -1.3090546 -0.91904026
-0.93363386 0.9507946 0.6563274 -0.5735742 -0.995019 0.71722335 -1.2724799 -0.79546374
-1.4840871 0.73516357 0.6326991 -1.0116284 -0.6806097 1.4087105 -1.0437005 -0.8936076
-0.81196827 0.8502651 0.836935 -0.47683448 -0.89383394 0.70242286 -1.1151072 -0.7108084
-0.86515933 0.87212354 0.6216629 -0.53285897 -0.90224516 1.132412 -0.78431904 -0.2920343
-0.90252566 2.2317114 -0.23317476 -1.1792464 0.0706514 -0.18117017 -0.64277667 -0.6985918
-1.6149926 -0.25715867 0.13824691 -0.78299636 -1.8874106 1.6825731 -0.522856 -1.6320041
-0.89705366 0.8256226 0.68712187 -0.5126616 -0.82028276 0.69672096 -1.0434518 -0.82502615
-1.0582694 0.88938755 0.52787656 -0.5787589 -1.091914 0.6927495 -1.1874379 -0.8915295
5.7512747e-36 -5.7343992e-36 5.7773553e-36 -5.710462e-36 5.697081e-36 5.7799173e-36 5.8146907e-36 5.65217e-36
-5.7644818e-36 -5.746342e-36 -5.7223254e-36 -5.794616e-36 -5.7602807e-36 -5.8013566e-36 5.8203964e-36 -5.7976488e-36
-0.9845639 0.9264406 0.7604951 -0.578191 -1.1122686 0.75047916 -1.2078464 -0.7891261
0.37592766 0.5428226 1.4356151 -0.24191914 -2.4834113 1.6631954 -0.7595625 -0.66554165
00000000: ab69 f504 11d4 f184 717c f384 7c1a f504
00000010: 3cce f284 e035 f704 df3a f484 845d f684
00000020: fa7d f284 6c73 f204 6c5d f404 1e19 ee04
00000030: 083a f784 a1e1 f304 593d f604 2f00 f304
00000040: 1425 f584 1d9d f404 d8a9 eb84 68e0 f104
00000050: a64e f704 c65a f404 b966 f284 a02e f584
00000060: 3ed1 90bf 066f 8c3f 093f 193f f8b3 22bf
00000070: 9df3 87bf d0c6 593f bb0c 9dbf 36d8 67bf
00000080: e3bc 7dbe 72ca 15be 7be4 343f da9d 48bf
00000090: 53c6 56bf 1255 403f fa56 10bf fea7 00c0
000000a0: dc76 91bf 57e3 7a3f 2a72 833f 4d42 35bf
000000b0: 3211 a4bf 4ed1 543f 13f4 93bf cab8 62bf
000000c0: 4b94 b5bf 6e3c 31bf 5850 523c a45f 89be
000000d0: 9831 65bf 90b8 853f cd31 d9be 5604 8fbf
000000e0: 1c3a 22be b2c2 923e dfd6 f93e 4416 0340
000000f0: e593 98bf a3c8 083f 8c7d 0b3f 25d3 71c0
00000100: 0c0c 9e3f 5d64 223f 2e9e 443f acaf 56bf
00000110: bced 80be 6451 433e 58cb c1bf bda2 a3bf
00000120: af2d abbf 29aa 423f 3298 1c3f ffe8 7fbf
00000130: 1e94 1bbf 5b54 bb3f 5fb8 74bf cf05 4dbf
00000140: f5d5 093f a489 8b3e a180 1940 ebce 1fbf
00000150: 150e febf 6835 d73f 5bbb 53bf f406 b3bf
00000160: 9203 a4be 4399 853d 8633 be3f 0ee3 a0be
00000170: 2494 f8bf 2b5e 6ebf d8de 73bf fe2d 25c0
00000180: c3dc 85bf 3f8b 833f 53d5 b73e a457 25bf
00000190: fc31 9fbf 197d 443f 13eb 92bf 2e16 02bf
000001a0: f7fd 2cbf 18db 0b3f 4e34 a43e fcbc 643f
000001b0: b013 03c0 867f e03f a6c9 7cbf f61a 2bbf
000001c0: 1b4e 07bf 9aea 843f 7bbd 123f e84f 3abf
000001d0: b12b 96bf 9eb8 903f f36e 36bf c515 b8be
000001e0: 2ac0 f684 1426 f684 9424 f484 908f f584
000001f0: a6ba ef84 a3c5 f504 d693 f004 ab1a f704
00000200: 8f86 8bbf 90de 4a3f f2f2 113f 33bc 3dbf
00000210: b518 99bf 4d5b 903f 8e16 66bf 3c2e 03bf
00000220: 1337 77bf 6335 973f 6575 ae3e 393b 45bf
00000230: 36c3 99bf 0cbf 493f 1f8c 48bf 738b 04bf
00000240: c263 8dbf bffd 2b3f 28e8 da3e b012 3dbf
00000250: 1e3a 67bf 4a1f 713f 2f09 abbf 16a7 e7be
00000260: 6b3c 9bbf acf8 f53e 4dcf 5e3f ef59 14bf
00000270: 736b a1be bc48 ad3f 1a8f a7bf 3946 6bbf
00000280: a102 6fbf 4667 733f 1305 283f c2d5 12bf
00000290: 91b9 7ebf f39b 373f 9fe0 a2bf 83a3 4bbf
000002a0: 91f6 bdbf ae33 3c3f 91f8 213f 0a7d 81bf
000002b0: 703c 2ebf a050 b43f fa97 85bf 78c3 64bf
000002c0: 27dd 4fbf f9aa 593f 5f41 563f a623 f4be
000002d0: 4dd2 64bf fcd1 333f d5bb 8ebf 8af7 35bf
000002e0: 157b 5dbf 7d43 5f3f 4d25 1f3f 7269 08bf
000002f0: 8af9 66bf e0f2 903f 22c9 48bf 8585 95be
00000300: ec0b 67bf 5cd4 0e40 5dc5 6ebe 8cf1 96bf
00000310: aeb1 903d ac84 39be 038d 24bf ead6 32bf
00000320: 14b8 cebf 4daa 83be 9990 0d3e 7372 48bf
00000330: ac96 f1bf 8e5e d73f e4d9 05bf 83e5 d0bf
00000340: 4fa5 65bf 015c 533f 38e7 2f3f ca3d 03bf
00000350: 0dfe 51bf 4e5c 323f d48f 85bf ea34 53bf
00000360: 5f75 87bf e7ae 633f eb22 073f 8b29 14bf
00000370: d7c3 8bbf 0858 313f f7fd 97bf 473b 64bf
00000380: d6a1 f404 14ea f384 d4bd f504 6de5 f284
00000390: b853 f204 bad9 f504 6054 f704 ae6a f004
000003a0: a631 f584 206c f484 9b66 f384 c879 f684
000003b0: e703 f584 2ec3 f684 8192 f704 ce9a f684
000003c0: 610c 7cbf 362b 6d3f cfaf 423f 5304 14bf
000003d0: d15e 8ebf 671f 403f b69a 9abf 2b04 4abf
000003e0: 9779 c03e 6cf6 0a3f 3cc2 b73f a7b9 77be
000003f0: 36f0 1ec0 96e3 d43f b072 42bf f060 2abf

embedding_item.weight f4 [8, 1024]
0.1729759 0.2807702 0.3491364 0.37370744 0.13207294 0.16568428 0.04148384 -0.15706995
0.3083885 -0.18142004 0.10195281 0.18306358 0.041095275 0.10040751 -0.024019586 0.0073184185
-0.48961097 -0.2505721 0.100041 -0.32776037 0.03569629 -0.08277412 -0.24535161 -0.09993198
0.1269613 0.043726504 -0.2435086 0.042049438 0.06927871 -0.17817385 0.013392237 0.134642
-0.021777252 -0.11601905 -0.3377325 -0.059642646 0.11670858 0.108378805 -0.17928283 -0.09500694
-0.08306869 -0.11670338 -0.2904999 -0.010386673 0.17083012 -0.20633516 -0.28412807 -0.26124394
0.27854392 -0.17889494 0.0030989936 -0.18166076 0.22227415 0.20078465 0.15183514 -0.16442983
0.13581538 -0.2701621 0.06264156 0.03722542 -0.013055455 -0.118467584 0.041907713 0.020772994
-0.28597718 0.061954528 -0.14585301 0.23291737 -0.16153279 -0.07519066 0.12977442 0.1778772
-0.066621564 -0.25735113 0.005374014 -0.14086843 -0.20145328 0.04429928 -0.27415386 0.094057165
-0.076340444 -0.23756595 0.106242746 0.07375356 -0.04708221 -0.12342736 0.19263278 -0.039822895
0.2577753 0.20867017 0.10187436 0.51128095 0.17223431 -0.58927786 -0.23435302 -0.23088355
-0.07185556 -0.13943501 -0.04614885 0.07456866 -0.14403008 -0.14408888 -0.054287136 0.27230024
0.10817144 -0.31537095 -0.31907627 -0.035993382 0.095905825 0.23741274 0.19776616 -0.2858926
-0.15938427 0.2232127 0.18120468 -0.44114906 -0.13945933 -0.036800347 -0.009408007 0.07430136
-0.056668773 0.032934926 -0.26159933 -0.12926883 -0.14662649 0.1936876 0.29632765 0.56495994
-0.032370422 0.14263357 -0.04386925 -0.1324059 0.22326146 0.16158496 0.022863038 0.103771426
0.18415108 0.31867227 0.06552829 0.20087023 -0.017278917 -0.11234229 -0.021823918 -0.21697082
-0.0019409261 0.33258173 -0.23556402 -0.15072086 -0.060295004 -0.06101305 0.027192287 0.08788799
0.31841353 -0.17004661 0.2030145 0.19052568 0.19828033 0.1531908 0.081283405 0.092413835
0.19166198 0.06784464 0.090741806 -0.28551957 0.07298146 0.35123774 -0.0042891083 -0.2106772
0.30884558 0.042909957 -0.29059312 0.32716346 -0.13595629 0.055260316 -0.40245897 -0.11503826
0.224788 -0.4022493 0.23322837 0.046491295 -0.032854605 0.40041628 -0.123928666 -0.27321005
-0.006419451 0.0132211195 0.22782382 0.07737387 0.15238981 0.11873317 -0.06393405 0.07735241
-0.061539304 -0.007252456 -0.24919082 -0.066088 -0.17762439 0.12054232 -0.24284068 0.083247036
-0.15645303 -0.09166047 -0.26082957 -0.12767357 -0.15958925 0.07156372 -0.019628063 -0.052177995
0.006463355 0.18373461 -0.17526518 0.07387149 0.18982953 -0.22936992 -0.062330853 0.4432399
0.1547983 -0.025131827 -0.22457285 0.18190935 -0.057768974 0.2743447 -0.37921008 0.19943213
0.09737721 0.12077056 -0.023154374 -0.08866247 -0.005158675 -0.15472879 0.028887829 0.16936822
-0.00090809807 0.14858668 0.14702593 0.080280446 0.14639924 0.07171375 0.16454005 0.10716876
0.020913666 0.32140857 0.010213639 0.24351181 0.010858166 -0.39993885 0.09608642 0.332716
-0.18536131 -0.19448802 0.10585406 -0.16320075 -0.10944641 0.3144343 -0.067650765 0.045789003
00000000: 9820 313e 1dc1 8f3e 02c2 b23e 9556 bf3e
00000010: 213e 073e 24a9 293e f6ea 293d f2d6 20be
00000020: 19e5 9d3e 2dc6 39be a3cc d03d 0575 3b3e
00000030: 8553 283d 74a2 cd3d b9c4 c4bc 58cf ef3b
00000040: 4aae fabe fc4a 80be 4ce2 cc3d 35d0 a7be
00000050: 4636 123d 7a85 a9bd 743d 7bbe 23a9 ccbd
00000060: 2502 023e 901a 333d 525a 79be 083c 2c3d
00000070: ffe1 8d3d 3573 36be 1d6b 5b3c 98df 093e
00000080: 3566 b2bc 659b edbd 46eb acbe d94b 74bd
00000090: e804 ef3d b5f5 dd3d eb95 37be 0093 c2bd
000000a0: eb1f aabd 2f02 efbd 67bc 94be dd2c 2abc
000000b0: 17ee 2e3e 8649 53be 3c79 91be c4c1 85be
000000c0: 4f9d 8e3e 3c30 37be 7c18 4b3b 4705 3abe
000000d0: d69b 633e 7e9a 4d3e ac7a 1b3e 4b60 28be
000000e0: 3013 0b3e b052 8abe 384a 803d af79 183d
000000f0: 8ce6 55bc 229f f2bd 6ca7 2b3d 202c aa3c
00000100: 9a6b 92be 08c4 7d3d 7e5a 15be e481 6e3e
00000110: da68 25be 90fd 99bd 96e3 043e 7125 363e
00000120: e370 88bd 87c3 83be 7f18 b03b d03f 10be
00000130: c549 4ebe 2973 353d e55d 8cbe 0ba1 c03d
00000140: 6158 9cbd 7d44 73be cc95 d93d 1b0c 973d
00000150: 47d9 40bd 7cc7 fcbd 8741 453e 551d 23bd
00000160: 20fb 833e a2ad 553e 81a3 d03d 4fe3 023f
00000170: 315e 303e eada 16bf 3dfa 6fbe bd6c 6cbe
00000180: 0229 93bd 0dc8 0ebe 9406 3dbd 74b7 983d
00000190: 9f7c 13be 098c 13be 305c 5ebd f06a 8b3e
000001a0: fd88 dd3d 4d78 a1be f75d a3be cc6d 13bd
000001b0: 466a c43d 531c 733e 3683 4a3e 8460 92be
000001c0: a135 23be df91 643e b88d 393e 4ade e1be
000001d0: 6dce 0ebe f6bb 16bd 0b24 1abc 502b 983d
000001e0: 841d 68bd c6e6 063d 59f0 85be 0c5f 04be
000001f0: 4125 16be 0b56 463e 42b8 973e 37a1 103f
00000200: d996 04bd 890e 123e 3eb0 33bd 6a95 07be
00000210: a79e 643e 8776 253e 444b bb3c 1d86 d43d
00000220: 1a92 3c3e 0329 a33e b233 863d edb0 4d3e
00000230: 848c 8dbc b713 e6bd 13c8 b2bc 992d 5ebe
00000240: ac66 feba 2748 aa3e b237 71be 9256 1abe
00000250: e5f7 76bd d2e8 79bd 5cc2 de3c 9efe b33d
00000260: 1907 a33e b320 2ebe 08e3 4f3e 2a19 433e
00000270: 000a 4b3e 0dde 1c3e ea77 a63d 7743 bd3d
00000280: 0a43 443e 21f2 8a3d d7d6 b93d 9f2f 92be
00000290: 4e77 953d 6fd5 b33e a68b 8cbb c4bb 57be
000002a0: 0221 9e3e 5ac2 2f3d 9fc8 94be f881 a73e
000002b0: 2038 0bbe a458 623d 1a0f cebe 2e99 ebbd
000002c0: d32e 663e 9ff3 cdbe 6bd3 6e3e a86d 3e3d
000002d0: 8d92 06bd 5d03 cd3e 50ce fdbd 30e2 8bbe
000002e0: 425a d2bb 659d 583c a64a 693e 3176 9e3d
000002f0: 130c 1c3e 602a f33d dbef 82bd f16a 9e3d
00000300: a310 7cbd 03a6 edbb e12b 7fbe 2559 87bd
00000310: 2be3 35be e4de f63d 3aab 78be 6c7d aa3d
00000320: 3935 20be 7cb8 bbbd 748b 85be dcbc 02be
00000330: 5d6b 23be 0090 923d 08cb a0bc 98b8 55bd
00000340: 8dca d33b ed24 3c3e b778 33be f049 973d
00000350: ac62 423e f3df 6abe a34e 7fbd 57f0 e23e
00000360: 7283 1e3e 43e1 cdbc 6df6 65be 7246 3a3e
00000370: 299f 6cbd e976 8c3e d327 c2be f037 4c3e
00000380: b46d c73d 8e56 f73d 3eae bdbc ab94 b5bd
00000390: 1a0a a9bb 3971 1ebe 2ba6 ec3c dd6e 2d3e
000003a0: 6e0d 6eba 1b27 183e f78d 163e 136a a43d
000003b0: afe9 153e a9de 923d 307d 283e 4b7b db3d
000003c0: 2353 ab3c aa8f a43e 1b57 273c 295b 793e
000003d0: 73e6 313c c9c4 ccbe f5c8 c43d c059 aa3e
000003e0: 5bcf 3dbe de27 47be 03ca d83d 191e 27be
000003f0: 7025 e0bd 88fd a03e 7c8c 8abd 408d 3b3d

embedding_item.bias f4 [8]
0.14407642 -0.044615794 0.06695965 0.05978002 -0.003145656 -0.106974386 0.11283706 -0.043432586
00000000: c588 133e 0dbf 36bd 2422 893d e5db 743d
00000010: 5a27 4ebb 6315 dbbd 1e17 e73d 5ee6 31bd

fc_layers.0.weight f4 [64, 16]
-0.5057105 0.8019118 0.8425832 -1.4549177 0.32527706 0.26866624 -0.5279178 -0.43206123
0.038713444 -0.056721773 -0.09603356 -0.1059386 -0.17727166 0.0028618989 -0.11111709 0.023692666
-0.28472716 0.69721353 0.884504 0.2241678 0.3466681 -1.1326004 -0.5724993 -0.08796764
0.103109166 0.08813872 -0.10740486 0.14033729 0.06266611 -0.15195654 -0.03795632 -0.059657566
-0.8006555 0.6075064 -1.0533446 0.006952028 -0.7280342 -1.0177442 -0.39611518 -1.2078282
-0.070839114 -0.14868559 0.092045285 -0.098456286 -0.047600746 -0.025884716 0.023441635 -0.10553378
0.6484059 0.03836055 0.3950993 0.20419018 -1.2573214 0.32476315 -0.7249561 1.307367
0.0302529 -0.20193411 -0.017622298 0.034264628 0.21526368 -0.09699688 -0.22143547 0.26123783
-0.3725899 -0.13161771 0.7356391 1.332263 0.2706873 1.3535467 -1.3031613 0.11384632
0.13537452 -0.13877547 -0.085630216 0.1032567 -0.21298043 0.12665954 -0.09818512 0.17493458
0.33536088 -1.577585 -0.64000446 -0.4236055 -0.87854177 -0.60075575 1.2475216 -0.41143554
0.019486014 0.19621336 0.078473166 -0.09309647 -0.14167352 -0.03730833 -0.1425072 0.23625971
-0.55959934 -0.00941986 0.21891606 0.069829784 -0.38414222 0.7707405 -0.8682955 -0.5106951
-0.28086576 -0.101799466 0.11715015 -0.038952637 -0.0031333398 0.18843143 0.0036488266 -0.039651852
-0.27566057 0.44080013 -0.4159489 -0.2741894 -0.20735873 0.98281574 1.0480464 0.2491998
0.18321218 -0.16494022 -0.3127074 -0.08212997 -0.02043188 0.101291016 -0.14804253 0.4261395
0.14863417 -0.44941074 0.73741466 0.08032543 -1.442899 -1.4115808 -1.0563259 -0.3768148
-0.07467695 -0.03427621 0.009017071 -0.10853988 -0.25943422 0.18251644 0.19105136 0.27483407
0.18791224 -1.8614335 -0.2842753 0.22221959 0.41401735 1.3899243 -0.009300179 0.60720456
0.19145769 -0.09419244 0.020146001 -0.14465797 -0.2848854 0.11458105 -0.09259985 0.11990657
0.14551398 -0.58568305 -0.82755756 -0.9535905 1.6906828 0.103866905 -0.48005307 -0.21736945
0.082444295 0.027029326 -0.14236914 0.008224671 0.21076833 0.051074363 0.18911153 0.18556851
0.9848932 -1.0489073 -0.045169123 0.9195333 -0.77654624 1.2801112 0.29363558 0.23407376
-0.14214225 -0.13008119 -0.030926421 -0.12272066 -0.3067162 -0.2387048 0.09573936 0.09941683
-0.11886753 0.47892183 -0.110728696 -1.4267943 0.40532956 -0.5566255 1.5358641 -0.5038176
0.10364385 -0.25637087 0.10885413 -0.04183846 0.016481606 0.18206766 -0.26825103 0.10337522
0.5645287 -0.63997227 1.0631812 -0.5452848 1.2908585 0.38154906 -0.28222796 -0.58291864
-0.17521864 -0.31894904 0.046010714 0.12119591 -0.015375666 0.040780086 0.044769257 0.33621442
0.15616181 -1.6975907 -0.104885854 0.90938336 0.15856737 -0.012796442 -0.44163755 1.2864121
-0.27468255 0.093512625 0.22568162 -0.2506032 -0.103922576 0.051611915 0.2794841 0.14808647
0.8916674 0.2903477 0.7658856 1.222438 0.94210416 -0.91786927 -0.7689431 0.4944902
-0.0702681 -0.035091218 -0.20037287 -0.17201924 0.038164254 -0.020881925 0.13469477 -0.18175873
00000000: 3e76 01bf 174a 4d3f 88b3 573f be3a babf
00000010: b78a a63e 9f8e 893e 9f25 07bf 2137 ddbe
00000020: fd91 1e3d 1755 68bd 3ead c4bd 56f6 d8bd
00000030: b486 35be b28e 3b3b 5b91 e3bd 1f17 c23c
00000040: c2c7 91be 967c 323f db6e 623f 3e8c 653e
00000050: 7b7e b13e 0df9 90bf 508f 12bf 6128 b4bd
00000060: e62a d33d 1382 b43d 14f7 dbbd 94b4 0f3e
00000070: 1757 803d 7f9a 1bbe 1678 1bbd 7e5b 74bd
00000080: c2f7 4cbf 8a85 1b3f ffd3 86bf d6cd e33b
00000090: 7360 3abf 7145 82bf 9ccf cabe 1d9a 9abf
000000a0: 1914 91bd 0941 18be 3d82 bc3d 73a3 c9bd
000000b0: 00f9 42bd 2f0c d4bc ac08 c03c 1822 d8bd
000000c0: eefd 253f f41f 1d3d 754a ca3e 3b17 513e
000000d0: e8ef a0bf 5b47 a63e b996 39bf cd57 a73f
000000e0: eed4 f73c d1c7 4ebe a35c 90bc 1159 0c3d
000000f0: 156e 5c3e 4da6 c6bd fbbf 62be f7c0 853e
00000100: 1ac4 bebe cbc6 06be d852 3c3f 9887 aa3f
00000110: 8797 8a3e 0541 ad3f fdcd a6bf 4228 e93d
00000120: 9e9f 0a3e 281b 0ebe e55e afbd 4078 d33d
00000130: 8b17 5abe 0ab3 013e 4815 c9bd 0d22 333e
00000140: 6cb4 ab3e 4eee c9bf 55d7 23bf d2e2 d8be
00000150: 1de8 60bf 21cb 19bf caae 9f3f aea7 d2be
00000160: 22a1 9f3c 28ec 483e 8ab6 a03d 5da9 bebd
00000170: dd12 11be 9fd0 18bd 68ed 11be 11ee 713e
00000180: e741 0fbf c255 1abc 882b 603e eb02 8f3d
00000190: 4aae c4be 404f 453f 9d48 5ebf eabc 02bf
000001a0: a3cd 8fbe 3d7c d0bd 6bec ef3d cd8c 1fbd
000001b0: b858 4dbb 2bf4 403e 2721 6f3b fb69 22bd
000001c0: 6223 8dbe 8eb0 e13e 41f7 d4be 8e62 8cbe
000001d0: d955 54be d099 7b3f 6226 863f 3b2e 7f3e
000001e0: f99b 3b3e 17e6 28be 2f1b a0be c233 a8bd
000001f0: c260 a7bc aa71 cf3d 7698 17be f52e da3e
00000200: 8e33 183e 2a19 e6be 35c7 3c3f a981 a43d
00000210: eab0 b8bf aeae b4bf b035 87bf dfed c0be
00000220: 3bf0 98bd 3665 0cbd 56bc 133c 284a debd
00000230: 90d4 84be 97e5 3a3e f8a2 433e 0db7 8c3e
00000240: 116c 403e 7443 eebf 888c 91be 888d 633e
00000250: 15fa d33e 0ae9 b13f c75f 18bc c271 1b3f
00000260: 7c0d 443e f7e7 c0bd 3a09 a53c 3821 14be
00000270: 80dc 91be 78a9 ea3d fda4 bdbd 9391 f53d
00000280: 9e01 153e 53ef 15bf d0da 53bf 821e 74bf
00000290: 4b68 d83f 2cb8 d43d 84c9 f5be 1996 5ebe
000002a0: 8ed8 a83d 9b6c dd3c 37c9 11be c5c0 063c
000002b0: a7d3 573e 5a33 513d 74a6 413e ac05 3e3e
000002c0: f621 7c3f 9842 86bf 4203 39bd 8966 6b3f
000002d0: bccb 46bf afda a33f 6757 963e 08b1 6f3e
000002e0: bd8d 11be 0134 05be 6859 fdbc f854 fbbd
000002f0: e809 9dbe 086f 74be ff12 c43d 0d9b cb3d
00000300: d270 f3bd 3e35 f53e bac5 e2bd 32a1 b6bf
00000310: 5b87 cf3e 027f 0ebf 3297 c43f 31fa 00bf
00000320: 3a43 d43d 0b43 83be eaee de3d ce5e 2bbd
00000330: 6f04 873c f26f 3a3e 3358 89be 63b6 d33d
00000340: f484 103f 39d5 23bf 5216 883f c997 0bbf
00000350: da3a a53f 665a c33e 2f80 90be 283a 15bf
00000360: 846c 33be 4a4d a3be bb75 3c3d 9035 f83d
00000370: 38ea 7bbc 0509 273d f85f 373d 4c24 ac3e
00000380: e2e8 1f3e a74a d9bf 65ce d6bd 59cd 683f
00000390: 7c5f 223e 2ba8 51bc 511e e2be 27a9 a43f
000003a0: 31a3 8cbe 8c83 bf3d 1519 673e 104f 80be
000003b0: 5cd5 d4bd 0467 533d 8a18 8f3e fba3 173e
000003c0: 5144 643f 74a8 943e 1411 443f d978 9c3f
000003d0: bd2d 713f 7bf9 6abf 74d9 44bf d22d fd3e
000003e0: b9e8 8fbd cfbb 0fbd 8c2e 4dbe d025 30be
000003f0: 1f52 1c3d 9210 abbc 6ded 093e f61e 3abe

fc_layers.0.bias f4 [64]
-0.7209785 -0.8858395 -0.6376188 -0.085278116 -0.3663647 -0.123075694 -0.5158736 -0.6176953
0.03371475 -0.9257954 -0.49932456 -0.5198083 0.26938087 -0.52560246 0.04204322 0.5532595
-0.4547954 -0.20258099 -0.113650605 -0.5561295 -0.20578267 0.178523 -0.19908586 0.69665766
-0.69738346 -0.4472823 0.0020752978 -0.88102645 0.54770833 -0.7975352 -0.023748048 -0.61723197
0.31381735 0.30936524 0.83208174 -0.50352496 0.022312367 -0.15857644 -0.5567618 -0.40634888
-0.32484767 -1.0376041 -0.019771738 -0.3386505 -0.4103295 -0.7601579 -0.5577826 -0.59537727
-0.62444687 0.23793584 -0.79850245 -0.4049901 -0.8358502 -0.33710372 -0.21534106 -0.48546132
-0.22258769 -0.81421983 -0.11764398 0.7903851 -0.30208665 0.09179972 -0.6549358 -0.53747797
00000000: 0c92 38bf 61c6 62bf fc3a 23bf 4ba6 aebd
00000010: 2794 bbbe 1c0f fcbd 4b10 04bf 4721 1ebf
00000020: 7a18 0a3d ed00 6dbf 78a7 ffbe 2812 05bf
00000030: 4aec 893e e28d 06bf 8335 2c3d 6aa2 0d3f
00000040: f1da e8be 6471 4fbe a6c1 e8bd 815e 0ebf
00000050: b1b8 52be bcce 363e 2add 4bbe 2858 323f
00000060: b987 32bf 3002 e5be b801 083b f38a 61bf
00000070: 9d36 0c3f 442b 4cbf 448b c2bc ea02 1ebf
00000080: abac a03e 1f65 9e3e 4f03 553f 03e7 00bf
00000090: 6dc8 b63c dd61 22be f187 0ebf f60c d0be
000000a0: 6f52 a6be 36d0 84bf 57f8 a1bc 9963 adbe
000000b0: b516 d2be b599 42bf d7ca 0ebf a56a 18bf
000000c0: c0db 1fbf 74a5 733e a86a 4cbf dd5a cfbe
000000d0: 47fa 55bf dc98 acbe 5e82 5cbe 638e f8be
000000e0: 07ee 63be b670 50bf 54ef f0bd ae56 4a3f
000000f0: 1aab 9abe 7e01 bc3d dfa9 27bf 2898 09bf

fc_layers.1.weight f4 [32, 64]
-0.28600708 0.31263453 0.23266277 0.13295272 0.7839051 -0.24364594 0.029624881 -0.14983466
-0.26174092 0.33104688 -0.35139033 -0.07544648 -0.20730981 -0.191245 -0.19644366 -0.18364504
0.47088206 0.013379417 0.08250256 0.15990688 -0.32976946 0.048279617 0.5644376 -0.026912058
-0.28139696 -0.050459497 -0.24335353 0.048953447 -0.72622555 -0.27466294 -0.5831635 0.18918003
-0.09534273 -0.098369315 -0.46917865 0.30128556 -0.7768683 -0.17365034 0.15321487 0.112105116
-0.32749906 -0.18661131 0.085419185 0.26710948 -0.31237376 -0.5772989 0.037388206 0.39719102
-0.208045 -0.26780137 -0.098784946 0.1537362 0.44171655 0.8996357 0.11802308 -0.042818755
0.20890568 0.39064884 -0.3192716 0.35035518 0.34405595 0.0479065 -0.24686117 -0.099134825
0.16309088 0.18053778 -0.05905407 0.17311072 0.46668708 -0.058534756 0.24693294 0.14307238
-0.085066006 -0.20779617 -0.35520846 -0.06826068 0.25939676 -0.39967465 0.09725185 -0.022186887
0.40108103 0.17241234 -0.17570455 0.07544458 0.09113473 -0.37681046 -0.017976511 0.06485638
0.09065571 0.13011913 0.19336022 -0.09019102 0.27900806 -0.118825845 -0.0073702806 0.41796744
-0.364454 0.21845035 -0.055854313 -0.3785508 0.19568457 0.3138739 0.12522434 -0.8234297
-0.6459189 -0.16725656 -0.21741971 0.14023401 -0.46183902 0.4302173 -0.40074727 0.25315037
-0.19670127 -0.2136842 0.106024615 0.42650574 -0.35017067 0.35243303 0.44134825 0.016539555
-0.16109976 -0.2303284 -0.09005233 -0.42037314 0.12519518 0.28833354 -0.67072994 0.19420846
0.13470882 0.14041688 -0.16771652 0.4196703 0.37257317 -0.558425 -0.29714572 -0.2814929
0.052798133 -0.58256936 0.044742145 0.24166508 0.49272355 -0.9185717 0.118272364 0.18680707
-0.21742538 -0.51110744 -0.35077575 -0.47932404 0.06916428 -0.21149223 -0.52331614 0.005130819
0.309854 -0.12266311 -0.07652862 -0.05251397 -1.0605255 -0.07484165 -0.67718166 0.36142352
-0.51018345 -0.057727 -0.043261718 0.37961856 -0.040235076 0.04764884 -0.46181163 -0.53478813
-0.07990152 0.3030246 -0.8246641 0.680104 -0.8508094 -0.10915114 -0.045105707 0.34072077
-0.27097479 -0.118413016 0.081693895 0.18626982 -0.18159977 0.77356267 0.21957615 -0.03171246
-0.16794673 0.06575381 -0.044717792 0.07057876 0.004775953 -0.14499593 -0.48849133 -0.05055614
-0.3891329 -0.31064433 -0.6677739 0.17621413 -0.18500543 0.32337496 -0.14273262 0.216579
-0.14980681 0.38674432 0.2978648 0.026283203 -0.087385416 0.021566615 0.52299774 0.2650706
0.363632 0.094099715 -0.031031359 -0.39134178 -0.25421226 -0.33837855 -0.9229254 0.4522504
0.75675434 0.18667775 -0.18026906 -0.6097061 0.11867003 -0.5041684 0.5501484 0.104678504
-0.0726537 0.021950725 0.2804832 0.63670164 0.078329764 0.16397806 -0.18141656 -0.4481121
-0.03025609 -0.09175144 -0.14877231 -0.004015249 0.75755036 0.2257621 -0.35957646 -0.24181487
-0.2850181 0.25097078 -1.0821177 -0.009177174 -1.0504247 -0.2617294 0.08418598 -0.31535974
0.3210263 0.08204063 0.8048453 -0.12229522 -0.2875559 -0.018859167 -0.06879318 -0.2493116
00000000: 856f 92be a211 a03e 263f 6e3e c224 083e
00000010: 01ae 483f 527e 79be e1af f23c 426e 19be
00000020: e802 86be fa7e a93e 6fe9 b3be af83 9abd
00000030: 0649 54be bbd5 43be 8728 49be 720d 3cbe
00000040: 7417 f13e 5835 5b3c 1af7 a83d a1be 233e
00000050: 8bd7 a8be d9c0 453d fc7e 103f ad76 dcbc
00000060: 4313 90be 9eae 4ebd ab31 79be 6983 483d
00000070: ebe9 39bf 9fa0 8cbe 344a 15bf 69b8 413e
00000080: 0d43 c3bd da75 c9bd 2f38 f0be 1a42 9a3e
00000090: d7e0 46bf 65d1 31be 5ce4 1c3e 5e97 e53d
000000a0: f5ad a7be 0917 3fbe 41f0 ae3d 93c2 883e
000000b0: 74ef 9fbe dcc9 13bf 6024 193d 9f5c cb3e
000000c0: c009 55be 431d 89be c34f cabd 066d 1d3e
000000d0: ac28 e23e 864e 663f 16b6 f13d b862 2fbd
000000e0: 5feb 553e 2003 c83e 9177 a3be c161 b33e
000000f0: 1a28 b03e 9b39 443d 2dc9 7cbe 3307 cbbd
00000100: 4c01 273e e5de 383e aee2 71bd f043 313e
00000110: 9cf1 ee3e 24c2 6fbd fddb 7c3e 9181 123e
00000120: 1637 aebd 85c8 54be e2dd b5be 41cc 8bbd
00000130: a7cf 843e 28a2 ccbe fa2b c73d 46c1 b5bc
00000140: 7e5a cd3e dc8c 303e e5eb 33be b082 9a3d
00000150: d8a4 ba3d 4ded c0be 7a43 93bc 6cd3 843d
00000160: b3a9 b93d f33d 053e 3900 463e 12b6 b8bd
00000170: 25da 8e3e f75a f3bd 6582 f1bb d4ff d53e
00000180: b799 babe 73b1 5f3e 7ec7 64bd 69d1 c1be
00000190: 8961 483e 14b4 a03e cf3a 003e 4acc 52bf
000001a0: f15a 25bf 4e45 2bbe 46a3 5ebe 8199 0f3e
000001b0: 2a76 ecbe 7145 dc3e bf2e cdbe ed9c 813e
000001c0: 0f6c 49be 08d0 5abe 6f23 d93d f65e da3e
000001d0: 9249 b3be 1a72 b43e 66f8 e13e f67d 873c
000001e0: 56f7 24be 35db 6bbe 5b6d b8bd 263b d7be
000001f0: 2a33 003e 74a0 933e f5b4 2bbf 95de 463e
00000200: 1cf1 093e 71c9 0f3e e1bd 2bbe 07df d63e
00000210: e9c1 be3e f1f4 0ebf 7c23 98be d61f 90be
00000220: db42 583d 4423 15bf 8a43 373d 0d77 773e
00000230: 4346 fc3e 8427 6bbf c838 f23d 5a4a 3f3e
00000240: c2a4 5ebe f0d7 02bf e198 b3be f669 f5be
00000250: 01a6 8d3d 6b91 58be 0cf8 05bf 6e20 a83b
00000260: 2fa5 9e3e cc36 fbbd 0abb 9cbd e318 57bd
00000270: 4dbf 87bf 9446 99bd c75b 2dbf 810c b93e
00000280: 629b 02bf 2673 6cbd 3333 31bd 5d5d c23e
00000290: 89cd 24bd 6e2b 433d 9372 ecbe e0e7 08bf
000002a0: 68a3 a3bd 0a26 9b3e 301d 53bf 4c1b 2e3f
000002b0: a5ce 59bf a28a dfbd c3c0 38bd f472 ae3e
000002c0: 35bd 8abe 8682 f2bd 214f a73d 84bd 3e3e
000002d0: 4af5 39be 3408 463f 92d8 603e ede4 01bd
000002e0: 3afa 2bbe efa9 863d 012a 37bd 998b 903d
000002f0: 997f 9c3b d079 14be 891b fabe f413 4fbd
00000300: 6d3c c7be c60c 9fbe 3bf3 2abf 7a71 343e
00000310: 1072 3dbe 6791 a53e 8028 12be e3c6 5d3e
00000320: f566 19be 5a03 c63e bc81 983e df4f d73c
00000330: 20f7 b2bd 78ac b03c 2ee3 053f 55b7 873e
00000340: f92d ba3e 5ab7 c03d 7a35 febc f35d c8be
00000350: 1c28 82be f43f adbe d744 6cbf 5d8d e73e
00000360: a7ba 413f 7428 3f3e 7498 38be b315 1cbf
00000370: 4609 f33d 2e11 01bf 87d6 0c3f af61 d63d
00000380: 77cb 94bd 02d2 b33c 7e9b 8f3e e1fe 223f
00000390: 5b6b a03d dde9 273e 43c5 39be f36e e5be
000003a0: 9fdb f7bc 2ee8 bbbd c557 18be 5a92 83bb
000003b0: d2ee 413f 2e2e 673e 681a b8be 519e 77be
000003c0: e4ed 91be 3e7f 803e d582 8abf dc5b 16bc
000003d0: 5174 86bf 6501 86be b369 ac3d d576 a1be
000003e0: 8f5d a43e eb04 a83d 570a 4e3f eb75 fabd
000003f0: 873a 93be 8a7e 9abc 70e3 8cbd 8a4b 7fbe

fc_layers.1.bias f4 [32]
-0.182776 0.21978651 -0.3069629 0.11490069 -0.07427615 0.0046677925 -0.12799409 -0.11155505
-0.09115533 -5.7635742e-36 0.12428756 -0.12737149 -0.22978769 -0.17584777 -0.29038665 0.12511007
-0.56899935 -5.7386215e-36 -0.5184574 -5.695797e-36 -0.42923975 -0.385732 -0.12249062 -0.053242907
-0.07761063 -0.1370411 0.29862434 -0.022883521 -0.24662142 -0.4467464 -0.62480116 -0.21599445
00000000: a229 3bbe b70f 613e 3e2a 9dbe 0e51 eb3d
00000010: 181e 98bd 48f4 983b e210 03be f976 e4bd
00000020: a5af babd c427 f584 7a8a fe3d ac6d 02be
00000030: 774d 6bbe 7011 34be 8fad 94be db1c 003e
00000040: f1a9 11bf 0e18 f484 a0b9 04bf bd45 f284
00000050: 50c5 dbbe aa7e c5be 5ddc fabd 3c15 5abd
00000060: 52f2 9ebd 8154 0cbe 4ae5 983e 3976 bbbc
00000070: 538a 7cbe f2bb e4be f8f2 1fbf a62d 5dbe

fc_layers.2.weight f4 [16, 32]
-0.5903202 -0.20430636 -0.5136203 -0.1666682 0.22913927 -0.7322253 0.28521848 -0.6529928
-0.27910423 -5.7379392e-36 -0.053638376 -0.13117062 -0.14863919 0.08014435 -0.48153454 0.20743665
0.9242412 5.8201664e-36 0.42380482 5.7884914e-36 -0.024237083 -0.7739023 -0.37789932 -0.066407695
-0.020077284 0.42860946 0.5665074 -0.37346363 0.31586626 0.8308068 1.6179428 -0.099031344
0.24938782 0.20915444 0.2749901 0.4075443 -0.20473734 0.6518653 -0.17999469 0.2487116
-0.11950657 -5.7287065e-36 0.062123086 -0.45760527 0.035036426 0.2736862 -0.55395967 -0.5356666
0.432496 -5.702612e-36 0.25138038 -5.7815112e-36 0.3599694 0.099504694 -0.3544889 0.25718573
0.015926683 -0.5256238 -0.08166533 -0.31595892 0.3895242 0.043415245 0.45214596 -0.3602614
-0.10805612 -0.43152472 0.063080035 -0.23179285 0.14482975 -0.36044878 -0.2880955 0.50787145
-0.6035243 -5.6951004e-36 -0.024534151 0.28518307 0.16518259 0.078864165 0.43754482 0.11645154
0.56974614 5.7899888e-36 0.77199847 -5.728748e-36 0.07981551 -0.036100004 0.10299566 0.041238215
-0.096179314 -0.57617325 0.22123381 0.38176817 0.35865083 1.3035383 1.190477 -0.09717153
0.5170861 -0.03981949 0.42292148 0.4542452 -0.35158268 -0.4291435 -0.10437209 -0.5270924
0.057973564 5.753459e-36 0.0655524 0.025708523 0.24164757 -0.5557592 0.29215017 -0.5578974
-0.68268836 5.7295172e-36 -0.18919185 -5.6929466e-36 -0.5584233 0.39795595 -0.17681442 0.3053411
0.011238835 0.25846148 0.23707247 0.27893406 -0.70593816 -0.7894783 -0.4984393 -0.18856658
0.22339879 0.097560585 -0.20813218 -0.42297864 0.41371703 0.012284055 0.24888428 0.61417794
0.0047723795 -5.695781e-36 0.31252635 0.016613485 0.21544436 0.20501873 -0.7673706 0.33540675
0.6100009 -5.693987e-36 0.34089634 -5.7660333e-36 0.19171228 -1.2350558 0.3523775 -0.14988036
-0.21809664 -0.0636151 -0.2262894 -0.15612762 0.21581797 0.87291044 0.73917806 0.2566286
0.34496254 -0.35606778 -0.17235161 -0.256928 -0.7424621 -0.09200849 -0.39407435 0.2640807
-0.29710257 -5.701114e-36 -0.14059095 -0.23464896 -0.0614227 -0.42599288 -0.07746259 -0.2163455
0.969752 -5.690837e-36 0.6060232 -5.7179173e-36 -0.57829547 0.41330788 -0.42021036 0.20288947
-0.2825703 -0.389017 -0.4816634 -0.9004396 0.08848403 -0.91272175 -0.43058828 0.14056467
0.058284286 -0.6640233 -0.17586108 0.42347777 -0.118324846 -0.87276375 0.2694844 0.25739852
-0.11949474 -5.708054e-36 -0.75089616 0.096846595 0.23664324 0.1776784 -0.06714053 -0.029073615
0.3133786 -5.7705623e-36 0.8545946 -5.802226e-36 0.515984 0.19124287 0.12574652 -0.1664249
-1.0284605 -0.18818688 0.36687988 -0.06439036 0.44414607 0.3766216 1.2336687 0.062274203
-0.045451753 -0.2867719 -0.8511828 -0.42724782 0.4768657 -0.10970597 -0.14280348 0.43083525
0.17191555 -5.793665e-36 0.12368087 0.23699933 0.10774112 0.120644435 -0.30933887 0.3003816
0.60892403 -5.7032182e-36 0.21781094 -5.778814e-36 0.28836438 -0.31770083 0.24008496 -0.48473585
-0.40222722 0.19847773 0.12996857 -0.14762399 -0.053921726 1.4507496 1.1318825 0.18770151
00000000: 3a1f 17bf b035 51be 9f7c 03bf 12ab 2abe
00000010: 7ca3 6a3e 1e73 3bbf 2808 923e 892a 27bf
00000020: c0e6 8ebe a010 f484 eab3 5bbd 9751 06be
00000030: df34 18be b922 a43d b28b f6be 466a 543e
00000040: 129b 6c3f 0090 f704 f2fc d83e 1737 f604
00000050: d98c c6bc 761e 46bf 057c c1be c200 88bd
00000060: 1e79 a4bc b372 db3e a106 113f a036 bfbe
00000070: 39b9 a13e c1af 543f c018 cf3f f2d0 cabd
00000080: 855f 7f3e 952c 563e 81cb 8c3e a6a9 d03e
00000090: aaa6 51be a5e0 263f 8750 38be 41ae 7e3e
000000a0: dcbf f4bd 17ac f384 c774 7e3d 3d4b eabe
000000b0: 5b82 0f3d 9920 8c3e 4dd0 0dbf 7221 09bf
000000c0: 1e70 dd3e f28f f284 eeb4 803e 15eb f584
000000d0: e94d b83e 1ec9 cb3d 927f b5be d9ad 833e
000000e0: ad78 823c 488f 06bf 2740 a7bd 5ec5 a1be
000000f0: b76f c73e 2fd4 313d ad7f e73e 2f74 b8be
00000100: 874c ddbd cff0 dcbe 1b30 813d 1b5b 6dbe
00000110: 404e 143e be8c b8be 4181 93be dd03 023f
00000120: 9280 1abf 273e f284 d8fb c8bc 8403 923e
00000130: a025 293e 8983 a13d e005 e03e 257e ee3d
00000140: e2da 113f 6547 f604 b1a1 453f 8bac f384
00000150: 5076 a33d 99dd 13bd 63ef d23d 67e9 283d
00000160: a9f9 c4bd 1780 13bf 1e8b 623e 1e77 c33e
00000170: 15a1 b73e 58da a63f 8d61 983f de01 c7bd
00000180: c15f 043f c319 23bd 2a89 d83e d492 e83e
00000190: a502 b4be b2b8 dbbe 09c1 d5bd 87ef 06bf
000001a0: b075 6d3d 9fb9 f404 5640 863d ae9a d23c
000001b0: 7672 773e 3c46 0ebf b594 953e 5dd2 0ebf
000001c0: aac4 2ebf ebb4 f304 82bb 41be b326 f284
000001d0: d4f4 0ebf e2c0 cb3e d70e 35be ab55 9c3e
000001e0: 1723 383c 1055 843e 20c3 723e 72d0 8e3e
000001f0: 5db8 34bf 401b 4abf 7033 ffbe 9917 41be
00000200: a7c2 643e d8cd c73d 9a20 55be a890 d8be
00000210: b8d2 d33e 1043 493c 85db 7e3e c43a 1d3f
00000220: 9f61 9c3b 9045 f284 7403 a03e 0119 883c
00000230: 729d 5c3e 6ef0 513e 6672 44bf 6fba ab3e
00000240: 0529 1c3f 0732 f284 f789 ae3e 8b42 f584
00000250: 3950 443e 4f16 9ebf d36a b43e 3d7a 19be
00000260: ba54 5fbe a248 82bd 69b8 67be ebdf 1fbe
00000270: 63ff 5c3e 0f77 5f3f c63a 3d3f d364 833e
00000280: ee9e b03e 844e b6be f17c 30be 118c 83be
00000290: ff11 3ebf f26e bcbd 1dc4 c9be 9635 873e
000002a0: d41d 98be a27f f284 13f7 0fbe d147 70be
000002b0: 5e96 7bbd bd1b dabe b5a4 9ebd ad89 5dbe
000002c0: ab41 783f ba0f f284 5624 1b3f 9b36 f384
000002d0: 2c0b 14bf 179d d33e d025 d7be 42c2 4f3e
000002e0: 0ead 90be 3c2d c7be 969c f6be 3683 66bf
000002f0: 1d37 b53d 22a8 69bf 1176 dcbe 2ff0 0f3e
00000300: 81bb 6e3d 6efd 29bf ed14 34be 14d2 d83e
00000310: 4c54 f2bd 726d 5fbf dcf9 893e bdc9 833e
00000320: a9b9 f4bd 34cb f284 bb3a 40bf 8257 c63d
00000330: 9b52 723e 54f1 353e f980 89bd ca2b eebc
00000340: 2973 a03e dc73 f584 b6c6 5a3f a5cc f684
00000350: 8717 043f 2cd5 433e b2c3 003e 4a6b 2abe
00000360: 98a4 83bf 10b4 40be aed7 bb3e 18df 83bd
00000370: 1d67 e33e 8cd4 c03e dbe8 9d3f 3c13 7f3d
00000380: 9e2b 3abd c4d3 92be 1ee7 59bf 3ac0 dabe
00000390: be27 f43e 86ad e0bd 133b 12be 7096 dc3e
000003a0: a10a 303e 6d6f f684 654c fd3d f4af 723e
000003b0: 60a7 dc3d 6e14 f73d aa61 9ebe 9ecb 993e
000003c0: 72e2 1b3f 8c96 f284 d509 5f3e b6cd f584
000003d0: 7fa4 933e afa9 a2be d5d8 753e 4c2f f8be
000003e0: baf0 cdbe bf3d 4b3e 7b16 053e be2a 17be
000003f0: 07dd 5cbd 2ab2 b93f 87e1 903f d334 403e

fc_layers.2.bias f4 [16]
0.047515046 0.34328884 -0.10222773 0.011903416 -0.011717598 -0.54239863 -0.40746462 -0.047324058
1.13908 0.03846498 -0.16172995 -5.5852498e-36 0.07076422 0.61028486 0.25033358 -5.5767205e-36
00000000: 239f 423d 8ec3 af3e c65c d1bd 8c06 433c
00000010: 2bfb 3fbc a3da 0abf 349f d0be dfd6 41bd
00000020: 60cd 913f 748d 1d3d 899c 25be fc91 ed84
00000030: d5ec 903d a13b 1c3f b92b 803e 1c35 ed84

fc_layers.3.weight f4 [8, 16]
-1.1456906 0.6132123 -0.20382582 0.14056073 -0.0842384 -0.9182561 -0.6739366 -0.48221537
0.6626552 0.14141826 0.23861302 -5.596765e-36 0.45512512 0.075725906 -0.102443784 6.847477e-36
0.27385408 -0.16440429 0.2387691 -1.1105005 0.31062523 0.4054623 0.2536364 0.34783942
0.045290723 -0.1398324 -0.38257697 -5.0989647e-36 0.12742707 -0.6990922 -0.047913577 5.371699e-36
-0.5664901 0.26233146 -0.54513264 0.14432797 -0.30055174 -0.6477172 -1.0218066 -0.1406283
0.34440094 0.3387679 0.17945494 -5.6221214e-36 0.30776697 0.17947766 0.2248454 6.204554e-36
-5.7272314e-36 -5.701772e-36 -5.782629e-36 -5.823687e-36 -5.731418e-36 -5.756754e-36 -5.7748646e-36 -5.79558e-36
-5.795428e-36 -5.7138582e-36 -5.7405572e-36 5.6602485e-36 -5.75655e-36 -5.740141e-36 -5.8104885e-36 -5.581978e-36
-0.4485099 -0.052421648 -0.42918012 0.3241497 -0.69328314 -0.4043128 -0.8983839 -0.1810852
0.4730091 0.029673228 -0.053664435 -5.6419715e-36 -0.21576916 0.16550286 0.11467068 -2.8262062e-36
-0.48126635 -0.19282143 -0.21363898 0.19325419 -0.7954539 -0.25585404 -0.83785653 -0.7225237
0.44539195 -0.3321302 0.06262573 -5.6276344e-36 -0.3906225 0.40829965 0.14295283 -2.367528e-36
-1.2765222 -0.078198634 -0.91204685 0.37696424 -0.10953901 -1.4383299 -0.002133626 0.25427717
-0.5813671 -0.1088486 0.18098566 -5.7576408e-36 0.6365094 -0.0031363545 0.6568263 2.5811884e-36
0.23202804 0.25760272 0.23690738 -0.90693736 0.22349982 0.6243157 0.43714648 0.018876376
0.4666906 0.1664128 -0.7941966 -5.7310393e-36 -0.5125446 0.37562582 -0.6339385 5.635415e-36
00000000: fda5 92bf 7bfb 1c3f b7b7 50be 27ef 0f3e
00000010: 2f85 acbd d512 6bbf 1c87 2cbf efe4 f6be
00000020: c5a3 293f f3cf 103e f956 743e 600f ee84
00000030: 2906 e93e 2f16 9b3d 0cce d1bd 36a1 1105
00000040: 9a36 8c3e 9959 28be e37f 743e e124 8ebf
00000050: 450a 9f3e c198 cf3e a1dc 813e 0218 b23e
00000060: c482 393d 3a30 0fbe 21e1 c3be cfe2 d884
00000070: 3e7c 023e b5f7 32bf 0741 44bd 9f7c e404
00000080: 7f05 11bf 4f50 863e d08d 0bbf b6ca 133e
00000090: ebe1 99be cbd0 25bf 8fca 82bf dd00 10be
000000a0: 5255 b03e fc72 ad3e 09c3 373e 7b23 ef84
000000b0: a293 9d3e fec8 373e df3d 663e cef4 0305
000000c0: 079c f384 cd86 f284 41f7 f584 56b6 f784
000000d0: 9ec9 f384 80dd f484 b5a2 f584 4784 f684
000000e0: 9f82 f684 680a f384 222d f484 a6c2 f004
000000f0: 47db f484 9a28 f484 9e26 f784 5c6e ed84
00000100: 17a3 e5be 15b8 56bd 7fbd dbbe f3f6 a53e
00000110: 017b 31bf 1602 cfbe 7dfc 65bf 666e 39be
00000120: 402e f23e 4515 f33c 3dcf 5bbd a1fb ef84
00000130: 97f2 5cbe 9579 293e 76d8 ea3d 526d 7084
00000140: 8b68 f6be fb72 45be 2dc4 5abe 6de4 453e
00000150: dea2 4bbf 4dff 82be c47d 56bf 50f7 38bf
00000160: 6a0a e43e f80c aabe eb41 803d 835f ef84
00000170: acff c7be a70c d13e 3a62 123e 3268 4984
00000180: 1465 a3bf 9b26 a0bd e77b 69bf 7501 c13e
00000190: fd55 e0bd 321b b8bf 4ed4 0bbb 9e30 823e
000001a0: 79d4 14bf 04ec debd 4e54 393e 28e7 f484
000001b0: 48f2 223f 4c8b 4dbb c525 283f 4e95 5b04
000001c0: c298 6d3e 81e4 833e d997 723e 0c2d 68bf
000001d0: 23dd 643e 27d3 1f3f aad1 df3e a1a2 9a3c
000001e0: 12f2 ee3e 1e68 2a3e 7850 4bbf 7ec5 f384
000001f0: 1f36 03bf 0752 c03e cb49 22bf 3cb4 ef04

fc_layers.3.bias f4 [8]
0.34557766 -0.09708173 0.07998122 -5.754216e-36 0.4078337 0.4461389 -0.3830487 0.38669482
00000000: 8eef b03e c9d2 c6bd 32cd a33d ddc1 f484
00000010: 94cf d03e 516c e43e f61e c4be ddfc c53e

affine_output.weight f4 [1, 8]
-0.4968323 -0.2491417 -0.2743496 5.7584573e-36 -0.2912669 -0.39258775 0.3818762 0.6414624
00000000: ce60 febe 001f 7fbe 8d77 8cbe 0cf0 f404
00000010: ef20 95be 4301 c9be 4785 c33e e136 243f
