neural-collaborative-filtering/src/checkpoints/mlp_factor8neg4_bz256_166432168_pretrain_reg_0.0000001_Epoch41_HR1.0000_NDCG0.7839.model (torch, 298910 bytes, 12 tensors)

embedding_user.weight f4 [7700, 8]
000000 ab 69 f5 04 11 d4 f1 84 71 7c f3 84 7c 1a f5 04
       5.7696264e-36 -5.685358e-36 -5.7243307e-36 5.7623545e-36
000010 3c ce f2 84 e0 35 f7 04 df 3a f4 84 84 5d f6 84
       -5.7083323e-36 5.8118897e-36 -5.741819e-36 -5.7920203e-36
000020 fa 7d f2 84 6c 73 f2 04 6c 5d f4 04 1e 19 ee 04
       -5.7009618e-36 5.6999925e-36 5.744992e-36 5.5976598e-36
000030 08 3a f7 84 a1 e1 f3 04 59 3d f6 04 2f 00 f3 04
       -5.8122714e-36 5.7336233e-36 5.789066e-36 5.7129194e-36
000040 14 25 f5 84 1d 9d f4 04 d8 a9 eb 84 68 e0 f1 04
       -5.7633274e-36 5.750841e-36 -5.540421e-36 5.6864912e-36
000050 a6 4e f7 04 c6 5a f4 04 b9 66 f2 84 a0 2e f5 84
       5.8141648e-36 5.7447487e-36 -5.6988262e-36 -5.764204e-36
000060 9d c7 83 bf 77 03 87 3f 2b dd 66 3f 37 a0 84 be
       -1.0295292 1.0547932 0.90181226 -0.25903484
000070 22 39 58 bf 74 ef 6d 3f 8c 8e 90 bf 06 06 3b bf
       -0.8446218 0.929435 -1.1293502 -0.73056066
000080 8c 9b 83 be 34 69 35 be 65 70 ae 3e 88 10 e3 be
       -0.2570461 -0.17715913 0.34070125 -0.4434855
000090 6f 0a 1b bf a6 95 62 3f 8c 47 38 bf bb 67 06 c0
       -0.60562795 0.88509595 -0.7198417 -2.1000812
0000a0 1f f3 b1 bf 60 14 8d 3f 1f 0b a1 3f 89 b0 d8 be
       -1.390232 1.1021843 1.2581519 -0.42322186
0000b0 fd 8d cb bf a9 2a 14 3f c8 48 5b bf e9 76 6f bf
       -1.5902706 0.57877594 -0.8565793 -0.9354082
0000c0 f0 85 ad bf d7 1f 31 bf 9f 9a c9 bd 43 37 0a be
       -1.35565 -0.6918921 -0.09843945 -0.13497643
0000d0 35 d1 3b bf 25 7c 86 3f 42 6e 1d bf 6e dc 75 bf
       -0.733661 1.0506636 -0.61496365 -0.96039474
0000e0 94 f1 58 3e 1d ff 3e 3e 88 b0 fb 3e 66 65 05 40
       0.21185905 0.18652005 0.4915812 2.0843139
0000f0 3f b3 98 bf dc 58 f0 3e 62 1f 1e 3f d5 22 6f c0
       -1.1929702 0.46942794 0.61766636 -3.736501
000100 ae 24 92 3f 6a ba 0b 3f 62 6d 13 3f e2 3b 65 bf
       1.1417444 0.5458132 0.5758878 -0.895445
000110 23 61 8c be f0 53 30 3e 11 e9 a6 bf dd c9 4e bf
       -0.2741786 0.1721952 -1.3039876 -0.8077677
000120 a3 09 bf bf 0d 29 58 3f 52 47 4e 3f 91 f3 72 bf
       -1.4924816 0.8443764 0.80577576 -0.949029
000130 96 d5 e3 be 76 5b d0 3f 7f b4 45 bf c8 5b 35 bf
       -0.4449889 1.6277912 -0.7722854 -0.7084317
000140 ef 38 1a 3f 09 77 92 3e 53 f1 0a 40 14 31 0a bf
       0.60243124 0.28606442 2.1709793 -0.5398114
000150 07 b0 09 c0 86 49 09 40 5d e2 44 bf d9 14 b6 bf
       -2.1513689 2.1451125 -0.769079 -1.4225112
000160 28 6e 80 be 41 ac 08 be 94 ec 83 3f ae 84 98 be
       -0.25084043 -0.1334696 1.0306573 -0.29788727
000170 dd 55 01 c0 19 32 a2 bf 60 55 78 bf 52 b8 21 c0
       -2.0208657 -1.2671539 -0.9700527 -2.526875
000180 65 af 89 bf 42 5a 9a 3f 14 24 80 3e d6 19 1a bf
       -1.0756651 1.2058794 0.25027525 -0.6019567
000190 fe 60 b6 bf 3c 98 36 3f 0b 63 a4 bf 28 3d f8 be
       -1.424835 0.7132604 -1.2842726 -0.4848416
0001a0 23 5f 0f bf 67 7c af 3e 4a 6e 22 3e ca c9 5a 3f
       -0.5600454 0.342746 0.15862384 0.85464156
0001b0 de a2 fc bf 19 97 d3 3f 85 4b 60 bf 59 7f 18 bf
       -1.9737203 1.6530486 -0.87615234 -0.5956932
0001c0 5d 54 5e be 9b 59 8f 3f b8 39 21 3f 63 cb 67 bf
       -0.2171187 1.119922 0.62978697 -0.9054472
0001d0 aa 82 b0 bf 7b 0e ac 3f 8d fb 0b bf d7 5c 9b be
       -1.3789876 1.3441919 -0.5468071 -0.3034427
0001e0 2a c0 f6 84 14 26 f6 84 94 24 f4 84 90 8f f5 84
       -5.8010797e-36 -5.786929e-36 -5.7397716e-36 -5.7731065e-36
0001f0 a6 ba ef 84 a3 c5 f5 04 d6 93 f0 04 ab 1a f7 04
       -5.636004e-36 5.7780724e-36 5.6559495e-36 5.809391e-36
000200 f1 70 91 bf 97 99 25 3f 12 63 13 3f d5 70 9f be
       -1.1362592 0.64687485 0.57573044 -0.31140772
000210 d8 ab b2 bf df cc a9 3f 4d 8c 78 bf 4b 6a 25 bf
       -1.3958693 1.3265647 -0.9708908 -0.64615315
000220 29 79 7e bf 49 da b0 3f 92 b6 f5 3d 71 a7 5f bf
       -0.99403626 1.3816615 0.11997713 -0.8736487
000230 b5 a2 9f bf 31 dd 29 3f a5 75 2a bf 5e 4a d4 be
       -1.2471529 0.66353136 -0.6658576 -0.41462988
000240 6f 6a af bf 87 1a 4b 3f df 84 6c 3e 72 35 61 bf
       -1.3704356 0.7933735 0.23097561 -0.87972176
000250 d0 e6 3a bf 96 19 5a 3f 56 1a b9 bf fb 63 d0 be
       -0.7300844 0.8519529 -1.4461162 -0.4070128
000260 75 a3 c7 bf 73 90 85 3e 3d 1e 99 3f 6e 39 99 3b
       -1.5596758 0.26086769 1.1962353 0.0046760356
000270 90 65 c7 3d 3c d2 02 40 7e 3c b7 bf 68 29 64 bf
       0.097361684 2.0440817 -1.4315336 -0.8912568
000280 5d c3 4d bf c8 29 8e 3f d4 7d 22 3f 49 37 cb be
       -0.80376226 1.1106501 0.6347325 -0.39690617
000290 42 25 64 bf 8c 35 3d 3f cd 0d b4 bf 02 d6 4d bf
       -0.8911935 0.7390983 -1.4066712 -0.80404675
0002a0 40 5f dc bf 6a 46 46 3f af e2 02 3f 51 93 8d bf
       -1.7216568 0.77451193 0.5112714 -1.1060582
0002b0 3a a6 08 bf dc 3b b2 3f ec e2 4b bf ce 47 62 bf
       -0.5337864 1.3924518 -0.7964313 -0.88390815
0002c0 9d 6f 60 bf cc cb 57 3f 57 cb 68 3f 30 02 ca be
       -0.8767031 0.84295344 0.9093527 -0.39454794
0002d0 44 ef 36 bf 8d 3c 2c 3f f2 3f 95 bf 4c a5 23 bf
       -0.7145884 0.67279893 -1.166014 -0.639241
0002e0 8c 26 6e bf 55 29 90 3f 5a 95 67 3f d2 58 e7 be
       -0.9302757 1.1262614 0.9046227 -0.45184952
0002f0 98 ac 4a bf 4b 33 bb 3f 9f d2 34 bf a2 e0 ca bd
       -0.7916961 1.4625028 -0.7063388 -0.099061266
000300 d0 3c 5e bf 42 9d 0e 40 4e 7a 96 3d 0e 90 93 bf
       -0.8681154 2.2283483 0.073475465 -1.1528337
000310 72 6f ca 3e ed 21 eb 3c 58 92 af be 5b 9e 3b bf
       0.3953815 0.0287027 -0.3429134 -0.73288506
000320 5a c5 d8 bf f5 ba dc be 23 8c 25 3e 40 1a 27 bf
       -1.6935227 -0.43111387 0.16166739 -0.6527443
000330 c4 ca f2 bf 55 f0 c5 3f 73 23 ab be 1a af a7 bf
       -1.8968129 1.5463969 -0.33425483 -1.3100312
000340 28 a3 6c bf 49 03 4b 3f 92 63 87 3f 87 28 c7 be
       -0.92436457 0.7930189 1.0577261 -0.38898107
000350 ef f8 2e bf 21 ae 0b 3f 5b a2 85 bf ba ca 80 bf
       -0.6834859 0.54562575 -1.0440172 -1.0061867
000360 ac 2f 97 bf 02 ec 48 3f 04 79 36 3f 63 f3 07 bf
       -1.1811423 0.7848512 0.71278405 -0.53105754
000370 bf 06 95 bf 11 1b f3 3e ea ad a5 bf 9a 23 7b bf
       -1.1642684 0.47481588 -1.2943699 -0.981012
000380 d6 a1 f4 04 14 ea f3 84 d4 bd f5 04 6d e5 f2 84
       5.7512747e-36 -5.7343992e-36 5.7773553e-36 -5.710462e-36
000390 b8 53 f2 04 ba d9 f5 04 60 54 f7 04 ae 6a f0 04
       5.697081e-36 5.7799173e-36 5.8146907e-36 5.65217e-36
0003a0 a6 31 f5 84 20 6c f4 84 9b 66 f3 84 c8 79 f6 84
       -5.7644818e-36 -5.746342e-36 -5.7223254e-36 -5.794616e-36
0003b0 e7 03 f5 84 2e c3 f6 84 81 92 f7 04 ce 9a f6 84
       -5.7602807e-36 -5.8013566e-36 5.8203964e-36 -5.7976488e-36
0003c0 45 c6 6e bf ab 71 83 3f 1e cd 33 3f a0 25 09 bf
       -0.93271285 1.0269064 0.7023486 -0.53573036
0003d0 ab 5f 82 bf 9d 38 0b 3f a5 4b 9c bf bf a6 6d bf
       -1.0185446 0.5438326 -1.2210585 -0.9283256
0003e0 e5 42 da 3e 93 fa 0a 3f 97 80 b7 3f b2 7c b2 be
       0.4262916 0.54288596 1.4336118 -0.3486076
0003f0 50 54 0b c0 44 6c c7 3f 3e f8 32 bf f0 16 4a bf
       -2.177021 1.5579915 -0.6991004 -0.7894125

embedding_item.weight f4 [8, 1024]
000000 11 c4 18 3e 92 46 53 3e 04 bf 96 3e 03 2d a6 3e
       0.14918543 0.20632389 0.29442608 0.32456216
000010 cf 83 1c 3e ab 2d 07 3e 75 47 6f 3d 23 3c 22 be
       0.15284656 0.13201015 0.058417756 -0.15843253
000020 f6 1f 93 3e ae c2 2c be d6 42 d2 3d 6d f1 1a 3e
       0.28735322 -0.1687114 0.10266654 0.15131159
000030 c9 d6 61 3d 33 8d 89 3d ae 02 4b bc da 8c 55 3b
       0.055136476 0.06716385 -0.012390776 0.0032585175
000040 31 94 ea be dc a1 56 be e1 78 19 3e 83 58 9d be
       -0.45816186 -0.20960182 0.14987518 -0.30731592
000050 1c 19 13 bc fe 48 a3 bd 16 1e 73 be e0 29 d4 bd
       -0.0089781545 -0.079729065 -0.23741946 -0.103595495
000060 36 40 b0 3d 06 e9 a2 3c c6 8c 30 be 88 6d 04 3d
       0.08605997 0.019886505 -0.17241201 0.03233102
000070 a5 0c 8c 3d 7f f9 0d be 44 96 a2 3b be 80 df 3d
       0.06838349 -0.13864706 0.0049617607 0.109132275
000080 b0 a9 3f bd ba 1a b1 bd 5a dc a4 be e8 b7 56 bd
       -0.046792686 -0.08647676 -0.32199365 -0.05242148
000090 c0 1e df 3d f1 cc 79 3d c6 ba 1c be 05 4c c7 bd
       0.10894537 0.060986463 -0.15305623 -0.097312964
0000a0 a8 12 ab bd 09 66 9a bd af 55 89 be 38 27 3f 3c
       -0.08353168 -0.07538993 -0.26823184 0.011667065
0000b0 aa 2a 01 3e 6a 90 35 be df 9d 7d be e9 63 73 be
       0.12613931 -0.17730871 -0.24767254 -0.23768581
0000c0 b0 4f 94 3e 21 5c 2a be 6c 29 87 bb 0f 29 46 be
       0.28967047 -0.16636707 -0.004124811 -0.193516
0000d0 58 09 37 3e c9 78 2f 3e ff 03 14 3e 81 65 e4 bd
       0.17874658 0.1713592 0.1445465 -0.11152173
0000e0 f5 c3 10 3e 2d 9a 6d be be a0 c9 3d d2 24 78 3d
       0.14137252 -0.23203345 0.09845112 0.06058199
0000f0 6f 42 37 3c 65 a5 d9 bd 50 84 04 3d 40 2d 29 bc
       0.011185273 -0.1062725 0.032352746 -0.01032573
000100 56 06 82 be 9a d4 97 3d 4a d7 1a be 8c 43 42 3e
       -0.2539546 0.074135974 -0.15121189 0.1897108
000110 4d 1b c8 bd 91 85 a0 bd 5c ae 21 3e ad d9 2e 3e
       -0.09770832 -0.07837976 0.15789169 0.17075224
000120 00 d8 bb bc 46 b0 75 be c6 86 9c bb 0a d1 d4 bd
       -0.022930145 -0.23993024 -0.0047768084 -0.103914335
000130 2e 88 81 be 23 bb 34 3d 64 76 73 be 4b 26 be 3d
       -0.2529921 0.04412378 -0.23775631 0.092846476
000140 4f cb 83 bd b9 f7 5f be c2 6f 0d 3e ab b8 b0 3d
       -0.064352624 -0.21871842 0.13812163 0.086289726
000150 30 09 4d bd 58 06 ac bd a1 3a 54 3e 2e 56 51 bd
       -0.05005759 -0.083996475 0.2072549 -0.051107578
000160 d6 f7 3a 3e 42 d7 59 3e 94 c6 b0 3d 2a c8 fa 3e
       0.18258604 0.2127352 0.08631626 0.48980838
000170 38 49 1f 3e 78 3e 05 bf 81 af 59 be 2e 8a 1b be
       0.15555274 -0.52048445 -0.21258356 -0.1518943
000180 b6 35 95 bd ab 93 e6 bd 38 46 8b bd 96 35 49 3d
       -0.07285635 -0.11258634 -0.068005025 0.04912337
000190 b8 0a d3 bd e5 4e 05 be c7 aa 43 bd df a6 5c 3e
       -0.10304779 -0.13018377 -0.047770288 0.21548031
0001a0 de 9d 6f 3d 11 e6 a1 be 59 45 8b be df 14 28 bc
       0.058500163 -0.3162084 -0.27201346 -0.010258882
0001b0 3a 61 fa 3d b0 c0 64 3e 7b 9e 17 3e 08 c5 6d be
       0.12225576 0.2233913 0.14806549 -0.23219693
0001c0 2d 6b 11 be 97 0e 71 3e e5 1c 03 3e 8b 1d c1 be
       -0.1420104 0.23540722 0.12803991 -0.37717852
0001d0 79 34 b0 bd 38 a3 78 bd 7b fc 23 bd 96 66 8d 3d
       -0.08603758 -0.060702533 -0.040035706 0.06904332
0001e0 3d 36 49 bd 0a 33 83 3c 07 90 5c be b3 fc f6 bd
       -0.04912399 0.016015548 -0.21539317 -0.12059917
0001f0 7f 15 10 be 1b b2 5f 3e a6 8e 7e 3e 70 b7 fc 3e
       -0.140707 0.21845286 0.24859104 0.49358702
000200 a9 bd 29 bd 35 c5 00 3e 67 41 90 3b c9 e9 4d bd
       -0.04144064 0.12575229 0.004402328 -0.050271783
000210 2c 81 19 3e e9 58 11 3e 63 51 b2 3c 47 0f dd 3d
       0.14990681 0.14194073 0.021767324 0.107939295
000220 48 0e 1d 3e cc ff 8f 3e 88 9d c5 3d c8 1c 5d 3e
       0.15337479 0.28124845 0.09649187 0.2159301
000230 58 75 c9 bb 50 ea d9 bd f9 94 30 ba 7a 06 75 be
       -0.0061480217 -0.10640395 -0.0006736066 -0.23928252
000240 95 b4 d1 bc 7c 86 7c 3e 03 c4 2f be cd 0a 0a be
       -0.025598804 0.24660677 -0.17164616 -0.13480683
000250 44 b2 da 3b 22 88 5b bd fc 52 09 3d ec 97 93 3d
       0.006674083 -0.053596623 0.033526406 0.07206711
000260 e0 a3 97 3e db b2 0a be 83 3d 3c 3e fa ec 3b 3e
       0.29617214 -0.1354479 0.1838284 0.18352118
000270 9e 13 53 3e 4e d3 fe 3d f1 15 97 3d 58 7a ac 3d
       0.20612952 0.12442647 0.07377232 0.08421773
000280 72 fc 2e 3e 67 8c 56 3d 9f 38 71 3d 30 9f 85 be
       0.17088488 0.05237999 0.05889189 -0.26098013
000290 e0 c2 b5 3d a0 12 7f 3e 85 38 7b bc 78 1f 46 be
       0.0887506 0.24909449 -0.0153332995 -0.19347942
0002a0 01 4c 89 3e 62 31 f5 3c 4b 06 92 be e8 48 9c 3e
       0.268158 0.029930774 -0.28520426 0.30524373
0002b0 93 41 18 be 7b ab 0e 3d 88 2f b0 be a8 28 14 be
       -0.14868765 0.034831505 -0.34411263 -0.14468634
0002c0 43 11 21 3e 37 5f b5 be 54 fd 32 3e cf 96 a0 3d
       0.15729241 -0.35424206 0.1747945 0.078412645
0002d0 b3 f9 1c bb 45 0d b2 3e 88 71 f9 bd 6e db 82 be
       -0.0023952543 0.3477575 -0.121798575 -0.25558037
0002e0 c6 1a ac 3c 2d 96 c2 ba a4 cd 41 3e 41 a9 a9 3d
       0.02100886 -0.0014845781 0.18926102 0.08284236
0002f0 1b f1 23 3e 3d 34 9c 3d bf ff 7a bd 51 28 88 3d
       0.16009943 0.07627151 -0.061279055 0.06648315
000300 1c dc 32 bd b9 69 0d 3d 6e ad 6c be b6 bc 73 bd
       -0.043666944 0.034524653 -0.23113033 -0.05950614
000310 b6 c8 ca bd f2 da 78 3d a5 2b 15 be f1 d9 89 3d
       -0.09901564 0.060755678 -0.1456743 0.06731022
000320 c3 58 1d be c3 0a d0 bd 42 68 5e be d5 48 ec bd
       -0.15365891 -0.10158303 -0.21719459 -0.11537329
000330 17 54 29 be 92 e1 65 3d c2 d4 67 bd 54 a2 90 bc
       -0.16535984 0.056123324 -0.056599386 -0.01765553
000340 3b 86 98 bc 3c 8d 1f 3e 75 de f9 bd 28 66 3c 3d
       -0.018618694 0.1558122 -0.122006334 0.04599586
000350 62 23 44 3e c8 c9 3c be 56 7e 89 bd 86 c3 cb 3e
       0.19154122 -0.18436348 -0.0671355 0.3979761
000360 9b e4 21 3e 08 90 03 bd e0 f6 4a be e6 69 1c 3e
       0.15809862 -0.03211978 -0.19820738 0.15274772
000370 95 ef 05 bc 88 9b 87 3e bb 75 b7 be 8c 63 2d 3e
       -0.008174797 0.26485848 -0.3583201 0.16932505
000380 b7 eb ca 3d 91 0a 8a 3d b0 90 8d bc a3 db ff bc
       0.0990824 0.06740297 -0.017280906 -0.03123266
000390 f5 8f d4 3b 3b 00 c7 bd 38 b1 99 bb 96 ec 05 3e
       0.0064868876 -0.09716841 -0.0046903156 0.13078532
0003a0 87 0e 35 bd 0d 10 e3 3d a9 06 23 3e 36 7b d6 3d
       -0.044203307 0.11087046 0.1592051 0.10472719
0003b0 ae 77 14 3e ab fe d5 3c 3b af 35 3e fb 16 cd 3d
       0.14498779 0.026122412 0.17742626 0.10014149
0003c0 00 81 e7 39 09 c0 a9 3e f3 ae 22 bd cc b9 58 3e
       0.00044155866 0.33154324 -0.039717626 0.21164626
0003d0 5b 6b d8 3c 5f 54 c4 be 5f 98 d2 3d c1 ab 93 3e
       0.026418379 -0.3834562 0.10282969 0.28841975
0003e0 a5 07 3c be 0f 16 39 be 2e 99 ed 3d f1 1b 1d be
       -0.18362291 -0.18074821 0.11601482 -0.1534269
0003f0 73 9e d1 bd 1e 3c 92 3e 69 b0 58 bd d0 20 2a 3d
       -0.102353 0.2856149 -0.052902613 0.0415352

embedding_item.bias f4 [8]
000000 58 04 0c 3e f7 24 8a bd 46 37 72 3d 18 57 7e 3d
       0.13673532 -0.06745332 0.059134744 0.062094778
000010 5f 23 37 bc 79 99 e0 bd b4 13 01 3e e5 32 85 bc
       -0.011177867 -0.109667726 0.12605172 -0.01625962

fc_layers.0.weight f4 [64, 16]
000000 7d 42 bd be 9a df 16 3f b4 b4 25 3f c2 f0 99 bf
       -0.3696479 0.5893494 0.64728856 -1.2026598
000010 ce b4 70 3e 25 da 49 3e 11 b8 c3 be 82 88 83 be
       0.23506472 0.19712122 -0.3822637 -0.25690085
000020 13 8c 70 3d 3f 24 0f bd 40 44 a9 bd 1e 2b ed bd
       0.058727335 -0.034946676 -0.08264971 -0.115804896
000030 9a 0e 0a be 5b d5 a3 bc 9e 07 c8 bd 1b 7c c8 bb
       -0.13482133 -0.019999197 -0.09767078 -0.00611831
000040 5b ff 8f be 93 29 2a 3f a7 f2 61 3f 4c 0a 51 3e
       -0.28124508 0.6646969 0.88260883 0.20414084
000050 6c 86 0e 3e b6 a3 67 bf b5 e6 b9 be 07 5a 0d be
       0.13918465 -0.9048418 -0.36308828 -0.13803874
000060 d2 a3 b1 3d f6 74 a9 3d f2 70 cb bd 10 dd ea 3d
       0.08673824 0.08274262 -0.09933652 0.114679456
000070 bd b8 2c 3d fd ea 0f be 14 a6 a0 bd d9 99 b5 bd
       0.042168368 -0.14054485 -0.07844177 -0.08867235
000080 de 15 3d bf ab 5a 04 3f 00 a5 32 bf 2d 3e dc 3c
       -0.7386149 0.5170085 -0.6978302 0.026885116
000090 b3 50 32 bf dd 2d 37 bf be 4a a8 be c1 3d 80 bf
       -0.6965439 -0.71554357 -0.32869524 -1.0018846
0000a0 25 89 a1 bd e8 5e f3 bd aa 80 8f 3d e4 ee e8 bd
       -0.07887486 -0.11883336 0.070069626 -0.1137369
0000b0 a7 61 2d bc d5 86 89 bc 39 40 49 3c 33 d2 ab bd
       -0.010582364 -0.016787926 0.012283378 -0.08389702
0000c0 cb 46 01 3f f3 ab 3b 3d 12 18 ba 3e f1 3b 2b 3e
       0.50498646 0.04581828 0.3634649 0.16722085
0000d0 84 65 81 bf a5 a8 90 3e db ab 18 bf b1 d9 87 3f
       -1.0109105 0.28253666 -0.5963723 1.0613309
0000e0 8a 38 f7 b9 c5 a3 54 be e4 06 d7 3b a4 71 1e 3d
       -0.00047153636 -0.20765598 0.0065621007 0.038682595
0000f0 d5 5d 5a 3e 04 34 6a bd a5 05 66 be b0 09 87 3e
       0.21324857 -0.057178512 -0.2246309 0.26374578
000100 dc 00 5a be 3d dc bd bd ec 38 39 3f 36 6a 8a 3f
       -0.2128939 -0.09270523 0.7235248 1.0813663
000110 b4 b8 1f 3e d2 9d 86 3f 2e dc 82 bf fb 3e 0d 3e
       0.15597802 1.0516913 -1.0223444 0.13793556
000120 d0 a3 12 3e e9 cd df bd 05 fa dc bd a3 a2 cc 3d
       0.14320302 -0.10927946 -0.10789875 0.09991958
000130 57 c1 49 be cd fc f3 3d 30 1b de bd a8 06 32 3e
       -0.1970266 0.11913452 -0.10845029 0.17385352
000140 f5 15 c1 3e fd da ab bf 16 17 0b bf d7 cb a1 be
       0.37712064 -1.3426205 -0.543321 -0.3160083
000150 2b 98 31 bf c3 aa 05 bf 6e 8b 6c 3f 1a 4e a1 be
       -0.69372815 -0.52213687 0.9240025 -0.315049
000160 ed a7 32 3d 9d a8 59 3e 15 1c a6 3d fb 11 b4 bd
       0.043617178 0.21255727 0.08110825 -0.08792492
000170 6e 3d 0f be b0 28 2c bd 43 0f f6 bd b1 55 52 3e
       -0.13988277 -0.04203099 -0.1201463 0.20540501
000180 5e 7b 38 bf 56 af 35 3e bc fe 4f 3e 63 07 72 3d
       -0.72063243 0.17742667 0.20312017 0.059089076
000190 e9 b9 98 be 27 58 16 3f 45 ae 3c bf cc 5c ff be
       -0.29829338 0.5872826 -0.73703414 -0.49875486
0001a0 47 5f 5f be 4b df de bc f9 89 cf 3d b8 7c cc bc
       -0.21813689 -0.027206084 0.10133738 -0.024961814
0001b0 82 8d 8b bc 30 29 ba 3d e1 92 aa bc 26 40 8d bc
       -0.01703525 0.09089887 -0.02082199 -0.017242502
0001c0 1e ca 9b be d7 cc ab 3e cd 7d 99 be ff a5 80 be
       -0.3042764 0.33554718 -0.2997879 -0.25126645
0001d0 9a 23 64 be f4 86 37 3f 09 6f 3b 3f da 12 14 3e
       -0.22279206 0.716903 0.732163 0.14460316
0001e0 ac 92 25 3e fd ff 1f be 39 a5 9c be 19 b6 3f bd
       0.16169232 -0.15624996 -0.30594805 -0.04680452
0001f0 f1 3f d6 bb 00 33 0f 3e da cf 04 be f9 de b1 3e
       -0.006538384 0.13984299 -0.12969914 0.34740427
000200 25 94 10 3e 15 27 a1 be d8 36 2f 3f 02 cf 88 3d
       0.14119013 -0.3147513 0.6844306 0.066801086
000210 5e 33 9c bf f7 60 84 bf df fe 68 bf ab 93 ae be
       -1.2203176 -1.0342091 -0.910139 -0.34097037
000220 c3 08 5d bd f3 e8 d5 bc 5f 1f 20 bc 79 47 9a bd
       -0.053963434 -0.026112055 -0.009773104 -0.075331636
000230 47 b0 58 be ee 9f 23 3e d5 b7 30 3e 7a 76 7b 3e
       -0.21160994 0.15978977 0.17257626 0.24556914
000240 6d ae 11 3e 03 fe b3 bf 6e 93 9f be 1e 4a 06 3e
       0.14226694 -1.4061893 -0.31167167 0.13114211
000250 e4 77 04 3f af 6a 90 3f 62 1e 5a bc 78 77 fd 3e
       0.5174544 1.1282557 -0.013312908 0.4950521
000260 11 38 27 3e a1 52 c4 bd 43 05 3d 3c 81 02 08 be
       0.16329981 -0.09586073 0.011536899 -0.13282205
000270 d3 04 80 be 9a cc ad 3d fa 4b 8f bd b7 14 03 3e
       -0.2500368 0.0848629 -0.06996913 0.12800871
000280 6c fb d4 3d da a2 18 bf fe b7 2e bf 18 3e 30 bf
       0.103995174 -0.5962349 -0.682495 -0.6884475
000290 b6 9c ad 3f 0b a0 7d 3d a5 a8 ec be 92 3b 7e bb
       1.3563449 0.061920207 -0.46222416 -0.003879283
0002a0 b4 72 98 3d 5f ca 98 3c eb 9c f6 bd f9 1c 85 3c
       0.07443753 0.018651186 -0.120416485 0.016249167
0002b0 bb a5 69 3e 64 a0 5a 3d 89 e3 16 3e 95 ac 4c 3e
       0.22817127 0.053375617 0.14735235 0.1998771
0002c0 01 b7 53 3f de 69 54 bf 73 da 2b 3e a2 2e 32 3f
       0.82701117 -0.8297404 0.1678255 0.69602406
0002d0 15 7a 14 bf a4 e1 7d 3f 66 18 c9 3e 01 55 c6 3d
       -0.5799878 0.99172425 0.39276427 0.09684182
0002e0 37 7a fd bd 3e d0 a5 bd 90 01 83 bd 56 20 b0 bd
       -0.12376826 -0.0809636 -0.063967824 -0.085999176
0002f0 99 3b 92 be 54 e1 4a be 7e 0e 9d 3d c5 36 a1 3d
       -0.28561094 -0.19812518 0.0766878 0.078717746
000300 18 8d fd bd df 15 ae 3e b7 e5 69 bd 5d 3c 85 bf
       -0.12380427 0.3400106 -0.05710384 -1.0409046
000310 80 d5 88 3e 57 f5 e6 be 5a f5 99 3f 26 67 da be
       0.26725388 -0.45109054 1.2028 -0.4265682
000320 96 d2 db 3d 33 ee 59 be 66 6e ca 3d 80 42 6f bc
       0.107335255 -0.21282272 0.09884338 -0.014603257
000330 00 a4 e7 3c ae a1 33 3e 6e 24 77 be 97 2e e3 3d
       0.028276443 0.17542145 -0.2413499 0.11092871
000340 67 b8 b5 3e 1c 6c d5 be 15 23 74 3f 09 26 00 bf
       0.3549225 -0.41684043 0.9536603 -0.5005804
000350 50 09 6a 3f 86 65 ca 3e 4b 9c a4 be f6 11 d8 be
       0.9142046 0.3953058 -0.32150492 -0.42201203
000360 0c 48 2e be 6d e3 90 be 6f f4 10 3d 29 f4 d9 3d
       -0.17019671 -0.28298512 0.03538936 0.10642273
000370 e6 37 25 bc 23 82 9d 3d b5 df 92 3d 62 09 aa 3e
       -0.010084128 0.07690837 0.07171575 0.33210284
000380 78 93 12 3e 11 d1 b9 bf c6 a3 fc 3d 81 dc 30 3f
       0.14314067 -1.4516927 0.12335925 0.6908646
000390 92 61 e3 3d ac 5c 14 bc 32 01 b6 be ce 26 7a 3f
       0.111025944 -0.009055298 -0.35547787 0.9771546
0003a0 55 e6 7c be 77 a3 b2 3d 20 3d 44 3e 50 9c 83 be
       -0.2469724 0.08722585 0.19163942 -0.25705194
0003b0 f1 31 cd bd 17 1a c7 3c 6f 6f 82 3e c1 81 13 3e
       -0.10019291 0.024304433 0.25475642 0.14404966
0003c0 d0 fb 26 3f b7 b9 51 3e 1d 24 1d 3f 75 e4 80 3f
       0.65227985 0.20481001 0.6138323 1.006972
0003d0 81 d9 40 3f 38 3f 47 bf 47 81 01 bf 70 e2 c4 3e
       0.75331885 -0.7783084 -0.50587887 0.38454008
0003e0 69 65 c9 bd 5e 46 b0 bc 8a 8a 5d be 73 79 26 be
       -0.098337956 -0.021517929 -0.2163488 -0.16257267
0003f0 e0 a0 23 3d 1c c4 10 bd 99 94 14 3e 6b 2a 25 be
       0.039948344 -0.035343274 0.1450981 -0.16129462

fc_layers.0.bias f4 [64]
000000 c1 fd 21 bf da e1 58 bf 5f 1f f9 be 80 ec 0b 3e
       -0.6327782 -0.8471962 -0.48656747 0.13664436
000010 f0 7c 67 be 8d dd fd bd a3 49 d6 be f7 1a e6 be
       -0.22606254 -0.12395773 -0.41853055 -0.44942448
000020 1d cd a2 3d 2b cb 42 bf 46 5f e4 be 5b d5 c1 be
       0.079492785 -0.7609126 -0.44603938 -0.3785809
000030 8d bf 45 3e 4c 8f a6 be fa 1d 09 3e 3e 22 ee 3e
       0.19311352 -0.32531202 0.13390341 0.465105
000040 b5 85 a9 be 9f cc d4 bd 55 5c e8 bd 93 ef e0 be
       -0.33109823 -0.10390591 -0.11345736 -0.4393278
000050 26 36 78 be 37 98 63 3e 9a a1 5f be a8 0e 3c 3f
       -0.24239406 0.22226034 -0.2183899 0.73459864
000060 8c fa 09 bf 12 83 8f be 16 cc 64 bc 79 cf 2c bf
       -0.5389793 -0.28029686 -0.0139646735 -0.6750408
000070 3b 3d c4 3e 38 80 1e bf 05 37 b3 bc d6 c0 f2 be
       0.38327965 -0.61914396 -0.021876821 -0.47412747
000080 37 76 77 3e 92 09 ef 3d 01 62 19 3f 71 50 e1 be
       0.24166189 0.11671747 0.5991517 -0.44006684
000090 73 06 a0 3d f6 06 de bd 03 dd c4 be 79 fe 79 be
       0.0781373 -0.108411714 -0.3844987 -0.2441348
0000a0 7a 3e 6f be 5d 20 38 bf 7d ee 42 bd 1b 20 bf bd
       -0.23363677 -0.7192438 -0.04759072 -0.093322955
0000b0 8e 8f bd be bd 65 f6 be 7b 1d b2 be 00 de 10 bf
       -0.37023586 -0.48124495 -0.34788117 -0.56588745
0000c0 58 ad 0e bf cc c0 48 3e de b3 2c bf 78 b1 c7 be
       -0.5573325 0.19604796 -0.67461956 -0.39002585
0000d0 01 c7 21 bf b5 06 e9 bd 1f cd 7b be c2 f0 cd be
       -0.6319428 -0.113782324 -0.24589966 -0.40222746
0000e0 f4 ca 30 be cc c7 3f bf 62 d9 1c bd ce 9b 09 3f
       -0.1726492 -0.7491424 -0.03829325 0.53753364
0000f0 e4 b1 5d be c0 04 1e 3c 67 b5 10 bf 06 c4 c8 be
       -0.21649891 0.009644687 -0.565268 -0.39212054

fc_layers.1.weight f4 [32, 64]
000000 f6 42 57 be 99 90 92 3e 77 c5 8e 3e 23 43 ff 3d
       -0.21021637 0.28625944 0.2788503 0.12463977
000010 56 49 24 3f 75 d9 5b be 42 bb 8e bc cc 81 0a bd
       0.641744 -0.21469672 -0.017423276 -0.03381519
000020 cd e2 6d be 87 80 e4 3d f1 e7 73 be 7e 0b 00 be
       -0.23231049 0.11157327 -0.23818947 -0.12504384
000030 88 9e ed bd f8 3b 82 bd ce 10 1e be 15 91 7e be
       -0.11602503 -0.063590944 -0.15436098 -0.24860032
000040 c6 6d c7 3e 59 ae 83 3d 46 52 4f 3d d6 e9 9e 3d
       0.38950938 0.064297386 0.05061557 0.077594444
000050 4c d5 74 be 50 10 6e 3c d2 64 d8 3e 07 b0 00 bd
       -0.23909491 0.014530256 0.4226442 -0.031417873
000060 39 c0 3a be ae d4 e3 3c f3 cd 74 be 62 dc 5d 3d
       -0.1823739 0.027811375 -0.23906688 0.05416525
000070 37 ad 13 bf f4 7a 54 be ae 43 04 bf 3d 85 1d 3e
       -0.5768618 -0.20750028 -0.5166577 0.15382858
000080 f3 e7 a5 bd 9d 9d 53 be a8 92 d4 be a8 6b 90 3e
       -0.081008814 -0.20665593 -0.4151814 0.28207135
000090 dd cb 01 bf d4 93 fa bd 0f db 93 3d 2c a0 de 3d
       -0.50701696 -0.12235227 0.072195165 0.10870394
0000a0 2b 54 84 be 9e b2 32 be 30 2a 3e 3d d1 76 be 3e
       -0.25845465 -0.1745095 0.046426952 0.37200025
0000b0 ec fd 84 be e5 ba 01 bf 6a 41 91 3d 6f 69 ca 3e
       -0.25974977 -0.50675803 0.07092555 0.39533564
0000c0 c6 50 24 be e9 34 50 be 64 b1 ed bd 47 2e 57 3e
       -0.16046438 -0.20332684 -0.116061 0.21013747
0000d0 5d 95 b8 3e 65 d3 42 3f 4e 9a 28 3e c5 af 28 bc
       0.36051455 0.7610381 0.16465113 -0.010295813
0000e0 3d fe 44 3e d0 fe 89 3e 65 7e c0 be 3d 70 a5 3e
       0.19237609 0.2695222 -0.3759643 0.32312194
0000f0 ec 37 92 3e 35 46 c4 3c aa 9d e5 bd a5 d1 ba ba
       0.2855829 0.023959259 -0.11211713 -0.0014253153
000100 cf 24 06 3e fb b6 26 3e f0 cb 07 bd cf bf 9d 3e
       0.13099979 0.16280739 -0.033153474 0.308104
000110 66 ec 8d 3e 59 77 f3 bd 2f 26 05 3e c0 14 98 3d
       0.2771942 -0.11887998 0.13002847 0.07425833
000120 42 c2 aa bd 28 c4 30 3d 2b 6e 99 be e5 4b 15 bd
       -0.08337833 0.04315582 -0.29966864 -0.03644933
000130 49 ae 38 3e 62 6f cf be 36 6b 61 3d b6 6e 96 3c
       0.18035235 -0.40514666 0.055033885 0.018363338
000140 cb 12 c5 3e c1 c4 25 3e db 2e 53 be f1 cb e6 3d
       0.384909 0.16188337 -0.20623343 0.112693675
000150 6f ad 4b 3d f8 d6 95 be 9e 1f 9c bc 58 eb 8b 3d
       0.049725946 -0.2926557 -0.019058045 0.06831998
000160 cb c1 ae bc 52 2d cb bd 00 fe 35 3e d7 f5 6e 3d
       -0.021332642 -0.099207535 0.17772675 0.05833992
000170 d9 0c 6a 3e 9a 93 e4 bd 35 87 95 3d 29 5d 9b 3e
       0.22856463 -0.11160965 0.07301179 0.30344513
000180 fd 38 ba be e5 a7 9f 3e 30 88 3d bd ab e3 b5 be
       -0.36371604 0.3118278 -0.046272457 -0.3552526
000190 b7 61 27 3e 34 16 58 3e ea 98 45 3e b9 c3 0a bf
       0.16345869 0.2110222 0.19296613 -0.542049
0001a0 c8 7d df be 8f eb 00 be 53 ff 65 be ad 1d f5 3c
       -0.4365065 -0.12589858 -0.2246068 0.029921377
0001b0 6e 12 a7 be 61 83 a1 3e da 86 8e be e2 6f 55 3e
       -0.32631248 0.31545547 -0.2783726 0.20843461
0001c0 33 4b 92 be 47 e3 1b be 54 87 81 3d 17 ea a5 3e
       -0.28572997 -0.15223418 0.0632464 0.3240516
0001d0 d9 4f e2 be 06 33 4d 3e cd 90 85 3e 8b 67 a1 3c
       -0.44201544 0.20038995 0.26087037 0.019702693
0001e0 fa 18 8b be cb aa 5a be b8 92 51 be 84 e9 e3 be
       -0.27167493 -0.21354215 -0.20466125 -0.44514096
0001f0 b8 39 08 3e 23 65 4e 3e 19 5b 11 bf b9 f8 bd 3d
       0.13303268 0.20155768 -0.5677963 0.09275956
000200 23 2e 38 3e 14 1e 24 3e ba ba 5c be 8d f0 b7 3e
       0.1798635 0.16027099 -0.21555606 0.35925713
000210 6d 0e a3 3e 09 40 e3 be ad 0c 89 be ad 6c 00 be
       0.31846943 -0.44384792 -0.26767483 -0.12541457
000220 31 e2 47 3d 35 5f f3 be e5 91 07 3e 13 51 3d 3e
       0.048799697 -0.47533575 0.13239248 0.18487959
000230 ca 47 c8 3e d0 b7 33 bf 05 68 0c 3e 40 89 23 3e
       0.3911727 -0.7020235 0.13711555 0.15970325
000240 7a 04 03 be 09 c2 86 be 97 96 74 be ed 93 c0 be
       -0.12794676 -0.26319912 -0.2388557 -0.37612858
000250 51 fb 56 3e 4d 67 47 be 9e 5d c1 be 33 e8 e6 3c
       0.20994307 -0.19473 -0.37766737 0.028186893
000260 e0 8a 4c 3e df e9 3a be 12 c4 17 be c9 c0 3e bd
       0.19974852 -0.18253277 -0.14820889 -0.046570573
000270 5e 77 33 bf df fa a5 3b da ce ec be 83 77 b3 3e
       -0.70104015 0.0050653066 -0.46251565 0.35052118
000280 f5 1d 03 bf 0c 1e c9 bd a0 e7 66 bd fa 35 92 3e
       -0.51217586 -0.09820184 -0.05637324 0.28556806
000290 90 75 51 be ea 8a 06 bc be f2 bc be dc cc 01 bf
       -0.20455003 -0.008211831 -0.36903948 -0.50703216
0002a0 63 15 ff bd 72 31 6c 3e 26 a9 17 bf 16 1f 1f 3f
       -0.12455251 0.23065737 -0.59242475 0.6215681
0002b0 cb 1e f9 be d8 32 13 be 50 8f 32 bd 62 65 92 3e
       -0.48656306 -0.14374864 -0.043593705 0.28592974
0002c0 96 4b ad be 7e d9 dd bd 4a 4f 60 3d b8 e7 6f 3e
       -0.3384673 -0.10832499 0.054763116 0.23428237
0002d0 23 e7 c1 bd 79 77 24 3f 19 f6 bf 3d ce 27 23 bd
       -0.09467914 0.642448 0.09373111 -0.039832883
0002e0 74 4b 9c bd 7c b3 55 3b ed 1d cc bd be 37 1e bc
       -0.07631579 0.0032608202 -0.099666454 -0.009656845
0002f0 50 a0 98 3d 38 54 21 be 4f ab 8a be ac a8 7b bc
       0.07452452 -0.15754783 -0.27083823 -0.015360039
000300 7c b0 7b be 51 69 9b be 60 4c 0c bf 9d 95 23 3e
       -0.24579042 -0.30353788 -0.5480404 0.15975042
000310 1a 90 1f be a0 92 8a 3e aa cb b5 bd eb 26 52 3e
       -0.15582314 0.2706499 -0.088767365 0.20522659
000320 f1 dd 47 be 96 53 b0 3e 61 6d 4f 3e 2a 89 78 bd
       -0.19518258 0.3443877 0.20256568 -0.060677685
000330 d3 0a 20 3d 9f 1e cc bd 89 39 01 3f 06 56 81 3e
       0.039072823 -0.09966778 0.50478417 0.25260943
000340 1f 11 d6 3d 70 fc d3 3d a0 87 d8 3b e6 7b b3 be
       0.10452484 0.10350883 0.0066079646 -0.35055465
000350 d1 11 c4 be 40 25 a8 be f7 0f 38 bf 54 e8 f2 3e
       -0.38294843 -0.3284092 -0.7189936 0.47442877
000360 8e 40 f7 3e 6e 24 eb 3d 7e 7e 27 be 31 36 23 bf
       0.4829144 0.11481558 -0.16356847 -0.63754565
000370 02 14 fc 3d 1e 15 da be b0 43 cf 3e e6 8a bf 3c
       0.12308504 -0.42594236 0.4048133 0.023381662
000380 06 01 9f bd 2a 7b 60 3d ab aa 74 3e f7 ac e7 3e
       -0.07763867 0.05480496 0.2389323 0.4524915
000390 b8 ef 00 3e 65 63 ba 3d ec d2 f4 bd cf 21 e9 be
       0.12591445 0.09100989 -0.11954293 -0.45533606
0003a0 49 20 41 3c 54 af 84 bd cd 8f fe bd f7 0a 36 3d
       0.011787483 -0.06478754 -0.124297716 0.04444405
0003b0 82 36 30 3f a2 b4 57 3e 8f 91 b1 be 3c 50 af be
       0.6883317 0.21065 -0.34681365 -0.342409
0003c0 26 3e a8 be d6 65 47 3e 65 c6 31 bf 94 bf 10 bd
       -0.32859915 0.19472441 -0.6944335 -0.035338953
0003d0 a2 64 60 bf b2 65 8f be bb ea fe 3d be d6 b4 be
       -0.87653553 -0.28007275 0.12447115 -0.35320085
0003e0 bb e2 73 3e e7 0b 1e be 64 3b 22 3f cc c4 28 be
       0.2381696 -0.15434228 0.6337187 -0.16481322
0003f0 23 71 5d be 8b ac 3d 3d a9 21 ab bc 85 9c 80 be
       -0.2162519 0.046307128 -0.020890074 -0.25119415

fc_layers.1.bias f4 [32]
000000 f1 bc 27 be 87 00 09 3e da 34 6a be 62 37 bd 3d
       -0.16380669 0.13379107 -0.22871724 0.09239079
000010 18 bf 8c bd 69 b8 42 bc 20 97 03 be 80 e0 fe bd
       -0.06872386 -0.011884787 -0.12850618 -0.12445164
000020 11 39 e7 bd c4 27 f5 84 8d be b7 3d 12 f2 52 bd
       -0.112901814 -5.7635742e-36 0.089718916 -0.051500387
000030 a6 39 06 be c3 eb 03 be 59 b4 32 be 70 51 33 3d
       -0.13107929 -0.12882905 -0.1745161 0.043778837
000040 a1 7b e3 be 0e 18 f4 84 1f 17 c3 be bd 45 f2 84
       -0.4443026 -5.7386215e-36 -0.38103577 -5.695797e-36
000050 25 4a 94 be 79 71 b3 be 4a ad c6 3a d1 68 c3 3c
       -0.28962818 -0.3504751 0.0015157845 0.023853691
000060 77 95 85 bc 6f a2 89 bd a1 35 77 3e 4a 3f b3 bc
       -0.016306622 -0.06720435 0.24141552 -0.021880765
000070 25 e9 1f be 6a e5 c9 be 22 d7 08 bf 92 2f 44 be
       -0.15616281 -0.39432842 -0.53453267 -0.19158772

fc_layers.2.weight f4 [16, 32]
000000 41 b3 15 bf 8c f4 28 be e6 11 a2 be 2f 89 be bd
       -0.58476645 -0.16499537 -0.3165428 -0.093035094
000010 b0 ff 0c 3e a1 ce f3 be bd b9 7f 3e 63 0a 09 bf
       0.13769412 -0.47618583 0.24973197 -0.53531474
000020 71 b7 1a be a0 10 f4 84 35 dc ed bd 34 cf cd bd
       -0.1510904 -5.7379392e-36 -0.11614267 -0.100492865
000030 f2 28 03 be bc 9d c1 3d 0f f1 4b be a7 d3 0f 3e
       -0.12808588 0.094539136 -0.19916175 0.14045583
000040 12 3d 00 3f 00 90 f7 04 23 7f a2 3e 17 37 f6 04
       0.50093186 5.8201664e-36 0.31737623 5.7884914e-36
000050 10 07 90 3d 12 18 14 bf 68 27 a4 be 6e 74 7f bd
       0.07032597 -0.5784923 -0.32061315 -0.062366895
000060 35 33 1f bd 74 5f cb 3e 2e 90 05 3f 8d 0e 00 be
       -0.038867194 0.39721262 0.52173126 -0.1250555
000070 64 dd 3f 3e d6 bf 70 3f c9 d5 cc 3f 3a 30 0b be
       0.18736798 0.9404272 1.6002742 -0.13592616
000080 52 f8 68 3e e5 80 10 3e da 21 e9 3d fb b0 1a 3f
       0.22750977 0.1411167 0.1138341 0.604263
000090 86 b8 8d bd 88 52 f3 3e e0 89 5b be a5 07 fc 3d
       -0.06919961 0.47523904 -0.21439314 0.123061456
0000a0 86 0e 69 bb 17 ac f3 84 ef 2f e2 3c 6b bf 95 be
       -0.0035561635 -5.7287065e-36 0.027610747 -0.29247603
0000b0 68 c0 ba bb db 51 20 3e cb 08 fa be c3 eb 05 bf
       -0.005699206 0.15656225 -0.48834834 -0.5231287
0000c0 5c 44 8e 3e f2 8f f2 84 1c 64 00 3e 15 eb f5 84
       0.2778653 -5.702612e-36 0.12538189 -5.7815112e-36
0000d0 55 da 09 3e 60 5e 64 3d af f2 04 be 00 74 90 3e
       0.13462193 0.055754066 -0.12983201 0.282135
0000e0 dc 2a fd 3b 74 26 87 be 27 28 01 be 85 2c a5 be
       0.0077260565 -0.26396525 -0.12612973 -0.32260528
0000f0 df 57 cd 3e f4 27 b5 bc 3c da f0 3e 07 18 83 be
       0.40106103 -0.022113778 0.470415 -0.2560427
000100 ed 30 2a bd 6b db 8c be cd 2f cf 3d 42 92 24 be
       -0.041550566 -0.27511153 0.10116539 -0.16071418
000110 23 c9 12 3e a1 d9 bf be 05 eb da bd 1d 6b fc 3e
       0.1433454 -0.37470725 -0.10689358 0.4930047
000120 23 dc d5 be 27 3e f2 84 b8 0a 87 bd 5c a9 7c 3e
       -0.41769513 -5.6951004e-36 -0.06593841 0.2467398
000130 12 e4 d2 3d 16 ba 10 3e d8 97 39 3e b7 a5 18 3e
       0.10297407 0.14133486 0.1812433 0.14906965
000140 46 bd 08 3f 65 47 f6 04 fe c5 23 3f 8b ac f3 84
       0.5341381 5.7899888e-36 0.6397399 -5.728748e-36
000150 5a ec 8a 3e f7 a3 af bd 63 97 9c 3d fd ca e2 bc
       0.27133447 -0.08576196 0.07646062 -0.027684683
000160 82 c3 42 be 23 08 ba be 9f 3f 84 3e 1e 0b 63 3e
       -0.19019893 -0.36334333 0.2582979 0.2217221
000170 86 ae c3 3e 5f 07 81 3f d1 8b 8e 3f 61 79 c4 bd
       0.38219088 1.0080374 1.1136419 -0.09593464
000180 7e 74 b9 3e 10 df ce bd 7b 65 c4 3e 91 a6 11 3f
       0.3622169 -0.101011395 0.38358673 0.56894785
000190 c4 be 61 be dd f8 a0 be 70 24 dd bd b8 d5 ea be
       -0.22045428 -0.31439868 -0.107979655 -0.4586618
0001a0 96 c7 f5 3d 9f b9 f4 04 96 9a bb 3d e9 b1 17 bb
       0.120009586 5.753459e-36 0.09160344 -0.0023146814
0001b0 b4 fc 4e 3e c5 ce ba be c9 34 92 3e 8e 5b cf be
       0.20213586 -0.36485878 0.28555897 -0.40499538
0001c0 b5 b8 15 bf eb b4 f3 04 a1 a1 30 be b3 26 f2 84
       -0.58484966 5.7295172e-36 -0.17249157 -5.6929466e-36
0001d0 5a 43 eb be 7a ca dc 3e 8c 58 96 be 73 8c 9a 3e
       -0.45949823 0.43123227 -0.2936443 0.3018528
0001e0 a9 85 05 3d f4 34 3a 3e cd 53 67 3e 9f 2a 79 3e
       0.03259817 0.18184263 0.22590561 0.24332665
0001f0 b8 58 2a bf ab 2d 29 bf f0 84 fd be c0 11 49 be
       -0.66541624 -0.6608531 -0.49515486 -0.19635677
000200 0a c2 3b 3e bf d0 ac 3d fb 54 5a be cf 8f 4c be
       0.18335739 0.08438253 -0.2132148 -0.19976734
000210 db af a0 3e 19 0f c2 bb 76 5a 0a 3e 70 d2 03 3f
       0.31384167 -0.00592221 0.1351107 0.5149298
000220 ee d8 e6 3c 90 45 f2 84 5f fc 8f 3e 83 12 03 3d
       0.028179612 -5.695781e-36 0.2812223 0.032000076
000230 4b f2 4d 3e 19 1c e4 3d dd 59 10 bf f9 3e 89 3e
       0.20111959 0.11138172 -0.5638712 0.26805857
000240 fa 4a 01 3f 07 32 f2 84 d0 ab 9b 3e 8b 42 f5 84
       0.5050503 -5.693987e-36 0.3040452 -5.7660333e-36
000250 37 aa 90 3e 44 1b 7f bf a3 cc 8e 3e ad 83 1c be
       0.28254864 -0.9965098 0.278905 -0.15284605
000260 ca 5b 52 be 7c eb c0 bc 99 57 fd bd 9a 4c 14 be
       -0.20542827 -0.023549788 -0.123702236 -0.14482346
000270 fc 0d 4d 3e 91 59 3f 3f 69 e1 6b 3f 20 60 66 3e
       0.20024866 0.7474604 0.92140824 0.22497606
000280 f3 3f 92 3e 21 77 9e be ba 29 32 be 9d 49 2d be
       0.28564414 -0.30950263 -0.1739873 -0.16922612
000290 1d 10 3b bf 18 cd 98 bd 0e 10 8e be e9 1d a5 3e
       -0.7307146 -0.074609935 -0.27746624 0.32249382
0002a0 47 73 ba bd a2 7f f2 84 43 6c 31 be 9f d6 84 be
       -0.09104019 -5.701114e-36 -0.17326455 -0.25944993
0002b0 64 8c 6e bd 5a b2 f1 be c3 45 6a bd 10 f1 54 be
       -0.058239356 -0.47206384 -0.057195436 -0.20795083
0002c0 7e ee 63 3f ba 0f f2 84 e4 85 0c 3f 9b 36 f3 84
       0.89035785 -5.690837e-36 0.548918 -5.7179173e-36
0002d0 1f 04 da be 97 c3 cc 3e 61 98 ae be 52 3f b9 bd
       -0.4258127 0.39992973 -0.3410063 -0.090452805
0002e0 52 73 bf be fb fb d6 be 67 6a 98 be b2 95 3c bf
       -0.3739267 -0.4198912 -0.2976868 -0.73665917
0002f0 5c af 3b 3e 14 85 0a bf 38 19 6f be cd f5 ae 3d
       0.18328613 -0.5410931 -0.23349464 0.085429765
000300 71 87 03 bc d7 48 0d bf b9 f3 60 be ca 42 ac 3e
       -0.008027897 -0.5518927 -0.21967973 0.33644706
000310 21 bf b1 bd 0b 19 04 bf 35 38 30 3e 12 3f 3a 3e
       -0.08679033 -0.5160071 0.17208941 0.18188122
000320 cf c2 30 be 34 cb f2 84 a5 23 1a bf 27 89 17 3e
       -0.17261814 -5.708054e-36 -0.6021064 0.14798413
000330 7e 36 16 3e 09 9e 95 3d e9 1d 8d bd 2c 5a 2b 3d
       0.14669225 0.073055334 -0.068904705 0.04183404
000340 47 de ad 3e dc 73 f5 84 03 5c 31 3f a5 cc f6 84
       0.33958647 -5.7705623e-36 0.69281024 -5.802226e-36
000350 c2 42 d6 3e 3b 3e 38 3e b8 f1 c8 3d dc 01 9a bd
       0.41847807 0.17992489 0.09811729 -0.07519886
000360 50 a8 43 bf f0 0e 36 be 56 1f aa 3e 6f f3 8f bd
       -0.764287 -0.17779136 0.33227032 -0.07028853
000370 4b 85 d0 3e 59 50 20 3f 9d f7 91 3f 69 d2 5e 3d
       0.40726694 0.626226 1.140369 0.05439988
000380 c4 23 0e bd c8 8b 8a be 3c cf 02 bf 41 ef a9 be
       -0.034702078 -0.2705977 -0.51097465 -0.3319035
000390 ee 72 c9 3e c0 dd ff bc ab 0b 3d 3d 16 a6 5a 3e
       0.39345497 -0.031233668 0.046153706 0.2135242
0003a0 c6 9a 22 3e 6d 6f f6 84 cb 0e cb 3d e1 95 27 3e
       0.15879354 -5.793665e-36 0.09914931 0.16365768
0003b0 42 62 8e 3d 06 d3 ac 3d 5a 3a 28 be 29 12 7b 3e
       0.06952335 0.08438687 -0.1642851 0.24518646
0003c0 ac c3 b1 3e 8c 96 f2 84 50 86 1d 3e b6 cd f5 84
       0.34719598 -5.7032182e-36 0.15383267 -5.778814e-36
0003d0 90 11 c1 3e c3 f6 b4 be 2f f1 ee 3d da db bc be
       0.37708712 -0.35344514 0.11667096 -0.36886483
0003e0 ff 45 87 be ac b0 02 3e 65 c6 0f 3e 3b 03 d2 bc
       -0.2642059 0.12762707 0.14040525 -0.025636306
0003f0 fd 38 fe bc 21 2d aa 3f 87 52 5f 3f 60 a9 97 3d
       -0.031033034 1.3295022 0.872353 0.074053526

fc_layers.2.bias f4 [16]
000000 c7 5d fe 3d 75 e7 88 3e 4a 71 f6 bc bb 25 ca 3d
       0.1242023 0.26739088 -0.030083317 0.09870478
000010 f3 ca 91 3d 2a 29 0f bf 2f e0 61 be 9b 5d d2 bd
       0.071187876 -0.55922186 -0.22058176 -0.1027176
000020 0b 0f 46 3f 57 71 41 3e 2e 51 46 bd fc 91 ed 84
       0.77366704 0.18890892 -0.048417263 -5.5852498e-36
000030 ae d1 66 bd be 75 e3 3e b8 31 3e 3e 30 34 ed 84
       -0.05635231 0.44425768 0.18573654 -5.576636e-36

fc_layers.3.weight f4 [8, 16]
000000 0b 2c 75 bf e2 ac e6 3e b3 93 6c be 46 e3 f2 3d
       -0.9577033 0.45053774 -0.23103218 0.11859755
000010 f5 b5 1b bd 76 c2 59 bf 59 a2 1c bf bd 2d a7 be
       -0.038015325 -0.8506235 -0.6118522 -0.32652083
000020 af cb 0e 3f f6 61 52 3e 8f 26 85 3e 60 0f ee 84
       0.55779546 0.20545182 0.2600598 -5.596765e-36
000030 93 1c 98 3e 20 dd 1c 3e 13 f9 da bd 86 9d ed 04
       0.297093 0.15318727 -0.106920384 5.5863095e-36
000040 e4 bc 98 3d dd ca e2 3b ac 16 ee 3d 58 32 04 bf
       0.07457903 0.006921156 0.11625418 -0.5163932
000050 2e 87 5b 3e 31 b1 f7 3d 3b cc 42 3e 69 b5 8f 3e
       0.21438286 0.120943435 0.1902322 0.28068092
000060 41 72 a3 3d e7 4c 33 be 26 0f a3 be cf e2 d8 84
       0.079807766 -0.17509805 -0.31847495 -5.0989647e-36
000070 b1 fc 2f 3e 17 b2 a8 be 2d 89 36 be 9f 7c e4 04
       0.17186238 -0.32948372 -0.17825766 5.371699e-36
000080 7b ac a7 be 93 38 b0 3d d0 e5 ad be bf 2e 1f 3e
       -0.3274878 0.08604541 -0.33964396 0.15545176
000090 8f 4d ad be 9c 3c 22 bf 30 67 52 bf 6f ae d6 bc
       -0.33848235 -0.6337373 -0.821887 -0.026206223
0000a0 0b 19 62 3e d3 23 74 3e 34 8c 83 3e 7b 23 ef 84
       0.22079866 0.23841791 0.25692904 -5.6221214e-36
0000b0 c8 a8 4a 3e a3 b6 8a 3e 7e de 6b 3e 19 12 f0 04
       0.19790947 0.27092466 0.23034093 5.644035e-36
0000c0 40 f3 95 8c cd 86 f2 84 2b 2c 3c 8d 56 b6 f7 84
       -2.3103486e-31 -5.701772e-36 -5.798514e-31 -5.823687e-36
0000d0 9e c9 f3 84 80 dd f4 84 7d 6e 19 88 de 13 11 88
       -5.731418e-36 -5.756754e-36 -4.617164e-34 -4.3657704e-34
0000e0 9f 82 f6 84 91 78 1a 89 22 2d f4 84 a6 c2 f0 04
       -5.795428e-36 -1.8593766e-33 -5.7405572e-36 5.6602485e-36
0000f0 60 18 ee 96 9a 28 f4 84 9e 26 f7 84 5c 6e ed 84
       -3.8466357e-25 -5.740141e-36 -5.8104885e-36 -5.581978e-36
000100 9c fd c3 be 9f 69 d4 3d 40 c7 d2 be 52 d7 9a 3e
       -0.38279426 0.10371708 -0.4116764 0.302424
000110 7b c8 1e bf 06 9d 8a be d1 35 27 bf 97 56 22 be
       -0.6202466 -0.27072924 -0.6531649 -0.15853344
000120 3a 56 c6 3e 9e 34 d4 3c 7a 4f 19 3c a1 fb ef 84
       0.3873766 0.025903996 0.009357328 -5.6419715e-36
000130 3c 0b 7d bd 05 2e 22 3e 15 98 4d 3e 3d 6c ef 84
       -0.061778292 0.15837868 0.20077546 -5.628803e-36
000140 25 09 b7 be 72 d7 87 be c2 3a 0a be c2 1e 65 3e
       -0.35749164 -0.2653156 -0.13498977 0.22375014
000150 e5 86 2f bf aa c1 22 bd 94 8a 17 bf 42 64 14 bf
       -0.6856521 -0.039735474 -0.5919583 -0.5796548
000160 91 2d bc 3e 78 08 57 be 6a 93 fd 3d 83 5f ef 84
       0.36753514 -0.20999324 0.123816326 -5.6276344e-36
000170 2b 25 d0 be 1c ac c6 3e d5 35 32 3e 50 cb ed 84
       -0.40653357 0.38803184 0.17403348 -5.5905145e-36
000180 1e d1 43 bf 74 71 2d ba 6d 2d 56 bf 6a 2b ba 3e
       -0.7649096 -0.0006616332 -0.83663064 0.36361247
000190 df a3 42 bd 8e 29 af bf 28 91 a5 be 5d 0c e8 3d
       -0.04751956 -1.3684556 -0.32337308 0.11330483
0001a0 5b ec bf be 72 02 3a bd b4 3f b9 3d 28 e7 f4 84
       -0.37485012 -0.04541249 0.090453535 -5.7576408e-36
0001b0 e4 f4 bf 3e 5f f0 23 3c 7d 7d 11 3f fd eb f0 04
       0.37491524 0.010006039 0.56832105 5.664045e-36
0001c0 07 bd a9 3e 42 ea 82 3e 9b b3 60 3e e6 50 36 bf
       0.3315203 0.2556935 0.21943514 -0.7121719
0001d0 3c 12 87 3e e3 67 4f 3f cd d8 bf 3e 53 75 cf 3d
       0.263811 0.81017894 0.37470093 0.101298
0001e0 cf 18 d7 3e ca cb 05 3e 0a 6d 27 bf 7e c5 f3 84
       0.42011115 0.1306602 -0.65400755 -5.7310393e-36
0001f0 f2 d5 0f bf 77 bd 66 3e 7a 86 fb be 3c b4 ef 04
       -0.5618583 0.22533213 -0.49126035 5.635415e-36

fc_layers.3.bias f4 [8]
000000 e4 c9 c9 3e ec d5 5d be 81 fa fd 3d 0e 1e 1a 86
       0.39411843 -0.21663636 0.124012955 -2.8986262e-35
000010 2c 55 c5 3e 6d a0 d8 3e 77 7c a9 be a5 e0 91 3e
       0.38541543 0.42309895 -0.33102772 0.28491703

affine_output.weight f4 [1, 8]
000000 d8 f4 e1 be 4c 76 21 be 04 70 96 be 13 7b 5b 0f
       -0.44132113 -0.15767783 -0.29382336 1.0821237e-29
000010 2e 9b 8b be ac 65 b3 be 20 8c 99 3e bb 35 26 3f
       -0.2726683 -0.35038507 0.2998972 0.64925736
