neural-collaborative-filtering/src/checkpoints/mlp_factor8neg4_bz256_166432168_pretrain_reg_0.0000001_Epoch75_HR1.0000_NDCG0.7360.model (torch, 298910 bytes, 12 tensors)

embedding_user.weight f4 [7700, 8]
000000 ab 69 f5 04 11 d4 f1 84 71 7c f3 84 7c 1a f5 04
       5.7696264e-36 -5.685358e-36 -5.7243307e-36 5.7623545e-36
000010 3c ce f2 84 e0 35 f7 04 df 3a f4 84 84 5d f6 84
       -5.7083323e-36 5.8118897e-36 -5.741819e-36 -5.7920203e-36
000020 fa 7d f2 84 6c 73 f2 04 6c 5d f4 04 1e 19 ee 04
       -5.7009618e-36 5.6999925e-36 5.744992e-36 5.5976598e-36
000030 08 3a f7 84 a1 e1 f3 04 59 3d f6 04 2f 00 f3 04
       -5.8122714e-36 5.7336233e-36 5.789066e-36 5.7129194e-36
000040 14 25 f5 84 1d 9d f4 04 d8 a9 eb 84 68 e0 f1 04
       -5.7633274e-36 5.750841e-36 -5.540421e-36 5.6864912e-36
000050 a6 4e f7 04 c6 5a f4 04 b9 66 f2 84 a0 2e f5 84
       5.8141648e-36 5.7447487e-36 -5.6988262e-36 -5.764204e-36
000060 a4 f2 85 bf cf c1 85 3f 12 8d 27 3f e7 fa 17 bf
       -1.0464673 1.0449771 0.6544963 -0.5936722
000070 1d e7 89 bf 93 9e 55 3f 0e 84 9a bf 4c 9d 62 bf
       -1.0773655 0.8344509 -1.207155 -0.88521266
000080 33 18 84 be ea f7 dc bd 44 fa 55 3f 89 4a 38 bf
       -0.25799713 -0.10789473 0.83585 -0.7198873
000090 78 8c 6e bf 4b 97 3b 3f f7 4a 01 bf cb aa f3 bf
       -0.9318309 0.7327773 -0.5050501 -1.9036497
0000a0 82 24 93 bf da 0e 7b 3f 48 c5 69 3f e4 38 43 bf
       -1.1495516 0.98069537 0.9131665 -0.76258683
0000b0 7e a5 a1 bf 45 de 5e 3f 49 dd 8e bf d0 b0 63 bf
       -1.2628629 0.87057906 -1.1161281 -0.8894167
0000c0 e8 ec bd bf a1 ea 18 bf ba ac 4e 3d 07 b4 b7 be
       -1.4837923 -0.59733015 0.050457694 -0.35879537
0000d0 80 d6 77 bf 68 1e 88 3f 63 88 a8 be 62 51 91 bf
       -0.96811676 1.0634279 -0.32916555 -1.1352961
0000e0 46 2c 0a be 24 5f 5e 3e 53 fe fa 3e 92 82 02 40
       -0.13493451 0.21715981 0.4902216 2.0392194
0000f0 d5 b0 9a bf be 67 05 3f a0 7b 01 3f 86 57 7b c0
       -1.2085215 0.52111423 0.5057926 -3.927217
000100 bb 37 9c 3f 9d a7 1e 3f 8f 5d 40 3f 18 86 67 bf
       1.2204508 0.6197451 0.7514276 -0.90438986
000110 37 24 6a be 3f 95 95 3e 78 bb be bf 2c 81 b2 bf
       -0.22865377 0.29215428 -1.4900961 -1.394567
000120 37 f1 99 bf d2 17 47 3f 2f a5 22 3f 8e 6e 77 bf
       -1.2026738 0.7777072 0.635333 -0.9665307
000130 dc 1d 32 bf ea 7b ba 3f 84 ca 7f bf 2a aa 4f bf
       -0.6957681 1.4569066 -0.9991839 -0.81119025
000140 58 a7 05 3f 3f 43 89 3e c1 7a 1d 40 f2 66 14 bf
       0.5220847 0.26809117 2.4606173 -0.5796958
000150 1e 5a fd bf e0 26 bf 3f 76 6d 5b bf 31 1b a0 bf
       -1.9793127 1.4933739 -0.857139 -1.2508298
000160 5b e1 e7 be ad 97 5d 3d de 44 b6 3f 72 2c f8 be
       -0.4528912 0.054099727 1.4239767 -0.4847141
000170 fe 2a fc bf e4 11 69 bf 5b 5a 42 bf 2a ce 2b c0
       -1.970062 -0.91042924 -0.7591912 -2.6844583
000180 0c 4e 86 bf 14 87 82 3f 2d 3b ef 3e cf 88 2d bf
       -1.0492568 1.0197473 0.46724835 -0.6778688
000190 da 3e a0 bf a4 21 53 3f 17 84 9a bf a8 c4 07 bf
       -1.2519181 0.82473207 -1.2071561 -0.5303445
0001a0 f3 29 36 bf 3c d9 1d 3f 17 43 c6 3e ab ff 65 3f
       -0.7115776 0.616596 0.3872306 0.89843243
0001b0 90 7c ff bf 6c 67 e0 3f fc 7e 85 bf f4 f0 3c bf
       -1.9959888 1.7531562 -1.0429378 -0.73805165
0001c0 bd 73 23 bf ad 75 81 3f 42 14 21 3f 08 cd 37 bf
       -0.6384848 1.0114037 0.62921536 -0.7179723
0001d0 11 2a 94 bf 54 67 86 3f 3d f3 47 bf b3 28 ab be
       -1.1575338 1.0500283 -0.7810553 -0.3342949
0001e0 2a c0 f6 84 14 26 f6 84 94 24 f4 84 90 8f f5 84
       -5.8010797e-36 -5.786929e-36 -5.7397716e-36 -5.7731065e-36
0001f0 a6 ba ef 84 a3 c5 f5 04 d6 93 f0 04 ab 1a f7 04
       -5.636004e-36 5.7780724e-36 5.6559495e-36 5.809391e-36
000200 f7 83 89 bf 27 7a 4c 3f f1 79 20 3f f5 24 4f bf
       -1.0743397 0.7987389 0.6268607 -0.80915767
000210 7d 55 9e bf 69 32 92 3f 7d ac 68 bf 50 cd 17 bf
       -1.2369839 1.1421634 -0.90888196 -0.59297657
000220 7d 5f 6b bf 32 e0 81 3f c1 25 bf 3e 9a 37 3d bf
       -0.9194258 1.0146544 0.3733349 -0.73912966
000230 5c 34 96 bf 52 21 57 3f ad 9d 4c bf aa 3e fb be
       -1.1734729 0.8403522 -0.79928094 -0.49071246
000240 e5 61 80 bf b4 f0 27 3f 7b dc b4 3e aa 38 28 bf
       -1.0029875 0.6560166 0.35324463 -0.6571146
000250 08 e6 55 bf af 73 5e 3f 44 9f 8e bf 28 2f e9 be
       -0.83554125 0.8689527 -1.1142354 -0.4554379
000260 1c 89 98 bf 7e d7 07 3f 70 a1 59 3f 97 a5 28 bf
       -1.1916842 0.5306319 0.8501196 -0.6587767
000270 98 b0 d8 be 35 16 a1 3f 97 40 ae bf 82 f7 7a bf
       -0.4232223 1.2584902 -1.3613461 -0.98033917
000280 99 7b 84 bf 9c fd 73 3f d5 31 2e 3f e5 42 28 bf
       -1.0350219 0.9530885 0.6804479 -0.6572707
000290 2c 7d 85 bf 6a 31 54 3f 71 5a 9d bf 1c 82 50 bf
       -1.0428824 0.828879 -1.2293226 -0.8144853
0002a0 18 b0 a8 bf 7c eb 2d 3f 92 97 06 3f 1a 2e 7d bf
       -1.317874 0.67937446 0.5257503 -0.9889847
0002b0 b4 bf 28 bf 4c c8 a2 3f 19 02 81 bf 4a 1d 58 bf
       -0.65917516 1.2717376 -1.0078765 -0.8441969
0002c0 ed a1 51 bf e5 88 4f 3f 95 6b 48 3f a3 ef 01 bf
       -0.81887704 0.8106826 0.7828916 -0.5075628
0002d0 3c 85 64 bf 5f 46 42 3f 51 1a 87 bf dd 37 45 bf
       -0.892658 0.7588863 -1.0554906 -0.77038366
0002e0 9e 19 7a bf 08 90 6c 3f 51 29 26 3f 9b 0f 28 bf
       -0.9769534 0.92407274 0.64906794 -0.6564881
0002f0 2b 4d 84 bf bb cf 94 3f 76 9a 66 bf c8 a6 d4 be
       -1.033605 1.1625894 -0.9007944 -0.41533494
000300 ef 52 57 bf 52 ce 07 40 38 42 9c be 36 cf 9c bf
       -0.8411092 2.1219678 -0.3051927 -1.2250736
000310 36 13 c3 3c 9f 03 9e bd 4b 50 2a bf cf fc 21 bf
       0.023812871 -0.077155344 -0.6652877 -0.6327638
000320 5b db d2 bf ba 1e 0b be 31 17 3d 3e 69 ef 36 bf
       -1.6473192 -0.1358594 0.18465878 -0.7145906
000330 53 58 f4 bf 61 67 d3 3f 62 c0 09 bf bd cc d4 bf
       -1.9089454 1.6515924 -0.5380918 -1.6624981
000340 d8 b9 60 bf 77 c6 56 3f e0 f3 2b 3f 34 c5 0e bf
       -0.87783575 0.83896583 0.67169 -0.5576966
000350 fe 5f 4a bf 66 86 38 3f 5c 7e 7c bf a8 82 40 bf
       -0.7905272 0.72080076 -0.9863031 -0.75199366
000360 1e 82 86 bf a2 65 64 3f 81 71 1f 3f f0 9b 0f bf
       -1.0508459 0.8921758 0.6228257 -0.56097317
000370 6a 20 8e bf a2 df 3a 3f 2e 0d 94 bf 7e 45 63 bf
       -1.1103642 0.72997487 -1.1566522 -0.8877791
000380 d6 a1 f4 04 14 ea f3 84 d4 bd f5 04 6d e5 f2 84
       5.7512747e-36 -5.7343992e-36 5.7773553e-36 -5.710462e-36
000390 b8 53 f2 04 ba d9 f5 04 60 54 f7 04 ae 6a f0 04
       5.697081e-36 5.7799173e-36 5.8146907e-36 5.65217e-36
0003a0 a6 31 f5 84 20 6c f4 84 9b 66 f3 84 c8 79 f6 84
       -5.7644818e-36 -5.746342e-36 -5.7223254e-36 -5.794616e-36
0003b0 e7 03 f5 84 2e c3 f6 84 81 92 f7 04 ce 9a f6 84
       -5.7602807e-36 -5.8013566e-36 5.8203964e-36 -5.7976488e-36
0003c0 aa 12 77 bf 3d 96 70 3f 61 ef 34 3f 14 aa 26 bf
       -0.96512854 0.93979245 0.70677763 -0.6510327
0003d0 c4 ce 8d bf 0e 1a 39 3f 2d 4c 95 bf 0d b4 44 bf
       -1.1078725 0.7230538 -1.1663872 -0.76837236
0003e0 54 73 4e 3e bb c0 31 3f 18 86 ca 3f 60 93 83 be
       0.20161182 0.6943471 1.5822172 -0.25698376
0003f0 e7 0b 21 c0 7f 23 c8 3f 55 59 77 bf fc 05 3c bf
       -2.5163515 1.5635833 -0.96620685 -0.7344663

embedding_item.weight f4 [8, 1024]
000000 b4 dc 5e 3e 22 1e a7 3e ed 53 c2 3e 5d 85 be 3e
       0.21763879 0.32640177 0.37954655 0.37211123
000010 9c dd 13 3e b1 5a 3a 3e cb 09 8e 3d 59 73 2c be
       0.14440006 0.18198659 0.069354616 -0.16840877
000020 3e 20 a2 3e 14 09 41 be 6b 94 fd 3d f4 db 3a 3e
       0.31665224 -0.1885112 0.12381824 0.18247968
000030 bd 7a 5a 3d ee 14 a2 3d 6a 67 c4 bc 9c b8 c2 3b
       0.05333971 0.07914148 -0.023975093 0.0059424173
000040 2d cf 04 bf d5 7f 85 be bb f4 d8 3d a3 cd b0 be
       -0.51878625 -0.2607409 0.10593554 -0.34531888
000050 75 d5 83 3c 48 6d 51 bd 14 a2 85 be 21 4f f8 bd
       0.016092995 -0.05112961 -0.26100218 -0.12124468
000060 d7 82 0a 3e d3 08 0f 3d a1 58 6d be e8 09 a0 3d
       0.13526474 0.034920525 -0.2317834 0.078143895
000070 0a e0 83 3d 1e 94 5e be 12 ef 88 38 26 5a 14 3e
       0.064392164 -0.2173619 6.529516e-05 0.14487514
000080 7f 77 ea bc cd b7 e1 bd 09 1b a3 be bd fd 95 bd
       -0.028621433 -0.11021385 -0.31856564 -0.07323787
000090 98 ef 20 3e e9 a1 f0 3d 86 3c 49 be 68 99 a9 bd
       0.15716398 0.11749632 -0.19651994 -0.08281213
0000a0 40 84 cb bd 72 0a 15 be fa 4f 99 be 7c b9 0e bd
       -0.09937334 -0.14554766 -0.2994383 -0.03484486
0000b0 b6 1e 1c 3e 63 a6 51 be 04 ad a0 be 83 78 8a be
       0.1524609 -0.20473628 -0.31382 -0.27045068
0000c0 fb 2c 7b 3e 2e 12 4d be 06 a4 cc 3b 13 fc 3e be
       0.24528877 -0.20026466 0.006245139 -0.18650846
0000d0 6c 3b 56 3e b2 20 4d 3e ac be 3d 3e d4 e8 2d be
       0.20921105 0.20032004 0.18529767 -0.16983348
0000e0 da 7c 12 3e ff d0 92 be 85 e5 1a 3d 66 73 de 3c
       0.1430544 -0.28675076 0.037816543 0.027154636
0000f0 ac 5a 88 bc 48 1a d7 bd fa 69 7b 3d 25 90 29 3c
       -0.016644798 -0.105030596 0.061380364 0.010349308
000100 17 97 9c be b4 2f 8a 3d 50 e2 2a be 3f 1b 82 3e
       -0.30584022 0.0674738 -0.16687894 0.25411412
000110 84 8d 3a be 5a e2 c4 bd 36 09 cb 3d 59 d0 2d 3e
       -0.18218046 -0.09613486 0.09913866 0.1697401
000120 1e cc b3 bd 2c e0 8c be e7 1d 24 3c 9d 96 2f be
       -0.08779167 -0.2751478 0.010016895 -0.17147298
000130 e7 10 49 be 87 49 97 3c b2 33 9e be 4c 4b 9c 3d
       -0.19635354 0.018467678 -0.30898815 0.07631549
000140 8b 4e b1 bd cb 01 83 be 28 35 d2 3d 8d 7b c0 3d
       -0.08657559 -0.25587305 0.10264045 0.093985654
000150 c3 97 88 bd 7f e4 0e be 3e b8 38 3e 7f 04 9b bd
       -0.06669571 -0.13954352 0.18039033 -0.07569217
000160 49 fc 89 3e 9a 6d 48 3e f4 9f ee 3d 85 ca 06 3f
       0.2695029 0.1957306 0.116516024 0.5265277
000170 69 1b 20 3e e5 82 20 bf 1c 32 76 be e2 7f 68 be
       0.15635456 -0.6269973 -0.24042553 -0.22705033
000180 ee 6b 51 bd 3c dc 36 be fc 76 32 bd be c2 ac 3d
       -0.05112832 -0.1785745 -0.043570504 0.084355816
000190 d0 ed 09 be 02 03 44 be 1e fe 46 bd c1 ce 94 3e
       -0.13469625 -0.19141772 -0.04858219 0.2906399
0001a0 76 a5 f8 3d 93 11 a8 be e3 29 b1 be 2d 78 a7 bc
       0.12140934 -0.32825908 -0.3460227 -0.020443046
0001b0 76 b5 05 3e be 3c 66 3e 7a 39 61 3e a6 42 9e be
       0.13057503 0.22484109 0.21994582 -0.30910224
0001c0 b8 e0 2a be 7b c7 60 3e 6b f8 47 3e 5b 05 e9 be
       -0.16687286 0.21951096 0.19528358 -0.45511898
0001d0 c0 cf 0f be ce 8b 41 bd e8 4d 2a bc 97 58 47 3d
       -0.14044094 -0.04725247 -0.010394551 0.04866847
0001e0 a8 11 50 bd 5a a5 44 3d 10 14 89 be fa 6d fa bd
       -0.05079809 0.048009254 -0.2677312 -0.122280076
0001f0 7c 36 3b be 19 5d 51 3e b8 72 a2 3e bd 9d 17 3f
       -0.18282503 0.2044567 0.31728148 0.59225065
000200 63 19 80 bc ce 7b 14 3e 44 0e 40 bd 15 3c 0d be
       -0.015637105 0.14500353 -0.046888605 -0.1379245
000210 6a f4 5f 3e 44 f4 fe 3d f4 b6 2c 3d ad 79 f5 3d
       0.2187058 0.12448934 0.042166665 0.119860984
000220 9b b5 4d 3e c5 08 a6 3e 61 d3 76 3d 89 19 4b 3e
       0.20088808 0.32428566 0.06026018 0.1983396
000230 48 d0 4f bc b0 e9 d2 bd 55 19 af bc 98 22 7b be
       -0.012683935 -0.102984786 -0.021374384 -0.24524915
000240 44 ab 47 bc 4d b6 ae 3e 59 df 7e be 5c b1 25 be
       -0.012186829 0.3412346 -0.24889888 -0.16180938
000250 50 f1 6a bd 03 16 95 bd 43 d8 ba 3c 12 fd ce 3d
       -0.05735904 -0.07279589 0.0228082 0.10106863
000260 30 1b b3 3e fd 97 2e be ed 3d 57 3e e5 0a 4b 3e
       0.3498168 -0.17050166 0.21019717 0.19828375
000270 94 a5 3d 3e a3 30 1b 3e ef 0c a3 3d 45 12 f1 3d
       0.18520194 0.15155272 0.07961451 0.11771063
000280 c2 85 3b 3e ed 0e 88 3d d7 9e c2 3d c3 4a 9e be
       0.18312743 0.06643472 0.095029525 -0.30916414
000290 11 e8 54 3d 05 7d c1 3e 90 45 e5 bb 12 31 65 be
       0.05197913 0.37790695 -0.006996818 -0.22382
0002a0 e0 18 a2 3e ef 83 0e 3d 4f 5d 8f be 59 d9 ba 3e
       0.31659603 0.03479379 -0.28000876 0.36493948
0002b0 5e 2d 1e be 76 a6 89 3d 43 96 dc be 8a 4b c4 bd
       -0.15446994 0.06721203 -0.4308339 -0.095847204
0002c0 c1 02 69 3e 10 70 bc be 02 a1 5d 3e d1 5e e9 3c
       0.22754957 -0.36804247 0.21643451 0.028487595
0002d0 c4 d5 9a bc 54 16 bc 3e 9f 6d 03 be 3d e7 97 be
       -0.01890076 0.36735785 -0.12834786 -0.29668608
0002e0 47 3e 43 bc fc 5e ef bb 30 38 66 3e 53 b7 82 3d
       -0.011916704 -0.007305024 0.22482371 0.063826226
0002f0 2b 23 0c 3e 95 c8 00 3e 5f c1 93 bd 70 66 90 3d
       0.1368529 0.12576516 -0.07214617 0.070507884
000300 21 a0 db bd 2c 1b 20 bc 9d 7e 7f be 7b e7 87 bd
       -0.107239015 -0.009772103 -0.24950643 -0.06635948
000310 fa ed 37 be 65 8c 0b 3e e9 d5 80 be ef db 95 3d
       -0.17961875 0.13627775 -0.251632 0.0731734
000320 c4 e8 24 be 36 7b ab bd 0f a0 90 be 5d 47 0f be
       -0.16104418 -0.0837311 -0.28247115 -0.13992067
000330 7f 95 47 be 42 86 ab 3d c4 6d 61 3c 2b 9a 8d bd
       -0.19490622 0.08375217 0.01375908 -0.06914171
000340 a9 89 98 3a b9 2b 47 3e 48 fc 2a be 26 ae 2e 3d
       0.0011637706 0.19450273 -0.166978 0.04264655
000350 22 c9 4a 3e 98 32 88 be 85 54 66 bd f3 57 e6 3e
       0.19803289 -0.266011 -0.056232948 0.44988975
000360 1b 37 22 3e 09 af 0b bd b4 49 62 be 61 9a 3d 3e
       0.15841334 -0.034102473 -0.22098428 0.18515922
000370 c5 9a 34 bd e1 b8 8e 3e 85 c9 be be 9a 9c 53 3e
       -0.044092912 0.27875426 -0.37263122 0.20665208
000380 11 54 d6 3d 82 7a cc 3d 52 a7 03 bd a8 4f 85 bd
       0.10465253 0.09984304 -0.03214199 -0.06509334
000390 cc 31 e0 3b 40 2d 14 be 33 14 d1 3c 07 c2 27 3e
       0.0068418738 -0.14470387 0.025522327 0.1638261
0003a0 40 d2 4a bb dd b5 0c 3e 40 fd 02 3e 3b c5 bf 3d
       -0.0030948073 0.1374125 0.1279192 0.093637906
0003b0 30 dd 28 3e b5 23 cd 3d 7f 8f 1c 3e 79 c3 be 3d
       0.16490626 0.10016576 0.15289114 0.09314627
0003c0 d3 35 00 3d 86 21 ad 3e 44 cd 71 3c 98 91 81 3e
       0.03130133 0.3381464 0.014758412 0.25306392
0003d0 9d 9d f4 3b ce 4f dd be c8 30 db 3d a9 cc aa 3e
       0.007465078 -0.4322495 0.10702664 0.33359268
0003e0 89 08 29 be 82 b3 6c be 98 a7 17 3e 3f 47 49 be
       -0.16507162 -0.23115352 0.14810026 -0.19656084
0003f0 79 f2 e4 bd 6e 2d a7 3e 69 bd 67 bd fa 45 1e 3d
       -0.111790605 0.32651848 -0.05657712 0.038640954

embedding_item.bias f4 [8]
000000 42 01 0e 3e c5 4d 0a bd 09 b6 78 3d 98 9c 34 3d
       0.13867667 -0.033765573 0.060720477 0.044094652
000010 7d 01 10 3c 84 31 e4 bd 52 3e e6 3d a5 90 52 bd
       0.008789417 -0.11142257 0.112423554 -0.051407475

fc_layers.0.weight f4 [64, 16]
000000 3c 64 03 bf 96 c3 5c 3f bc 8c 6c 3f 33 08 c8 bf
       -0.5132482 0.8623594 0.92402244 -1.5627502
000010 0d 1b c1 3e e5 dc ab 3e a9 ab 0a bf 12 8c 00 bf
       0.3771595 0.33566967 -0.5416818 -0.5021373
000020 ac 60 b9 3c 3a 00 6e bd 9d e0 df bd f0 14 e1 bd
       0.022629105 -0.058105685 -0.109315135 -0.10990322
000030 37 3f 4f be 5d 94 87 3b c2 6d e4 bd 1b 25 ca 3c
       -0.20238958 0.0041375593 -0.11153747 0.024675896
000040 04 a6 a3 be 0d 15 39 3f 12 21 71 3f aa c8 80 3e
       -0.31962597 0.72297746 0.94191086 0.25153095
000050 ba 02 d5 3e 48 6c 9e bf d9 71 18 bf e8 5a 1f bd
       0.41603643 -1.2376795 -0.5954872 -0.038905054
000060 28 cd eb 3d b8 e2 dc 3d 22 e0 cf bd b0 18 02 3e
       0.1151374 0.10785431 -0.10150172 0.1270473
000070 1d 48 46 3d f4 cb 2d be f2 d0 bb bc 9c 4e 19 bd
       0.048408616 -0.16972333 -0.022926781 -0.037428483
000080 00 4d 62 bf bf 61 21 3f 4c 27 90 bf cd a8 2c 3d
       -0.8839874 0.63039774 -1.1261992 0.04215317
000090 07 3d 39 bf 11 1a 94 bf 3a 76 b0 be fe e6 a8 bf
       -0.72358745 -1.1570455 -0.344652 -1.3195493
0000a0 0c 23 99 bd 25 26 1a be d1 d4 70 3d 14 b2 ff bd
       -0.07477388 -0.15053613 0.058796708 -0.124851376
0000b0 62 ce f4 bc 28 ee af bc c6 e3 0d 3c 93 fa b4 bd
       -0.029883567 -0.021475866 0.008660262 -0.08836856
0000c0 2c 04 2f 3f c5 80 2d 3d 20 40 e4 3e b0 9f 50 3e
       0.6836574 0.042359132 0.44580173 0.20373416
0000d0 cd f2 a6 bf 97 b9 af 3e d6 38 51 bf 89 1e b5 3f
       -1.3042847 0.3432128 -0.8172735 1.4149944
0000e0 37 44 f0 3c b0 19 49 be 41 ab 1e bb 16 8c 1e 3d
       0.029329402 -0.19638705 -0.0024210962 0.038707815
0000f0 ad 6c 60 3e 27 36 c9 bd 51 1f 7d be 04 b7 8f 3e
       0.21916457 -0.09824782 -0.24718978 0.28069317
000100 da 33 d7 be 49 cb 26 be ea ad 48 3f 71 2f b3 3f
       -0.42031747 -0.16288485 0.7839037 1.3998853
000110 c4 26 8b 3e 43 ab be 3f 17 2e b0 bf 7d 5b 16 3e
       0.27178013 1.4896015 -1.3764066 0.14683338
000120 81 ad 07 3e 27 37 01 be 14 04 d8 bd 14 56 e3 3d
       0.1324978 -0.12618695 -0.10547653 0.111004025
000130 fc 95 63 be c1 e9 09 3e 38 2c c3 bd 27 79 3f 3e
       -0.22225183 0.13468076 -0.095299184 0.1869856
000140 7d 11 d3 3e f5 33 d7 bf ec 76 28 bf cf d1 e0 be
       0.4122428 -1.6812731 -0.6580646 -0.4391007
000150 8f be 74 bf d2 b4 24 bf c0 54 9e 3f 39 dc f9 be
       -0.9560327 -0.6433841 1.2369614 -0.4880083
000160 c3 03 b0 3c b0 e2 5a 3e 75 52 ac 3d e2 57 d0 bd
       0.021486169 0.21375537 0.08414165 -0.10173012
000170 ee 08 18 be 10 5a 4e bd 7f a1 18 be 94 7d 8b 3e
       -0.14847156 -0.05037886 -0.14905356 0.27244246
000180 5c 7f f5 be 48 ee 26 bd 95 a0 40 3e 2b 9d eb 3d
       -0.4794873 -0.040754586 0.18811257 0.11504587
000190 98 fa af be ea 3c 61 3f 80 c3 6c bf 43 be f6 be
       -0.34370875 0.8798357 -0.9248581 -0.48192033
0001a0 aa f2 9c be 09 a2 de bd a8 56 c6 3d 19 4f 3f bd
       -0.30653888 -0.108707495 0.09684497 -0.046706293
0001b0 a6 2f b8 3b d3 c8 5e 3e 38 ac f8 bb 60 c5 cc b9
       0.0056209145 0.21756296 -0.0075888894 -0.00039056968
0001c0 7b de a4 be 6c 1b 01 3f 8b ee d4 be a3 02 89 be
       -0.3220099 0.5043247 -0.41588244 -0.26759824
0001d0 92 61 2d be 0a 24 7f 3f 3a 37 90 3f 5d bc 96 3e
       -0.16931751 0.99664366 1.1266854 0.29440585
0001e0 8d 52 4c 3e 19 02 44 be 17 31 a8 be 92 50 bc bd
       0.19953366 -0.19141425 -0.32849953 -0.09195055
0001f0 89 fa cd bc c9 7d f7 3d 37 a7 12 be 9f 55 da 3e
       -0.025143879 0.120845385 -0.143216 0.4264345
000200 70 f3 12 3e 98 cd fd be c6 12 43 3f b4 88 ab 3d
       0.14350677 -0.49570918 0.7620052 0.083756834
000210 5f 35 c6 bf e4 c2 c5 bf 75 7d 94 bf fc 77 bb be
       -1.5485038 -1.5450101 -1.1600786 -0.36614978
000220 ac 2c 3e bd ad 8f e4 bc 6c c4 b1 bb 44 97 db bd
       -0.04642932 -0.027900541 -0.0054250266 -0.10722211
000230 6d 65 88 be 78 2b 3c 3e 91 aa 5a 3e 4c c9 90 3e
       -0.26639882 0.18375957 0.21354128 0.28278577
000240 92 35 80 3e 45 13 01 c0 2c 89 8a be e9 83 b8 3e
       0.2504087 -2.016801 -0.2705778 0.3603814
000250 1f 7c d0 3e 3b 22 b8 3f b9 e9 11 bd 3c ed 1f 3f
       0.40719697 1.4385446 -0.035623286 0.62471366
000260 b9 43 48 3e c8 16 c8 bd b6 cc 71 3c d2 6d 21 be
       0.19557084 -0.0976997 0.01475828 -0.1576455
000270 e3 53 89 be cc 6f cd 3d c5 9b ba bd 8d f6 0b 3e
       -0.26821813 0.10031089 -0.09111742 0.1366827
000280 a0 68 2a 3e 66 eb 1a bf c2 45 63 bf d9 c6 8b bf
       0.16641474 -0.6051544 -0.88778317 -1.0920058
000290 bf bd e6 3f c9 5e f0 3d 26 d3 01 bf 76 bf 9d be
       1.8026656 0.11736829 -0.5071281 -0.30810136
0002a0 aa 84 d1 3d 61 54 c9 3b 01 0e 15 be b9 a6 ad 3c
       0.10230382 0.006144092 -0.14556123 0.021197664
0002b0 dd 1e 4f 3e a6 a2 4e 3d d3 8d 46 3e 8a f2 31 3e
       0.20226617 0.050448082 0.19390039 0.17377678
0002c0 38 a7 83 3f b0 1f 89 bf 86 d7 70 bd fe 06 7d 3f
       1.0285406 -1.0712795 -0.05879929 0.98838794
0002d0 cb 8a 65 bf 80 e8 ad 3f 8c 47 97 3e 79 45 95 3e
       -0.89664906 1.3586578 0.29546773 0.29154566
0002e0 28 c4 21 be f7 17 00 be 76 15 ff bc 26 9e 1f be
       -0.15797484 -0.12509142 -0.031138163 -0.15587673
0002f0 ab aa 9f be 92 d2 73 be e4 78 da 3d ef 98 0b 3e
       -0.31184897 -0.23810795 0.10667589 0.13632558
000300 7e 3d c7 bd 29 08 07 3f 72 65 16 be 3e c1 c9 bf
       -0.097285256 0.52746826 -0.14687136 -1.5762098
000310 9a 8b ea 3e 47 95 0f bf a3 37 d5 3f bc 4c 0e bf
       0.45809633 -0.56087154 1.6657604 -0.5558584
000320 ef e2 00 3e 1b 84 82 be be cd b7 3d 83 bd 5e bd
       0.12586568 -0.25491413 0.08974789 -0.05437995
000330 03 1f 88 3c 9d 1d 43 3e 4a 61 86 be 5e 26 be 3d
       0.01661635 0.19054265 -0.262461 0.09284662
000340 3a e3 0b 3f 29 c5 27 bf 9a f2 8e 3f 8b 21 15 bf
       0.54643595 -0.6553522 1.1167786 -0.5825431
000350 c7 13 bf 3f 6b 33 e3 3e 45 75 75 be f7 00 1f bf
       1.492791 0.44375166 -0.23970516 -0.6211085
000360 c0 25 32 be cb bf 9c be 4f 2e 10 3d 5c f1 17 3e
       -0.17397213 -0.30615076 0.035200413 0.14838165
000370 53 bb 98 bc 28 c0 20 3d f7 5c 1c 3d 2c 14 b2 3e
       -0.01864401 0.039245754 0.038174596 0.34781015
000380 86 99 1a 3e b3 b2 e9 bf ff 94 a9 bd 50 dc 81 3f
       0.15097627 -1.825766 -0.08280372 1.0145359
000390 fd 25 17 3e f8 f7 6b 3d 55 29 e2 be 79 15 ae 3f
       0.14760585 0.05760953 -0.4417216 1.3600303
0003a0 56 76 9a be cc 24 bb 3d e2 29 72 3e 71 c3 76 be
       -0.30168408 0.09137878 0.2364879 -0.24097992
0003b0 f9 0d d3 bd 86 d3 8b 3d 4c 78 8c 3e f7 9c 18 3e
       -0.103053994 0.06827454 0.2743553 0.14903627
0003c0 c3 df 80 3f c6 37 9a 3e 7b 9a 57 3f 91 7c a6 3f
       1.0068287 0.30120677 0.84220093 1.3006765
0003d0 e5 94 78 3f ae d9 6d bf f8 59 58 bf c0 cd ef 3e
       0.97102195 -0.9291028 -0.8451228 0.46836662
0003e0 47 6b 86 bd bd c8 07 bd 2a f5 57 be c0 50 25 be
       -0.0656343 -0.033150423 -0.21089616 -0.16144085
0003f0 42 f3 36 3d 2a bf a5 bc a2 15 00 3e 5c fd 48 be
       0.044665582 -0.020232756 0.12508252 -0.19627899

fc_layers.0.bias f4 [64]
000000 20 e6 43 bf 7b 2e 6a bf c0 5f 3d bf 2d 3a 2d be
       -0.7652302 -0.91477174 -0.7397423 -0.16916724
000010 68 87 e1 be 00 01 f4 bd 1d cf 11 bf 81 3b 28 bf
       -0.4404862 -0.11914253 -0.56956655 -0.65715796
000020 01 76 50 3c d9 90 86 bf 47 1f 0d bf 89 4a 0c bf
       0.012723447 -1.0512954 -0.5512585 -0.5480123
000030 54 cb 98 3e 52 ac 0d bf fb d1 93 ba d8 54 19 3f
       0.29842627 -0.55341065 -0.0011277789 0.59895086
000040 88 f5 ef be a9 8a 5c be 69 7d e2 bd 9e 1b 13 bf
       -0.46867013 -0.2153727 -0.11059076 -0.57464015
000050 82 f8 53 be be 16 28 3e f4 e6 3c be bf fb 2b 3f
       -0.20700267 0.16414925 -0.18447477 0.6718101
000060 e0 cf 4f bf df 1a 00 bf 97 e1 2d 3d 5b f1 77 bf
       -0.8117657 -0.50041 0.042451467 -0.96852654
000070 44 80 1a 3f 19 3c 55 bf c6 cc 2d bd fa ef 2b bf
       0.6035197 -0.83294827 -0.042431615 -0.6716305
000080 1c 29 a7 3e bb fd c4 3e 16 78 63 3f fe d5 08 bf
       0.3264855 0.3847483 0.8885511 -0.53451526
000090 0a a3 8b bd 61 0c 34 be e9 28 25 bf 27 32 f1 be
       -0.068182066 -0.17582847 -0.6451555 -0.47108576
0000a0 9f 0d a4 be 45 2a 91 bf 22 cf 3b bd 3e fe ca be
       -0.32041642 -1.1341025 -0.045851834 -0.39647096
0000b0 ae be df be 28 70 50 bf f9 f4 1b bf d8 d3 1b bf
       -0.43700165 -0.81421137 -0.60920674 -0.6087012
0000c0 65 23 1f bf 41 d5 7a 3e 32 72 57 bf 8c 3b ce be
       -0.6216338 0.24495412 -0.84158623 -0.40279806
0000d0 18 06 62 bf c9 7a cf be e2 20 6f be b5 a4 09 bf
       -0.8829055 -0.40523365 -0.23352388 -0.5376695
0000e0 28 85 76 be 0f 22 52 bf 24 73 2f be 0a 5d 60 3f
       -0.24074233 -0.8208322 -0.17133766 0.87641966
0000f0 65 75 b5 be 80 6f ea 3d 26 52 2e bf 1d a0 11 bf
       -0.35441127 0.11447048 -0.680941 -0.5688494

fc_layers.1.weight f4 [32, 64]
000000 09 5c ab be bc 88 a6 3e c8 3e 69 3e 21 8f 1e 3e
       -0.33468655 0.32526195 0.22777855 0.15484287
000010 3d 45 54 3f 2d d2 74 be b0 f7 f0 3c 15 50 1b be
       0.8291815 -0.239083 0.029414982 -0.15167268
000020 5b 1f 78 be 46 9d b6 3e ab fe d1 be 15 10 7b bc
       -0.24230711 0.35666865 -0.4101461 -0.0153236585
000030 ee 54 45 be f6 40 60 be a1 3a 8a be f2 3e 2f be
       -0.1927068 -0.2189978 -0.26997855 -0.17113855
000040 7d 2b f5 3e a6 80 82 3a 80 64 a1 3d 66 56 27 3e
       0.4788474 0.0009956553 0.07880497 0.16341552
000050 26 6c b8 be ca 9d 6f 3c 78 15 1f 3f 69 0e 1f bd
       -0.3602001 0.014625022 0.62142134 -0.038832102
000060 25 8b 59 be 02 ac cd 3c da d9 79 be 70 34 81 3d
       -0.21244486 0.025106434 -0.2439951 0.0630883
000070 0f de 36 bf 01 0b a7 be 25 d3 17 bf eb 2c 57 3e
       -0.71432585 -0.32625583 -0.59306556 0.21013229
000080 e3 86 b4 bd 09 bc 51 bd 22 8b 00 bf 80 44 8c 3e
       -0.0881479 -0.051204715 -0.502123 0.2739601
000090 fa 75 67 bf 46 04 49 be be 3b 37 3e f4 56 1d 3e
       -0.9041439 -0.19630536 0.17893884 0.15365201
0000a0 d4 68 a8 be 6e 0b 29 be 87 53 ae 3d f7 d4 76 3e
       -0.32892478 -0.16508266 0.08512025 0.24104677
0000b0 96 da ae be 39 7b 10 bf ae d8 1e 3d 8e 36 ce 3e
       -0.34151143 -0.5643802 0.03878086 0.40275997
0000c0 eb 6d 52 be 04 3d 94 be ca bb c6 bd f6 41 50 3e
       -0.20549743 -0.289528 -0.09703787 0.20337662
0000d0 2c e8 ea 3e 3a 82 73 3f 90 98 f1 3d 77 fc 7b bd
       0.45880258 0.95120585 0.11796677 -0.061520066
0000e0 e0 3c 64 3e 5b 3a d1 3e 09 43 a1 be 2f c7 ad 3e
       0.22288847 0.40864834 -0.31496456 0.33941028
0000f0 ab 84 be 3e 02 6c 83 3d 5b 6a 89 be c3 18 f3 bd
       0.37210593 0.06417085 -0.26838955 -0.11869957
000100 a6 77 39 3e c3 bf 25 3e 23 97 c2 bd 5b 18 13 3e
       0.18112049 0.16186433 -0.09501483 0.1436476
000110 d9 c7 08 3f 39 dc 2f bd fc 1f 57 3e 0a 5f e5 3d
       0.53429943 -0.04293463 0.21008295 0.11199768
000120 bf f3 96 bd cf 91 33 be 27 88 cb be 8c 1a b3 bd
       -0.0737071 -0.1753609 -0.39752313 -0.08745298
000130 17 7e 93 3e b0 87 9a be 56 c0 f0 3d cb 4c 9c bd
       0.28807136 -0.30181646 0.11755435 -0.076318346
000140 b9 55 9f 3e b0 7a fa 3d 27 5e 5f be 23 ca a6 3d
       0.3112009 0.12230432 -0.2181326 0.08144023
000150 c1 04 12 3e b9 9c eb be c1 27 d2 bc ec a7 58 3d
       0.14259626 -0.46018007 -0.025653722 0.052894518
000160 54 4e cc 3d b8 dd 2b 3e 32 c8 29 3e d6 79 22 be
       0.099758774 0.16783798 0.16580275 -0.15866789
000170 06 e6 8f 3e 7d c3 24 be 11 3e aa bd e8 a7 e6 3e
       0.2810518 -0.16090198 -0.083126195 0.45049977
000180 73 13 bb be 49 10 f3 3d 6b 3a 8c bd 7b 0f d3 be
       -0.36538276 0.118683405 -0.0684708 -0.41222748
000190 91 9c 3a 3e 8c de ae 3e 9e 03 61 3d 4a 3e 67 bf
       0.18223788 0.34154165 0.05493509 -0.9032942
0001a0 1a c8 29 bf fe 67 eb bd bb 17 40 be 9c 76 3f 3e
       -0.66320956 -0.11494444 -0.18759052 0.1869759
0001b0 d6 0d ed be 12 0e eb 3e c6 2b e6 be 10 9e 8f 3e
       -0.46299618 0.45909172 -0.4495527 0.2805028
0001c0 13 0e 8b be ab 39 64 be 28 eb ff 3d 9c c4 e1 3e
       -0.27159175 -0.22287624 0.12496024 0.44095314
0001d0 c3 93 c2 be 10 d6 b0 3e c4 4e f8 3e 31 4c 3f bc
       -0.38003358 0.34538317 0.48497593 -0.01167588
0001e0 b0 1c 16 be c7 4f 7e be b9 9c 01 bd e0 70 ec be
       -0.14659381 -0.2483512 -0.031643603 -0.46179867
0001f0 85 8f 10 3e c7 38 96 3e a4 de 2e bf 79 91 6e 3e
       0.14117248 0.29340193 -0.6830847 0.23297681
000200 33 58 cb 3d 11 6a 0a 3e 57 81 34 be ce cc d5 3e
       0.09928932 0.13517024 -0.17627464 0.41757816
000210 84 91 c8 3e 6c c5 10 bf 15 60 b6 be d2 02 93 be
       0.3917352 -0.5655124 -0.3562018 -0.2871309
000220 52 a7 0d 3d 19 13 0b bf 8f 0c bc 3d 85 b9 86 3e
       0.034583397 -0.54326016 0.09182083 0.26313415
000230 de 23 11 3f 09 20 6d bf 8a 74 ca 3d e4 68 2c 3e
       0.56695354 -0.92627007 0.09885509 0.16836888
000240 24 48 4b be c6 58 17 bf f0 b0 aa be 6c 4f fa be
       -0.19851738 -0.5911983 -0.33338118 -0.4888872
000250 1b 92 7d bd 28 6b 7a be 76 8e 09 bf 4f f6 d1 3c
       -0.061906915 -0.2445494 -0.53733003 0.025630144
000260 95 88 e9 3e 7f 5e 0a bd f7 ac 32 bd 4a b4 36 bd
       0.45612016 -0.033781525 -0.043621983 -0.04460553
000270 4e 71 9b bf 3d bc 01 be 2f 6e 2b bf 5a 1e cb 3e
       -1.2143953 -0.12669463 -0.66965 0.39671594
000280 fc b4 09 bf 61 9c ad bc 73 9c c4 bd b4 bd be 3e
       -0.53791785 -0.021192731 -0.09600153 0.37254107
000290 17 16 98 bc be 1b 55 3d d6 cf d2 be f6 be 01 bf
       -0.01856522 0.05202841 -0.4117419 -0.5068201
0002a0 58 07 dc bd a8 3a b0 3e c8 22 6e bf 71 79 2c 3f
       -0.10743588 0.3441975 -0.9302182 0.67372805
0002b0 1a 01 59 bf 0c 35 fc bd aa f4 84 bd 2a 96 ac 3e
       -0.84767306 -0.123148054 -0.064919785 0.33708316
0002c0 14 98 7f be 9a 91 d5 bd e0 78 03 3e 1f d5 36 3e
       -0.24960357 -0.10428162 0.12839079 0.17854737
0002d0 e2 16 3f be b6 07 4a 3f fe f0 a6 3e 71 26 11 bd
       -0.18661073 0.78918016 0.32605737 -0.03543705
0002e0 32 9b 2a be d4 87 d2 3c 42 d9 9a bd ad 3f cd 3d
       -0.16660765 0.025699534 -0.0756097 0.10021911
0002f0 43 e8 ce bb d4 87 39 be 06 8d 0c bf 70 3c 8e bd
       -0.006314309 -0.1811822 -0.54902685 -0.06945121
000300 6b 69 07 bf ec 06 b2 be a4 58 3a bf db 28 17 3e
       -0.5289523 -0.34770906 -0.72791505 0.14761679
000310 28 d6 5b be c4 bd a3 3e 14 ea 13 be cf f9 28 3e
       -0.21468413 0.31980717 -0.14444762 0.16501544
000320 b0 04 d0 bd 4c cd fb 3e 34 62 99 3e 19 22 2c 3d
       -0.10157144 0.49180067 0.29957736 0.042024706
000330 e6 c7 ce bd bc b3 02 3d 26 6f 02 3f a2 0c 89 3e
       -0.10096721 0.03190969 0.5095085 0.2676745
000340 36 e6 e7 3e 07 ad cf 3d 96 32 63 bd 2c 18 df be
       0.45292825 0.10140424 -0.055468164 -0.4357313
000350 73 59 96 be 62 6d a6 be 64 4a 88 bf e1 c0 eb 3e
       -0.2936512 -0.32505327 -1.0647702 0.46045592
000360 5a df 5a 3f e7 1d 60 3e 56 9a 0e be b7 2c 0c bf
       0.8549706 0.21886407 -0.13926062 -0.5475573
000370 d5 f9 1b 3e 0c 16 1a bf b0 a9 0b 3f 13 3a cb 3d
       0.15232022 -0.6018989 0.545558 0.09923186
000380 f4 3c 44 bd 61 3c 15 bb d1 f1 83 3e 55 6c 27 3f
       -0.047909692 -0.0022771584 0.2577043 0.65399677
000390 27 a6 89 3d b0 07 57 3e 57 5f 42 be 87 72 02 bf
       0.06721144 0.20999026 -0.18981682 -0.50956005
0003a0 f1 20 5d bd f7 eb c6 bd 90 8e f9 bd 4f 25 dd 3c
       -0.053986493 -0.097129755 -0.12185395 0.02699533
0003b0 78 0c 42 3f 2e 36 80 3e fa 4c a8 be 27 3c 6f be
       0.75800276 0.25041336 -0.32871228 -0.2336279
0003c0 0f a7 8e be c9 1b 7b 3e 04 2c 94 bf 17 b5 47 3d
       -0.2786183 0.24522318 -1.1575933 0.048756685
0003d0 05 7d 80 bf 28 f7 62 be ce 80 40 3d 2d ae a2 be
       -1.0038153 -0.22164595 0.046997838 -0.3177351
0003e0 b1 59 b3 3e f6 0e ca 3d 9a e6 60 3f 99 66 c8 bd
       0.35029367 0.09866135 0.8785187 -0.09785194
0003f0 de 6c a4 be db 1d 96 bc ad 04 d9 bd b3 f4 8f be
       -0.3211431 -0.018324783 -0.10596595 -0.28116378

fc_layers.1.bias f4 [32]
000000 fc 4a 1f be 92 2c 6c 3e 27 dd 9b be aa 78 e0 3d
       -0.15555948 0.23063877 -0.30442163 0.10960515
000010 6c ff 28 bd 04 15 db 3c c4 a4 17 be 0c 3b e1 bd
       -0.041259214 0.02674342 -0.14808947 -0.109975904
000020 8e 10 db bd c4 27 f5 84 be 37 eb 3d ab cd ca bd
       -0.10696517 -5.7635742e-36 0.11485241 -0.09902509
000030 d9 d8 6c be b6 95 33 be 29 8e a8 be 49 60 24 3e
       -0.23129596 -0.17537579 -0.3292096 0.16052355
000040 61 d9 17 bf 0e 18 f4 84 52 52 0c bf bd 45 f2 84
       -0.5931607 -5.7386215e-36 -0.5481311 -5.695797e-36
000050 e1 fe f1 be 27 0b d2 be 50 3d fc bd a0 84 98 bd
       -0.4726477 -0.41024134 -0.12316382 -0.07447171
000060 7b 20 98 bd 2c 54 21 be 90 0b 9d 3e 51 51 09 3a
       -0.0742807 -0.15754765 0.30672884 0.00052382523
000070 32 fd 91 be 32 b7 f8 be a9 4b 30 bf 99 91 69 be
       -0.28513485 -0.48577267 -0.6886545 -0.22809447

fc_layers.2.weight f4 [16, 32]
000000 d5 25 24 bf 79 8a 47 be d0 18 09 bf 0f da 46 be
       -0.6412023 -0.19486417 -0.53553486 -0.1941912
000010 27 e8 88 3e d1 7e 4a bf b1 52 af 3e 31 c0 2a bf
       0.26739618 -0.79099756 0.34242776 -0.6669951
000020 ad d5 b4 be a0 10 f4 84 46 0f e8 bc 4c 4f 27 be
       -0.35319272 -5.7379392e-36 -0.028327595 -0.16338843
000030 b1 61 11 be db ae 34 3d d9 1c 0b bf dc bb 60 3e
       -0.14197423 0.044112068 -0.54340893 0.21946663
000040 fc af 84 3f 00 90 f7 04 dd a5 e7 3e 17 37 f6 04
       1.0366206 5.8201664e-36 0.4524373 5.7884914e-36
000050 12 e9 b9 bd 5c 97 59 bf 7d f4 e2 be a6 02 b9 bd
       -0.09077658 -0.8499658 -0.44327155 -0.09033708
000060 a2 60 c4 bc 0d ec db 3e 49 cb 14 3f 83 2d 15 bf
       -0.02397186 0.4295353 0.5812269 -0.5827257
000070 5c c3 a3 3e 80 8d 29 3f e8 cd b8 3f 49 91 d3 bd
       0.31984985 0.66231537 1.4437838 -0.10330445
000080 7a f6 8b 3e 4d ca 2b 3e 95 11 85 3e 5e 97 a3 3e
       0.27336484 0.1677639 0.25989977 0.31951421
000090 d4 42 46 be 97 6e 32 3f 76 3a f1 bd 5d 87 8d 3e
       -0.1936143 0.69699997 -0.11778729 0.27642336
0000a0 2b 3d 07 be 17 ac f3 84 ed 14 8e 3d 1b 93 f5 be
       -0.13206927 -5.7287065e-36 0.06937585 -0.47963795
0000b0 8f bf a4 3c d4 43 8b 3e 65 ae 02 bf e9 fa 10 bf
       0.020110874 0.27200186 -0.51047355 -0.5663286
0000c0 20 d7 bc 3e f2 8f f2 84 70 93 71 3e 15 eb f5 84
       0.36882877 -5.702612e-36 0.23591399 -5.7815112e-36
0000d0 03 b2 d1 3e d3 16 cf 3d a3 d1 02 bf 7e 09 7f 3e
       0.40956125 0.10111775 -0.5110113 0.24905965
0000e0 d2 60 d4 3c 92 f5 26 bf 69 c4 4b bd cf 48 b0 be
       0.025925074 -0.6521846 -0.04974786 -0.3443055
0000f0 b0 71 ba 3e 49 99 24 3d 8a bf fb 3e 90 bb de be
       0.36414862 0.040185247 0.4916957 -0.43502474
000100 ec 79 c0 bd 7e 16 f1 be e5 5d cc 3d 23 75 d1 be
       -0.09398255 -0.47087473 0.099788465 -0.4090968
000110 04 af eb 3d 3e 57 d1 be d1 a6 9d be bb 05 08 3f
       0.11507991 -0.40886873 -0.30791333 0.53133744
000120 50 ac 0e bf 27 3e f2 84 84 1d a0 bb 59 f0 a2 3e
       -0.5573168 -5.6951004e-36 -0.004886331 0.31823996
000130 9b 46 31 3e 3c 23 1c 3d 9a 58 eb 3e 19 03 1e 3e
       0.1731209 0.03811954 0.45966035 0.15430869
000140 9a c7 19 3f 65 47 f6 04 f3 e8 59 3f 8b ac f3 84
       0.6007019 5.7899888e-36 0.8512108 -5.728748e-36
000150 2a 15 57 3d ce 5f 28 bd f8 44 80 3d 54 ea d3 3d
       0.052510418 -0.04110699 0.06263155 0.10347429
000160 fa 1c bf bd c3 54 1e bf ec c9 6d 3e 75 03 c1 3e
       -0.09331699 -0.61848086 0.23221558 0.3769795
000170 25 81 b5 3e fb d6 ab 3f 4a a6 9e 3f d1 06 d4 bd
       0.35450092 1.3424982 1.2394497 -0.103528626
000180 27 3f 09 3f ae 2e a0 bc e2 13 ca 3e f9 f7 e7 3e
       0.5361199 -0.019553509 0.39468294 0.45306376
000190 f9 e4 cf be 4b 93 c5 be ac 0b ed bd b7 d8 09 bf
       -0.4060438 -0.38588938 -0.11574492 -0.53846306
0001a0 3d e1 9f 3d 9f b9 f4 04 bc 15 a4 3d 50 3b e0 3c
       0.07806633 5.753459e-36 0.08011958 0.027372032
0001b0 4d 8a 69 3e a7 ab 1c bf 4e 0a a1 3e a8 77 18 bf
       0.22806664 -0.6119942 0.31453174 -0.5955758
0001c0 20 43 44 bf eb b4 f3 04 1c 2e 53 be b3 26 f2 84
       -0.76664925 5.7295172e-36 -0.20623058 -5.6929466e-36
0001d0 76 c6 1b bf 65 87 d5 3e ec eb 24 be 30 a9 b1 3e
       -0.608497 0.4170486 -0.16105622 0.34699392
0001e0 12 a6 91 bc 70 8e 90 3e cf 26 7a 3e 35 ce 95 3e
       -0.017779384 0.2823367 0.24428867 0.29258886
0001f0 d1 7e 3d bf 4d 1a 48 bf 66 c5 0a bf 3b 40 74 be
       -0.7402163 -0.7816513 -0.54207456 -0.23852627
000200 0a 3f 67 3e 0f c9 cc 3d 22 32 69 be ee 08 f1 be
       0.22582641 0.099992864 -0.2277303 -0.47077125
000210 30 1e f4 3e b4 85 b6 3c 83 5c 9c 3e 5f f2 1d 3f
       0.4767928 0.022280551 0.3053933 0.61697954
000220 1e 0b 42 3b 90 45 f2 84 11 7b a4 3e 94 b6 a5 3b
       0.0029608677 -5.695781e-36 0.32125142 0.0050571654
000230 b2 9a 6b 3e 63 2e 79 3e 33 6a 4e bf 7d fe bb 3e
       0.2300823 0.24334101 -0.806308 0.36717597
000240 06 30 31 3f 07 32 f2 84 1e 05 c2 3e 8b 42 f5 84
       0.692139 -5.693987e-36 0.3789453 -5.7660333e-36
000250 f4 e9 63 3e 15 49 ac bf 36 a4 cc 3e 16 7b ff bd
       0.22257215 -1.3459803 0.39969033 -0.12474649
000260 df d5 50 be e2 37 3f bd 83 bc 85 be ee ae 10 be
       -0.20394085 -0.046684153 -0.26120386 -0.1412923
000270 72 a0 80 3e 3f 03 78 3f d7 b6 58 3f 11 37 88 3e
       0.2512241 0.96879953 0.8465399 0.26604512
000280 16 76 b4 3e ab 8f 9d be 58 92 36 be 1a bc 01 bd
       0.35246342 -0.30773672 -0.17829263 -0.03167353
000290 b3 b4 51 bf 56 3e 09 be ba 0d d8 be 85 68 85 3e
       -0.8191635 -0.13402686 -0.42197973 0.26056305
0002a0 73 b4 d4 be a2 7f f2 84 48 61 45 be 4e 7a 8f be
       -0.41543922 -5.701114e-36 -0.19275391 -0.28023
0002b0 72 3a 18 be ba 1f b2 be e1 2d 93 bd b6 50 59 be
       -0.14866045 -0.3478983 -0.07186485 -0.21222195
0002c0 7e 6f 80 3f ba 0f f2 84 45 19 1e 3f 9b 36 f3 84
       1.0034025 -5.690837e-36 0.6175731 -5.7179173e-36
0002d0 28 19 35 bf f6 43 ed 3e 0f 3c b2 be be ca 5c 3e
       -0.7074151 0.46340913 -0.34811446 0.21561715
0002e0 26 a6 86 be 93 89 da be 13 f0 da be ce 36 81 bf
       -0.26298636 -0.42683086 -0.42761287 -1.009485
0002f0 41 a7 77 3d 89 a2 88 bf cf 3a 15 bf 78 c3 b6 3d
       0.06046224 -1.0674602 -0.5829286 0.089240015
000300 40 ff 94 3d b6 05 2e bf 2f 51 b3 bd ea 2d d8 3e
       0.072752476 -0.67977464 -0.08755719 0.4222253
000310 be 4e 21 be 84 06 7f bf 8c f0 a2 3e 43 07 86 3e
       -0.15752694 -0.9961932 0.31824148 0.26177415
000320 33 86 1b be 34 cb f2 84 8d b5 59 bf 50 d4 a7 3d
       -0.15187912 -5.708054e-36 -0.8504265 0.08194792
000330 03 3a 81 3e 55 5e 43 3e b0 4b 23 bd 74 18 46 bd
       0.25239572 0.19078954 -0.039867103 -0.048363164
000340 d6 25 b2 3e dc 73 f5 84 77 eb 5f 3f a5 cc f6 84
       0.34794492 -5.7705623e-36 0.87468666 -5.802226e-36
000350 32 5a 0b 3f 67 77 2d 3e 2f 85 21 3e e5 20 66 be
       0.544345 0.1694008 0.15773462 -0.22473486
000360 d4 d0 8d bf 49 e7 3c be 2f 5a c1 3e 95 14 10 be
       -1.1079354 -0.18447603 0.37764117 -0.14070351
000370 9f 1d dc 3e d4 16 84 3e 1e bd a3 3f 87 3c 68 3d
       0.4299135 0.25798666 1.2792089 0.05669835
000380 1e 4e 86 bd 00 7f 9f be 57 b1 5b bf 90 ae d6 be
       -0.065578684 -0.3115158 -0.85817474 -0.41930056
000390 0a 1b e9 3e 03 16 d8 bd 7f 8d b5 bd 13 36 11 3f
       0.45528442 -0.105510734 -0.08864879 0.56723136
0003a0 7b 9c 4c 3e 6d 6f f6 84 87 94 1e 3e 57 6d 7c 3e
       0.19981568 -5.793665e-36 0.15486346 0.24651085
0003b0 42 a9 fc 3d f0 fd cf 3d 9f 9f a7 be 29 01 c0 3e
       0.12336971 0.101558566 -0.3273897 0.37500885
0003c0 4f 2d 1f 3f 8c 96 f2 84 b3 15 98 3e b6 cd f5 84
       0.6217851 -5.7032182e-36 0.29704055 -5.778814e-36
0003d0 91 8a 92 3e 2d 44 a6 be b9 5d 7f 3e b6 76 03 bf
       0.28621343 -0.3247389 0.24938096 -0.51353014
0003e0 1a 8b d1 be 01 02 42 3e 41 1c 26 3e 1a e2 44 be
       -0.4092644 0.18946077 0.16221716 -0.19226876
0003f0 5b 3e 8f bc b9 20 bf 3f 7f f3 9d 3f 15 1e 52 3e
       -0.017485788 1.4931861 1.2339934 0.20519288

fc_layers.2.bias f4 [16]
000000 1b 87 bb 3c 9f 8f 9d 3e 90 8d bb bd 5b c7 41 3c
       0.022891572 0.30773637 -0.0915786 0.011827315
000010 c6 f5 10 bd 1b cb 0c bf bc 3e f0 be 6e 08 1d bd
       -0.035390638 -0.54997414 -0.46922863 -0.038338117
000020 db 7a a5 3f a1 a5 71 bd 4c 36 26 be fc 91 ed 84
       1.2928118 -0.058995847 -0.1623165 -5.5852498e-36
000030 e6 76 dd 3d fe 60 37 3f 09 2e 8f 3e 1c 35 ed 84
       0.10813694 0.71632373 0.2796481 -5.5767205e-36

fc_layers.3.weight f4 [8, 16]
000000 1d ad a0 bf d7 78 21 3f 7d e8 6f be fe 67 27 3e
       -1.255283 0.6307501 -0.23428531 0.16348264
000010 ad 22 a9 bd aa 62 69 bf 4a 2e 29 bf 70 5a 06 bf
       -0.08258567 -0.91166174 -0.66086257 -0.52481747
000020 d4 c8 2c 3f fb c2 0e 3e 51 41 71 3e 60 0f ee 84
       0.6749394 0.13941567 0.23560072 -5.596765e-36
000030 4e c8 04 3f 2f cd 8a 3d 1a aa c8 bd 36 a1 11 05
       0.5186814 0.06777417 -0.09798069 6.847477e-36
000040 0e 4b 9a 3e 4f 3f 5c be 79 62 85 3e 04 70 bc bf
       0.30135387 -0.21508525 0.2605169 -1.4721684
000050 24 22 b4 3e d5 cc 83 3e a6 c9 92 3e 15 a0 a0 3e
       0.35182297 0.25742212 0.2866947 0.31372133
000060 e6 23 26 3d 0a 80 27 be a3 d6 80 be cf e2 d8 84
       0.04056158 -0.16357437 -0.25163755 -5.0989647e-36
000070 68 dc e1 3d 7d d2 5d bf c2 39 28 be 9f 7c e4 04
       0.11028367 -0.86649305 -0.16428283 5.371699e-36
000080 64 e0 3c bf 03 1a 71 3e 2f be 13 bf 8a b1 fe 3d
       -0.7377989 0.23545079 -0.5771207 0.12436207
000090 c1 fb a7 be ea 28 3b bf 04 5d 8f bf f2 51 40 be
       -0.3280926 -0.73109305 -1.1200261 -0.1878126
0000a0 26 2d b9 3e 51 de e6 3e dc 05 2a 3e 7b 23 ef 84
       0.36167258 0.4509149 0.16603798 -5.6221214e-36
0000b0 93 ef b3 3e 37 73 04 3e a8 54 63 3e ce f4 03 05
       0.35143718 0.12934576 0.22200263 6.204554e-36
0000c0 07 9c f3 84 cd 86 f2 84 41 f7 f5 84 56 b6 f7 84
       -5.7272314e-36 -5.701772e-36 -5.782629e-36 -5.823687e-36
0000d0 9e c9 f3 84 80 dd f4 84 b5 a2 f5 84 47 84 f6 84
       -5.731418e-36 -5.756754e-36 -5.7748646e-36 -5.79558e-36
0000e0 9f 82 f6 84 68 0a f3 84 22 2d f4 84 a6 c2 f0 04
       -5.795428e-36 -5.7138582e-36 -5.7405572e-36 5.6602485e-36
0000f0 47 db f4 84 9a 28 f4 84 9e 26 f7 84 5c 6e ed 84
       -5.75655e-36 -5.740141e-36 -5.8104885e-36 -5.581978e-36
000100 42 dd 05 bf df ab d0 bc 03 3f b7 be 76 c1 a9 3e
       -0.5229074 -0.02547258 -0.35790262 0.3315541
000110 06 04 38 bf 42 0d cb be 8a b8 71 bf 24 1b 0c be
       -0.7188114 -0.39658552 -0.9442221 -0.13682228
000120 09 ab f1 3e e1 38 a4 bd 54 e1 59 bd a1 fb ef 84
       0.47200802 -0.08018661 -0.053193405 -5.6419715e-36
000130 93 bf 8f be 69 c6 4d 3e 64 ae 51 3d 52 6d 70 84
       -0.28075847 0.20095219 0.051191702 -2.8262062e-36
000140 c1 fc 15 bf 58 52 31 be d4 d6 6a be dc 6a 29 3e
       -0.58588797 -0.17316568 -0.22933513 0.1654467
000150 13 a4 4d bf 53 4a 86 be c8 9a 5a bf 94 ee 33 bf
       -0.8032848 -0.2622858 -0.8539243 -0.70285916
000160 f3 d1 01 3f aa a3 c2 be 60 52 47 3d 83 5f ef 84
       0.5071098 -0.3801549 0.048662543 -5.6276344e-36
000170 23 50 f2 be cd 5a db 3e b0 3b 0a 3e 32 68 49 84
       -0.47326764 0.42842713 0.13499331 -2.367528e-36
000180 f9 96 9b bf e8 eb c4 bd e3 cc 64 bf a2 b5 ce 3e
       -1.2155448 -0.09615308 -0.8937513 0.4037295
000190 13 19 4c be 78 86 d4 bf 92 91 42 bc 93 d1 9c 3e
       -0.1993144 -1.6603537 -0.011875527 0.30628642
0001a0 e9 6e 23 bf eb d1 5b be c2 e3 63 3e 28 e7 f4 84
       -0.6384111 -0.21466796 0.22254851 -5.7576408e-36
0001b0 19 ca 36 3f 4c a5 c8 3b 44 42 2e 3f 4e 95 5b 04
       0.71402127 0.0061232205 0.68069863 2.5811884e-36
0001c0 0d 5c 5e 3e 57 fb 81 3e 5f 6f 84 3e 27 c9 71 bf
       0.21714802 0.2538707 0.2586622 -0.9444756
0001d0 5d 66 5c 3e 51 34 1c 3f e2 22 e1 3e 9c 96 f5 3b
       0.21523423 0.6101733 0.43971926 0.0074947607
0001e0 48 a3 ea 3e a6 7f 49 3e b8 18 54 bf 7e c5 f3 84
       0.458277 0.196776 -0.8285022 -5.7310393e-36
0001f0 92 bf ff be 78 72 cc 3e f2 a9 38 bf 3c b4 ef 04
       -0.49950844 0.39931083 -0.72134316 5.635415e-36

fc_layers.3.bias f4 [8]
000000 75 45 a7 3e ea ca 27 bb e2 f4 9d 3d dd c1 f4 84
       0.3267018 -0.0025603124 0.07712723 -5.754216e-36
000010 8c 58 dc 3e a5 9a e8 3e cc d3 c9 be bd 95 c8 3e
       0.43036306 0.45430484 -0.394194 0.3917674

affine_output.weight f4 [1, 8]
000000 6e 62 02 bf cb 41 8d be 36 42 96 be 0c f0 f4 04
       -0.5093144 -0.2758926 -0.2934739 5.7584573e-36
000010 89 99 91 be 84 05 cf be 77 61 d8 3e be 1e 1e 3f
       -0.2843745 -0.40433896 0.4226186 0.6176566
