neural-collaborative-filtering/src/checkpoints/mlp_factor8neg4_bz256_166432168_pretrain_reg_0.0000001_Epoch73_HR1.0000_NDCG0.6901.model (torch, 298910 bytes, 12 tensors)

embedding_user.weight f4 [7700, 8]
000000 ab 69 f5 04 11 d4 f1 84 71 7c f3 84 7c 1a f5 04
       5.7696264e-36 -5.685358e-36 -5.7243307e-36 5.7623545e-36
000010 3c ce f2 84 e0 35 f7 04 df 3a f4 84 84 5d f6 84
       -5.7083323e-36 5.8118897e-36 -5.741819e-36 -5.7920203e-36
000020 fa 7d f2 84 6c 73 f2 04 6c 5d f4 04 1e 19 ee 04
       -5.7009618e-36 5.6999925e-36 5.744992e-36 5.5976598e-36
000030 08 3a f7 84 a1 e1 f3 04 59 3d f6 04 2f 00 f3 04
       -5.8122714e-36 5.7336233e-36 5.789066e-36 5.7129194e-36
000040 14 25 f5 84 1d 9d f4 04 d8 a9 eb 84 68 e0 f1 04
       -5.7633274e-36 5.750841e-36 -5.540421e-36 5.6864912e-36
000050 a6 4e f7 04 c6 5a f4 04 b9 66 f2 84 a0 2e f5 84
       5.8141648e-36 5.7447487e-36 -5.6988262e-36 -5.764204e-36
000060 11 3c 84 bf 6f a5 84 3f bb d9 29 3f 7e 09 0f bf
       -1.0330831 1.0362986 0.66347855 -0.5587386
000070 c5 65 88 bf 09 7d 4e 3f f6 09 9b bf fa 78 5d bf
       -1.0656058 0.8065954 -1.2112415 -0.8651272
000080 ea 09 81 be 0a 92 f2 bd da b2 53 3f 82 11 3a bf
       -0.25202876 -0.11844261 0.8269478 -0.72682965
000090 cf 3d 65 bf 12 02 35 3f 5f d4 fd be 7b d2 f3 bf
       -0.8954744 0.70706284 -0.4957609 -1.9048609
0000a0 8b a3 92 bf ef f0 79 3f b4 0e 78 3f ea 59 40 bf
       -1.1456159 0.9763326 0.96897435 -0.751372
0000b0 5a a0 a3 bf ac ee 5e 3f 5f 92 93 bf 1e e5 61 bf
       -1.278331 0.87082934 -1.1529044 -0.8824023
0000c0 7c a1 b4 bf 84 bf 27 bf e1 88 8c 38 a1 ae aa be
       -1.4111781 -0.65526605 6.701216e-05 -0.33336356
0000d0 5c ad 77 bf 16 7d 89 3f 71 33 9a be a4 a0 8f bf
       -0.967489 1.0741298 -0.30117372 -1.1220899
0000e0 81 b9 1c be 38 35 56 3e 64 27 eb 3e dd 5a 02 40
       -0.15305139 0.20918739 0.4592849 2.0367959
0000f0 58 82 9a bf 05 90 f8 3e 7f 20 09 3f 55 b4 77 c0
       -1.2071028 0.48547378 0.5356521 -3.8703816
000100 70 2f 98 3f 04 5c 25 3f bb 1c 44 3f 90 96 73 bf
       1.1889477 0.6459353 0.7660634 -0.95151615
000110 ad 9f 85 be e2 9d 7e 3e 4e 9b c0 bf 7c 79 ae bf
       -0.26098385 0.24864915 -1.5047395 -1.3630824
000120 5c 1c a6 bf 67 7a 4c 3f db bd 26 3f ea 5d 82 bf
       -1.2977405 0.7987427 0.65133446 -1.018491
000130 31 ff 2f bf 43 67 bd 3f a1 f9 80 bf c0 72 58 bf
       -0.68748766 1.4797138 -1.0076181 -0.84550095
000140 c8 0d 0b 3f c8 10 82 3e 34 7c 1b 40 cc 6e 12 bf
       0.54317904 0.25403428 2.4294558 -0.5720031
000150 ed 98 fc bf bd 1d c4 3f c7 39 54 bf d7 2c a1 bf
       -1.9734169 1.5321575 -0.8290066 -1.2591809
000160 49 c2 04 bf 9c 38 02 3e 3f 8f bd 3f d8 ac eb be
       -0.51858956 0.12716907 1.480934 -0.46030307
000170 af c4 fa bf 0d 1d 54 bf 37 de 58 bf 89 91 2a c0
       -1.9591273 -0.8285683 -0.8471407 -2.6651328
000180 f2 a7 86 bf c5 d5 81 3f d1 74 e5 3e 72 97 33 bf
       -1.0520003 1.0143362 0.44815686 -0.7015296
000190 fd 5f 9f bf 63 bc 4a 3f b2 56 9b bf 37 36 03 bf
       -1.2451168 0.79193705 -1.2135832 -0.512546
0001a0 a4 96 3f bf b2 04 23 3f 9d 49 c0 3e 5a 11 5f 3f
       -0.74839234 0.6367904 0.37556162 0.8713585
0001b0 f8 a9 01 c0 53 b7 de 3f 45 0f 85 bf 41 45 36 bf
       -2.025999 1.7399696 -1.0395285 -0.71199423
0001c0 44 94 1f bf 9b 63 7e 3f 34 9c 1d 3f 51 33 39 bf
       -0.6233561 0.99370736 0.6156647 -0.7234393
0001d0 6f 42 94 bf 6a bf 84 3f 29 5f 43 bf 00 da a3 be
       -1.1582774 1.0370915 -0.7631708 -0.32002258
0001e0 2a c0 f6 84 14 26 f6 84 94 24 f4 84 90 8f f5 84
       -5.8010797e-36 -5.786929e-36 -5.7397716e-36 -5.7731065e-36
0001f0 a6 ba ef 84 a3 c5 f5 04 d6 93 f0 04 ab 1a f7 04
       -5.636004e-36 5.7780724e-36 5.6559495e-36 5.809391e-36
000200 8b a5 86 bf 8b 72 52 3f b1 5c 26 3f aa af 46 bf
       -1.051927 0.8220603 0.64985186 -0.7761179
000210 39 f5 a0 bf 82 7b 8f 3f 59 fc 70 bf 33 42 18 bf
       -1.2574836 1.1209567 -0.9413505 -0.5947601
000220 71 9b 6d bf 9b 69 87 3f 1b 03 b3 3e ce c7 40 bf
       -0.9281531 1.0579103 0.34963307 -0.7530488
000230 74 36 96 bf 81 4c 4c 3f c6 c7 49 bf c0 a3 f9 be
       -1.1735368 0.79804236 -0.78820455 -0.48757744
000240 ca 44 8a bf db da 37 3f 13 be c8 3e 86 0a 23 bf
       -1.0802243 0.7181832 0.39207515 -0.6368793
000250 75 a4 6c bf 75 61 63 3f 9d ab a5 bf 8e d9 f8 be
       -0.9243844 0.8882058 -1.2942997 -0.4860348
000260 6a 9f 99 bf 87 be 0a 3f a3 5b 52 3f ec 75 23 bf
       -1.2001774 0.5419697 0.82171077 -0.6385181
000270 81 df cf be 26 f6 a9 3f d2 a9 ac bf 50 d3 79 bf
       -0.40600207 1.3278244 -1.3489325 -0.9758806
000280 c8 34 83 bf 1c 08 7d 3f 82 fb 2d 3f d7 8c 25 bf
       -1.0250483 0.988405 0.67961895 -0.6466803
000290 c8 c1 86 bf 6d c0 4f 3f 42 3d 9d bf 13 46 62 bf
       -1.0527887 0.81152993 -1.2284319 -0.88388175
0002a0 63 9b ad bf d9 03 2c 3f fb da 0d 3f 89 6f 80 bf
       -1.3563045 0.6719337 0.5541226 -1.0034038
0002b0 ea 9f 27 bf 1a 28 aa 3f 2b 7f 83 bf 1a 07 61 bf
       -0.65478384 1.3293488 -1.0273184 -0.8790146
0002c0 08 88 51 bf 46 c7 51 3f 42 b8 47 3f 67 cb 04 bf
       -0.8184819 0.8194469 0.7801553 -0.5187287
0002d0 b4 95 63 bf fd 31 44 3f a1 ba 88 bf ff f9 3f bf
       -0.88900304 0.76638776 -1.0681955 -0.7499084
0002e0 78 f3 79 bf 7b 4c 70 3f 72 c3 2e 3f bb 0a 21 bf
       -0.9763713 0.938667 0.68266976 -0.62907
0002f0 22 9a 84 bf a0 3b 95 3f 4e 40 68 bf 86 76 e0 be
       -1.0359538 1.1658821 -0.9072312 -0.43840426
000300 9d 87 52 bf f8 69 07 40 70 5b 91 be 75 39 9c bf
       -0.8223818 2.1158428 -0.28390074 -1.2205034
000310 5e 92 73 3c 80 97 df bd 81 15 2b bf fe 47 21 bf
       0.01486644 -0.10917568 -0.6682969 -0.63000476
000320 6d 75 d2 bf eb b0 12 be 31 bd 34 3e 14 db 32 bf
       -1.6442086 -0.14325301 0.17650296 -0.69865537
000330 dc be f4 bf f1 8b d3 3f ff d2 05 bf 90 db cf bf
       -1.9120746 1.6527082 -0.5227508 -1.623888
000340 a2 c7 68 bf 7a 6a 5f 3f 36 8b 3b 3f fd d2 14 bf
       -0.90929615 0.87271845 0.73259294 -0.5813444
000350 b0 ca 55 bf 9f 63 3d 3f 25 59 88 bf 55 f7 47 bf
       -0.835124 0.73980135 -1.0652205 -0.78111774
000360 e7 02 88 bf 96 f5 67 3f 01 f1 1a 3f aa 6c 04 bf
       -1.0625886 0.9060911 0.6052399 -0.5172831
000370 a8 76 8d bf 31 43 35 3f 1d 29 98 bf 5c 6e 5d bf
       -1.1051836 0.7080565 -1.1887547 -0.8649652
000380 d6 a1 f4 04 14 ea f3 84 d4 bd f5 04 6d e5 f2 84
       5.7512747e-36 -5.7343992e-36 5.7773553e-36 -5.710462e-36
000390 b8 53 f2 04 ba d9 f5 04 60 54 f7 04 ae 6a f0 04
       5.697081e-36 5.7799173e-36 5.8146907e-36 5.65217e-36
0003a0 a6 31 f5 84 20 6c f4 84 9b 66 f3 84 c8 79 f6 84
       -5.7644818e-36 -5.746342e-36 -5.7223254e-36 -5.794616e-36
0003b0 e7 03 f5 84 2e c3 f6 84 81 92 f7 04 ce 9a f6 84
       -5.7602807e-36 -5.8013566e-36 5.8203964e-36 -5.7976488e-36
0003c0 92 1e 7f bf d6 cd 72 3f 1d c4 38 3f 8c 23 25 bf
       -0.9965602 0.9484533 0.72174245 -0.64507365
0003d0 2e db 8f bf e9 3b 38 3f 3a d8 99 bf 27 b2 4b bf
       -1.1238763 0.71966416 -1.2019112 -0.79568714
0003e0 f4 5c 7a 3e c5 33 25 3f f9 64 c4 3f 22 29 8b be
       0.24449521 0.6453212 1.5343314 -0.2717982
0003f0 b3 1c 24 c0 3f 4f ca 3f 9e 19 6c bf de 5f 32 bf
       -2.5642517 1.5805434 -0.9222659 -0.6967753

embedding_item.weight f4 [8, 1024]
000000 c4 98 5b 3e db 8f a2 3e 9c 68 bd 3e b1 6f c4 3e
       0.21444994 0.31750378 0.36993873 0.38366464
000010 92 15 0c 3e 45 16 3a 3e 40 bf 73 3d 50 8b 35 be
       0.13680103 0.18172558 0.059508562 -0.17728925
000020 dc 1c 9f 3e e2 2b 37 be 71 c3 01 3e 0b 6f 37 3e
       0.31076705 -0.17887834 0.12672211 0.17913453
000030 2f 1a 71 3d db 54 cb 3d 48 17 0d bd d2 6a bd 3b
       0.05886286 0.09928294 -0.03444603 0.0057805562
000040 e1 49 04 bf 0e bf 7f be 36 a4 de 3d dd 82 af be
       -0.5167523 -0.24975225 0.108711645 -0.34279528
000050 ab 8f 14 3d 69 a0 99 bd 3a f8 81 be 3a db da bd
       0.036269825 -0.07501299 -0.25384694 -0.106863454
000060 29 e9 04 3e 06 ec fc 3b 95 6c 7d be 4c c5 70 3d
       0.12979569 0.007718566 -0.24748452 0.058781907
000070 9d 3c 8f 3d a3 e3 52 be f9 80 e6 3b 18 fc 11 3e
       0.06993983 -0.20594649 0.0070344177 0.14256322
000080 a2 24 aa bc b9 19 f1 bd 13 39 9f be e5 69 49 bd
       -0.020769421 -0.11772484 -0.31098232 -0.049173255
000090 99 ec 14 3e 71 ad e6 3d 7f 70 48 be 7c 29 9d bd
       0.1454338 0.1126355 -0.19574164 -0.07673928
0000a0 ee a9 c9 bd 13 6a f4 bd fc 69 9e be 24 4e 9b bc
       -0.09846865 -0.119342946 -0.30940235 -0.018958159
0000b0 14 bf 24 3e 19 6f 67 be cd 24 a2 be c7 f7 91 be
       0.16088516 -0.22600974 -0.31668702 -0.28509352
0000c0 2f 86 81 3e 94 8a 46 be 65 de 81 3b 6d e0 43 be
       0.25297686 -0.19388801 0.003963279 -0.1912858
0000d0 e5 f4 5b 3e 18 2c 45 3e 2e a2 32 3e 30 8c 2b be
       0.21480139 0.19255102 0.17444679 -0.16752696
0000e0 6b 2e 0a 3e 67 33 8e be a2 f6 6c 3d 78 11 0e 3d
       0.1349427 -0.27773592 0.057852395 0.03468463
0000f0 c8 1c dd bc 8e c2 f1 bd f3 5d 51 3d 7b 80 92 3c
       -0.026991263 -0.118046865 0.051114988 0.01788353
000100 2d ac 9b be 8e 25 83 3d 56 81 29 be b9 b2 7c 3e
       -0.30404797 0.06403647 -0.16553244 0.24677552
000110 15 d0 36 be 1d 4d 86 bd 91 b9 eb 3d 4c 5c 3d 3e
       -0.17852814 -0.06557677 0.11510003 0.1849224
000120 7e e4 a0 bd 5d 55 87 be 40 4d 0d 3c 28 c7 2f be
       -0.078560814 -0.26432315 0.008624375 -0.17165816
000130 5b 18 6e be 27 a3 2a 3d e3 68 97 be cc eb bc 3d
       -0.23251478 0.0416595 -0.2957221 0.09224662
000140 04 2d a6 bd fd b7 78 be 43 fe d3 3d ea de 9d 3d
       -0.08114055 -0.24288936 0.10351231 0.07708533
000150 63 3d 83 bd 51 76 03 be 54 5b 3b 3e 47 0f 52 bd
       -0.06408193 -0.12838103 0.18296558 -0.0512841
000160 84 60 91 3e 9b 44 55 3e f9 55 f0 3d 39 0c 06 3f
       0.28393948 0.20826952 0.11735148 0.523624
000170 15 ef 2c 3e b6 34 21 bf 4f 8c 71 be b7 6a 5a be
       0.16888078 -0.62971056 -0.2358868 -0.21329771
000180 17 99 10 bd f0 a8 38 be e1 28 ee bc ac 8e 9c 3d
       -0.035302248 -0.18033195 -0.029072227 0.076444
000190 65 1c 11 be dc ed 18 be a3 d7 47 bd 85 e6 94 3e
       -0.14170988 -0.14934486 -0.04878963 0.29082122
0001a0 b2 c6 02 3e 3e 0b a9 be 0a ba a5 be 5f b7 f5 bc
       0.12771109 -0.3301639 -0.323685 -0.029994665
0001b0 2c 40 0b 3e 8c e9 6d 3e eb 19 59 3e ea 0f 9c be
       0.13598698 0.23233622 0.21201293 -0.3048089
0001c0 2e ad 24 be 51 56 62 3e 32 3d 40 3e e6 e6 e6 be
       -0.16081688 0.2210324 0.18773344 -0.45098037
0001d0 1e 85 14 be f9 3b 26 bd d7 f2 6b bc b0 fa 88 3d
       -0.14503905 -0.040584538 -0.014401159 0.0668844
0001e0 e5 0d 33 bd 46 54 11 3d 36 13 83 be c5 0c f3 bd
       -0.043714423 0.03548076 -0.25600594 -0.1186767
0001f0 dd 1b 22 be 43 38 59 3e a2 71 a4 3e 26 89 14 3f
       -0.15830941 0.21212868 0.32117945 0.5802177
000200 4c a3 d4 bc 68 73 1f 3e 21 73 33 bd 5c c2 08 be
       -0.025956772 0.15571368 -0.043810967 -0.13355392
000210 d8 e6 67 3e db 14 fb 3d 58 e6 60 3d 7c 09 eb 3d
       0.22646654 0.12259837 0.054907173 0.114764184
000220 64 85 47 3e 69 9c ac 3e 89 95 39 3d 40 26 41 3e
       0.19484478 0.3371308 0.045308623 0.18862247
000230 e4 66 de bb 78 8f ba bd f0 71 1d bd c7 f9 6c be
       -0.006787168 -0.09109396 -0.038438737 -0.23142157
000240 cd a0 e4 bc 34 ee ab 3e b6 c0 88 be c7 32 2f be
       -0.027908707 0.33580172 -0.26709527 -0.17109214
000250 33 f2 80 bd 57 36 85 bd d5 94 af 3c e5 cb b1 3d
       -0.06296196 -0.06504505 0.021433273 0.08681468
000260 46 2c b0 3e 81 24 46 be 22 ec 45 3e a7 ea 55 3e
       0.34408778 -0.19349863 0.19328359 0.20890294
000270 8d 84 52 3e 4e 1f 17 3e 34 e6 af 3d 21 02 d2 3d
       0.20558377 0.14758036 0.0858883 0.10254312
000280 cb 6a 41 3e 74 55 9e 3d 94 d1 c2 3d c9 f3 94 be
       0.18888395 0.07731143 0.0951263 -0.29092243
000290 9d dc 8b 3d 70 bc bd 3e ae 16 aa 3a d8 8f 62 be
       0.06829188 0.3705783 0.001297673 -0.22125185
0002a0 88 6d 9d 3e 93 58 1f 3d 7e 71 99 be 2a c8 bc 3e
       0.30747628 0.03890283 -0.299694 0.36871463
0002b0 e8 9d 0a be c9 3e 71 3d 00 d4 d7 be 53 31 b0 bd
       -0.13536799 0.058897767 -0.4215393 -0.08603158
0002c0 55 17 77 3e 6f c4 d3 be 1f 68 65 3e ec 1a 39 3d
       0.24129994 -0.41360804 0.22403 0.04519169
0002d0 dc 04 d1 bc a5 d3 cc 3e 47 3e fe bd 6a 5d 94 be
       -0.025515012 0.40005222 -0.12414222 -0.2897752
0002e0 f0 46 50 ba 12 51 b7 bc ad 4b 69 3e a7 a4 86 3d
       -0.0007945141 -0.022377525 0.22782774 0.06574374
0002f0 aa e0 04 3e 3e 6e 0f 3e 93 05 42 bd ca d5 96 3d
       0.12976328 0.14006898 -0.047368597 0.07364996
000300 39 71 a8 bd 04 30 7a bc 0d f7 75 be 97 74 90 bd
       -0.082247205 -0.015270237 -0.24020024 -0.07053488
000310 24 ab 30 be 99 69 02 3e 6b ef 7a be a1 ac 91 3d
       -0.17252785 0.12735595 -0.24505393 0.071130045
000320 54 bf 1c be 35 2d a4 bd c1 fe 8f be 0d e2 fe bd
       -0.15307361 -0.08016435 -0.2812405 -0.124454595
000330 08 f3 30 be c9 f5 97 3d 52 12 43 ba 81 bb 8b bd
       -0.17280209 0.07419927 -0.00074413896 -0.06822873
000340 97 3c 9c 3b ef 82 3b 3e 45 a5 29 be bb 70 6c 3d
       0.004767965 0.18311666 -0.16566952 0.057724696
000350 a8 ea 3c 3e 96 51 81 be e2 2c 6f bd a1 5d e5 3e
       0.1844889 -0.25257558 -0.058392413 0.44797996
000360 12 e0 21 3e e5 a3 46 bd c8 a0 5f be dc 2f 3b 3e
       0.15808132 -0.048496146 -0.21838677 0.18279976
000370 5b 49 8c bd d4 f2 8b 3e 20 b7 c4 be 67 1a 4c 3e
       -0.06849929 0.273337 -0.38420963 0.19931947
000380 d5 94 bf 3d 70 17 fd 3d a4 b6 b6 bc 53 78 91 bd
       0.09354559 0.12357986 -0.022303887 -0.07103028
000390 89 28 5a bb 18 27 21 be 73 52 e0 3b 2e 65 35 3e
       -0.003328832 -0.1573757 0.006845766 0.17714378
0003a0 bb 12 6e bb e0 63 11 3e c3 17 0f 3e 1f f4 b0 3d
       -0.0036327082 0.14198256 0.13973908 0.086403124
0003b0 7b 05 31 3e ab d2 ba 3d 16 07 23 3e 23 e7 ee 3d
       0.17287247 0.09122213 0.15920672 0.116651796
0003c0 88 9b b0 3c 6b 4a ad 3e 27 a5 62 3c 3b c8 81 3e
       0.021558538 0.3384584 0.013833321 0.25348076
0003d0 29 19 53 b9 a0 a0 da be 97 ec de 3d 11 cb b2 3e
       -0.00020131901 -0.42700672 0.1088497 0.34920552
0003e0 1f ee 46 be 24 e2 6b be 92 75 02 3e 11 c4 43 be
       -0.19426773 -0.23035485 0.12740162 -0.19117762
0003f0 ab 94 d5 bd d2 37 a7 3e 6e 1d 55 bd 43 4a 3c 3d
       -0.10428747 0.32659775 -0.05203002 0.04596926

embedding_item.bias f4 [8]
000000 d8 2c 19 3e 2a 97 1a bd 18 68 7b 3d 30 e6 39 3d
       0.14958513 -0.037741818 0.06137857 0.04538554
000010 62 da e1 3a d1 92 d2 bd 06 14 eb 3d 72 25 5c bd
       0.0017231221 -0.10281909 0.114784285 -0.053746648

fc_layers.0.weight f4 [64, 16]
000000 23 24 f5 be 9c c4 60 3f fd 8f 68 3f 89 30 c6 bf
       -0.47879133 0.878 0.9084471 -1.5483562
000010 7e 28 b9 3e c1 39 ac 3e a7 be 08 bf 44 a5 f4 be
       0.36163706 0.33637813 -0.5341591 -0.47782338
000020 cf 98 96 3b 7f c2 2e bd 3d 32 ca bd a6 32 d9 bd
       0.004595853 -0.042665955 -0.098728634 -0.106053635
000030 de 75 4e be 2f 50 5b bb 34 21 ce bd 6e 26 db 3c
       -0.2016215 -0.0033464541 -0.10064927 0.026751723
000040 bc 49 9f be d0 ab 37 3f 28 48 6e 3f 96 b6 72 3e
       -0.31110942 0.7174654 0.9307885 0.23702464
000050 30 98 c9 3e 0e bf 9b bf 90 45 1a bf c2 d9 42 bd
       0.39373922 -1.216768 -0.60262394 -0.04757095
000060 6a af f6 3d 65 f9 e0 3d 9a 6b c5 bd 23 02 0a 3e
       0.12045176 0.10985068 -0.09639664 0.13477378
000070 c7 46 4e 3d f4 6e 20 be c8 80 f1 bc 2f fb 39 bd
       0.050360467 -0.15667325 -0.029480353 -0.045405563
000080 6b a1 58 bf 56 31 19 3f 38 c3 8e bf 88 5e 21 3d
       -0.84621304 0.59840906 -1.1153326 0.039396793
000090 ef 94 39 bf f3 cd 90 bf 67 1f b9 be d0 25 a7 bf
       -0.7249288 -1.1312851 -0.3615677 -1.3058414
0000a0 9c c6 ba bd 15 24 21 be 51 d7 8f 3d 32 26 db bd
       -0.09119913 -0.1573642 0.0702349 -0.107006446
0000b0 e2 d4 06 bd b8 4a b0 bc c7 6c fa 3c 6e 94 aa bd
       -0.032917865 -0.021520004 0.030569447 -0.08329092
0000c0 26 41 30 3f 3c e4 b2 3c f3 e9 e4 3e 19 b1 62 3e
       0.6884941 0.021837346 0.4470974 0.2213787
0000d0 3f 34 a5 bf ae ff b2 3e f6 a1 45 bf 60 af b7 3f
       -1.2906569 0.34960693 -0.7720026 1.4350395
0000e0 04 8e cc 3c 7a f1 53 be d9 b2 33 bc 4a e8 dc 3c
       0.024970062 -0.20697585 -0.010967934 0.026966233
0000f0 cc 38 55 3e 58 d5 c2 bd c7 73 74 be 29 c5 88 3e
       0.20822448 -0.09513348 -0.2387229 0.2671292
000100 63 f6 cf be 3f 7c 01 be 72 f7 49 3f 41 99 af 3f
       -0.40617666 -0.12645052 0.78893197 1.3718644
000110 95 77 85 3e f3 65 bc 3f 13 63 af bf 73 dd 09 3e
       0.26067796 1.4718612 -1.370211 0.13463382
000120 cf 7e 10 3e 69 ac 0d be 2b 8e aa bd 44 8b ed 3d
       0.14110874 -0.138353 -0.08327898 0.115988284
000130 0f 34 5a be db 5d fd 3d f3 4d b2 bd 3c bd 49 3e
       -0.21308921 0.12371417 -0.08706274 0.19701093
000140 79 8d c6 3e 9e 71 d9 bf 6d ec 22 bf b6 00 df be
       0.3877981 -1.6987798 -0.6364201 -0.4355523
000150 55 3e 73 bf 27 c0 20 bf fc 9c a0 3f 2c f0 f4 be
       -0.95016986 -0.627932 1.2547908 -0.47839487
000160 81 d8 57 3c 38 72 59 3e 6f a7 c5 3d dd 44 c5 bd
       0.013174177 0.21234977 0.09651076 -0.09632275
000170 7b 4b 15 be fc 03 40 bd 37 2c 01 be 2d 80 84 3e
       -0.14579575 -0.0468788 -0.12614523 0.2587904
000180 da 35 03 bf df fd 5d bd 41 cd 5d 3e c0 82 cb 3d
       -0.51254046 -0.05419719 0.2166033 0.09937048
000190 f9 6f ab be 47 d8 57 3f 42 4a 68 bf 7a 3f fa be
       -0.33483866 0.8431439 -0.9073831 -0.48876554
0001a0 d1 3b 9f be e9 e1 de bd fe 8a ca 3d 04 5f 35 bd
       -0.31100324 -0.10882933 0.09889792 -0.044280067
0001b0 ed 17 e2 3a 34 7c 4c 3e 40 55 7e bc aa 08 d4 bb
       0.0017249562 0.19969255 -0.015523255 -0.0064707594
0001c0 5e a5 90 be dd 35 00 3f 0b 6a e1 be 97 ad 8f be
       -0.28251165 0.5008219 -0.44026217 -0.28062126
0001d0 86 89 43 be ab 01 76 3f 01 1c 8f 3f d3 3e 8d 3e
       -0.1909543 0.96096295 1.1180421 0.27586994
0001e0 34 9f 56 3e e1 68 40 be db 19 a9 be b3 85 a5 bd
       0.20959169 -0.18790008 -0.3302754 -0.08082142
0001f0 7a 68 f3 bc 31 5c f7 3d 84 08 17 be 8c db de 3e
       -0.029712904 0.12078131 -0.14749342 0.43526876
000200 7c 33 28 3e 05 22 f4 be 2b ab 40 3f cd e1 8f 3d
       0.1642589 -0.47682205 0.7526118 0.0702549
000210 b8 f9 c4 bf 53 b1 c2 bf 51 69 91 bf 84 54 c3 be
       -1.5388708 -1.5210365 -1.1360265 -0.38150418
000220 16 c4 9b bd c5 13 c2 bc 4e 6b ef 3b 7a e3 f4 bd
       -0.0760576 -0.023691067 0.007306493 -0.1195745
000230 8e 28 88 be e8 bd 39 3e 3f ca 44 3e d8 26 8d 3e
       -0.2659344 0.1813885 0.19217776 0.27568698
000240 bf 49 94 3e 49 f0 ff bf 84 ae 8d be 2e 44 aa 3e
       0.28962514 -1.9995204 -0.27672207 0.33255142
000250 d5 e4 be 3e 4b 43 b7 3f d2 91 85 bc 4c cd 19 3f
       0.3728396 1.4317411 -0.016304884 0.60078883
000260 6f 67 5e 3e cb a4 c6 bd 30 e7 1c 3b 93 2f 2c be
       0.21719144 -0.096994005 0.002394151 -0.16815023
000270 72 da 8b be f5 5e e3 3d 4c 36 bb bd 09 86 0f 3e
       -0.27315098 0.11102096 -0.09141216 0.14015974
000280 2e 7b 40 3e 56 3a 16 bf eb c5 5c bf 85 83 88 bf
       0.1879699 -0.58682764 -0.862395 -1.0665137
000290 eb 04 e3 3f d0 1c 16 3e e8 f9 fe be fe 82 a7 be
       1.7735876 0.14659429 -0.49800038 -0.32717127
0002a0 cd fc bb 3d 3c 6a 0c 3c c6 f5 0a be 46 bc 13 3d
       0.09179077 0.00857025 -0.13570318 0.036068223
0002b0 c5 04 5e 3e 35 79 4c 3d 56 93 37 3e ba 07 3b 3e
       0.21681507 0.04992028 0.17927298 0.18264666
0002c0 f6 9e 7a 3f 24 2e 89 bf 5b 8e b2 bd d8 03 7b 3f
       0.97898805 -1.0717206 -0.087185584 0.9805274
0002d0 5c b7 5a bf 76 59 aa 3f be a7 9c 3e 53 b7 83 3e
       -0.85436034 1.3308551 0.30596727 0.25725803
0002e0 10 e9 10 be 91 b2 01 be fa 89 f5 bc 59 90 0d be
       -0.14151406 -0.12665774 -0.029973019 -0.13824596
0002f0 34 73 a6 be b6 f5 7a be db 99 03 3e 00 d9 00 3e
       -0.32509768 -0.24507794 0.1285166 0.12582779
000300 2e 3d e9 bd 7b ef ee 3e 86 e4 08 be 49 b6 c6 bf
       -0.11388622 0.46667084 -0.13368425 -1.5524379
000310 8c ab dc 3e 61 4f 0f bf 4b 49 d0 3f f3 7f 0f bf
       0.4309963 -0.559805 1.6272367 -0.5605461
000320 1f 96 e0 3d 25 18 82 be 71 58 dc 3d c5 0a 4a bd
       0.10966133 -0.25409046 0.10759056 -0.049326677
000330 3e 9e 05 3d 47 d7 3e 3e 3e c6 8e be 38 58 bd 3d
       0.032621615 0.1863681 -0.27885622 0.09245342
000340 a6 af 0e 3f cf 49 2b bf d3 2b 8b 3f 61 cd 0e bf
       0.5573677 -0.669095 1.0872749 -0.55782133
000350 a4 66 bf 3f 60 61 e0 3e 2e 78 8b be e2 75 1a bf
       1.4953198 0.4382429 -0.27240127 -0.60336125
000360 db 88 29 be fe e3 a2 be 63 e6 f8 3c 17 14 19 3e
       -0.16556112 -0.3181457 0.030383294 0.1494907
000370 84 e5 93 bc 6e c8 1e 3d 72 69 1b 3d a5 7d ad 3e
       -0.018053778 0.038765363 0.037942357 0.33884922
000380 d4 27 2b 3e a5 d9 e8 bf 6b be 9f bd ee d1 7b 3f
       0.16714412 -1.819142 -0.07799991 0.983672
000390 8c d7 f8 3d 94 ff 5d 3d a5 49 c5 be 15 27 ac 3f
       0.12150487 0.054198816 -0.3853275 1.3449427
0003a0 1d b4 94 be de 46 bd 3d c5 98 74 3e bc ff 84 be
       -0.29043666 0.092420325 0.23886402 -0.2597636
0003b0 db d7 e8 bd 61 91 99 3d 7c 34 86 3e 27 2f 12 3e
       -0.11369296 0.07498432 0.26211917 0.142758
0003c0 e8 a2 80 3f 73 f3 a6 3e 05 56 4d 3f 11 10 a0 3f
       1.0049715 0.32607612 0.8020938 1.2504903
0003d0 21 15 7c 3f b1 8b 73 bf c3 f8 54 bf 24 ce f5 3e
       0.9846974 -0.9513503 -0.8319208 0.48008835
0003e0 01 0f 92 bd 22 e7 f9 bc 17 09 5d be b6 da 2c be
       -0.07131768 -0.03050572 -0.21585499 -0.16880307
0003f0 e7 20 3a 3d ff 29 25 bd d0 fd fa 3d cb 33 47 be
       0.045441534 -0.040323254 0.12255442 -0.19453351

fc_layers.0.bias f4 [64]
000000 97 f6 42 bf 35 b1 69 bf 58 5b 37 bf 2b a6 2d be
       -0.76157516 -0.9128602 -0.71623755 -0.1695792
000010 bb e5 da be b2 2d 06 be 4e ce 0f bf ad 75 27 bf
       -0.42753395 -0.13103369 -0.5617417 -0.65413934
000020 92 43 ec 3b 52 d9 82 bf ab b3 02 bf 7c b0 0c bf
       0.0072102034 -1.0222571 -0.510554 -0.54956794
000030 3d 71 a0 3e 8d ca 0e bf 7d bb 42 3c 02 26 1b 3f
       0.31336394 -0.5577782 0.011885521 0.6060487
000040 8e 6d ed be d6 9e 5f be 39 41 ef bd b3 31 11 bf
       -0.46372646 -0.21837935 -0.11682362 -0.5671646
000050 e5 02 45 be 88 7d 2c 3e 11 82 4a be 4f fb 2a 3f
       -0.19239385 0.16844761 -0.19776179 0.66789716
000060 44 78 4a bf d2 13 f5 be 5e a8 49 3d 1e 99 75 bf
       -0.7908976 -0.47866684 0.049232833 -0.95936763
000070 b4 1a 16 3f 32 58 56 bf 88 bc f4 bc 77 22 26 bf
       0.58634496 -0.83728325 -0.029875055 -0.6489634
000080 06 5c ab 3e 69 66 bd 3e ec 6e 60 3f 18 5f 05 bf
       0.33468646 0.36992195 0.87669253 -0.52098227
000090 ec ba 6d bd da 0e 41 be cc d0 22 bf a1 f1 ef be
       -0.05803959 -0.18853322 -0.6359985 -0.46864036
0000a0 4d 02 a6 be de 51 8f bf 46 c8 28 bd d6 30 bd be
       -0.3242363 -1.1196859 -0.04120662 -0.3695132
0000b0 45 3e e2 be 83 7d 4f bf 6f 7b 1d bf 3d 59 1b bf
       -0.44188133 -0.8105089 -0.6151647 -0.6068304
0000c0 d8 d8 19 bf fb 79 7c 3e 0b e8 53 bf d2 c4 cf be
       -0.600965 0.24655907 -0.82775944 -0.4057985
0000d0 d2 86 63 bf 30 bd c9 be d0 23 6d be 7d 9d 07 bf
       -0.88877594 -0.3940215 -0.23158193 -0.52974683
0000e0 30 24 6d be f1 dc 51 bf 30 6b 22 be 55 45 57 3f
       -0.23158336 -0.81977755 -0.15861201 0.8409017
0000f0 47 a7 b1 be f5 3b f7 3d 17 44 29 bf 35 0c 13 bf
       -0.34697935 0.12071983 -0.6611952 -0.574405

fc_layers.1.weight f4 [32, 64]
000000 58 6f 93 be 47 36 a8 3e 27 36 5e 3e 77 23 1a 3e
       -0.28795886 0.3285391 0.21700345 0.15052591
000010 82 de 53 3f 8e ef 73 be 62 48 a6 3c 2d 9a 05 be
       0.82761395 -0.23821852 0.020298187 -0.13047095
000020 86 42 84 be 10 c8 bd 3e 76 41 c7 be ce 44 f3 bc
       -0.25832003 0.37066698 -0.3891713 -0.029695895
000030 3c 44 3a be 08 7f 6a be 53 8e 87 be 03 15 2f be
       -0.18190092 -0.22900021 -0.26475772 -0.17097859
000040 61 92 f3 3e 10 c8 8f bc 06 1f b8 3d 20 cb 30 3e
       0.47572616 -0.017551452 0.08990292 0.17264986
000050 f5 45 b6 be b8 26 22 3d c1 c1 1b 3f bc 5e 44 bd
       -0.35600248 0.039587706 0.6084252 -0.04794191
000060 1d 7e 77 be 19 2f 9a 3c f1 78 83 be 4b a5 87 3d
       -0.24169202 0.018821286 -0.25678208 0.06623324
000070 7f dd 39 bf 60 e1 a2 be a5 41 1d bf c2 ad 62 3e
       -0.726036 -0.31812572 -0.6142829 0.22136596
000080 a0 75 a5 bd 16 70 7d bd 28 89 03 bf e6 2b 92 3e
       -0.08079076 -0.06187447 -0.5138116 0.28549117
000090 59 cd 60 bf eb 34 43 be 59 15 33 3e cf b7 14 3e
       -0.87813336 -0.19063155 0.17488612 0.14523242
0000a0 85 6d a6 be 17 62 1e be bb f0 a6 3d fb c0 6f 3e
       -0.32505432 -0.15467106 0.081513844 0.2341346
0000b0 13 c5 b0 be f1 14 0b bf 72 40 23 3d 6e e0 c5 3e
       -0.34525356 -0.5432883 0.03985638 0.3864779
0000c0 03 a3 4d be 24 36 98 be 43 ee a9 bd 9c b5 54 3e
       -0.20081715 -0.29728806 -0.08297398 0.20772403
0000d0 0c eb eb 3e 41 99 72 3f 5d ec fc 3d c1 d0 85 bd
       0.46077764 0.94765097 0.1234977 -0.06533957
0000e0 18 4c 72 3e 21 ae d2 3e 57 ba ac be 52 46 aa 3e
       0.2366184 0.41148475 -0.33735916 0.33256775
0000f0 99 0a b8 3e 39 17 81 3d b4 d0 8f be dc eb 0e be
       0.35945585 0.063032575 -0.28088915 -0.1395716
000100 f9 a3 1c 3e d0 90 3c 3e 7f c3 d0 bd db 4e 4a 3e
       0.15296926 0.18414617 -0.10193538 0.19756643
000110 23 ab 05 3f 1e 7e 3a bd 62 50 5d 3e 4e 28 01 3e
       0.5221426 -0.04553043 0.21612695 0.12613031
000120 98 e9 81 bd c4 97 29 be 9d 1a c0 be c2 3b 9e bd
       -0.063433826 -0.165618 -0.37520304 -0.07726242
000130 ba ae 95 3e 0a 87 af be 2c 37 ef 3d a6 1e aa bc
       0.29234868 -0.34282714 0.11680445 -0.020766567
000140 26 75 a4 3e 3a 71 13 3e 2c df 4b be 1e 9d 81 3d
       0.32120627 0.14398661 -0.19909352 0.06328796
000150 ae 67 08 3e 5a ac d8 be f6 2b 41 bc fe 88 04 3d
       0.133208 -0.42318994 -0.011790266 0.03235721
000160 58 91 e4 3d 93 61 36 3e ae ce 1d 3e c5 f3 10 be
       0.111605346 0.17810659 0.15410873 -0.1415549
000170 54 db 8b 3e 7f 97 15 be 92 d2 67 bd 35 36 ea 3e
       0.27315772 -0.14608572 -0.0565973 0.45744482
000180 e7 cd b2 be 62 d1 ff 3d 1f 7b fc bc aa 75 d4 be
       -0.34922716 0.124911085 -0.030820427 -0.4149602
000190 fb f1 4a 3e 34 50 a7 3e 76 f0 67 3d 04 c2 5e bf
       0.1981887 0.32678378 0.056625806 -0.87014794
0001a0 82 d5 2c bf 20 65 da bd f3 ed 57 be ca c4 1f 3e
       -0.6751329 -0.10663819 -0.21086864 0.15602413
0001b0 3c db df be bd b3 eb 3e c9 31 de be 7e 6d 8f 3e
       -0.4372195 0.46035567 -0.43397358 0.28013223
0001c0 17 d5 73 be f4 b0 5e be f2 16 03 3e 8f d7 ed 3e
       -0.23811756 -0.2174719 0.12801722 0.4645352
0001d0 c2 af b6 be 9d 9f b9 3e db b5 03 3f 07 70 48 3c
       -0.35680968 0.36254588 0.51449364 0.012233741
0001e0 f9 c9 28 be ce 20 81 be 0e c4 7c bd b4 08 e0 be
       -0.16483296 -0.2522034 -0.06171041 -0.4375664
0001f0 90 84 01 3e 65 78 99 3e 80 be 26 bf 0b 02 66 3e
       0.12648225 0.29974666 -0.6513443 0.22461717
000200 35 9b b6 3d 06 be 0c 3e 4c 2b 25 be 1e 33 e4 3e
       0.08916322 0.13744363 -0.16129798 0.4457025
000210 03 07 d3 3e c5 06 12 bf f1 ba b3 be 96 2f 9c be
       0.41216287 -0.5704158 -0.35103562 -0.30505055
000220 28 6f cd 3c 33 de 09 bf 8a 72 b8 3d d0 f2 94 3e
       0.025077417 -0.53854674 0.090062216 0.290915
000230 62 c2 0b 3f 90 9e 6d bf af 28 01 3e ea bb 3b 3e
       0.5459348 -0.9282007 0.12613176 0.18333402
000240 58 3a 58 be 3c 38 0d bf 22 72 a0 be 47 a9 f9 be
       -0.21116006 -0.5516393 -0.31337076 -0.4876196
000250 35 a4 19 bd 76 fc 5e be 27 cf 0c bf 73 7f de 3c
       -0.037510116 -0.21775994 -0.5500359 0.027160382
000260 e4 16 c8 3e 05 f9 94 3c c6 c1 2e bb 91 bf 31 bd
       0.39079964 0.018185148 -0.002666579 -0.043395583
000270 91 62 99 bf f4 1a db bd 06 ea 14 bf ee 7e d0 3e
       -1.1983205 -0.106985 -0.5816959 0.4072184
000280 70 9c 03 bf 57 9b ee bb 65 79 d0 bd 99 be c6 3e
       -0.5141058 -0.0072817015 -0.10179404 0.3881729
000290 16 4f 4e bd 31 b2 56 3d 49 81 d5 be f9 6a dc be
       -0.05036839 0.05241603 -0.417002 -0.43050364
0002a0 2c 04 a7 bd 1e c8 a4 3e 5e 57 5d bf 00 c7 31 3f
       -0.081550926 0.32183927 -0.86461437 0.69444275
0002b0 bf 79 50 bf 07 9c 07 be 6e 45 89 bd e3 42 ae 3e
       -0.8143577 -0.13243113 -0.06702696 0.34035406
0002c0 e8 96 87 be 62 33 0a be 2b 97 f8 3d 1d 4b 3c 3e
       -0.2648232 -0.13496163 0.12138208 0.18388028
0002d0 f3 97 2c be a6 5c 54 3f c2 1a d6 3e ae 3d 0a bd
       -0.16854839 0.8295387 0.4181729 -0.03375023
0002e0 d4 77 35 be 87 f1 7b 3d 63 16 ae bd 59 75 c3 3d
       -0.17721492 0.061509635 -0.08500364 0.09543867
0002f0 bc bd 6a bb ac 8b 29 be 94 15 02 bf ae 32 36 bd
       -0.0035818657 -0.16557187 -0.50814176 -0.044481926
000300 76 d3 00 bf 9d 44 b0 be ab 80 38 bf 8d 90 15 3e
       -0.50322664 -0.34427348 -0.7207133 0.14605923
000310 de 93 4f be c7 49 a0 3e b0 9d 0a be e8 ff 2b 3e
       -0.2027125 0.31306288 -0.13536716 0.16796839
000320 b2 ee c9 bd 4e ed fe 3e 7a a9 93 3e f3 13 2b 3d
       -0.09859981 0.49790424 0.28840238 0.041767072
000330 1a ea f2 bd 8d 17 35 3d e5 25 02 3f ca 46 83 3e
       -0.118610576 0.044211913 0.5083907 0.25639945
000340 63 69 e0 3e 04 3a ad 3d f3 ab fc bc 23 a8 e2 be
       0.43830404 0.08458331 -0.03084371 -0.44268903
000350 27 ae 91 be e0 1e a5 be 24 0e 84 bf 73 6b e7 3e
       -0.2845318 -0.32250118 -1.0316815 0.45199165
000360 99 60 51 3f 8c b0 6e 3e 4a 0d 2d be 3d 05 0f bf
       0.8178802 0.23309535 -0.168996 -0.5586737
000370 57 7c fa 3d d3 b4 13 bf ab cd 06 3f ec 32 e4 3d
       0.12230747 -0.5769779 0.52657574 0.11142525
000380 d9 9c b2 bd f7 0a 0b 3c 41 9f 88 3e 34 be 29 3f
       -0.087213226 0.008486501 0.26684 0.6630585
000390 c2 43 7e 3d 84 49 30 3e 91 51 69 be 41 dd f7 be
       0.062076338 0.17215544 -0.22785021 -0.4841099
0003a0 b9 60 1f bd 39 a8 e3 bd b7 0a 0d be 56 83 9f ba
       -0.0389106 -0.1111607 -0.13773619 -0.0012169878
0003b0 c1 23 45 3f 1c f9 77 3e f2 89 b4 be 17 c0 81 be
       0.7700768 0.24216121 -0.35261494 -0.25341865
0003c0 7a 37 83 be 3b 8a 89 3e 53 98 91 bf 15 d2 1b 3d
       -0.25628263 0.26863274 -1.1374611 0.038042147
0003d0 d4 9a 82 bf 19 e7 7a be 76 5b 45 3d e2 a8 9e be
       -1.02035 -0.2450222 0.048182927 -0.30988222
0003e0 55 11 ba 3e 8d 76 af 3d 4f fa 5f 3f 26 cc eb bd
       0.36341348 0.08567534 0.87491316 -0.115135476
0003f0 4b 6d a5 be 5b 9e b2 bc a2 2f bd bd 02 80 87 be
       -0.32309946 -0.021804025 -0.09237601 -0.2646485

fc_layers.1.bias f4 [32]
000000 dd ce 2a be 04 ff 6e 3e 49 f3 9a be 2f c8 ca 3d
       -0.16680475 0.23339468 -0.30263737 0.09901463
000010 ed f2 54 bd 6a 61 a5 3c 88 35 08 be 60 87 dc bd
       -0.051989485 0.020188052 -0.1330167 -0.10768008
000020 5a 0b c5 bd c4 27 f5 84 20 c9 dd 3d 03 ca fe bd
       -0.09621306 -5.7635742e-36 0.10829377 -0.124408744
000030 0e 82 7d be 48 5c 2d be 2a 46 a6 be 41 1e 22 3e
       -0.24756643 -0.16929734 -0.32475406 0.15831853
000040 7b dd 14 bf 0e 18 f4 84 ea de 0a bf bd 45 f2 84
       -0.5815045 -5.7386215e-36 -0.5424639 -5.695797e-36
000050 b2 37 eb be 02 57 d2 be 67 64 d7 bd 3d cc a0 bd
       -0.4594093 -0.41082007 -0.10517197 -0.07851455
000060 0d cc 98 bd f4 9e 15 be 51 02 a1 3e 69 50 6d bc
       -0.074607946 -0.14611417 0.3144708 -0.014484503
000070 59 55 8d be 20 b0 f4 be 59 19 2e bf 4c 96 62 be
       -0.27604178 -0.47790623 -0.6800743 -0.22127646

fc_layers.2.weight f4 [16, 32]
000000 6e a5 20 bf 73 72 31 be 1e fc 0b bf d5 0e 65 be
       -0.62752426 -0.17328815 -0.54681575 -0.22368939
000010 15 7d 7c 3e 6d 58 48 bf 09 e2 a5 3e 85 45 36 bf
       0.2465709 -0.7825993 0.32399014 -0.7119983
000020 ba 05 a2 be a0 10 f4 84 4a 46 a1 bc 59 92 26 be
       -0.31644994 -5.7379392e-36 -0.019686837 -0.16266765
000030 85 b9 02 be 28 7c 77 3d f3 99 08 bf bd 89 5f 3e
       -0.12766083 0.06042114 -0.5335991 0.21829887
000040 66 6e 77 3f 00 90 f7 04 bc 0e e6 3e 17 37 f6 04
       0.9665283 5.8201664e-36 0.44933116 5.7884914e-36
000050 22 d2 cb bd 0f 48 55 bf 56 a4 e4 be c8 37 95 bd
       -0.09952189 -0.8331308 -0.44656628 -0.0728603
000060 8a 95 be bb 0c d6 dd 3e c4 5d 18 3f 68 8b 10 bf
       -0.0058161663 0.43327367 0.59518075 -0.5646272
000070 a6 bc a3 3e 7e 5c 2f 3f 48 42 bd 3f 9f 5f e5 bd
       0.31979865 0.68500507 1.4785852 -0.11199879
000080 8e 10 90 3e aa 67 2b 3e 1e a5 87 3e 5f 43 c8 3e
       0.2813763 0.16738763 0.26493162 0.391139
000090 ac 26 46 be 89 7b 2e 3f 39 6c d3 bd 2c e6 91 3e
       -0.1935069 0.6815725 -0.10323376 0.2849592
0000a0 f9 a4 06 be 17 ac f3 84 89 51 9a 3d 9c 92 f2 be
       -0.1314887 -5.7287065e-36 0.07535083 -0.4737748
0000b0 64 b1 a4 3c 2e 16 a5 3e f8 f6 07 bf 10 a5 08 bf
       0.020104118 0.32243484 -0.5311122 -0.53376865
0000c0 01 cc d3 3e f2 8f f2 84 d3 32 56 3e 15 eb f5 84
       0.4136658 -5.702612e-36 0.20917825 -5.7815112e-36
0000d0 46 04 d1 3e 75 28 c3 3d ac 5f ea be 84 6f 83 3e
       0.40823573 0.09529201 -0.45776117 0.25671017
0000e0 77 ed e7 3c c2 97 11 bf 97 d1 34 bd 64 c3 b9 be
       0.028311474 -0.5687219 -0.044145193 -0.36281884
0000f0 6a 30 cd 3e 0e a9 ff 3c 73 69 fc 3e 9d 36 e5 be
       0.40076 0.031208541 0.492992 -0.4476823
000100 5e 62 c7 bd d4 51 e6 be 33 23 9f 3d d2 d7 b7 be
       -0.09735559 -0.44984305 0.077703856 -0.35906845
000110 1f 96 dc 3d 44 9c cb be b0 f3 a2 be 70 94 0b 3f
       0.10770821 -0.3976766 -0.31826544 0.5452337
000120 d2 0c 13 bf 27 3e f2 84 27 5f c0 bc 25 97 9b 3e
       -0.5744144 -5.6951004e-36 -0.023482872 0.30388752
000130 f7 50 fd 3d e4 61 44 3d 7f 38 e5 3e 0e ae 1b 3e
       0.123689584 0.04794492 0.44769666 0.15203115
000140 42 4a 12 3f 65 47 f6 04 a7 9c 5a 3f 8b ac f3 84
       0.5714456 5.7899888e-36 0.8539528 -5.728748e-36
000150 6e 06 80 3d ed bc 00 bd 18 08 56 3d 58 8d a5 3d
       0.06251226 -0.031430174 0.052253813 0.080836
000160 46 e1 d5 bd 79 74 23 bf 13 eb 66 3e af 9d cc 3e
       -0.10443358 -0.638496 0.22550611 0.39964053
000170 b5 66 bf 3e 07 32 a9 3f b7 29 9d 3f fa aa 0d be
       0.37383047 1.3218392 1.2278355 -0.13834754
000180 af 2c 0a 3f b2 bc e9 bc 03 24 d2 3e c7 c1 e9 3e
       0.5397443 -0.02853236 0.410431 0.45655653
000190 5a 1f cc be 8a 31 ce be bf 5c c1 bd bd 01 0d bf
       -0.3986767 -0.4027217 -0.09441518 -0.5508078
0001a0 c6 bb 95 3d 9f b9 f4 04 3a cc c4 3d 5f 99 40 3d
       0.073112056 5.753459e-36 0.096092656 0.047021266
0001b0 e5 84 72 3e 55 2d 18 bf aa f4 9e 3e 40 65 17 bf
       0.23683508 -0.5944417 0.3104604 -0.5913887
0001c0 1c 40 46 bf eb b4 f3 04 b0 72 63 be b3 26 f2 84
       -0.77441573 5.7295172e-36 -0.22211719 -5.6929466e-36
0001d0 85 09 1c bf aa b2 c0 3e 01 58 30 be d3 b0 a7 3e
       -0.60952026 0.3763631 -0.17221071 0.32752094
0001e0 30 bb 93 ba 01 bd 92 3e 38 4f 80 3e b7 f2 a2 3e
       -0.0011270996 0.28659824 0.2506044 0.31825802
0001f0 31 86 3c bf 23 b8 44 bf a1 de 07 bf f6 f3 6e be
       -0.7364226 -0.7684347 -0.5307408 -0.23335251
000200 d7 55 6a 3e 9a f1 df 3d 04 32 63 be 02 9f dd be
       0.22884308 0.10934754 -0.22187048 -0.43285376
000210 59 1d fd 3e 7d 15 80 3c a1 46 9d 3e ef dd 1f 3f
       0.49436453 0.015635246 0.30717948 0.6244802
000220 b1 c8 10 3c 90 45 f2 84 40 bb 9f 3e 70 02 6b 3c
       0.008836911 -5.695781e-36 0.31197548 0.014343843
000230 d4 0f 63 3e 17 e8 68 3e f9 34 53 bf 8c 70 b5 3e
       0.22174007 0.22744785 -0.82502705 0.3543743
000240 64 93 2d 3f 07 32 f2 84 49 bb c4 3e 8b 42 f5 84
       0.67803025 -5.693987e-36 0.38424137 -5.7660333e-36
000250 63 d2 74 3e 5b 79 a6 bf b3 92 d4 3e f6 ca f6 bd
       0.23908381 -1.3005785 0.41518173 -0.120504305
000260 3b 72 41 be eb a9 27 bd bf 25 64 be af 7a 15 be
       -0.18891232 -0.04093353 -0.22280024 -0.14597581
000270 17 6d 89 3e d8 56 7b 3f 9c bf 4f 3f 28 b2 83 3e
       0.2684104 0.9817939 0.8115175 0.2572186
000280 63 c1 b3 3e 6f 69 aa be a5 ec 22 be 5b 33 26 be
       0.3510848 -0.33283564 -0.15910585 -0.16230528
000290 af 42 4a bf 67 25 c7 bd 40 fc e1 be 52 24 82 3e
       -0.79008 -0.09723931 -0.44137764 0.25418335
0002a0 8c 33 cc be a2 7f f2 84 9f 91 68 be 61 85 8a be
       -0.39883077 -5.701114e-36 -0.227118 -0.27054885
0002b0 4e 0b 06 be 7f e5 c4 be de f1 bc bd b1 72 63 be
       -0.1309025 -0.38456342 -0.0922582 -0.2221172
0002c0 d3 3f 76 3f ba 0f f2 84 c6 18 22 3f 9b 36 f3 84
       0.9619114 -5.690837e-36 0.6331905 -5.7179173e-36
0002d0 1c 2d 2f bf 79 01 e4 3e f4 33 bc be c5 aa 76 3e
       -0.68428206 0.44532374 -0.36758387 0.24088581
0002e0 28 29 8b be 88 d2 dd be c0 88 db be b8 8a 75 bf
       -0.27179837 -0.43324685 -0.4287777 -0.95914793
0002f0 e8 f2 84 3d bc 73 83 bf 4d 61 16 bf 65 78 da 3d
       0.06491643 -1.0269694 -0.5874222 0.10667495
000300 f2 4d 9d 3d b7 79 2f bf a3 9e 08 be d1 89 db 3e
       0.076808825 -0.685451 -0.13341765 0.42878583
000310 81 3a fc bd 45 d5 79 bf 5f 6b 9d 3e 78 7e 8f 3e
       -0.12315846 -0.9759105 0.3074598 0.28026175
000320 5d 86 29 be 34 cb f2 84 36 01 4d bf 41 d4 95 3d
       -0.16555162 -5.708054e-36 -0.8007997 0.07315875
000330 c3 ae 81 3e fc 99 2b 3e ea 93 42 bd 42 80 2b bd
       0.25328645 0.16757959 -0.047504343 -0.041870363
000340 f6 34 b6 3e dc 73 f5 84 5f fc 60 3f a5 cc f6 84
       0.3558728 -5.7705623e-36 0.8788509 -5.802226e-36
000350 fc 23 09 3f 88 e0 3f 3e ad 30 13 3e 86 9a 62 be
       0.5357053 0.18737996 0.14374037 -0.22129259
000360 ce d6 88 bf 1d 1f 3a be 47 ca ba 3e f4 ff 9e bd
       -1.0690553 -0.18175931 0.3648245 -0.07763663
000370 a0 41 dd 3e fe f5 8a 3e 15 ed a2 3f 6b 26 7b 3d
       0.4321413 0.27140802 1.2728602 0.061315935
000380 2c dc 84 bd 45 b2 92 be 95 1f 59 bf c1 c8 de be
       -0.06487307 -0.28651634 -0.84813815 -0.43512538
000390 02 ed e9 3e 1b 6e f5 bd bd 5f b0 bd fb d2 02 3f
       0.45688635 -0.119838916 -0.08612011 0.5110318
0003a0 06 fc 46 3e 6d 6f f6 84 18 b7 0f 3e 54 98 65 3e
       0.19432077 -5.793665e-36 0.14034688 0.2242139
0003b0 97 13 d1 3d 6e c6 e7 3d 06 aa a7 be 04 d0 b8 3e
       0.102088146 0.11317144 -0.32746905 0.36096203
0003c0 61 5e 33 3f 8c 96 f2 84 75 56 a3 3e b6 cd f5 84
       0.70065886 -5.7032182e-36 0.319019 -5.778814e-36
0003d0 f1 56 a3 3e e3 3c a3 be a0 dc 71 3e 05 d2 00 bf
       0.3190227 -0.3188239 0.23619318 -0.50320464
0003e0 78 37 de be 6c 0d 4e 3e 24 54 23 3e a9 87 51 be
       -0.43401694 0.20122308 0.15950066 -0.20461906
0003f0 98 96 92 bc b5 62 bd 3f 61 c1 9a 3f bd ef 47 3e
       -0.017894074 1.4795748 1.2090265 0.19525047

fc_layers.2.bias f4 [16]
000000 75 71 34 3d ab e4 a9 3e 77 64 de bd 1c 0c 24 3c
       0.044053514 0.33182272 -0.10859006 0.010012653
000010 31 74 cb bc f9 98 0e bf f7 1c e9 be 4c e5 0d bd
       -0.024835678 -0.5570217 -0.4552991 -0.034642503
000020 ac 0a a3 3f e6 99 8c bc c2 55 28 be fc 91 ed 84
       1.2737632 -0.017163228 -0.16438964 -5.5852498e-36
000030 09 6a e3 3d 1b a5 32 3f b9 08 86 3e 1c 35 ed 84
       0.11104209 0.6978318 0.2617853 -5.5767205e-36

fc_layers.3.weight f4 [8, 16]
000000 ba 1f a2 bf df ad 20 3f da ad 7c be 12 fb 25 3e
       -1.2665932 0.62765306 -0.24675694 0.16209057
000010 ad 8a 8d bd f4 81 64 bf d8 ca 28 bf af 08 04 bf
       -0.06911216 -0.8926079 -0.65934515 -0.5157575
000020 f9 78 2d 3f 31 fc 07 3e 91 af 6f 3e 60 0f ee 84
       0.67762715 0.13279797 0.23406817 -5.596765e-36
000030 a2 95 fe 3e 43 0f 8b 3d 1d 82 cc bd 36 a1 11 05
       0.49723536 0.0679002 -0.09985755 6.847477e-36
000040 bd a9 a2 3e 6c 1a 4e be 9d 2c 76 3e 32 f5 b3 bf
       0.31770125 -0.20127267 0.24040456 -1.4059203
000050 b4 c8 b2 3e 63 4e a9 3e 68 ef 8f 3e 99 fb a2 3e
       0.3491875 0.33067617 0.2811234 0.3183258
000060 78 82 44 3d 88 4a 17 be 79 cd 85 be cf e2 d8 84
       0.047975987 -0.14774525 -0.26133326 -5.0989647e-36
000070 86 ff f7 3d 1a 5b 5c bf 03 85 31 be 9f 7c e4 04
       0.12109284 -0.8607651 -0.17335896 5.371699e-36
000080 2f 5f 35 bf 46 a2 71 3e 56 71 11 bf 04 97 04 3e
       -0.70848364 0.23597059 -0.5681356 0.12948233
000090 2e 84 a2 be 4c cd 36 bf 6d ef 89 bf 06 a3 49 be
       -0.3174147 -0.7140701 -1.0776192 -0.19691095
0000a0 4c 15 be 3e a4 f3 d9 3e 73 3c 28 3e 7b 23 ef 84
       0.37125623 0.42568696 0.1642931 -5.6221214e-36
0000b0 b4 31 a7 3e 39 71 0c 3e 07 e1 6f 3e ce f4 03 05
       0.32655108 0.13715066 0.23425685 6.204554e-36
0000c0 07 9c f3 84 cd 86 f2 84 41 f7 f5 84 56 b6 f7 84
       -5.7272314e-36 -5.701772e-36 -5.782629e-36 -5.823687e-36
0000d0 9e c9 f3 84 80 dd f4 84 b5 a2 f5 84 47 84 f6 84
       -5.731418e-36 -5.756754e-36 -5.7748646e-36 -5.79558e-36
0000e0 9f 82 f6 84 68 0a f3 84 22 2d f4 84 a6 c2 f0 04
       -5.795428e-36 -5.7138582e-36 -5.7405572e-36 5.6602485e-36
0000f0 47 db f4 84 9a 28 f4 84 9e 26 f7 84 5c 6e ed 84
       -5.75655e-36 -5.740141e-36 -5.8104885e-36 -5.581978e-36
000100 d1 2c 07 bf 08 45 35 bd 2d db bd be 86 1b ab 3e
       -0.5280276 -0.044255286 -0.3708128 0.33419436
000110 22 2c 38 bf d9 2e cd be 99 40 6a bf b2 d7 1d be
       -0.7194234 -0.40074804 -0.9150482 -0.15414312
000120 4f 85 f0 3e 48 56 88 bd 43 f8 73 bd a1 fb ef 84
       0.46976706 -0.06657082 -0.059562933 -5.6419715e-36
000130 b3 ff 7c be 72 18 44 3e 49 09 83 3d 52 6d 70 84
       -0.24706917 0.1914995 0.063982554 -2.8262062e-36
000140 17 47 17 bf b8 e1 43 be c1 2c 7c be ac 9a 30 3e
       -0.5909285 -0.19129074 -0.24626447 0.17246503
000150 d5 ff 4d bf 94 10 97 be 1e 6c 60 bf ac 1c 30 bf
       -0.80468494 -0.29504836 -0.87664974 -0.6879375
000160 b3 7b f5 3e 3d 39 c9 be 8b 52 33 3d 83 5f ef 84
       0.47945938 -0.39301482 0.04377989 -5.6276344e-36
000170 81 8d cc be bf 14 d6 3e 46 0c 04 3e 32 68 49 84
       -0.3995171 0.41812703 0.12895307 -2.367528e-36
000180 f0 17 a1 bf f3 4b cf bd 7e ed 5f bf 1e 6d cd 3e
       -1.258543 -0.10121908 -0.8747176 0.40122312
000190 4e 66 4d be b5 fe d6 bf d8 74 38 3c 28 1d 90 3e
       -0.20058557 -1.679648 0.0112583265 0.28147244
0001a0 ab b9 20 bf 99 98 45 be ba 55 66 3e 28 e7 f4 84
       -0.62783307 -0.19296493 0.2249364 -5.7576408e-36
0001b0 e4 5c 2e 3f 4f 1d 02 3c bf f7 2d 3f 4e 95 5b 04
       0.6811049 0.007941558 0.67956156 2.5811884e-36
0001c0 29 04 54 3e d3 e5 85 3e ab 6b 89 3e d5 d6 78 bf
       0.20704712 0.26151904 0.26839957 -0.9720281
0001d0 bc 11 55 3e b6 4a 20 3f 32 7e de 3e 5c 3d 20 3c
       0.20807546 0.62614 0.43455654 0.009780254
0001e0 7e 9d e8 3e f4 7c 3e 3e cb 3b 59 bf 7e c5 f3 84
       0.45432657 0.18602353 -0.8485686 -5.7310393e-36
0001f0 2c 92 ff be 6c 55 cc 3e 11 d0 30 bf 3c b4 ef 04
       -0.49916208 0.39908922 -0.69067484 5.635415e-36

fc_layers.3.bias f4 [8]
000000 e3 3f ab 3e 6e fe eb bc 05 34 aa 3d dd c1 f4 84
       0.3344718 -0.028807845 0.08310703 -5.754216e-36
000010 3e 3b d8 3e 05 00 e3 3e ed 39 cc be 4c 81 cb 3e
       0.42232698 0.44335952 -0.39887944 0.39747083

affine_output.weight f4 [1, 8]
000000 75 a0 02 bf b2 00 8e be b0 7c 90 be 0c f0 f4 04
       -0.5102609 -0.27734905 -0.2822013 5.7584573e-36
000010 b1 41 92 be 78 c6 ca be 79 b5 d5 3e 13 e6 20 3f
       -0.28565744 -0.39604545 0.41740015 0.62851065
