neural-collaborative-filtering/src/checkpoints/pretrain_neumf_factor8neg4_Epoch138_HR1.0000_NDCG0.8440.model (torch, 579115 bytes, 15 tensors)

embedding_user_mlp.weight f4 [7700, 8]
00000000: 3495 d92d be86 90b1 e866 e4a9 34b4 5730
00000010: d027 182f 9b96 1736 cc7c 5cb6 b8fd ac2e
00000020: 27a3 e032 7693 00b3 f66c 5135 8a8c 95b5
00000030: a89a 37b3 8e58 79b4 4a6e 8637 b974 1f2d
00000040: 50fb f1ab 3205 ca32 aa6a 3cae aa23 c8ad
00000050: 2e25 28b3 20c3 4bac caf0 152e 33ad 90b3
00000060: 2302 8fb6 9491 6935 4043 2d34 005c 10b5
00000070: 38cb 2934 991e 18b7 8b56 1c36 260c d235
00000080: 9ca1 17b6 42d7 b8b7 9667 a437 58f8 82b8
00000090: d61b 98b6 bd89 40b8 d07f bc37 5caf 82b7
000000a0: c683 7537 02ca 4037 9c9f de35 28f0 d436
000000b0: b8c9 0737 64dd 3837 c843 d036 1c67 e836
000000c0: 5c6d 6d37 22b8 4036 0616 5f37 83a3 29b8
000000d0: fe92 33b7 f66c 16b8 cad3 5138 5742 c8b7
000000e0: 5a06 e537 1db2 0eb7 80f1 b935 4983 e737
000000f0: 4c83 ecb6 2849 1ab6 2265 6e36 2445 f236
00000100: 2a01 29b7 d697 4cb7 5ed3 06b8 f202 0638
00000110: fe28 5438 383a a237 7c3e 7db8 84ca acb7
00000120: bac6 a6b6 c889 d736 6e3f a4b6 0c27 7437
00000130: f60d 4c36 dcf4 f736 6243 72b5 53a7 52b5
00000140: 8639 a8b7 106f 53b4 718f 7eb6 2cbe f436
00000150: 7822 ef34 a81c 0237 5bb5 4ab7 aac4 2b37
00000160: ac99 fd37 81ed 08b6 039c deb7 9cef 6eb7
00000170: 1b39 94b7 d0e2 23b7 5071 d0b5 6cc2 9db6
00000180: 8013 3cb3 0dfa e6b6 2538 66b8 72e5 1db5
00000190: f43e c7b4 5a03 ce35 cf1c e036 8ba7 e335
000001a0: c0f9 27b6 d20c 60b8 4b4b 9fb6 bc18 1d35
000001b0: a116 b3b5 9c80 d5b6 2ddd 67b6 4ccb dc36
000001c0: 68e1 8334 d08e c838 dc3d b536 3106 7fb5
000001d0: 2028 b835 1a72 52b7 dc89 2738 8633 0838
000001e0: d6df 1bb3 11d2 b5b0 7c73 4033 269f 34ad
000001f0: 3974 6eb7 b19c f8ab d278 ac2b ed1b 25b9
00000200: 1a46 46b7 2672 ef36 e357 3bb7 1c4b d336
00000210: 8483 b5b7 bc8e 7d38 80a1 f736 78dc 7bb6
00000220: e8ab 71b6 304f b634 9d16 a3b8 487f 0135
00000230: 0295 2836 f658 4db4 04e0 dc37 5676 a034
00000240: 99cd ab38 b17f dbb2 1835 1138 941e 18b7
00000250: 278f f434 9198 ddb5 01f4 5d37 f247 9e35
00000260: 1848 c6b6 7478 01b6 12cd 91b8 fc56 9d37
00000270: ea66 a738 1062 3b35 45ae a7b7 48ce 9f35
00000280: c9b5 a336 ac07 bdb6 f3c6 2f36 9e19 98b7
00000290: 69b6 a6b4 322b e6b6 5832 f4b7 4aa0 35b6
000002a0: 627a dd35 63b4 0a38 582d 41b6 0496 ecb7
000002b0: 603b 2db5 ed09 9236 a6e4 bcb8 4cf5 9636
000002c0: e8e7 14b7 b638 8636 11c8 a636 2906 1638
000002d0: 466d 36b7 68ff 8137 086a 8438 489b 3a37
000002e0: 9047 2635 36e4 1435 0aaa ccb6 1aa1 a2b6
000002f0: 344e 8234 d036 d9b3 e47a 32b8 d33b 1f37
00000300: 0e97 cf37 c2ef 8e36 a43d eab5 3154 c3b6
00000310: 25a4 9735 bcb5 acb6 4867 34b7 0090 8033
00000320: c0c4 deb5 9243 a637 71fc c2b7 ec01 9a37
00000330: 0269 0838 2821 27b6 deed 1637 28c2 d6b6
00000340: 4275 4cb8 38b1 fab7 56d6 e235 1efd 5eb8
00000350: c018 0037 4854 6e35 64c2 7a35 f571 41b4
00000360: 74bc 06b6 008d 1b37 9ed6 36b5 aca4 0136
00000370: e05d 3d32 d8b2 f334 e8f5 3d35 a02d a4b6
00000380: d417 2f37 90bb 6d36 f9cf c12e 14de d82f
00000390: 350d 95b6 3a96 82b2 a058 71b6 4031 80ad
000003a0: fb43 6db2 7093 b7b7 5f8c 1d31 4a64 362b
000003b0: 445c bc34 c89e 4f38 4047 9430 8ab7 8438
000003c0: 052b e7b5 5e8b 29b8 b641 1eb6 40d1 af36
000003d0: cfa8 8db4 1cba 55b7 6d19 00b6 90bc 12b5
000003e0: 9a18 9fb6 6299 bfb7 f227 a536 7e22 8e36
000003f0: 57b2 05b5 f458 0a36 60bf 5a36 ea18 0938
2.4736303e-11 -4.20627e-09 -1.01430854e-13 7.847263e-10 1.3838464e-10 2.2588417e-06 -3.2855196e-06 7.866724e-11
2.6151225e-08 -2.9936437e-08 7.8017126e-07 -1.1142267e-06 -4.2748667e-08 -2.3222148e-07 1.6025402e-05 9.064021e-12
-1.7193833e-12 2.3518258e-08 -4.2840988e-11 -2.2753206e-11 -3.9149363e-08 -2.8956351e-12 3.409254e-11 -6.737027e-08
-4.261981e-06 8.701111e-07 1.6136346e-07 -5.377806e-07 1.5813282e-07 -9.06703e-06 2.3296186e-06 1.5649755e-06
-2.2594822e-06 -2.2034747e-05 1.959856e-05 -6.245141e-05 -4.5331935e-06 -4.5904646e-05 2.2470864e-05 -1.5578866e-05
1.4633819e-05 1.1491125e-05 1.6586741e-06 6.34605e-06 8.093593e-06 1.1018801e-05 6.206774e-06 6.9261423e-06
1.4151763e-05 2.871741e-06 1.32969635e-05 -4.0445022e-05 -1.0703456e-05 -3.5864265e-05 5.0026727e-05 -2.387275e-05
2.7301885e-05 -8.50533e-06 1.385386e-06 2.759848e-05 -7.048633e-06 -2.299037e-06 3.552363e-06 7.220211e-06
-1.0073456e-05 -1.21947e-05 -3.214494e-05 3.1950833e-05 5.0582916e-05 1.9339015e-05 -6.0378094e-05 -2.0598301e-05
-4.9703203e-06 6.423539e-06 -4.894965e-06 1.4552625e-05 3.0406495e-06 7.389679e-06 -9.025008e-07 -7.8474585e-07
-2.0053947e-05 -1.969131e-07 -3.7932443e-06 7.2939056e-06 4.4542298e-07 7.755276e-06 -1.2082363e-05 1.0238184e-05
3.023151e-05 -2.0403825e-06 -2.653711e-05 -1.4241694e-05 -1.7669567e-05 -9.768366e-06 -1.5530186e-06 -4.7015983e-06
-4.3789896e-08 -6.883644e-06 -5.4888562e-05 -5.8820945e-07 -3.7112443e-07 1.5349171e-06 6.679074e-06 1.6961579e-06
-2.5030313e-06 -5.34177e-05 -4.7473345e-06 5.852305e-07 -1.3343125e-06 -6.3628668e-06 -3.4550424e-06 6.580178e-06
2.4564656e-07 9.563344e-05 5.4014217e-06 -9.500391e-07 1.3720746e-06 -1.2543542e-05 3.9944294e-05 3.247291e-05
-3.6292327e-08 -1.3229188e-09 4.4808516e-08 -1.02671534e-11 -1.4212966e-05 -1.766495e-12 1.2254869e-12 -0.0001574603
-1.18180415e-05 7.1360437e-06 -1.1166531e-05 6.297034e-06 -2.1638123e-05 6.0452832e-05 7.3799747e-06 -3.7530244e-06
-3.601186e-06 3.3957758e-07 -7.776658e-05 4.8241463e-07 2.5120685e-06 -1.9124477e-07 2.633036e-05 2.9888423e-07
8.192211e-05 -2.5553023e-08 3.462014e-05 -9.0670255e-06 4.55527e-07 -1.6510186e-06 1.3229438e-05 1.1792856e-06
-5.9092526e-06 -1.929261e-06 -6.952336e-05 1.8756364e-05 7.98235e-05 6.980563e-07 -1.9989102e-05 1.1906459e-06
4.878941e-06 -5.633532e-06 2.6192836e-06 -1.8131741e-05 -3.105263e-07 -6.8595627e-06 -2.911051e-05 -2.7064402e-06
1.6501401e-06 3.3069762e-05 -2.8785635e-06 -2.8203249e-05 -6.4533924e-07 4.3522946e-06 -9.007128e-05 4.4989047e-06
-8.875482e-06 4.000113e-06 4.9704763e-06 3.5768524e-05 -1.0873488e-05 1.5496931e-05 6.314e-05 1.1122618e-05
6.1943956e-07 5.5466387e-07 -6.099469e-06 -4.846731e-06 2.4271287e-07 -1.011482e-07 -4.2552958e-05 9.491067e-06
2.4746663e-05 4.2598413e-06 -1.7452298e-06 -5.821254e-06 1.1298149e-06 -5.147156e-06 -1.0752883e-05 5.986658e-08
-1.6597551e-06 1.9820207e-05 -2.3244154e-05 1.8359126e-05 3.2522723e-05 -2.4904239e-06 8.9960795e-06 -6.4002998e-06
-4.8746595e-05 -2.9884846e-05 1.6900692e-06 -5.316466e-05 7.635157e-06 8.8784554e-07 9.3415133e-07 -1.8015983e-07
-2.007725e-06 9.271549e-06 -6.811259e-07 1.931835e-06 1.1022593e-08 4.5392403e-07 7.076583e-07 -4.8928923e-06
1.0436361e-05 3.5424928e-06 8.813567e-11 3.9447967e-10 -4.4420835e-06 -1.5202307e-08 -3.5963385e-06 -1.4573787e-11
-1.3810673e-08 -2.1883956e-05 2.2926299e-09 6.479857e-13 3.508486e-07 4.9500522e-05 1.0788668e-09 6.328437e-05
-1.7223362e-06 -4.0422536e-05 -2.3582083e-06 5.2397663e-06 -2.638612e-07 -1.2739121e-05 -1.9088286e-06 -5.4663633e-07
-4.7414333e-06 -2.2840399e-05 4.9220334e-06 4.235945e-06 -4.980588e-07 2.061538e-06 3.2595926e-06 3.268655e-05

embedding_item_mlp.weight f4 [8, 1024]
00000000: 19f5 0bba 75db 94ba 9a5d 75ba 94c3 103b
00000010: f771 123a 2869 e6b9 caa6 a6ba 52cb e7b9
00000020: 00d7 6436 c289 1b3a 2c85 6739 3c83 b43a
00000030: a6b7 91b9 d0f7 b3b9 2fb9 4738 62ac 8539
00000040: 2d23 0b3a 58c7 a538 bddc 2e3a b357 423a
00000050: 8d23 643a 6a72 e3ba 93b7 92ba 000a a339
00000060: dc78 6738 74cb dc36 0223 2f39 31bc 23bb
00000070: 33fb 2bba 91f6 9eba 9267 fdb9 dbc9 4839
00000080: 6c4d 40ba 4c2a 0cbb b21c e3ba d5a2 32ba
00000090: 5a4f e439 8c2a 1bba 7f58 7dba de95 4bb8
000000a0: 84ff 85ba d091 5bb7 4d95 09b9 3f34 7e3a
000000b0: ee66 8eba 3a4c f9b9 bc30 1f3a 1cd7 2f39
000000c0: e8a3 9538 e103 07ba 158f 8039 7cd1 133a
000000d0: d81f af39 9005 e3ba 5a7e 97ba 7b25 f0b9
000000e0: 1eba 043a 6f90 83b9 2d39 f338 2727 5a39
000000f0: 5e7e 823a 30e8 fbb9 52b4 97b8 7afb 9239
00000100: a535 fb39 c215 6fba 7b0d 2a3a 6e96 4d39
00000110: 7d6b 0ab8 c646 1d3a 687d ba39 1b65 25b9
00000120: 37ed 2cba c1e1 1fba b6e1 9d3a 4bac abb9
00000130: b04c 90ba 32b5 5e39 1264 0aba 6ecc 1cba
00000140: 1d04 92b9 9be2 2339 e0ce 04ba 38d5 1f3a
00000150: 5611 083a fb43 0cba a564 91ba 9965 c539
00000160: 323f f9b9 5acb 1939 279b 2ab9 973e b73a
00000170: 6dc4 f3ba 95a2 91b9 bc3d 9339 dd08 2f3a
00000180: 49b1 cb38 a4d0 4fba 1d9f a1ba 0297 3aba
00000190: 90d3 8839 c0fe 0c3a 9565 e9ba 9dfd 923a
000001a0: e44a 26ba f562 58ba c34a 2b3a 6e4b 153a
000001b0: 9d0d df39 5651 833a e799 3bb9 6007 8bba
000001c0: 1a73 b439 7307 d43a faf4 bdba 6554 cdba
000001d0: b360 a53a 02c7 9339 7d17 4c3a b758 d938
000001e0: e265 733a 3a6a bb38 464b caba 04ee a7b9
000001f0: 6492 c9b9 e657 8db9 3890 603a 52bd c739
00000200: 53e5 963a a1a9 1f3b 1c2a c339 a8de 4aba
00000210: a741 543a c584 1f3a 71f3 30ba 7617 01b9
00000220: 6efb 9aba 2b17 5a3a 3f67 c5b9 6523 bb3a
00000230: bdd0 9c3a c078 1bba 0da5 f739 7c74 2aba
00000240: 741c 123a db8a 273a b998 9d3a 4533 ce3a
00000250: cd11 5f3a 623a 4839 b9c3 623a f575 bfb8
00000260: 69a9 123a f856 763a 93f1 3f3a ed5b 803a
00000270: 321a 9bba 2068 c3b9 cab1 dab9 a8c0 723a
00000280: 849d 9cb9 ec70 cbb9 97c7 f93a 1d6b 8f38
00000290: 442f 78b9 6a6c 853a c0a4 b0b9 573a 0eb9
000002a0: 49ed f3b9 edc4 3a3a f579 ecb9 2cc1 cbb9
000002b0: d6a0 d8b9 a253 b239 7768 3eba db9a 27b9
000002c0: 6c7f 5bba 69be 42b9 96be 563a ae11 98b8
000002d0: 4a34 103a 2dbd 13ba bca7 0aba c473 a5ba
000002e0: 1e71 ee3a f17b 11b9 6c4a d137 49a5 dbb9
000002f0: fe40 f5b8 3b9f 2439 39e0 41ba 8243 9839
00000300: dd46 8db9 929d 97b9 f9a8 65ba 632d 953a
00000310: a2b5 c239 e615 38ba f418 6aba 66d1 4a3a
00000320: 655a f1b9 ebc9 9aba c462 a9b9 906c d0ba
00000330: 8e09 a8b9 df0f 77ba b6a7 9a38 b2c0 9eb8
00000340: aed3 9d39 ecc2 3fba bb17 343a 5c46 8e38
00000350: cc62 783a 4b84 1cba eb04 cd39 f3b7 7b3a
00000360: e02a 8fba 1877 e237 dee7 aeb9 f370 5a3a
00000370: 8e03 1039 be97 b638 3458 6eba 50f9 2b3a
00000380: 72fd 29b9 cb13 20ba 5bb6 5bba 5dc8 0f39
00000390: 905a 83b9 b328 b5ba b4fb b43a 8dff 18ba
000003a0: 9d0f b3ba f13d f1ba e03a 9cba c73a 00ba
000003b0: 20b4 4cba 3699 ea3a e9be 5d39 60a9 7a3a
000003c0: d364 783a f087 1539 d17c 4fba ccdc 303a
000003d0: d984 e739 c003 c33a 90f7 c6b9 831c 073a
000003e0: b41a deba e396 3cba a33d 0339 de75 aeba
000003f0: 504f e339 dd4a f83a dc08 ba3a f3b9 da39
-0.00053389516 -0.0011356907 -0.0009359956 0.002208923 0.000558644 -0.00043947366 -0.0012714502 -0.0004421124
3.4099794e-06 0.0005933308 0.00022079487 0.0013772021 -0.00027793384 -0.00034326175 4.7617763e-05 0.00025496172
0.0005307671 7.904944e-05 0.0006670466 0.0007413581 0.0008702807 -0.0017352824 -0.0011193625 0.00031097233
5.518725e-05 6.580196e-06 0.00016702342 -0.0024983997 -0.0006560564 -0.0012127926 -0.00048333086 0.00019148683
-0.00073357555 -0.0021387516 -0.0017327277 -0.0006814425 0.0004354667 -0.0005919121 -0.0009664371 -4.8538546e-05
-0.0010223244 -1.3087367e-05 -0.00013120957 0.00096971163 -0.0010864416 -0.00047549774 0.00060726306 0.00016769435
7.1354036e-05 -0.00051504193 0.00024520667 0.00056388206 0.00033402327 -0.0017320383 -0.0011558041 -0.00045804292
0.0005063134 -0.00025093879 0.00011597793 0.00020804685 0.0009955873 -0.00048047444 -7.2338284e-05 0.00028034655
0.0004791442 -0.00091203686 0.0006486994 0.00019606363 -3.300187e-05 0.0005999621 0.0003557012 -0.00015773291
-0.0006596627 -0.00060990086 0.0012045417 -0.0003274403 -0.0011009183 0.0002123907 -0.0005279194 -0.000598139
-0.00027850355 0.00015629308 -0.0005066227 0.0006097141 0.00051905715 -0.0005350706 -0.0011092616 0.00037650464
-0.00047540065 0.00014666971 -0.00016270262 0.0013980445 -0.0018597968 -0.00027777688 0.0002808402 0.0006677041
9.712816e-05 -0.0007927513 -0.0012330745 -0.0007117839 0.00026097568 0.0005378537 -0.0017806763 0.0011214499
-0.0006343557 -0.0008254492 0.00065342727 0.0005695139 0.00042544017 0.0010018747 -0.00017891043 -0.0010607056
0.00034418033 0.0016176536 -0.0014492564 -0.001566541 0.001261732 0.00028186297 0.00077854824 0.00010363891
0.0009284896 8.936641e-05 -0.001543381 -0.00032030058 -0.00038446777 -0.00026959105 0.0008566412 0.00038097292
0.0011512436 0.0024362581 0.00037224672 -0.0007738867 0.0008096941 0.0006085153 -0.0006750143 -0.00012311139
-0.00118242 0.00083194923 -0.00037651692 0.0014277516 0.0011964064 -0.0005930774 0.00047234484 -0.0006502343
0.0005573698 0.00063912355 0.0012023664 0.0015731832 0.00085094274 0.00019095236 0.0008650381 -9.129561e-05
0.0005594702 0.00093971146 0.0007322069 0.0009793021 -0.0011833368 -0.00037270878 -0.00041712663 0.00092602754
-0.00029871997 -0.0003880331 0.0019056675 6.838723e-05 -0.00023668731 0.0010179405 -0.00033692084 -0.00013563909
-0.00046525363 0.0007124681 -0.00045104293 -0.00038863102 -0.00041318563 0.00034013117 -0.0007263491 -0.00015984049
-0.00083731744 -0.00018572215 0.00081918517 -7.251218e-05 0.0005500956 -0.00056357944 -0.00052892766 -0.0012623002
0.001819167 -0.0001387445 2.4949397e-05 -0.00041894082 -0.00011694616 0.00015699577 -0.00073957775 0.00029041996
-0.00026946413 -0.00028918363 -0.00087608356 0.0011381324 0.0003713789 -0.0007022306 -0.000893011 0.0007736891
-0.0004603445 -0.0011809444 -0.00032307778 -0.0015901495 -0.00032050576 -0.0009424667 7.374531e-05 -7.5699194e-05
0.00030103087 -0.00073151174 0.0006869991 6.784193e-05 0.0009475171 -0.0005970641 0.0003910431 0.00096023007
-0.0010922812 2.6996757e-05 -0.0003336062 0.0008332871 0.00013734234 8.7067005e-05 -0.0009092123 0.0006560283
-0.00016211512 -0.0006106465 -0.000838136 0.00013712184 -0.0002505374 -0.0013821333 0.0013807924 -0.000583642
-0.0013661269 -0.0018405301 -0.0011919402 -0.0004891571 -0.0007808823 0.0017898444 0.00021147322 0.0009561982
0.0009475473 0.00014260388 -0.00079150224 0.00067467685 0.00044158733 0.0014878437 -0.0003794995 0.000515409
-0.0016945214 -0.0007194115 0.00012516095 -0.0013310274 0.00043355906 0.001894321 0.0014193314 0.00041718743

embedding_item_mlp.bias f4 [8]
00000000: 5549 bdba c999 2db2 9808 a2b9 718e d3bd
00000010: a3c8 b139 58ec 9d39 a54d 1339 0f5c 1ab2
-0.001444141 -1.0104892e-08 -0.0003090545 -0.10329903 0.00033909557 0.00030121463 0.00014047937 -8.9849115e-09

embedding_user_mf.weight f4 [7700, 8]
00000000: ac97 0000 6460 0000 8e3f 0080 de4f 0000
00000010: 6738 0000 0409 0080 8f6f 0080 e78a 0080
00000020: fe13 0080 cc03 0080 08af 0000 0509 0000
00000030: 7300 0080 0374 0080 501f 0080 5b62 0080
00000040: aa0a 0000 093f 0080 a200 c3b0 3232 0000
00000050: 771d 0080 2e32 0000 2317 0000 4049 0080
00000060: 0305 0000 9baf 0000 9106 0000 e48a 0080
00000070: 763e 0080 d81a 0080 0322 38ae c721 0080
00000080: 2e3c 0000 522d 0080 e22e 0080 2103 0000
00000090: f3bf 0080 3670 0000 746b 3ab9 fa06 0080
000000a0: 4a17 0000 fb73 0000 f415 0080 e927 0000
000000b0: ab1c 0000 acc0 1c38 b469 cd33 b35d 0000
000000c0: 040a 0080 7815 0000 de7d 0080 4a75 0080
000000d0: 7066 0080 bf15 0080 22d0 d832 5f6c 0000
000000e0: 9c9c 0080 0120 0080 5e07 0080 620a 0080
000000f0: 604d 0000 a62f 0080 94fc e6b3 c717 0000
00000100: 1f15 0080 7e72 0000 3b11 0000 1cb3 0080
00000110: f114 0080 461a 0000 4cf1 b7b2 fc55 0000
00000120: 311b 0000 c901 0000 5f28 0000 b224 0000
00000130: 0d30 0000 e210 0080 b2bf 4734 ea3f 0000
00000140: 8ba8 0000 5072 0080 0b40 0000 1149 0000
00000150: 310e 0000 4c1c 0080 d009 3b33 df30 0080
00000160: 6d10 0000 904c 0000 4689 0080 6f52 2639
00000170: bf3c 0080 1066 0080 b440 17b4 6e00 0000
00000180: a610 0080 6407 0080 c47d 0000 2304 0000
00000190: 140e 0000 7ab8 0000 22ea e02e 3922 0080
000001a0: ec07 0080 427d 0080 6940 0080 970c 0000
000001b0: d60a 0080 361b 0000 98c9 7b33 107d 0080
000001c0: a426 0080 fb19 0000 2302 0000 ad03 0080
000001d0: 0919 0000 b224 0080 fd03 b9b7 a71d 0000
000001e0: cb7f 0080 3b76 0080 d343 0000 fd26 0080
000001f0: aa7c 0000 a261 0080 8163 0080 a04f 0080
00000200: 5713 0000 4153 0080 f84b 0080 9821 0000
00000210: 3308 0000 ee0a 0080 744f 4db5 8607 0080
00000220: 3616 0080 5b16 0080 503b 0080 540f 0000
00000230: 3418 0080 e568 94b5 3c7e 8eb2 4d6e 0000
00000240: 6e11 0000 113d 0080 d457 0080 8906 0080
00000250: 6120 0000 d595 0000 5031 0535 9e53 0080
00000260: 1902 0000 fc75 0000 2590 0000 db1d 0000
00000270: 3a04 0729 db04 0080 d473 2eaf 5b15 0000
00000280: e9a3 0080 6074 0000 683a 0080 338b 0080
00000290: 1c2b 0000 c302 0000 8237 bb2e c6af 0080
000002a0: d11b 0000 de40 0080 8188 0000 a04d 0080
000002b0: 0659 0000 4661 0000 cae4 96b0 6526 0080
000002c0: a20b 0080 e28e 0080 f650 0000 e38f 0000
000002d0: 839c 0080 0e58 0080 8a70 7b30 197b 0080
000002e0: 6595 0000 3803 0080 df11 0080 d8c4 0080
000002f0: 1967 0080 a115 0080 c8e5 4eb5 fb6f 0000
00000300: 3645 0000 311d 0000 9219 0000 8c19 0080
00000310: f278 0000 1685 0000 76cc 77b3 fa81 0080
00000320: c30c 0000 481d 0000 52c1 0080 7d4d 0000
00000330: 2e11 0080 6135 0000 96aa 5531 ac28 0000
00000340: 9304 0000 da1d 0080 d50c 0080 5d3f 0080
00000350: bba1 0000 d418 0080 3c29 e2b3 f22f 0080
00000360: 5416 0000 922d 0080 0c1e 0080 7d3c 0080
00000370: b480 0080 469d 0080 e08c 97b2 f51d 0080
00000380: 8f50 0000 5304 0080 c38b 0000 c0bc 0080
00000390: b02e 0000 135e 0000 3932 0000 8c6e 0080
000003a0: a628 0080 f222 0080 f133 0080 7e05 0080
000003b0: 0625 0000 5e41 0080 1d02 0000 2f40 0000
000003c0: 8d44 0080 a01d 0000 83aa 0000 f26c 0080
000003d0: 5f7a 0080 510d 0080 6678 8435 9a1c 0000
000003e0: ad6d 0080 9440 0080 60ae 0000 b971 0080
000003f0: 3a60 0000 5518 0080 e780 4133 a7c0 0000
5.441e-41 3.4578e-41 -2.2799e-41 2.8651e-41 2.0233e-41 -3.234e-42 -4.002e-41 -4.9829e-41
-7.172e-42 -1.362e-42 6.279e-41 3.236e-42 -1.61e-43 -4.1617e-41 -1.1233e-41 -3.5283e-41
3.826e-42 -2.2613e-41 -1.4188297e-09 1.8007e-41 -1.057e-41 1.8001e-41 8.3e-42 -2.6277e-41
1.798e-42 6.2995e-41 2.356e-42 -4.9825e-41 -2.2407e-41 -9.63e-42 -4.1866965e-11 -1.2117e-41
2.1588e-41 -1.6258e-41 -1.6818e-41 1.122e-42 -6.8858e-41 4.0254e-41 -0.00017778372 -2.503e-42
8.355e-42 4.1606e-41 -7.875e-42 1.4317e-41 1.0284e-41 3.7372738e-05 9.565284e-08 3.3613e-41
-3.593e-42 7.702e-42 -4.5153e-41 -4.2075e-41 -3.6748e-41 -7.801e-42 2.5240357e-08 3.8876e-41
-5.6181e-41 -1.1481e-41 -2.643e-42 -3.725e-42 2.7757e-41 -1.7093e-41 -1.0756153e-07 8.53e-42
-7.577e-42 4.1072e-41 6.181e-42 -6.4252e-41 -7.512e-42 9.425e-42 -2.1413733e-08 3.0845e-41
9.754e-42 6.4e-43 1.4482e-41 1.3164e-41 1.7237e-41 -6.056e-42 1.8603058e-07 2.2928e-41
6.0462e-41 -4.1008e-41 2.2974e-41 2.6211e-41 5.091e-42 -1.0151e-41 4.3548255e-08 -1.7532e-41
5.892e-42 2.7465e-41 -4.9244e-41 0.00015861703 -2.1792e-41 -3.6613e-41 -1.408651e-07 1.54e-43
-5.972e-42 -2.651e-42 4.5116e-41 1.484e-42 5.05e-42 6.6178e-41 1.0227931e-10 -1.2277e-41
-2.842e-42 -4.4934e-41 -2.3106e-41 4.516e-42 -3.887e-42 9.761e-42 5.862384e-08 -4.4864e-41
-1.3862e-41 9.32e-42 7.67e-43 -1.319e-42 8.981e-42 -1.3164e-41 -2.2055576e-05 1.0637e-41
-4.5843e-41 -4.2413e-41 2.4331e-41 -1.3986e-41 4.4721e-41 -3.5024e-41 -3.5695e-41 -2.8564e-41
6.938e-42 -2.9866e-41 -2.7252e-41 1.2051e-41 2.941e-42 -3.921e-42 -7.648407e-07 -2.699e-42
-7.968e-42 -8.02e-42 -2.1277e-41 5.499e-42 -8.682e-42 -1.1057388e-06 -1.658838e-08 3.9568e-41
6.253e-42 -2.1906e-41 -3.1507e-41 -2.344e-42 1.1615e-41 5.375e-41 4.961812e-07 -2.9996e-41
7.52e-43 4.2325e-41 5.171e-41 1.071e-41 2.9979688e-14 -1.742e-42 -1.5866358e-10 7.661e-42
-5.88e-41 4.1747e-41 -2.0952e-41 -4.9935e-41 1.5465e-41 9.91e-43 8.5136356e-11 -6.3056e-41
9.979e-42 -2.327e-41 4.8968e-41 -2.7847e-41 3.1936e-41 3.4895e-41 -1.0978962e-09 -1.3773e-41
-4.173e-42 -5.1257e-41 2.9043e-41 5.1617e-41 -5.6146e-41 -3.1588e-41 9.1473196e-10 -4.4159e-41
5.3593e-41 -1.155e-42 -6.411e-42 -7.0614e-41 -3.6984e-41 -7.759e-42 -7.7075356e-07 4.0171e-41
2.4828e-41 1.0472e-41 9.173e-42 -9.164e-42 4.3387e-41 4.7742e-41 -5.7695125e-08 -4.6627e-41
4.578e-42 1.0504e-41 -6.935e-41 2.7798e-41 -6.163e-42 1.9149e-41 3.1092546e-09 1.459e-41
1.641e-42 -1.0709e-41 -4.603e-42 -2.273e-41 5.8018e-41 -8.907e-42 -1.05314456e-07 -1.72e-41
8.01e-42 -1.6348e-41 -1.0779e-41 -2.1699e-41 -4.617e-41 -5.6419e-41 -1.7642776e-08 -1.0747e-41
2.8899e-41 -1.551e-42 5.0137e-41 -6.7711e-41 1.6748e-41 3.3747e-41 1.8016e-41 -3.9657e-41
-1.4582e-41 -1.2536e-41 -1.8633e-41 -1.97e-42 1.3282e-41 -2.345e-41 7.58e-43 2.3025e-41
-2.4591e-41 1.0627e-41 6.1168e-41 -3.9082e-41 -4.3898e-41 -4.777e-42 9.869807e-07 1.026e-41
-3.9344e-41 -2.3166e-41 6.2554e-41 -4.0796e-41 3.452e-41 -8.729e-42 4.505355e-08 6.911e-41

embedding_item_mf.weight f4 [8, 1024]
00000000: 1843 0000 e9ac 0080 ac1e 0080 cd85 0080
00000010: e20d 0000 9e1a 0000 3184 0080 feaa 0000
00000020: d34a 0000 7a47 0080 757e 0080 401d 0000
00000030: 0052 0080 fe0f 0080 c6b5 0000 9c57 0080
00000040: 049d 0080 191b 0080 10bb 0000 ba39 0000
00000050: 115d 0000 4003 0080 3232 0000 e605 0080
00000060: f146 0000 a014 0080 2489 0000 b938 0080
00000070: 5604 0000 8a8a 0000 2210 0080 ad64 0080
00000080: 4942 0000 b4b1 0080 133c 0080 5936 0000
00000090: 0200 0000 ea4e 0080 c8be 0080 eb03 0000
000000a0: 296b 0000 f161 0000 d023 0000 29b0 0000
000000b0: 6a1c 0080 6f5e 0080 d730 0000 a926 0080
000000c0: 875a 0000 c0b9 0000 a474 0080 0f09 0080
000000d0: c239 0000 e110 0080 1c47 0000 9839 0080
000000e0: 359e 0000 3838 0080 c2bd 0080 f465 0080
000000f0: b248 0000 5308 0080 6c4c 0080 096f 0000
00000100: 9b4f 0080 6a44 0080 220e 0080 ce73 0080
00000110: 7926 0080 ea14 0080 2815 0080 2463 0000
00000120: 1449 0080 361f 0080 e97f 0080 3c17 0080
00000130: b55c 0080 90ab 0000 039f 0080 f64b 0080
00000140: 7406 0080 a80d 0080 c03d 0000 9935 0000
00000150: 5abf 0000 4704 0080 284e 0000 2f23 0080
00000160: df2b 0000 a211 0000 d07d 0080 381a 0000
00000170: 1a12 0080 2b01 0080 d60f 0080 8988 0000
00000180: 7d6c 0000 3c27 0000 aa2f 0080 6050 0080
00000190: 3f9f 0080 ce02 0080 1f45 0080 8266 0000
000001a0: 6485 0080 c12b 0000 8155 0080 2f1e 0000
000001b0: 2026 0080 db32 0080 b80b 0080 b708 0000
000001c0: 1704 0080 ae0f 0000 8928 0000 d929 0080
000001d0: 9d2b 0000 8218 0080 0819 0080 4a4c 0000
000001e0: ff33 0000 7fa3 0080 9398 0080 4c2b 0000
000001f0: d4a4 0080 1778 0080 2e51 0000 c003 0000
00000200: 3a85 0000 3a4f 0000 d60f 0000 e728 0080
00000210: 929a 0000 a026 0000 c862 0080 6c5b 0080
00000220: f077 0000 aa50 0080 2087 0080 4f74 0000
00000230: d77f 0080 294a 0000 4815 0000 9f58 0080
00000240: 6368 0000 cb0e 0000 6d60 0080 bc5d 0000
00000250: f972 0080 6a1b 0080 ba3c 0080 4eb5 0080
00000260: 6731 0080 f66a 0080 1935 0080 c946 0000
00000270: 5564 0080 44b8 0000 d72e 0080 0069 0080
00000280: 560d 0000 0036 0080 b54e 0080 1726 0000
00000290: 941f 0000 099b 0000 d64b 0080 291d 0080
000002a0: 344a 0000 a556 0080 022c 0000 e354 0080
000002b0: c438 0000 9a03 0000 3c18 0080 14aa 0080
000002c0: 0408 0080 d736 0000 6344 0080 f5a8 0000
000002d0: 073c 0000 1e56 0000 9f28 0000 76ba 0000
000002e0: 2b17 0000 1d26 0000 7537 0080 2866 0000
000002f0: e549 0080 398f 0080 6b48 0000 6330 0080
00000300: 6986 0000 2859 0000 b809 0080 2102 0000
00000310: 2358 0080 703b 0000 a8bd 0000 ed02 0000
00000320: 0332 0080 b674 0000 b603 0080 e125 0080
00000330: 165b 0000 86bb 0080 8700 0080 1d4b 0000
00000340: 7989 0080 cf0c 0080 4533 0000 e07a 0000
00000350: e15d 0080 4157 0080 b895 0000 330c 0000
00000360: 1a17 0080 fc0a 0080 edb4 0000 25b8 0000
00000370: 2c47 0080 0dc1 0080 ab67 0000 e010 0000
00000380: 3a72 0080 091b 0000 0b5c 0080 f679 0000
00000390: 5f7e 0000 4075 0080 3cbd 0080 e3ae 0000
000003a0: d12c 0000 3b58 0000 a028 0000 5f7b 0080
000003b0: 8130 0000 6245 0080 1e28 0000 8257 0080
000003c0: 8874 0000 e7a0 0080 ed54 0000 7942 0080
000003d0: c979 0080 ba28 0080 2824 0080 b50f 0080
000003e0: 253e 0000 d8b3 0000 f025 0000 1a1f 0000
000003f0: 9c02 0080 9e54 0000 4a75 0080 8cab 0080
2.4069e-41 -6.2028e-41 -1.1003e-41 -4.7999e-41 4.98e-42 9.548e-42 -4.7421e-41 6.134e-41
2.6842e-41 -2.5641e-41 -4.5364e-41 1.0493e-41 -2.9416e-41 -5.737e-42 6.5208e-41 -3.1428e-41
-5.6327e-41 -9.721e-42 6.7105e-41 2.0708e-41 3.3386e-41 -1.166e-42 1.8007e-41 -2.116e-42
2.5449e-41 -7.399e-42 4.9197e-41 -2.0348e-41 1.555e-42 4.9698e-41 -5.787e-42 -3.6116e-41
2.3779e-41 -6.3748e-41 -2.155e-41 1.9496e-41 3e-45 -2.8309e-41 -6.844e-41 1.406e-42
3.8442e-41 3.5135e-41 1.2847e-41 6.3194e-41 -1.0193e-41 -3.3876e-41 1.752e-41 -1.3869e-41
3.2475e-41 6.6635e-41 -4.1843e-41 -3.25e-42 2.072e-41 -6.055e-42 2.5509e-41 -2.0661e-41
5.6754e-41 -2.0167e-41 -6.8072e-41 -3.6574e-41 2.6078e-41 -2.986e-42 -2.7415e-41 3.9832e-41
-2.8557e-41 -2.4542e-41 -5.07e-42 -4.1543e-41 -1.3801e-41 -7.503e-42 -7.59e-42 3.5565e-41
-2.6215e-41 -1.1196e-41 -4.5886e-41 -8.335e-42 -3.3257e-41 6.1545e-41 -5.7043e-41 -2.725e-41
-2.315e-42 -4.899e-42 2.2152e-41 1.9227e-41 6.8644e-41 -1.534e-42 2.8037e-41 -1.2621e-41
1.5738e-41 6.325e-42 -4.5133e-41 9.406e-42 -6.494e-42 -4.19e-43 -5.681e-42 4.898e-41
3.8918e-41 1.4075e-41 -1.7099e-41 -2.8833e-41 -5.7127e-41 -1.006e-42 -2.4796e-41 3.6773e-41
-4.7852e-41 1.5696e-41 -3.0673e-41 1.0828e-41 -1.3677e-41 -1.8244e-41 -4.204e-42 3.126e-42
-1.467e-42 5.625e-42 1.4541e-41 -1.5012e-41 1.5645e-41 -8.792e-42 -8.98e-42 2.7367e-41
1.8653e-41 -5.8651e-41 -5.4733e-41 1.5532e-41 -5.9129e-41 -4.308e-41 2.9122e-41 1.345e-42
4.7793e-41 2.8421e-41 5.681e-42 -1.4673e-41 5.545e-41 1.3856e-41 -3.5436e-41 -3.2796e-41
4.3025e-41 -2.8937e-41 -4.8474e-41 4.1724e-41 -4.586e-41 2.6604e-41 7.634e-42 -3.1791e-41
3.7447e-41 5.307e-42 -3.4591e-41 3.3626e-41 -4.1244e-41 -9.834e-42 -2.1785e-41 -6.504e-41
-1.7722e-41 -3.837e-41 -1.9048e-41 2.5393e-41 -3.5992e-41 6.6102e-41 -1.6803e-41 -3.7667e-41
4.784e-42 -1.9372e-41 -2.8235e-41 1.3664e-41 1.1328e-41 5.5616e-41 -2.7205e-41 -1.046e-41
2.6619e-41 -3.1082e-41 1.5787e-41 -3.0452e-41 2.0364e-41 1.292e-42 -8.694e-42 -6.1013e-41
-2.875e-42 1.9673e-41 -2.4533e-41 6.061e-41 2.1534e-41 3.0893e-41 1.4572e-41 6.689e-41
8.311e-42 1.3672e-41 -1.9894e-41 3.6647e-41 -2.6508e-41 -5.1379e-41 2.5979e-41 -1.7358e-41
4.8217e-41 3.1983e-41 -3.486e-42 7.64e-43 -3.1617e-41 2.1322e-41 6.8036e-41 1.05e-42
-1.7941e-41 4.1868e-41 -1.331e-42 -1.3588e-41 3.2675e-41 -6.7271e-41 -1.89e-43 2.6946e-41
-4.9316e-41 -4.595e-42 1.8392e-41 4.4079e-41 -3.3677e-41 -3.1301e-41 5.3709e-41 4.376e-42
-8.287e-42 -3.94e-42 6.4904e-41 6.6059e-41 -2.5532e-41 -6.9254e-41 3.7189e-41 6.054e-42
-4.0977e-41 9.698e-42 -3.3019e-41 4.3751e-41 4.5333e-41 -4.2061e-41 -6.7885e-41 6.2738e-41
1.6077e-41 3.1651e-41 1.4574e-41 -4.4257e-41 1.74e-41 -2.489e-41 1.4391e-41 -3.1392e-41
4.1804e-41 -5.7721e-41 3.0466e-41 -2.3846e-41 -4.3688e-41 -1.461e-41 -1.297e-41 -5.635e-42
2.2293e-41 6.4516e-41 1.361e-41 1.1157e-41 -9.36e-43 3.0355e-41 -4.2075e-41 -6.154e-41

embedding_item_mf.bias f4 [8]
00000000: 7572 0000 4581 0080 5074 0000 6f9f 0000
00000010: 67af 0080 4217 0080 f863 4133 e55c 0080
4.106e-41 -4.6373e-41 4.1725e-41 5.7194e-41 -6.2923e-41 -8.343e-42 4.5027235e-08 -3.3324e-41

fc_layers.0.weight f4 [64, 16]
00000000: fc87 8e35 688a 54b3 f438 68b4 d429 0d39
00000010: 90d9 85b8 2c85 4c33 4108 0739 b693 16b5
00000020: e002 6430 44af 9aa9 7afa dab1 5eca f231
00000030: 4078 6d31 6c1a 7d31 f191 8d2f ace9 c129
00000040: de5c b0b4 98f0 cc34 e461 8733 32e5 3ab4
00000050: 488c 5737 637c 8a32 6e4f 7fb4 7a91 9232
00000060: c4b0 2f35 a640 5bae 00f7 f731 ca5d d535
00000070: e0f7 1bb4 9ecb 90b4 28e2 c4b2 902c 592a
00000080: 170a 4ab5 dbd1 e033 04e0 21b5 cc6b 1eb6
00000090: ac09 f1af 1063 0a30 c059 37b7 80bd e9af
000000a0: 3925 8333 f874 b1ab 7b02 a433 21a3 c934
000000b0: 2a7e 6ab3 340b 0237 fcac 18b1 0cdc 852b
000000c0: ce5b 8037 23c3 04b7 63e1 6137 93e9 11b8
000000d0: 98ed 14b5 8c5c 4db6 0645 5e37 2ce0 1d36
000000e0: 0296 6fba f69b 15b3 bfb7 0aba 18eb d0bd
000000f0: 415a 61ba 2e26 d239 f412 b039 36e2 b831
00000100: 8d62 61b7 37f9 8437 22f2 a0b4 0fb1 d336
00000110: 499a 1bb7 4863 c333 870b 64b7 5efc 11b7
00000120: 36f4 31b7 e66b 79b2 8a43 c5b7 8f82 24b9
00000130: a9cd 3fb7 cefa 8137 dcf0 3336 e96b 462f
00000140: 00aa 2ab0 5b3e 0831 e6fb f6b2 2091 f1ad
00000150: 7e68 8e35 8b1b ad37 00d8 a5b3 c134 b52e
00000160: bba6 07b3 9fb0 992b ef39 deb2 f341 9f34
00000170: 51aa dd32 5acb 97b7 bd72 8638 fc42 13ab
00000180: 5811 aa33 4326 0237 fa4a 3ab6 3eea 6c36
00000190: a0d3 98b6 2254 8735 97e1 60b5 2cf3 34b4
000001a0: 84f3 d735 e6db 6dad 684c b9b4 2e01 9336
000001b0: ef4b 1135 34c4 8bb4 2c25 53b4 1e9b 63ae
000001c0: 5593 0239 a4ed f737 4a4a 95b7 28ca 4737
000001d0: b2aa 9eb4 125f 3eb6 9673 ddb3 a239 7d34
000001e0: e8a9 75b2 620f c6aa 9bb4 11b3 e644 3bb4
000001f0: d2e1 2a32 0222 7fb2 3c2b 9132 181e c6aa
00000200: 4b0a 6d33 e33a 2337 411c 81b5 28af ef33
00000210: 6c80 5a32 cc42 3932 cc5a 9d33 8079 fab3
00000220: 7c04 c7b1 00d3 5da9 601b f530 b6e0 fa31
00000230: 90c2 2db0 2afd f131 a281 29ae 0a46 9526
00000240: b82c 02ae 6a9b 0630 9ac9 90b7 c8f1 9334
00000250: 58c7 e5b4 d5be e930 22ea 9531 7274 72b3
00000260: 93b5 5931 8dbf 152e 6707 83b1 d656 8732
00000270: d961 69b1 56ca 8230 060f cfae 4448 9728
00000280: 6777 1eb9 8263 db35 407a c6b7 5327 04b3
00000290: 080e be35 40a9 b1b7 dc21 f133 36a3 3738
000002a0: 686a feaf 9adc 9428 3c8c 4232 7762 b332
000002b0: fc62 bf31 be54 57b2 73c7 82b0 3dea ef29
000002c0: aca9 a835 a674 d8b8 8504 a537 1e83 7db8
000002d0: 48f7 9637 3c83 2134 a27d 9fb4 8943 cdb4
000002e0: b1a7 4cb9 a112 8bb1 e807 d1b8 6275 c9ba
000002f0: d4cc a138 c2e9 1739 3ec0 1636 324f 0730
00000300: b42f 16b5 c003 acb4 419e 95b6 13da 9636
00000310: 668e 05b5 a833 5437 0868 dd35 806f 4db7
00000320: a7e7 3233 193b 152b d447 4832 9031 1331
00000330: 8e52 8932 b474 7eb2 10ee f0af a96c 2135
00000340: da44 9fb6 64c3 6d34 26b2 e4b0 7845 77b6
00000350: 825f 20b2 14a7 0f36 aeb3 35b3 062a 0cb5
00000360: f2cc e432 3f64 412a 0650 40b2 5010 1033
00000370: 413d 14b1 d5bd cdb2 6b54 4e31 3ce6 40a9
00000380: 48f6 aeb2 d188 1a36 d103 30b8 3ccf 32b7
00000390: 2cd9 05b3 60cb 22b6 8899 abb3 70d6 3336
000003a0: 56f3 ab31 9ac8 3fa9 56bb 4631 127c 6d31
000003b0: 07df 2f30 ff2f 48b1 0753 2a30 ecd9 96a8
000003c0: 1a76 c9b2 9a1f 6336 65a9 c937 589b a1b4
000003d0: d231 f035 a28d eeb3 86d9 0db3 b4f5 5db6
000003e0: 82ca 0930 f458 32a7 801b 1a2d cf02 032e
000003f0: 86dd 4d2f 1045 4d2f bec2 302d ef38 9427
1.0619401e-06 -4.9485976e-08 -2.1627403e-07 0.0001346239 -6.3824584e-05 4.761857e-08 0.00012877678 -5.60943e-07
8.295e-10 -6.8693776e-14 -6.373111e-09 7.0661335e-09 3.4556393e-09 3.6831365e-09 2.5751448e-10 8.6114574e-14
-3.2850124e-07 3.8173016e-07 6.3042336e-08 -1.740598e-07 1.284766e-05 1.6121879e-08 -2.3777622e-07 1.7062792e-08
6.544981e-07 -4.9852254e-11 7.2167268e-09 1.5897033e-06 -1.4525676e-07 -2.697024e-07 -2.2920247e-08 1.9288932e-13
-7.5265547e-07 1.0468985e-07 -6.030316e-07 -2.360658e-06 -4.3844517e-10 5.0344884e-10 -1.09285465e-05 -4.25171e-10
6.1069336e-08 -1.2609072e-12 7.637296e-08 3.755786e-07 -5.4597116e-08 7.751212e-06 -2.2217241e-09 9.511294e-13
1.5301539e-05 -7.913247e-06 1.3463522e-05 -3.4788227e-05 -5.548004e-07 -3.060125e-06 1.3248302e-05 2.3525308e-06
-0.00091394794 -3.483361e-08 -0.00052916625 -0.102010906 -0.0008596518 0.00040082767 0.00033583457 5.380822e-09
-1.3433991e-05 1.5851676e-05 -2.9978497e-07 6.3089024e-06 -9.274642e-06 9.098454e-08 -1.3592543e-05 -8.701432e-06
-1.0606882e-05 -1.4518241e-08 -2.351568e-05 -0.00015688896 -1.1432371e-05 1.5494788e-05 2.6813277e-06 1.8046332e-10
-6.2087224e-10 1.982605e-09 -2.875272e-08 -2.7462976e-11 1.0610236e-06 2.0636033e-05 -7.7227014e-08 8.240298e-11
-3.1583777e-08 1.0920326e-12 -2.5870547e-08 2.9664042e-07 2.5805237e-08 -1.8095296e-05 6.4109896e-05 -5.231785e-13
7.919397e-08 7.757512e-06 -2.7759802e-06 3.5303087e-06 -4.5545894e-06 1.008277e-06 -8.377478e-07 -1.6852272e-07
1.6089621e-06 -1.35207175e-11 -3.4514528e-07 4.3810787e-06 5.412721e-07 -2.6033524e-07 -1.966443e-07 -5.1751596e-11
0.00012452652 2.9555355e-05 -1.7796778e-05 1.19083925e-05 -2.955399e-07 -2.8367544e-06 -1.03121394e-07 2.3583428e-07
-1.4299509e-08 -3.518254e-13 -3.3924703e-08 -1.7440797e-07 9.946648e-09 -1.4850686e-08 1.6899882e-08 -3.5192747e-13
5.5190224e-08 9.729268e-06 -9.619472e-07 1.11611655e-07 1.271847e-08 1.0783605e-08 7.327398e-08 -1.1663633e-07
-5.792172e-09 -4.925487e-14 1.7833877e-09 7.3015043e-09 -6.3213523e-10 7.0428046e-09 -3.8541288e-11 1.0357936e-15
-2.9598296e-11 4.896977e-10 -1.7260016e-05 2.7556803e-07 -4.2799616e-07 1.7007219e-09 4.3630886e-09 -5.6450922e-08
3.168087e-09 3.404881e-11 -3.8134433e-09 1.5755557e-08 -3.3961582e-09 9.516252e-10 -9.415939e-11 1.6795708e-14
-0.00015112535 1.6345732e-06 -2.3660366e-05 -3.076941e-08 1.4160187e-06 -2.1178857e-05 1.1228596e-07 4.3782602e-05
-4.6277937e-10 1.6526971e-14 1.1324172e-08 2.088312e-08 5.570085e-09 -1.2533915e-08 -9.515432e-10 1.0654366e-13
1.2566356e-06 -0.0001032141 1.9671637e-05 -6.0442013e-05 1.7996543e-05 1.5042036e-07 -2.9707468e-07 -3.8233364e-07
-0.00019517426 -4.0475503e-09 -9.967369e-05 -0.0015370066 7.7152305e-05 0.00014487564 2.2463641e-06 4.9225257e-10
-5.594877e-07 -3.2040225e-07 -4.458969e-06 4.4957355e-06 -4.975358e-07 1.2648212e-05 1.649606e-06 -1.2244913e-05
4.165454e-08 5.301745e-13 1.1657864e-08 2.1419488e-09 1.598644e-08 -1.4811281e-08 -4.38249e-10 6.0135295e-07
-4.7465846e-06 2.2143428e-07 -1.6639816e-09 -3.6846304e-06 -9.334942e-09 2.1405913e-06 -4.2305764e-08 -5.2215216e-07
2.6635892e-08 1.7176623e-13 -1.1194066e-08 3.354245e-08 -2.1571653e-09 -2.3951467e-08 3.0024931e-09 -4.283226e-14
-2.0368262e-08 2.3027426e-06 -4.1965224e-05 -1.0657877e-05 -3.1163992e-08 -2.425826e-06 -7.990735e-08 2.6797898e-06
5.004419e-09 -4.2584514e-14 2.891928e-09 3.4558565e-09 6.398157e-10 -2.9131113e-09 6.196363e-10 -1.6747854e-14
-2.3453186e-08 3.384403e-06 2.4039948e-05 -3.0101614e-07 1.7895893e-06 -1.11085015e-07 -3.3026957e-08 -3.3074584e-06
5.012809e-10 -2.4750684e-15 8.759993e-12 2.9788446e-11 1.8723342e-10 1.8669177e-10 1.0047683e-11 4.113998e-15

fc_layers.0.bias f4 [64]
00000000: aeb2 2d32 607a 3933 166f 8db3 9014 3f3c
00000010: 700b 7fb8 2d0c 15b3 56d2 37b7 0060 f12e
00000020: 02f5 11b2 c908 b1b2 f2b1 a432 045b 053a
00000030: 3121 08b4 868b 7433 161e a9b0 0c72 8e2e
00000040: f979 303d 4a26 cfb9 242d 14af b19d 85b4
00000050: 87c8 03b1 b3a9 2c33 5c9f c4b7 8060 07b1
00000060: 3c18 8931 1cc4 6e33 23fe 9f3a 162c 043d
00000070: dd81 4933 e08e 1d3d a6e3 09b6 887d 993c
00000080: 8dae cdb0 5368 c638 6487 b032 f0dd 0db4
00000090: 5dfe e7b9 7c37 5e32 86de 4a31 7a39 9934
000000a0: 9cb3 33b2 cbec 373d 1206 ee3a 005b a036
000000b0: 833f 4131 1d77 38ba d3c3 843c 0303 523d
000000c0: 8154 91b7 2db8 e6b0 137e a53c b238 d13c
000000d0: 0f5d d8b3 9815 60b4 2e6a 5c36 d76b 6530
000000e0: aeb5 a4b8 a5ba 3ab4 c0ff e835 36b7 cab5
000000f0: cb85 0e3d efdc e9b3 f814 ff39 cc63 abb4
1.0110552e-08 4.318497e-08 -6.5860306e-08 0.011662617 -6.080739e-05 -3.470284e-08 -1.0956623e-05 1.0976464e-10
-8.495819e-09 -2.0609507e-08 1.9173033e-08 0.000508711 -1.2678062e-07 5.6937573e-08 -1.2304919e-09 6.477671e-11
0.043085072 -0.00039510644 -1.3476559e-10 -2.4887916e-07 -1.9176996e-09 4.020121e-08 -2.3439228e-05 -1.969994e-09
3.98998e-09 5.5592054e-08 0.0012206476 0.032268606 4.691707e-08 0.038466334 -2.05471e-06 0.018736616
-1.4965323e-09 9.4608076e-05 2.0550665e-08 -1.3212389e-07 -0.0004424927 1.2934716e-08 2.9521359e-09 2.854029e-07
-1.046001e-08 0.044903558 0.0018159768 4.7789654e-06 2.8121299e-09 -0.0007036792 0.016206658 0.051272403
-1.7324697e-05 -1.6787048e-09 0.020201718 0.02553973 -1.0075211e-07 -2.0869481e-07 3.284436e-06 8.3462964e-10
-7.85397e-05 -1.7390501e-07 1.735978e-06 -1.5103494e-06 0.034795564 -1.08900956e-07 0.00048653013 -3.1923844e-07

fc_layers.1.weight f4 [32, 64]
00000000: 6b11 abb1 98ee c0b3 98fe 6bb4 b0cb 093d
00000010: 43f3 0039 dd41 3c34 66fc a2b4 c9a3 e833
00000020: 7d4e d430 e871 a62f 54de eb31 4980 893a
00000030: b88d 47b1 103c f6b2 707e 68ae 6041 94af
00000040: bdbb fc3d 7223 c6b8 94ac 162f ee2c bb33
00000050: b068 cbae 82df 9234 7881 ea37 a589 d633
00000060: a3f7 9d31 9719 6e33 f6c0 973a f5a6 be3d
00000070: 9890 7733 95ad e23d a705 0fb5 4927 593d
00000080: b081 922e a438 f1b7 f3e5 a9b2 166e f9b2
00000090: cd06 a839 6b26 5d33 87b4 0b31 3059 6634
000000a0: 90fc 99b2 3734 043e e279 193b a2cd f338
000000b0: d107 2a31 307a b7b8 9a7c 443d 037b 153e
000000c0: 28d6 9537 dc3d 43b0 3cee 6a3d e122 943d
000000d0: d860 c0b0 80c0 0532 bfea 0f36 b08f a02f
000000e0: 2e98 11b8 cdb9 3a32 8440 b2b5 0dd5 8635
000000f0: fca3 cd3d 9523 97b3 2a92 2d3a eb3c 9234
00000100: 3c2b d337 e00c 3138 17e2 9538 83bd 1032
00000110: 7ad7 0b34 d818 4535 259e 19b3 25c9 b0b7
00000120: 62ba 9e30 9253 86a6 f0c5 3f38 9edc b6b3
00000130: 67e7 66b4 dab1 4cb0 8844 b8b5 84db 48b2
00000140: 30fb 0333 4cab b634 3532 4434 b0d5 e9b6
00000150: 441b 9db3 5e81 4cb7 5cb6 e232 da3f 0dae
00000160: 002a 962e a6b6 4231 598a bfb1 3c44 f432
00000170: ac15 6430 a260 f532 26f8 4c35 cffc b532
00000180: 44ac fa2f c1d1 9bb5 4be5 562f e8b4 59b4
00000190: 6c6e abb4 e0f7 f0b3 0cf8 0634 e028 95b2
000001a0: 4359 e137 8652 0833 6eaa c4b7 9ff9 5837
000001b0: a624 8eb1 107b 7eb6 368c 9932 12fa 0f33
000001c0: dfba 4637 86e5 1425 fc35 c332 d120 da32
000001d0: f11d 20b6 3b29 ca30 0b0b 1d31 7034 07b0
000001e0: 9869 01b7 1c72 76b6 5c10 3031 3e4b 0aaf
000001f0: b644 f132 d2cd ac31 7356 db31 9e0f db34
00000200: a78e 0032 9bff b8b4 f4e2 b532 42ce a43c
00000210: 30e0 f535 5e17 8b34 bca2 9b35 fa90 1d34
00000220: 3450 b530 c5d1 9631 1bee 7bb1 be3d 193a
00000230: 6ceb c332 d240 e232 627d 78ad 3160 5d2f
00000240: fa1b 963d 4031 38b6 94d5 3d2f 2a23 0cb3
00000250: 09be 8f30 40e0 82b4 d2aa 8537 4311 2534
00000260: cb3f 3c31 120e 6333 8cc4 6e3a b757 623d
00000270: c225 5133 0598 863d 0018 4fb1 8919 013d
00000280: 447a ce2f 7b7f c4b7 7c10 6a32 8432 8d31
00000290: f069 0338 d415 0c33 d64f 0430 e284 3e34
000002a0: c168 9833 e510 9d3d 9fea 963a 1242 b638
000002b0: e4c1 2531 a897 863a 5dd3 e93c fbab b13d
000002c0: 488c 8b37 b037 5730 b297 0b3d 2ee2 2f3d
000002d0: 0a98 1132 f6be 0e33 8ceb 5436 37c9 85b0
000002e0: 2c7f 10b7 0aef 2f32 3e7b 3437 a46a 8e35
000002f0: 1429 743d 72e6 6233 a6c0 d039 c427 4734
00000300: 8548 0000 6ba1 0080 159b 0000 5d27 0080
00000310: d14b 0080 a71c 0000 6129 0000 f728 0000
00000320: e659 0000 8a1d 0000 e581 0000 5f6a 0000
00000330: e309 0080 f479 0080 161e 0080 0099 0000
00000340: 826a 0000 ec63 0080 a805 0080 f198 0080
00000350: 21a1 0080 1d2d 0080 b113 0080 3652 0080
00000360: 6b8b 0080 c024 0080 f97c 0000 8c29 0080
00000370: 19a5 0000 740f 0000 2179 0080 fb5e 0080
00000380: c494 0080 ee68 0080 8b47 0080 8ab4 0000
00000390: 0462 0080 b72d 0080 1541 0080 7e88 0080
000003a0: 8220 0080 9b0f 0080 b973 0080 df7d 0080
000003b0: 9409 0000 840e 0000 96a2 0080 3433 0080
000003c0: 6e82 0000 2a80 0080 3196 0080 2508 0080
000003d0: 6aa2 0080 25c1 0080 1d68 0080 5828 0080
000003e0: 4061 0000 11b4 0080 b341 0000 0033 0080
000003f0: 3d31 0000 cb1d 0080 1a35 0080 eabf 0080
-4.978735e-09 -8.984097e-08 -2.1978701e-07 0.033641517 0.00012297653 1.7532825e-07 -3.0358495e-07 1.0833134e-07
1.5447338e-09 3.027616e-10 6.864676e-09 0.0010490502 -2.903887e-09 -2.8665482e-08 -5.2862992e-11 -2.6967495e-10
0.12340496 -9.447978e-05 1.3703733e-10 8.716039e-08 -9.2499675e-11 2.7357243e-07 2.7955262e-05 9.990189e-08
4.5974544e-09 5.5436967e-08 0.0011577893 0.09309188 5.7640676e-08 0.110682644 -5.3279877e-07 0.05301598
6.6623485e-11 -2.8755814e-05 -1.9778758e-08 -2.9037476e-08 0.00032048524 5.1490513e-08 2.032978e-09 2.1452865e-07
-1.7926396e-08 0.12910543 0.0023418595 0.00011625445 2.47427e-09 -8.748879e-05 0.04797039 0.14597706
1.7861908e-05 -7.1028494e-10 0.057356104 0.07233215 -1.3997363e-09 7.785388e-09 2.14453e-06 2.9205927e-10
-3.4712422e-05 1.0868871e-08 -1.328081e-06 1.0045784e-06 0.10041043 -7.037958e-08 0.00066212064 2.7238943e-07
2.5173293e-05 4.221208e-05 7.146986e-05 8.424993e-09 1.3023774e-07 7.342437e-07 -3.576692e-08 -2.10745e-05
1.1548986e-09 -9.32077e-16 4.5722292e-05 -8.5151655e-08 -2.1504603e-07 -7.446751e-10 -1.3729014e-06 -1.1691444e-08
3.0729268e-08 3.4024777e-07 1.8272188e-07 -6.9688176e-06 -7.315842e-08 -1.2189468e-05 2.639279e-08 -3.21164e-11
6.828671e-11 2.833454e-09 -5.57456e-09 2.8436368e-08 8.2976714e-10 2.8565697e-08 7.6357026e-07 2.1186137e-08
4.5597137e-10 -1.1609446e-06 1.9544648e-10 -2.0275513e-07 -3.1931575e-07 -1.1220959e-07 1.2569961e-07 -1.736447e-08
2.6863656e-05 3.1740022e-08 -2.3444383e-05 1.2932723e-05 -4.1369104e-09 -3.7920581e-06 1.7875305e-08 3.352222e-08
1.1845229e-05 1.2914719e-16 2.2725537e-08 2.5393463e-08 -2.3859286e-06 1.4709153e-09 2.2852784e-09 -4.918723e-10
-7.713585e-06 -3.6723277e-06 2.562067e-09 -1.2577758e-10 2.8087339e-08 5.029258e-09 6.383567e-09 4.0803292e-07
7.483016e-09 -3.4458648e-07 2.117438e-08 0.020117883 1.831917e-06 2.590777e-07 1.1595762e-06 1.4674507e-07
1.3192278e-09 4.3894226e-09 -3.6660655e-09 0.0005845687 2.2808045e-08 2.633934e-08 -1.41250085e-11 2.0134007e-10
0.07329555 -2.7446804e-06 1.7265328e-10 -3.262827e-08 1.0458631e-09 -2.437755e-07 1.593438e-05 1.5373102e-07
2.7393863e-09 5.2865353e-08 0.0009108267 0.055259433 4.8695945e-08 0.06571964 -3.0136107e-09 0.031518493
3.7558057e-10 -2.3424383e-05 1.3624341e-08 4.109383e-09 3.1331496e-05 3.2616143e-08 4.8134774e-10 1.7743471e-07
7.097106e-08 0.07669238 0.0011514014 8.690743e-05 2.4120874e-09 0.0010268586 0.028543169 0.08675381
1.6635415e-05 7.829568e-10 0.034080215 0.04294031 8.4746805e-09 3.323563e-08 3.1727568e-06 -9.734212e-10
-8.612678e-06 1.0240692e-08 1.0757531e-05 1.0610861e-06 0.059609488 5.2829314e-08 0.00039816386 1.8547786e-07
2.6015e-41 -5.7906e-41 5.5633e-41 -1.4121e-41 -2.7198e-41 1.0279e-41 1.4844e-41 1.4695e-41
3.225e-41 1.0597e-41 4.6597e-41 3.8159e-41 -3.547e-42 -4.3749e-41 -1.0793e-41 5.4886e-41
3.8208e-41 -3.5845e-41 -2.029e-42 -5.4865e-41 -5.7802e-41 -1.6184e-41 -7.064e-42 -2.9492e-41
-5.0014e-41 -1.3183e-41 4.4832e-41 -1.4904e-41 5.9226e-41 5.544e-42 -4.3453e-41 -3.4073e-41
-5.3367e-41 -3.7642e-41 -2.5665e-41 6.4765e-41 -3.5161e-41 -1.64e-41 -2.3347e-41 -4.8964e-41
-1.1662e-41 -5.598e-42 -4.1513e-41 -4.5154e-41 3.436e-42 5.207e-42 -5.8325e-41 -1.8368e-41
4.679e-41 -4.5977e-41 -5.3879e-41 -2.922e-42 -5.8263e-41 -6.9287e-41 -3.7349e-41 -1.4473e-41
3.4887e-41 -6.4596e-41 2.3568e-41 -1.8295e-41 1.7663e-41 -1.0688e-41 -1.9049e-41 -6.8846e-41

fc_layers.1.bias f4 [32]
00000000: b655 533c 4041 4933 643f f23b feac 0080
00000010: ef02 0000 6fdd 783b d372 0080 4e51 3b3b
00000020: 7806 acb6 d72c 97b9 913b 8636 41e0 653c
00000030: 764a 843c 195d 0080 8139 8a3b b10d 0080
00000040: 4606 0080 b224 8235 a42b 0000 3ee6 9834
00000050: 2153 0080 9c55 783c 9d11 0080 e667 833c
00000060: ee5d c93b ce39 0000 2d59 2735 c06a 9d3c
00000070: b65d 7934 b3be 3cb4 ed0f a133 8a11 0080
0.012898853 4.6858304e-08 0.0073928107 -6.2058e-41 1.052e-42 0.0037973782 -4.1191e-41 0.0028582397
-5.1267525e-06 -0.00028834373 4.0004456e-06 0.014030517 0.016148787 -3.3397e-41 0.004218281 -4.912e-42
-2.25e-42 9.696435e-07 1.5655e-41 2.847973e-07 -2.9821e-41 0.01515713 -6.318e-42 0.016040754
0.0061452305 2.0736e-41 6.2342116e-07 0.019215941 2.3224024e-07 -1.757824e-07 7.5000436e-08 -6.292e-42

fc_layers.2.weight f4 [16, 32]
00000000: 19b2 47ba 74d7 8bb7 961c e8b9 c530 0000
00000010: 171f 0000 a8ce d9ba 6084 0000 ca40 a138
00000020: 4a9e d336 a03b ffb5 b51e 8337 d8e0 4bba
00000030: a580 41ba 7367 0080 a7fe 09bb 851c 0000
00000040: 612c 0000 c22d d734 42bf 0080 4a67 adb7
00000050: 23b9 0080 ec49 45ba ae4a 0080 918d 41ba
00000060: 98dd deba 6664 0080 cbc1 b332 390b 83ba
00000070: e5fb a333 1a05 8e36 b256 e1b1 39a4 0080
00000080: 703e c0b4 5cb2 8ab7 0aa3 0437 cfb3 0000
00000090: 114e 0080 e81c ce36 d138 0000 b0a5 59b5
000000a0: 3066 9ab2 741d fab3 643d d433 eeba 19b6
000000b0: 59d2 bbb6 ef74 0000 8253 e136 268e 0080
000000c0: 8577 0080 9d5b 0ab6 8200 0000 5a34 4a33
000000d0: 7677 0080 865f 88b6 ae56 0080 8b39 b6b6
000000e0: dee9 df36 4d56 0080 0457 4cb0 3a05 2ab7
000000f0: c9a7 58b0 ee2b c7b0 bc4b a9b3 2803 0000
00000100: 43ce fab1 d80a 992c 62b3 3db2 cb6b 0000
00000110: 6b7e 0080 7002 d22f 6104 0080 3688 3330
00000120: d6ad 7ab3 b882 ca34 a291 4131 851b d4b1
00000130: a092 5fb1 1582 0080 f8cd 02b1 3087 0080
00000140: 7d36 0000 4485 9d36 a43f 0000 ee63 8231
00000150: f402 0000 2fa3 9fb1 c03a 0080 78a0 69b1
00000160: 984c 53b2 ae4a 0080 cceb d230 5ce6 5eb0
00000170: 60b8 dbb2 0e7f 1331 8495 8f32 fa84 0080
00000180: ef19 3d3e ce5a 4f33 415d e03d 7832 0080
00000190: 1412 0080 2321 663d 5984 0000 e058 f9ba
000001a0: 3616 7d37 025f 28b9 c1e6 f436 fc33 4c3e
000001b0: 6a17 683e 0103 0000 fc0f 803d 7f68 0000
000001c0: d839 0000 1019 b1b5 e315 0000 1e24 4335
000001d0: 2e88 0000 d616 5b3e 386c 0000 dbad 663e
000001e0: c02d bb3d 144e 0000 a014 6a35 a5ee 873e
000001f0: a205 da34 1548 b5b4 a9a1 ea33 c66f 0000
00000200: 7c49 403b 3ab8 cb33 7015 373b ba00 0000
00000210: 684e 0080 1ffe c03a 2e96 0080 f186 abb8
00000220: e4ba 3236 ed6b 0036 d3b0 2b35 a224 483b
00000230: 3219 663b ba07 0000 6e61 a03a f671 0000
00000240: 4589 0000 6447 30b5 148c 0000 3a23 af37
00000250: 1138 0080 6b11 563b c345 0000 9238 643b
00000260: e2dd 053b dfa3 0080 7886 80b7 bc81 903b
00000270: 9543 4634 2047 1bb1 d851 9a35 6e37 0080
00000280: d0fb bd32 a6f2 602a f45b a432 aa38 0080
00000290: a343 0000 aafe 6632 bb16 0080 0db3 74b8
000002a0: 4845 dfb4 0097 07b1 d496 8635 8841 c132
000002b0: e140 c432 7513 0080 7ab7 7632 b36e 0080
000002c0: cb4c 0000 7c29 8eaf 0a00 0000 d60d a22f
000002d0: f0c3 0000 0150 c332 1018 0080 712f c432
000002e0: 1744 9832 3637 0080 c7db ff2b 09ca c332
000002f0: 2a1a 422b 53b6 2a28 107a 8db3 620e 0000
00000300: 8c36 0cb2 e4d1 5a2c 4831 2530 8a06 0000
00000310: 5da0 0080 1915 0032 8b26 0080 8027 18b2
00000320: 80ae 60b6 34f5 83b1 c224 4eb1 146c 62b2
00000330: f23c b9b2 9565 0000 ac06 5532 7d3f 0000
00000340: da40 0000 e7ac 3c31 6aa0 0000 4e23 3828
00000350: cebd 0000 b26f 99b2 a63f 0000 2a0c b6b2
00000360: 4fe3 e931 019c 0000 76c3 d2b3 de42 dcb2
00000370: 949a 06b5 025a e3ae 2c38 c9b1 7f5e 0000
00000380: c66f cb32 1e5e 66b4 9de8 b232 b261 0080
00000390: 0e4e 0080 b4b1 8132 8f85 0080 0005 58b7
000003a0: 1acb 35af d61b b337 9792 1b2d 35d7 cd32
000003b0: c315 d132 f914 0000 4769 8a32 d29c 0080
000003c0: 77be 0000 0380 11b6 7904 0080 e0c7 462e
000003d0: 3c86 0080 4abd cf32 9332 0000 6bf3 d032
000003e0: f82b a732 5732 0000 f508 2732 28f1 d332
000003f0: 9b82 832d f23e 1234 7ba1 63b7 60ab 0000
-0.0007617786 -1.667042e-05 -0.00044271786 1.7495e-41 1.1153e-41 -0.0016617374 4.7487e-41 7.689146e-05
6.3067173e-06 -1.9016334e-06 1.5630716e-05 -0.000777734 -0.0007381535 -3.711e-41 -0.0021056326 1.0231e-41
1.592e-41 4.0080164e-07 -6.861e-41 -2.0671305e-05 -6.6415e-41 -0.0007525969 -2.679e-41 -0.0007383461
-0.0017003296 -3.6016e-41 2.092647e-08 -0.0009997851 7.636098e-08 4.2325237e-06 -6.558218e-09 -5.8912e-41
-3.5808216e-07 -1.6533937e-05 7.905774e-06 6.4503e-41 -2.8005e-41 6.1426435e-06 2.0382e-41 -8.1079907e-07
-1.7974429e-08 -1.164689e-07 9.883186e-08 -2.2907584e-06 -5.597522e-06 4.1948e-41 6.715244e-06 -5.0993e-41
-4.2876e-41 -2.0616928e-06 1.82e-43 4.7079403e-08 -4.2855e-41 -4.0642362e-06 -3.1095e-41 -5.4307216e-06
6.6731436e-06 -3.0959e-41 -7.4338424e-10 -1.01340065e-05 -7.881878e-10 -1.4491641e-09 -7.883452e-08 1.132e-42
-7.299407e-09 4.3497254e-12 -1.1042035e-08 3.8669e-41 -4.535e-41 3.820051e-10 -1.571e-42 6.531339e-10
-5.8365764e-08 3.7720542e-07 2.816798e-09 -6.1731407e-09 -3.2534118e-09 -4.6665e-41 -1.903457e-09 -4.8496e-41
1.9547e-41 4.694479e-06 2.283e-41 3.7948586e-09 1.06e-42 -4.646061e-09 -2.1076e-41 -3.3997178e-09
-1.2299232e-08 -2.679e-41 1.5346528e-09 -8.109049e-10 -2.55788e-08 2.1463538e-09 1.6715383e-08 -4.7703e-41
0.18466924 4.827853e-08 0.10955287 -1.8105e-41 -6.485e-42 0.056183945 4.7477e-41 -0.0019023679
1.50851465e-05 -0.00016057122 7.29863e-06 0.19941705 0.22665182 1.078e-42 0.06253049 3.7486e-41
2.075e-41 -1.3194822e-06 7.851e-42 7.269572e-07 4.8852e-41 0.2139543 3.8822e-41 0.22527258
0.091395855 2.8009e-41 8.7201806e-07 0.2654926 4.0609763e-07 -3.3766324e-07 1.092588e-07 4.0097e-41
0.0029340675 9.486435e-08 0.0027936362 2.6e-43 -2.8127e-41 0.0014724171 -5.3874e-41 -8.17905e-05
2.6632852e-06 1.9136307e-06 6.395978e-07 0.0030539413 0.0035110232 2.772e-42 0.0012236068 4.0881e-41
4.9243e-41 -6.5668996e-07 5.025e-41 2.087803e-05 -2.0113e-41 0.003266419 2.5026e-41 0.0034823758
0.0020426442 -5.8786e-41 -1.5321406e-05 0.004409997 1.8464773e-07 -2.2595898e-09 1.1497714e-06 -1.9884e-41
2.2117007e-08 1.9979382e-13 1.9133928e-08 -2.0327e-41 2.4263e-41 1.3445666e-08 -8.154e-42 -5.8340887e-05
-4.1587396e-07 -1.973092e-09 1.0027675e-06 2.2497957e-08 2.2846907e-08 -6.98e-42 1.4360802e-08 -3.9711e-41
2.7548e-41 -2.5859126e-10 1.4e-44 2.947746e-10 7.0289e-41 2.273737e-08 -8.632e-42 2.2838977e-08
1.7726093e-08 -1.9806e-41 1.817984e-12 2.2792863e-08 6.8958955e-13 9.476431e-15 -6.588027e-08 5.16e-42
-8.161475e-09 3.1096176e-12 6.0096683e-10 2.346e-42 -5.7528e-41 7.455378e-09 -1.3827e-41 -8.856546e-09
-3.3480173e-06 -3.840478e-09 -2.999784e-09 -1.31795055e-08 -2.156455e-08 3.6441e-41 1.2399749e-08 2.2775e-41
2.3264e-41 2.7455884e-09 5.7546e-41 1.0221707e-14 6.8089e-41 -1.7862337e-08 2.2833e-41 -2.119312e-08
6.8070345e-09 5.5964e-41 -9.814441e-08 -2.5641778e-08 -5.014383e-07 -1.03387535e-10 -5.856256e-09 3.3899e-41
2.3683139e-08 -2.1454659e-07 2.0827708e-08 -3.5046e-41 -2.8001e-41 1.5098387e-08 -4.7912e-41 -1.2875767e-05
-1.653401e-10 2.1351425e-05 8.843279e-12 2.3963006e-08 2.4340698e-08 7.524e-42 1.6113189e-08 -5.6257e-41
6.8326e-41 -2.1681196e-06 -1.604e-42 4.5197512e-11 -4.8154e-41 2.418405e-08 1.8143e-41 2.432508e-08
1.9461353e-08 1.8059e-41 9.722716e-09 2.4673298e-08 1.4950976e-11 1.3620209e-07 -1.3567852e-05 6.1478e-41

fc_layers.2.bias f4 [16]
00000000: ac7b 483b 6857 20b6 17e4 0a32 b11c d83c
00000010: 344d 59ba 0c4f a232 f036 00b3 2c4c 8a32
00000020: 3cab ab3b f00d 77b4 a627 bc3c 360b e3ba
00000030: 66a4 21b7 5676 dc3c 78b0 7e3b e48e 6ab4
0.0030591292 -2.3892735e-06 8.084519e-09 0.026380869 -0.0008289397 1.8895228e-08 -2.9852288e-08 1.6099953e-08
0.0052389186 -2.3008738e-07 0.022968125 -0.0017322067 -9.634625e-06 0.026911896 0.0038862508 -2.1844932e-07
