neural-collaborative-filtering/src/checkpoints/pretrain_neumf_factor8neg4_Epoch24_HR1.0000_NDCG0.8341.model (torch, 579115 bytes, 15 tensors)

embedding_user_mlp.weight f4 [7700, 8]
00000000: ba8c d431 83dc bdb6 dccf 8d33 ac44 252e
00000010: af47 5cb8 9186 2d35 0096 8b36 0250 67b5
00000020: f4da 2833 1c06 5a37 f3a8 02b4 d7d1 afb4
00000030: 5b4a 52af 602f c9ad 4b24 3033 18fa a8b6
00000040: 4fc9 8b29 60a6 77b3 86c8 372f 8ee6 e72d
00000050: fa45 2bb2 100e c930 204e a62e 9257 59aa
00000060: 0a3c 2ab0 6bf6 a52f a8f9 0031 0ad6 6eb2
00000070: 6fd5 b8b1 fad7 63b2 37a4 1faf 6ebf 1530
00000080: 478f 3633 1e29 4c33 518e 1fb2 11aa e6b5
00000090: d34e 8033 3c34 6934 6f27 ea30 273f 35b1
000000a0: 9e4a 25b2 a589 f231 9aa9 1eb1 8ae7 cf34
000000b0: 5f74 dfb1 001e 88b3 4f51 b9af 7bd0 65b0
000000c0: 6af5 d1b2 125f 0533 63fd c5b2 c8bc ab35
000000d0: 6914 dfb3 a17d 89b4 569c b6b0 334b 3832
000000e0: 44f5 b4b4 3881 60b1 c621 0732 7813 eeb4
000000f0: f616 1733 4507 8e34 b47d 1e30 34d1 5fb9
00000100: 71eb ef31 164a a7b2 a603 6ab2 72ad aeb5
00000110: f559 4934 fca4 7134 de95 b330 155c 41b2
00000120: 48dd a0ad a81d 492f ab1b f52f c9e3 f932
00000130: aefb acb0 3ae6 bab1 234e bdac fcee 61af
00000140: 0cc9 ffb1 8c05 852f 85ae 1d30 723e 8934
00000150: 6833 5db2 2619 6db3 1ad6 09b0 0add 73b0
00000160: b87d 5a31 5c06 c732 5818 8eb1 4c46 3ab4
00000170: 3614 8fb2 964f aeb3 3aad eeaf 8b76 38b1
00000180: 06d7 642f 73de 31af d663 97ae 5358 4fb1
00000190: 4509 9d2f d7f4 a2b0 640b 5f2b 5777 5b2f
000001a0: c56b 5133 f2ec d0b2 b634 58b1 32cf 67b5
000001b0: 669f ca32 bc58 cf33 6750 8b30 36dc 0eb2
000001c0: ce73 4b2b ebe0 c5a8 3cb9 842a e907 09ae
000001d0: 1c82 d12b 466f 09ad d447 7e29 a073 462b
000001e0: 80c2 9cb1 ccbe 03b4 4267 2b38 9c80 84b3
000001f0: 7d2d 21ae 24ba 1636 583e 0a37 c60e 07b7
00000200: f605 e92e 9568 ef2e 839b 242f 2d2e c5b1
00000210: de19 442f ccca 01af d19b ab2c b9bd db2e
00000220: 25b5 d5ad b587 71ac 9649 702d 83fe 92b0
00000230: a8ae d82d ced2 102e ab63 982b cfbb b7ad
00000240: 2541 6f2e 9ecb 0b2f c6c4 3dae 6b22 cdb1
00000250: 2363 b6af 854e 5a30 ed64 04ad 5497 0830
00000260: 902e 4db1 d075 ebb0 6e1c 0eb0 65bc 1e34
00000270: 3957 0fb3 ff6b 51b2 3924 b6ae 504d b72d
00000280: df7f 8f30 92fa 53af 60a0 7531 20c9 a5b4
00000290: a4b2 0fb1 5a65 0333 f815 76af 28c2 45b0
000002a0: 53e0 14b0 c398 272f 1054 4730 01c3 9232
000002b0: dda7 b5b0 3c4e 722f 2afd 402c ad52 38ad
000002c0: 7380 8faf 62bd 0f2e cfda 992e 5a8c 16b1
000002d0: 3af6 a02e 6af7 5f31 ccdb 6cad 7b8a 96af
000002e0: f86c 5e31 4f48 1eb0 d556 77b1 405e 4d33
000002f0: 9e90 31b0 3fe1 f132 9cda 5daf d27b f6b0
00000300: f50d 2eb2 f9e1 5a31 06d2 cbb0 6e01 9c34
00000310: ec9a ac33 5f04 1f34 ab38 34af 3851 9431
00000320: 68b3 e431 06ad 68b0 a046 0c2f 6e60 f6b3
00000330: b02a 2bb2 c53a 5eb3 05d5 822f fd0e 4531
00000340: 0f0b b4b1 495d 4330 313d 8430 6406 0835
00000350: e69d 72b2 7beb 50b3 1eb7 b5ae 2768 0631
00000360: 4698 4f30 8fe8 4a2f 860a 0630 df66 6db3
00000370: 6a68 30ae b18a 1e32 46bf 20ae 8cd6 55af
00000380: a305 c5b1 56a7 b8b3 4f88 1bb9 6c53 a3b5
00000390: e289 5bae 4ec9 3a32 e090 b037 80b2 09b6
000003a0: e22a 0eb4 ac2f 6eaf 3b0d 4e36 749f 012d
000003b0: d862 dc2b dad5 f4b7 147f eb33 4e81 69ab
000003c0: d086 d9b0 d328 a130 e4aa cfaf 1275 9db2
000003d0: 6a42 1ab1 0156 09b2 6b39 6fae 55ea 3f2f
000003e0: 3eea 1a2f 022a 672e 96dd 082f d500 19b2
000003f0: d6eb 7130 aced 58af 3b0d 12ad 099a 3e2e
6.186011e-09 -5.65831e-06 6.6036336e-08 3.757765e-11 -5.2518848e-05 6.464334e-07 4.159985e-06 -8.617063e-07
3.9314685e-08 1.2995235e-05 -1.2168657e-07 -3.274897e-07 -1.9125805e-10 -2.2872093e-11 4.10112e-08 -5.035905e-06
6.2077615e-14 -5.7660486e-08 1.6714993e-10 2.6364046e-11 -9.969421e-09 1.4628672e-09 7.562684e-11 -1.9303854e-13
-6.193096e-10 3.0188416e-10 1.8768365e-09 -1.390209e-08 -5.3793694e-09 -1.3262246e-08 -1.4519307e-10 5.447792e-10
4.2505487e-08 4.7534847e-08 -9.287377e-09 -1.7185831e-06 5.9748025e-08 2.1718819e-07 1.7036949e-09 -2.6374865e-09
-9.62123e-09 7.0587753e-09 -2.3088433e-09 3.8725221e-07 -6.503384e-09 -6.3384505e-08 -3.3709077e-10 -8.3605983e-10
-2.4442404e-08 3.105294e-08 -2.3049045e-08 1.2795435e-06 -1.0387959e-07 -2.5609646e-07 -1.3286676e-09 1.0727308e-08
-3.3706067e-07 -3.2669742e-09 7.865713e-09 -4.434512e-07 3.517831e-08 2.645485e-07 5.76587e-10 -0.00021344871
6.982582e-09 -1.947505e-08 -1.3621422e-08 -1.301449e-06 1.875231e-07 2.2504895e-07 1.3066559e-09 -1.1255016e-08
-1.8288163e-11 1.829138e-10 4.45849e-10 2.9091e-08 -1.2586179e-09 -5.439486e-09 -5.380378e-12 -2.0548535e-10
-7.444333e-09 2.41965e-10 5.7364274e-10 2.5563673e-07 -1.28755815e-08 -5.5203735e-08 -5.0144566e-10 -8.8717e-10
3.1794638e-09 2.3169541e-08 -4.1355115e-09 -1.7348174e-07 -1.6656582e-08 -8.116983e-08 -4.3415033e-10 -2.6842908e-09
2.0812871e-10 -1.6177086e-10 -6.8844194e-11 -3.017267e-09 2.856472e-10 -1.1856639e-09 7.924132e-13 1.9960332e-10
4.875962e-08 -2.4322137e-08 -3.14621e-09 -8.6355715e-07 2.3588381e-08 9.655329e-08 1.0136433e-09 -8.315558e-09
7.22808e-13 -2.1968936e-14 2.3576442e-13 -3.115722e-11 1.4886456e-12 -7.812256e-12 5.646163e-14 7.0504193e-13
-4.5623096e-09 -1.2269737e-07 4.0865743e-05 -6.170123e-08 -3.6647563e-11 2.246009e-06 8.2399565e-06 -8.050067e-06
1.0596672e-10 1.0887039e-10 1.4970962e-10 -5.738704e-09 1.7835286e-10 -1.180453e-10 4.8774114e-12 9.9926685e-11
-2.429574e-11 -3.4323492e-12 1.365876e-11 -1.0695235e-09 2.463392e-11 3.292904e-11 1.0827913e-12 -2.0888095e-11
5.440017e-11 1.2714316e-10 -4.3148395e-11 -5.970198e-09 -3.3176048e-10 7.941952e-10 -7.525741e-12 4.969156e-10
-2.9857894e-09 -1.7131985e-09 -5.16997e-10 1.4783434e-07 -3.337411e-08 -1.2189957e-08 -8.282836e-11 2.0839025e-11
1.0440963e-09 -1.9279359e-10 3.5743355e-09 -3.0879983e-07 -2.0910784e-09 3.0592993e-08 -2.2381375e-10 -7.1944095e-10
-5.416087e-10 1.5242833e-10 7.251524e-10 1.7085314e-08 -1.3217193e-09 2.2037566e-10 2.7425375e-12 -1.0477547e-11
-2.6102817e-10 3.268264e-11 6.996503e-11 -2.1907653e-09 7.319696e-11 3.259141e-09 -1.34638516e-11 -2.7383237e-10
3.2367193e-09 -5.758282e-10 -3.599259e-09 4.7816002e-08 -6.459774e-10 2.8158523e-08 -2.0177499e-10 -1.7934048e-09
-1.01313065e-08 3.1851626e-09 -1.4829886e-09 2.9058305e-07 8.037554e-08 1.4809619e-07 -1.6391037e-10 4.3166004e-09
6.6560695e-09 -8.464699e-10 1.2758017e-10 -1.1472808e-07 -9.963216e-09 -5.1741853e-08 2.3798222e-10 2.8675793e-09
-5.2399467e-09 7.1073153e-10 9.621656e-10 5.067325e-07 -1.4122156e-08 -4.8642942e-08 -8.263455e-11 1.955877e-09
7.5522555e-10 1.8454414e-10 4.876387e-10 -5.5274423e-08 -4.0110505e-11 9.228345e-09 -3.6549673e-11 -1.944846e-10
-5.7340954e-09 -8.598606e-08 -0.00014832731 -1.2168725e-06 -4.99173e-11 1.0872396e-08 2.1048298e-05 -2.0518492e-06
-1.3240381e-07 -2.166291e-10 3.0704093e-06 7.368207e-12 1.5659375e-12 -2.9186649e-05 1.09661556e-07 -8.2957675e-13
-1.5827144e-09 1.1725895e-09 -3.7774506e-10 -1.8330443e-08 -2.2447701e-09 -7.994005e-09 -5.4393306e-11 1.74546e-10
1.4089438e-10 5.256063e-11 1.2447851e-10 -8.905961e-09 8.801043e-10 -1.9729524e-10 -8.302077e-12 4.333781e-11

embedding_item_mlp.weight f4 [8, 1024]
00000000: 0c58 ad22 dc2f 2122 6cce e9a0 93e3 6fa3
00000010: 7f9d 8ea2 f8e3 0f23 f6da 4aa3 ac6e ea22
00000020: a9dd f99f 3679 c2a1 d62c 4ea1 509e 1022
00000030: 17f5 ce21 5461 4aa2 b35e 0f22 500c 15a0
00000040: 51f2 d0a2 bd69 c0a1 71f0 7423 62d4 22a3
00000050: 38e0 55a3 9d81 4aa2 26ff 5ea2 48e3 20a3
00000060: c352 d622 a9ad f1a1 5452 5922 8623 88a0
00000070: 8f93 c3a2 70af bfa1 3a31 5023 9081 2222
00000080: eb9e 0923 ce9f 82a2 dd43 bba1 1fbe 41a2
00000090: f146 32a0 1cda 34a3 2acd 9122 955a 85a2
000000a0: f0ca a822 2af8 96a2 89dc 5da2 7ea2 2722
000000b0: b8c2 9d22 fc02 8921 e9d8 53a2 4898 f7a2
000000c0: e804 2223 26e3 0721 4c79 d022 7098 1c23
000000d0: 5a26 1622 3b27 3422 7262 6aa2 4033 1320
000000e0: 6809 19a2 1438 91a3 3776 5322 f649 b622
000000f0: 0870 61a3 4e28 89a2 da3e 70a2 c397 5222
00000100: 2a21 8a22 a6dd b721 c0b2 03a3 62eb a020
00000110: 1358 bea2 2583 7222 446a c321 39c5 b6a2
00000120: 69d2 8c22 1f0f 0e23 f523 eca2 f06c 411f
00000130: 1b50 20a3 0999 74a2 210d 8ea2 340f b5a2
00000140: 72b9 45a2 468b 3fa3 5ee8 85a2 d951 d022
00000150: 08b4 4820 7a9b c422 96b1 f222 55cf 96a2
00000160: f2cb eaa2 c79c b022 1148 fb22 87dc d7a1
00000170: b88f 58a3 b870 e2a2 e241 32a2 1667 9b21
00000180: c4a3 1d23 d0b4 0f23 4466 25a3 b29d 68a3
00000190: 5413 eba0 c14c 8da2 ee7f f721 cfe4 8122
000001a0: 0f49 8a22 8b43 3d23 cda0 d4a2 ad54 1423
000001b0: e591 c2a2 896b d022 f681 1ea3 59b3 2ea3
000001c0: ff73 fba2 1b03 9d22 4858 8322 ad39 8122
000001d0: c091 c6a2 009f 1323 d4cf 1423 a42a a1a2
000001e0: 5788 d8a2 626b 0a23 ac38 b6a0 36f1 8fa1
000001f0: e471 7ca3 599e 1823 28d2 63a2 4121 9422
00000200: 2adc 24a3 bd6b 9e21 63ea 5ba2 4aa1 df22
00000210: 1cf3 17a3 ea4e 05a2 a720 f321 704f eb9f
00000220: a8f3 f4a2 a836 6522 f79e 4023 3774 3723
00000230: 8eb9 d822 2460 8ba2 e73e 8f21 829a cba2
00000240: 62a5 9f22 0488 b620 1354 c321 8687 bca2
00000250: 8d61 2da3 61e7 0223 90f6 1f22 3ea1 cb21
00000260: a414 4922 f4ca 0822 2bca 5b21 6ef7 8a22
00000270: 301c 6622 542b aba2 66d3 1ba3 6a1f 5e23
00000280: 48e7 3622 c534 12a3 a46b 8122 2435 10a3
00000290: 4403 9722 cf50 a6a2 b657 3ea3 088c 22a2
000002a0: d06e 3323 e14a c9a2 726e d7a2 8ad5 5ca1
000002b0: 4293 4322 0959 3ca3 8f3d 4623 2a17 41a3
000002c0: 53f3 8c22 ca8f 07a1 d5e3 a022 ff13 15a1
000002d0: 682a 6ca1 059e 9322 de2f a022 16e2 75a2
000002e0: e843 0423 dc4c 2c23 20c9 2d20 6cc4 1323
000002f0: e492 f022 dcec 6aa3 3cd0 efa2 605d db21
00000300: 36eb f822 574a d8a2 6dd9 fc22 e496 3b22
00000310: e047 e521 8f31 b2a2 6928 30a3 0727 3d22
00000320: d11e 4222 0afd 1b23 9908 3023 a5db 4ca3
00000330: d9e4 1022 977c 1821 9359 46a3 d129 f1a2
00000340: 6e79 9322 b6a5 5322 96f9 e522 5d69 a1a2
00000350: 5d2f b122 60f1 4e22 4331 a1a2 d7a0 0b23
00000360: cb8d 81a2 24ed b4a2 0c9e 8022 cc0f f622
00000370: 66e0 5ba1 aa35 08a3 b2b9 75a3 a982 2c23
00000380: 0354 1822 c9c3 1da3 dfaf 4422 3e23 4822
00000390: db35 0d22 988a db21 7632 5f22 ed66 a9a2
000003a0: 786d d7a0 cc19 6423 eaf2 3fa3 a52a 7922
000003b0: 13d1 85a3 d8a5 f6a2 32e4 1c21 1b2d 1d23
000003c0: d24b d3a2 240d 1aa2 62d4 09a3 b786 14a2
000003d0: 4402 29a1 2993 6721 84f2 09a3 eccb 1ea1
000003e0: 644e c821 63e2 34a3 ce80 f722 21e7 27a3
000003f0: c638 3622 a9ee b6a2 f1d6 06a3 7b64 ab21
4.6984967e-18 2.1844905e-18 -3.9608334e-19 -1.3004407e-17 -3.8655933e-18 7.80032e-18 -1.0996809e-17 6.3543005e-18
-1.0582231e-19 -1.3178036e-18 -6.9854855e-19 1.959945e-18 1.4023978e-18 -2.742763e-18 1.9430247e-18 -1.2624865e-19
-5.6635075e-18 -1.3038415e-18 1.3278182e-17 -8.827011e-18 -1.1594233e-17 -2.7444722e-18 -3.0221685e-18 -8.721746e-18
5.8092444e-18 -1.6376763e-18 2.9452568e-18 -2.3062804e-19 -5.301109e-18 -1.2989101e-18 1.1286127e-17 2.2023684e-18
7.460437e-18 -3.540577e-18 -1.2689576e-18 -2.6257027e-18 -1.5100659e-19 -9.804006e-18 3.9519555e-18 -3.614563e-18
4.575136e-18 -4.0920335e-18 -3.0067835e-18 2.2718743e-18 4.27611e-18 9.284271e-19 -2.8710664e-18 -6.711072e-18
8.7830765e-18 4.604041e-19 5.650694e-18 8.489057e-18 2.0349094e-18 2.4415317e-18 -3.176503e-18 1.2468342e-19
-2.0740346e-18 -1.5744682e-17 2.8658415e-18 4.940951e-18 -1.2220998e-17 -3.71766e-18 -3.2559339e-18 2.854065e-18
3.744009e-18 1.2459232e-18 -7.139376e-18 2.7260818e-19 -5.1592855e-18 3.2866543e-18 1.3241842e-18 -4.9540016e-18
3.8169856e-18 7.7010374e-18 -6.4006e-18 4.095945e-20 -8.69058e-18 -3.3149182e-18 -3.8503078e-18 -4.9076245e-18
-2.6796652e-18 -1.0383623e-17 -3.629575e-18 5.6465173e-18 1.7000226e-19 5.3290524e-18 6.5782258e-18 -4.0877103e-18
-6.3641763e-18 4.787089e-18 6.810999e-18 -1.462734e-18 -1.1739817e-17 -6.137677e-18 -2.4158376e-18 1.0530495e-18
8.545666e-18 7.790334e-18 -8.9663235e-18 -1.26101385e-17 -3.982334e-19 -3.8299393e-18 1.6771234e-18 3.520778e-18
3.748233e-18 1.0260013e-17 -5.763297e-18 8.041027e-18 -5.2738277e-18 5.649237e-18 -8.5927175e-18 -9.470537e-18
-6.81565e-18 4.2558223e-18 3.5601093e-18 3.5026587e-18 -5.3822326e-18 8.0025555e-18 8.067105e-18 -4.3684285e-18
-5.8691273e-18 7.503734e-18 -3.0869502e-19 -9.753905e-19 -1.3685065e-17 8.273468e-18 -3.0875492e-18 4.015069e-18
-8.937079e-18 1.0735015e-18 -2.9804118e-18 6.0615043e-18 -8.237207e-18 -1.8066638e-18 1.6474963e-18 -9.965779e-20
-6.6394314e-18 3.1064222e-18 1.0442003e-17 9.945059e-18 5.874338e-18 -3.777782e-18 9.706707e-19 -5.518685e-18
4.3272142e-18 3.0922007e-19 1.3235968e-18 -5.1100993e-18 -9.399006e-18 7.0963105e-18 2.1679047e-18 1.3798496e-18
2.7251507e-18 1.853888e-18 7.4467653e-19 3.766695e-18 3.1185735e-18 -4.639552e-18 -8.447332e-18 1.2041296e-17
2.4788039e-18 -7.92585e-18 3.507949e-18 -7.817509e-18 4.093209e-18 -4.507995e-18 -1.0318494e-17 -2.2029226e-18
9.727075e-18 -5.456044e-18 -5.8392805e-18 -7.4821516e-19 2.6505386e-18 -1.0210354e-17 1.0746637e-17 -1.0467456e-17
3.8204706e-18 -4.593008e-19 4.3609313e-18 -5.050963e-19 -8.0016034e-19 4.001174e-18 4.341877e-18 -3.332338e-18
7.170114e-18 9.340414e-18 1.4720217e-19 8.01048e-18 6.5207657e-18 -1.2735322e-17 -6.5001557e-18 1.4864733e-18
6.7469574e-18 -5.8625628e-18 6.8534945e-18 2.5423107e-18 1.5536669e-18 -4.829947e-18 -9.549536e-18 2.5634937e-18
2.6308217e-18 8.45615e-18 9.5428e-18 -1.1105374e-17 1.963679e-18 5.1664496e-19 -1.07525696e-17 -6.5367456e-18
3.9973e-18 2.8683559e-18 6.2334834e-18 -4.3750695e-18 4.8026094e-18 2.8045989e-18 -4.3691295e-18 7.569264e-18
-3.511565e-18 -4.904018e-18 3.486181e-18 6.669516e-18 -7.4497075e-19 -7.3839386e-18 -1.3320799e-17 9.351807e-18
2.0644317e-18 -8.552446e-18 2.6656059e-18 2.7123711e-18 1.9137574e-18 1.4876703e-18 3.024885e-18 -4.591652e-18
-3.6494857e-19 1.23653675e-17 -1.040557e-17 3.3768368e-18 -1.4508435e-17 -6.6854028e-18 5.315687e-19 8.5205385e-18
-5.7271942e-18 -2.0877848e-18 -7.471759e-18 -2.0129058e-18 -5.7262426e-19 7.846061e-19 -7.4781396e-18 -5.380237e-19
1.3573277e-18 -9.805759e-18 6.708586e-18 -9.102032e-18 2.4695655e-18 -4.958389e-18 -7.30967e-18 1.1614008e-18

embedding_item_mlp.bias f4 [8]
00000000: 56d6 c3a3 2cc3 c62a e1a0 8aa1 914a d2bd
00000010: eaf2 8f20 9e8f bd39 6200 d3a4 c833 3038
-2.1232717e-17 3.5307293e-13 -9.393828e-19 -0.10268129 2.438589e-19 0.00036155892 -9.150731e-17 4.2009895e-05

embedding_user_mf.weight f4 [7700, 8]
00000000: ac97 0000 6460 0000 8e3f 0080 de4f 0000
00000010: 6738 0000 ba40 8f19 8f6f 0080 e78a 0080
00000020: 7630 0000 cc03 0080 08af 0000 0509 0000
00000030: c4e2 5496 0374 0080 501f 0080 5b62 0080
00000040: 969e 1995 093f 0080 50ac 0d9b 3232 0000
00000050: f77c a82f 2e32 0000 7ec2 a9ab 4049 0080
00000060: 0305 0000 9baf 0000 b9cc b485 e48a 0080
00000070: 763e 0080 6e80 832f 382b 8d03 c721 0080
00000080: 2e3c 0000 522d 0080 e22e 0080 2103 0000
00000090: f3bf 0080 3670 0000 db95 cb03 795b 3003
000000a0: 9676 87b4 2046 2080 faa2 2e31 e927 0000
000000b0: f786 37ae 581b 0280 6701 8c04 b35d 0000
000000c0: 040a 0080 7815 0000 de7d 0080 4a75 0080
000000d0: 7066 0080 c827 3124 b0dc 1484 5f6c 0000
000000e0: 9c9c 0080 0120 0080 5e07 0080 8c22 f823
000000f0: 604d 0000 a62f 0080 0131 a085 9516 85ad
00000100: 1f15 0080 7e72 0000 3b11 0000 1cb3 0080
00000110: f114 0080 461a 0000 8521 6085 fc55 0000
00000120: 38eb 6eaa a54a b616 5f28 0000 b224 0000
00000130: 0d30 0000 9718 2b25 18ac 4084 ea3f 0000
00000140: 8ba8 0000 5072 0080 0b40 0000 1149 0000
00000150: b00f 0ca5 e58d 022e 0211 f784 df30 0080
00000160: 6d10 0000 904c 0000 4689 0080 7cbe 0480
00000170: bf3c 0080 1066 0080 fafe 3184 e620 2e90
00000180: a610 0080 2ebb 3c20 c47d 0000 2304 0000
00000190: fcd4 86a6 7ab8 0000 a6f1 849f 3922 0080
000001a0: ec07 0080 427d 0080 6940 0080 cb0e 0080
000001b0: 11d4 5f8c 361b 0000 30c0 9902 107d 0080
000001c0: a426 0080 fb19 0000 2302 0000 ad03 0080
000001d0: fa81 b1a5 c987 3736 a0df 9882 a71d 0000
000001e0: cb7f 0080 3b76 0080 d343 0000 fd26 0080
000001f0: aa7c 0000 a261 0080 8163 0080 a04f 0080
00000200: 2751 749f 4153 0080 f84b 0080 9821 0000
00000210: 6479 ed98 c939 c41f 1663 2ca7 8607 0080
00000220: f4e2 0400 980b 752e 503b 0080 f1c0 2fa5
00000230: ea95 1000 7224 0280 c525 1e05 4d6e 0000
00000240: 8371 98a9 113d 0080 d457 0080 da5b df91
00000250: 6120 0000 d595 0000 7d11 30a7 9e53 0080
00000260: f98f 7908 fc75 0000 2590 0000 db1d 0000
00000270: dd67 0480 eee0 bf1c d859 9381 5b15 0000
00000280: e9a3 0080 6074 0000 683a 0080 338b 0080
00000290: 1c2b 0000 f38d 4e16 da21 7d84 c6af 0080
000002a0: a479 02af de40 0080 8188 0000 a04d 0080
000002b0: 0659 0000 4661 0000 db63 b003 6526 0080
000002c0: b256 0800 e28e 0080 f650 0000 e38f 0000
000002d0: 839c 0080 0e58 0080 ea34 d402 197b 0080
000002e0: 6595 0000 3803 0080 cbf7 e426 d8c4 0080
000002f0: 1967 0080 e815 9930 71d0 0e04 fb6f 0000
00000300: 3645 0000 311d 0000 9219 0000 36e4 2a00
00000310: f278 0000 1685 0000 691b 8284 fa81 0080
00000320: a419 9ba1 481d 0000 52c1 0080 7d4d 0000
00000330: 178d 3207 6135 0000 15ca 9c03 ac28 0000
00000340: 90a3 138d da1d 0080 60a4 7822 5d3f 0080
00000350: bba1 0000 d418 0080 646f 7281 f22f 0080
00000360: f61b 1cab 922d 0080 0c1e 0080 7d3c 0080
00000370: b480 0080 469d 0080 b9b8 8703 f51d 0080
00000380: 8f50 0000 4625 2104 c38b 0000 c0bc 0080
00000390: b02e 0000 135e 0000 3932 0000 8c6e 0080
000003a0: a628 0080 f222 0080 f133 0080 b5d7 5e8d
000003b0: 0625 0000 5e41 0080 ceee 2815 2f40 0000
000003c0: 8d44 0080 d256 6704 83aa 0000 f26c 0080
000003d0: 5f7a 0080 1b50 c108 90a2 d208 7519 d3b2
000003e0: ad6d 0080 9440 0080 60ae 0000 b971 0080
000003f0: 3a60 0000 5518 0080 0dd2 9284 a7c0 0000
5.441e-41 3.4578e-41 -2.2799e-41 2.8651e-41 2.0233e-41 1.4811996e-23 -4.002e-41 -4.9829e-41
1.7385e-41 -1.362e-42 6.279e-41 3.236e-42 -1.7196778e-25 -4.1617e-41 -1.1233e-41 -3.5283e-41
-3.1023206e-26 -2.2613e-41 -1.1718924e-22 1.8007e-41 3.0647815e-10 1.8001e-41 -1.2062155e-12 -2.6277e-41
1.798e-42 6.2995e-41 -1.7002322e-35 -4.9825e-41 -2.2407e-41 2.3920016e-10 8.297158e-37 -1.2117e-41
2.1588e-41 -1.6258e-41 -1.6818e-41 1.122e-42 -6.8858e-41 4.0254e-41 1.1965673e-36 5.1826757e-37
-2.5231992e-07 -2.963892e-39 2.5412974e-09 1.4317e-41 -4.1729255e-11 -1.9348e-40 3.291513e-36 3.3613e-41
-3.593e-42 7.702e-42 -4.5153e-41 -4.2075e-41 -3.6748e-41 3.8414453e-17 -1.7498651e-36 3.8876e-41
-5.6181e-41 -1.1481e-41 -2.643e-42 2.6902845e-17 2.7757e-41 -1.7093e-41 -1.5064329e-35 -1.5130378e-11
-7.577e-42 4.1072e-41 6.181e-42 -6.4252e-41 -7.512e-42 9.425e-42 -1.0538586e-35 3.0845e-41
-2.1220254e-13 2.9450793e-25 1.4482e-41 1.3164e-41 1.7237e-41 1.4840217e-16 -2.2648513e-36 2.2928e-41
6.0462e-41 -4.1008e-41 2.2974e-41 2.6211e-41 -1.214838e-16 2.9684605e-11 -5.808504e-36 -1.7532e-41
5.892e-42 2.7465e-41 -4.9244e-41 -4.35675e-40 -2.1792e-41 -3.6613e-41 -2.092333e-36 -3.4340793e-29
-5.972e-42 1.5986152e-19 4.5116e-41 1.484e-42 -9.355847e-16 6.6178e-41 -5.630395e-20 -1.2277e-41
-2.842e-42 -4.4934e-41 -2.3106e-41 -5.307e-42 -1.7243112e-31 9.761e-42 2.259164e-37 -4.4864e-41
-1.3862e-41 9.32e-42 7.67e-43 -1.319e-42 -3.079268e-16 2.7348162e-06 -2.2462747e-37 1.0637e-41
-4.5843e-41 -4.2413e-41 2.4331e-41 -1.3986e-41 4.4721e-41 -3.5024e-41 -3.5695e-41 -2.8564e-41
-5.1736137e-20 -2.9866e-41 -2.7252e-41 1.2051e-41 -6.1385637e-24 8.3104826e-20 -2.392351e-15 -2.699e-42
4.48757e-40 5.5716848e-11 -2.1277e-41 -1.5244202e-16 1.523147e-39 -1.96745e-40 7.4360615e-36 3.9568e-41
-6.769847e-14 -2.1906e-41 -3.1507e-41 -3.5239804e-28 1.1615e-41 5.375e-41 -2.4434387e-15 -2.9996e-41
7.509995e-34 4.2325e-41 5.171e-41 1.071e-41 -4.04601e-40 1.2697463e-21 -5.412819e-38 7.661e-42
-5.88e-41 4.1747e-41 -2.0952e-41 -4.9935e-41 1.5465e-41 1.6685339e-25 -2.9755551e-36 -6.3056e-41
-1.1866647e-10 -2.327e-41 4.8968e-41 -2.7847e-41 3.1936e-41 3.4895e-41 1.0367276e-36 -1.3773e-41
7.65784e-40 -5.1257e-41 2.9043e-41 5.1617e-41 -5.6146e-41 -3.1588e-41 3.1180971e-37 -4.4159e-41
5.3593e-41 -1.155e-42 1.5887843e-15 -7.0614e-41 -3.6984e-41 1.1138441e-09 1.6787731e-36 4.0171e-41
2.4828e-41 1.0472e-41 9.173e-42 3.938957e-39 4.3387e-41 4.7742e-41 -3.0588025e-36 -4.6627e-41
-1.0509996e-18 1.0504e-41 -6.935e-41 2.7798e-41 1.3432694e-34 1.9149e-41 9.215252e-37 1.459e-41
-4.5494753e-31 -1.0709e-41 3.3697287e-18 -2.273e-41 5.8018e-41 -8.907e-42 -4.45283e-38 -1.72e-41
-5.5461137e-13 -1.6348e-41 -1.0779e-41 -2.1699e-41 -4.617e-41 -5.6419e-41 7.976997e-37 -1.0747e-41
2.8899e-41 1.8942574e-36 5.0137e-41 -6.7711e-41 1.6748e-41 3.3747e-41 1.8016e-41 -3.9657e-41
-1.4582e-41 -1.2536e-41 -1.8633e-41 -6.866868e-31 1.3282e-41 -2.345e-41 3.4115713e-26 2.3025e-41
-2.4591e-41 2.7193785e-36 6.1168e-41 -3.9082e-41 -4.3898e-41 1.1634598e-33 1.26771335e-33 -2.457521e-08
-3.9344e-41 -2.3166e-41 6.2554e-41 -4.0796e-41 3.452e-41 -8.729e-42 -3.4517336e-36 6.911e-41

embedding_item_mf.weight f4 [8, 1024]
00000000: b7bc e68e a661 cf0e 5f94 8f8e 2fd6 2d8e
00000010: ab03 168f cea8 fa8d 3432 a08d 74f6 020d
00000020: 1195 700e 5245 f98e a256 798f b8f5 f88e
00000030: 2e02 d98e a071 500d 894a d10e 7402 0d8f
00000040: 4d8b 020f c0ff 440c c873 b68c 9965 9f8e
00000050: 5668 1c0f 232e 470f b8cc 258f a375 038f
00000060: 6d06 590e 637f 298f a46f 3b8f 4ee5 ce0e
00000070: a25f 2a8f b321 e20e c2a0 cd0e fadd 2b8f
00000080: b7bb c98d 9a1c 5d0e d2d2 888e 04a8 800d
00000090: 3cfe 1a8e 3a6b 258e cf25 4c0f 85b2 2c0f
000000a0: 04a7 2c8d a149 c68d 0785 4a0e 2e17 268e
000000b0: 5d2a 350e cfab 000f 84a4 d80e 0fd4 d18d
000000c0: 7e65 ca8e 9463 fb0e aa81 d78d c239 0d0f
000000d0: 96f7 218f 2eec cd0e 8993 9a8d 2808 fa8e
000000e0: 2010 868e c461 548f 356d 8c0d ff59 d38e
000000f0: e4ac 808e 5783 110e e0da 7e8f 89da 958f
00000100: f497 090f 4358 9f8f d65a 100f 1aec de8d
00000110: 526d 338d 703c a20c d9e9 108e c472 440f
00000120: c7a8 270f 8eac cf0e 84ef 598f 7360 a48e
00000130: f899 c60e fcb1 9c0e ecc9 1d0f d82c 2f0e
00000140: f28e 718f 6620 878d 27ef fe8e 96b0 618f
00000150: b615 1f8e f2fb 198f ae3b 868d 0091 200f
00000160: 8512 8d0e b500 1b8f 007c 220e 2d32 228e
00000170: 205a 0a0f 07cf 9a8d e944 fc0e 5892 e88e
00000180: ce67 018f d592 1c8e 87ab 160f b2b7 080e
00000190: 2327 088f 526d e90e 4e6f 930d 8c21 c88c
000001a0: 625a 350f 2c21 d10e aa7b 958e 93e9 ae0e
000001b0: b29e 448f f895 320f d0fd 168f 8e0f 2b0e
000001c0: edae b50e 0060 cb0b 7654 fc0e df30 4e8e
000001d0: 5368 0d0f e78e 390c 1208 a78e 961c 438f
000001e0: daa0 490e 65e5 060d 5054 d58e 7afb eb0d
000001f0: 333c 398e 01db 9e0e 7c8f a38e c796 140e
00000200: 0dcb 1a0e 8039 e38e c25f 890c 2e23 a58e
00000210: e009 1b0f c6c3 990e 84ab fd8e 0a47 aa0e
00000220: f11c b48e 4315 200e c601 940f 1725 0f8f
00000230: f0b9 080f 0251 150e 49b9 288f d395 478e
00000240: d2ff 140f 1634 b58e 1afc 950e 6a3e ee8e
00000250: d15b e08e 4d35 8b0e fa87 750e dd3d e60e
00000260: 44fd 428e b1cb 128e 02d4 978e 9d16 b58e
00000270: 3ecb 750e dd06 808e 3cbd 2b8f aa32 4b8e
00000280: 3f24 b60e 5066 f90d caa0 418d 0e76 970e
00000290: d46c d68e d00e 630f 1493 ae8e d66f 480f
000002a0: c354 9e8e 4756 248e c596 9f8f bc11 810c
000002b0: 36e0 4e0e c40f 6d0f 7c61 1a0f 7b77 c30e
000002c0: 37ad c08e d875 878e 2b61 9a8e 3659 120f
000002d0: a260 b18d c259 520f 4558 418e f817 220f
000002e0: 9712 698f fd0e 6d0f 6060 300f e572 1a0f
000002f0: dde2 1d8f b58d 9c0e 502e a78e 4535 068f
00000300: 78e6 e68c c0b5 b08c 1ab1 388e 3ad4 7a0e
00000310: 1154 e48e eb72 618e 5ce6 6b8e e64c e50d
00000320: f6e6 dd8e fd24 da0f 16df 6d0e 323b 850f
00000330: 065e de8e e506 668f 1873 440c 0b25 388f
00000340: 1919 ff0d b256 008e 68c8 2c8e 286e dc8d
00000350: c6fe 948e 0fba 400f 0f2d 4a0f 35d1 fd0e
00000360: b854 c80e 3053 520f d01f 050f d427 360f
00000370: 8a08 4b8d 6870 5c8e f418 160e 698e 948b
00000380: 7dbf 118f e277 be0e 1272 d90d db6c 8c8e
00000390: 7b1c 7e8f 872f 5c8e 5952 d20d 3056 968e
000003a0: b966 608e f8d2 df0d 7792 fa8e cc0a 7c0f
000003b0: 6d5d cd0e d511 4d8e 3c13 e00e 80c7 cf89
000003c0: cd9a 2c8f a17b 8d0e 9fb2 4e0f e0b7 350e
000003d0: 5b57 1e8f 987b b28c 58ae ce8c 81b9 928d
000003e0: cc4a 970e 9023 2e0e 0f2b a40e 4fdc 760e
000003f0: 8bff 720e 87a6 a58f 80a2 a30a e4e0 6f8f
-5.6881103e-30 5.112347e-30 -3.5395098e-30 -2.1427022e-30 -7.3962774e-30 -1.5448078e-30 -9.872847e-31 4.0356e-31
2.9654057e-30 -6.1449992e-30 -1.2293333e-29 -6.137334e-30 -5.349673e-30 6.423172e-31 5.1594253e-30 -6.952309e-30
6.436323e-30 1.5176253e-31 -2.8111223e-31 -3.929436e-30 7.711488e-30 9.820343e-30 -8.1745555e-30 -6.481455e-30
2.6750409e-30 -8.356877e-30 -9.241313e-30 5.1003733e-30 -8.400065e-30 5.5745753e-30 5.0691206e-30 -8.473702e-30
-1.2432772e-30 2.7254124e-30 -3.37296e-30 7.929057e-31 -1.9104375e-30 -2.0389448e-30 1.0065258e-29 8.514636e-30
-5.320263e-31 -1.2220418e-30 2.4962473e-30 -2.047224e-30 2.233037e-30 6.343976e-30 5.3406534e-30 -1.2931671e-30
-4.9894578e-30 6.1972167e-30 -1.32816135e-30 6.9629605e-30 -7.985596e-30 5.0763835e-30 -9.526501e-31 -6.1637612e-30
-3.304908e-30 -1.0471236e-29 8.654457e-31 -5.210218e-30 -3.1720924e-30 1.7935868e-30 -1.2565321e-29 -1.4776711e-29
6.7838866e-30 -1.5712608e-29 7.1172425e-30 -1.3738646e-30 -5.5290223e-31 2.4996427e-31 -1.7861964e-30 9.685649e-30
8.266241e-30 5.1195604e-30 -1.0745055e-29 -4.0522e-30 4.8959035e-30 3.862836e-30 7.779586e-30 2.1592007e-30
-1.1909748e-29 -8.327817e-31 -6.284613e-30 -1.1127366e-29 -1.9608717e-30 -7.592005e-30 -8.272755e-31 7.916535e-30
3.4777017e-30 -7.642226e-30 2.0027745e-30 -1.99922e-30 6.821283e-30 -9.540823e-31 6.2189154e-30 -5.733334e-30
-6.380183e-30 -1.9299182e-30 7.428606e-30 1.685174e-30 -6.712855e-30 5.7544206e-30 9.08637e-31 -3.083507e-31
8.941396e-30 5.155442e-30 -3.685042e-30 4.3119236e-30 -9.69411e-30 8.8049605e-30 -7.4444535e-30 2.1084867e-30
4.4788392e-30 7.83372e-32 6.220413e-30 -2.5414991e-30 6.971929e-30 1.4294885e-31 -4.117645e-30 -9.619748e-30
2.485261e-30 4.156806e-31 -5.2589744e-30 1.4543534e-30 -2.2831995e-30 3.91609e-30 -4.0320773e-30 1.8315005e-30
1.907973e-30 -5.601519e-30 2.1165824e-31 -4.0709517e-30 7.643992e-30 3.7905935e-30 -6.253448e-30 4.1976644e-30
-4.4401295e-30 1.973176e-30 1.459461e-29 -7.0575876e-30 6.741128e-30 1.8404672e-30 -8.318724e-30 -2.4600782e-30
7.3462326e-30 -4.4670102e-30 3.69741e-30 -5.8731632e-30 -5.530868e-30 3.4317472e-30 3.0264052e-30 5.675895e-30
-2.403429e-30 -1.8093963e-30 -3.742853e-30 -4.464172e-30 3.029644e-30 -3.1561045e-30 -8.467396e-30 -2.5046076e-30
4.4901368e-30 1.5370441e-30 -5.966626e-31 3.7338056e-30 -5.285987e-30 1.1194817e-29 -4.3035943e-30 9.8823e-30
-3.903163e-30 -2.0256102e-30 -1.5736685e-29 1.988627e-31 2.5499414e-30 1.16880385e-29 7.611561e-30 4.8186267e-30
-4.7498454e-30 -3.339355e-30 -3.80575e-30 7.215537e-30 -1.0931731e-30 1.0371086e-29 -2.3831587e-30 7.991833e-30
-1.1491367e-29 1.1687889e-29 8.696031e-30 7.614914e-30 -7.78439e-30 3.8593428e-30 -4.1213276e-30 -6.6169694e-30
-3.557582e-31 -2.722648e-31 -2.2765022e-30 3.0917062e-30 -5.6287293e-30 -2.7788722e-30 -2.90769e-30 1.4131727e-30
-5.4703114e-30 2.1510707e-29 2.9319917e-30 1.3137614e-29 -5.4817767e-30 -1.1341203e-29 1.5133926e-31 -9.079035e-30
1.572163e-30 -1.581896e-30 -2.1297129e-30 -1.3585066e-30 -3.6730155e-30 9.5021644e-30 9.968047e-30 6.2570774e-30
4.9385388e-30 1.0369821e-29 6.563533e-30 8.9809634e-30 -6.2564483e-31 -2.7171215e-30 1.8500942e-30 -5.72218e-32
-7.185931e-30 4.695406e-30 1.3401119e-30 -3.461749e-30 -1.2528652e-29 -2.7139977e-30 1.2962074e-30 -3.706085e-30
-2.765959e-30 1.3794225e-30 -6.17708e-30 1.2426639e-29 5.0626367e-30 -2.5276787e-30 5.5238785e-30 -5.0021046e-33
-8.510068e-30 3.4878234e-30 1.0190985e-29 2.2398505e-30 -7.8068255e-30 -2.7499628e-31 -3.1844255e-31 -9.042603e-31
3.72964e-30 2.1464279e-30 4.0470585e-30 3.0427916e-30 2.9951842e-30 -1.63344e-29 1.5757455e-32 -1.1826922e-29

embedding_item_mf.bias f4 [8]
00000000: a889 060f 8dac 8c15 5074 0000 daf3 6582
00000010: 67af 0080 4217 0080 9cf5 0c9f e55c 0080
6.633222e-30 5.6817787e-26 4.1725e-41 -1.6894245e-37 -6.2923e-41 -8.343e-42 -2.9849316e-20 -3.3324e-41

fc_layers.0.weight f4 [64, 16]
00000000: 8ad2 80b4 e68a 21b3 652e f832 5f00 f936
00000010: 8d02 27b5 a017 b4b6 5322 03b2 2474 03b4
00000020: be0b 9522 ca38 65ab 5fd1 cf21 4bf9 80bc
00000030: a1f8 d69f 6e0a a137 907b bc23 cead c638
00000040: b0b8 d11f ea95 c11f 7a65 f51f 96ba 10a5
00000050: 5c39 45a2 2e76 9322 36d4 ce9d 91e2 94a2
00000060: 91b7 2f8f 8731 8898 e7ef 9b0f 34c5 b2a8
00000070: 3fd2 480c 557f 55a3 8c71 550e a10d 9f25
00000080: b657 4e91 291c eb90 e9b2 808f 324d 6013
00000090: 8197 2d92 606a 1993 246d 018f 140a 918e
000000a0: 95c7 5a80 2c43 2788 6139 0880 ed5f 3999
000000b0: e370 0200 e250 0715 e701 7e02 9ea6 5415
000000c0: cb01 90b6 aee5 c6b5 f396 4035 d0b7 f138
000000d0: ef70 e7b6 a8eb 2cb8 b751 b7b3 f717 dc34
000000e0: aa47 6623 6efd 88ac d9af 4a21 d77a 45be
000000f0: aba9 afa0 f24d 8a39 e9fc 2726 8479 153a
00000100: 6e82 4fb6 75fc bab5 894f b734 e19c aa38
00000110: 9895 14b7 840c b2b7 9bee 9cb3 2854 4933
00000120: 6e5f 1723 eb55 76ac 2681 2a21 11c5 22be
00000130: 7020 4aa0 8ab1 5339 add2 f525 3135 de39
00000140: ef71 0080 c705 9907 ff1b 0000 f900 0100
00000150: bc61 0080 a16b 0080 55a1 0000 865f 0000
00000160: 8590 0000 012f 0080 3241 0000 1e4f 7682
00000170: 7d97 0000 348a 0200 5505 0080 ff9e 0900
00000180: 2c25 62b3 a66f 74b3 b701 17b3 1e18 b5b6
00000190: a3ed 4cb4 ce80 4eb5 34bf deb0 8af4 e5b2
000001a0: 6032 ab21 b6d6 d7aa bf76 7621 72fe 70bb
000001b0: 8bc7 da9e 11f1 9836 55c4 bb22 2924 0d38
000001c0: dd8a f31f ef04 9120 a9ab b020 9e6f f2a2
000001d0: 23d3 84a1 7ea0 2e22 a6ec 409e 6cfb 22a0
000001e0: 94fc a90d 2332 6c97 6ff2 160e d7b1 28a8
000001f0: 526b 0c8b 3a2c 7b23 e317 520e 1928 6b24
00000200: 39be 2999 bc87 5299 fbd4 3618 c606 061c
00000210: 5402 be99 8336 e69a 199a e196 f1c9 0c98
00000220: fca1 d086 8943 c48f 2d18 2206 2f34 51a1
00000230: c6b6 0b83 9d33 8c1c de48 7408 abb4 621d
00000240: 825b 908b e3a5 189c ecb8 da09 6ecb 3c0e
00000250: 62ee 928c 92e6 258d cd34 2689 786c c609
00000260: 4704 0080 e3b2 3e82 d24c 0000 0691 8b93
00000270: 896c 0080 22f3 d50e c754 0000 7961 b30f
00000280: 6b7a 8fa1 94cf 1ca2 1d15 8ba1 a2d2 5e23
00000290: 7618 4ba2 88f4 faa3 887e 439f a0da c8a1
000002a0: 4357 0b10 dfe3 8997 7829 418e 34cb d8a9
000002b0: 2f2e 178d 0926 7c25 f467 e28f b07c a224
000002c0: 09fa 0080 2f03 0000 ed08 0080 575d 1900
000002d0: 2330 0280 0685 0680 3050 0080 5452 0000
000002e0: 601e 0080 efaf 0000 e800 0000 288a b084
000002f0: 2626 0080 493f 3100 d822 0000 88a7 c100
00000300: 1469 6782 2186 1f82 b315 1201 4be6 e804
00000310: 562f 7283 3008 7084 be35 c101 9e38 5700
00000320: a142 0000 f90e 0080 78aa 0000 4e58 788a
00000330: d963 0000 5ce4 a405 88bc 8c83 82ae 6406
00000340: 061f e7a2 6d4b e523 e0dc 4322 9005 8824
00000350: c105 54a2 64c0 2624 ea9d d21f 8706 8121
00000360: 7ab3 4610 6c40 8718 2baa 978f 96b2 2929
00000370: d40e 7c8c 8c93 6125 5709 9091 346a 4da6
00000380: 40af 8295 2719 6914 1e58 0014 9012 8e97
00000390: ce9f 4295 4616 0516 606f 7b0f d29b 5a94
000003a0: 96aa 9e04 abb2 900a aa9b 5a81 e69f de1b
000003b0: 5f50 d880 b798 ac97 96c1 9704 5144 0997
000003c0: 8f39 9727 bcd5 eba7 fe36 aa26 3c70 c528
000003d0: d63c 56a8 3089 b127 f62c db24 89ed eaa7
000003e0: e5ef 1c16 162a c49e 4bf1 4816 8816 4330
000003f0: 657d 6892 ffd3 85ab d41c 6697 a789 212c
-2.3995045e-07 -3.761206e-08 2.8892098e-08 7.4208215e-06 -6.221606e-07 -5.3671683e-06 -7.633008e-09 -1.2242577e-07
4.0398963e-18 -8.1435954e-13 1.4082286e-18 -0.015743872 -9.104385e-20 1.9197552e-05 2.0435332e-17 9.4737494e-05
8.882048e-20 8.198669e-20 1.03929415e-19 -1.2553227e-16 -2.6728844e-18 3.9969557e-18 -5.4747167e-21 -4.0355367e-18
-8.66352e-30 -3.5205186e-24 1.5376587e-29 -1.9847493e-14 1.5470708e-31 -1.1573717e-17 2.6308948e-30 2.7591339e-16
-1.6277563e-28 -9.2734544e-29 -1.2690688e-29 2.8310835e-27 -5.477592e-28 -1.9363762e-27 -6.381211e-30 -3.5754965e-30
-8.336791e-39 -5.0333695e-34 -7.55268e-40 -9.583648e-24 2.24167e-40 2.7326838e-26 1.8661519e-37 4.2944497e-26
-4.291743e-06 -1.4818995e-06 7.1745234e-07 0.00011526013 -6.8974837e-06 -4.1227468e-05 -8.5364654e-08 4.099563e-07
1.24835004e-17 -3.893489e-12 6.8672995e-19 -0.19285141 -2.975843e-19 0.00026379485 5.828252e-16 0.0005702006
-3.0921324e-06 -1.3931555e-06 3.4144276e-07 8.135453e-05 -8.856317e-06 -2.1225082e-05 -7.307718e-08 4.68755e-08
8.2059344e-18 -3.5006397e-12 5.7769167e-19 -0.15895487 -1.7120798e-19 0.00020188667 4.2643485e-16 0.0004238277
-4.0872e-41 2.3024277e-34 1.0043e-41 9.2184e-41 -3.506e-41 -3.861e-41 5.7875e-41 3.4267e-41
5.1844e-41 -1.6862e-41 2.3388e-41 -1.8095931e-37 5.4344e-41 2.33249e-40 -1.913e-42 8.83557e-40
-5.2653533e-08 -5.691222e-08 -3.5158987e-08 -5.397028e-06 -1.9085432e-07 -7.6928416e-07 -1.6206969e-09 -2.6770312e-08
1.1600745e-18 -3.8340658e-13 8.35052e-19 -0.0036772755 -2.3164177e-20 4.558017e-06 5.0894326e-18 3.3650696e-05
1.0314423e-19 2.456722e-19 2.9929155e-19 -6.571241e-18 -9.000555e-19 2.3666361e-18 -1.0213333e-20 -1.3805122e-19
1.0476235e-30 -7.6318994e-25 1.8605655e-30 -9.364436e-15 -2.7043758e-32 1.3616103e-17 2.5896e-30 5.0991466e-17
-8.77551e-24 -1.0884157e-23 2.3630476e-24 4.4345635e-22 -1.964648e-23 -9.521384e-23 -3.644796e-25 -1.819653e-24
-7.847892e-35 -1.9353106e-29 3.0486575e-35 -7.088102e-19 -4.1058242e-37 9.277765e-22 7.3511734e-34 3.0004254e-21
-5.560447e-32 -5.0506985e-22 5.265549e-33 2.3270737e-30 -2.2638333e-31 -5.112209e-31 -2.000635e-33 4.776877e-33
-1.534e-42 -1.4010333e-37 2.7558e-41 -3.5231537e-27 -3.8935e-41 5.2742682e-30 3.0412e-41 1.7688308e-29
-9.722461e-19 -2.1251833e-18 -9.424595e-19 1.2079247e-17 -2.752458e-18 -2.7208617e-17 -4.139752e-20 -1.3610397e-18
2.748014e-29 -8.91094e-25 -2.3809053e-30 -9.627577e-14 -4.658606e-31 2.1870403e-16 -2.2325362e-29 7.046753e-17
-8.9696e-41 1.142e-42 -3.202e-42 2.329371e-39 -2.00939e-40 -5.98733e-40 -2.8766e-41 2.9534e-41
-1.0896e-41 6.3113e-41 3.25e-43 -4.1504278e-36 -1.3685e-41 4.522642e-39 1.25e-41 1.778435e-38
-1.7001356e-37 -1.1719968e-37 2.6831533e-38 5.475443e-36 -7.1171747e-37 -2.8215624e-36 7.097412e-38 8.009999e-39
2.3902e-41 -5.371e-42 6.1153e-41 -1.1957374e-32 3.5819e-41 1.5506372e-35 -8.271745e-37 4.3010242e-35
-6.2645523e-18 2.4860174e-17 2.6544358e-18 5.899002e-17 -2.8734404e-18 3.6158473e-17 8.9199706e-20 8.743108e-19
3.918688e-29 3.496173e-24 -1.4955296e-29 3.7680437e-14 -1.9417836e-31 1.956563e-16 -2.272495e-28 -7.1267595e-16
-5.278308e-26 1.1768454e-26 6.4797266e-27 -9.181221e-25 -3.9304052e-26 1.0750683e-25 1.23967055e-29 -1.10369175e-26
3.730228e-36 1.3933903e-32 -4.015196e-38 3.683015e-22 -1.9865299e-38 -1.115379e-24 3.567771e-36 -4.4353315e-25
4.1973324e-15 -6.5457334e-15 1.1811025e-15 2.1920067e-14 -1.1892578e-14 4.9276108e-15 9.505228e-17 -6.5205583e-15
1.2677277e-25 -2.0769714e-20 1.623201e-25 7.0972606e-10 -7.3360853e-28 -9.509059e-13 -7.4353394e-25 2.2955888e-12

fc_layers.0.bias f4 [64]
00000000: 55ed ef3a f5a0 2529 8020 b017 2202 b43c
00000010: 0cad 943c 0094 2a01 99e5 e639 5711 6027
00000020: 3c8f fc1f d335 2812 ced7 9f27 49f1 4d03
00000030: dc2b e608 9091 60a8 beec 389a 5216 582f
00000040: c210 143d 0660 d238 5e47 7a0f 8e76 cb3b
00000050: 321e dba8 741c 9814 5031 893c c978 d73b
00000060: 7647 a13c 097e dc2d 6a92 a632 56df f23c
00000070: 6a0e 8214 51d8 073d 0c47 0211 a1a5 c13c
00000080: 5ebe cf2d 157e 4531 e89b 0117 55fb f830
00000090: 6e38 0080 6e31 9aa5 ca2e 9eaf daff 7d13
000000a0: 9010 e42f db3d 193d 2ac6 1da4 80a0 8225
000000b0: 346a 9f2e 1976 313c ca84 bd3c e6f2 2a3d
000000c0: aa72 4ea7 1cf6 26a6 a478 c53c b050 d53c
000000d0: e019 6329 39ae 7eaf ba3d cea8 871b 943c
000000e0: 20d9 742b 7d72 0080 2c35 a8a9 706c 85a6
000000f0: 0420 ff3c bcc6 873c 165f 829f 2b72 a93b
0.0018304983 3.6776968e-14 1.1381938e-24 0.021973673 0.018148921 3.1330253e-38 0.00044040082 3.1095645e-15
1.0696311e-19 5.3077796e-28 4.436534e-15 6.0521067e-37 1.3852933e-33 -1.2466062e-14 -3.8241547e-23 1.9653015e-10
0.036148794 0.00010031466 1.23396965e-29 0.006209201 -2.432698e-14 1.53593e-26 0.016747147 0.006575678
0.019687396 2.5067075e-11 1.9391525e-08 0.02964751 1.3132331e-26 0.03316528 1.0277085e-28 0.023638548
2.3617715e-11 2.8738942e-09 4.187893e-25 1.8115808e-09 -2.0243e-41 -2.6748236e-16 -2.8773278e-10 3.2059234e-27
4.1484727e-10 0.037412506 -3.42118e-17 2.2660164e-16 7.249348e-11 0.010831379 0.023134608 0.041735552
-2.8650402e-15 -5.792636e-16 0.024105377 0.026039451 5.0426568e-14 -2.3163062e-10 -2.2897364e-14 0.018079532
8.6987535e-13 -4.107e-41 -7.4699226e-14 -9.258121e-16 0.031143196 0.016574256 -5.521445e-20 0.0051710806

fc_layers.1.weight f4 [32, 64]
00000000: 353e 9f3b 02e0 a5a6 956f 5e18 9927 743d
00000010: 485f 493d 4f38 9f01 dd2e 953a 7c34 4227
00000020: ba27 8a20 1c59 af12 3c0d 1829 3621 e103
00000030: fd47 a109 d867 7c28 d186 6b1b f454 90ad
00000040: f4fb c53d 486a 8739 03f8 9a84 604e 853c
00000050: 70a9 8e25 6c2a 6691 e60b 3a3d 302d 8d3c
00000060: d624 5b3d 8539 522d 2a81 f131 d0f0 a23d
00000070: 16dd 3595 9b41 b63d db51 6111 651d 833d
00000080: a065 f02a 14ab 062f b938 4317 2a8c 13af
00000090: e564 0000 b887 15a3 4372 fc2e f5d6 8813
000000a0: c5a6 8baf 1d51 cd3d 0469 ac26 6a71 d325
000000b0: 240d d32b 2c1d ed3c 1d69 803d 087b e43d
000000c0: a6e3 69a2 e3e0 6fa4 f4b2 853d f833 903d
000000d0: c160 58a8 3e1d 0e2a 6b86 8427 f697 483d
000000e0: 44aa daa9 ea30 0000 994b bd25 8e69 caa1
000000f0: 79a0 aa3d 2a2b 383d 2755 1621 24fa 583c
00000100: 2393 3d3b 79e9 4ba6 e8e2 fb17 8743 113d
00000110: a497 ef3c 5ca6 3401 fd74 333a fe04 0127
00000120: c748 2120 fe3b 4e12 3c25 a928 d602 8603
00000130: 6f1c 3b09 22d4 4c28 ee35 b31a 9bb1 27ad
00000140: e39e 6b3d 8dc7 2439 79eb 7384 3dab 1e3c
00000150: 1a1d 35a5 558e cc91 4258 dd3c 2e05 283c
00000160: 0061 023d 6392 fc2c 8a62 8731 7de8 413d
00000170: 33f4 bd94 79e7 583d 0b6c 0d11 db00 1c3d
00000180: 782c 712a 989a b82f f843 e716 37b5 83ae
00000190: 5c26 0080 5af5 0ea3 9032 9a2e cf2b 7113
000001a0: 5346 98ae 2d5a 743d 255f 5e26 4378 6a25
000001b0: 9af6 2e2b b708 8d3c 89ce 183d dcf6 873d
000001c0: fa1f 3fa3 9519 c7a3 4e1a 1f3d c29a 2b3d
000001d0: 1a74 12a8 7281 1929 75a6 0ca8 c6a7 ee3c
000001e0: 148d 60a9 f09e 0000 d006 1523 80b1 67a1
000001f0: a60e 4b3d 381b db3c 6b57 78a0 bb2d 013c
00000200: edfe 873b c1b2 8ba6 eefe 3418 48a7 503d
00000210: 3d18 2c3d 9442 7f01 ee51 7f3a f69f 4127
00000220: b22c 6620 a25c 9312 43bb 0229 9613 c003
00000230: b3d1 8409 d668 3328 8d20 1e1b 84af 5dad
00000240: ae31 a93d 9a76 6739 2c43 b884 afcb 633c
00000250: 0d52 28a5 fcb1 a291 e1fc 1e3d 7943 713c
00000260: d747 3b3d 9f89 142d 6f06 f231 7a3f 8b3d
00000270: 3414 dd94 a1c1 9b3d 1de9 4011 6316 603d
00000280: 2dfc 8b2a 4a1c 36b0 0cd8 2617 14f1 a6ae
00000290: d274 0000 606f bda1 06e7 d52e 45b2 ab13
000002a0: c4ef b3af 1276 af3d 8ef0 8226 e202 c525
000002b0: 7ea1 f62a 139f ca3c 707b 5b3d 9441 c33d
000002c0: 3dc9 8ea3 c8b4 41a4 4b85 643d cb78 763d
000002d0: 0e00 65a8 8394 062a 481c 98a7 9f6b 2b3d
000002e0: 5407 aca9 df0b 0000 5158 caa5 eb54 39a3
000002f0: f6d0 913d 8062 1d3d bdaf 8f20 e368 393c
00000300: 8548 0000 6ba1 0080 159b 0000 5d27 0080
00000310: d14b 0080 a71c 0000 6129 0000 f728 0000
00000320: e659 0000 8a1d 0000 e581 0000 5f6a 0000
00000330: e309 0080 f479 0080 161e 0080 0099 0000
00000340: 826a 0000 ec63 0080 a805 0080 f198 0080
00000350: 21a1 0080 1d2d 0080 b113 0080 3652 0080
00000360: 6b8b 0080 c024 0080 f97c 0000 8c29 0080
00000370: 19a5 0000 740f 0000 2179 0080 fb5e 0080
00000380: c494 0080 ee68 0080 8b47 0080 8ab4 0000
00000390: 0462 0080 b72d 0080 1541 0080 7e88 0080
000003a0: 8220 0080 9b0f 0080 b973 0080 df7d 0080
000003b0: 9409 0000 840e 0000 96a2 0080 3433 0080
000003c0: 6e82 0000 2a80 0080 3196 0080 2508 0080
000003d0: 6aa2 0080 25c1 0080 1d68 0080 5828 0080
000003e0: 4061 0000 11b4 0080 b341 0000 0033 0080
000003f0: 3d31 0000 cb1d 0080 1a35 0080 eabf 0080
0.0048597106 -1.1509892e-15 2.8749162e-24 0.059608076 0.049163133 5.8488174e-38 0.0011381764 2.695136e-15
2.3404398e-19 1.106602e-27 3.376226e-14 1.3231936e-36 3.8827038e-33 1.4011328e-14 1.9482306e-22 -1.6408631e-11
0.09667197 0.00025828392 -3.643299e-36 0.016272724 2.4747889e-16 -1.8156873e-28 0.045421503 0.017233461
0.053501926 1.194989e-11 7.0287074e-09 0.079560876 -3.6727065e-26 0.08899232 1.7774594e-28 0.06402091
4.270308e-13 1.2248008e-10 6.307949e-25 -1.3419368e-10 3.6194e-41 -8.106046e-18 1.147993e-10 3.454319e-27
-2.540245e-10 0.10025237 1.1963362e-15 3.6679518e-16 1.4996099e-12 0.028944574 0.06270049 0.11156279
-3.1697904e-18 -5.201535e-17 0.06528273 0.07041162 -1.2011389e-14 1.2622279e-13 3.6783096e-15 0.048973046
-9.710681e-14 1.7547e-41 3.28375e-16 -1.3715993e-18 0.08331389 0.04496304 5.0934675e-19 0.013243232
0.0028926812 -7.074619e-16 1.6277774e-24 0.03546479 0.029247113 3.3180136e-38 0.0006845741 1.7905053e-15
1.366131e-19 6.5076085e-28 1.8778917e-14 7.876463e-37 2.2522676e-33 1.1370274e-14 7.411979e-23 -9.532287e-12
0.057524573 0.00015714597 -2.8672636e-36 0.009684381 -1.5709107e-16 -3.2273244e-28 0.027019624 0.010255141
0.031830788 7.178523e-12 3.9402197e-09 0.04734086 -1.9180443e-26 0.052955125 1.1156232e-28 0.038086753
2.1420528e-13 3.357925e-10 3.7362957e-25 -5.9893805e-11 -1.3761e-41 -7.749791e-18 7.012091e-11 3.0440076e-27
-6.924652e-11 0.05965631 7.7150667e-16 2.0337011e-16 6.2159446e-13 0.01721607 0.037306342 0.066388816
-1.0360902e-17 -2.1586458e-17 0.038843445 0.041895635 -8.129804e-15 3.40851e-14 -7.807656e-15 0.029132735
-4.9860357e-14 5.7016e-41 8.078749e-18 -7.8500764e-19 0.049574517 0.026746377 -2.1035341e-19 0.007884438
0.0041502626 -9.693514e-16 2.3393161e-24 0.05094078 0.042015303 4.688387e-38 0.00097396865 2.6870845e-15
1.9496546e-19 9.29984e-28 2.9028222e-14 1.12892425e-36 3.1975044e-33 9.959229e-15 1.3079971e-22 -1.2601368e-11
0.08261429 0.00022074059 -4.331988e-36 0.013903542 -1.4599477e-16 -2.5668785e-28 0.038815383 0.014725559
0.04572281 8.443384e-12 7.0438584e-09 0.067992166 -2.2323266e-26 0.07605291 1.5217963e-28 0.05470885
2.4866342e-13 -6.6251415e-10 5.391018e-25 -7.59163e-11 4.1907e-41 -1.2836619e-18 9.7271566e-11 4.3342256e-27
-3.2730274e-10 0.08567442 9.085765e-16 3.4176006e-16 4.3810436e-13 0.024734056 0.053584516 0.095339924
-1.5480899e-17 -4.200333e-17 0.05579118 0.06017379 -1.27120655e-14 1.1953116e-13 -4.2219138e-15 0.041850682
-7.6396056e-14 4.259e-42 -3.510126e-16 -1.0046852e-17 0.07119934 0.038424015 2.4341436e-19 0.011316511
2.6015e-41 -5.7906e-41 5.5633e-41 -1.4121e-41 -2.7198e-41 1.0279e-41 1.4844e-41 1.4695e-41
3.225e-41 1.0597e-41 4.6597e-41 3.8159e-41 -3.547e-42 -4.3749e-41 -1.0793e-41 5.4886e-41
3.8208e-41 -3.5845e-41 -2.029e-42 -5.4865e-41 -5.7802e-41 -1.6184e-41 -7.064e-42 -2.9492e-41
-5.0014e-41 -1.3183e-41 4.4832e-41 -1.4904e-41 5.9226e-41 5.544e-42 -4.3453e-41 -3.4073e-41
-5.3367e-41 -3.7642e-41 -2.5665e-41 6.4765e-41 -3.5161e-41 -1.64e-41 -2.3347e-41 -4.8964e-41
-1.1662e-41 -5.598e-42 -4.1513e-41 -4.5154e-41 3.436e-42 5.207e-42 -5.8325e-41 -1.8368e-41
4.679e-41 -4.5977e-41 -5.3879e-41 -2.922e-42 -5.8263e-41 -6.9287e-41 -3.7349e-41 -1.4473e-41
3.4887e-41 -6.4596e-41 2.3568e-41 -1.8295e-41 1.7663e-41 -1.0688e-41 -1.9049e-41 -6.8846e-41

fc_layers.1.bias f4 [32]
00000000: 178c 613c 0b41 fc3b 5b1a 3e3c feac 0080
00000010: ef02 0000 8210 313c d372 0080 9c08 0080
00000020: 4558 eb3b e467 0531 e6b8 9f3b 520a 6b3c
00000030: 70a2 7e3c 6c64 0000 1a2f 323c 4b33 7b06
00000040: e520 0080 089b fa89 5a6b e804 8b86 e338
00000050: 2153 0080 7e26 753c 9d11 0080 248f 7d3c
00000060: 4cab 383c ce39 0000 e00a 0080 7c60 8f3c
00000070: dd0d 0080 b29d 0880 af28 959e 3e33 ab02
0.01376631 0.0076981834 0.011602963 -6.2058e-41 1.052e-42 0.010807158 -4.1191e-41 -3.088e-42
0.0071821534 1.9413102e-09 0.0048743365 0.014345722 0.015541658 3.6025e-41 0.010875488 4.7245537e-35
-1.18e-41 -6.03311e-33 5.4641525e-36 0.00010849264 -2.9821e-41 0.0149627905 -6.318e-42 0.015476022
0.011271309 2.0736e-41 -3.901e-42 0.017502062 -4.973e-42 -7.91254e-40 -1.5792815e-20 2.5155603e-37

fc_layers.2.weight f4 [16, 32]
00000000: 5d21 e729 4c9e 5029 f889 d329 c530 0000
00000010: 171f 0000 763b c529 6084 0000 3e0d 0000
00000020: 7ca4 0529 4aef c9b7 b296 0328 6ade fd29
00000030: 9c39 ff29 7367 0080 e4f6 be29 851c 0000
00000040: 612c 0000 dd41 0080 42bf 0080 1fb4 7026
00000050: 23b9 0080 324d fb29 ae4a 0080 4f18 0c2a
00000060: 2e34 0b29 6664 0080 558f 0000 c064 122a
00000070: 01af 0080 2c45 0000 77ad 0610 39a4 0080
00000080: 9903 993a a83d 373a d9ed 823a cfb3 0000
00000090: 114e 0080 e566 753a d138 0000 a95a 0000
000000a0: 2dfd 2c3a 30f4 412d 4b0b fc39 6bfa 9e3a
000000b0: 1f73 ab3a 1544 0080 72c6 763a 96a4 dd04
000000c0: 8577 0080 7e56 2189 4a1e 6603 1569 0937
000000d0: 7677 0080 0e73 a53a ae56 0080 10c9 aa3a
000000e0: 341f 7f3a 4d56 0080 a904 0080 a616 c03a
000000f0: 2c57 0000 80b5 0100 17a9 721a 2382 df00
00000100: 1813 0080 9e65 0000 e71d 0080 cb6b 0000
00000110: 6b7e 0080 9214 0000 6104 0080 d32b 0080
00000120: 4d43 0080 0738 4180 b330 0000 b822 0080
00000130: 9430 0080 1582 0080 234a 0000 3087 0080
00000140: 7d36 0000 03a8 0080 a43f 0000 4421 0c80
00000150: f402 0000 fc19 0080 c03a 0080 b805 0080
00000160: 2240 0000 ae4a 0080 cd5b 0080 3e72 0080
00000170: b668 0000 113d 0000 095e 0000 fa84 0080
00000180: 16d9 223e 7393 c13d 8d1d 0b3e 7832 0080
00000190: 1412 0080 bd73 023e 5984 0000 1a50 0000
000001a0: 3372 b63d ec2a d730 1e73 833d 4b3f 293e
000001b0: 6c82 363e e608 0080 1a30 033e 8c91 6608
000001c0: c412 0080 4344 b10b fefc 6007 b0e3 0638
000001d0: 2e88 0000 f117 303e 386c 0000 b7ca 353e
000001e0: 0a7e 073e 144e 0000 2595 0000 d56b 4c3e
000001f0: 1383 0100 7012 0b00 606e b31d 3691 5504
00000200: b66f 0080 210d 0080 8f95 0080 ba00 0000
00000210: 684e 0080 b5c0 0000 2e96 0080 f01f 0080
00000220: 9b22 0080 f66e 2c00 9e34 0080 8559 0080
00000230: 1748 0080 ba07 0000 7663 0080 f671 0000
00000240: 4589 0000 9168 0000 148c 0000 f609 0380
00000250: 1138 0080 6b48 0000 c345 0000 e1a8 0080
00000260: 5bba 0000 dfa3 0080 098a 0000 ea43 0000
00000270: a262 0080 744d 0000 f922 0000 6e37 0080
00000280: 0b54 0000 fa46 0080 9622 0080 aa38 0080
00000290: a343 0000 5106 0000 bb16 0080 0e09 0000
000002a0: 2b59 0000 b8af 0300 173b 0000 252f 0000
000002b0: a111 0000 7513 0080 ea35 0080 b36e 0080
000002c0: cb4c 0000 3fa1 0000 0a00 0000 2bd9 0380
000002d0: f0c3 0000 f91c 0000 1018 0080 5403 0000
000002e0: 9c37 0000 3637 0080 db0f 0080 5a13 0080
000002f0: 3463 0000 5659 0080 3842 0000 620e 0000
00000300: ce9a 6807 b614 0907 3465 4c07 8a06 0000
00000310: 5da0 0080 c6fd 3807 8b26 0080 4f09 0080
00000320: 48a4 0707 5660 0b80 b8bf ba06 3c2c 7207
00000330: c0f1 8507 9565 0000 b286 3d07 7d3f 0000
00000340: da40 0000 1d3f 0000 6aa0 0000 8598 7c04
00000350: cebd 0000 bf55 7c07 a63f 0000 f148 8007
00000360: 85a5 3f07 019c 0000 8638 0000 ef81 9307
00000370: 7116 0080 b129 0080 7348 0000 7f5e 0000
00000380: b637 0080 278b 0080 9631 0000 b261 0080
00000390: 0e4e 0080 9276 0080 8f85 0080 7a98 0080
000003a0: 9570 0080 1b61 2400 4f63 0000 722f 0080
000003b0: f21b 0000 f914 0000 27af 0080 d29c 0080
000003c0: 77be 0000 bea8 0000 7904 0080 e2e6 0380
000003d0: 3c86 0080 335b 0080 9332 0000 9f8b 0080
000003e0: 1296 0080 5732 0000 3975 0000 630b 0000
000003f0: d22c 0000 bf0c 0000 ef7b 0000 60ab 0000
1.02642484e-13 4.632258e-14 9.394216e-14 1.7495e-41 1.1153e-41 8.758872e-14 4.7487e-41 4.75e-42
2.96746e-14 -2.4072495e-05 7.304638e-15 1.127404e-13 1.13342685e-13 -3.711e-41 8.480524e-14 1.0231e-41
1.592e-41 -2.3627e-41 -6.861e-41 8.3510836e-16 -6.6415e-41 1.11600304e-13 -2.679e-41 1.2442932e-13
3.090946e-14 -3.6016e-41 5.1418e-41 1.300236e-13 -6.278e-41 2.4814e-41 2.6560473e-29 -5.8912e-41
0.0011674046 0.00069900835 0.0009989097 6.4503e-41 -2.8005e-41 0.0009361341 2.0382e-41 3.2523e-41
0.00065990054 1.1025e-11 0.000480736 0.0012129074 0.0013080573 -2.4423e-41 0.0009413726 5.2108e-36
-4.2876e-41 -1.9420338e-33 6.7625695e-37 8.190303e-06 -4.2855e-41 0.001262279 -3.1095e-41 0.0013029892
0.00097321277 -3.0959e-41 -1.672e-42 0.0014655187 3.1271e-41 1.56945e-40 5.0181017e-23 2.0526e-38
-6.85e-42 3.6453e-41 -1.0727e-41 3.8669e-41 -4.535e-41 7.379e-42 -1.571e-42 -1.5721e-41
-2.4143e-41 -5.989406e-39 1.747e-41 -1.2455e-41 -1.7427e-41 -4.6665e-41 2.6595e-41 -4.8496e-41
1.9547e-41 -6.0271e-41 2.283e-41 -1.11396e-39 1.06e-42 -9.321e-42 -2.1076e-41 -2.052e-42
2.3007e-41 -2.679e-41 -3.2932e-41 -4.0982e-41 3.7563e-41 2.1906e-41 3.3733e-41 -4.7703e-41
0.15903124 0.09451952 0.13585491 -1.8105e-41 -6.485e-42 0.12739463 4.7477e-41 2.8735e-41
0.089085005 1.5655508e-09 0.06418441 0.1652805 0.1782319 -3.192e-42 0.12811318 6.9384197e-34
-6.732e-42 6.828063e-32 1.6926235e-34 3.216014e-05 4.8852e-41 0.17196633 3.8822e-41 0.17753111
0.13231674 2.8009e-41 5.3503e-41 0.1996301 1.38856e-40 1.016805e-39 4.749503e-21 2.5104707e-36
-4.0074e-41 -4.71e-42 -5.3652e-41 2.6e-43 -2.8127e-41 6.913e-41 -5.3874e-41 -1.1457e-41
-1.2414e-41 4.080567e-39 -1.8875e-41 -3.2114e-41 -2.5861e-41 2.772e-42 -3.568e-41 4.0881e-41
4.9243e-41 3.7511e-41 5.025e-41 -2.7908e-40 -2.0113e-41 2.5979e-41 2.5026e-41 -6.0582e-41
6.6852e-41 -5.8786e-41 4.9518e-41 2.4363e-41 -3.5383e-41 2.7785e-41 1.2546e-41 -1.9884e-41
3.0149e-41 -2.5462e-41 -1.2407e-41 -2.0327e-41 2.4263e-41 2.266e-42 -8.154e-42 3.248e-42
3.1987e-41 3.38542e-40 2.1197e-41 1.6912e-41 6.324e-42 -6.98e-42 -1.9341e-41 -3.9711e-41
2.7548e-41 5.7844e-41 1.4e-44 -3.53412e-40 7.0289e-41 1.0393e-41 -8.632e-42 1.194e-42
1.9949e-41 -1.9806e-41 -5.688e-42 -6.942e-42 3.5587e-41 -3.2048e-41 2.3755e-41 5.16e-42
1.7499233e-34 1.0312821e-34 1.5376995e-34 2.346e-42 -5.7528e-41 1.3917199e-34 -1.3827e-41 -3.339e-42
1.0204549e-34 -1.044749e-39 7.024713e-35 1.8219056e-34 2.0153704e-34 3.6441e-41 1.4258363e-34 2.2775e-41
2.3264e-41 2.2641e-41 5.7546e-41 2.9692491e-36 6.8089e-41 1.8983571e-34 2.2833e-41 1.930217e-34
1.4417885e-34 5.5964e-41 2.0277e-41 2.219447e-34 -8.05e-42 -1.4956e-41 2.599e-41 3.3899e-41
-1.9985e-41 -4.9918e-41 1.7788e-41 -3.5046e-41 -2.8001e-41 -4.2535e-41 -4.7912e-41 -5.4698e-41
-4.0387e-41 3.340913e-39 3.5625e-41 -1.702e-41 1.0025e-41 7.524e-42 -6.2833e-41 -5.6257e-41
6.8326e-41 6.0533e-41 -1.604e-42 -3.58332e-40 -4.8154e-41 -3.2716e-41 1.8143e-41 -5.0087e-41
-5.3835e-41 1.8059e-41 4.2052e-41 4.085e-42 1.6078e-41 4.572e-42 4.4459e-41 6.1478e-41

fc_layers.2.bias f4 [16]
00000000: a337 9c28 c8c0 3739 d31f 0000 dc83 db3c
00000010: b841 0080 512a 0000 ca42 0306 b6b0 0080
00000020: 55d7 653c 2ec8 59b0 8041 c53c e0ae b385
00000030: 6083 f2a6 3d18 df3c ad3b 603c d644 9f85
1.7343608e-14 0.00017524057 1.1416e-41 0.026796274 -2.3575e-41 1.518e-41 2.468743e-35 -6.3392e-41
0.01402839 -7.922861e-10 0.024079084 -1.6897318e-35 -1.6827733e-15 0.027233237 0.013686103 -1.4977574e-35
