neural-collaborative-filtering/src/checkpoints/pretrain_neumf_factor8neg4_Epoch175_HR1.0000_NDCG0.8327.model (torch, 579115 bytes, 15 tensors)

embedding_user_mlp.weight f4 [7700, 8]
00000000: 7038 7735 5aef 9bb7 7474 f934 ec95 da2a
00000010: bc5a 0f32 a891 30ac d0c5 e8b0 0043 eaaa
00000020: 3010 6435 d8eb 4334 08ee f8ac 0805 5d2c
00000030: 9f31 b830 e2d4 1ab6 8cdc 42af 1a32 9f32
00000040: 2e16 8c2e 241d c7b4 76a4 b536 d3a3 0ab3
00000050: 56d6 99ac 7823 90ac a253 edab fd15 6238
00000060: 026b 9e38 51b2 4338 c84d 5036 c987 5035
00000070: 8ae6 72b6 82e8 9cb7 648b 8538 f869 edb4
00000080: d079 4ab6 390c cab7 7a7c 9c37 f4ca 5037
00000090: 6c4c 8737 e290 2637 8058 3d37 543a 6d37
000000a0: 8b3a 87b8 52ca f537 38ad 02b5 b8eb 0936
000000b0: c2ec 9b36 02f8 17b6 de9e cfb6 fe64 41b6
000000c0: 6f61 cfb7 7649 82b7 8c04 9fb7 a0e5 98b5
000000d0: 9c85 1bb8 b49e 2f37 1e74 1bb5 980d bd36
000000e0: 7650 35b6 76b0 1bb8 08ca 58b7 cb69 8737
000000f0: 5862 a7b6 50ec 6fb5 f2c5 60b6 b4fd 2838
00000100: 2783 98b7 2d8d 3837 9a19 a2b7 18f1 c1b6
00000110: 7128 64b7 d768 8e36 2c80 a036 08cd 3a35
00000120: 47a6 9838 efb3 3b36 ed36 0a36 1882 f837
00000130: 7476 ffb6 b65c 4b37 a59c d335 b789 2db8
00000140: d0fb 0a36 d7aa cb35 5a57 9436 22b0 8336
00000150: cc69 8b38 ba27 02b7 3695 59b4 0c2a ccb5
00000160: 04a9 2e37 145f 40b7 19d2 8b37 af16 26b7
00000170: 5e4a 44b7 b2be 0435 33e6 8e37 37fe 4a37
00000180: 10c0 51b7 4801 75b7 663e 9a37 0baf 33b8
00000190: 7cc3 b1b7 c024 b8b7 56a0 82b8 c697 68b8
000001a0: 7281 b5b5 b28d 09b6 58eb 8b37 fe65 ab35
000001b0: 9e08 81b6 fe38 a7b7 f725 3cb6 489a 5232
000001c0: a02c 7336 a46a 0eb7 cb9b 4438 6685 4cb8
000001d0: 805e 7038 6423 feb5 1b5f 7a37 2c66 87b7
000001e0: f590 b02d 8946 2a38 d48f 35ae 2706 8930
000001f0: a9c6 2fac a3d6 2f39 cede 06ac 784c 4cb2
00000200: c8ac bdb4 86af b5b7 26f9 8e36 5db0 8fb4
00000210: de68 2938 b219 45b6 b026 ce34 e422 bf35
00000220: 9140 b537 fc77 8d35 c648 ecb7 1265 beb5
00000230: 30f4 d9b7 f1c7 0137 06b6 a838 cc4f 7737
00000240: 0676 dfb6 4067 14b5 44ad f1b6 4c44 1db4
00000250: a6b7 e734 80bd 62b5 3ada ffb7 1ac2 1a36
00000260: 96ff a8b7 e216 b638 8aab 2036 d4c8 3936
00000270: 02db d8b4 8642 81b4 f218 6e37 629a ca38
00000280: 457b cbb6 2c20 efb6 58e9 a335 04d2 6c35
00000290: 2ca0 ff36 001d 2bb6 d801 dc35 2083 4bb5
000002a0: b21e e7b7 3a41 4b36 6a50 8bb7 5e46 90b7
000002b0: b8b6 85b5 d068 6e35 cc3e 2636 1cef fdb6
000002c0: 4ef2 a7b4 e937 7b32 8277 f036 2621 5137
000002d0: a0da 1633 2ed4 d236 8d55 b736 3b1f 36b8
000002e0: d9b2 1ab6 ac46 7fb8 fe58 c836 c4fb c4b5
000002f0: a00a f136 2cb8 a7b4 6a7a 7ab6 e443 06b5
00000300: 02dd 07b6 da98 8bb8 12ae ee37 207f d836
00000310: 8432 b836 13f8 54b6 72c7 c2b5 74ce 82b5
00000320: a045 9536 52c6 16b7 8348 07b7 b776 0836
00000330: ef5d 1e36 dcce 46b7 3005 2b38 299c 90b7
00000340: 1060 89b5 72bd 1c35 f8f9 9b36 5a10 09b7
00000350: 9efa f438 1c68 7fb7 5220 43b6 2313 a0b8
00000360: 9cce bbb4 2b88 ad37 7186 af38 218e e136
00000370: b4d6 4bb5 4086 75b5 9862 4a38 e7cb a9b7
00000380: f064 7caa 5857 8037 5627 cfaa 1636 10b6
00000390: 1869 2db5 5010 1c2c 2a65 14ac ec0a 33b3
000003a0: dae1 a0b6 059d 22b0 0b70 48b1 8423 372f
000003b0: 64a3 2938 9259 5a39 4eb3 872d 50f5 252d
000003c0: bb76 eab5 7696 e135 d817 8d37 908f adb6
000003d0: 87b7 2cb3 ec9b f8b5 72b0 c635 28c5 32b3
000003e0: 7ab1 80b7 937d 4b38 a236 c6b8 8788 0737
000003f0: 28f9 aa36 0c2e 22b5 80c4 a4b7 67c9 6937
9.20968e-07 -1.8588897e-05 4.6464595e-07 3.8828608e-13 8.344326e-09 -2.509196e-12 -1.6936443e-09 -4.161324e-13
8.4960175e-07 1.824659e-07 -7.0750107e-12 3.1408782e-12 1.3401865e-09 -2.3071702e-06 -1.7722551e-10 1.853282e-08
6.370403e-11 -3.708784e-07 5.413366e-06 -3.2279626e-08 -4.3723176e-12 -4.096664e-12 -1.6863076e-12 5.3903077e-05
7.553959e-05 4.6657693e-05 3.103969e-06 7.768363e-07 -3.6195001e-06 -1.8704919e-05 6.367898e-05 -4.4221792e-07
-3.017125e-06 -2.4085968e-05 1.8654613e-05 1.244502e-05 1.612884e-05 9.928104e-06 1.1285883e-05 1.4139881e-05
-6.448206e-05 2.9300489e-05 -4.868084e-07 2.0551797e-06 4.646922e-06 -2.2645113e-06 -6.1875753e-06 -2.8818026e-06
-2.4721694e-05 -1.5531416e-05 -1.8956394e-05 -1.1391712e-06 -3.7079313e-05 1.0467764e-05 -5.791097e-07 5.6342215e-06
-2.7017936e-06 -3.711922e-05 -1.2921642e-05 1.6142518e-05 -4.9884366e-06 -8.937832e-07 -3.349382e-06 4.02906e-05
-1.8180885e-05 1.1000125e-05 -1.9323827e-05 -5.779915e-06 -1.3599275e-05 4.2441347e-06 4.7832928e-06 6.958876e-07
7.2788964e-05 2.7969907e-06 2.0595573e-06 2.9624483e-05 -7.613382e-06 1.2121329e-05 1.5766315e-06 -4.137467e-05
2.0710177e-06 1.51744e-06 4.420913e-06 3.924609e-06 6.647743e-05 -7.757853e-06 -2.0263982e-07 -1.5211422e-06
1.041056e-05 -1.1466229e-05 1.6667926e-05 -9.8996525e-06 -1.1699825e-05 4.945133e-07 1.7034914e-05 1.2099327e-05
-1.2502089e-05 -1.4603436e-05 1.8387287e-05 -4.2839947e-05 -2.1191074e-05 -2.1951622e-05 -6.228748e-05 -5.545446e-05
-1.3523224e-06 -2.0497068e-06 1.6679682e-05 1.2770176e-06 -3.8455028e-06 -1.993449e-05 -2.8036281e-06 1.2258688e-08
3.6235797e-06 -8.488689e-06 4.6875135e-05 -4.8761627e-05 5.730847e-05 -1.8934775e-06 1.4923305e-05 -1.6140832e-05
2.0073257e-11 4.059685e-05 -4.128238e-11 9.96981e-10 -2.4979274e-12 0.00016769259 -1.9166227e-12 -1.189175e-08
-3.5329708e-07 -2.1658616e-05 4.2609345e-06 -2.6764147e-07 4.0390405e-05 -2.9370244e-06 3.839864e-07 1.4240763e-06
2.1606947e-05 1.0540239e-06 -2.816728e-05 -1.4185518e-06 -2.5982124e-05 7.735552e-06 8.044769e-05 1.4740926e-05
-6.6596576e-06 -5.5284545e-07 -7.2025305e-06 -1.464661e-07 4.3160725e-07 -8.446732e-07 -3.0499988e-05 2.306077e-06
-2.0146177e-05 8.6826985e-05 2.3941707e-06 2.7684046e-06 -4.0392484e-07 -2.4076525e-07 1.41917135e-05 9.6608666e-05
-6.064222e-06 -7.1265003e-06 1.2212358e-06 8.8222464e-07 7.6182387e-06 -2.5497866e-06 1.6391814e-06 -7.5814205e-07
-2.755164e-05 3.0287324e-06 -1.6607537e-05 -1.7198905e-05 -9.96245e-07 8.881443e-07 2.477248e-06 -7.5678236e-06
-3.1282474e-07 1.4622835e-08 7.16647e-06 1.2465089e-05 3.5123435e-08 6.2831887e-06 5.4637844e-06 -4.3421267e-05
-2.3051891e-06 -6.0862556e-05 5.9708245e-06 -1.4676411e-06 7.1835966e-06 -3.1240177e-07 -3.7324157e-06 -5.0017684e-07
-2.024521e-06 -6.656507e-05 2.8452869e-05 6.452101e-06 5.489508e-06 -3.173486e-06 -1.4512173e-06 -9.74584e-07
4.4486515e-06 -8.986872e-06 -8.06351e-06 2.033468e-06 2.3598511e-06 -1.1849883e-05 4.077441e-05 -1.7238855e-05
-1.0235253e-06 5.839021e-07 4.64846e-06 -8.1696435e-06 0.00011681508 -1.5223424e-05 -2.9076077e-06 -7.632959e-05
-3.4981792e-07 2.0686615e-05 8.369692e-05 6.7220685e-06 -7.593583e-07 -9.146497e-07 4.8252376e-05 -2.024132e-05
-2.2417116e-13 1.5299462e-05 -3.6797881e-13 -2.1489154e-06 -6.4600454e-07 2.2177989e-12 -2.1088222e-12 -4.168662e-08
-4.794664e-06 -5.9158395e-10 -2.916752e-09 1.6656371e-10 4.044491e-05 0.00020823468 1.542735e-11 9.433634e-12
-1.7468914e-06 1.6807596e-06 1.6819613e-05 -5.1725146e-06 -4.0213788e-08 -1.8522819e-06 1.4803502e-06 -4.1623167e-08
-1.5341433e-05 4.851592e-05 -9.451552e-05 8.078415e-06 5.0954004e-06 -6.041671e-07 -1.9641826e-05 1.3934775e-05

embedding_item_mlp.weight f4 [8, 1024]
00000000: 87c5 2b32 9ad7 c130 1b5c dfb1 503e 1732
00000010: 8451 8daf 1c06 54b1 d89a db31 b005 4fb2
00000020: dcbd 0a32 9a0e 05b1 dadd 6032 e63c 6231
00000030: 829d 84b1 d20d 28b2 6b3d b5b1 d80b 18b2
00000040: c1c2 6eb1 2ea9 b230 5a4a 21b1 d43a 29b1
00000050: 681e 7230 02d9 a4b0 f4b3 1632 2b2a 2832
00000060: 85c1 3d32 cfe8 42b1 2c23 9bb1 d515 9231
00000070: 34e7 4fb0 b421 1f32 15c2 2e31 0c2a b0b0
00000080: 81b5 2eb1 f314 fe30 0f8a 82b2 e98d 16b2
00000090: 2a68 d231 12eb 0bb1 7967 59b2 9a1b cdb1
000000a0: fb12 42b2 ffc9 a0b2 c8eb 4931 2bc6 ab32
000000b0: 7c50 e431 f86a 66b1 cd3d c331 3c84 cab1
000000c0: ab1a 4632 4e1a 0a32 1a33 3db2 a60f 9db1
000000d0: 508b 5cb0 710c bf31 80a0 ab31 8087 1430
000000e0: 0e37 1932 2174 9d31 04bb 0e32 83d5 d831
000000f0: b403 7531 450e 5731 54ba 8d30 76be 7cb1
00000100: dc1a 6bb1 1cfc f531 dcdf 0132 0e38 89b1
00000110: c13c 7fb0 e8b8 622f c837 77b1 3b2b 9531
00000120: 520e 03b1 cc5f e6b1 be96 e5b0 0cef 4632
00000130: 69f9 15b2 9212 01b1 0947 2532 d839 1c2f
00000140: ca20 3831 6278 f130 9b74 9131 3820 5731
00000150: 5e03 9431 86ae c530 28b0 f5b0 de46 99b1
00000160: c885 ddb0 4e5d 7d32 c715 0c32 a245 3231
00000170: 3111 3532 884c dbb1 d29e 1c31 55e5 d6b1
00000180: 1eff 1532 5123 5e30 8de6 45b2 5cef 0831
00000190: 730f 2732 c12d d430 a77f a731 8c43 b0b1
000001a0: 4d23 e4b1 6dd8 2bb2 e075 4b2f ac7a c3b0
000001b0: 960c 32b2 d317 b132 145d 7db1 52c7 a8b1
000001c0: 58b2 8132 c66e 23b1 1af7 bc31 eee2 edb1
000001d0: ee89 ab31 901c b5b2 2e67 8cb1 ccbd 6032
000001e0: d04b 8a32 ce65 c030 4da5 13b2 3c0f d931
000001f0: d026 2b32 c36a 8730 912f 3f32 d970 35b2
00000200: 01c0 9832 aea6 32b2 978e 5f31 03d2 9a31
00000210: 74c1 1932 3ee3 a631 615a 6f32 96ba 82b2
00000220: 2e0f 90b1 6fca 21b1 b46d 0e31 33cc 54b2
00000230: 4011 da2e ae46 fc30 b9cf c7b0 edd6 07b2
00000240: a79c 0eb2 7e0d 1132 d0d4 7ab0 2a02 3a32
00000250: dbc5 85b0 5ef8 b2b0 c67e ae31 77e6 0b32
00000260: fc97 ffb1 3647 ecb1 80da fa2f 08ed 0c31
00000270: 613d 8b31 f8be abb1 78e6 0432 9b4a 24b2
00000280: efee b031 0211 5eb1 30be 2bad fc85 87b1
00000290: 1020 90b2 c211 28b2 aaed 1fb1 9065 10b0
000002a0: a3ef c4b0 73e7 8d31 56ff 40b1 4863 1eb2
000002b0: e67c ce31 0eee 1f32 c5de 0fb1 fb2c 59b1
000002c0: eebe 59b1 a775 82b1 5198 da31 50b5 c3b0
000002d0: 6de3 8932 4c8e 81b1 c29a 9db1 20a9 5331
000002e0: 4548 1db2 6f03 9431 6615 24b2 ac6c ef30
000002f0: 4e21 a131 501b 1032 401c 46b1 344a 5f32
00000300: 5521 0e31 7854 01b2 9051 7eb2 f863 fa30
00000310: 588f 39b0 7724 4c31 c8be 5fb2 a70e afb2
00000320: a6d5 01b2 44fb 1d32 302f 3c30 5595 1db2
00000330: 10ab a6b1 bae2 6c31 d02f 9f2e b325 f631
00000340: 4623 3d32 4701 4932 2077 e5b0 6351 4032
00000350: 4c4a adb1 3452 b031 2a01 2a32 2e46 6131
00000360: cb3d 90b2 99fe 2132 64a8 31b0 f92b 0a31
00000370: 746e 56b1 ad60 8d31 d2b8 37b2 3f80 90b0
00000380: af1d 5c32 43ac 25b2 0470 a632 18ec 4fb2
00000390: 4026 00b1 8a68 c7b1 f561 ed31 7fc1 6ab0
000003a0: 3368 71b1 6490 5db1 7083 e7b1 6616 fb31
000003b0: 8b27 eab1 36ef 0131 be2c ae31 3dce 3db2
000003c0: 474c 0d31 cefc c131 74d1 8332 3fd5 9631
000003d0: 14f4 0732 8e53 14b1 8022 90b1 c28b 1532
000003e0: a64b 0cb2 906b 0232 f273 05b2 74de dcb1
000003f0: 3bd0 2332 1897 c0b0 f70a 0eb2 5f66 17b1
9.9984225e-09 1.4103876e-09 -6.5006254e-09 8.803525e-09 -2.570567e-10 -3.0853533e-09 6.3913426e-09 -1.2050279e-08
8.075826e-09 -1.9362347e-09 1.3088959e-08 3.2921945e-09 -3.859612e-09 -9.782029e-09 -5.2747757e-09 -8.850257e-09
-3.4744263e-09 1.2999288e-09 -2.3470847e-09 -2.4626177e-09 8.8082297e-10 -1.1994248e-09 8.772066e-09 9.788475e-09
1.1045249e-08 -2.8363052e-09 -4.5150923e-09 4.2516413e-09 -7.563472e-10 9.262681e-09 2.5430655e-09 -1.2817636e-09
-2.5423506e-09 1.8486886e-09 -1.5196774e-08 -8.763416e-09 6.1236465e-09 -2.0360784e-09 -1.2654589e-08 -5.969423e-09
-1.1296602e-08 -1.8718309e-08 2.9383376e-09 1.9997136e-08 6.6448234e-09 -3.353021e-09 5.682273e-09 -5.894007e-09
1.15311805e-08 8.038638e-09 -1.1012867e-08 -4.5710804e-09 -8.023351e-10 5.560246e-09 4.9950017e-09 5.4034643e-10
8.91829e-09 4.5825037e-09 8.30801e-09 6.310701e-09 3.5654297e-09 3.129473e-09 1.0312058e-09 -3.677909e-09
-3.4212269e-09 7.1591e-09 7.559688e-09 -3.9935975e-09 -9.2854796e-10 2.0620272e-10 -3.5974939e-09 4.3413855e-09
-1.907115e-09 -6.704772e-09 -1.6704786e-09 1.157947e-08 -8.729651e-09 -1.8782527e-09 9.620416e-09 1.4208668e-10
2.6794162e-09 1.7569273e-09 4.233312e-09 3.1304932e-09 4.3077497e-09 1.4383239e-09 -1.7876163e-09 -4.4609427e-09
-1.6117889e-09 1.4747753e-08 8.154024e-09 2.594199e-09 1.05394955e-08 -6.3824395e-09 2.2791267e-09 -6.2542918e-09
8.730948e-09 8.0813317e-10 -1.151933e-08 1.9926665e-09 9.724192e-09 1.5438034e-09 4.874852e-09 -5.1299534e-09
-6.6396866e-09 -1.00027195e-08 1.850462e-10 -1.4222983e-09 -1.0363825e-08 2.0616346e-08 -3.6869254e-09 -4.9121036e-09
1.5098678e-08 -2.378259e-09 5.4996123e-09 -6.9234067e-09 4.992436e-09 -2.1084162e-08 -4.0862664e-09 1.3081671e-08
1.609979e-08 1.3998773e-09 -8.594111e-09 6.317263e-09 9.962335e-09 9.852886e-10 1.1128479e-08 -1.0561245e-08
1.7782442e-08 -1.0398862e-08 3.2531824e-09 4.5058655e-09 8.949758e-09 4.8570703e-09 1.3932181e-08 -1.5218841e-08
-4.1926773e-09 -2.3543654e-09 2.0726079e-09 -1.2386454e-08 9.9165565e-11 1.8355502e-09 -1.4538194e-09 -7.906903e-09
-8.3011065e-09 8.443179e-09 -9.1251895e-10 1.0827117e-08 -9.733258e-10 -1.3021795e-09 5.078479e-09 8.1432665e-09
-7.4387554e-09 -6.8765997e-09 4.562999e-10 2.0507418e-09 4.0524104e-09 -4.9984656e-09 7.735814e-09 -9.56302e-09
5.1494378e-09 -3.231492e-09 -9.762455e-12 -3.9442494e-09 -1.6778387e-08 -9.782925e-09 -2.3272642e-09 -5.2531224e-10
-1.4328986e-09 4.129953e-09 -2.808482e-09 -9.219384e-09 6.0095884e-09 9.3091455e-09 -2.0935869e-09 -3.1603224e-09
-3.1686187e-09 -3.7968735e-09 6.3619514e-09 -1.423965e-09 1.605232e-08 -3.7705714e-09 -4.5868953e-09 3.0800678e-09
-9.155035e-09 4.3077573e-09 -9.550922e-09 1.7420425e-09 4.689503e-09 8.388113e-09 -2.882885e-09 1.299718e-08
2.0682667e-09 -7.527994e-09 -1.4803291e-08 1.8218307e-09 -6.750631e-10 2.9706635e-09 -1.3023687e-08 -2.0379344e-08
-7.557366e-09 9.195734e-09 6.846106e-10 -9.172557e-09 -4.8506834e-09 3.44714e-09 7.238976e-11 7.163828e-09
1.1009268e-08 1.170003e-08 -1.66958e-09 1.1194376e-08 -5.0434092e-09 5.1316196e-09 9.895567e-09 3.2781702e-09
-1.6791907e-08 9.429322e-09 -6.463152e-10 2.0106639e-09 -3.1203884e-09 4.114631e-09 -1.0694025e-08 -1.0513829e-09
1.2812435e-08 -9.643432e-09 1.9375882e-08 -1.2102667e-08 -1.8648194e-09 -5.803547e-09 6.9087442e-09 -8.540368e-10
-3.5129346e-09 -3.224181e-09 -6.7379275e-09 7.307608e-09 -6.814792e-09 1.8907946e-09 5.069153e-09 -1.1048141e-08
2.056156e-09 5.64578e-09 1.5345655e-08 4.389818e-09 7.913531e-09 -2.158433e-09 -4.194874e-09 8.704719e-09
-8.166273e-09 7.591453e-09 -7.767982e-09 -6.4281327e-09 9.535195e-09 -1.4012782e-09 -8.267981e-09 -2.2031583e-09

embedding_item_mlp.bias f4 [8]
00000000: 835b c2b1 92cf 37b8 d801 b6b4 6b4a d1bd
00000010: 8935 22b8 f4b6 6f34 5a76 9a35 47ea 2933
-5.656547e-09 -4.3823915e-05 -3.3901483e-07 -0.10219272 -3.867367e-05 2.2325167e-07 1.1508339e-06 3.9561453e-08

embedding_user_mf.weight f4 [7700, 8]
00000000: ac97 0000 6460 0000 8e3f 0080 de4f 0000
00000010: 6738 0000 0409 0080 8f6f 0080 e78a 0080
00000020: fe13 0080 cc03 0080 08af 0000 0509 0000
00000030: 7300 0080 0374 0080 501f 0080 5b62 0080
00000040: aa0a 0000 093f 0080 960a d42f 3232 0000
00000050: 771d 0080 2e32 0000 2317 0000 4049 0080
00000060: 0305 0000 9baf 0000 9106 0000 e48a 0080
00000070: 763e 0080 d81a 0080 5e68 71b1 c721 0080
00000080: 2e3c 0000 522d 0080 e22e 0080 2103 0000
00000090: f3bf 0080 3670 0000 5fdc c732 fa06 0080
000000a0: 4a17 0000 fb73 0000 f415 0080 e927 0000
000000b0: ab1c 0000 2bf1 1833 3b00 fcb4 b35d 0000
000000c0: 040a 0080 7815 0000 de7d 0080 4a75 0080
000000d0: 7066 0080 bf15 0080 96eb f435 5f6c 0000
000000e0: 9c9c 0080 0120 0080 5e07 0080 620a 0080
000000f0: 604d 0000 a62f 0080 3b5a c637 c717 0000
00000100: 1f15 0080 7e72 0000 3b11 0000 1cb3 0080
00000110: f114 0080 461a 0000 f21f c1b2 fc55 0000
00000120: 311b 0000 c901 0000 5f28 0000 b224 0000
00000130: 0d30 0000 e210 0080 ecf8 55b0 ea3f 0000
00000140: 8ba8 0000 5072 0080 0b40 0000 1149 0000
00000150: 310e 0000 4c1c 0080 af7c c537 df30 0080
00000160: 6d10 0000 904c 0000 4689 0080 8cc4 10a9
00000170: bf3c 0080 1066 0080 00e4 70b0 6e00 0000
00000180: a610 0080 6407 0080 c47d 0000 2304 0000
00000190: 140e 0000 7ab8 0000 c0af 7fb8 3922 0080
000001a0: ec07 0080 427d 0080 6940 0080 970c 0000
000001b0: d60a 0080 361b 0000 3685 81b1 107d 0080
000001c0: a426 0080 fb19 0000 2302 0000 ad03 0080
000001d0: 0919 0000 b224 0080 67f1 31b5 a71d 0000
000001e0: cb7f 0080 3b76 0080 d343 0000 fd26 0080
000001f0: aa7c 0000 a261 0080 8163 0080 a04f 0080
00000200: 5713 0000 4153 0080 f84b 0080 9821 0000
00000210: 3308 0000 ee0a 0080 3040 a632 8607 0080
00000220: 3616 0080 5b16 0080 503b 0080 540f 0000
00000230: 3418 0080 8c08 39b7 6c34 feae 4d6e 0000
00000240: 6e11 0000 113d 0080 d457 0080 8906 0080
00000250: 6120 0000 d595 0000 a8a5 d5b6 9e53 0080
00000260: 1902 0000 fc75 0000 2590 0000 db1d 0000
00000270: d84e a230 db04 0080 809a 16b0 5b15 0000
00000280: e9a3 0080 6074 0000 683a 0080 338b 0080
00000290: 1c2b 0000 c302 0000 aecb 7ab0 c6af 0080
000002a0: d11b 0000 de40 0080 8188 0000 a04d 0080
000002b0: 0659 0000 4661 0000 9878 4f32 6526 0080
000002c0: a20b 0080 e28e 0080 f650 0000 e38f 0000
000002d0: 839c 0080 0e58 0080 a87c 9235 197b 0080
000002e0: 6595 0000 3803 0080 df11 0080 d8c4 0080
000002f0: 1967 0080 a115 0080 036b 85af fb6f 0000
00000300: 3645 0000 311d 0000 9219 0000 8c19 0080
00000310: f278 0000 1685 0000 26c5 8d31 fa81 0080
00000320: c30c 0000 481d 0000 52c1 0080 7d4d 0000
00000330: 2e11 0080 6135 0000 2ecd 19b1 ac28 0000
00000340: 9304 0000 da1d 0080 d50c 0080 5d3f 0080
00000350: bba1 0000 d418 0080 6672 48b4 f22f 0080
00000360: 5416 0000 922d 0080 0c1e 0080 7d3c 0080
00000370: b480 0080 469d 0080 f66d 91b1 f51d 0080
00000380: 8f50 0000 5304 0080 c38b 0000 c0bc 0080
00000390: b02e 0000 135e 0000 3932 0000 8c6e 0080
000003a0: a628 0080 f222 0080 f133 0080 7e05 0080
000003b0: 0625 0000 5e41 0080 1d02 0000 2f40 0000
000003c0: 8d44 0080 a01d 0000 83aa 0000 f26c 0080
000003d0: 5f7a 0080 510d 0080 29ae bcb4 9a1c 0000
000003e0: ad6d 0080 9440 0080 60ae 0000 b971 0080
000003f0: 3a60 0000 5518 0080 95a7 ffb1 a7c0 0000
5.441e-41 3.4578e-41 -2.2799e-41 2.8651e-41 2.0233e-41 -3.234e-42 -4.002e-41 -4.9829e-41
-7.172e-42 -1.362e-42 6.279e-41 3.236e-42 -1.61e-43 -4.1617e-41 -1.1233e-41 -3.5283e-41
3.826e-42 -2.2613e-41 3.8570097e-10 1.8007e-41 -1.057e-41 1.8001e-41 8.3e-42 -2.6277e-41
1.798e-42 6.2995e-41 2.356e-42 -4.9825e-41 -2.2407e-41 -9.63e-42 -3.5129442e-09 -1.2117e-41
2.1588e-41 -1.6258e-41 -1.6818e-41 1.122e-42 -6.8858e-41 4.0254e-41 2.3266862e-08 -2.503e-42
8.355e-42 4.1606e-41 -7.875e-42 1.4317e-41 1.0284e-41 3.56096e-08 -4.6938825e-07 3.3613e-41
-3.593e-42 7.702e-42 -4.5153e-41 -4.2075e-41 -3.6748e-41 -7.801e-42 1.8247981e-06 3.8876e-41
-5.6181e-41 -1.1481e-41 -2.643e-42 -3.725e-42 2.7757e-41 -1.7093e-41 2.3645456e-05 8.53e-42
-7.577e-42 4.1072e-41 6.181e-42 -6.4252e-41 -7.512e-42 9.425e-42 -2.2482684e-08 3.0845e-41
9.754e-42 6.4e-43 1.4482e-41 1.3164e-41 1.7237e-41 -6.056e-42 -7.784269e-10 2.2928e-41
6.0462e-41 -4.1008e-41 2.2974e-41 2.6211e-41 5.091e-42 -1.0151e-41 2.354229e-05 -1.7532e-41
5.892e-42 2.7465e-41 -4.9244e-41 -3.21449e-14 -2.1792e-41 -3.6613e-41 -8.76355e-10 1.54e-43
-5.972e-42 -2.651e-42 4.5116e-41 1.484e-42 5.05e-42 6.6178e-41 -6.0960418e-05 -1.2277e-41
-2.842e-42 -4.4934e-41 -2.3106e-41 4.516e-42 -3.887e-42 9.761e-42 -3.7695385e-09 -4.4864e-41
-1.3862e-41 9.32e-42 7.67e-43 -1.319e-42 8.981e-42 -1.3164e-41 -6.6288925e-07 1.0637e-41
-4.5843e-41 -4.2413e-41 2.4331e-41 -1.3986e-41 4.4721e-41 -3.5024e-41 -3.5695e-41 -2.8564e-41
6.938e-42 -2.9866e-41 -2.7252e-41 1.2051e-41 2.941e-42 -3.921e-42 1.9354133e-08 -2.699e-42
-7.968e-42 -8.02e-42 -2.1277e-41 5.499e-42 -8.682e-42 -1.1028849e-05 -1.1559895e-10 3.9568e-41
6.253e-42 -2.1906e-41 -3.1507e-41 -2.344e-42 1.1615e-41 5.375e-41 -6.3671796e-06 -2.9996e-41
7.52e-43 4.2325e-41 5.171e-41 1.071e-41 1.180946e-09 -1.742e-42 -5.478924e-10 7.661e-42
-5.88e-41 4.1747e-41 -2.0952e-41 -4.9935e-41 1.5465e-41 9.91e-43 -9.1238916e-10 -6.3056e-41
9.979e-42 -2.327e-41 4.8968e-41 -2.7847e-41 3.1936e-41 3.4895e-41 1.2076406e-08 -1.3773e-41
-4.173e-42 -5.1257e-41 2.9043e-41 5.1617e-41 -5.6146e-41 -3.1588e-41 1.0914127e-06 -4.4159e-41
5.3593e-41 -1.155e-42 -6.411e-42 -7.0614e-41 -3.6984e-41 -7.759e-42 -2.4268595e-10 4.0171e-41
2.4828e-41 1.0472e-41 9.173e-42 -9.164e-42 4.3387e-41 4.7742e-41 4.1260533e-09 -4.6627e-41
4.578e-42 1.0504e-41 -6.935e-41 2.7798e-41 -6.163e-42 1.9149e-41 -2.2381061e-09 1.459e-41
1.641e-42 -1.0709e-41 -4.603e-42 -2.273e-41 5.8018e-41 -8.907e-42 -1.866807e-07 -1.72e-41
8.01e-42 -1.6348e-41 -1.0779e-41 -2.1699e-41 -4.617e-41 -5.6419e-41 -4.2325565e-09 -1.0747e-41
2.8899e-41 -1.551e-42 5.0137e-41 -6.7711e-41 1.6748e-41 3.3747e-41 1.8016e-41 -3.9657e-41
-1.4582e-41 -1.2536e-41 -1.8633e-41 -1.97e-42 1.3282e-41 -2.345e-41 7.58e-43 2.3025e-41
-2.4591e-41 1.0627e-41 6.1168e-41 -3.9082e-41 -4.3898e-41 -4.777e-42 -3.5144447e-07 1.026e-41
-3.9344e-41 -2.3166e-41 6.2554e-41 -4.0796e-41 3.452e-41 -8.729e-42 -7.4405286e-09 6.911e-41

embedding_item_mf.weight f4 [8, 1024]
00000000: 1843 0000 e9ac 0080 ac1e 0080 cd85 0080
00000010: e20d 0000 9e1a 0000 3184 0080 feaa 0000
00000020: d34a 0000 7a47 0080 757e 0080 401d 0000
00000030: 0052 0080 fe0f 0080 c6b5 0000 9c57 0080
00000040: 049d 0080 191b 0080 10bb 0000 ba39 0000
00000050: 115d 0000 4003 0080 3232 0000 e605 0080
00000060: f146 0000 a014 0080 2489 0000 b938 0080
00000070: 5604 0000 8a8a 0000 2210 0080 ad64 0080
00000080: 4942 0000 b4b1 0080 133c 0080 5936 0000
00000090: 0200 0000 ea4e 0080 c8be 0080 eb03 0000
000000a0: 296b 0000 f161 0000 d023 0000 29b0 0000
000000b0: 6a1c 0080 6f5e 0080 d730 0000 a926 0080
000000c0: 875a 0000 c0b9 0000 a474 0080 0f09 0080
000000d0: c239 0000 e110 0080 1c47 0000 9839 0080
000000e0: 359e 0000 3838 0080 c2bd 0080 f465 0080
000000f0: b248 0000 5308 0080 6c4c 0080 096f 0000
00000100: 9b4f 0080 6a44 0080 220e 0080 ce73 0080
00000110: 7926 0080 ea14 0080 2815 0080 2463 0000
00000120: 1449 0080 361f 0080 e97f 0080 3c17 0080
00000130: b55c 0080 90ab 0000 039f 0080 f64b 0080
00000140: 7406 0080 a80d 0080 c03d 0000 9935 0000
00000150: 5abf 0000 4704 0080 284e 0000 2f23 0080
00000160: df2b 0000 a211 0000 d07d 0080 381a 0000
00000170: 1a12 0080 2b01 0080 d60f 0080 8988 0000
00000180: 7d6c 0000 3c27 0000 aa2f 0080 6050 0080
00000190: 3f9f 0080 ce02 0080 1f45 0080 8266 0000
000001a0: 6485 0080 c12b 0000 8155 0080 2f1e 0000
000001b0: 2026 0080 db32 0080 b80b 0080 b708 0000
000001c0: 1704 0080 ae0f 0000 8928 0000 d929 0080
000001d0: 9d2b 0000 8218 0080 0819 0080 4a4c 0000
000001e0: ff33 0000 7fa3 0080 9398 0080 4c2b 0000
000001f0: d4a4 0080 1778 0080 2e51 0000 c003 0000
00000200: 3a85 0000 3a4f 0000 d60f 0000 e728 0080
00000210: 929a 0000 a026 0000 c862 0080 6c5b 0080
00000220: f077 0000 aa50 0080 2087 0080 4f74 0000
00000230: d77f 0080 294a 0000 4815 0000 9f58 0080
00000240: 6368 0000 cb0e 0000 6d60 0080 bc5d 0000
00000250: f972 0080 6a1b 0080 ba3c 0080 4eb5 0080
00000260: 6731 0080 f66a 0080 1935 0080 c946 0000
00000270: 5564 0080 44b8 0000 d72e 0080 0069 0080
00000280: 560d 0000 0036 0080 b54e 0080 1726 0000
00000290: 941f 0000 099b 0000 d64b 0080 291d 0080
000002a0: 344a 0000 a556 0080 022c 0000 e354 0080
000002b0: c438 0000 9a03 0000 3c18 0080 14aa 0080
000002c0: 0408 0080 d736 0000 6344 0080 f5a8 0000
000002d0: 073c 0000 1e56 0000 9f28 0000 76ba 0000
000002e0: 2b17 0000 1d26 0000 7537 0080 2866 0000
000002f0: e549 0080 398f 0080 6b48 0000 6330 0080
00000300: 6986 0000 2859 0000 b809 0080 2102 0000
00000310: 2358 0080 703b 0000 a8bd 0000 ed02 0000
00000320: 0332 0080 b674 0000 b603 0080 e125 0080
00000330: 165b 0000 86bb 0080 8700 0080 1d4b 0000
00000340: 7989 0080 cf0c 0080 4533 0000 e07a 0000
00000350: e15d 0080 4157 0080 b895 0000 330c 0000
00000360: 1a17 0080 fc0a 0080 edb4 0000 25b8 0000
00000370: 2c47 0080 0dc1 0080 ab67 0000 e010 0000
00000380: 3a72 0080 091b 0000 0b5c 0080 f679 0000
00000390: 5f7e 0000 4075 0080 3cbd 0080 e3ae 0000
000003a0: d12c 0000 3b58 0000 a028 0000 5f7b 0080
000003b0: 8130 0000 6245 0080 1e28 0000 8257 0080
000003c0: 8874 0000 e7a0 0080 ed54 0000 7942 0080
000003d0: c979 0080 ba28 0080 2824 0080 b50f 0080
000003e0: 253e 0000 d8b3 0000 f025 0000 1a1f 0000
000003f0: 9c02 0080 9e54 0000 4a75 0080 8cab 0080
2.4069e-41 -6.2028e-41 -1.1003e-41 -4.7999e-41 4.98e-42 9.548e-42 -4.7421e-41 6.134e-41
2.6842e-41 -2.5641e-41 -4.5364e-41 1.0493e-41 -2.9416e-41 -5.737e-42 6.5208e-41 -3.1428e-41
-5.6327e-41 -9.721e-42 6.7105e-41 2.0708e-41 3.3386e-41 -1.166e-42 1.8007e-41 -2.116e-42
2.5449e-41 -7.399e-42 4.9197e-41 -2.0348e-41 1.555e-42 4.9698e-41 -5.787e-42 -3.6116e-41
2.3779e-41 -6.3748e-41 -2.155e-41 1.9496e-41 3e-45 -2.8309e-41 -6.844e-41 1.406e-42
3.8442e-41 3.5135e-41 1.2847e-41 6.3194e-41 -1.0193e-41 -3.3876e-41 1.752e-41 -1.3869e-41
3.2475e-41 6.6635e-41 -4.1843e-41 -3.25e-42 2.072e-41 -6.055e-42 2.5509e-41 -2.0661e-41
5.6754e-41 -2.0167e-41 -6.8072e-41 -3.6574e-41 2.6078e-41 -2.986e-42 -2.7415e-41 3.9832e-41
-2.8557e-41 -2.4542e-41 -5.07e-42 -4.1543e-41 -1.3801e-41 -7.503e-42 -7.59e-42 3.5565e-41
-2.6215e-41 -1.1196e-41 -4.5886e-41 -8.335e-42 -3.3257e-41 6.1545e-41 -5.7043e-41 -2.725e-41
-2.315e-42 -4.899e-42 2.2152e-41 1.9227e-41 6.8644e-41 -1.534e-42 2.8037e-41 -1.2621e-41
1.5738e-41 6.325e-42 -4.5133e-41 9.406e-42 -6.494e-42 -4.19e-43 -5.681e-42 4.898e-41
3.8918e-41 1.4075e-41 -1.7099e-41 -2.8833e-41 -5.7127e-41 -1.006e-42 -2.4796e-41 3.6773e-41
-4.7852e-41 1.5696e-41 -3.0673e-41 1.0828e-41 -1.3677e-41 -1.8244e-41 -4.204e-42 3.126e-42
-1.467e-42 5.625e-42 1.4541e-41 -1.5012e-41 1.5645e-41 -8.792e-42 -8.98e-42 2.7367e-41
1.8653e-41 -5.8651e-41 -5.4733e-41 1.5532e-41 -5.9129e-41 -4.308e-41 2.9122e-41 1.345e-42
4.7793e-41 2.8421e-41 5.681e-42 -1.4673e-41 5.545e-41 1.3856e-41 -3.5436e-41 -3.2796e-41
4.3025e-41 -2.8937e-41 -4.8474e-41 4.1724e-41 -4.586e-41 2.6604e-41 7.634e-42 -3.1791e-41
3.7447e-41 5.307e-42 -3.4591e-41 3.3626e-41 -4.1244e-41 -9.834e-42 -2.1785e-41 -6.504e-41
-1.7722e-41 -3.837e-41 -1.9048e-41 2.5393e-41 -3.5992e-41 6.6102e-41 -1.6803e-41 -3.7667e-41
4.784e-42 -1.9372e-41 -2.8235e-41 1.3664e-41 1.1328e-41 5.5616e-41 -2.7205e-41 -1.046e-41
2.6619e-41 -3.1082e-41 1.5787e-41 -3.0452e-41 2.0364e-41 1.292e-42 -8.694e-42 -6.1013e-41
-2.875e-42 1.9673e-41 -2.4533e-41 6.061e-41 2.1534e-41 3.0893e-41 1.4572e-41 6.689e-41
8.311e-42 1.3672e-41 -1.9894e-41 3.6647e-41 -2.6508e-41 -5.1379e-41 2.5979e-41 -1.7358e-41
4.8217e-41 3.1983e-41 -3.486e-42 7.64e-43 -3.1617e-41 2.1322e-41 6.8036e-41 1.05e-42
-1.7941e-41 4.1868e-41 -1.331e-42 -1.3588e-41 3.2675e-41 -6.7271e-41 -1.89e-43 2.6946e-41
-4.9316e-41 -4.595e-42 1.8392e-41 4.4079e-41 -3.3677e-41 -3.1301e-41 5.3709e-41 4.376e-42
-8.287e-42 -3.94e-42 6.4904e-41 6.6059e-41 -2.5532e-41 -6.9254e-41 3.7189e-41 6.054e-42
-4.0977e-41 9.698e-42 -3.3019e-41 4.3751e-41 4.5333e-41 -4.2061e-41 -6.7885e-41 6.2738e-41
1.6077e-41 3.1651e-41 1.4574e-41 -4.4257e-41 1.74e-41 -2.489e-41 1.4391e-41 -3.1392e-41
4.1804e-41 -5.7721e-41 3.0466e-41 -2.3846e-41 -4.3688e-41 -1.461e-41 -1.297e-41 -5.635e-42
2.2293e-41 6.4516e-41 1.361e-41 1.1157e-41 -9.36e-43 3.0355e-41 -4.2075e-41 -6.154e-41

embedding_item_mf.bias f4 [8]
00000000: 7572 0000 4581 0080 5074 0000 6f9f 0000
00000010: 67af 0080 4217 0080 f844 aa32 e55c 0080
4.106e-41 -4.6373e-41 4.1725e-41 5.7194e-41 -6.2923e-41 -8.343e-42 1.9821968e-08 -3.3324e-41

fc_layers.0.weight f4 [64, 16]
00000000: e034 7032 cc80 2536 4e80 4b37 c4e8 3437
00000010: 64f0 6b30 e26e f5b4 9e2f a5b3 7005 39b4
00000020: e1e5 872b 1ef7 c4b7 706b e134 aff7 87b2
00000030: 6073 18b1 5ca6 252e 3e8e 1db0 3d3d 21ae
00000040: b699 2b31 7f4e 92b8 9162 9e33 2a83 2636
00000050: 80ab abb4 3d0f c838 3dab 4937 15a8 dbb6
00000060: d938 47ac 1bcf 3cb4 9cf6 a030 086b 20b5
00000070: 621d 54b3 646d 5030 1219 96b2 3c86 9eaf
00000080: 9e7e be34 4e6f 5bb4 0c6d cab6 0bc1 3434
00000090: 73c5 21b5 2030 7331 42b9 7436 6827 3cb2
000000a0: 7043 b22a f21f b1b0 92d3 382f 184d d432
000000b0: 3ae3 1c31 2baa e62d 5d49 1dae 8c8c 02ad
000000c0: bb80 4133 f01c 4032 6312 0534 8605 3db7
000000d0: 5b6c 8a33 c7df 03b5 0264 4632 2563 4bb4
000000e0: 7c08 aeac 384a 37b3 3ed6 2931 f5eb 4ab6
000000f0: 55f8 33b3 82f9 932f aa0a dbb0 98eb 942e
00000100: 6cec 8732 8595 8ab3 abe4 d1b8 40fb 672d
00000110: cb96 feb1 807b 1538 bc2e 2bb7 095d 58b4
00000120: d802 882c b096 4eb6 ec0d 8436 a711 ea34
00000130: 5a8f e8b2 ff2b f82e d49b 3630 f21b 4c2f
00000140: a0c9 8834 664f 9137 c0f4 bbb6 34b6 af36
00000150: 7532 deb8 0e3d 88b1 d0f0 6d35 eb90 7bb7
00000160: 44e3 2328 e064 1f30 4744 81ad f588 dbb0
00000170: f51f 12b0 ccea 0f2c 5ffd ee2d 0a2e 282c
00000180: 92df 0fb7 a28b 82b7 60af adb0 9c13 6d31
00000190: 4528 cbb2 c524 9137 2d86 97b1 faf4 75b0
000001a0: 68cd 6129 f8e9 24b0 dfa1 8aae d817 c32f
000001b0: c679 95b0 277b 4ead 6220 ea2e 70b3 5aaa
000001c0: 8234 22b1 4c65 5531 2c3a 9bb6 cb5e 78b7
000001d0: da47 2daf 7cc9 60b1 1680 33b8 155a 95b4
000001e0: 2005 f333 55dd 3231 18a0 0f2d 4d21 84b3
000001f0: 2c74 e52f f645 60ae 144c 45ad 4072 cbac
00000200: b6a2 25b1 9e0d 0eb3 02b6 0eb3 508e bb34
00000210: 386d 67b6 2a1a 812f 1628 a136 dadc 5f36
00000220: a632 a3ac 9aa5 3138 f3f9 0bb5 0440 bbb4
00000230: 940e b1b2 0e39 292f 82ba a3af 0821 8fad
00000240: 3f60 b7b5 80ac 3eb6 a596 c932 6371 1337
00000250: 723b 8fb0 aee5 ffb2 2273 8032 2e07 85b4
00000260: f4cd 76a9 6e36 9631 bc1f 08af aef9 aab2
00000270: 5ded 24b1 2f22 78ad abd1 03af 3e93 162e
00000280: d11b dc36 84f0 7734 c2b2 c331 cf3c 1a33
00000290: b783 44b4 de6e 1eb6 7e5a 91b6 c0f9 0034
000002a0: 2664 b329 09c1 8daf 581e 62ae f93d 32b2
000002b0: 522a 182f c1fc 63ad 1621 3d2e aa03 4c2b
000002c0: b622 f4b4 c61a 9835 c0bc 2d35 bb95 7338
000002d0: ff72 1c37 742c ef31 1614 3232 3c06 7d36
000002e0: 698f 8d29 72c8 97af c16c 232e 9b91 bbb1
000002f0: 802e f02b 70e9 11ac 3494 a4ad 891c b9ab
00000300: 0753 e131 137a 87b1 28f4 7b34 e818 a737
00000310: f4fa 9a33 f9b5 2b34 5629 cc32 7a8e 93b7
00000320: 1ca5 0eab e873 24b0 67f9 f82e df6d c132
00000330: 5863 38af 1a75 882d dec8 9eae fcff 2eab
00000340: febc d7b0 ece5 012f d6c6 f1b5 ad8a b2b0
00000350: 486d 4bb1 650d f3b8 4531 0734 8ccc 4537
00000360: 3383 562c 385c 1037 1760 8fb4 88a8 ffb4
00000370: ca80 bb33 a8dd 222f cbed 2131 a0af 83ae
00000380: 63bd 0d31 1060 0ab4 4e9f d8b3 8e51 7530
00000390: 80f7 6ab4 1678 5d30 4132 7bb6 6469 4e34
000003a0: 514c 0b2c ab0b 4631 292d 31b0 4b59 4ab4
000003b0: 9b82 1c31 00a5 69ae d66e 0130 94eb f4ad
000003c0: 2238 8435 c074 d436 368f 9532 618e 60b6
000003d0: bad3 2db6 199e 69b2 b84b a0b7 0c20 5534
000003e0: f370 ddaa 3497 44b1 e0f8 1dad b118 5333
000003f0: 6c32 9931 c46d 90ad b507 0f2f 4b27 1daf
1.3981861e-08 2.4661886e-06 1.2129616e-05 1.0783031e-05 8.583412e-10 -4.5715484e-07 -7.692073e-08 -1.7231446e-07
9.656131e-13 -2.3480094e-05 4.1987687e-07 -1.5828702e-08 -2.2184494e-09 3.7664413e-11 -5.7318406e-10 -3.6661552e-11
2.497115e-09 -6.9764435e-05 7.3753775e-08 2.4812275e-06 -3.1976015e-07 9.5395815e-05 1.2020403e-05 -6.546276e-06
-2.8311158e-12 -1.7584209e-07 1.1711623e-09 -5.9760396e-07 -4.938682e-08 7.582541e-10 -1.7473699e-08 -2.8835412e-10
3.5482384e-07 -2.0436457e-07 -6.032764e-06 1.6834035e-07 -6.02645e-07 3.538851e-09 3.6466668e-06 -1.0952e-08
3.1665946e-13 -1.2887524e-09 1.6809867e-10 2.4715106e-08 2.283015e-09 2.6223542e-11 -3.5762827e-11 -7.420852e-12
4.5053394e-08 1.11824505e-08 1.239328e-07 -1.1266564e-05 6.4458355e-08 -4.912694e-07 1.1547856e-08 -1.8941917e-07
-4.9463194e-12 -4.267551e-08 2.471452e-09 -3.023769e-06 -4.1902542e-08 2.691643e-10 -1.5937378e-09 6.7721107e-11
1.582358e-08 -6.453323e-08 -0.00010008489 1.31866185e-11 -7.409516e-09 3.5639387e-05 -1.0203275e-05 -2.0150414e-07
3.865668e-12 -3.0784104e-06 3.9355273e-06 4.359874e-07 -2.7073543e-08 1.12855496e-10 6.643266e-10 1.856362e-10
2.5478676e-07 1.732232e-05 -5.601527e-06 5.2366177e-06 -0.00010595183 -3.965062e-09 8.863981e-07 -1.4994507e-05
9.097598e-15 5.7987215e-10 -1.4695923e-11 -1.5973273e-09 -5.3159904e-10 2.045186e-12 2.7169987e-11 2.3899793e-12
-8.575518e-06 -1.556223e-05 -1.2637251e-09 3.4499186e-09 -2.3650623e-08 1.730247e-05 -4.4099324e-09 -8.9478613e-10
5.0138198e-14 -5.999534e-10 -6.3042675e-11 3.5487235e-10 -1.0875787e-09 -1.173709e-11 1.06468404e-10 -1.9424544e-13
-2.360395e-09 3.105316e-09 -4.626132e-06 -1.4804023e-05 -1.5759785e-10 -3.271082e-09 -4.2796215e-05 -2.7818956e-07
1.13165015e-07 2.6028222e-09 8.164157e-12 -6.1527864e-08 4.1737402e-10 -5.099384e-11 -1.1215046e-11 -5.7822913e-12
-2.410315e-09 -3.3074336e-08 -3.3227487e-08 3.493501e-07 -3.4485256e-06 2.3483554e-10 4.8028405e-06 3.3358142e-06
-4.6383617e-12 4.2354317e-05 -5.214526e-07 -3.4878042e-07 -2.0612141e-08 1.539073e-10 -2.978205e-10 -1.6271887e-11
-1.3662574e-06 -2.8412614e-06 2.3467985e-08 8.788283e-06 -1.0421515e-09 -2.9790353e-08 1.4953518e-08 -2.4778404e-07
-5.480161e-14 4.3717625e-09 -1.2380402e-10 -1.9904146e-08 -2.4000066e-09 -1.4104758e-11 -1.198887e-10 3.423683e-11
6.559749e-06 2.3091167e-07 5.6955693e-09 3.5911224e-08 -1.830184e-07 -2.3608368e-06 -4.3318714e-06 1.2011787e-07
7.96657e-14 -2.578491e-10 -5.14134e-11 -1.0375055e-08 1.3839355e-10 -1.2959579e-11 4.300301e-11 7.2480444e-13
-4.5473797e-07 1.1332675e-06 6.472219e-07 5.8075162e-05 9.325099e-06 6.960869e-09 1.0365531e-08 3.7703567e-06
6.2865356e-14 -2.7609165e-10 3.7158502e-11 -5.4589697e-09 1.7065932e-12 -2.0735323e-12 -1.8710457e-11 -1.3152961e-12
6.557801e-09 -3.9428953e-09 2.346502e-07 1.991955e-05 7.216832e-08 1.5991817e-07 2.3767523e-08 -1.7590111e-05
-5.067767e-13 -5.9827565e-10 1.1322037e-10 2.251812e-08 -1.6769997e-10 1.5513413e-11 -7.220689e-11 -6.217247e-13
-1.5697024e-09 1.1814166e-10 -1.8013768e-06 -1.2990619e-09 -2.9602507e-09 -0.00011589638 1.2590779e-07 1.178974e-05
3.048406e-12 8.60454e-06 -2.670574e-07 -4.7620074e-07 8.731293e-08 1.4812562e-10 2.3563753e-09 -5.9883876e-11
2.0625854e-09 -1.2887199e-07 -1.0087261e-07 8.9246377e-10 -2.1882988e-07 8.0569984e-10 -3.7431166e-06 1.9223586e-07
1.9795452e-12 2.8819425e-09 -6.44564e-10 -1.88452e-07 2.2775228e-09 -5.3124616e-11 4.7087434e-10 -2.7844206e-11
9.851103e-07 6.331684e-06 1.7411008e-08 -3.3461477e-06 -2.590225e-06 -1.3598332e-08 -1.9108746e-05 1.984883e-07
-3.933586e-13 -2.8607703e-09 -8.979678e-12 4.9149723e-08 4.4586184e-09 -1.641965e-11 1.3008512e-10 -1.4293026e-10

fc_layers.0.bias f4 [64]
00000000: 5a86 1d33 3d4c 88b4 5409 b432 b206 3334
00000010: c322 1435 4596 dab0 dbcd 99b2 2197 0e32
00000020: 1db2 1334 5e0b 91b2 59b6 b930 450f 6fb1
00000030: 6a11 8932 30f1 acb3 2ae0 1934 78c0 8fb1
00000040: 3424 323d 757e b131 5ab5 0034 0ccb b938
00000050: 26bf 5d31 582e c631 868d d237 342c 19b1
00000060: b563 7432 c080 0a32 2947 13b2 a691 013d
00000070: 54ec 0430 e51c 1e3d fb96 0133 0830 523c
00000080: c1ed 23b3 e875 5bb2 fca4 8738 642c 75b2
00000090: 2583 4c35 a83d 4d2f b53e 1ab3 c2b8 1930
000000a0: ecfc 3936 e10d 3b3d b481 16b3 d0cc 54b3
000000b0: 5688 c035 1c2e bd36 e736 1d3c 9d7f 543d
000000c0: 1b88 38b3 9a84 5236 6ca2 7a3c 7474 ba3c
000000d0: f8ff d836 4e62 edb6 59b7 0631 fec0 f032
000000e0: a4bf 9cb3 728d 1ab2 fa2a 9635 90df d2b5
000000f0: 64a4 0d3d 4659 b937 d086 8fb1 4627 4b34
3.6676603e-08 -2.5387445e-07 2.0959e-08 1.667311e-07 5.518488e-07 -1.5904297e-09 -1.7905156e-08 8.299851e-09
1.3755239e-07 -1.688539e-08 1.3512348e-09 -3.4787757e-09 1.5956818e-08 -8.053246e-08 1.4330786e-07 -4.183729e-09
0.043491557 5.1657545e-09 1.1986904e-07 8.859308e-05 3.2268388e-09 5.767827e-09 2.5099853e-05 -2.2289557e-09
1.422534e-08 8.061932e-09 -8.572706e-09 0.03163304 4.835716e-10 0.038601775 3.017247e-08 0.012828834
-3.816763e-08 -1.27742865e-08 6.4680324e-05 -1.427097e-08 7.618676e-07 1.8666546e-10 -3.591295e-08 5.592363e-10
2.7714368e-06 0.045667533 -3.504256e-08 -4.9546372e-08 1.4344794e-06 5.6380068e-06 0.009595609 0.051879514
-4.2964626e-08 3.1369623e-06 0.015297513 0.022760607 6.4671003e-06 -7.0745946e-06 1.9603787e-09 2.802744e-08
-7.299175e-08 -8.996141e-09 1.1188379e-06 -1.5711285e-06 0.034580603 2.209529e-05 -4.177174e-09 1.8920136e-07

fc_layers.1.weight f4 [32, 64]
00000000: 9331 37b2 b535 6835 32c7 7ab1 5bd5 9335
00000010: 2403 b634 a877 a9af ddbb 8c32 2650 f332
00000020: 0ce6 b9b3 f6af b0b1 f53a 7f31 9b4d fd30
00000030: caed 53b1 4316 2fb3 dc4c 5634 2ec7 a632
00000040: 834b 043e fc4f 6d31 3022 3134 e513 2237
00000050: 2886 0032 c162 9e32 aafe b436 3430 432e
00000060: 4474 a032 02e1 f932 1e46 a131 7907 c23d
00000070: 781d 2331 ff91 eb3d 32fd 9033 9593 243d
00000080: 3ade 5a34 701e 18b1 6c65 ff37 ff0a 7a32
00000090: 0bea 7c36 156c 232f 32d7 9131 7811 bb31
000000a0: aea2 41b6 bab3 0a3e f263 3c34 5c8f a3af
000000b0: 3142 b6b3 91dc 2837 da53 fc3c f363 1d3e
000000c0: 00c7 5930 e876 3e37 2d22 423d 5900 8d3d
000000d0: 28c2 e2b6 4186 f8b6 3d10 16b0 7319 5532
000000e0: 0fa3 9932 e307 70af 64a4 d035 e707 6337
000000f0: 2596 d33d fa70 e736 cc8a 64b1 d1d9 a134
00000100: 49a9 12ae 0c1b e2b1 2ee4 34b8 6560 89a8
00000110: 5223 0135 beba 3133 0ce5 2d33 6bf1 222f
00000120: 54e4 35b0 2892 c0b4 90ab 05b8 b56e afb5
00000130: 69dd bfb6 3c1c a831 7c52 2231 c4ad 0839
00000140: d112 2831 1a1c 1034 8093 bd32 a017 ceb5
00000150: 80d7 74aa 9c76 ba35 c620 9cb6 b2f0 57b6
00000160: 0016 5aae 0083 b2ad ddee 9835 616f 0f31
00000170: 78ca 4fb6 f230 1f31 dec4 1538 270a ba30
00000180: a9c7 a9af 5cb9 8431 da14 a035 bf16 1eb4
00000190: 827f 7429 13ca 7636 3802 ef37 f5fd dbaf
000001a0: a8d6 b1b4 6692 2b31 6c17 66ae aca6 2fb1
000001b0: 402a 7b2c a02f 3e2f 5aa2 9e30 9ef7 3331
000001c0: 2b6d f5ad 7f7d 6733 b03c c930 cc44 ed30
000001d0: b46b f52b a4c9 18b4 9e06 9134 943b 3eb6
000001e0: 2014 33b1 8285 38b5 b464 cfb6 2989 34b3
000001f0: f042 1631 00d3 36b2 66c7 4432 f64a f0b0
00000200: 41c8 dfb2 7226 1c35 6aa5 f630 a3cd e034
00000210: 18af a8b4 4919 5fb0 4795 33b1 8852 3532
00000220: 2fa4 31b4 0110 0432 d979 5e2f c0d9 0331
00000230: 1411 2631 c2a2 0834 08ae f333 fb4f 88b2
00000240: 655c 633d 78b6 3631 d4da 3234 c26e 7cb7
00000250: c1e6 7031 43a4 8032 4c4e 71b7 e385 d3ae
00000260: 87f5 f332 eb22 ae32 e800 28b2 ffda 263d
00000270: 3093 9430 b672 4a3d 3ebe 4f33 1b4e 8f3c
00000280: 8244 0234 18c8 8bb0 0edb 00b9 ea20 8a31
00000290: 731d ce35 6e97 8a2f 619a e8b1 79a1 3331
000002a0: 16e7 9135 425f 6e3d fd19 8433 6c52 a32f
000002b0: 9662 5eb4 a958 9836 2a7c 5d3c 4643 873d
000002c0: 0ad8 8730 6dc8 8036 3665 a83c 9e24 f33c
000002d0: 321b f537 a971 9536 9c94 4c30 6d23 2733
000002e0: 2c9e 4f32 607d b8af fd3b 9c35 4952 8736
000002f0: 26e3 353d 4858 a736 04e1 9a30 a97d 5e34
00000300: 8548 0000 6ba1 0080 159b 0000 5d27 0080
00000310: d14b 0080 a71c 0000 6129 0000 f728 0000
00000320: e659 0000 8a1d 0000 e581 0000 5f6a 0000
00000330: e309 0080 f479 0080 161e 0080 0099 0000
00000340: 826a 0000 ec63 0080 a805 0080 f198 0080
00000350: 21a1 0080 1d2d 0080 b113 0080 3652 0080
00000360: 6b8b 0080 c024 0080 f97c 0000 8c29 0080
00000370: 19a5 0000 740f 0000 2179 0080 fb5e 0080
00000380: c494 0080 ee68 0080 8b47 0080 8ab4 0000
00000390: 0462 0080 b72d 0080 1541 0080 7e88 0080
000003a0: 8220 0080 9b0f 0080 b973 0080 df7d 0080
000003b0: 9409 0000 840e 0000 96a2 0080 3433 0080
000003c0: 6e82 0000 2a80 0080 3196 0080 2508 0080
000003d0: 6aa2 0080 25c1 0080 1d68 0080 5828 0080
000003e0: 4061 0000 11b4 0080 b341 0000 0033 0080
000003f0: 3d31 0000 cb1d 0080 1a35 0080 eabf 0080
-1.0663274e-08 8.650489e-07 -3.6493017e-09 1.1014448e-06 3.3902427e-07 -3.0825942e-10 1.6383575e-08 2.832537e-08
-8.656579e-08 -5.1422786e-09 3.7140897e-09 1.843023e-09 -3.0839709e-09 -4.076561e-08 1.9958264e-07 1.941552e-08
0.1291943 3.4533505e-09 1.6496847e-07 9.6605845e-06 7.481084e-09 1.8438529e-08 5.394065e-06 4.438068e-11
1.8679323e-08 2.9089737e-08 4.693688e-09 0.094740815 2.3736373e-09 0.11502456 6.7515785e-08 0.040179808
2.0383678e-07 -2.2136213e-09 3.0445597e-05 1.45544155e-08 3.7687157e-06 1.4863162e-10 4.2445203e-09 5.4444023e-09
-2.8853933e-06 0.13545123 1.7545224e-07 -2.975139e-10 -8.4870756e-08 1.0064935e-05 0.030801702 0.15370159
7.9226936e-10 1.13525675e-05 0.047395874 0.06884832 -6.7579276e-06 -7.406605e-06 -5.459276e-10 1.2404018e-08
1.7885695e-08 -2.1830675e-10 1.5545052e-06 1.3532094e-05 0.10331372 6.8974887e-06 -3.3257264e-09 3.014707e-07
-3.3346912e-11 -6.5805406e-09 -4.3127853e-05 -1.525186e-14 4.810764e-07 4.1380865e-08 4.048802e-08 1.4819583e-10
-6.617189e-10 -3.586913e-07 -3.186945e-05 -1.3070736e-06 -5.718019e-06 4.8926534e-09 2.362099e-09 0.00013034703
2.4457913e-09 1.3421268e-07 2.2069571e-08 -1.5355072e-06 -2.174632e-13 1.38926e-06 -4.6529776e-06 -3.21776e-06
-4.9587e-11 -2.0294433e-11 1.1394401e-06 2.087255e-09 -3.0963256e-06 2.3165367e-09 3.5707715e-05 1.3536167e-09
-3.0882788e-10 3.8627785e-09 1.1926998e-06 -1.4723172e-07 5.428948e-14 3.677448e-06 2.8492053e-05 -4.0016315e-10
-3.3125002e-07 2.4966993e-09 -5.2316748e-11 -2.5560594e-09 3.5692699e-12 1.7297319e-10 1.1542156e-09 2.6188682e-09
-2.7901756e-11 5.3898017e-08 1.4641923e-09 1.7263573e-09 1.7438191e-12 -1.422946e-07 2.701317e-07 -2.8346885e-06
-2.6059368e-09 -6.873962e-07 -6.180804e-06 -4.2034262e-08 2.1865922e-09 -1.064177e-08 1.14540395e-08 -1.7483603e-09
-2.6051682e-08 5.8170474e-07 1.7945869e-09 4.1872872e-07 -3.1419836e-07 -8.116286e-10 -2.6132783e-09 1.0554352e-08
-1.6544139e-07 7.68705e-09 2.0234071e-10 1.9186785e-09 2.4165887e-09 1.2725198e-07 1.13472254e-07 -1.5868855e-08
0.055508036 2.6588207e-09 1.6657151e-07 -1.5046158e-05 3.5055765e-09 1.4975859e-08 -1.4382949e-05 -9.618952e-11
2.8400576e-08 2.0272145e-08 -9.779093e-09 0.040736195 1.081025e-09 0.049425803 4.8368967e-08 0.017493298
1.2132116e-07 -1.0170451e-09 -0.00012288635 4.0200705e-09 1.5356767e-06 2.520965e-10 -6.7696395e-09 2.6139715e-09
1.0870597e-06 0.058196314 6.151456e-08 2.9708092e-10 -2.0711227e-07 4.5402744e-06 0.013518373 0.06604628
9.883945e-10 3.83803e-06 0.020556074 0.029680546 2.921894e-05 4.453778e-06 7.4425954e-10 3.8914937e-08
1.208495e-08 -3.355849e-10 1.1640365e-06 4.032893e-06 0.04440608 4.987265e-06 1.1268928e-09 2.0721076e-07
2.6015e-41 -5.7906e-41 5.5633e-41 -1.4121e-41 -2.7198e-41 1.0279e-41 1.4844e-41 1.4695e-41
3.225e-41 1.0597e-41 4.6597e-41 3.8159e-41 -3.547e-42 -4.3749e-41 -1.0793e-41 5.4886e-41
3.8208e-41 -3.5845e-41 -2.029e-42 -5.4865e-41 -5.7802e-41 -1.6184e-41 -7.064e-42 -2.9492e-41
-5.0014e-41 -1.3183e-41 4.4832e-41 -1.4904e-41 5.9226e-41 5.544e-42 -4.3453e-41 -3.4073e-41
-5.3367e-41 -3.7642e-41 -2.5665e-41 6.4765e-41 -3.5161e-41 -1.64e-41 -2.3347e-41 -4.8964e-41
-1.1662e-41 -5.598e-42 -4.1513e-41 -4.5154e-41 3.436e-42 5.207e-42 -5.8325e-41 -1.8368e-41
4.679e-41 -4.5977e-41 -5.3879e-41 -2.922e-42 -5.8263e-41 -6.9287e-41 -3.7349e-41 -1.4473e-41
3.4887e-41 -6.4596e-41 2.3568e-41 -1.8295e-41 1.7663e-41 -1.0688e-41 -1.9049e-41 -6.8846e-41

fc_layers.1.bias f4 [32]
00000000: 3857 853c e66a 8f30 6494 053c feac 0080
00000010: ef02 0000 ced8 83b2 d372 0080 6fe7 a733
00000020: 044b 2d32 bac9 86b4 c030 79b7 df0c 903c
00000030: c132 a33c 195d 0080 c2cd c7b2 b10d 0080
00000040: 4606 0080 1aaa 6939 a42b 0000 a49a ea39
00000050: 2153 0080 a65a 9a3c 9d11 0080 623e a23c
00000060: 00fb 8e3b ce39 0000 400b 86b9 33a5 bd3c
00000070: 0dd0 1333 962f 9933 1452 9c33 8a11 0080
0.01627694 1.0435002e-09 0.008153055 -6.2058e-41 1.052e-42 -1.5348999e-08 -4.1191e-41 7.818641e-08
1.0086982e-08 -2.510622e-07 -1.4852907e-05 0.017584262 0.019921662 -3.3397e-41 -2.3260217e-08 -4.912e-42
-2.25e-42 0.0002228398 1.5655e-41 0.00044747174 -2.9821e-41 0.018842053 -6.318e-42 0.019805137
0.0043634176 2.0736e-41 -0.00025566854 0.023150062 3.4415326e-08 7.1332735e-08 7.279246e-08 -6.292e-42

fc_layers.2.weight f4 [16, 32]
00000000: e2c5 e833 d2c2 13ac 3508 a434 c530 0000
00000010: 171f 0000 ac94 642c 6084 0000 1ec6 32b2
00000020: 3224 c037 acbe cab6 6840 5e35 b852 fbb2
00000030: ee7f aab4 7367 0080 0247 8fb5 851c 0000
00000040: 612c 0000 82e3 33b6 42bf 0080 fab6 deb5
00000050: 23b9 0080 9fa0 49b4 ae4a 0080 c36b a3b4
00000060: 40a9 abb2 6664 0080 5102 b7b5 e3f2 16b5
00000070: 5223 72b7 8ece ce38 fa77 d3ae 39a4 0080
00000080: a6f8 2233 b8fb f324 163c 9a32 cfb3 0000
00000090: 114e 0080 0d58 a6b0 d138 0000 3647 18a9
000000a0: b2b5 a828 7cce 3daf 6f8b 4c38 25e7 2a33
000000b0: f32e 3933 ef74 0000 d378 c52c 268e 0080
000000c0: 8577 0080 5308 9eb0 8200 0000 4088 b12d
000000d0: 7677 0080 8a62 3233 ae56 0080 d26c 3833
000000e0: 8a74 2732 4d56 0080 383a d6b3 cbcc 5033
000000f0: 00a1 a5af 7b62 82aa a85f e437 2803 0000
00000100: 7448 2033 f8bb 8db4 7bee 1c32 cb6b 0000
00000110: 6b7e 0080 ccab a1b3 6104 0080 2e24 58b3
00000120: 2ce7 0337 687e 06b0 1c15 7ab0 4b0e 3033
00000130: b3be 4133 1582 0080 dbe9 052a 3087 0080
00000140: 7d36 0000 4cfd 4eb3 a43f 0000 1b32 8f38
00000150: f402 0000 09d0 3a33 c03a 0080 8004 4133
00000160: 90af 1baf ae4a 0080 c28b 7eaf 7b0d 5f33
00000170: ba32 0dab c8b4 6432 47cd 08af fa84 0080
00000180: c337 423e 00fa e630 be95 a63d 7832 0080
00000190: 1412 0080 a0ae e832 5984 0000 82ae dfb2
000001a0: ef1c 2e33 1679 d933 2f2e 9839 856d 543e
000001b0: 4fe3 743e 0103 0000 d7a5 7734 7f68 0000
000001c0: d839 0000 e3d6 c53a e315 0000 f0fa b7b9
000001d0: 2e88 0000 cae9 653e 386c 0000 fa45 733e
000001e0: b2e0 213d 144e 0000 3e5a d338 a7b9 903e
000001f0: 3aa1 1b33 fac2 edb4 d0fe 7ab4 c66f 0000
00000200: 0864 a031 e04d d731 c84c 1a31 ba00 0000
00000210: 684e 0080 ee84 93b3 2e96 0080 f049 3c2f
00000220: 128e 8d2d da54 7eb6 09f7 8eb3 c01b 53b2
00000230: 7031 dcb2 ba07 0000 90d8 212c f671 0000
00000240: 4589 0000 ea5b a736 148c 0000 d6cf 3db1
00000250: 1138 0080 3f57 bcb2 c345 0000 8f3b dab2
00000260: bd7a 93b2 dfa3 0080 6ead 3eb1 82c0 b6b2
00000270: 9191 0231 4bbf f1b3 56e9 0737 6e37 0080
00000280: 2872 9c32 ec78 e834 2e84 1932 aa38 0080
00000290: a343 0000 87d4 0030 bb16 0080 c245 71af
000002a0: b705 97b3 ec85 44b6 7800 bdb7 3de9 b032
000002b0: 90ba c832 7513 0080 8ac5 062f b36e 0080
000002c0: cb4c 0000 33fc 8db1 0a00 0000 272c 02b4
000002d0: f0c3 0000 5c60 bf32 1018 0080 54ce c732
000002e0: b422 ac30 3637 0080 9d5b 93b4 deda bb32
000002f0: 80ec fc34 1c8c 9231 7a4f 27b4 620e 0000
00000300: 927b a3b2 aac5 f8ae bd37 9032 8a06 0000
00000310: 5da0 0080 fa28 97b5 8b26 0080 e0d8 79b8
00000320: 3456 d7b3 8073 b72d 6ab6 23b2 3059 0bb3
00000330: ce6b 58b3 9565 0000 fa8c a8b5 7d3f 0000
00000340: da40 0000 5ada 70b8 6aa0 0000 3e1d 90b4
00000350: cebd 0000 2822 39b3 a63f 0000 4c67 55b3
00000360: b117 7732 019c 0000 a421 0f36 d148 86b3
00000370: eb03 b435 6083 95ad 74ef 5530 7f5e 0000
00000380: f818 ce30 5ac6 d836 953d 86b0 b261 0080
00000390: 0e4e 0080 d8a7 9633 8f85 0080 26e1 6a32
000003a0: a6f5 61b5 a971 c4b2 a086 b8b5 9266 0c31
000003b0: 613e d630 f914 0000 12f4 7131 d29c 0080
000003c0: 77be 0000 9cae 4331 7904 0080 0a48 5135
000003d0: 3c86 0080 8988 0a31 9332 0000 4374 de30
000003e0: 785c c82d 5732 0000 9a2e 1db1 18fa 8b30
000003f0: 46a5 0e39 e254 99b2 0ca5 b232 60ab 0000
1.08393365e-07 -2.0998103e-12 3.0553352e-07 1.7495e-41 1.1153e-41 3.2483278e-12 4.7487e-41 -1.040601e-08
2.2905038e-05 -6.0422663e-06 8.279517e-07 -2.9257862e-08 -3.175805e-07 -3.711e-41 -1.0674996e-06 1.0231e-41
1.592e-41 -2.6805506e-06 -6.861e-41 -1.6593542e-06 -6.6415e-41 -1.8778017e-07 -2.679e-41 -3.0439523e-07
-1.9983986e-08 -3.6016e-41 -1.3635237e-06 -5.62328e-07 -1.4432548e-05 9.861319e-05 -9.616481e-11 -5.8912e-41
3.794471e-08 1.0581088e-16 1.7955283e-08 6.4503e-41 -2.8005e-41 -1.2103115e-09 2.0382e-41 -3.3812546e-14
1.8730545e-14 -1.7262808e-10 4.8767248e-05 3.9791434e-08 4.311637e-08 4.1948e-41 5.612491e-12 -5.0993e-41
-4.2876e-41 -1.1498379e-09 1.82e-43 2.0183077e-11 -4.2855e-41 4.1533475e-08 -3.1095e-41 4.293981e-08
9.747177e-09 -3.0959e-41 -9.9757415e-08 4.8615032e-08 -3.0127723e-10 -2.3160973e-13 2.7224261e-05 1.132e-42
3.73188e-08 -2.6400062e-07 9.134619e-09 3.8669e-41 -4.535e-41 -7.5283964e-08 -1.571e-42 -5.0324324e-08
7.862032e-06 -4.892855e-10 -9.097947e-10 4.0991193e-08 4.5109754e-08 -4.6665e-41 1.1893908e-13 -4.8496e-41
1.9547e-41 -4.8193485e-08 2.283e-41 6.828104e-05 1.06e-42 4.3495707e-08 -2.1076e-41 4.4940407e-08
-1.415954e-10 -2.679e-41 -2.3150817e-10 5.1933494e-08 -5.016366e-13 1.3312452e-08 -1.2442057e-10 -4.7703e-41
0.18966584 1.6805757e-09 0.0813403 -1.8105e-41 -6.485e-42 2.7087765e-08 4.7477e-41 -2.6039974e-08
4.0538847e-08 1.0126875e-07 0.0002902611 0.20744903 0.23914836 1.078e-42 2.3064e-07 3.7486e-41
2.075e-41 0.0015093948 7.851e-42 -0.00035091443 4.8852e-41 0.22452465 3.8822e-41 0.23757163
0.039520927 2.8009e-41 0.00010078073 0.28266641 3.6235384e-08 -4.4286554e-07 -2.3375765e-07 4.0097e-41
4.667985e-09 6.266177e-09 2.2453595e-09 2.6e-43 -2.8127e-41 -6.869401e-08 -5.3874e-41 1.7124768e-10
1.6092936e-11 -3.789834e-06 -6.657326e-08 -1.2288126e-08 -2.5633852e-08 2.772e-42 2.2999692e-12 4.0881e-41
4.9243e-41 4.987688e-06 5.025e-41 -2.762126e-09 -2.0113e-41 -2.1925755e-08 2.5026e-41 -2.5405624e-08
-1.7168867e-08 -5.8786e-41 -2.7747222e-09 -2.1275131e-08 1.9000235e-09 -1.1257233e-07 8.100955e-06 -1.9884e-41
1.8212702e-08 4.330135e-07 8.935826e-09 -2.0327e-41 2.4263e-41 4.686815e-10 -8.154e-42 -2.1943605e-10
-7.032525e-08 -2.9284229e-06 -2.2530774e-05 2.0595161e-08 2.3367903e-08 -6.98e-42 1.2257409e-10 -3.9711e-41
2.7548e-41 -4.132312e-09 1.4e-44 -1.2123256e-07 7.0289e-41 2.2279146e-08 -8.632e-42 2.3260476e-08
1.252451e-09 -1.9806e-41 -2.744754e-07 2.1869194e-08 4.7110734e-07 4.265088e-09 -1.5582e-07 5.16e-42
-1.903189e-08 -1.13128465e-10 1.6789153e-08 2.346e-42 -5.7528e-41 -1.1262302e-06 -1.3827e-41 -5.9568207e-05
-1.0027398e-07 2.0855984e-11 -9.529325e-09 -3.2444575e-08 -5.0389467e-08 3.6441e-41 -1.2558005e-06 2.2775e-41
2.3264e-41 -5.7423815e-05 5.7546e-41 -2.6843367e-07 6.8089e-41 -4.3104734e-08 2.2833e-41 -4.9686875e-08
1.4382679e-08 5.5964e-41 2.1328242e-06 -6.2531065e-08 1.3412185e-06 -1.6997681e-11 7.782923e-10 3.3899e-41
1.4995569e-09 6.460393e-06 -9.767286e-10 -3.5046e-41 -2.8001e-41 7.01545e-08 -4.7912e-41 1.36717855e-08
-8.41765e-07 -2.286909e-08 -1.3748249e-06 2.0430986e-09 1.5588278e-09 7.524e-42 3.5208854e-09 -5.6257e-41
6.8326e-41 2.8475489e-09 -1.604e-42 7.79634e-07 -4.8154e-41 2.0159254e-09 1.8143e-41 1.618567e-09
2.2778432e-11 1.8059e-41 -2.2872997e-09 1.0184662e-09 0.00013603744 -1.7850144e-08 2.0796982e-08 6.1478e-41

fc_layers.2.bias f4 [16]
00000000: 5c0f 9434 b2cd 12b1 f0f1 03b1 4db4 ee3c
00000010: 34ca bbb3 ee5b ba30 6c33 c2b2 34c0 6b30
00000020: 50d5 d21c faa5 1f35 c896 d23c c04e a1b4
00000030: 7097 29b9 f70a f33c 9cd2 ef2f 3afd 20b8
2.7578324e-07 -2.136272e-09 -1.9200534e-09 0.029138708 -8.7446466e-08 1.3559409e-09 -2.2607956e-08 8.576564e-10
1.3951774e-21 5.9473643e-07 0.025706664 -3.0045885e-07 -0.00016173511 0.029668314 4.3623494e-10 -3.838281e-05
