neural-collaborative-filtering/src/checkpoints/pretrain_neumf_factor8neg4_Epoch114_HR1.0000_NDCG0.8511.model (torch, 579115 bytes, 15 tensors)

embedding_user_mlp.weight f4 [7700, 8]
000000 1a 1e 67 b8 0e d0 6b 34 63 c5 0f 36 a9 c9 18 b7
       -5.5102726e-05 2.196177e-07 2.1423555e-06 -9.106859e-06
000010 d8 b0 26 aa 62 29 bf 33 44 e5 b3 ae ec 71 31 b5
       -1.4805117e-13 8.901658e-08 -8.180703e-11 -6.6103416e-07
000020 0c 41 5f 30 10 ad 46 2e 5c 71 69 b1 4b 37 e9 b7
       8.1219365e-10 4.5173698e-11 -3.39704e-09 -2.7801512e-05
000030 c6 de 57 b2 72 55 b6 30 75 2a 06 b7 d2 30 b4 38
       -1.25653e-08 1.3266528e-09 -7.996908e-06 8.592162e-05
000040 ae 1d 57 33 07 83 71 ae e4 54 12 37 69 cd 1c 2c
       5.0085582e-08 -5.491343e-11 8.722043e-06 2.2282959e-12
000050 08 c4 de ac 79 89 88 b0 80 55 11 38 4f d0 c2 b3
       -6.3313833e-12 -9.934374e-10 3.4650322e-05 -9.07172e-08
000060 e6 c6 e7 b5 f8 ac bd b7 46 b9 a2 b8 e4 01 1f 37
       -1.7268728e-06 -2.26111e-05 -7.759272e-05 9.477579e-06
000070 d9 84 83 36 b0 ab ed 37 82 4b 81 b8 40 a4 cd b4
       3.9195697e-06 2.833255e-05 -6.165264e-05 -3.8303733e-07
000080 06 16 05 38 69 c5 08 38 c6 27 e7 b7 82 58 c5 b8
       3.1730182e-05 3.260878e-05 -2.7555867e-05 -9.410178e-05
000090 76 2a c6 37 12 aa db 35 c0 5f 49 38 9e 34 3c b8
       2.3623212e-05 1.6366268e-06 4.801131e-05 -4.4871696e-05
0000a0 44 f5 7b 38 9c 12 84 b7 5c 80 a0 b6 bc b9 5b b6
       6.0071485e-05 -1.5744292e-05 -4.7833146e-06 -3.2741655e-06
0000b0 3f 60 2d b7 5c f1 77 37 7a 69 20 38 8e ff 1d b7
       -1.0334013e-05 1.4778543e-05 3.8245205e-05 -9.41743e-06
0000c0 18 33 85 b7 5f e7 bd b4 b2 12 d6 b6 d6 8a be 37
       -1.5878628e-05 -3.5372338e-07 -6.3798734e-06 2.2714416e-05
0000d0 b0 ed e9 b4 64 75 27 b7 8a 3d ed 36 ab f4 19 37
       -4.3572572e-07 -9.981308e-06 7.0703145e-06 9.176477e-06
0000e0 6d fa cc b7 70 e4 40 36 26 9e 55 b6 b1 90 85 37
       -2.4435309e-05 2.8743198e-06 -3.1831528e-06 1.5922213e-05
0000f0 f6 1e 4c 36 b4 0e 28 b6 65 27 eb 36 5e 15 ec 36
       3.041639e-06 -2.504251e-06 7.008132e-06 7.0358356e-06
000100 97 8e 85 b6 8c ae d9 b6 a8 b7 9b 36 22 05 12 37
       -3.9803085e-06 -6.487424e-06 4.6407404e-06 8.703473e-06
000110 32 af ed b6 e5 b5 f1 b6 18 27 9d 36 5e a9 9e 37
       -7.083546e-06 -7.203535e-06 4.6835157e-06 1.8913935e-05
000120 ee 7c 52 35 fa bc d0 b8 08 24 dc 35 2a 55 a6 b5
       7.8412893e-07 -9.9534125e-05 1.6401764e-06 -1.239275e-06
000130 5e 72 34 36 58 8f 3f 36 6c b3 79 b8 3e 26 09 37
       2.688866e-06 2.8544655e-06 -5.9533326e-05 8.17474e-06
000140 86 95 ff 35 a4 11 6e b6 88 01 9c b5 80 2f 65 b8
       1.9042498e-06 -3.5475032e-06 -1.1623351e-06 -5.4642092e-05
000150 aa 42 39 38 e9 2f b9 b7 64 81 f9 b6 b3 f5 a1 35
       4.4169523e-05 -2.2076028e-05 -7.4358413e-06 1.2066943e-06
000160 22 57 0e 38 82 94 4f b7 b4 a1 20 b7 b0 90 02 37
       3.3936587e-05 -1.2372739e-05 -9.574393e-06 7.7822915e-06
000170 17 3a 2c 38 82 37 43 36 e1 27 b1 b6 96 3f 2e b8
       4.1062096e-05 2.9089574e-06 -5.2796536e-06 -4.154405e-05
000180 14 4f f2 b7 17 f0 b9 b5 72 1b 83 b6 c8 2b 76 b7
       -2.8885472e-05 -1.385345e-06 -3.9072993e-06 -1.4672936e-05
000190 79 77 2e b8 5c b3 6c 36 7c 6d 3a 35 16 0a 3d 36
       -4.15961e-05 3.5271141e-06 6.944972e-07 2.8169065e-06
0001a0 f0 1a e1 b7 ba 71 ce b6 4a 80 af b7 c2 fc 92 b6
       -2.6834634e-05 -6.152518e-06 -2.0921365e-05 -4.380564e-06
0001b0 80 d7 b8 b4 ea d2 41 36 64 02 54 b6 00 6f 8e 37
       -3.4429468e-07 2.888201e-06 -3.1591853e-06 1.6979408e-05
0001c0 89 07 61 b6 c8 c1 62 38 54 a2 87 38 66 2c 2d 37
       -3.3531999e-06 5.406307e-05 6.4675376e-05 1.0321941e-05
0001d0 cc ac 37 35 5e 91 e3 b7 50 16 13 b4 42 e0 fb b4
       6.8424265e-07 -2.71282e-05 -1.3698559e-07 -4.6915562e-07
0001e0 a7 1f c7 b1 b1 60 69 2e a0 05 c4 b4 72 06 ae b7
       -5.7952607e-09 5.3063946e-11 -3.6511938e-07 -2.0745418e-05
0001f0 42 d7 8b b3 d2 58 41 af 9e 09 51 aa 68 49 0a af
       -6.511847e-08 -1.7584803e-10 -1.8566266e-13 -1.2577106e-10
000200 4c 6a 79 b6 5e 16 60 b7 98 20 33 b6 05 ac d6 b8
       -3.7165764e-06 -1.3356648e-05 -2.669205e-06 -0.00010236356
000210 f2 1d 29 b8 d4 68 19 37 4c 7a 31 b6 18 fc 89 35
       -4.032063e-05 9.143918e-06 -2.6446241e-06 1.0280664e-06
000220 78 2f 97 b8 30 85 dd 35 3e 72 3f b3 1e 59 36 b4
       -7.209083e-05 1.6504546e-06 -4.4574556e-08 -1.6982492e-07
000230 9c b7 6c b6 7a 2b 94 36 fa b1 d0 33 fa e1 66 32
       -3.5273615e-06 4.415805e-06 9.7181285e-08 1.3439143e-08
000240 66 74 50 b7 78 65 e1 b6 f8 1b 53 b7 2e bc 58 b8
       -1.2424867e-05 -6.717335e-06 -1.2583092e-05 -5.167367e-05
000250 9c 38 35 38 b3 60 b5 36 e5 ad 82 b5 c4 96 33 b6
       4.3206484e-05 5.4054776e-06 -9.736365e-07 -2.6760836e-06
000260 56 86 1c 35 70 7e 93 35 40 90 7f 37 a0 27 53 33
       5.8310013e-07 1.0989152e-06 1.523277e-05 4.9163305e-08
000270 7e ac 70 37 5f 19 13 34 ca 72 d0 b6 2a 84 a0 b5
       1.4345276e-05 1.3699672e-07 -6.2122463e-06 -1.1959394e-06
000280 7c 47 db 36 8f fb 75 36 d8 ac 08 b7 c0 f9 db 37
       6.5350305e-06 3.6654271e-06 -8.146475e-06 2.6223133e-05
000290 72 e5 2e b6 c0 e9 35 34 52 37 0c 38 62 f9 23 b6
       -2.6061575e-06 1.6941976e-07 3.3430122e-05 -2.4434053e-06
0002a0 7e 5a cd 36 7b 97 0d 36 bc 5d d9 b5 28 9a 32 b4
       6.1200108e-06 2.109881e-06 -1.619504e-06 -1.6633624e-07
0002b0 c6 76 9c b6 72 13 26 35 4f 74 d6 b6 55 e7 80 b7
       -4.6629893e-06 6.1868116e-07 -6.391237e-06 -1.5366511e-05
0002c0 8e ad f1 35 b2 f1 c6 36 c3 03 be 37 87 e5 2b b7
       1.800641e-06 5.928997e-06 2.2651517e-05 -1.0245835e-05
0002d0 9d 8c f1 35 52 ed 87 b7 04 e6 9b 36 7e 14 20 35
       1.7996823e-06 -1.6203765e-05 4.6461373e-06 5.9634465e-07
0002e0 7b 67 be b6 5e 87 96 36 88 c8 05 38 48 27 05 38
       -5.674488e-06 4.486107e-06 3.189643e-05 3.1746255e-05
0002f0 58 bd 53 b7 36 3c 2c 37 60 d3 0a b8 91 f9 88 b8
       -1.2620665e-05 1.0266018e-05 -3.3098622e-05 -6.531471e-05
000300 fc 74 9f 37 20 9f c7 34 60 7b 71 36 af 87 e1 37
       1.9008752e-05 3.7182417e-07 3.5983612e-06 2.6885273e-05
000310 a8 22 99 b7 bc 87 89 36 de 5b 33 b8 91 98 41 38
       -1.825516e-05 4.0987197e-06 -4.2762484e-05 4.6156874e-05
000320 5f 05 91 b7 26 2a 49 37 ce d3 d1 35 98 8b 78 b6
       -1.7287848e-05 1.1990347e-05 1.5633357e-06 -3.7036134e-06
000330 96 00 91 b7 ec 17 be b5 ee c9 5d b6 4c b4 b5 b5
       -1.728562e-05 -1.4163065e-06 -3.3049105e-06 -1.3538024e-06
000340 94 85 03 b7 a4 94 92 b4 0d 49 fb b6 00 12 ce b5
       -7.83931e-06 -2.730277e-07 -7.488887e-06 -1.5353435e-06
000350 58 b9 ca b6 92 70 be b7 c2 b4 de b6 0b bc af 35
       -6.041646e-06 -2.2702185e-05 -6.6371585e-06 1.3093244e-06
000360 05 29 2e 38 62 ca f9 b6 76 fa b0 b6 ea 08 3d 38
       4.1523035e-05 -7.4443387e-06 -5.2743662e-06 4.5069413e-05
000370 26 9d f1 b6 5b 33 b0 37 d0 75 39 b8 4e 5b 41 b6
       -7.200654e-06 2.100475e-05 -4.421716e-05 -2.8812387e-06
000380 1b 08 7f 31 ec d5 b7 36 ab bb 9e 2b fc 44 83 ac
       3.7111991e-09 5.478729e-06 1.1278664e-12 -3.7309027e-12
000390 3f de 98 b7 dd 83 15 35 54 85 26 2e 2c f3 85 b8
       -1.8223303e-05 5.569871e-07 3.786245e-11 -6.3872285e-05
0003a0 40 ee 23 b5 1e 53 ce b5 56 07 bd 33 06 6b 32 35
       -6.106893e-07 -1.5372386e-06 8.802333e-08 6.6465907e-07
0003b0 be f4 04 34 9e 53 a6 ae 3c c9 ff 34 7c 45 b7 ab
       1.2382495e-07 -7.5636594e-11 4.764387e-07 -1.3022218e-12
0003c0 28 f3 be b5 1c ac ad 37 f4 a3 c0 36 7c 1f 1b b6
       -1.4226871e-06 2.0703352e-05 5.7411326e-06 -2.3115126e-06
0003d0 a6 8b 02 37 e0 8e 9b b3 28 e5 a3 36 99 45 90 b6
       7.781118e-06 -7.243739e-08 4.884456e-06 -4.2996367e-06
0003e0 be 7c 73 b8 f4 2f 15 b8 dc 60 1b b6 b8 ae 4f 38
       -5.805189e-05 -3.5569028e-05 -2.315318e-06 4.9515365e-05
0003f0 93 43 fc b6 ef 7e e6 b5 65 02 06 38 76 a1 3b 37
       -7.518052e-06 -1.7173278e-06 3.195032e-05 1.1183662e-05

embedding_item_mlp.weight f4 [8, 1024]
000000 d8 3b 4d b8 d8 31 06 b7 33 87 ba 37 f0 cd 50 37
       -4.8931543e-05 -7.998628e-06 2.2235885e-05 1.2445715e-05
000010 fb 7c 89 37 58 68 45 36 f6 df 3d b6 54 95 54 b8
       1.6389871e-05 2.9416024e-06 -2.8293557e-06 -5.068381e-05
000020 2b aa 2c 38 dc d0 4e 38 e2 3e bc 38 90 bb 43 38
       4.1166477e-05 4.9308743e-05 8.9762514e-05 4.6666304e-05
000030 4c d1 16 b9 c7 a7 c5 38 1f 68 2b 36 2d fd 54 38
       -0.00014383084 9.424943e-05 2.5541592e-06 5.0780527e-05
000040 12 4d 8b b7 f1 5a b5 38 2f 0f 03 b9 48 b7 d3 37
       -1.660598e-05 8.647692e-05 -0.0001249879 2.5238507e-05
000050 3c eb 8b 37 84 0b c4 b8 58 1c 44 38 e2 a4 86 38
       1.667963e-05 -9.348153e-05 4.675644e-05 6.42033e-05
000060 3c 6a 30 38 67 5d 15 b8 5c 71 4d 37 ee b5 48 37
       4.206061e-05 -3.5611356e-05 1.2245346e-05 1.1963288e-05
000070 3a 70 8f 38 4e 90 9c b8 8e 4c b0 b8 86 7b 4b b8
       6.839675e-05 -7.4655385e-05 -8.4065934e-05 -4.851401e-05
000080 18 e0 89 36 84 d6 d7 b7 70 69 0f b7 c3 56 ad 38
       4.109006e-06 -2.5729889e-05 -8.548013e-06 8.2654435e-05
000090 a6 4c 4d 38 1b 3a aa 38 28 38 a4 b8 e2 3f 9f b8
       4.8947193e-05 8.117055e-05 -7.830589e-05 -7.59361e-05
0000a0 44 a7 22 38 42 13 86 38 b3 24 2c b8 b8 25 b4 36
       3.8779588e-05 6.393205e-05 -4.1042174e-05 5.368809e-06
0000b0 e0 c2 39 36 74 79 00 b9 12 46 f5 b7 38 32 06 b8
       2.768058e-06 -0.00012252276 -2.9238905e-05 -3.199486e-05
0000c0 90 49 5a b8 ef 0d bf 38 3b f0 4f 38 a2 67 9a b8
       -5.204376e-05 9.110185e-05 4.9576378e-05 -7.362595e-05
0000d0 dc d4 39 b8 59 97 0c b9 7b 60 20 38 ed fb d1 37
       -4.4305678e-05 -0.00013407822 3.8236827e-05 2.5032054e-05
0000e0 b9 1a e3 b7 27 cf d0 38 d8 b6 15 36 33 95 00 b8
       -2.7072952e-05 9.956798e-05 2.230916e-06 -3.065653e-05
0000f0 7f 8d 1b 39 0d ad a6 b8 91 c4 84 b8 0d 42 48 38
       0.00014834663 -7.94773e-05 -6.330864e-05 4.774523e-05
000100 b0 7e 98 38 0f d1 e3 b7 5a 89 89 38 3e 44 b7 b8
       7.271522e-05 -2.715786e-05 6.558253e-05 -8.738831e-05
000110 93 61 eb 38 4a 4e 34 b8 fe fd ba b6 51 21 c0 b8
       0.00011223848 -4.2988257e-05 -5.5728005e-06 -9.161479e-05
000120 bf 1e ed b8 b1 69 cc 37 82 01 0e 38 a3 e0 0c b9
       -0.000113067676 2.4367911e-05 3.3856842e-05 -0.00013435124
000130 48 b0 dd b8 1e c9 1a 38 43 d6 da 36 76 ed 86 38
       -0.00010570936 3.6903766e-05 6.5218496e-06 6.4338485e-05
000140 3c 8c 2a b8 28 90 81 b8 db 17 90 b8 a8 83 ee 37
       -4.0661762e-05 -6.1780505e-05 -6.8708985e-05 2.8433118e-05
000150 06 12 08 38 af 66 f6 b8 84 bd 7b 38 c2 f2 f8 38
       3.2441712e-05 -0.000117493204 6.0019564e-05 0.00011870779
000160 bb 8f cf 38 e1 77 ed b8 c9 cf 1d 38 38 33 b5 38
       9.897301e-05 -0.0001132337 3.7625232e-05 8.640293e-05
000170 5a 01 95 b7 6a a0 09 39 67 9d 85 38 86 7c 7c 38
       -1.7762814e-05 0.00013125097 6.371253e-05 6.0197453e-05
000180 d8 e1 d1 38 47 5f 83 b7 fe 1c b0 38 d8 57 28 36
       0.00010007963 -1.5660784e-05 8.397734e-05 2.5085083e-06
000190 2a f4 0a b8 5f 28 1b b9 70 86 02 b7 3c 2f f5 36
       -3.312916e-05 -0.00014796991 -7.779905e-06 7.307068e-06
0001a0 46 00 fc 37 d4 04 21 b7 56 24 db 38 73 39 96 b8
       3.0040868e-05 -9.597472e-06 0.00010449502 -7.163258e-05
0001b0 be 5b 7c b7 f5 98 25 38 2d bd 36 38 7e 56 cd 36
       -1.5041731e-05 3.9481518e-05 4.3568365e-05 6.119545e-06
0001c0 dc 36 17 38 5c 2e 1c b8 53 aa 0e b9 49 a0 92 b8
       3.6052297e-05 -3.7236474e-05 -0.00013605626 -6.991678e-05
0001d0 89 d4 21 39 cc 17 8d b7 24 47 f0 38 d7 36 8f b8
       0.00015433332 -1.6819591e-05 0.00011457343 -6.828986e-05
0001e0 f7 20 64 38 09 29 f7 b8 7e f2 95 38 2f 84 5d 37
       5.4390137e-05 -0.00011785521 7.150041e-05 1.3203403e-05
0001f0 72 96 f6 b7 08 22 12 b9 59 7a 17 38 73 1e 2d b7
       -2.9395542e-05 -0.00013936323 3.611515e-05 -1.0318693e-05
000200 03 1e d5 38 2c 01 26 37 84 fc 1a 38 d4 22 6e b8
       0.000101622216 9.894644e-06 3.6951635e-05 -5.6776058e-05
000210 5e b8 d5 38 26 55 b0 37 25 e1 82 38 48 93 c1 37
       0.000101909725 2.1020485e-05 6.2408195e-05 2.3075976e-05
000220 d6 fe 58 b8 7e f5 b7 37 5e 07 85 38 5a 89 2f b9
       -5.1735748e-05 2.1929616e-05 6.3433064e-05 -0.00016740468
000230 42 4e 3a 37 c6 b8 34 b8 a6 f7 79 38 0d 4b 12 38
       1.1104685e-05 -4.3087428e-05 5.9596867e-05 3.487901e-05
000240 7f 70 12 b9 59 a4 3f 38 ee bd 00 b9 db fa e1 38
       -0.00013965553 4.569101e-05 -0.00012277786 0.000107755615
000250 40 95 8f b5 3f 82 e4 37 d8 7e af b6 c4 a9 a3 b8
       -1.0697768e-06 2.7240369e-05 -5.230173e-06 -7.804067e-05
000260 00 df 97 36 7d 1c 12 38 8e 83 8b 35 d6 6e 8c 37
       4.5261113e-06 3.4835644e-05 1.0394594e-06 1.6740913e-05
000270 b0 c2 ff 35 00 b3 ad b4 20 bd fd 35 3e 74 18 b9
       1.9055642e-06 -3.2354e-07 1.8905012e-06 -0.00014539153
000280 9a b3 ab 37 62 c2 d2 b6 57 23 71 38 c6 2d b8 b7
       2.0468422e-05 -6.281117e-06 5.749179e-05 -2.1955824e-05
000290 93 3d dc b8 fc 44 f2 b6 56 d5 0b b8 7c 49 9c 38
       -0.000105018866 -7.220193e-06 -3.3338867e-05 7.452347e-05
0002a0 ad f2 41 b9 98 07 12 39 b7 d1 a2 b8 69 0d 88 b8
       -0.00018496318 0.00013926474 -7.7638244e-05 -6.487483e-05
0002b0 d9 3c a3 b8 cb 7e cd 38 e9 a4 6c b8 71 2a 95 38
       -7.7837794e-05 9.798779e-05 -5.642037e-05 7.112779e-05
0002c0 8e b7 9e b8 a9 f0 b7 38 f4 0d 53 38 d6 8a e6 b8
       -7.568217e-05 8.7709464e-05 5.0319315e-05 -0.00010993115
0002d0 92 f5 4d b8 3e d8 c5 38 f3 67 2e b8 fe c9 7b b7
       -4.9104514e-05 9.43397e-05 -4.1581643e-05 -1.5007796e-05
0002e0 61 6e 12 38 ae 96 02 b8 b8 e8 07 b6 7e a1 93 b8
       3.491191e-05 -3.1134747e-05 -2.0252028e-06 -7.0395865e-05
0002f0 b7 8c a5 b8 24 66 00 37 53 ee 47 38 46 5d 6e b8
       -7.894023e-05 7.653176e-06 4.7667254e-05 -5.683049e-05
000300 89 99 18 38 e0 67 fb 35 b8 3b 39 b7 a0 de f3 35
       3.6382615e-05 1.8731189e-06 -1.1040764e-05 1.8169703e-06
000310 88 7c b4 37 6d eb 01 37 c7 01 aa 38 f0 6b b1 b5
       2.1515662e-05 7.7438135e-06 8.106563e-05 -1.3218942e-06
000320 be 75 0e b8 8c d5 b2 37 f6 25 97 37 33 72 21 b7
       -3.3965094e-05 2.1318694e-05 1.801828e-05 -9.622937e-06
000330 b2 db 40 b9 7e d3 34 b8 69 5e 1a 39 ea c5 c7 38
       -0.0001839239 -4.311231e-05 0.00014721755 9.525924e-05
000340 ce e5 12 b8 d7 1f c4 b7 18 55 88 b8 63 f0 ce b7
       -3.5023135e-05 -2.3379847e-05 -6.500835e-05 -2.4669052e-05
000350 80 45 00 b5 56 27 cd b6 9a 18 42 37 f8 f5 77 37
       -4.778485e-07 -6.1140554e-06 1.1569029e-05 1.4779616e-05
000360 c1 c1 9f 37 98 fe d3 38 f0 a6 82 b5 7c 18 db b7
       1.90445e-05 0.00010108686 -9.73434e-07 -2.6118236e-05
000370 bf 7c 25 b8 08 47 8b 37 f7 83 53 38 49 81 79 37
       -3.9455244e-05 1.6603168e-05 5.0429222e-05 1.4871658e-05
000380 33 0d cb b7 a8 4b 9f 38 69 fa dc b7 74 5c c3 b8
       -2.4205632e-05 7.595803e-05 -2.634265e-05 -9.315545e-05
000390 02 4b 05 b9 a0 77 0b b8 2a 81 c1 b7 8c 2a ea 36
       -0.00012711811 -3.3251592e-05 -2.306754e-05 6.9786965e-06
0003a0 2d a1 d8 37 78 7f a4 b8 74 30 95 38 cb e9 11 b9
       2.582426e-05 -7.843872e-05 7.113899e-05 -0.00013915372
0003b0 1a c1 15 38 f2 32 c3 b8 52 4e 57 b7 16 48 77 b8
       3.5704208e-05 -9.307814e-05 -1.2833234e-05 -5.8956524e-05
0003c0 8f 11 8c 38 e0 8f 78 b8 e7 7d 82 37 d8 cc 1c b7
       6.678991e-05 -5.92618e-05 1.5555835e-05 -9.3460185e-06
0003d0 06 d5 93 38 be 7d f2 b7 01 0e 50 38 a9 04 77 38
       7.049185e-05 -2.8907201e-05 4.9604107e-05 5.889373e-05
0003e0 00 9c 80 38 2b 83 6f 38 72 61 fb 37 9c a8 4f b8
       6.132573e-05 5.71042e-05 2.9966908e-05 -4.9509676e-05
0003f0 a4 dc 93 38 98 9c b7 38 d3 b9 aa 38 00 31 2b b6
       7.050604e-05 8.755288e-05 8.140844e-05 -2.5509507e-06

embedding_item_mlp.bias f4 [8]
000000 68 94 4a 38 7d 64 0e b8 73 46 a2 37 f9 cf d2 bd
       4.8298767e-05 -3.3949025e-05 1.934471e-05 -0.10293574
000010 4e 0c 27 b8 90 97 15 33 38 b1 0b b1 da c6 06 b7
       -3.9827362e-05 3.482961e-08 -2.03279e-09 -8.033321e-06

embedding_user_mf.weight f4 [7700, 8]
000000 ac 97 00 00 64 60 00 00 8e 3f 00 80 de 4f 00 00
       5.441e-41 3.4578e-41 -2.2799e-41 2.8651e-41
000010 67 38 00 00 04 09 00 80 8f 6f 00 80 e7 8a 00 80
       2.0233e-41 -3.234e-42 -4.002e-41 -4.9829e-41
000020 fe 13 00 80 cc 03 00 80 08 af 00 00 05 09 00 00
       -7.172e-42 -1.362e-42 6.279e-41 3.236e-42
000030 73 00 00 80 03 74 00 80 50 1f 00 80 5b 62 00 80
       -1.61e-43 -4.1617e-41 -1.1233e-41 -3.5283e-41
000040 aa 0a 00 00 09 3f 00 80 ac 84 1c ac 32 32 00 00
       3.826e-42 -2.2613e-41 -2.224258e-12 1.8007e-41
000050 77 1d 00 80 2e 32 00 00 23 17 00 00 40 49 00 80
       -1.057e-41 1.8001e-41 8.3e-42 -2.6277e-41
000060 03 05 00 00 9b af 00 00 91 06 00 00 e4 8a 00 80
       1.798e-42 6.2995e-41 2.356e-42 -4.9825e-41
000070 76 3e 00 80 d8 1a 00 80 4a 5c ab b7 c7 21 00 80
       -2.2407e-41 -9.63e-42 -2.0427764e-05 -1.2117e-41
000080 2e 3c 00 00 52 2d 00 80 e2 2e 00 80 21 03 00 00
       2.1588e-41 -1.6258e-41 -1.6818e-41 1.122e-42
000090 f3 bf 00 80 36 70 00 00 42 df 82 2f fa 06 00 80
       -6.8858e-41 4.0254e-41 2.3805496e-10 -2.503e-42
0000a0 4a 17 00 00 fb 73 00 00 f4 15 00 80 e9 27 00 00
       8.355e-42 4.1606e-41 -7.875e-42 1.4317e-41
0000b0 ab 1c 00 00 6f 69 d1 32 d0 d5 45 af b3 5d 00 00
       1.0284e-41 2.4378748e-08 -1.7993007e-10 3.3613e-41
0000c0 04 0a 00 80 78 15 00 00 de 7d 00 80 4a 75 00 80
       -3.593e-42 7.702e-42 -4.5153e-41 -4.2075e-41
0000d0 70 66 00 80 bf 15 00 80 7c 4d 4d b2 5f 6c 00 00
       -3.6748e-41 -7.801e-42 -1.1950188e-08 3.8876e-41
0000e0 9c 9c 00 80 01 20 00 80 5e 07 00 80 62 0a 00 80
       -5.6181e-41 -1.1481e-41 -2.643e-42 -3.725e-42
0000f0 60 4d 00 00 a6 2f 00 80 b4 49 34 36 c7 17 00 00
       2.7757e-41 -1.7093e-41 2.686499e-06 8.53e-42
000100 1f 15 00 80 7e 72 00 00 3b 11 00 00 1c b3 00 80
       -7.577e-42 4.1072e-41 6.181e-42 -6.4252e-41
000110 f1 14 00 80 46 1a 00 00 26 a2 70 30 fc 55 00 00
       -7.512e-42 9.425e-42 8.754192e-10 3.0845e-41
000120 31 1b 00 00 c9 01 00 00 5f 28 00 00 b2 24 00 00
       9.754e-42 6.4e-43 1.4482e-41 1.3164e-41
000130 0d 30 00 00 e2 10 00 80 e4 ce 53 35 ea 3f 00 00
       1.7237e-41 -6.056e-42 7.890469e-07 2.2928e-41
000140 8b a8 00 00 50 72 00 80 0b 40 00 00 11 49 00 00
       6.0462e-41 -4.1008e-41 2.2974e-41 2.6211e-41
000150 31 0e 00 00 4c 1c 00 80 94 53 16 2f df 30 00 80
       5.091e-42 -1.0151e-41 1.3672113e-10 -1.7532e-41
000160 6d 10 00 00 90 4c 00 00 46 89 00 80 29 00 c4 ac
       5.892e-42 2.7465e-41 -4.9244e-41 -5.570673e-12
000170 bf 3c 00 80 10 66 00 80 c2 6e 50 b5 6e 00 00 00
       -2.1792e-41 -3.6613e-41 -7.764721e-07 1.54e-43
000180 a6 10 00 80 64 07 00 80 c4 7d 00 00 23 04 00 00
       -5.972e-42 -2.651e-42 4.5116e-41 1.484e-42
000190 14 0e 00 00 7a b8 00 00 14 db 7a ae 39 22 00 80
       5.05e-42 6.6178e-41 -5.7038e-11 -1.2277e-41
0001a0 ec 07 00 80 42 7d 00 80 69 40 00 80 97 0c 00 00
       -2.842e-42 -4.4934e-41 -2.3106e-41 4.516e-42
0001b0 d6 0a 00 80 36 1b 00 00 ca 24 ea b5 10 7d 00 80
       -3.887e-42 9.761e-42 -1.7445066e-06 -4.4864e-41
0001c0 a4 26 00 80 fb 19 00 00 23 02 00 00 ad 03 00 80
       -1.3862e-41 9.32e-42 7.67e-43 -1.319e-42
0001d0 09 19 00 00 b2 24 00 80 f0 b7 83 30 a7 1d 00 00
       8.981e-42 -1.3164e-41 9.583783e-10 1.0637e-41
0001e0 cb 7f 00 80 3b 76 00 80 d3 43 00 00 fd 26 00 80
       -4.5843e-41 -4.2413e-41 2.4331e-41 -1.3986e-41
0001f0 aa 7c 00 00 a2 61 00 80 81 63 00 80 a0 4f 00 80
       4.4721e-41 -3.5024e-41 -3.5695e-41 -2.8564e-41
000200 57 13 00 00 41 53 00 80 f8 4b 00 80 98 21 00 00
       6.938e-42 -2.9866e-41 -2.7252e-41 1.2051e-41
000210 33 08 00 00 ee 0a 00 80 24 4c 04 36 86 07 00 80
       2.941e-42 -3.921e-42 1.9713852e-06 -2.699e-42
000220 36 16 00 80 5b 16 00 80 50 3b 00 80 54 0f 00 00
       -7.968e-42 -8.02e-42 -2.1277e-41 5.499e-42
000230 34 18 00 80 46 b7 6d b7 dc e6 4e b1 4d 6e 00 00
       -8.682e-42 -1.41689725e-05 -3.0108174e-09 3.9568e-41
000240 6e 11 00 00 11 3d 00 80 d4 57 00 80 89 06 00 80
       6.253e-42 -2.1906e-41 -3.1507e-41 -2.344e-42
000250 61 20 00 00 d5 95 00 00 9b 5b 15 b2 9e 53 00 80
       1.1615e-41 5.375e-41 -8.69377e-09 -2.9996e-41
000260 19 02 00 00 fc 75 00 00 25 90 00 00 db 1d 00 00
       7.52e-43 4.2325e-41 5.171e-41 1.071e-41
000270 cc 35 95 b2 db 04 00 80 26 af a9 af 5b 15 00 00
       -1.7370347e-08 -1.742e-42 -3.086537e-10 7.661e-42
000280 e9 a3 00 80 60 74 00 00 68 3a 00 80 33 8b 00 80
       -5.88e-41 4.1747e-41 -2.0952e-41 -4.9935e-41
000290 1c 2b 00 00 c3 02 00 00 b0 7f e8 33 c6 af 00 80
       1.5465e-41 9.91e-43 1.0826568e-07 -6.3056e-41
0002a0 d1 1b 00 00 de 40 00 80 81 88 00 00 a0 4d 00 80
       9.979e-42 -2.327e-41 4.8968e-41 -2.7847e-41
0002b0 06 59 00 00 46 61 00 00 71 5a cd 2d 65 26 00 80
       3.1936e-41 3.4895e-41 2.3345966e-11 -1.3773e-41
0002c0 a2 0b 00 80 e2 8e 00 80 f6 50 00 00 e3 8f 00 00
       -4.173e-42 -5.1257e-41 2.9043e-41 5.1617e-41
0002d0 83 9c 00 80 0e 58 00 80 40 0a 02 31 19 7b 00 80
       -5.6146e-41 -3.1588e-41 1.8923316e-09 -4.4159e-41
0002e0 65 95 00 00 38 03 00 80 df 11 00 80 d8 c4 00 80
       5.3593e-41 -1.155e-42 -6.411e-42 -7.0614e-41
0002f0 19 67 00 80 a1 15 00 80 42 d0 8c b7 fb 6f 00 00
       -3.6984e-41 -7.759e-42 -1.6786278e-05 4.0171e-41
000300 36 45 00 00 31 1d 00 00 92 19 00 00 8c 19 00 80
       2.4828e-41 1.0472e-41 9.173e-42 -9.164e-42
000310 f2 78 00 00 16 85 00 00 f2 79 be b7 fa 81 00 80
       4.3387e-41 4.7742e-41 -2.270655e-05 -4.6627e-41
000320 c3 0c 00 00 48 1d 00 00 52 c1 00 80 7d 4d 00 00
       4.578e-42 1.0504e-41 -6.935e-41 2.7798e-41
000330 2e 11 00 80 61 35 00 00 98 78 73 30 ac 28 00 00
       -6.163e-42 1.9149e-41 8.857426e-10 1.459e-41
000340 93 04 00 00 da 1d 00 80 d5 0c 00 80 5d 3f 00 80
       1.641e-42 -1.0709e-41 -4.603e-42 -2.273e-41
000350 bb a1 00 00 d4 18 00 80 1d 38 62 b6 f2 2f 00 80
       5.8018e-41 -8.907e-42 -3.3709287e-06 -1.72e-41
000360 54 16 00 00 92 2d 00 80 0c 1e 00 80 7d 3c 00 80
       8.01e-42 -1.6348e-41 -1.0779e-41 -2.1699e-41
000370 b4 80 00 80 46 9d 00 80 12 36 02 b0 f5 1d 00 80
       -4.617e-41 -5.6419e-41 -4.7370563e-10 -1.0747e-41
000380 8f 50 00 00 53 04 00 80 c3 8b 00 00 c0 bc 00 80
       2.8899e-41 -1.551e-42 5.0137e-41 -6.7711e-41
000390 b0 2e 00 00 13 5e 00 00 39 32 00 00 8c 6e 00 80
       1.6748e-41 3.3747e-41 1.8016e-41 -3.9657e-41
0003a0 a6 28 00 80 f2 22 00 80 f1 33 00 80 7e 05 00 80
       -1.4582e-41 -1.2536e-41 -1.8633e-41 -1.97e-42
0003b0 06 25 00 00 5e 41 00 80 1d 02 00 00 2f 40 00 00
       1.3282e-41 -2.345e-41 7.58e-43 2.3025e-41
0003c0 8d 44 00 80 a0 1d 00 00 83 aa 00 00 f2 6c 00 80
       -2.4591e-41 1.0627e-41 6.1168e-41 -3.9082e-41
0003d0 5f 7a 00 80 51 0d 00 80 10 84 5d 2c 9a 1c 00 00
       -4.3898e-41 -4.777e-42 3.1479298e-12 1.026e-41
0003e0 ad 6d 00 80 94 40 00 80 60 ae 00 00 b9 71 00 80
       -3.9344e-41 -2.3166e-41 6.2554e-41 -4.0796e-41
0003f0 3a 60 00 00 55 18 00 80 f7 c7 3a 32 a7 c0 00 00
       3.452e-41 -8.729e-42 1.0872092e-08 6.911e-41

embedding_item_mf.weight f4 [8, 1024]
000000 18 43 00 00 e9 ac 00 80 ac 1e 00 80 cd 85 00 80
       2.4069e-41 -6.2028e-41 -1.1003e-41 -4.7999e-41
000010 e2 0d 00 00 9e 1a 00 00 31 84 00 80 fe aa 00 00
       4.98e-42 9.548e-42 -4.7421e-41 6.134e-41
000020 d3 4a 00 00 7a 47 00 80 75 7e 00 80 40 1d 00 00
       2.6842e-41 -2.5641e-41 -4.5364e-41 1.0493e-41
000030 00 52 00 80 fe 0f 00 80 c6 b5 00 00 9c 57 00 80
       -2.9416e-41 -5.737e-42 6.5208e-41 -3.1428e-41
000040 04 9d 00 80 19 1b 00 80 10 bb 00 00 ba 39 00 00
       -5.6327e-41 -9.721e-42 6.7105e-41 2.0708e-41
000050 11 5d 00 00 40 03 00 80 32 32 00 00 e6 05 00 80
       3.3386e-41 -1.166e-42 1.8007e-41 -2.116e-42
000060 f1 46 00 00 a0 14 00 80 24 89 00 00 b9 38 00 80
       2.5449e-41 -7.399e-42 4.9197e-41 -2.0348e-41
000070 56 04 00 00 8a 8a 00 00 22 10 00 80 ad 64 00 80
       1.555e-42 4.9698e-41 -5.787e-42 -3.6116e-41
000080 49 42 00 00 b4 b1 00 80 13 3c 00 80 59 36 00 00
       2.3779e-41 -6.3748e-41 -2.155e-41 1.9496e-41
000090 02 00 00 00 ea 4e 00 80 c8 be 00 80 eb 03 00 00
       3e-45 -2.8309e-41 -6.844e-41 1.406e-42
0000a0 29 6b 00 00 f1 61 00 00 d0 23 00 00 29 b0 00 00
       3.8442e-41 3.5135e-41 1.2847e-41 6.3194e-41
0000b0 6a 1c 00 80 6f 5e 00 80 d7 30 00 00 a9 26 00 80
       -1.0193e-41 -3.3876e-41 1.752e-41 -1.3869e-41
0000c0 87 5a 00 00 c0 b9 00 00 a4 74 00 80 0f 09 00 80
       3.2475e-41 6.6635e-41 -4.1843e-41 -3.25e-42
0000d0 c2 39 00 00 e1 10 00 80 1c 47 00 00 98 39 00 80
       2.072e-41 -6.055e-42 2.5509e-41 -2.0661e-41
0000e0 35 9e 00 00 38 38 00 80 c2 bd 00 80 f4 65 00 80
       5.6754e-41 -2.0167e-41 -6.8072e-41 -3.6574e-41
0000f0 b2 48 00 00 53 08 00 80 6c 4c 00 80 09 6f 00 00
       2.6078e-41 -2.986e-42 -2.7415e-41 3.9832e-41
000100 9b 4f 00 80 6a 44 00 80 22 0e 00 80 ce 73 00 80
       -2.8557e-41 -2.4542e-41 -5.07e-42 -4.1543e-41
000110 79 26 00 80 ea 14 00 80 28 15 00 80 24 63 00 00
       -1.3801e-41 -7.503e-42 -7.59e-42 3.5565e-41
000120 14 49 00 80 36 1f 00 80 e9 7f 00 80 3c 17 00 80
       -2.6215e-41 -1.1196e-41 -4.5886e-41 -8.335e-42
000130 b5 5c 00 80 90 ab 00 00 03 9f 00 80 f6 4b 00 80
       -3.3257e-41 6.1545e-41 -5.7043e-41 -2.725e-41
000140 74 06 00 80 a8 0d 00 80 c0 3d 00 00 99 35 00 00
       -2.315e-42 -4.899e-42 2.2152e-41 1.9227e-41
000150 5a bf 00 00 47 04 00 80 28 4e 00 00 2f 23 00 80
       6.8644e-41 -1.534e-42 2.8037e-41 -1.2621e-41
000160 df 2b 00 00 a2 11 00 00 d0 7d 00 80 38 1a 00 00
       1.5738e-41 6.325e-42 -4.5133e-41 9.406e-42
000170 1a 12 00 80 2b 01 00 80 d6 0f 00 80 89 88 00 00
       -6.494e-42 -4.19e-43 -5.681e-42 4.898e-41
000180 7d 6c 00 00 3c 27 00 00 aa 2f 00 80 60 50 00 80
       3.8918e-41 1.4075e-41 -1.7099e-41 -2.8833e-41
000190 3f 9f 00 80 ce 02 00 80 1f 45 00 80 82 66 00 00
       -5.7127e-41 -1.006e-42 -2.4796e-41 3.6773e-41
0001a0 64 85 00 80 c1 2b 00 00 81 55 00 80 2f 1e 00 00
       -4.7852e-41 1.5696e-41 -3.0673e-41 1.0828e-41
0001b0 20 26 00 80 db 32 00 80 b8 0b 00 80 b7 08 00 00
       -1.3677e-41 -1.8244e-41 -4.204e-42 3.126e-42
0001c0 17 04 00 80 ae 0f 00 00 89 28 00 00 d9 29 00 80
       -1.467e-42 5.625e-42 1.4541e-41 -1.5012e-41
0001d0 9d 2b 00 00 82 18 00 80 08 19 00 80 4a 4c 00 00
       1.5645e-41 -8.792e-42 -8.98e-42 2.7367e-41
0001e0 ff 33 00 00 7f a3 00 80 93 98 00 80 4c 2b 00 00
       1.8653e-41 -5.8651e-41 -5.4733e-41 1.5532e-41
0001f0 d4 a4 00 80 17 78 00 80 2e 51 00 00 c0 03 00 00
       -5.9129e-41 -4.308e-41 2.9122e-41 1.345e-42
000200 3a 85 00 00 3a 4f 00 00 d6 0f 00 00 e7 28 00 80
       4.7793e-41 2.8421e-41 5.681e-42 -1.4673e-41
000210 92 9a 00 00 a0 26 00 00 c8 62 00 80 6c 5b 00 80
       5.545e-41 1.3856e-41 -3.5436e-41 -3.2796e-41
000220 f0 77 00 00 aa 50 00 80 20 87 00 80 4f 74 00 00
       4.3025e-41 -2.8937e-41 -4.8474e-41 4.1724e-41
000230 d7 7f 00 80 29 4a 00 00 48 15 00 00 9f 58 00 80
       -4.586e-41 2.6604e-41 7.634e-42 -3.1791e-41
000240 63 68 00 00 cb 0e 00 00 6d 60 00 80 bc 5d 00 00
       3.7447e-41 5.307e-42 -3.4591e-41 3.3626e-41
000250 f9 72 00 80 6a 1b 00 80 ba 3c 00 80 4e b5 00 80
       -4.1244e-41 -9.834e-42 -2.1785e-41 -6.504e-41
000260 67 31 00 80 f6 6a 00 80 19 35 00 80 c9 46 00 00
       -1.7722e-41 -3.837e-41 -1.9048e-41 2.5393e-41
000270 55 64 00 80 44 b8 00 00 d7 2e 00 80 00 69 00 80
       -3.5992e-41 6.6102e-41 -1.6803e-41 -3.7667e-41
000280 56 0d 00 00 00 36 00 80 b5 4e 00 80 17 26 00 00
       4.784e-42 -1.9372e-41 -2.8235e-41 1.3664e-41
000290 94 1f 00 00 09 9b 00 00 d6 4b 00 80 29 1d 00 80
       1.1328e-41 5.5616e-41 -2.7205e-41 -1.046e-41
0002a0 34 4a 00 00 a5 56 00 80 02 2c 00 00 e3 54 00 80
       2.6619e-41 -3.1082e-41 1.5787e-41 -3.0452e-41
0002b0 c4 38 00 00 9a 03 00 00 3c 18 00 80 14 aa 00 80
       2.0364e-41 1.292e-42 -8.694e-42 -6.1013e-41
0002c0 04 08 00 80 d7 36 00 00 63 44 00 80 f5 a8 00 00
       -2.875e-42 1.9673e-41 -2.4533e-41 6.061e-41
0002d0 07 3c 00 00 1e 56 00 00 9f 28 00 00 76 ba 00 00
       2.1534e-41 3.0893e-41 1.4572e-41 6.689e-41
0002e0 2b 17 00 00 1d 26 00 00 75 37 00 80 28 66 00 00
       8.311e-42 1.3672e-41 -1.9894e-41 3.6647e-41
0002f0 e5 49 00 80 39 8f 00 80 6b 48 00 00 63 30 00 80
       -2.6508e-41 -5.1379e-41 2.5979e-41 -1.7358e-41
000300 69 86 00 00 28 59 00 00 b8 09 00 80 21 02 00 00
       4.8217e-41 3.1983e-41 -3.486e-42 7.64e-43
000310 23 58 00 80 70 3b 00 00 a8 bd 00 00 ed 02 00 00
       -3.1617e-41 2.1322e-41 6.8036e-41 1.05e-42
000320 03 32 00 80 b6 74 00 00 b6 03 00 80 e1 25 00 80
       -1.7941e-41 4.1868e-41 -1.331e-42 -1.3588e-41
000330 16 5b 00 00 86 bb 00 80 87 00 00 80 1d 4b 00 00
       3.2675e-41 -6.7271e-41 -1.89e-43 2.6946e-41
000340 79 89 00 80 cf 0c 00 80 45 33 00 00 e0 7a 00 00
       -4.9316e-41 -4.595e-42 1.8392e-41 4.4079e-41
000350 e1 5d 00 80 41 57 00 80 b8 95 00 00 33 0c 00 00
       -3.3677e-41 -3.1301e-41 5.3709e-41 4.376e-42
000360 1a 17 00 80 fc 0a 00 80 ed b4 00 00 25 b8 00 00
       -8.287e-42 -3.94e-42 6.4904e-41 6.6059e-41
000370 2c 47 00 80 0d c1 00 80 ab 67 00 00 e0 10 00 00
       -2.5532e-41 -6.9254e-41 3.7189e-41 6.054e-42
000380 3a 72 00 80 09 1b 00 00 0b 5c 00 80 f6 79 00 00
       -4.0977e-41 9.698e-42 -3.3019e-41 4.3751e-41
000390 5f 7e 00 00 40 75 00 80 3c bd 00 80 e3 ae 00 00
       4.5333e-41 -4.2061e-41 -6.7885e-41 6.2738e-41
0003a0 d1 2c 00 00 3b 58 00 00 a0 28 00 00 5f 7b 00 80
       1.6077e-41 3.1651e-41 1.4574e-41 -4.4257e-41
0003b0 81 30 00 00 62 45 00 80 1e 28 00 00 82 57 00 80
       1.74e-41 -2.489e-41 1.4391e-41 -3.1392e-41
0003c0 88 74 00 00 e7 a0 00 80 ed 54 00 00 79 42 00 80
       4.1804e-41 -5.7721e-41 3.0466e-41 -2.3846e-41
0003d0 c9 79 00 80 ba 28 00 80 28 24 00 80 b5 0f 00 80
       -4.3688e-41 -1.461e-41 -1.297e-41 -5.635e-42
0003e0 25 3e 00 00 d8 b3 00 00 f0 25 00 00 1a 1f 00 00
       2.2293e-41 6.4516e-41 1.361e-41 1.1157e-41
0003f0 9c 02 00 80 9e 54 00 00 4a 75 00 80 8c ab 00 80
       -9.36e-43 3.0355e-41 -4.2075e-41 -6.154e-41

embedding_item_mf.bias f4 [8]
000000 75 72 00 00 45 81 00 80 50 74 00 00 6f 9f 00 00
       4.106e-41 -4.6373e-41 4.1725e-41 5.7194e-41
000010 67 af 00 80 42 17 00 80 10 c2 62 b2 e5 5c 00 80
       -6.2923e-41 -8.343e-42 -1.3199056e-08 -3.3324e-41

fc_layers.0.weight f4 [64, 16]
000000 a8 1a d1 b2 50 47 72 b3 4c 10 27 b6 e6 a8 e6 32
       -2.4342924e-08 -5.6409874e-08 -2.4894425e-06 2.685233e-08
000010 f4 d6 b3 b2 97 76 0b 2f 5c 69 34 b9 24 4d 31 b4
       -2.0936092e-08 1.2684108e-10 -0.00017205387 -1.6512473e-07
000020 f6 6a 83 2d 78 7b bd ac 37 39 4a 2c 43 52 21 2f
       1.4940476e-11 -5.385411e-12 2.8737687e-12 1.467209e-10
000030 35 5e df ad e6 3a 00 2b 39 33 4a a6 91 61 2f ac
       -2.5394001e-11 4.5556473e-13 -7.015225e-16 -2.4923156e-12
000040 3a da fa 38 6c 97 72 b6 f4 c0 22 b7 32 9c 21 b8
       0.00011961577 -3.614895e-06 -9.700878e-06 -3.853086e-05
000050 96 a7 16 b4 b0 36 81 b6 e2 ea 20 37 ec 0a 59 36
       -1.4030806e-07 -3.850866e-06 9.591431e-06 3.2341877e-06
000060 74 7a fe b5 02 a6 53 36 58 ab c9 b5 76 0c 03 b9
       -1.8960113e-06 3.153808e-06 -1.5025535e-06 -0.00012497776
000070 30 cf 31 36 9d 8a a8 b4 db e9 9c 38 cc 13 50 36
       2.6495654e-06 -3.1393293e-07 7.482219e-05 3.1005939e-06
000080 ba f1 0b b9 27 fb 87 b4 bc 2b 0d b0 bc 4a a5 b3
       -0.00013346123 -2.5328447e-07 -5.135765e-10 -7.697005e-08
000090 4a 2c cf b4 98 f6 c2 34 47 2e 2c 33 8e 85 49 b7
       -3.858898e-07 3.6314736e-07 4.008896e-08 -1.2011629e-05
0000a0 84 7f 8a 31 86 ba 8b b6 b0 1c 36 2f 46 59 62 32
       4.0308255e-09 -4.164237e-06 1.6562995e-10 1.317523e-08
0000b0 90 72 3f b1 2c 50 61 2d 18 63 9f 2d 1a c9 f1 ad
       -2.785928e-09 1.2807571e-11 1.8120214e-11 -2.7487835e-11
0000c0 b8 08 50 b8 20 3b 57 36 18 68 23 37 0a 11 ac b7
       -4.9599184e-05 3.2071912e-06 9.739793e-06 -2.0511932e-05
0000d0 ab df 4f b8 22 51 b3 37 c6 12 94 38 20 88 e2 37
       -4.9560953e-05 2.1376243e-05 7.060687e-05 2.7004688e-05
0000e0 05 98 2a 39 e3 dd a8 b8 2e d4 58 38 e1 56 0f be
       0.00016269095 -8.052194e-05 5.169602e-05 -0.13997985
0000f0 2e ae 07 b9 ba 94 a3 36 d4 2a ac b1 8a fe dc b7
       -0.0001293949 4.8750926e-06 -5.010728e-09 -2.6344573e-05
000100 a4 24 32 36 80 ac 90 ad 4e 87 ba 30 d6 48 8e 32
       2.6545395e-06 -1.644751e-11 1.3571737e-09 1.6564098e-08
000110 d0 07 fc ae d4 3c 36 af 0d 19 04 30 a8 72 c5 33
       -1.1461021e-10 -1.6574414e-10 4.805692e-10 9.194383e-08
000120 04 f7 0e 2b d9 98 43 a9 db 2b 2b 29 28 c6 e2 2e
       5.0791337e-13 -4.3431272e-14 3.8007666e-14 1.031249e-10
000130 da a8 16 ab fb 5a de 28 e6 ec 02 a4 63 32 12 aa
       -5.3525034e-13 2.4686408e-14 -2.8389917e-17 -1.2984886e-13
000140 50 a5 f2 b3 84 29 d9 35 f8 f0 25 38 2e e9 50 36
       -1.1299073e-07 1.6179843e-06 3.9563485e-05 3.1130144e-06
000150 14 6e 14 33 80 7f 1e 37 f7 ad 0d b5 44 fa 53 b2
       3.455905e-08 9.44722e-06 -5.2779745e-07 -1.233872e-08
000160 90 c2 61 b0 c2 a4 8a 31 0c bf 94 b1 c1 0e a0 34
       -8.2131013e-10 4.0350594e-09 -4.3290864e-09 2.9813057e-07
000170 6d 44 a2 b1 e3 ef 8b b0 b1 bb 01 2b 21 14 aa b0
       -4.7225996e-09 -1.0181761e-09 4.609048e-13 -1.2374849e-09
000180 27 0f 8b b2 38 bd f2 34 90 ae 66 b1 10 a1 c3 37
       -1.618862e-08 4.5213687e-07 -3.3568632e-09 2.3320812e-05
000190 88 d5 53 b3 88 eb 1c 39 60 b2 bf 33 dc cc de b8
       -4.932147e-08 0.00014965062 8.926577e-08 -0.00010623943
0001a0 af 98 fb 30 d4 37 05 2f 7e 1d f8 af d7 79 55 32
       1.8306049e-09 1.2116114e-10 -4.5131893e-10 1.2425935e-08
0001b0 b8 f4 2c af fb db 9a 33 8c 0b 43 a8 f0 1e c5 2c
       -1.573025e-10 7.211198e-08 -1.0827178e-14 5.6025115e-12
0001c0 a1 a0 55 38 ea 8e 0d 37 ee 68 5c b5 ce 88 bf 37
       5.0932755e-05 8.43753e-06 -8.210908e-07 2.2832679e-05
0001d0 fa 1c ba 33 8a 96 99 38 74 0f 76 36 50 3a 90 b8
       8.666571e-08 7.3236486e-05 3.6665851e-06 -6.8773166e-05
0001e0 11 92 c2 b4 b4 7d 12 b5 ec 41 09 34 fe 1a 76 b7
       -3.6241593e-07 -5.457216e-07 1.2783102e-07 -1.4669027e-05
0001f0 b8 b9 98 35 aa 88 90 b4 aa d8 c3 2e 10 7d 5f 35
       1.1378934e-06 -2.6921526e-07 8.9060606e-11 8.3255964e-07
000200 36 2e 99 b8 74 8d 18 36 35 05 f0 b6 6c 75 c8 b4
       -7.304216e-05 2.2732102e-06 -7.1531636e-06 -3.733834e-07
000210 04 f2 55 b7 22 11 98 b6 cc 11 1d 36 e0 83 59 b7
       -1.2752138e-05 -4.5319475e-06 2.3405182e-06 -1.29649125e-05
000220 16 e9 ec 35 5c 38 c8 b5 cb 19 90 34 a3 05 f0 b7
       1.7651207e-06 -1.4917564e-06 2.6840857e-07 -2.8612854e-05
000230 1a b8 1d b6 d1 ee 87 35 b7 9a ed 2e 68 32 7b b4
       -2.3501984e-06 1.0127789e-06 1.0804995e-10 -2.3394534e-07
000240 00 19 03 34 e5 9e 22 b5 1e 4d a1 b4 6c 8b f5 34
       1.220942e-07 -6.0580925e-07 -3.0044697e-07 4.573625e-07
000250 bd 46 8f 32 60 07 36 b4 a0 32 63 b2 60 bc 3c b5
       1.6679559e-08 -1.6952754e-07 -1.322465e-08 -7.030958e-07
000260 b2 57 04 2c ac 4d 84 ab 92 20 3a 2c 72 43 b8 ae
       1.8807009e-12 -9.400722e-13 2.645027e-12 -8.379332e-11
000270 2e 7f a6 2c 51 7d 3a a8 36 52 6b 27 60 f7 0f 2a
       4.7321235e-12 -1.0352248e-14 3.2657368e-15 1.2786777e-13
000280 6f 31 a7 34 f6 7e b8 b5 6a 40 91 34 9c 59 55 31
       3.1142142e-07 -1.3746019e-06 2.7055222e-07 3.1046516e-09
000290 9c a6 95 b6 60 00 47 b2 a8 72 5f b4 97 cc 54 b8
       -4.459942e-06 -1.158341e-08 -2.0810205e-07 -5.0735278e-05
0002a0 d0 d0 5d af 5c 0b 72 b6 a4 e4 63 30 22 b8 99 32
       -2.0174018e-10 -3.6067422e-06 8.2907037e-10 1.7895278e-08
0002b0 66 62 96 b0 24 9a f1 ad 20 c7 dc a6 a4 ef a9 ae
       -1.0941903e-09 -2.746698e-11 -1.531954e-15 -7.727799e-11
0002c0 e0 61 53 35 35 bb 95 36 36 45 85 b4 ab d9 d4 b4
       7.874605e-07 4.46234e-06 -2.4823538e-07 -3.9646451e-07
0002d0 76 0f 44 b7 64 c4 6b b7 30 34 8a 33 22 76 cd 38
       -1.168611e-05 -1.4052817e-05 6.4356186e-08 9.797166e-05
0002e0 f2 ab 94 b2 70 c9 68 31 99 e7 21 b1 d9 df 3f b5
       -1.730766e-08 3.3874947e-09 -2.3560232e-09 -7.1478786e-07
0002f0 0a 18 8c 33 f2 63 05 b1 da 57 a9 2b 6e 99 08 32
       6.523631e-08 -1.941086e-09 1.2032556e-12 7.951128e-09
000300 30 62 a4 b5 e0 76 d5 35 7a f4 db 37 5c 11 a6 b7
       -1.2247529e-06 1.5904334e-06 2.6220678e-05 -1.9796826e-05
000310 52 1c f7 33 68 c0 cd 34 f2 c8 15 36 7c eb 68 35
       1.1506985e-07 3.832422e-07 2.2319696e-06 8.676941e-07
000320 ea 6e bf 33 54 30 ba 32 56 14 5c 30 05 80 40 34
       8.914306e-08 2.1675227e-08 8.0064433e-10 1.7927967e-07
000330 8b 6d da b2 0c 74 0f b2 85 49 67 2d 41 59 d0 32
       -2.5428355e-08 -8.3500815e-09 1.3147154e-11 2.4254975e-08
000340 e3 16 8d 36 61 7e 36 b2 b6 71 80 b3 c4 be 05 b2
       4.204792e-06 -1.06225295e-08 -5.9811484e-08 -7.784994e-09
000350 68 83 5e b8 94 94 eb b6 36 ff 70 35 4e 9d ae 37
       -5.3051306e-05 -7.0208425e-06 8.977835e-07 2.0815667e-05
000360 ab 6a 6e b1 17 4a cc 31 24 25 e9 b6 c1 7b 92 34
       -3.4694192e-09 5.9456045e-09 -6.948265e-06 2.7284662e-07
000370 c6 a8 f6 b1 38 0e 88 2f b4 bb 13 2d 70 8f 5f af
       -7.1787296e-09 2.474836e-10 8.397661e-12 -2.0332691e-10
000380 95 61 24 37 d2 1a c9 38 f2 61 2c b3 30 34 57 b5
       9.797882e-06 9.5894226e-05 -4.013595e-08 -8.0169684e-07
000390 a2 45 7f 35 8e 0e e7 35 fc 67 38 b5 dc a0 e3 35
       9.509623e-07 1.7215077e-06 -6.869666e-07 1.6959634e-06
0003a0 7c 25 50 b3 24 02 21 32 3e ff 7e b2 45 e3 68 36
       -4.8462866e-08 9.37192e-09 -1.4842781e-08 3.4702982e-06
0003b0 4f 32 ea 34 bd e7 aa b0 f6 2f 93 2d 40 1a e7 b0
       4.36225e-07 -1.2434992e-09 1.6733264e-11 -1.6814923e-09
0003c0 9e e7 a9 36 9f 18 ba b5 ac 61 05 b5 7a fd 6f b6
       5.0635563e-06 -1.3865246e-06 -4.968849e-07 -3.5761318e-06
0003d0 96 11 5c b8 56 7b 95 b6 3f 2f a2 35 91 98 0b b4
       -5.2468466e-05 -4.4549042e-06 1.2083691e-06 -1.3000887e-07
0003e0 1f a0 8b 33 10 72 b3 31 fe 00 71 33 05 cb 99 37
       6.501818e-08 5.222553e-09 5.6113088e-08 1.833356e-05
0003f0 f3 e4 bd b5 5a 9e 95 b3 cc 3d 42 ae f3 dd a4 33
       -1.414823e-06 -6.967157e-08 -4.416538e-11 7.6772174e-08

fc_layers.0.bias f4 [64]
000000 c2 65 08 ae 2b 12 9f 38 34 6d ac 31 70 9d 80 3c
       -3.10132e-11 7.585095e-05 5.018274e-09 0.015700072
000010 a3 b7 79 ae e7 41 bf b4 c4 d8 a5 b1 a3 65 5d 36
       -5.6779147e-11 -3.5624473e-07 -4.8267754e-09 3.2990727e-06
000020 93 bb a0 38 59 33 3f 2f c6 49 1e b2 d7 ad f7 34
       7.664333e-05 1.7389591e-10 -9.213585e-09 4.613382e-07
000030 b4 9d ec 33 80 a3 ab ae fa b9 62 35 cf 4d a9 b7
       1.10182924e-07 -7.805223e-11 8.446219e-07 -2.0182602e-05
000040 5c bc 29 3d 3c 27 0b b9 b5 ca 42 b6 9e 6f a0 39
       0.0414394 -0.00013270689 -2.9026244e-06 0.0003060074
000050 10 ad 71 ad 72 53 fa 2f 75 43 1c 34 99 b8 be 2f
       -1.37376915e-11 4.5534027e-10 1.4553173e-07 3.4691963e-10
000060 69 14 b0 3b 40 59 3b 36 dc 74 4f 33 41 32 02 3d
       0.005373527 2.7917122e-06 4.8302226e-08 0.031786207
000070 ec 13 aa b5 09 27 19 3d 7d a4 16 37 a2 c0 a5 3c
       -1.2671785e-06 0.037390742 8.978995e-06 0.020233456
000080 64 f2 0a 35 0a 0e ac b5 78 87 c2 32 79 a1 67 b2
       5.176173e-07 -1.2819085e-06 2.2646176e-08 -1.3482684e-08
000090 0d 22 0e b0 e6 7a 26 b4 27 77 76 39 af fe 98 b4
       -5.170769e-10 -1.5504665e-07 0.00023504776 -2.8497513e-07
0000a0 68 38 d6 b2 32 45 31 3d 95 ad 4f 39 0b f2 19 b2
       -2.493853e-08 0.04327888 0.00019805723 -8.960806e-09
0000b0 c5 55 bd b2 6f 5f 5c b4 ca 5d 9a 3c 24 0e 49 3d
       -2.20415e-08 -2.0523815e-07 0.01884355 0.04908575
0000c0 c0 47 a4 39 62 6b aa b8 0a 6b af 3c 8d 59 d0 3c
       0.00031333975 -8.126233e-05 0.021413345 0.025433326
0000d0 72 c4 9f 39 f5 3c 14 b6 2d f0 10 36 ca df 17 af
       0.00030473206 -2.20892e-06 2.1597473e-06 -1.3812876e-10
0000e0 f0 e9 8d 35 68 5d 04 b2 5f 63 8d b1 ac 3e c8 b0
       1.0573403e-06 -7.704649e-09 -4.1149373e-09 -1.4569728e-09
0000f0 1e 29 0b 3d 9e ca 2e af 80 03 b7 b2 76 cc ff b6
       0.03397476 -1.5897192e-10 -2.1305596e-08 -7.6233946e-06

fc_layers.1.weight f4 [32, 64]
000000 f0 fa 59 ad c3 9e 76 38 f6 4e a3 b2 a6 cc 3b 3d
       -1.2390741e-11 5.879883e-05 -1.9011605e-08 0.045849465
000010 62 9d d7 2d c6 9c b3 34 ac 56 bf 31 43 65 1c 37
       2.4512562e-11 3.3455416e-07 5.568685e-09 9.321901e-06
000020 02 a9 04 b8 ea 4b e6 ae c6 46 ee b1 ba b0 8a 34
       -3.1628653e-05 -1.0472674e-10 -6.9347577e-09 2.5833089e-07
000030 7e c7 31 b3 52 0a cc 33 e5 63 95 35 a4 6f 1b b6
       -4.139246e-08 9.5013675e-08 1.1130438e-06 -2.3161783e-06
000040 a0 fc f3 3d 8e 38 14 39 fb 18 9b b6 02 ef 9c 39
       0.11913419 0.00014135448 -4.622268e-06 0.00029932713
000050 1f 2b fc 30 ca 20 97 af 45 22 e6 33 f4 e2 57 b0
       1.8347669e-09 -2.7490038e-10 1.0716443e-07 -7.8539064e-10
000060 d4 b9 8a 3c 71 fd f6 b7 9d 39 8d b5 c2 fe bb 3d
       0.016934313 -2.9443503e-05 -1.0522086e-06 0.091794506
000070 c1 a1 27 36 c0 31 dc 3d 66 29 f1 36 10 b6 71 3d
       2.4979092e-06 0.107516766 7.187179e-06 0.05901152
000080 ff 6d 36 35 95 4f d5 35 cd 02 be 33 53 24 5c 32
       6.796035e-07 1.5892898e-06 8.848074e-08 1.2813945e-08
000090 70 cc 96 30 a2 b6 26 34 f3 93 b6 39 ed 21 54 35
       1.0972041e-09 1.5526396e-07 0.00034823976 7.902552e-07
0000a0 00 d5 a6 b2 4d c7 fe 3d 7e 6d 39 39 4e 92 0f 31
       -1.9421805e-08 0.12440357 0.00017683764 2.0892403e-09
0000b0 81 05 ac b2 56 d3 8c 34 ab a1 62 3d ef 87 0f 3e
       -2.0025938e-08 2.62308e-07 0.05532996 0.14016698
0000c0 ca 81 80 39 16 4b ae b7 5c 0d 7f 3d 9d d9 97 3d
       0.00024510763 -2.0777381e-05 0.0622686 0.07414553
0000d0 06 d9 76 39 dc d6 76 34 86 f7 09 36 34 dd 5e 2e
       0.00023541236 2.2988701e-07 2.0558668e-06 5.0673424e-11
0000e0 76 fa 3f b6 36 a9 b3 32 c0 63 df b0 21 b6 1d b1
       -2.8607005e-06 2.091529e-08 -1.6253736e-09 -2.2950035e-09
0000f0 df 3e c9 3d 16 b6 ef af b0 76 cc b0 9c af 94 b7
       0.09826445 -4.3603227e-10 -1.4876687e-09 -1.772475e-05
000100 a4 f5 88 b2 8c 4d a4 b3 37 59 0b b5 f6 d6 7f 35
       -1.5944188e-08 -7.650951e-08 -5.191136e-07 9.530771e-07
000110 2e f6 f6 28 a9 6d 46 b5 d0 81 1a 34 f4 20 20 b1
       2.741825e-14 -7.3920324e-07 1.4389593e-07 -2.3301796e-09
000120 ba c0 d5 36 7e 2f 02 b6 c7 f6 08 b3 67 e8 6a af
       6.370331e-06 -1.9399154e-06 -3.188941e-08 -2.1364742e-10
000130 74 6c 0f af 5f c0 2b 32 f1 fe c8 2e a8 52 ab 31
       -1.3044305e-10 9.99725e-09 9.140234e-11 4.986152e-09
000140 1f 97 0c b6 fb 54 11 37 66 29 c4 2f 0e 19 89 31
       -2.094959e-06 8.66246e-06 3.5681608e-10 3.990073e-09
000150 d0 62 b9 36 b8 35 e3 32 b0 e7 f3 b7 94 50 2d b6
       5.524933e-06 2.6450707e-08 -2.9075745e-05 -2.5825912e-06
000160 60 8c ba b2 10 89 c6 b0 8d 51 6e af 5c d1 bf b5
       -2.1717085e-08 -1.4445352e-09 -2.1674947e-10 -1.429154e-06
000170 eb ee dd af d6 5e 00 b6 db aa 45 b3 58 78 ba 34
       -4.0369427e-10 -1.9128688e-06 -4.602303e-08 3.473276e-07
000180 92 d2 a7 b2 a6 82 53 34 80 e5 e1 ad 0f 84 16 b1
       -1.9537115e-08 1.9698436e-07 -2.5681457e-11 -2.190294e-09
000190 7f a4 d7 34 a0 d0 c7 b7 bc 6b fb b3 8b 7c 31 36
       4.0166557e-07 -2.3819797e-05 -1.1707695e-07 2.6447549e-06
0001a0 73 64 21 b3 67 5d 0f b6 94 22 e5 31 32 82 a3 37
       -3.757709e-08 -2.1363028e-06 6.6687083e-09 1.9491741e-05
0001b0 58 5f cf b4 40 af 56 ac 97 1a d5 34 fe 86 13 b6
       -3.8626126e-07 -3.0508512e-12 3.9693688e-07 -2.1983283e-06
0001c0 3f 8e bd 36 60 7e bc b7 d9 ff a8 34 80 02 b9 b4
       5.6491986e-06 -2.2470194e-05 3.1478592e-07 -3.4460754e-07
0001d0 a8 44 aa b2 bc 27 12 b0 06 a4 93 ae 59 b7 98 b2
       -1.9821826e-08 -5.3170957e-10 -6.7139225e-11 -1.7778506e-08
0001e0 af 73 a7 36 64 2c 28 2f e5 2d 9f b4 15 43 b0 b3
       4.990455e-06 1.5295282e-10 -2.964945e-07 -8.207841e-08
0001f0 4e 8d df b5 24 a8 d6 31 a0 2d 08 34 20 0e 12 2f
       -1.665592e-06 6.247335e-09 1.2682585e-07 1.3283641e-10
000200 e0 d4 49 ad 53 1f 49 38 44 da 0a 31 e7 51 fc 3c
       -1.1472795e-11 4.7951307e-05 2.0205713e-09 0.030800773
000210 66 79 16 2c 81 4f ae 34 bb ca 35 31 68 fb a1 37
       2.1383672e-12 3.2467872e-07 2.6454205e-09 1.9309766e-05
000220 76 b7 2d b8 68 b8 b2 ad 5e df 17 32 f8 c5 55 34
       -4.1417275e-05 -2.031815e-11 8.840145e-09 1.9909191e-07
000230 80 6d 7b b3 f9 2a 40 33 c0 73 22 b4 b7 53 31 37
       -5.854008e-08 4.4742567e-08 -1.5129535e-07 1.05695135e-05
000240 99 8f a3 3d 4a 0b 0b 39 55 ee bd b5 4f 30 99 39
       0.079863735 0.00013260279 -1.4150961e-06 0.00029218427
000250 52 71 12 31 a6 1f 87 2e d1 28 b0 33 dd eb a2 af
       2.1310211e-09 6.144711e-11 8.203063e-08 -2.963522e-10
000260 56 08 3b 3c 09 6d 91 37 ed 70 10 b5 2b 21 7c 3d
       0.011415562 1.733612e-05 -5.380851e-07 0.06155507
000270 58 c9 9a b4 c3 9e 93 3d 4c 82 8d 36 74 45 22 3d
       -2.8831232e-07 0.07208016 4.217296e-06 0.039617017
000280 30 5f 56 32 c3 da be 35 ee 93 5e 33 70 f7 2f 32
       1.2478083e-08 1.4219771e-06 5.1822944e-08 1.0242601e-08
000290 ce 8f 21 30 f7 10 12 34 11 e3 63 39 69 cc e0 34
       5.877582e-10 1.3603481e-07 0.00021732996 4.187198e-07
0002a0 85 e1 8d 32 48 cb aa 3d d9 e5 8f 38 ee 28 27 32
       1.6517115e-08 0.08339554 6.861584e-05 9.729986e-09
0002b0 69 37 4f 32 97 02 67 34 1b 2c 18 3d 2c 72 c0 3d
       1.2061585e-08 2.1514494e-07 0.037151437 0.093967766
0002c0 ba 1e 31 39 5b 79 54 38 cc 33 2b 3d 07 c2 4b 3d
       0.00016891482 5.065776e-05 0.041797444 0.049745586
0002d0 8e 15 47 39 5c 45 ab 35 e9 75 96 35 45 ae 96 2e
       0.00018986149 1.2760679e-06 1.1210187e-06 6.852167e-11
0002e0 e8 60 39 b7 a1 28 0f b2 47 bc 88 b1 31 d8 1c b0
       -1.1049422e-05 -8.3329335e-09 -3.9795256e-09 -5.7059696e-10
0002f0 36 ef 86 3d ed 0e b3 af 14 0f fd 32 ed 8a 4e 37
       0.065885946 -3.2570516e-10 2.9459933e-08 1.2310903e-05
000300 85 48 00 00 6b a1 00 80 15 9b 00 00 5d 27 00 80
       2.6015e-41 -5.7906e-41 5.5633e-41 -1.4121e-41
000310 d1 4b 00 80 a7 1c 00 00 61 29 00 00 f7 28 00 00
       -2.7198e-41 1.0279e-41 1.4844e-41 1.4695e-41
000320 e6 59 00 00 8a 1d 00 00 e5 81 00 00 5f 6a 00 00
       3.225e-41 1.0597e-41 4.6597e-41 3.8159e-41
000330 e3 09 00 80 f4 79 00 80 16 1e 00 80 00 99 00 00
       -3.547e-42 -4.3749e-41 -1.0793e-41 5.4886e-41
000340 82 6a 00 00 ec 63 00 80 a8 05 00 80 f1 98 00 80
       3.8208e-41 -3.5845e-41 -2.029e-42 -5.4865e-41
000350 21 a1 00 80 1d 2d 00 80 b1 13 00 80 36 52 00 80
       -5.7802e-41 -1.6184e-41 -7.064e-42 -2.9492e-41
000360 6b 8b 00 80 c0 24 00 80 f9 7c 00 00 8c 29 00 80
       -5.0014e-41 -1.3183e-41 4.4832e-41 -1.4904e-41
000370 19 a5 00 00 74 0f 00 00 21 79 00 80 fb 5e 00 80
       5.9226e-41 5.544e-42 -4.3453e-41 -3.4073e-41
000380 c4 94 00 80 ee 68 00 80 8b 47 00 80 8a b4 00 00
       -5.3367e-41 -3.7642e-41 -2.5665e-41 6.4765e-41
000390 04 62 00 80 b7 2d 00 80 15 41 00 80 7e 88 00 80
       -3.5161e-41 -1.64e-41 -2.3347e-41 -4.8964e-41
0003a0 82 20 00 80 9b 0f 00 80 b9 73 00 80 df 7d 00 80
       -1.1662e-41 -5.598e-42 -4.1513e-41 -4.5154e-41
0003b0 94 09 00 00 84 0e 00 00 96 a2 00 80 34 33 00 80
       3.436e-42 5.207e-42 -5.8325e-41 -1.8368e-41
0003c0 6e 82 00 00 2a 80 00 80 31 96 00 80 25 08 00 80
       4.679e-41 -4.5977e-41 -5.3879e-41 -2.922e-42
0003d0 6a a2 00 80 25 c1 00 80 1d 68 00 80 58 28 00 80
       -5.8263e-41 -6.9287e-41 -3.7349e-41 -1.4473e-41
0003e0 40 61 00 00 11 b4 00 80 b3 41 00 00 00 33 00 80
       3.4887e-41 -6.4596e-41 2.3568e-41 -1.8295e-41
0003f0 3d 31 00 00 cb 1d 00 80 1a 35 00 80 ea bf 00 80
       1.7663e-41 -1.0688e-41 -1.9049e-41 -6.8846e-41

fc_layers.1.bias f4 [32]
000000 87 bb 66 3c 9f 90 f9 b5 35 21 19 3c fe ac 00 80
       0.014082796 -1.8594036e-06 0.009346296 -6.2058e-41
000010 ef 02 00 00 15 b4 e1 3b d3 72 00 80 5f 4d a3 b4
       1.052e-42 0.0068879225 -4.1191e-41 -3.041741e-07
000020 44 5e bc b4 38 3a 64 33 4e df 62 b3 47 b5 77 3c
       -3.5086316e-07 5.3138336e-08 -5.282282e-08 0.0151189035
000030 c3 fa 8b 3c 19 5d 00 80 13 94 e9 3b b1 0d 00 80
       0.017087346 -3.3397e-41 0.0071282475 -4.912e-42
000040 46 06 00 80 02 d8 00 35 a4 2b 00 00 51 c7 0c b3
       -2.25e-42 4.799805e-07 1.5655e-41 -3.2777567e-08
000050 21 53 00 80 c8 65 84 3c 9d 11 00 80 c3 26 8b 3c
       -2.9821e-41 0.016161814 -6.318e-42 0.016986256
000060 62 ac 09 3c ce 39 00 00 7f cf a8 32 03 b3 a3 3c
       0.008402916 2.0736e-41 1.9652132e-08 0.01998282
000070 29 6e 45 35 50 98 98 33 80 16 37 33 8a 11 00 80
       7.3548523e-07 7.105757e-08 4.262847e-08 -6.292e-42
