neural-collaborative-filtering/src/checkpoints/pretrain_neumf_factor8neg4_Epoch26_HR1.0000_NDCG0.8437.model (torch, 579115 bytes, 15 tensors)

embedding_user_mlp.weight f4 [7700, 8]
000000 2f 09 16 2f be 48 88 31 fb c6 2c ae 3b 86 4a ac
       1.3645683e-10 3.9663908e-09 -3.9285002e-11 -2.878044e-12
000010 08 94 28 b2 b7 a9 b3 af e4 d1 0d b0 6e bc 10 b0
       -9.812545e-09 -3.26805e-10 -5.1593774e-10 -5.265467e-10
000020 f3 88 80 31 24 3c c6 31 a0 c5 09 34 76 b3 0e b6
       3.7408596e-09 5.7693956e-09 1.2831015e-07 -2.126411e-06
000030 6f 62 fc 35 d3 b2 5d 38 63 45 f0 ac d2 86 29 35
       1.8804111e-06 5.285705e-05 -6.8289137e-12 6.3153595e-07
000040 72 05 90 37 bd 53 00 31 2a 9a 21 ab 72 da 31 35
       1.7168673e-05 1.8674051e-09 -5.7412636e-13 6.625552e-07
000050 a8 e1 c2 ac 20 cb ce 2c a9 ee 24 ab 5b e4 0f b8
       -5.5388645e-12 5.8774235e-12 -5.859571e-13 -3.430653e-05
000060 12 4e cf 2e 3f a2 9f ac 67 6c 4d ad 93 0b 92 b2
       9.427138e-11 -4.5370647e-12 -1.1676971e-11 -1.70019e-08
000070 59 74 a6 2f 12 b2 f4 af 48 55 e2 2a cc 03 c9 ad
       3.0277894e-10 -4.4509868e-10 4.020484e-13 -2.285274e-11
000080 15 74 a2 b2 72 8b 0c 30 f5 6c da b0 59 b8 f1 b4
       -1.891207e-08 5.1129867e-10 -1.5892555e-09 -4.502388e-07
000090 92 12 d5 31 4a 7b 84 32 90 2c b1 ad 01 0c d9 2e
       6.201227e-09 1.5422888e-08 -2.014236e-11 9.87015e-11
0000a0 20 e8 c9 b0 17 b1 13 b0 7e f3 7a ad 79 94 00 34
       -1.4690649e-09 -5.372995e-10 -1.4264921e-11 1.1974943e-07
0000b0 3e 3a 30 30 98 8b 83 b1 4c 64 39 2c 73 79 ca af
       6.4111194e-10 -3.8284718e-09 2.6345757e-12 -3.682988e-10
0000c0 12 a5 9b 30 a8 06 04 b0 de 72 c0 31 57 42 7a b5
       1.132465e-09 -4.803078e-10 5.6009943e-09 -9.3228795e-07
0000d0 5d f7 b6 b2 16 4d dc 32 54 05 c3 2e ee 50 aa 30
       -2.1300076e-08 2.5646425e-08 8.86852e-11 1.239213e-09
0000e0 58 0e f7 32 5b 98 2b b1 00 7c 2c b1 25 65 c6 b4
       2.8761107e-08 -2.497038e-09 -2.509978e-09 -3.6953966e-07
0000f0 12 09 80 b1 ef c3 00 34 1a 7a 14 2e 34 12 c7 b6
       -3.7263215e-09 1.1992209e-07 3.3759752e-11 -5.9327813e-06
000100 26 f3 90 31 9c f2 92 b0 f4 05 01 b0 f4 ad f5 32
       4.2185944e-09 -1.0691852e-09 -4.6938387e-10 2.8600859e-08
000110 14 c9 92 b3 ee 63 8f 34 c8 0b 0c 2b a2 82 84 30
       -6.835231e-08 2.6708534e-07 4.975434e-13 9.641392e-10
000120 55 25 04 af d6 8c c4 2d bd 06 b4 2e 2c dc c6 31
       -1.2018593e-10 2.2345164e-11 8.186649e-11 5.787589e-09
000130 2e 51 55 30 5c 3a 31 b0 cc 0c 5f ab 0a e3 c9 ae
       7.760431e-10 -6.447516e-10 -7.9243274e-13 -9.180752e-11
000140 36 53 15 32 7c 85 ed b0 6c 12 2f af bd b6 a0 b4
       8.6918615e-09 -1.7281958e-09 -1.5922702e-10 -2.9935282e-07
000150 d4 e9 e9 b1 93 57 23 32 9a 22 23 2e 23 55 92 30
       -6.8077757e-09 9.507761e-09 3.709264e-11 1.0647095e-09
000160 18 50 39 b0 fc 7a 04 30 44 f9 0f ae 68 dc 47 33
       -6.741643e-10 4.819609e-10 -3.2735828e-11 4.6533756e-08
000170 92 ca 53 b1 33 6a a8 b1 74 01 7f 2b 05 b6 25 af
       -3.081969e-09 -4.901517e-09 9.0596215e-13 -1.5071329e-10
000180 2f 58 41 31 c2 7f 0e b0 94 24 9a b0 4f 65 d2 b4
       2.8135323e-09 -5.1840854e-10 -1.1215371e-09 -3.918926e-07
000190 84 92 b6 b0 f7 0d 1c 33 a0 8f 1f 2d 21 de 04 31
       -1.3283885e-09 3.633428e-08 9.069995e-12 1.9334794e-09
0001a0 33 cd 1e 31 b2 53 81 ae d5 40 2e af 96 4d c7 31
       2.3108668e-09 -5.881108e-11 -1.5848241e-10 5.8004828e-09
0001b0 3b 87 11 b1 9f bd 4d b0 42 2d a0 ab d3 62 e0 ae
       -2.1177147e-09 -7.4848033e-10 -1.1381245e-12 -1.02038954e-10
0001c0 1b b9 1e af 4b 2b c1 ad 88 bc e0 ac 6a 7b 41 31
       -1.4435779e-10 -2.1960786e-11 -6.387394e-12 2.815535e-09
0001d0 f3 8e ac 2d 61 6e 52 2e 22 fe 29 2a 9c c3 00 ae
       1.9617618e-11 4.7846508e-11 1.5098385e-13 -2.9277566e-11
0001e0 1c d9 91 ac 4a 43 4c 30 29 f4 2f 32 41 56 81 2d
       -4.145252e-12 7.431039e-10 1.0241856e-08 1.4703906e-11
0001f0 bc d1 5d 36 74 7b 11 30 ea d8 d4 32 80 fe c4 ae
       3.3053648e-06 5.292613e-10 2.477869e-08 -8.9582564e-11
000200 1c a7 a8 b0 d0 1d 92 ac 85 09 47 2c f3 d9 a5 30
       -1.2271104e-09 -4.1528794e-12 2.8284885e-12 1.2067275e-09
000210 4f 62 5d b0 46 28 bf b0 d3 e4 ab 29 56 e7 82 ad
       -8.0539037e-10 -1.3908525e-09 7.63362e-14 -1.4882023e-11
000220 42 be 0e 32 23 11 6a af 0d 27 0b 30 de 7a 8f 33
       8.3087475e-09 -2.1288264e-10 5.06234e-10 6.681306e-08
000230 88 ab cf 31 48 f8 d3 31 ae 5d 8a ab c7 d3 ee 2f
       6.0439937e-09 6.1691345e-09 -9.831491e-13 4.3442425e-10
000240 e6 5f 0b 2b 53 e8 cc 29 56 a0 32 a9 5a 6d 1e ae
       4.9515806e-13 9.099722e-14 -3.966301e-14 -3.6022164e-11
000250 ec 76 86 2a 37 2c 8c ab 38 a1 c9 a6 b0 23 2f 28
       2.38857e-13 -9.95987e-13 -1.3990875e-15 9.72219e-15
000260 10 c3 c8 ae 58 62 ab aa 9b 6a 67 2d c9 52 e0 31
       -9.129597e-11 -3.0443942e-13 1.3154501e-11 6.5286696e-09
000270 ee 89 c3 2f d8 42 99 af 09 39 4a 28 60 a4 bd ad
       3.5568298e-10 -2.7878033e-10 1.122562e-14 -2.155981e-11
000280 86 c0 38 2d c9 f6 94 ae 64 b2 9c 2e c4 6f c3 31
       1.0501938e-11 -6.7740986e-11 7.125747e-11 5.687953e-09
000290 40 a4 06 ae c6 ad 47 af ee 57 ed aa 13 68 ed ad
       -3.0613956e-11 -1.8160681e-10 -4.216067e-13 -2.6989999e-11
0002a0 a4 b5 e5 ad 93 4e 9b 2d 0a ed 14 2f c5 07 d6 32
       -2.611495e-11 1.7656354e-11 1.3544735e-10 2.4916412e-08
0002b0 64 f5 1a 31 79 cc c2 b0 a5 14 50 ac 78 fb 84 2e
       2.2549438e-09 -1.4173472e-09 -2.9570038e-12 6.047335e-11
0002c0 c0 70 1b 2d 66 fa d3 ac d1 d2 17 ac 7a 99 1f 30
       8.8357655e-12 -6.0247805e-12 -2.1575417e-12 5.8061966e-10
0002d0 15 6a 1e 2e 50 05 ea ae 13 f9 60 aa 54 33 c7 ac
       3.601926e-11 -1.0642032e-10 -1.9981612e-13 -5.6616187e-12
0002e0 da 16 84 af b6 52 cc 2d 08 b0 c8 2e ec 70 5a 32
       -2.4026897e-10 2.3228846e-11 9.1262164e-11 1.27149455e-08
0002f0 7c f0 4a af 21 af 50 b0 d8 15 64 2b 49 43 03 2f
       -1.845723e-10 -7.591883e-10 8.1032186e-13 1.1938285e-10
000300 ff ab 49 2f 5d 6c a4 2f 0c 83 50 af 95 35 8b b3
       1.8341949e-10 2.9908423e-10 -1.8964047e-10 -6.4824384e-08
000310 2a 34 04 32 30 a1 d5 b0 b3 3f b2 ab 6e f4 50 ae
       7.695272e-09 -1.5543602e-09 -1.2665341e-12 -4.751082e-11
000320 dd ed b0 b0 81 b9 56 2f 06 9c 68 2f c2 79 12 31
       -1.287329e-09 1.9529091e-10 2.1155708e-10 2.1315008e-09
000330 ca a9 12 b0 ba 81 f5 b0 a6 86 ad ab 7b 8a 08 2e
       -5.3355775e-10 -1.7862967e-09 -1.2329762e-12 3.1045815e-11
000340 36 0e 57 2e dc 47 ac ad d2 a0 90 2e 97 77 b5 b0
       4.8897962e-11 -1.9586048e-11 6.576929e-11 -1.3203473e-09
000350 b9 55 bf 2f 23 3b e4 ae 92 e1 0e ab de e1 71 ad
       3.4803607e-10 -1.03787444e-10 -5.0761576e-13 -1.37494165e-11
000360 89 fa 47 b1 10 9a b6 2f 6a ac e4 2f 68 ae 79 34
       -2.9100724e-09 3.3215075e-10 4.1595466e-10 2.3253381e-07
000370 6c 1d a7 b0 7c a0 98 b2 b9 72 05 ab 66 78 1d b0
       -1.2159211e-09 -1.7768109e-08 -4.74103e-13 -5.7287364e-10
000380 0b e5 84 2d e0 06 2f ac 44 14 ce 34 83 eb 4f 2f
       1.5108378e-11 -2.4872812e-12 3.8385235e-07 1.8910211e-10
000390 58 cc bf b4 93 66 7f b5 c9 3d 7d b3 d8 a0 1b 34
       -3.5725202e-07 -9.514417e-07 -5.8962346e-08 1.4494015e-07
0003a0 20 4a 4a ac 19 9d 31 b6 d8 5c 5f af 04 af 09 b6
       -2.8747074e-12 -2.6466498e-06 -2.0314717e-10 -2.0516463e-06
0003b0 e9 db 0f b7 fc 97 ee b2 57 5d 27 af 7e 0c ad 36
       -8.574666e-06 -2.7775961e-08 -1.5221722e-10 5.157256e-06
0003c0 5c 94 aa 2e d8 81 72 af b4 36 ac 2f 8a e6 80 b2
       7.757059e-11 -2.2055902e-10 3.1325487e-10 -1.5005998e-08
0003d0 54 24 70 31 90 47 79 b2 c1 1a 81 ac cb 7b 92 b0
       3.4945247e-09 -1.4509979e-08 -3.669371e-12 -1.0658082e-09
0003e0 ab c7 f1 af 90 d4 b8 2f 45 48 9c 2d a4 b5 92 32
       -4.3979517e-10 3.362044e-10 1.776724e-11 1.7079238e-08
0003f0 83 71 4e 31 d1 11 1b b0 43 d2 93 ab cb 4a 1a af
       3.004147e-09 -5.641399e-10 -1.0503338e-12 -1.403279e-10

embedding_item_mlp.weight f4 [8, 1024]
000000 50 a9 3f 1a 0b fe ba 19 53 46 08 1a 03 0a 59 1a
       3.9634644e-23 1.9334556e-23 2.8180948e-23 4.4882636e-23
000010 6c 8d 81 1a b0 52 d3 9a 61 13 fd 1a 48 ff 9c 19
       5.358163e-23 -8.7401143e-23 1.04669656e-22 1.623313e-23
000020 34 01 b7 98 3a b5 7a 9a c8 03 e5 97 b9 c4 dc 1a
       -4.7305606e-24 -5.1845182e-23 -1.4799733e-24 9.130769e-23
000030 2f b3 17 9a 89 24 29 9a bc 83 1d 1b c8 55 0c 9a
       -3.137081e-23 -3.4977894e-23 1.3029301e-22 -2.9020615e-23
000040 6f 80 6f 99 76 e1 b9 19 bc 91 d8 1a f2 cb 4f 9b
       -1.2381947e-23 1.9219615e-23 8.957095e-23 -1.7188537e-22
000050 a7 ae 3a 18 ac fb 94 9a bd a8 2a 9a 63 a2 c5 19
       2.4128113e-24 -6.1617963e-23 -3.5291482e-23 2.043491e-23
000060 e2 44 32 99 91 f9 ad 1a ad 3d 2c 1b 2e 30 c5 1a
       -9.216295e-24 7.195432e-23 1.4247435e-22 8.155513e-23
000070 a4 a6 57 99 9f 9a 6f 9a 26 8b 63 18 1f 7c b2 99
       -1.1148892e-23 -4.9548944e-23 2.9409314e-24 -1.84549e-23
000080 fe 56 f4 9a 10 ce 6e 9a 94 2c d6 9a cf 53 a9 9a
       -1.0105658e-22 -4.9383702e-23 -8.8580345e-23 -7.003216e-23
000090 62 7d e5 1a 70 b9 c5 99 56 9a e3 9a a4 ae 94 1a
       9.491475e-23 -2.044422e-23 -9.413434e-23 6.149351e-23
0000a0 e0 13 2f 9b b6 6e 02 19 c0 03 44 1a 14 f1 89 19
       -1.4482083e-22 6.7432e-24 4.053488e-23 1.4262839e-23
0000b0 5a 31 5e 9b 64 6f 19 9a cf 8a 60 9a ef ac 0a 1a
       -1.8379356e-22 -3.172964e-23 -4.6434243e-23 2.8677426e-23
0000c0 18 7e 5e 97 e3 64 0f 9b c7 75 c9 9a 34 73 39 9a
       -7.189122e-25 -1.1861281e-22 -8.332193e-23 -3.8350164e-23
0000d0 42 61 12 9b a2 25 c0 19 53 d9 fc 1a 98 c2 f7 9a
       -1.2108263e-22 1.9867534e-23 1.04575863e-22 -1.0247119e-22
0000e0 66 6c 51 1a 86 68 99 9a b2 88 a9 1a 68 23 1d 19
       4.330775e-23 -6.3448184e-23 7.0117605e-23 8.12386e-24
0000f0 76 77 93 9a ca 88 2e 9a 62 90 df 99 5c 1a de 98
       -6.0990775e-23 -3.6092854e-23 -2.3115975e-23 -5.741227e-24
000100 38 5a 22 9b b5 09 f7 19 4e 51 5c 1a b6 ba 9f 1a
       -1.3429477e-22 2.5543122e-23 4.556061e-23 6.6062506e-23
000110 d8 81 98 9a f5 5a 44 9b fb 8d 88 1b ac 56 59 1a
       -6.30755e-23 -1.624213e-22 2.2591065e-22 4.494456e-23
000120 3f ed 29 1a 1a 12 7f 9a 41 41 74 1a 43 1c e3 9a
       3.5140027e-23 -5.2747386e-23 5.051073e-23 -9.393066e-23
000130 58 68 41 1a c2 a6 c5 1a 18 37 9f 9a 15 a8 08 1a
       3.9995753e-23 8.17467e-23 -6.584987e-23 2.8259916e-23
000140 5a 37 c8 9a e1 06 3a 99 8b 6c c7 98 33 c8 2a 99
       -8.2807487e-23 -9.617364e-24 -5.1549895e-24 -8.829224e-24
000150 32 ef ab 99 46 b6 3f 99 6e 3f d8 1a 95 0b fb 9a
       -1.7777596e-23 -9.911278e-24 8.943798e-23 -1.0382988e-22
000160 b1 1d 98 9a a3 21 8d 1a b2 68 23 19 62 61 e8 19
       -6.2913696e-23 5.8370576e-23 8.4480455e-24 2.402757e-23
000170 b7 60 b5 9a ba c0 4c 9b 92 e4 bb 9a 4a c9 3c 9b
       -7.5016097e-23 -1.6936758e-22 -7.771066e-23 -1.5616036e-22
000180 91 a7 23 1a 52 fd 41 19 54 d7 9f 9a 80 26 b2 1a
       3.384297e-23 1.0029024e-23 -6.610874e-23 7.3681275e-23
000190 6a c2 89 1a 85 b1 a2 9a 5d 8a 6d 9b 10 9e 01 1a
       5.6975965e-23 -6.728843e-23 -1.9648888e-22 2.6804257e-23
0001a0 5e bd 89 99 4c 98 55 9a 4e e1 9f 9a 39 e5 12 1b
       -1.4241953e-23 -4.4170392e-23 -6.612486e-23 1.2150903e-22
0001b0 81 55 e2 1a d6 6e 11 9b 41 48 04 1a 0d 6d d3 99
       9.360955e-23 -1.2029932e-22 2.7355326e-23 -2.1860934e-23
0001c0 9b 7a 4e 1a a2 fe d9 18 b6 48 ea 19 5c d3 e8 9a
       4.269884e-23 5.63503e-24 2.42244e-23 -9.629442e-23
0001d0 5a 66 84 1a 43 4a e0 1a b4 19 ae 19 59 1a 83 19
       5.475928e-23 9.2764205e-23 1.800156e-23 1.3555724e-23
0001e0 57 92 fd 18 b9 bb a3 98 46 94 c3 19 2e 57 8e 1a
       6.5546733e-24 -4.2324064e-24 2.0222415e-23 5.887067e-23
0001f0 ab c1 c9 18 0d 25 84 19 80 36 e5 1a 28 e4 01 1b
       5.2152837e-24 1.3663445e-23 9.480023e-23 1.0744351e-22
000200 d4 89 8c 19 b9 2f 23 1a d6 ce 07 1a d3 bb 94 1a
       1.4531329e-23 3.374616e-23 2.8084426e-23 6.151481e-23
000210 fa bb 59 1a 35 70 37 1b 21 2a d5 99 af 3f db 9a
       4.5026394e-23 1.5173661e-22 -2.20407e-23 -9.0679163e-23
000220 00 07 2f 9a f8 a8 de 1a d2 6e 84 99 5b 65 00 9a
       -3.6194806e-23 9.209003e-23 -1.369324e-23 -2.6551654e-23
000230 e9 c0 36 1a 1f ae 9b 99 1b 14 84 19 ff 7b 8c 1a
       3.779255e-23 -1.6096951e-23 1.36566e-23 5.810297e-23
000240 47 22 03 1a 25 1c 33 9a ef a3 9d 1a 48 e7 e3 99
       2.7117854e-23 -3.7039067e-23 6.519853e-23 -2.3564664e-23
000250 50 06 1a 1b 4b 55 f5 99 48 39 c4 1a 18 0d 65 1a
       1.2740621e-22 -2.5366856e-23 8.115624e-23 4.7366667e-23
000260 e7 03 4a 1a aa 90 29 1a a0 f9 39 19 d6 51 4b 1a
       4.1775773e-23 3.506524e-23 9.614687e-24 4.2045523e-23
000270 ca ae 89 1a 4a 8f 83 1a 9d 22 1b 1b ee 6c 46 19
       5.694426e-23 5.4411826e-23 1.2832484e-22 1.0258358e-23
000280 8e be 32 9b c3 ad 6a 9a 50 47 ab 1a e4 2d 59 19
       -1.4785386e-22 -4.853043e-23 7.0839154e-23 1.12279046e-23
000290 02 32 20 19 89 e9 df 9a 8f 4b e7 1a 26 14 c0 98
       8.281905e-24 -9.2607935e-23 9.566143e-23 -4.965118e-24
0002a0 20 a4 c9 1a f6 2b 49 1a f8 b4 92 19 ba 13 c7 19
       8.339681e-23 4.1601337e-23 1.5169139e-23 2.0584085e-23
0002b0 5c b2 c7 9a 1c fa 2d 1b a8 99 29 9b 76 65 44 1a
       -8.2592626e-23 1.4391039e-22 -1.4029001e-22 4.061381e-23
0002c0 58 26 24 9b 97 6e 37 1a 28 3c 41 9a f3 23 39 1a
       -1.3578152e-22 3.7932847e-23 -3.9960058e-23 3.8286143e-23
0002d0 85 e1 a4 9a ba 56 60 9a ce ef 88 9a c8 31 42 19
       -6.8193157e-23 -4.639217e-23 -5.663571e-23 1.0039618e-23
0002e0 a5 e6 65 1b e2 b2 13 9a 2b ca e2 99 82 4b 81 99
       1.9016961e-22 -3.0543388e-23 -2.3449507e-23 -1.3368785e-23
0002f0 f2 14 41 9a 26 02 b4 9a a2 b6 bc 9a 28 66 33 1a
       -3.9928384e-23 -7.4449726e-23 -7.8050037e-23 3.7098854e-23
000300 ab 29 b4 9a 4b 16 4e 1b f1 a4 12 9b 0b b1 9c 1a
       -7.4513573e-23 1.7047124e-22 -1.2130132e-22 6.4806116e-23
000310 c5 f6 4d 1a f8 40 6e 1a 48 a0 20 1a 5e 45 10 9b
       4.2592345e-23 4.9269728e-23 3.32167e-23 -1.1933815e-22
000320 50 f8 29 9a 9f 88 c0 9a 76 3a 20 9a 77 e2 84 9a
       -3.5148966e-23 -7.963006e-23 -3.313445e-23 -5.4959794e-23
000330 66 e5 15 9b 08 c0 9b 19 8c 07 de 19 f4 1a de 1a
       -1.2399114e-22 1.6104185e-23 2.295731e-23 9.186059e-23
000340 6d 2c a8 9a f1 96 92 9a 6f 04 b0 1a 07 c0 56 9b
       -6.9554945e-23 -6.0628044e-23 7.2799057e-23 -1.7763712e-22
000350 f2 a3 a2 1a 03 ff bd 9a 8a 41 67 9a fd 6f ab 18
       6.72665e-23 -7.858056e-23 -4.7822622e-23 4.4315543e-24
000360 d0 49 8b 1a 14 1e 0e 1a a3 1b 57 9a 7e a1 b0 1a
       5.76083e-23 2.938921e-23 -4.4483283e-23 7.30528e-23
000370 b2 d2 26 9a 72 1c e1 18 3c 37 3c 9b 3e fe 86 99
       -3.4498194e-23 5.818986e-24 -1.5568843e-22 -1.3957963e-23
000380 5c dc ae 18 6b 50 3b 9b 2b 67 80 9a 78 26 96 19
       4.520045e-24 -1.5494262e-22 -5.3106236e-23 1.5525174e-23
000390 bd 2d 67 9b f3 cb 88 19 45 bf 7e 9a 10 92 36 1a
       -1.9122651e-22 1.4144445e-23 -5.2680475e-23 3.7754706e-23
0003a0 28 ee 68 9a 19 fe 37 1a 3e cb 72 99 d6 2d 4d 9a
       -4.8168857e-23 3.804877e-23 -1.2552151e-23 -4.2430032e-23
0003b0 f8 a1 51 9a ce d9 04 1b 7b cd 9a 1a 60 6a c4 99
       -4.3351024e-23 1.098916e-22 6.402488e-23 -2.030889e-23
0003c0 92 5f 0a 1a d9 75 56 1b 7d 3c f2 9a e2 ef a8 98
       2.8614932e-23 1.7739744e-22 -1.0018658e-22 -4.36692e-24
0003d0 d6 85 28 98 e1 06 57 9a 82 6a 4d 1b f1 be 11 9a
       -2.178106e-24 -4.4466515e-23 1.6991617e-22 -3.013954e-23
0003e0 5a b1 4c 9a 30 07 f8 9a 25 fc 74 1a cd 79 3c 19
       -4.2329475e-23 -1.0258201e-22 5.0661698e-23 9.74397e-24
0003f0 73 97 ff 19 44 b3 cc 1a 21 66 e8 9a 23 ce 89 9a
       2.6427552e-23 8.466204e-23 -9.611795e-23 -5.6994904e-23

embedding_item_mlp.bias f4 [8]
000000 76 ce 48 9a 87 8c d4 39 4e 23 af 2e 76 ab d0 bd
       -4.152581e-23 0.00040540492 7.96435e-11 -0.101889536
000010 b5 c6 26 98 ce df 75 36 3a de fb 1b e0 eb 80 b5
       -2.1555319e-24 3.6638116e-06 4.1668077e-22 -9.605392e-07

embedding_user_mf.weight f4 [7700, 8]
000000 ac 97 00 00 64 60 00 00 8e 3f 00 80 de 4f 00 00
       5.441e-41 3.4578e-41 -2.2799e-41 2.8651e-41
000010 67 38 00 00 a3 3b d3 03 8f 6f 00 80 e7 8a 00 80
       2.0233e-41 1.2415157e-36 -4.002e-41 -4.9829e-41
000020 fe 13 00 80 cc 03 00 80 08 af 00 00 05 09 00 00
       -7.172e-42 -1.362e-42 6.279e-41 3.236e-42
000030 e1 0a 16 00 03 74 00 80 50 1f 00 80 5b 62 00 80
       2.024284e-39 -4.1617e-41 -1.1233e-41 -3.5283e-41
000040 48 29 02 00 09 3f 00 80 34 de 25 26 32 32 00 00
       1.9848e-40 -2.2613e-41 5.7547016e-16 1.8007e-41
000050 9c ea e7 28 2e 32 00 00 79 80 fd a2 40 49 00 80
       2.5747897e-14 1.8001e-41 -6.8711813e-18 -2.6277e-41
000060 03 05 00 00 9b af 00 00 91 06 00 00 e4 8a 00 80
       1.798e-42 6.2995e-41 2.356e-42 -4.9825e-41
000070 76 3e 00 80 34 3c a1 28 f7 7c 00 00 c7 21 00 80
       -2.2407e-41 1.79007e-14 4.4829e-41 -1.2117e-41
000080 2e 3c 00 00 52 2d 00 80 e2 2e 00 80 21 03 00 00
       2.1588e-41 -1.6258e-41 -1.6818e-41 1.122e-42
000090 f3 bf 00 80 36 70 00 00 b4 90 00 80 fa 06 00 80
       -6.8858e-41 4.0254e-41 -5.191e-41 -2.503e-42
0000a0 99 1e ea af fb 73 00 00 0c d9 1e 2b e9 27 00 00
       -4.2586093e-10 4.1606e-41 5.643409e-13 1.4317e-41
0000b0 df cc c4 a6 15 e2 02 80 3a 30 00 80 b3 5d 00 00
       -1.3655762e-15 -2.64774e-40 -1.73e-41 3.3613e-41
0000c0 04 0a 00 80 78 15 00 00 de 7d 00 80 4a 75 00 80
       -3.593e-42 7.702e-42 -4.5153e-41 -4.2075e-41
0000d0 70 66 00 80 40 f4 32 17 ad 35 00 80 5f 6c 00 00
       -3.6748e-41 5.782319e-25 -1.9255e-41 3.8876e-41
0000e0 9c 9c 00 80 01 20 00 80 5e 07 00 80 02 f2 c5 16
       -5.6181e-41 -1.1481e-41 -2.643e-42 3.1979795e-25
0000f0 60 4d 00 00 a6 2f 00 80 83 5d 00 00 96 49 af a5
       2.7757e-41 -1.7093e-41 3.3546e-41 -3.0407525e-16
000100 1f 15 00 80 7e 72 00 00 3b 11 00 00 1c b3 00 80
       -7.577e-42 4.1072e-41 6.181e-42 -6.4252e-41
000110 f1 14 00 80 46 1a 00 00 2d b3 00 00 fc 55 00 00
       -7.512e-42 9.425e-42 6.4276e-41 3.0845e-41
000120 6a 63 11 a1 af 01 1e 80 5f 28 00 00 b2 24 00 00
       -4.9259484e-19 -2.755669e-39 1.4482e-41 1.3164e-41
000130 0d 30 00 00 d7 eb cf 18 1c a6 00 80 ea 3f 00 00
       1.7237e-41 5.3746383e-24 -5.9589e-41 2.2928e-41
000140 8b a8 00 00 50 72 00 80 0b 40 00 00 11 49 00 00
       6.0462e-41 -4.1008e-41 2.2974e-41 2.6211e-41
000150 4c d6 95 98 cf b9 6d 26 28 74 00 00 df 30 00 80
       -3.873198e-24 8.247771e-16 4.1669e-41 -1.7532e-41
000160 6d 10 00 00 90 4c 00 00 46 89 00 80 9b a9 01 00
       5.892e-42 2.7465e-41 -4.9244e-41 1.52678e-40
000170 bf 3c 00 80 10 66 00 80 4e 4d 00 80 6e 00 00 00
       -2.1792e-41 -3.6613e-41 -2.7732e-41 1.54e-43
000180 a6 10 00 80 38 0a 2c 10 c4 7d 00 00 23 04 00 00
       -5.972e-42 3.392889e-29 4.5116e-41 1.484e-42
000190 7a 1c fe 9a 7a b8 00 00 3b 71 9a 8e 39 22 00 80
       -1.05097944e-22 6.6178e-41 -3.8072968e-30 -1.2277e-41
0001a0 ec 07 00 80 42 7d 00 80 69 40 00 80 97 0c 00 00
       -2.842e-42 -4.4934e-41 -2.3106e-41 4.516e-42
0001b0 d6 0a 00 80 36 1b 00 00 8e 8e 00 80 10 7d 00 80
       -3.887e-42 9.761e-42 -5.1139e-41 -4.4864e-41
0001c0 a4 26 00 80 fb 19 00 00 23 02 00 00 ad 03 00 80
       -1.3862e-41 9.32e-42 7.67e-43 -1.319e-42
0001d0 16 54 aa 99 98 11 5a 32 ea 2a 00 80 a7 1d 00 00
       -1.761155e-23 1.269327e-08 -1.5395e-41 1.0637e-41
0001e0 cb 7f 00 80 3b 76 00 80 d3 43 00 00 fd 26 00 80
       -4.5843e-41 -4.2413e-41 2.4331e-41 -1.3986e-41
0001f0 aa 7c 00 00 a2 61 00 80 81 63 00 80 a0 4f 00 80
       4.4721e-41 -3.5024e-41 -3.5695e-41 -2.8564e-41
000200 a8 bb 8d 8e 41 53 00 80 f8 4b 00 80 98 21 00 00
       -3.493989e-30 -2.9866e-41 -2.7252e-41 1.2051e-41
000210 4c 10 18 83 1a 4b 3d 0f db 48 0e 9c 86 07 00 80
       -4.4687493e-37 9.3328835e-30 -4.707802e-22 -2.699e-42
000220 36 16 00 80 a0 df 16 27 50 3b 00 80 83 46 d9 98
       -7.968e-42 2.093791e-15 -2.1277e-41 -5.6164384e-24
000230 34 18 00 80 71 f0 0c 00 c3 01 00 80 4d 6e 00 00
       -8.682e-42 1.18828e-39 -6.32e-43 3.9568e-41
000240 22 2c ca 9f 11 3d 00 80 d4 57 00 80 89 06 00 80
       -8.562334e-20 -2.1906e-41 -3.1507e-41 -2.344e-42
000250 61 20 00 00 d5 95 00 00 c3 18 12 9c 9e 53 00 80
       1.1615e-41 5.375e-41 -4.833935e-22 -2.9996e-41
000260 19 02 00 00 fc 75 00 00 25 90 00 00 db 1d 00 00
       7.52e-43 4.2325e-41 5.171e-41 1.071e-41
000270 0f 09 06 80 60 e1 3a 89 76 6c 00 80 5b 15 00 00
       -5.54263e-40 -2.2494906e-33 -3.8908e-41 7.661e-42
000280 e9 a3 00 80 60 74 00 00 68 3a 00 80 33 8b 00 80
       -5.88e-41 4.1747e-41 -2.0952e-41 -4.9935e-41
000290 1c 2b 00 00 42 84 15 80 ff 0d 00 80 c6 af 00 80
       1.5465e-41 -1.97599e-39 -5.021e-42 -6.3056e-41
0002a0 d5 1e e6 a7 de 40 00 80 81 88 00 00 a0 4d 00 80
       -6.387125e-15 -2.327e-41 4.8968e-41 -2.7847e-41
0002b0 06 59 00 00 46 61 00 00 4b 1e 00 80 65 26 00 80
       3.1936e-41 3.4895e-41 -1.0867e-41 -1.3773e-41
0002c0 a2 0b 00 80 e2 8e 00 80 f6 50 00 00 e3 8f 00 00
       -4.173e-42 -5.1257e-41 2.9043e-41 5.1617e-41
0002d0 83 9c 00 80 0e 58 00 80 78 00 00 80 19 7b 00 80
       -5.6146e-41 -3.1588e-41 -1.68e-43 -4.4159e-41
0002e0 65 95 00 00 38 03 00 80 05 c6 93 1b d8 c4 00 80
       5.3593e-41 -1.155e-42 2.4447077e-22 -7.0614e-41
0002f0 19 67 00 80 7f 41 3f 2a a2 68 00 80 fb 6f 00 00
       -3.6984e-41 1.6986931e-13 -3.7535e-41 4.0171e-41
000300 36 45 00 00 31 1d 00 00 92 19 00 00 8c 19 00 80
       2.4828e-41 1.0472e-41 9.173e-42 -9.164e-42
000310 f2 78 00 00 16 85 00 00 ad 29 00 80 fa 81 00 80
       4.3387e-41 4.7742e-41 -1.495e-41 -4.6627e-41
000320 45 f5 b7 92 48 1d 00 00 52 c1 00 80 7d 4d 00 00
       -1.1609387e-27 1.0504e-41 -6.935e-41 2.7798e-41
000330 2e 11 00 80 61 35 00 00 8d 77 00 80 ac 28 00 00
       -6.163e-42 1.9149e-41 -4.2887e-41 1.459e-41
000340 93 04 00 00 da 1d 00 80 48 56 35 14 5d 3f 00 80
       1.641e-42 -1.0709e-41 9.155181e-27 -2.273e-41
000350 bb a1 00 00 d4 18 00 80 0e 49 00 80 f2 2f 00 80
       5.8018e-41 -8.907e-42 -2.6207e-41 -1.72e-41
000360 d7 8a 1c a2 92 2d 00 80 0c 1e 00 80 7d 3c 00 80
       -2.1215444e-18 -1.6348e-41 -1.0779e-41 -2.1699e-41
000370 b4 80 00 80 46 9d 00 80 0c 35 00 80 f5 1d 00 80
       -4.617e-41 -5.6419e-41 -1.903e-41 -1.0747e-41
000380 8f 50 00 00 53 04 00 80 c3 8b 00 00 c0 bc 00 80
       2.8899e-41 -1.551e-42 5.0137e-41 -6.7711e-41
000390 b0 2e 00 00 13 5e 00 00 39 32 00 00 8c 6e 00 80
       1.6748e-41 3.3747e-41 1.8016e-41 -3.9657e-41
0003a0 a6 28 00 80 f2 22 00 80 f1 33 00 80 7e 05 00 80
       -1.4582e-41 -1.2536e-41 -1.8633e-41 -1.97e-42
0003b0 06 25 00 00 5e 41 00 80 ed 7a 02 80 2f 40 00 00
       1.3282e-41 -2.345e-41 -2.27768e-40 2.3025e-41
0003c0 8d 44 00 80 a0 1d 00 00 83 aa 00 00 f2 6c 00 80
       -2.4591e-41 1.0627e-41 6.1168e-41 -3.9082e-41
0003d0 5f 7a 00 80 51 0d 00 80 06 6b 00 80 1c 64 84 ad
       -4.3898e-41 -4.777e-42 -3.8393e-41 -1.505112e-11
0003e0 ad 6d 00 80 94 40 00 80 60 ae 00 00 b9 71 00 80
       -3.9344e-41 -2.3166e-41 6.2554e-41 -4.0796e-41
0003f0 3a 60 00 00 55 18 00 80 63 60 00 00 a7 c0 00 00
       3.452e-41 -8.729e-42 3.4577e-41 6.911e-41

embedding_item_mf.weight f4 [8, 1024]
000000 18 43 00 00 e9 ac 00 80 ac 1e 00 80 cd 85 00 80
       2.4069e-41 -6.2028e-41 -1.1003e-41 -4.7999e-41
000010 e2 0d 00 00 9e 1a 00 00 31 84 00 80 fe aa 00 00
       4.98e-42 9.548e-42 -4.7421e-41 6.134e-41
000020 d3 4a 00 00 7a 47 00 80 75 7e 00 80 40 1d 00 00
       2.6842e-41 -2.5641e-41 -4.5364e-41 1.0493e-41
000030 00 52 00 80 fe 0f 00 80 c6 b5 00 00 9c 57 00 80
       -2.9416e-41 -5.737e-42 6.5208e-41 -3.1428e-41
000040 04 9d 00 80 19 1b 00 80 10 bb 00 00 ba 39 00 00
       -5.6327e-41 -9.721e-42 6.7105e-41 2.0708e-41
000050 11 5d 00 00 40 03 00 80 32 32 00 00 e6 05 00 80
       3.3386e-41 -1.166e-42 1.8007e-41 -2.116e-42
000060 f1 46 00 00 a0 14 00 80 24 89 00 00 b9 38 00 80
       2.5449e-41 -7.399e-42 4.9197e-41 -2.0348e-41
000070 56 04 00 00 8a 8a 00 00 22 10 00 80 ad 64 00 80
       1.555e-42 4.9698e-41 -5.787e-42 -3.6116e-41
000080 49 42 00 00 b4 b1 00 80 13 3c 00 80 59 36 00 00
       2.3779e-41 -6.3748e-41 -2.155e-41 1.9496e-41
000090 02 00 00 00 ea 4e 00 80 c8 be 00 80 eb 03 00 00
       3e-45 -2.8309e-41 -6.844e-41 1.406e-42
0000a0 29 6b 00 00 f1 61 00 00 d0 23 00 00 29 b0 00 00
       3.8442e-41 3.5135e-41 1.2847e-41 6.3194e-41
0000b0 6a 1c 00 80 6f 5e 00 80 d7 30 00 00 a9 26 00 80
       -1.0193e-41 -3.3876e-41 1.752e-41 -1.3869e-41
0000c0 87 5a 00 00 c0 b9 00 00 a4 74 00 80 0f 09 00 80
       3.2475e-41 6.6635e-41 -4.1843e-41 -3.25e-42
0000d0 c2 39 00 00 e1 10 00 80 1c 47 00 00 98 39 00 80
       2.072e-41 -6.055e-42 2.5509e-41 -2.0661e-41
0000e0 35 9e 00 00 38 38 00 80 c2 bd 00 80 f4 65 00 80
       5.6754e-41 -2.0167e-41 -6.8072e-41 -3.6574e-41
0000f0 b2 48 00 00 53 08 00 80 6c 4c 00 80 09 6f 00 00
       2.6078e-41 -2.986e-42 -2.7415e-41 3.9832e-41
000100 9b 4f 00 80 6a 44 00 80 22 0e 00 80 ce 73 00 80
       -2.8557e-41 -2.4542e-41 -5.07e-42 -4.1543e-41
000110 79 26 00 80 ea 14 00 80 28 15 00 80 24 63 00 00
       -1.3801e-41 -7.503e-42 -7.59e-42 3.5565e-41
000120 14 49 00 80 36 1f 00 80 e9 7f 00 80 3c 17 00 80
       -2.6215e-41 -1.1196e-41 -4.5886e-41 -8.335e-42
000130 b5 5c 00 80 90 ab 00 00 03 9f 00 80 f6 4b 00 80
       -3.3257e-41 6.1545e-41 -5.7043e-41 -2.725e-41
000140 74 06 00 80 a8 0d 00 80 c0 3d 00 00 99 35 00 00
       -2.315e-42 -4.899e-42 2.2152e-41 1.9227e-41
000150 5a bf 00 00 47 04 00 80 28 4e 00 00 2f 23 00 80
       6.8644e-41 -1.534e-42 2.8037e-41 -1.2621e-41
000160 df 2b 00 00 a2 11 00 00 d0 7d 00 80 38 1a 00 00
       1.5738e-41 6.325e-42 -4.5133e-41 9.406e-42
000170 1a 12 00 80 2b 01 00 80 d6 0f 00 80 89 88 00 00
       -6.494e-42 -4.19e-43 -5.681e-42 4.898e-41
000180 7d 6c 00 00 3c 27 00 00 aa 2f 00 80 60 50 00 80
       3.8918e-41 1.4075e-41 -1.7099e-41 -2.8833e-41
000190 3f 9f 00 80 ce 02 00 80 1f 45 00 80 82 66 00 00
       -5.7127e-41 -1.006e-42 -2.4796e-41 3.6773e-41
0001a0 64 85 00 80 c1 2b 00 00 81 55 00 80 2f 1e 00 00
       -4.7852e-41 1.5696e-41 -3.0673e-41 1.0828e-41
0001b0 20 26 00 80 db 32 00 80 b8 0b 00 80 b7 08 00 00
       -1.3677e-41 -1.8244e-41 -4.204e-42 3.126e-42
0001c0 17 04 00 80 ae 0f 00 00 89 28 00 00 d9 29 00 80
       -1.467e-42 5.625e-42 1.4541e-41 -1.5012e-41
0001d0 9d 2b 00 00 82 18 00 80 08 19 00 80 4a 4c 00 00
       1.5645e-41 -8.792e-42 -8.98e-42 2.7367e-41
0001e0 ff 33 00 00 7f a3 00 80 93 98 00 80 4c 2b 00 00
       1.8653e-41 -5.8651e-41 -5.4733e-41 1.5532e-41
0001f0 d4 a4 00 80 17 78 00 80 2e 51 00 00 c0 03 00 00
       -5.9129e-41 -4.308e-41 2.9122e-41 1.345e-42
000200 3a 85 00 00 3a 4f 00 00 d6 0f 00 00 e7 28 00 80
       4.7793e-41 2.8421e-41 5.681e-42 -1.4673e-41
000210 92 9a 00 00 a0 26 00 00 c8 62 00 80 6c 5b 00 80
       5.545e-41 1.3856e-41 -3.5436e-41 -3.2796e-41
000220 f0 77 00 00 aa 50 00 80 20 87 00 80 4f 74 00 00
       4.3025e-41 -2.8937e-41 -4.8474e-41 4.1724e-41
000230 d7 7f 00 80 29 4a 00 00 48 15 00 00 9f 58 00 80
       -4.586e-41 2.6604e-41 7.634e-42 -3.1791e-41
000240 63 68 00 00 cb 0e 00 00 6d 60 00 80 bc 5d 00 00
       3.7447e-41 5.307e-42 -3.4591e-41 3.3626e-41
000250 f9 72 00 80 6a 1b 00 80 ba 3c 00 80 4e b5 00 80
       -4.1244e-41 -9.834e-42 -2.1785e-41 -6.504e-41
000260 67 31 00 80 f6 6a 00 80 19 35 00 80 c9 46 00 00
       -1.7722e-41 -3.837e-41 -1.9048e-41 2.5393e-41
000270 55 64 00 80 44 b8 00 00 d7 2e 00 80 00 69 00 80
       -3.5992e-41 6.6102e-41 -1.6803e-41 -3.7667e-41
000280 56 0d 00 00 00 36 00 80 b5 4e 00 80 17 26 00 00
       4.784e-42 -1.9372e-41 -2.8235e-41 1.3664e-41
000290 94 1f 00 00 09 9b 00 00 d6 4b 00 80 29 1d 00 80
       1.1328e-41 5.5616e-41 -2.7205e-41 -1.046e-41
0002a0 34 4a 00 00 a5 56 00 80 02 2c 00 00 e3 54 00 80
       2.6619e-41 -3.1082e-41 1.5787e-41 -3.0452e-41
0002b0 c4 38 00 00 9a 03 00 00 3c 18 00 80 14 aa 00 80
       2.0364e-41 1.292e-42 -8.694e-42 -6.1013e-41
0002c0 04 08 00 80 d7 36 00 00 63 44 00 80 f5 a8 00 00
       -2.875e-42 1.9673e-41 -2.4533e-41 6.061e-41
0002d0 07 3c 00 00 1e 56 00 00 9f 28 00 00 76 ba 00 00
       2.1534e-41 3.0893e-41 1.4572e-41 6.689e-41
0002e0 2b 17 00 00 1d 26 00 00 75 37 00 80 28 66 00 00
       8.311e-42 1.3672e-41 -1.9894e-41 3.6647e-41
0002f0 e5 49 00 80 39 8f 00 80 6b 48 00 00 63 30 00 80
       -2.6508e-41 -5.1379e-41 2.5979e-41 -1.7358e-41
000300 69 86 00 00 28 59 00 00 b8 09 00 80 21 02 00 00
       4.8217e-41 3.1983e-41 -3.486e-42 7.64e-43
000310 23 58 00 80 70 3b 00 00 a8 bd 00 00 ed 02 00 00
       -3.1617e-41 2.1322e-41 6.8036e-41 1.05e-42
000320 03 32 00 80 b6 74 00 00 b6 03 00 80 e1 25 00 80
       -1.7941e-41 4.1868e-41 -1.331e-42 -1.3588e-41
000330 16 5b 00 00 86 bb 00 80 87 00 00 80 1d 4b 00 00
       3.2675e-41 -6.7271e-41 -1.89e-43 2.6946e-41
000340 79 89 00 80 cf 0c 00 80 45 33 00 00 e0 7a 00 00
       -4.9316e-41 -4.595e-42 1.8392e-41 4.4079e-41
000350 e1 5d 00 80 41 57 00 80 b8 95 00 00 33 0c 00 00
       -3.3677e-41 -3.1301e-41 5.3709e-41 4.376e-42
000360 1a 17 00 80 fc 0a 00 80 ed b4 00 00 25 b8 00 00
       -8.287e-42 -3.94e-42 6.4904e-41 6.6059e-41
000370 2c 47 00 80 0d c1 00 80 ab 67 00 00 e0 10 00 00
       -2.5532e-41 -6.9254e-41 3.7189e-41 6.054e-42
000380 3a 72 00 80 09 1b 00 00 0b 5c 00 80 f6 79 00 00
       -4.0977e-41 9.698e-42 -3.3019e-41 4.3751e-41
000390 5f 7e 00 00 40 75 00 80 3c bd 00 80 e3 ae 00 00
       4.5333e-41 -4.2061e-41 -6.7885e-41 6.2738e-41
0003a0 d1 2c 00 00 3b 58 00 00 a0 28 00 00 5f 7b 00 80
       1.6077e-41 3.1651e-41 1.4574e-41 -4.4257e-41
0003b0 81 30 00 00 62 45 00 80 1e 28 00 00 82 57 00 80
       1.74e-41 -2.489e-41 1.4391e-41 -3.1392e-41
0003c0 88 74 00 00 e7 a0 00 80 ed 54 00 00 79 42 00 80
       4.1804e-41 -5.7721e-41 3.0466e-41 -2.3846e-41
0003d0 c9 79 00 80 ba 28 00 80 28 24 00 80 b5 0f 00 80
       -4.3688e-41 -1.461e-41 -1.297e-41 -5.635e-42
0003e0 25 3e 00 00 d8 b3 00 00 f0 25 00 00 1a 1f 00 00
       2.2293e-41 6.4516e-41 1.361e-41 1.1157e-41
0003f0 9c 02 00 80 9e 54 00 00 4a 75 00 80 8c ab 00 80
       -9.36e-43 3.0355e-41 -4.2075e-41 -6.154e-41

embedding_item_mf.bias f4 [8]
000000 75 72 00 00 a5 63 8f 00 50 74 00 00 6f 9f 00 00
       4.106e-41 1.3168222e-38 4.1725e-41 5.7194e-41
000010 67 af 00 80 42 17 00 80 ac 5a 54 0f e5 5c 00 80
       -6.2923e-41 -8.343e-42 1.046987e-29 -3.3324e-41

fc_layers.0.weight f4 [64, 16]
000000 c7 08 ae b1 e2 de 89 30 d8 0a e5 30 c0 f4 d0 34
       -5.0650644e-09 1.0031409e-09 1.6665025e-09 3.8921098e-07
000010 25 e8 9b b2 ac 3b d2 b3 db 9d a0 ae 4e 60 b8 b1
       -1.8149942e-08 -9.789741e-08 -7.3039984e-11 -5.3660534e-09
000020 8c e2 e5 19 8a ce 26 b9 c7 2f 51 2e d7 9a c7 bb
       2.3769547e-23 -0.00015907935 4.7563533e-11 -0.0060914564
000030 30 02 89 17 32 c3 03 33 6b bf a6 1c 67 23 1e 35
       8.85397e-25 3.0678343e-08 1.1034439e-21 5.8911104e-07
000040 49 cb 9e 9d 2b 94 7e 1e 72 93 bf 1c ec 24 0c 22
       -4.2032444e-21 1.34772885e-20 1.2677433e-21 1.8993084e-18
000050 97 3c 08 a0 01 1e e1 9f 5e cd e6 1a d6 01 ec 9e
       -1.1539696e-19 -9.5340844e-20 9.545756e-23 -2.4988231e-20
000060 d0 90 97 85 f0 34 25 26 d6 29 ac 99 d8 12 70 28
       -1.4253167e-35 5.731762e-16 -1.780128e-23 1.3326762e-14
000070 ff 4c 2c 83 eb 2d 04 a1 ba 5e 2a 8a a1 9e 34 a2
       -5.0634644e-37 -4.478411e-19 -8.203018e-33 -2.4478526e-18
000080 ab 78 9e a0 16 53 ec 1f 87 0c e8 9f c3 f9 36 25
       -2.6846092e-19 1.0008734e-19 -9.8276547e-20 1.5870606e-16
000090 61 fa 18 a2 26 c5 b9 a2 4e b8 e9 1c 51 2c 3d a0
       -2.073239e-18 -5.035309e-18 1.5466288e-21 -1.6023586e-19
0000a0 c4 fd 5b 08 db 01 b4 a8 fb c9 18 1e 72 ef c4 a9
       6.6201215e-34 -1.9984819e-14 8.0885816e-21 -8.7456857e-14
0000b0 f2 f5 19 06 d6 0f 2a a3 b8 55 29 0a 01 c5 e4 a3
       2.8956794e-35 -9.219072e-18 8.153176e-33 -2.4803244e-17
0000c0 a8 8a e9 b3 91 cc 08 32 ce 21 0d 33 32 98 b3 37
       -1.08751294e-07 7.962755e-09 3.2859866e-08 2.1409334e-05
0000d0 b0 65 8c 34 14 11 44 b6 2b de c5 b0 e4 8c af b3
       2.615102e-07 -2.9216217e-06 -1.439678e-09 -8.1747004e-08
0000e0 60 2c f0 1a 0e 1c 39 3a 44 db 2b 2e 7c 74 44 be
       9.9333365e-23 0.00070613704 3.9075645e-11 -0.1918506
0000f0 33 95 c5 18 61 23 a1 35 6c ba 56 1c b6 6f 14 b4
       5.107396e-24 1.2005731e-06 7.1047605e-22 -1.3824214e-07
000100 e3 6a dc b2 f8 15 d3 30 56 0f 32 33 06 8d 1d 37
       -2.5659977e-08 1.5358514e-09 4.1457803e-08 9.390764e-06
000110 1e 8a 2b 35 56 cd de b5 69 a5 4c b0 0d 54 fd b3
       6.390345e-07 -1.660005e-06 -7.444983e-10 -1.1796519e-07
000120 ec c8 db 1a a4 dc 3b 3a 90 7b 1b 2e db ca 20 be
       9.0900884e-23 0.0007166362 3.5352665e-11 -0.15702383
000130 9a d8 ce 18 ee 2e 65 35 e1 9d 0b 1c f7 f6 d9 b4
       5.3468464e-24 8.537744e-07 4.6195296e-22 -4.059909e-07
000140 91 0e b2 a2 d5 1e 0f 22 c6 5a 81 21 2c ca 24 a6
       -4.826242e-18 1.9396436e-18 8.765408e-19 -5.7172924e-16
000150 75 9e 96 a1 1e 5e 9b a1 ca 60 8e 1e 78 19 da a0
       -1.0206339e-18 -1.0528121e-18 1.5074866e-20 -3.694749e-19
000160 a8 cb fd 09 dd e8 9a 29 cb 16 f4 1c 2c 9a 76 2a
       6.1099052e-33 6.879369e-14 1.6152457e-21 2.1902678e-13
000170 b9 87 ef 07 65 d5 23 24 8f 02 61 8d 4a 69 fa 24
       3.6040494e-34 3.5525743e-17 -6.933656e-31 1.08598584e-16
000180 7c 40 be af 9a 62 0b 2e cf 28 63 af 2f e3 c3 34
       -3.4606618e-10 3.1692517e-11 -2.0660028e-10 3.6486878e-07
000190 34 d1 d3 af 48 87 d1 b1 f0 81 4e ac 84 89 b1 af
       -3.8529324e-10 -6.0980803e-09 -2.934649e-12 -3.2293823e-10
0001a0 99 67 d4 17 8c 13 41 b8 23 31 c9 2c de b3 b4 b9
       1.3726331e-24 -4.603299e-05 5.718219e-12 -0.00034466287
0001b0 cc 8f 4e 15 b4 16 a8 30 1d ca c0 1a 91 8a 0e 33
       4.1714804e-26 1.2230061e-09 7.973587e-23 3.3187977e-08
0001c0 a6 4b 4d a0 1b 31 04 1f 52 4f 9e a0 a8 55 c8 a2
       -1.7389205e-19 2.7992706e-20 -2.681873e-19 -5.43008e-18
0001d0 78 ed 4f a3 94 c0 b4 20 f0 c8 8b 1b ec db 03 a1
       -1.12717784e-17 3.0620624e-19 2.3125474e-22 -4.467559e-19
0001e0 fe af 63 88 ea 45 1f 26 1c f6 73 1b da 35 0a 28
       -6.8517206e-34 5.525896e-16 2.0180011e-22 7.672216e-15
0001f0 f1 df e2 04 30 fe e9 22 49 20 cd 0b 17 9d 83 a5
       5.3338002e-36 6.342391e-18 7.9011705e-32 -2.2831326e-16
000200 df 63 0f 22 d1 c5 f1 9e 9b fc 96 20 ca 1c ba a0
       1.9432985e-18 -2.5598682e-20 2.5578149e-19 -3.1528677e-19
000210 b2 47 e8 20 68 8f 07 a3 65 76 82 9c dc a1 c1 21
       3.9349773e-19 -7.348732e-18 -8.633283e-22 1.3121033e-18
000220 48 e6 8a 08 25 76 90 a7 ac 3c b7 1d 2a b0 ae 2a
       8.359712e-34 -4.009612e-15 4.850243e-21 3.1030847e-13
000230 38 34 3f 06 40 7e 50 a2 20 79 ab 8c 64 31 c6 24
       3.5961472e-35 -2.8256093e-18 -2.641962e-31 8.595248e-17
000240 27 1d 03 9d 1c fb 40 1c 84 83 20 9b b6 60 80 1f
       -1.7352777e-21 6.385202e-22 -1.3277385e-22 5.4370103e-20
000250 7b c5 18 1d 67 12 82 9e a1 8e 0f 98 8b 11 79 1a
       2.0219128e-21 -1.3771896e-20 -1.8554326e-24 5.1506164e-23
000260 7a 30 11 05 62 53 35 24 8b e9 cf 98 49 d0 1d 25
       6.826771e-36 3.9318747e-17 -5.3744064e-24 1.3688149e-16
000270 82 5d 89 02 5d b8 02 9e 4c aa 3f 86 b0 89 a5 20
       2.0184012e-37 -6.920268e-21 -3.6048222e-35 2.80432e-19
000280 cc 4c d0 1e 1c 24 1f 1e ce f2 9a 1e a5 a7 d0 22
       2.2054619e-20 8.424857e-21 1.6405806e-20 5.6556014e-18
000290 1e 51 8e a0 db a7 d9 1f 78 7e 47 9a 22 a0 3a 9f
       -2.4109415e-19 9.218077e-20 -4.1254396e-23 -3.951949e-20
0002a0 7c c6 6c 07 ba df af 26 32 43 cd 19 14 af 92 a7
       1.7812996e-34 1.2203706e-15 2.1223643e-23 -4.071296e-15
0002b0 80 de dc 03 8e cf 9f a0 53 69 e1 89 7e 9f fc 22
       1.2981521e-36 -2.7072996e-19 -5.4265826e-33 6.8473606e-18
0002c0 be 1c 5a a1 ed 8a b7 a0 72 a1 57 a1 99 2f 0c 26
       -7.3899313e-19 -3.109334e-19 -7.3058505e-19 4.8636764e-16
0002d0 7a 38 c6 22 65 2a 00 a4 ff a4 d3 9e c8 49 62 a1
       5.3727804e-18 -2.7791485e-17 -2.2408735e-20 -7.6669427e-19
0002e0 92 a7 36 07 ee 6e 64 29 f2 62 11 1c 0e a4 a4 ab
       1.3741403e-34 5.0722386e-14 4.810436e-22 -1.1698435e-12
0002f0 cd 0a 1e 08 84 6a 11 23 e5 71 57 8b 8e 85 07 26
       4.755909e-34 7.883021e-18 -4.1493179e-32 4.7018534e-16
000300 2a 31 74 a2 18 86 4e 20 db f2 cb a2 66 9b 32 27
       -3.3094193e-18 1.7493247e-19 -5.5280393e-18 2.4786704e-15
000310 a2 bf e6 24 5a f6 1b a6 df 82 69 a0 b5 9d c4 a3
       1.0007124e-16 -5.4110296e-16 -1.9779169e-19 -2.1317154e-17
000320 f6 be f8 0b d4 30 2a 2b 48 ee 5a 1e 01 80 00 ae
       9.581345e-32 6.0463895e-13 1.1590099e-20 -2.921752e-11
000330 17 0c a4 09 80 56 8b a1 50 ba da 8c ab 41 9b 27
       3.9492933e-33 -9.441903e-19 -3.370035e-31 4.309234e-15
000340 7c 7b a9 9e 4a 88 bd 1e 52 38 59 1e 34 21 b6 a3
       -1.7944643e-20 2.0067521e-20 1.1499531e-20 -1.9746542e-17
000350 21 56 c4 21 87 d4 96 21 1b 95 17 9c d6 96 3d 20
       1.3304275e-18 1.0220651e-18 -5.0154423e-22 1.605883e-19
000360 81 00 dc 08 0b 63 f7 27 d2 0f 2e 1b 65 74 01 a9
       1.3240887e-33 6.8663654e-15 1.4398054e-22 -2.874471e-14
000370 ff fb 63 06 c4 41 65 a1 05 72 df 8b 2a 6c 00 25
       4.2879092e-35 -7.767526e-19 -8.6068033e-32 1.1138878e-16
000380 36 bd 34 a2 eb 7c 8a 9f 52 e5 a1 21 44 4a d3 a3
       -2.4494716e-18 -5.865193e-20 1.0970485e-18 -2.2908119e-17
000390 2e 83 56 21 d5 b0 06 23 54 45 82 9e c3 23 3a a0
       7.2679635e-19 7.3016e-18 -1.3792959e-20 -1.5766645e-19
0003a0 f9 36 19 09 95 cf fd 27 a6 2f 74 1c 3d 81 8e aa
       1.8442553e-33 7.0446667e-15 8.079441e-22 -2.5313944e-13
0003b0 7d 90 e5 06 10 2a b2 a2 20 70 99 8c 35 b2 04 a6
       8.635253e-35 -4.8291532e-18 -2.3640865e-31 -4.6038215e-16
0003c0 90 a1 cb 1c 73 7e 1b 9e 45 73 cf 9b 3f de 9c 23
       1.3475176e-21 -8.231781e-21 -3.4319769e-22 1.7007679e-17
0003d0 c8 b8 20 20 8f b5 88 1e 22 33 d5 9a c2 7a 43 a0
       1.3613666e-19 1.4474651e-20 -8.8177345e-23 -1.655776e-19
0003e0 e2 54 8d 86 6a 7a 0a a6 e0 f1 05 1b 21 f1 5b 29
       -5.316303e-35 -4.804427e-16 1.1079656e-22 4.8836914e-14
0003f0 8f 61 ab 84 ec 74 03 21 6e 2e 97 88 2d 3e 10 a3
       -4.02915e-36 4.453927e-19 -9.0988975e-34 -7.819422e-18

fc_layers.0.bias f4 [64]
000000 3f af 3a 39 22 25 ae a6 dd 27 5c aa ed 93 a8 3c
       0.00017803627 -1.208374e-15 -1.9553756e-13 0.020578349
000010 66 24 88 3c 2e d1 c5 28 1a ff 1d b7 1f 4a a0 a9
       0.016618919 2.196211e-14 -9.417325e-06 -7.118285e-14
000020 a1 42 20 2a 82 38 c0 a4 30 db 8e a7 01 91 bb aa
       1.4233971e-13 -8.3362455e-17 -3.965056e-15 -3.331849e-13
000030 f0 09 4c ac 38 73 c2 28 1c 30 80 2a e4 85 75 29
       -2.899566e-12 2.1588295e-14 2.277075e-13 5.451706e-14
000040 92 a4 0f 3d 6e 76 78 b5 97 c3 4d a9 e5 28 82 3b
       0.035069056 -9.255954e-07 -4.568879e-14 0.00397216
000050 03 91 25 2b d8 73 10 2a ef ab 76 3c 43 f5 8c 3b
       5.882102e-13 1.282996e-13 0.015055641 0.0043016984
000060 33 ac 93 3c 22 37 80 a9 b5 8b 4f ab 6f c9 e8 3c
       0.018026447 -5.693906e-14 -7.3735056e-13 0.028416364
000070 ba d4 0a 2a dc c1 03 3d d0 c0 d5 27 f7 89 b6 3c
       1.2330667e-13 0.0321673 5.9328424e-15 0.022282584
000080 97 45 ca a3 85 a7 28 22 6b aa 80 a6 c4 c3 da a9
       -2.1930356e-17 2.285693e-18 -8.927976e-16 -9.715105e-14
000090 a2 85 25 a7 86 8c 3d 2c 3d cc 6d ab 02 db 13 a5
       -2.2970792e-15 2.6936522e-12 -8.448275e-13 -1.282442e-16
0000a0 72 5d 79 ab 88 ee 15 3d d7 93 16 29 4e 92 8a a7
       -8.859225e-13 0.036604434 3.343492e-14 -3.846132e-15
0000b0 53 4a 56 2b 87 f4 11 3c a4 87 b2 3c 47 68 27 3d
       7.613122e-13 0.0089083975 0.021793194 0.04087093
0000c0 71 9d c8 99 38 da 0c 25 34 d8 ba 3c e3 47 ca 3c
       -2.0743105e-23 1.2217e-16 0.022808172 0.024692481
0000d0 70 72 13 25 58 22 3d a8 45 67 84 aa 5c 7a 87 3c
       1.278899e-16 -1.0499055e-14 -2.3519568e-13 0.016537838
0000e0 32 5e 5c a8 7d 72 00 80 07 96 9a a8 5c 31 1a ab
       -1.2232879e-14 -4.107e-41 -1.7162499e-14 -5.478029e-13
0000f0 c7 fd f2 3c ff f4 73 3c d7 1b 10 a9 ea 10 33 3b
       0.029662026 0.014889955 -3.199857e-14 0.0027323314

fc_layers.1.weight f4 [32, 64]
000000 de 41 fa 3a 28 33 ff a3 5b a3 45 2a 0f 62 71 3d
       0.0019093116 -2.7668821e-17 1.755379e-13 0.058931407
000010 79 8e 45 3d d3 cd f2 a8 d4 5b d8 38 55 4a e7 a7
       0.048231576 -2.695666e-14 0.00010316787 -6.419597e-15
000020 02 30 9f 28 29 18 a0 a4 46 cb 72 27 eb 1f c9 2a
       1.7673366e-14 -6.942987e-17 3.3694441e-15 3.572692e-13
000030 bc c1 ff 2c 28 24 2a a7 32 d6 b5 a9 9c b3 82 27
       7.2690447e-12 -2.361184e-15 -8.075172e-14 3.627698e-15
000040 06 a7 c5 3d 56 56 85 36 f6 4d 59 29 f9 1a 5b 3c
       0.09650998 3.9737597e-06 4.82513e-14 0.01337313
000050 62 50 55 a9 37 ce 27 2a 3c 84 35 3d 50 1a 6d 3c
       -4.7365222e-14 1.4904125e-13 0.04431556 0.014471605
000060 b8 a8 57 3d c8 63 17 29 23 71 e8 2a 86 30 a2 3d
       0.052651137 3.3615282e-14 4.1289983e-13 0.07919411
000070 d0 8e 01 a7 c4 cc b5 3d f4 bd 87 28 42 e9 81 3d
       -1.7979765e-15 0.088769466 1.507039e-14 0.063433185
000080 20 59 8f 23 dc cf c1 21 c0 8e 31 25 77 92 33 25
       1.5541837e-17 1.3133209e-18 1.5400668e-16 1.5575399e-16
000090 f6 6f 34 a8 19 c8 22 2b 36 8d f6 2a 92 ce eb a4
       -1.0016285e-14 5.7831653e-13 4.3796363e-13 -1.0226495e-16
0000a0 3b df ac 2a 92 13 cd 3d 76 b1 cd 28 42 4b 9c a5
       3.0708235e-13 0.10013498 2.2836533e-14 -2.7112683e-16
0000b0 c4 a9 78 aa cc 3a de 3c ed 39 7e 3d 39 77 e4 3d
       -2.2085724e-13 0.027127646 0.06206696 0.111555524
0000c0 88 58 db 18 a4 4e 3e 25 ff 87 84 3d 0c 35 8f 3d
       5.6699567e-24 1.6506518e-16 0.06471252 0.0699254
0000d0 5b 2b 9b a3 74 a6 ab 27 a6 93 8f aa 47 a0 44 3d
       -1.6823495e-17 4.7642503e-15 -2.5504354e-13 0.048004415
0000e0 84 44 3c a8 ea 30 00 00 08 2a 8d 27 84 6f bf 2a
       -1.0450953e-14 1.7547e-41 3.918093e-15 3.4005795e-13
0000f0 a5 02 aa 3d a9 99 33 3d b8 5c d2 27 e0 be 24 3c
       0.08301286 0.043847714 5.8387235e-15 0.010055274
000100 6f f3 8f 3a a0 e2 b6 24 68 c8 db 29 30 db 0b 3d
       0.0010982583 7.9313836e-17 9.7603186e-14 0.03414458
000110 c2 e7 e4 3c c4 d0 d5 a7 01 7f 60 38 d8 7a 72 26
       0.027942542 -5.934572e-15 5.3524043e-05 8.41271e-16
000120 d4 96 72 26 32 7c 23 a4 07 13 19 27 8f 44 81 2a
       8.4165026e-16 -3.5450188e-17 2.124333e-15 2.2962575e-13
000130 92 fa a2 2c 98 d9 16 a8 e8 00 e7 a8 6c bf 15 27
       4.632136e-12 -8.373856e-15 -2.5646545e-14 2.0781674e-15
000140 b7 54 65 3d 37 4a 03 36 52 b5 04 29 b4 19 00 3c
       0.055988993 1.956372e-06 2.9467158e-14 0.007818628
000150 48 64 42 aa d9 33 0e aa 51 58 d2 3c 0b 7f 0a 3c
       -1.7265453e-13 -1.2630122e-13 0.025676878 0.008453141
000160 c6 e3 f9 3c 48 30 b4 28 f3 41 58 2a c2 0f 3c 3d
       0.030504119 2.0004953e-14 1.9207535e-13 0.045913465
000170 8b fb 56 a7 9c de 52 3d b4 a0 32 a8 a6 8e 16 3d
       -2.9834828e-15 0.051481828 -9.915832e-15 0.036757134
000180 fe f0 44 23 1a 5e 35 21 5d fd ab a6 27 8c f2 24
       1.0676213e-17 6.144973e-19 -1.1934183e-15 1.051882e-16
000190 80 5d 56 a7 54 a8 4c aa 62 53 90 2a af 37 ad 23
       -2.9749152e-15 -1.817724e-13 2.5637397e-13 1.878028e-17
0001a0 1e 3b 2d aa 40 fa 6d 3d 30 fb 8b 28 e9 e6 a9 25
       -1.5385997e-13 0.058099985 1.5541035e-14 2.9473298e-16
0001b0 cc f8 1c 2a a3 f4 80 3c db 4f 13 3d 6e 9e 84 3d
       1.3941902e-13 0.015741652 0.035964828 0.064755306
0001c0 e0 13 d8 18 d4 45 27 25 64 99 19 3d 2e ff 25 3d
       5.585476e-24 1.45086e-16 0.0374998 0.04052656
0001d0 6a 5f 15 24 52 73 5c 27 fb a0 cb 29 82 d5 e3 3c
       3.2390044e-17 3.0593648e-15 9.0429366e-14 0.02781177
0001e0 ca 72 17 a7 f0 9e 00 00 4d 18 8c 27 bb 71 5c 2a
       -2.1017687e-15 5.7016e-41 3.8884153e-15 1.9579383e-13
0001f0 e5 26 45 3d eb 1e d0 3c e1 f1 2b 27 38 41 c1 3b
       0.048132796 0.025405368 2.386214e-15 0.0058976673
000200 63 98 d4 3a ce 83 16 a5 82 6f 1f 2a da 33 4d 3d
       0.0016219731 -1.3055083e-16 1.4160724e-13 0.050098278
000210 52 ee 27 3d bf 14 ad a8 d1 61 b4 38 b9 f5 47 a7
       0.040998764 -1.9215856e-14 8.6012886e-05 -2.7750004e-15
000220 90 09 ff a6 58 3d fe a3 d2 07 35 27 6d 98 bb 2a
       -1.7696771e-15 -2.7564715e-17 2.5123035e-15 3.332364e-13
000230 cb 2a 03 2d aa 20 29 27 7a 0c 6c a9 b0 39 4f 27
       7.45599e-12 2.3471169e-15 -5.241335e-14 2.8758293e-15
000240 4a 19 a8 3d 3c fa 60 36 6d 5b 45 29 3d 7e 3a 3c
       0.082079485 3.3524257e-06 4.3822086e-14 0.011382637
000250 84 4f e1 aa 2d 29 71 2a de 4b 1a 3d d4 cb 49 3c
       -4.0023204e-13 2.1419386e-13 0.03767001 0.012316663
000260 3a 53 37 3d b4 6c a8 28 1f d5 56 2b 20 e9 89 3d
       0.044757105 1.869889e-14 7.632384e-13 0.06733918
000270 95 71 8a a6 32 9a 9a 3d 27 72 c0 28 6e e3 5c 3d
       -9.60646e-16 0.07548942 2.1365788e-14 0.05392783
000280 f8 8c 8a 23 93 c5 bf 21 f9 79 fd a5 02 9d 34 25
       1.5021693e-17 1.2994961e-18 -4.3971156e-16 1.5665708e-16
000290 3e 6a 88 a7 18 46 89 2b 68 af c5 2a 2c d2 e3 23
       -3.786277e-15 9.75389e-13 3.5115942e-13 2.47004e-17
0002a0 2a b7 72 2a 9d 6b ae 3d 8a db a2 28 88 b2 48 25
       2.1557466e-13 0.08516619 1.8080823e-14 1.7407724e-16
0002b0 17 8b b9 a9 55 ee bc 3c 13 21 58 3d ad 56 c2 3d
       -8.2397786e-14 0.023062864 0.052765917 0.09489188
0002c0 6d f4 3a 19 ff ce 6b 25 d0 58 61 3d 5d 83 73 3d
       9.665336e-24 2.0453134e-16 0.05501634 0.05945145
0002d0 63 81 09 a4 db 25 94 27 24 55 0c 2b fe 23 27 3d
       -2.9816734e-17 4.1119295e-15 4.985615e-13 0.04080581
0002e0 46 34 bc a7 df 0b 00 00 1a 58 0e 28 a0 54 7e 27
       -5.2237157e-15 4.259e-42 7.9016875e-15 3.5295456e-15
0002f0 ee 90 90 3d 8d aa 18 3d 98 a6 af 27 b9 5d 0c 3c
       0.07058893 0.037272025 4.875288e-15 0.008567267
000300 85 48 00 00 6b a1 00 80 15 9b 00 00 5d 27 00 80
       2.6015e-41 -5.7906e-41 5.5633e-41 -1.4121e-41
000310 d1 4b 00 80 a7 1c 00 00 61 29 00 00 f7 28 00 00
       -2.7198e-41 1.0279e-41 1.4844e-41 1.4695e-41
000320 e6 59 00 00 8a 1d 00 00 e5 81 00 00 5f 6a 00 00
       3.225e-41 1.0597e-41 4.6597e-41 3.8159e-41
000330 e3 09 00 80 f4 79 00 80 16 1e 00 80 00 99 00 00
       -3.547e-42 -4.3749e-41 -1.0793e-41 5.4886e-41
000340 82 6a 00 00 ec 63 00 80 a8 05 00 80 f1 98 00 80
       3.8208e-41 -3.5845e-41 -2.029e-42 -5.4865e-41
000350 21 a1 00 80 1d 2d 00 80 b1 13 00 80 36 52 00 80
       -5.7802e-41 -1.6184e-41 -7.064e-42 -2.9492e-41
000360 6b 8b 00 80 c0 24 00 80 f9 7c 00 00 8c 29 00 80
       -5.0014e-41 -1.3183e-41 4.4832e-41 -1.4904e-41
000370 19 a5 00 00 74 0f 00 00 21 79 00 80 fb 5e 00 80
       5.9226e-41 5.544e-42 -4.3453e-41 -3.4073e-41
000380 c4 94 00 80 ee 68 00 80 8b 47 00 80 8a b4 00 00
       -5.3367e-41 -3.7642e-41 -2.5665e-41 6.4765e-41
000390 04 62 00 80 b7 2d 00 80 15 41 00 80 7e 88 00 80
       -3.5161e-41 -1.64e-41 -2.3347e-41 -4.8964e-41
0003a0 82 20 00 80 9b 0f 00 80 b9 73 00 80 df 7d 00 80
       -1.1662e-41 -5.598e-42 -4.1513e-41 -4.5154e-41
0003b0 94 09 00 00 84 0e 00 00 96 a2 00 80 34 33 00 80
       3.436e-42 5.207e-42 -5.8325e-41 -1.8368e-41
0003c0 6e 82 00 00 2a 80 00 80 31 96 00 80 25 08 00 80
       4.679e-41 -4.5977e-41 -5.3879e-41 -2.922e-42
0003d0 6a a2 00 80 25 c1 00 80 1d 68 00 80 58 28 00 80
       -5.8263e-41 -6.9287e-41 -3.7349e-41 -1.4473e-41
0003e0 40 61 00 00 11 b4 00 80 b3 41 00 00 00 33 00 80
       3.4887e-41 -6.4596e-41 2.3568e-41 -1.8295e-41
0003f0 3d 31 00 00 cb 1d 00 80 1a 35 00 80 ea bf 00 80
       1.7663e-41 -1.0688e-41 -1.9049e-41 -6.8846e-41

fc_layers.1.bias f4 [32]
000000 d8 d9 39 3c 7c 09 ce 3b eb dc 1b 3c fe ac 00 80
       0.011343442 0.0062877517 0.00951312 -6.2058e-41
000010 ef 02 00 00 91 fb 10 3c d3 72 00 80 9c 08 00 80
       1.052e-42 0.008849041 -4.1191e-41 -3.088e-42
000020 41 2e c0 3b 1f 52 65 b3 4c ee 80 3b 2a ff 41 3c
       0.005864889 -5.3392906e-08 0.003934657 0.011840621
000030 f3 f1 52 3c 19 5d 00 80 d9 e9 11 3c b1 0d 00 80
       0.012875068 -3.3397e-41 0.008905851 -4.912e-42
000040 e5 20 00 80 84 62 00 80 a4 2b 00 00 94 fc a9 30
       -1.18e-41 -3.5341e-41 1.5655e-41 1.2368155e-09
000050 21 53 00 80 8d bf 4a 3c 9d 11 00 80 e0 08 52 3c
       -2.9821e-41 0.012374771 -6.318e-42 0.012819499
000060 ea 51 17 3c ce 39 00 00 e0 0a 00 80 f6 2a 6f 3c
       0.009235838 2.0736e-41 -3.901e-42 0.014597645
000070 bf 07 00 00 80 59 00 80 49 8a c4 10 8a 11 00 80
       2.779e-42 -3.2107e-41 7.752143e-29 -6.292e-42
