neural-collaborative-filtering/src/checkpoints/pretrain_neumf_factor8neg4_Epoch79_HR1.0000_NDCG0.8488.model (torch, 579115 bytes, 15 tensors)

embedding_user_mlp.weight f4 [7700, 8]
-1.3745877e-12 6.991761e-11 -3.5962392e-05 -4.6766833e-13 1.112105e-07 1.564646e-12 -5.6180465e-09 0.0001317384
4.3391308e-11 6.3070604e-07 6.8184627e-06 1.1308974e-08 -8.2678775e-13 -1.42513645e-08 -3.6109872e-11 4.6620553e-06
4.5138563e-08 -1.3827216e-06 2.98766e-10 2.6984768e-05 9.1633046e-07 -3.0520804e-09 8.217656e-05 1.1841131e-07
-1.3433402e-05 5.2215846e-06 2.9822943e-06 3.722244e-06 2.6974312e-06 -7.712924e-06 -1.0321811e-05 1.9009469e-06
-5.3908298e-06 1.070992e-05 5.2933483e-06 -8.121424e-06 1.2708679e-05 3.1855814e-06 4.62322e-06 -6.904804e-08
-1.5494052e-06 3.7280428e-05 7.0361544e-05 -3.4762787e-05 1.1375852e-05 3.835674e-06 8.524359e-06 -1.1140526e-05
6.809731e-06 -1.00963325e-05 3.3804143e-05 5.597236e-06 6.6373595e-06 3.433897e-05 1.0325502e-05 -2.159372e-06
-3.1634903e-05 8.485871e-05 -0.00019178432 -4.6687783e-05 4.4263645e-05 -0.00012673177 6.3401196e-05 2.075944e-06
8.824554e-06 -2.6885811e-05 -1.3339572e-06 1.6476726e-05 -3.851926e-05 9.954238e-07 -9.627044e-06 -1.5213289e-05
5.475979e-05 5.1143164e-05 -3.5838807e-06 5.535422e-05 -1.0130467e-05 1.9420884e-06 -2.4736742e-05 6.892637e-07
-9.980781e-07 2.952224e-06 8.4376165e-07 -6.1920396e-06 7.284025e-06 -3.4675982e-06 4.066435e-06 6.9997113e-06
-9.505455e-05 0.00012076502 -0.00022436563 -7.840952e-05 8.349778e-05 -0.00016231311 0.000111417656 -5.0792496e-05
-4.3973955e-06 -1.155594e-05 -3.4740543e-07 1.7256301e-05 -1.525136e-05 -2.3872408e-06 1.5536403e-05 -1.262705e-05
1.7986462e-05 -3.3429142e-06 6.9062196e-07 -5.2201434e-09 2.6889188e-06 -5.6883593e-08 -7.1825125e-06 -2.5318703e-05
-7.2614766e-06 4.6313005e-07 -1.9577096e-06 1.9619354e-05 1.5552454e-05 6.8143136e-06 1.2459028e-05 -6.430776e-06
1.5125642e-13 7.867552e-13 1.2358757e-06 2.2100325e-12 -4.997761e-09 -1.7693194e-12 2.85959e-07 2.287124e-12
-9.83785e-06 -1.8456212e-05 3.0535455e-05 -1.0511814e-05 -2.9265716e-06 2.7704205e-05 -3.6998636e-06 -1.22768115e-05
-1.6635988e-05 8.896621e-05 -1.5691545e-06 1.9278476e-05 -7.196402e-05 -3.0074467e-08 -8.7369585e-08 -2.5474423e-05
5.085772e-06 1.3990948e-06 -3.999316e-06 3.8196804e-06 2.3642292e-06 -3.3336133e-07 -1.2967222e-06 5.015856e-05
-1.0566233e-05 1.4039459e-05 -6.202158e-06 -7.1511954e-06 1.8841674e-06 7.940734e-06 1.0985118e-06 4.349004e-05
2.4686924e-05 4.8003858e-05 -3.6522688e-06 -2.0213261e-05 -4.83628e-06 4.2908187e-06 2.1942878e-07 -1.2763098e-06
1.5163621e-06 1.2373457e-05 -1.4870751e-05 1.1314229e-05 -1.3444624e-06 -1.0798696e-05 7.39538e-07 -2.9998318e-06
-4.388745e-07 2.4952196e-06 -1.0736226e-06 2.513194e-06 -5.0831045e-07 5.137857e-07 -8.585846e-07 -1.5434614e-07
8.909691e-08 1.702138e-06 -1.1428051e-05 1.6465119e-06 -8.4791253e-07 -1.5482485e-06 -2.300402e-08 4.6306772e-07
2.4805572e-06 3.962939e-05 1.36488015e-05 -5.680905e-06 -5.906478e-06 1.589729e-05 6.982697e-06 5.242283e-06
1.7185998e-06 -1.11695845e-05 2.3519733e-05 1.1289247e-05 1.5724854e-05 -1.6981357e-07 -6.3370817e-07 5.995711e-06
-5.2300762e-05 8.414939e-05 2.403981e-07 3.527494e-05 -4.0268492e-07 7.887736e-05 8.925891e-07 5.3507765e-06
1.1025768e-05 -3.7080867e-05 -3.9693514e-05 -4.87683e-05 -7.049361e-05 -4.387668e-06 2.2213526e-06 -3.8819285e-06
-9.612717e-05 1.392524e-08 9.322374e-14 -5.2577595e-12 -3.355777e-07 -1.3838313e-13 4.633261e-08 -6.9051e-07
3.6916863e-06 -2.012275e-12 -1.2921699e-09 3.5785606e-12 2.5999043e-11 -2.3277055e-12 2.2929362e-12 -1.3271838e-07
-2.5618926e-06 -9.84758e-06 4.62296e-05 -1.0247781e-05 -2.7315382e-06 4.091918e-05 1.4230675e-06 2.4660317e-06
3.867386e-06 -3.6818168e-05 -5.5647597e-06 1.0768668e-05 2.2137501e-05 3.760206e-05 -1.8489069e-05 -6.8985675e-05
00000000: be74 c1ab 1ec0 992e 53d6 16b8 0ea3 03ab
00000010: 9ed2 ee33 5034 dc2b dc08 c1b1 4223 0a39
00000020: 45d6 3e2e ca4d 2935 26ca e436 6549 4232
00000030: 56b8 68ab 2ad6 74b2 1ad0 1eae c06e 9c36
00000040: 60de 4133 f495 b9b5 943f a42f 595d e237
00000050: c0f9 7535 c4bc 51b1 3456 ac38 4e49 fe33
00000060: 0660 61b7 1235 af36 6d23 4836 aacb 7936
00000070: 8405 3536 c266 01b7 d72b 2db7 0a24 ff35
00000080: e0e2 b4b6 c2ae 3337 849d b136 4041 08b7
00000090: 5c37 5537 dfc7 5536 2821 9b36 9047 94b3
000000a0: 28f5 cfb5 8e5d 1c38 118f 9338 42ce 11b8
000000b0: eada 3e37 30b4 8036 d803 0f37 32e8 3ab7
000000c0: 257f e436 6b63 29b7 ecc8 0d38 e4cf bb36
000000d0: 7cb6 de36 3007 1038 b23b 2d37 bae9 10b6
000000e0: b8af 04b8 2cf6 b138 b619 49b9 a0d2 43b8
000000f0: baa7 3938 4de3 04b9 42f6 8438 7250 0b36
00000100: 2c0d 1437 d788 e1b7 6c0a b3b5 8037 8a37
00000110: be8f 21b8 809a 8535 d783 21b7 943c 7fb7
00000120: e0ad 6538 8e82 5638 9a82 70b6 242c 6838
00000130: 06f6 29b7 d354 0236 c081 cfb7 d705 3935
00000140: b4f5 85b5 d21e 4636 dc7e 6235 37c5 cfb6
00000150: 4c69 f436 e2b4 68b6 6972 8836 10df ea36
00000160: 0658 c7b8 3a43 fd38 b143 6bb9 ca6f a4b8
00000170: 881b af38 9832 2ab9 e6a8 e938 070a 55b8
00000180: 578d 93b6 62e0 41b7 0a83 bab4 a0c1 9037
00000190: 18e0 7fb7 7c34 20b6 2c54 8237 c4d8 53b7
000001a0: a2e1 9637 d456 60b6 2e63 3935 de5c b3b1
000001b0: 4673 3436 2c50 74b3 5001 f1b6 8063 d4b7
000001c0: 9ca7 f3b6 1ca4 f834 3261 03b6 3e94 a437
000001d0: a476 8237 82a6 e436 1e07 5137 f2c7 d7b6
000001e0: b24c 2a2a b073 5d2b 5ee0 a535 6884 1b2c
000001f0: c5b8 abb1 7302 f9ab e885 9934 2af1 202c
00000200: 3e0d 25b7 6ad2 9ab7 3213 0038 e65b 30b7
00000210: 1e66 44b6 5466 e837 2c4b 78b6 81f8 4db7
00000220: 838d 8bb7 5f93 ba38 bd9b d2b5 36b8 a137
00000230: 64eb 96b8 3a2b 01b3 f09f bbb3 e8b1 d5b7
00000240: 73a6 aa36 88c8 bb35 dd31 86b6 ce2a 8036
00000250: 26a9 1e36 d5f8 b2b4 090b aeb5 5861 5238
00000260: a045 31b7 048b 6b37 221c d0b6 4df4 efb6
00000270: 80e3 fc35 3139 0537 9470 9335 1369 3638
00000280: c416 cf37 c057 4938 8019 75b6 a68f a9b7
00000290: 5447 a2b6 daf9 8f36 209c 6b34 ac4d abb5
000002a0: ce85 cb35 9897 4f37 647d 79b7 3ed2 3d37
000002b0: 6073 b4b5 0c2c 35b7 aa84 4635 b850 49b6
000002c0: 749e ebb4 8c73 2736 6419 90b5 58a8 2836
000002d0: d472 08b5 16eb 0935 7c79 66b5 58ba 25b4
000002e0: 8b55 bf33 0475 e435 1bbb 3fb7 b8fd dc35
000002f0: 1b9c 63b5 6acd cfb5 609a c5b2 8b9b f834
00000300: a677 2636 bc37 2638 28fd 6437 9a9e beb6
00000310: 4230 c6b6 2c5b 8537 e94c ea36 dee6 af36
00000320: a4aa e635 0065 3bb7 3e4c c537 f266 3d37
00000330: dee8 8337 0056 36b4 181c 2ab5 c42e c936
00000340: 845d 5bb8 5c79 b038 1010 8134 2ef4 1338
00000350: 9830 d8b4 f66a a538 429a 6f35 d28a b336
00000360: 50fb 3837 4787 1bb8 967c 26b8 908c 4cb8
00000370: f8d5 93b8 c839 93b6 8c12 1536 8341 82b6
00000380: e297 c9b8 da3b 6f32 d4eb d129 b0fd b8ac
00000390: 7329 b4b4 39ce 1baa 3eff 4633 7c5b 39b5
000003a0: b0be 7736 ec99 0dac 3098 b1b0 9ed1 7b2c
000003b0: a4b0 e42d 37cc 23ac de59 212c 5a81 0eb4
000003c0: fbec 2bb6 0937 25b7 a8e6 4138 e2ed 2bb7
000003d0: 784f 37b6 a3a0 2b38 3a00 bf35 1a7e 2536
000003e0: 98c4 8136 356d 1ab8 ecb8 bab6 14ab 3437
000003f0: ecb3 b937 e8b6 1d38 f918 9bb7 67ac 90b8

embedding_item_mlp.weight f4 [8, 1024]
1.0736757e-08 -1.5393034e-08 -1.7424377e-09 -1.6889432e-09 -6.967591e-10 4.3878092e-09 1.035194e-08 -2.1313662e-10
-1.1057525e-08 1.14709096e-08 1.2888683e-08 -8.872678e-09 -1.10671685e-08 -3.842464e-10 1.606342e-09 -4.8957958e-09
-6.8938126e-09 -8.906254e-09 -1.8019579e-08 1.15321974e-10 3.852236e-09 -6.8954407e-09 8.820264e-09 1.9088183e-08
-2.2158357e-08 6.069177e-09 1.1311205e-09 2.1268285e-08 1.9850576e-08 -1.021031e-08 2.6812906e-08 7.2133175e-09
-1.3006758e-08 -3.0171496e-09 -7.171429e-09 -1.3062373e-08 9.898049e-09 -3.1304892e-09 -1.2835258e-08 1.5204284e-08
-2.854398e-08 2.0342119e-08 2.1691827e-08 4.1693795e-09 -1.7362733e-09 2.752897e-09 -7.657783e-09 5.4025784e-09
-4.327279e-09 -2.3025586e-09 1.2781933e-08 -2.3289168e-08 -2.2970514e-11 -6.1773795e-09 1.8703904e-08 -1.4118446e-08
-5.990872e-09 -4.379893e-09 -3.8704115e-09 -1.3996373e-08 8.148589e-09 1.1499271e-08 4.984627e-09 -1.632549e-08
-2.560299e-09 2.8814808e-09 2.07476e-08 -5.044936e-09 -6.250056e-09 -2.5362905e-08 1.0212902e-08 -2.3753013e-09
-2.4704685e-09 -1.3457919e-08 -1.714991e-08 -1.0547462e-08 1.8672072e-08 -1.2994447e-09 -1.0353209e-08 4.598279e-09
-4.1685126e-09 9.523066e-09 8.1311065e-09 9.052789e-09 -1.4639972e-08 6.533881e-09 1.623049e-08 7.4121305e-09
1.4528983e-08 -1.4570311e-08 -1.431042e-09 1.5058763e-08 4.4843462e-09 -3.518227e-09 3.776515e-09 -2.4944434e-08
-1.48871475e-08 -3.9898413e-09 2.0401561e-08 1.3043911e-08 -6.0583165e-09 -1.32952644e-08 -1.1543105e-08 -2.57189e-08
7.0568458e-09 7.8624507e-10 3.5559244e-09 8.618057e-09 1.1483664e-08 -1.5383431e-08 6.650107e-09 2.9028064e-09
-1.123899e-08 5.818033e-09 -2.4185441e-08 -9.119515e-09 5.464096e-09 5.401082e-09 -2.6121478e-08 1.158541e-08
1.3416274e-08 5.4968456e-09 1.854671e-08 9.045511e-09 9.848176e-09 -1.4542031e-08 2.6677784e-09 -2.0077383e-08
1.9195985e-09 -5.764173e-09 1.324741e-08 -2.8433083e-09 4.739002e-09 3.262841e-09 -4.347031e-09 -1.02063895e-08
-1.7822599e-09 -1.2738159e-09 -3.2817242e-09 -1.0213222e-08 1.1707372e-09 6.3292305e-09 6.7497288e-09 1.9997524e-08
1.1597347e-08 -9.313453e-09 -1.8560422e-09 -7.554233e-09 1.6357909e-08 6.8511783e-09 6.932876e-09 -4.280756e-09
-1.3008433e-08 1.5782833e-09 4.952093e-09 7.556085e-09 1.6002586e-08 -2.5924551e-09 1.5788109e-08 -5.688214e-09
-1.2939864e-08 2.7856886e-09 1.167161e-09 4.0916905e-09 9.680141e-09 -2.4946276e-09 1.0717413e-08 1.2590906e-08
-1.2802072e-08 -1.0871126e-10 -4.748397e-09 1.0713867e-08 4.400052e-09 2.7032057e-08 -1.2358083e-08 3.0173943e-08
1.8522706e-09 2.3972769e-08 -1.8376726e-08 9.5686525e-09 -7.428344e-09 -3.7812726e-09 -1.6812667e-09 2.3436275e-08
1.0992727e-08 -5.5651146e-09 -4.003687e-09 -4.7682773e-09 -3.2357214e-08 -1.2589996e-09 -1.4367579e-09 -5.416024e-09
-1.5683014e-08 1.38572815e-08 3.859436e-09 -3.805416e-09 7.56264e-09 -1.6817971e-08 1.0104879e-08 -2.2084862e-08
-2.1123716e-09 1.3279462e-08 9.866483e-09 7.52279e-09 1.711325e-08 -1.9276643e-08 2.3992735e-08 2.2208015e-08
-1.880397e-08 -5.1700098e-09 -2.9506957e-08 -6.508943e-09 3.8424193e-09 -1.6727062e-08 -1.1020946e-08 -1.3715296e-10
3.317405e-09 9.591837e-09 -3.4496084e-10 -8.711411e-09 -5.117143e-09 4.5958615e-09 1.7965714e-08 4.496882e-09
-1.0003927e-08 -1.1493408e-08 -3.4522585e-10 -1.1818939e-08 -1.8384636e-08 1.4407971e-08 -1.3064893e-08 1.5599195e-08
-1.37762335e-08 -1.5579754e-09 1.715688e-08 -1.5755058e-08 1.8009176e-08 6.1293064e-09 -6.770381e-09 6.519407e-11
6.756411e-09 -8.1951255e-09 -1.1037674e-08 -1.2267202e-08 1.8325107e-08 8.6213814e-10 1.6935903e-08 -6.245328e-09
1.2893379e-08 -1.1812026e-08 -2.0212179e-08 -8.343083e-09 2.2916923e-08 1.5190689e-09 -9.652447e-09 -3.840196e-09
00000000: c274 3832 a439 84b2 947a efb0 6820 e8b0
00000010: 1086 3fb0 94c3 9631 50d8 3132 a058 6aaf
00000020: 82f7 3db2 9811 4532 076d 5d32 736e 18b2
00000030: ec21 3eb2 e03d d3af 22c6 dc30 e037 a8b1
00000040: 9ede ecb1 1f02 19b2 79c9 9ab2 8098 fd2e
00000050: a05c 8431 f0ec ecb1 ee87 1732 5cf7 a332
00000060: be56 beb2 0c89 d031 c475 9b30 74b1 b632
00000070: e183 aa32 6b69 2fb2 3452 e632 03d9 f731
00000080: 5474 5fb2 4256 4fb1 8e68 f6b1 ed68 60b2
00000090: 140c 2a32 2620 57b1 1082 5cb2 939a 8232
000000a0: e030 f5b2 cbbc ae32 d554 ba32 4042 8f31
000000b0: b0a1 eeb0 7a2d 3d31 498f 03b2 95a1 b931
000000c0: 26af 94b1 0a3b 1eb1 8997 5b32 6c0d c8b2
000000d0: 000d caad ce40 d4b1 52aa a032 958d 72b2
000000e0: 44d8 cdb1 f27d 96b1 80fc 84b1 b374 70b2
000000f0: e0fd 0b32 548e 4532 3e45 ab31 223c 8cb2
00000100: 42f1 2fb1 8c03 4631 7438 b232 ba57 adb1
00000110: 13c0 d6b1 9edd d9b2 d174 2f32 be3a 23b1
00000120: f1c4 29b1 8e34 67b2 0d51 93b2 3a34 35b2
00000130: 5264 a032 2598 b2b0 e5dd 31b2 e4fe 9d31
00000140: a03a 8fb1 e39a 2332 fcb0 0b32 9686 1b32
00000150: 4783 7bb2 a080 e031 3a6b 8b32 caad fe31
00000160: 259b 7932 e850 7ab2 50ae c4b0 925a 8132
00000170: ba14 9a31 4ec5 71b1 94c2 8131 6445 d6b2
00000180: 5ec2 7fb2 0417 89b1 823f af32 ba17 6032
00000190: 8429 d0b1 3169 64b2 1d4f 46b2 76ec dcb2
000001a0: ac78 f231 141f 5830 7c5c 7431 9e0e 1432
000001b0: b049 4532 8624 84b2 f67e e431 b67a 4731
000001c0: 9a15 41b2 f6e7 c731 59c0 cfb2 0dac 1cb2
000001d0: b2be bb31 6b94 b931 bd61 e0b2 2c09 4732
000001e0: 667d 6632 c4de bc31 a650 9f32 9466 1b32
000001f0: bc30 2932 87d4 79b2 0e54 3731 a276 acb2
00000200: efe9 0331 340e c6b1 ba96 6332 0264 43b1
00000210: b4d4 a231 8238 6031 e45c 95b1 2d58 2fb2
00000220: b2f3 f4b0 6a12 afb0 b484 61b1 3a76 2fb2
00000230: a7e7 a030 8078 d931 3eeb e731 05c7 ab32
00000240: ac3d 4732 0001 20b2 ae17 ffb0 dec7 01b2
00000250: 6c83 8c32 9a67 eb31 3936 ee31 ee15 93b1
00000260: b27b 5fb2 e8ea d830 1227 aa31 03d0 0132
00000270: 0f76 8932 f426 32b1 6b9e 8732 0f72 c3b1
00000280: 204e 5eb2 5a6e 3f31 d469 a030 e496 8c31
00000290: b64d 2632 f46d 2bb1 ae1f 3832 644f 5832
000002a0: 1cf0 5bb2 000f efae 5727 a3b1 1610 3832
000002b0: 442f 9731 1f34 e832 6c4f 54b2 9a98 0133
000002c0: fa92 fe30 adec cd32 d9da 9db2 6163 2432
000002d0: 683c ffb1 6dec 81b1 5012 e7b0 ea50 c932
000002e0: 86da 3c32 4437 bfb1 ce90 89b1 36d6 a3b1
000002f0: 22f9 0ab3 1c09 adb0 6d77 c5b0 da17 bab1
00000300: 50b7 86b2 f810 6e32 f59b 8431 cbc0 82b1
00000310: d8ec 0132 1c77 90b2 ba99 2d32 20b5 bdb2
00000320: 3c29 11b1 b123 6432 4081 2932 953d 0132
00000330: 6f00 9332 c995 a5b2 9518 ce32 f1c3 be32
00000340: 5e86 a1b2 e3a3 b1b1 7c76 fdb2 45a5 dfb1
00000350: 4706 8431 33af 8fb2 a256 3db2 20cd 16af
00000360: 68f8 6331 58c9 2432 eca4 bdaf 31a9 15b2
00000370: ded2 afb1 a0e9 9d31 0653 9a32 fe82 9a31
00000380: bcdd 2bb2 8b74 45b2 38ca bdaf 3e0c 4bb2
00000390: 3eec 9db2 ed86 7732 0274 60b2 fefe 8532
000003a0: 84ac 6cb2 6320 d6b0 6160 9332 bd55 87b2
000003b0: 99b2 9a32 f399 d231 e7a0 e8b1 005d 8f2e
000003c0: 0526 e831 8bca 0cb2 34a0 3db2 babf 52b2
000003d0: 5669 9d32 94fb 6c30 727a 9132 7c96 d6b1
000003e0: ae81 5d32 d7ed 4ab2 0d9f adb2 4455 0fb2
000003f0: d9da c432 7cc7 d030 e9d3 25b2 b9f2 83b1

embedding_item_mlp.bias f4 [8]
1.3551686e-08 -1.0703726e-06 -0.00032964558 -0.103562266 -0.004187945 -1.5074415e-06 -0.00111025 -9.610382e-09
00000000: f2d0 6832 b9a9 8fb5 48d4 acb9 7418 d4bd
00000010: 073b 89bb 4c53 cab5 cf85 91ba e81a 25b2

embedding_user_mf.weight f4 [7700, 8]
5.441e-41 3.4578e-41 -2.2799e-41 2.8651e-41 2.0233e-41 -3.234e-42 -4.002e-41 -4.9829e-41
-7.172e-42 -1.362e-42 6.279e-41 3.236e-42 -1.61e-43 -4.1617e-41 -1.1233e-41 -3.5283e-41
3.826e-42 -2.2613e-41 2.802631e-06 1.8007e-41 -1.057e-41 1.8001e-41 8.3e-42 -2.6277e-41
1.798e-42 6.2995e-41 2.356e-42 -4.9825e-41 -2.2407e-41 -9.63e-42 -6.9921443e-06 -1.2117e-41
2.1588e-41 -1.6258e-41 -1.6818e-41 1.122e-42 -6.8858e-41 4.0254e-41 8.791407e-08 -2.503e-42
8.355e-42 4.1606e-41 -7.875e-42 1.4317e-41 1.0284e-41 3.6730312e-09 4.019297e-05 3.3613e-41
-3.593e-42 7.702e-42 -4.5153e-41 -4.2075e-41 -3.6748e-41 -7.801e-42 -1.650182e-05 3.8876e-41
-5.6181e-41 -1.1481e-41 -2.643e-42 -3.725e-42 2.7757e-41 -1.7093e-41 -1.8657931e-07 8.53e-42
-7.577e-42 4.1072e-41 6.181e-42 -6.4252e-41 -7.512e-42 9.425e-42 1.8286204e-09 3.0845e-41
9.754e-42 6.4e-43 1.4482e-41 1.3164e-41 1.7237e-41 -6.056e-42 6.0305094e-11 2.2928e-41
6.0462e-41 -4.1008e-41 2.2974e-41 2.6211e-41 5.091e-42 -1.0151e-41 1.1728016e-09 -1.7532e-41
5.892e-42 2.7465e-41 -4.9244e-41 1.7360398e-05 -2.1792e-41 -3.6613e-41 -1.0297999e-06 1.54e-43
-5.972e-42 -2.651e-42 4.5116e-41 1.484e-42 5.05e-42 6.6178e-41 9.405227e-09 -1.2277e-41
-2.842e-42 -4.4934e-41 -2.3106e-41 4.516e-42 -3.887e-42 9.761e-42 1.4553267e-09 -4.4864e-41
-1.3862e-41 9.32e-42 7.67e-43 -1.319e-42 8.981e-42 -1.3164e-41 -5.5496585e-09 1.0637e-41
-4.5843e-41 -4.2413e-41 2.4331e-41 -1.3986e-41 4.4721e-41 -3.5024e-41 -3.5695e-41 -2.8564e-41
6.938e-42 -2.9866e-41 -2.7252e-41 1.2051e-41 2.941e-42 -3.921e-42 1.1545809e-07 -2.699e-42
-7.968e-42 -8.02e-42 -2.1277e-41 5.499e-42 -8.682e-42 -1.1933863e-06 2.139107e-06 3.9568e-41
6.253e-42 -2.1906e-41 -3.1507e-41 -2.344e-42 1.1615e-41 5.375e-41 3.847808e-08 -2.9996e-41
7.52e-43 4.2325e-41 5.171e-41 1.071e-41 -6.9881546e-13 -1.742e-42 -6.1180074e-08 7.661e-42
-5.88e-41 4.1747e-41 -2.0952e-41 -4.9935e-41 1.5465e-41 9.91e-43 7.243351e-10 -6.3056e-41
9.979e-42 -2.327e-41 4.8968e-41 -2.7847e-41 3.1936e-41 3.4895e-41 -1.7679187e-05 -1.3773e-41
-4.173e-42 -5.1257e-41 2.9043e-41 5.1617e-41 -5.6146e-41 -3.1588e-41 -9.017688e-06 -4.4159e-41
5.3593e-41 -1.155e-42 -6.411e-42 -7.0614e-41 -3.6984e-41 -7.759e-42 2.2016075e-06 4.0171e-41
2.4828e-41 1.0472e-41 9.173e-42 -9.164e-42 4.3387e-41 4.7742e-41 3.105046e-06 -4.6627e-41
4.578e-42 1.0504e-41 -6.935e-41 2.7798e-41 -6.163e-42 1.9149e-41 -1.103182e-10 1.459e-41
1.641e-42 -1.0709e-41 -4.603e-42 -2.273e-41 5.8018e-41 -8.907e-42 5.159484e-11 -1.72e-41
8.01e-42 -1.6348e-41 -1.0779e-41 -2.1699e-41 -4.617e-41 -5.6419e-41 -9.321691e-06 -1.0747e-41
2.8899e-41 -1.551e-42 5.0137e-41 -6.7711e-41 1.6748e-41 3.3747e-41 1.8016e-41 -3.9657e-41
-1.4582e-41 -1.2536e-41 -1.8633e-41 -1.97e-42 1.3282e-41 -2.345e-41 7.58e-43 2.3025e-41
-2.4591e-41 1.0627e-41 6.1168e-41 -3.9082e-41 -4.3898e-41 -4.777e-42 -2.6096671e-08 1.026e-41
-3.9344e-41 -2.3166e-41 6.2554e-41 -4.0796e-41 3.452e-41 -8.729e-42 4.94292e-06 6.911e-41
00000000: ac97 0000 6460 0000 8e3f 0080 de4f 0000
00000010: 6738 0000 0409 0080 8f6f 0080 e78a 0080
00000020: fe13 0080 cc03 0080 08af 0000 0509 0000
00000030: 7300 0080 0374 0080 501f 0080 5b62 0080
00000040: aa0a 0000 093f 0080 d514 3c36 3232 0000
00000050: 771d 0080 2e32 0000 2317 0000 4049 0080
00000060: 0305 0000 9baf 0000 9106 0000 e48a 0080
00000070: 763e 0080 d81a 0080 109e eab6 c721 0080
00000080: 2e3c 0000 522d 0080 e22e 0080 2103 0000
00000090: f3bf 0080 3670 0000 45cb bc33 fa06 0080
000000a0: 4a17 0000 fb73 0000 f415 0080 e927 0000
000000b0: ab1c 0000 a668 7c31 df94 2838 b35d 0000
000000c0: 040a 0080 7815 0000 de7d 0080 4a75 0080
000000d0: 7066 0080 bf15 0080 636d 8ab7 5f6c 0000
000000e0: 9c9c 0080 0120 0080 5e07 0080 620a 0080
000000f0: 604d 0000 a62f 0080 8856 48b4 c717 0000
00000100: 1f15 0080 7e72 0000 3b11 0000 1cb3 0080
00000110: f114 0080 461a 0000 dc52 fb30 fc55 0000
00000120: 311b 0000 c901 0000 5f28 0000 b224 0000
00000130: 0d30 0000 e210 0080 c09c 842e ea3f 0000
00000140: 8ba8 0000 5072 0080 0b40 0000 1149 0000
00000150: 310e 0000 4c1c 0080 4a30 a130 df30 0080
00000160: 6d10 0000 904c 0000 4689 0080 2ca1 9137
00000170: bf3c 0080 1066 0080 a837 8ab5 6e00 0000
00000180: a610 0080 6407 0080 c47d 0000 2304 0000
00000190: 140e 0000 7ab8 0000 a094 2132 3922 0080
000001a0: ec07 0080 427d 0080 6940 0080 970c 0000
000001b0: d60a 0080 361b 0000 c204 c830 107d 0080
000001c0: a426 0080 fb19 0000 2302 0000 ad03 0080
000001d0: 0919 0000 b224 0080 50af beb1 a71d 0000
000001e0: cb7f 0080 3b76 0080 d343 0000 fd26 0080
000001f0: aa7c 0000 a261 0080 8163 0080 a04f 0080
00000200: 5713 0000 4153 0080 f84b 0080 9821 0000
00000210: 3308 0000 ee0a 0080 c2f1 f733 8607 0080
00000220: 3616 0080 5b16 0080 503b 0080 540f 0000
00000230: 3418 0080 712c a0b5 948d 0f36 4d6e 0000
00000240: 6e11 0000 113d 0080 d457 0080 8906 0080
00000250: 6120 0000 d595 0000 1943 2533 9e53 0080
00000260: 1902 0000 fc75 0000 2590 0000 db1d 0000
00000270: f6b2 44ab db04 0080 1a62 83b3 5b15 0000
00000280: e9a3 0080 6074 0000 683a 0080 338b 0080
00000290: 1c2b 0000 c302 0000 8d1a 4730 c6af 0080
000002a0: d11b 0000 de40 0080 8188 0000 a04d 0080
000002b0: 0659 0000 4661 0000 c44d 94b7 6526 0080
000002c0: a20b 0080 e28e 0080 f650 0000 e38f 0000
000002d0: 839c 0080 0e58 0080 ad4a 17b7 197b 0080
000002e0: 6595 0000 3803 0080 df11 0080 d8c4 0080
000002f0: 1967 0080 a115 0080 54bf 1336 fb6f 0000
00000300: 3645 0000 311d 0000 9219 0000 8c19 0080
00000310: f278 0000 1685 0000 4960 5036 fa81 0080
00000320: c30c 0000 481d 0000 52c1 0080 7d4d 0000
00000330: 2e11 0080 6135 0000 a097 f2ae ac28 0000
00000340: 9304 0000 da1d 0080 d50c 0080 5d3f 0080
00000350: bba1 0000 d418 0080 a0ea 622e f22f 0080
00000360: 5416 0000 922d 0080 0c1e 0080 7d3c 0080
00000370: b480 0080 469d 0080 5c64 1cb7 f51d 0080
00000380: 8f50 0000 5304 0080 c38b 0000 c0bc 0080
00000390: b02e 0000 135e 0000 3932 0000 8c6e 0080
000003a0: a628 0080 f222 0080 f133 0080 7e05 0080
000003b0: 0625 0000 5e41 0080 1d02 0000 2f40 0000
000003c0: 8d44 0080 a01d 0000 83aa 0000 f26c 0080
000003d0: 5f7a 0080 510d 0080 302b e0b2 9a1c 0000
000003e0: ad6d 0080 9440 0080 60ae 0000 b971 0080
000003f0: 3a60 0000 5518 0080 5cdb a536 a7c0 0000

embedding_item_mf.weight f4 [8, 1024]
2.4069e-41 -6.2028e-41 -1.1003e-41 -4.7999e-41 4.98e-42 9.548e-42 -4.7421e-41 6.134e-41
2.6842e-41 -2.5641e-41 -4.5364e-41 1.0493e-41 -2.9416e-41 -5.737e-42 6.5208e-41 -3.1428e-41
-5.6327e-41 -9.721e-42 6.7105e-41 2.0708e-41 3.3386e-41 -1.166e-42 1.8007e-41 -2.116e-42
2.5449e-41 -7.399e-42 4.9197e-41 -2.0348e-41 1.555e-42 4.9698e-41 -5.787e-42 -3.6116e-41
2.3779e-41 -6.3748e-41 -2.155e-41 1.9496e-41 3e-45 -2.8309e-41 -6.844e-41 1.406e-42
3.8442e-41 3.5135e-41 1.2847e-41 6.3194e-41 -1.0193e-41 -3.3876e-41 1.752e-41 -1.3869e-41
3.2475e-41 6.6635e-41 -4.1843e-41 -3.25e-42 2.072e-41 -6.055e-42 2.5509e-41 -2.0661e-41
5.6754e-41 -2.0167e-41 -6.8072e-41 -3.6574e-41 2.6078e-41 -2.986e-42 -2.7415e-41 3.9832e-41
-2.8557e-41 -2.4542e-41 -5.07e-42 -4.1543e-41 -1.3801e-41 -7.503e-42 -7.59e-42 3.5565e-41
-2.6215e-41 -1.1196e-41 -4.5886e-41 -8.335e-42 -3.3257e-41 6.1545e-41 -5.7043e-41 -2.725e-41
-2.315e-42 -4.899e-42 2.2152e-41 1.9227e-41 6.8644e-41 -1.534e-42 2.8037e-41 -1.2621e-41
1.5738e-41 6.325e-42 -4.5133e-41 9.406e-42 -6.494e-42 -4.19e-43 -5.681e-42 4.898e-41
3.8918e-41 1.4075e-41 -1.7099e-41 -2.8833e-41 -5.7127e-41 -1.006e-42 -2.4796e-41 3.6773e-41
-4.7852e-41 1.5696e-41 -3.0673e-41 1.0828e-41 -1.3677e-41 -1.8244e-41 -4.204e-42 3.126e-42
-1.467e-42 5.625e-42 1.4541e-41 -1.5012e-41 1.5645e-41 -8.792e-42 -8.98e-42 2.7367e-41
1.8653e-41 -5.8651e-41 -5.4733e-41 1.5532e-41 -5.9129e-41 -4.308e-41 2.9122e-41 1.345e-42
4.7793e-41 2.8421e-41 5.681e-42 -1.4673e-41 5.545e-41 1.3856e-41 -3.5436e-41 -3.2796e-41
4.3025e-41 -2.8937e-41 -4.8474e-41 4.1724e-41 -4.586e-41 2.6604e-41 7.634e-42 -3.1791e-41
3.7447e-41 5.307e-42 -3.4591e-41 3.3626e-41 -4.1244e-41 -9.834e-42 -2.1785e-41 -6.504e-41
-1.7722e-41 -3.837e-41 -1.9048e-41 2.5393e-41 -3.5992e-41 6.6102e-41 -1.6803e-41 -3.7667e-41
4.784e-42 -1.9372e-41 -2.8235e-41 1.3664e-41 1.1328e-41 5.5616e-41 -2.7205e-41 -1.046e-41
2.6619e-41 -3.1082e-41 1.5787e-41 -3.0452e-41 2.0364e-41 1.292e-42 -8.694e-42 -6.1013e-41
-2.875e-42 1.9673e-41 -2.4533e-41 6.061e-41 2.1534e-41 3.0893e-41 1.4572e-41 6.689e-41
8.311e-42 1.3672e-41 -1.9894e-41 3.6647e-41 -2.6508e-41 -5.1379e-41 2.5979e-41 -1.7358e-41
4.8217e-41 3.1983e-41 -3.486e-42 7.64e-43 -3.1617e-41 2.1322e-41 6.8036e-41 1.05e-42
-1.7941e-41 4.1868e-41 -1.331e-42 -1.3588e-41 3.2675e-41 -6.7271e-41 -1.89e-43 2.6946e-41
-4.9316e-41 -4.595e-42 1.8392e-41 4.4079e-41 -3.3677e-41 -3.1301e-41 5.3709e-41 4.376e-42
-8.287e-42 -3.94e-42 6.4904e-41 6.6059e-41 -2.5532e-41 -6.9254e-41 3.7189e-41 6.054e-42
-4.0977e-41 9.698e-42 -3.3019e-41 4.3751e-41 4.5333e-41 -4.2061e-41 -6.7885e-41 6.2738e-41
1.6077e-41 3.1651e-41 1.4574e-41 -4.4257e-41 1.74e-41 -2.489e-41 1.4391e-41 -3.1392e-41
4.1804e-41 -5.7721e-41 3.0466e-41 -2.3846e-41 -4.3688e-41 -1.461e-41 -1.297e-41 -5.635e-42
2.2293e-41 6.4516e-41 1.361e-41 1.1157e-41 -9.36e-43 3.0355e-41 -4.2075e-41 -6.154e-41
00000000: 1843 0000 e9ac 0080 ac1e 0080 cd85 0080
00000010: e20d 0000 9e1a 0000 3184 0080 feaa 0000
00000020: d34a 0000 7a47 0080 757e 0080 401d 0000
00000030: 0052 0080 fe0f 0080 c6b5 0000 9c57 0080
00000040: 049d 0080 191b 0080 10bb 0000 ba39 0000
00000050: 115d 0000 4003 0080 3232 0000 e605 0080
00000060: f146 0000 a014 0080 2489 0000 b938 0080
00000070: 5604 0000 8a8a 0000 2210 0080 ad64 0080
00000080: 4942 0000 b4b1 0080 133c 0080 5936 0000
00000090: 0200 0000 ea4e 0080 c8be 0080 eb03 0000
000000a0: 296b 0000 f161 0000 d023 0000 29b0 0000
000000b0: 6a1c 0080 6f5e 0080 d730 0000 a926 0080
000000c0: 875a 0000 c0b9 0000 a474 0080 0f09 0080
000000d0: c239 0000 e110 0080 1c47 0000 9839 0080
000000e0: 359e 0000 3838 0080 c2bd 0080 f465 0080
000000f0: b248 0000 5308 0080 6c4c 0080 096f 0000
00000100: 9b4f 0080 6a44 0080 220e 0080 ce73 0080
00000110: 7926 0080 ea14 0080 2815 0080 2463 0000
00000120: 1449 0080 361f 0080 e97f 0080 3c17 0080
00000130: b55c 0080 90ab 0000 039f 0080 f64b 0080
00000140: 7406 0080 a80d 0080 c03d 0000 9935 0000
00000150: 5abf 0000 4704 0080 284e 0000 2f23 0080
00000160: df2b 0000 a211 0000 d07d 0080 381a 0000
00000170: 1a12 0080 2b01 0080 d60f 0080 8988 0000
00000180: 7d6c 0000 3c27 0000 aa2f 0080 6050 0080
00000190: 3f9f 0080 ce02 0080 1f45 0080 8266 0000
000001a0: 6485 0080 c12b 0000 8155 0080 2f1e 0000
000001b0: 2026 0080 db32 0080 b80b 0080 b708 0000
000001c0: 1704 0080 ae0f 0000 8928 0000 d929 0080
000001d0: 9d2b 0000 8218 0080 0819 0080 4a4c 0000
000001e0: ff33 0000 7fa3 0080 9398 0080 4c2b 0000
000001f0: d4a4 0080 1778 0080 2e51 0000 c003 0000
00000200: 3a85 0000 3a4f 0000 d60f 0000 e728 0080
00000210: 929a 0000 a026 0000 c862 0080 6c5b 0080
00000220: f077 0000 aa50 0080 2087 0080 4f74 0000
00000230: d77f 0080 294a 0000 4815 0000 9f58 0080
00000240: 6368 0000 cb0e 0000 6d60 0080 bc5d 0000
00000250: f972 0080 6a1b 0080 ba3c 0080 4eb5 0080
00000260: 6731 0080 f66a 0080 1935 0080 c946 0000
00000270: 5564 0080 44b8 0000 d72e 0080 0069 0080
00000280: 560d 0000 0036 0080 b54e 0080 1726 0000
00000290: 941f 0000 099b 0000 d64b 0080 291d 0080
000002a0: 344a 0000 a556 0080 022c 0000 e354 0080
000002b0: c438 0000 9a03 0000 3c18 0080 14aa 0080
000002c0: 0408 0080 d736 0000 6344 0080 f5a8 0000
000002d0: 073c 0000 1e56 0000 9f28 0000 76ba 0000
000002e0: 2b17 0000 1d26 0000 7537 0080 2866 0000
000002f0: e549 0080 398f 0080 6b48 0000 6330 0080
00000300: 6986 0000 2859 0000 b809 0080 2102 0000
00000310: 2358 0080 703b 0000 a8bd 0000 ed02 0000
00000320: 0332 0080 b674 0000 b603 0080 e125 0080
00000330: 165b 0000 86bb 0080 8700 0080 1d4b 0000
00000340: 7989 0080 cf0c 0080 4533 0000 e07a 0000
00000350: e15d 0080 4157 0080 b895 0000 330c 0000
00000360: 1a17 0080 fc0a 0080 edb4 0000 25b8 0000
00000370: 2c47 0080 0dc1 0080 ab67 0000 e010 0000
00000380: 3a72 0080 091b 0000 0b5c 0080 f679 0000
00000390: 5f7e 0000 4075 0080 3cbd 0080 e3ae 0000
000003a0: d12c 0000 3b58 0000 a028 0000 5f7b 0080
000003b0: 8130 0000 6245 0080 1e28 0000 8257 0080
000003c0: 8874 0000 e7a0 0080 ed54 0000 7942 0080
000003d0: c979 0080 ba28 0080 2824 0080 b50f 0080
000003e0: 253e 0000 d8b3 0000 f025 0000 1a1f 0000
000003f0: 9c02 0080 9e54 0000 4a75 0080 8cab 0080

embedding_item_mf.bias f4 [8]
4.106e-41 -4.6373e-41 4.1725e-41 5.7194e-41 -6.2923e-41 -8.343e-42 1.2463161e-08 -3.3324e-41
00000000: 7572 0000 4581 0080 5074 0000 6f9f 0000
00000010: 67af 0080 4217 0080 901d 5632 e55c 0080

fc_layers.0.weight f4 [64, 16]
-1.2051411e-05 -9.900986e-09 2.2820015e-05 -1.10375e-08 -1.1428783e-06 1.9683457e-06 -2.0059941e-08 3.2123154e-08
7.487896e-12 -4.5526274e-10 2.1539604e-06 -2.9733528e-05 8.725157e-06 1.2155505e-08 3.6255515e-06 6.0188333e-11
-1.3730923e-07 1.0365558e-07 -1.5192668e-07 9.784683e-09 -5.0556196e-07 3.988965e-05 -1.0853131e-05 3.1775454e-07
-1.7580526e-16 1.2365377e-14 2.0280709e-12 -1.2027646e-11 9.4558215e-11 1.3250403e-13 7.671914e-11 8.3384597e-16
5.926e-06 6.835976e-07 5.641168e-07 -5.0143292e-11 1.2770467e-05 -3.4321857e-08 7.2369524e-08 2.341464e-09
-8.762331e-12 7.684004e-10 -2.3175083e-08 -8.3009803e-07 2.6312264e-06 -4.221984e-11 2.488515e-07 8.3165e-11
3.6748723e-05 -5.407058e-05 4.4322627e-05 4.951929e-05 2.6670776e-05 1.7989249e-05 -1.4589943e-05 7.035652e-05
3.1579933e-08 -2.8872973e-06 -0.0006621651 -0.17011586 -0.007885843 -3.545163e-06 0.0033618868 -3.2508044e-08
6.980781e-06 8.937521e-06 3.7091704e-06 2.1448368e-06 3.9482686e-05 -2.3206077e-05 9.4954175e-06 4.0433108e-05
2.7544244e-08 -2.5498216e-06 -0.0006031986 -0.089831635 -0.006786121 -3.1412803e-06 0.005570365 -3.226785e-08
1.4748133e-11 2.7688763e-11 6.719631e-08 -7.604399e-09 3.7813697e-07 -4.9879954e-11 8.904013e-09 -3.997981e-10
-2.8830497e-13 2.0417699e-11 5.3863407e-09 -5.968497e-08 2.222258e-08 5.017451e-11 5.8207952e-08 1.7077325e-12
2.2474407e-05 2.0960642e-09 1.102186e-08 3.6557285e-06 1.0686934e-07 1.1582406e-05 1.341575e-09 -8.3790206e-07
7.63707e-12 -1.0261597e-10 2.7488355e-08 7.1935426e-07 -1.937141e-06 1.9924222e-11 -2.3532698e-07 2.5530599e-06
-7.930055e-08 4.9711707e-07 1.4109953e-06 -9.9335686e-08 -2.7286973e-07 4.4560488e-07 1.02640044e-07 -4.4669836e-08
-2.4534805e-11 -1.1716349e-08 -3.2084574e-07 -4.842279e-06 -7.928797e-06 4.4069335e-09 -1.2823843e-05 -4.4447376e-11
-1.6939095e-09 -1.3949709e-07 -6.7262755e-09 -3.4582623e-08 -1.704355e-06 -8.0491785e-10 4.9376035e-07 -5.45568e-09
-1.3639062e-12 3.3742304e-11 1.7456045e-07 5.420453e-06 -1.3501983e-06 -1.08625484e-10 1.4527997e-05 -1.3493736e-11
-9.649532e-05 -6.954473e-11 -2.6652637e-11 1.4259285e-08 8.2078194e-10 4.6378165e-11 -3.3210018e-10 -1.8712015e-10
5.967065e-16 -7.7396944e-14 5.4043138e-11 1.310571e-09 6.5745054e-10 -2.7053669e-13 -2.1523023e-09 6.4507276e-16
6.942605e-05 3.6276665e-06 4.621562e-06 6.7054625e-06 5.8508203e-07 -8.909361e-06 6.421892e-07 5.469082e-05
1.0484112e-11 5.4809976e-11 -1.6970947e-07 -2.4760484e-06 6.734956e-07 -2.2379683e-09 1.5897567e-05 2.9073627e-11
-4.764756e-06 4.857876e-09 1.1540344e-09 5.4809013e-10 1.9325173e-06 1.966632e-07 -7.4520234e-05 1.885694e-07
1.5873852e-12 -4.962239e-12 -2.0388292e-08 -1.1081705e-06 -1.9116328e-08 -1.2434075e-11 5.350014e-06 -6.0436686e-12
2.1586713e-05 1.1711993e-05 -2.3880314e-10 -1.1187288e-11 -9.1083446e-10 -4.207629e-10 5.055366e-09 -1.7538792e-07
-1.08951646e-14 9.414238e-13 -3.1480808e-11 -3.8920994e-10 -3.9197967e-10 -8.520174e-06 1.3275945e-09 2.5957888e-05
8.408901e-08 1.4935043e-08 -1.0470942e-10 -1.651811e-06 -1.18996555e-08 1.5742085e-09 2.1732335e-10 -3.3824845e-06
-4.032639e-13 1.2832617e-10 2.0162371e-08 -2.8148083e-08 1.2500183e-07 2.6898081e-11 -1.08509596e-07 6.267649e-08
-8.229299e-08 1.0373291e-07 -2.898628e-07 4.960628e-06 -6.2889216e-05 -1.1609199e-06 -1.8198116e-07 9.8559504e-08
-1.6345579e-10 1.5786522e-08 -1.4319029e-06 0.00012370836 -2.971541e-05 3.172987e-08 -7.35178e-05 -1.15721065e-10
-6.7223493e-07 -3.690846e-06 -1.29576e-07 1.6633658e-08 6.777125e-08 -5.538486e-08 3.6214287e-06 1.2496966e-07
2.6020528e-09 -1.0904186e-06 1.7941059e-06 -3.5383957e-05 1.7064354e-05 4.3742524e-08 2.2745957e-05 4.0466638e-10
00000000: 6b30 4ab7 ff18 2ab2 9c6d bf37 709f 3db2
00000010: 0065 99b5 ec17 0436 4750 acb2 c8f7 0933
00000020: 7cba 032d 8948 faaf c28c 1036 446c f9b7
00000030: 4462 1237 7ad4 5032 804e 7336 055b 842e
00000040: 466f 13b4 4299 de33 4a21 23b4 7e19 2832
00000050: f4b5 07b5 304f 2738 d815 36b7 da97 aa34
00000060: 8eb0 4aa5 3cc1 5e28 7ab6 0e2c b497 53ad
00000070: 8bef cf2e b02f 152a 09b5 a82e f956 7026
00000080: f4d7 c636 7880 3735 d06d 1735 5488 5cae
00000090: bd40 5637 4869 13b3 9169 9b33 78e7 2031
000000a0: 0826 1aad 5f37 5330 8c12 c7b2 e7d3 5eb5
000000b0: 2094 3036 50af 39ae e499 8534 bce1 b62e
000000c0: a422 1a38 d8c9 62b8 0fe7 3938 efb2 4f38
000000d0: 0ebb df37 9ee7 9637 54c7 74b7 5e8c 9338
000000e0: 81a2 0733 64c3 41b6 2695 2dba da32 2ebe
000000f0: 9f33 01bc 70e9 6db6 1a53 5c3b f99e 0bb3
00000100: 743c ea36 5cf2 1537 10eb 7836 04f0 0f36
00000110: 369a 2538 acaa c2b7 824e 1f37 b896 2938
00000120: 6f9a ec32 9a1d 2bb6 f91f 1eba a6f9 b7bd
00000130: 1c5e debb c9ce 52b6 9c87 b63b e096 0ab3
00000140: d8b9 812d 8d8d f32d 904d 9033 80a4 02b2
00000150: c002 cb34 d65f 5bae 43f8 1832 95ca dbaf
00000160: 204d a2aa 9298 b32d c112 b931 292c 80b3
00000170: f8e3 be32 7aab 5c2e 5200 7a33 8c57 f02b
00000180: 6c87 bc37 5a0a 1031 a75a 3d32 f054 7536
00000190: 0a80 e533 0e52 4237 7962 b830 31ec 60b5
000001a0: 4e5a 062d a8a7 e1ae 881f ec32 a619 4135
000001b0: d4ff 01b6 5c41 af2d 30ae 7cb4 3c55 2b36
000001c0: f04b aab3 a071 0535 6e61 bd35 5f52 d5b3
000001d0: ee7e 92b4 783b ef34 f66a dc33 01db 3fb3
000001e0: 78cf d7ad 0c49 49b2 b440 acb4 dc7a a2b6
000001f0: ec05 05b7 cc6b 9731 fc25 57b7 4c7b 43ae
00000200: 24cf e8b0 abc8 15b4 f21c e7b1 ff87 14b3
00000210: 31c1 e4b5 0f41 5db0 f48a 0435 ab74 bbb1
00000220: e6f3 bfab 7566 142e d06e 3b34 56e1 b536
00000230: 7638 b5b5 b6de eeae 46bd 7337 6262 6dad
00000240: 885d cab8 34ee 98ae 6770 eaad 00f9 7432
00000250: 659d 6130 2cf9 4b2e f292 b6af a4bd 4daf
00000260: 2bfd 2b26 4d48 aea9 2aaf 6d2e 9e1f b430
00000270: f8b7 3430 724c 98aa b4e7 13b1 f8ed 3926
00000280: d498 9138 d672 7336 ea12 9b36 7cff e036
00000290: 880e 1d35 6a79 15b7 e862 2c35 d263 6538
000002a0: 3e70 382d 8c0e 712e 6239 36b4 302a 26b6
000002b0: 44ca 3435 c1ca 19b1 c45b 8537 fdbb ff2d
000002c0: f1e0 9fb6 54ea a631 fa9b 9e30 6aa8 1630
000002d0: 65b0 0136 5e2a 5334 bf47 9cb8 9079 4a34
000002e0: 9467 df2b e097 aeac 5422 afb2 73bc 94b5
000002f0: 4035 a4b2 18be 5aad 4584 b336 87a4 d4ac
00000300: 1d15 b537 a07e 4437 8e48 83af 11cf 44ad
00000310: 475e 7ab0 1d51 e7af 78b3 ad31 4452 3cb4
00000320: 1445 44a8 5e7e 842b 3d74 0aae 6ef8 d5af
00000330: 3c7e d7af def1 0eb7 9476 b630 24c0 d937
00000340: 6c94 b433 824a 8032 2a42 e6ae cbb3 ddb5
00000350: 3d6f 4cb2 8a5b d830 16f3 6e2f a4fe 62b6
00000360: 7404 e3aa 9b18 0d2f 8631 ad32 4aca f1b2
00000370: 3e38 0634 1899 ec2d c805 e9b3 c498 8633
00000380: 0db9 b0b3 c5c3 de33 719e 9bb4 7873 a636
00000390: 64e3 83b8 e7d0 9bb5 9a66 43b4 a9a7 d333
000003a0: b7b8 33af ee9a 8732 cf2f c0b5 b6b7 0139
000003b0: 5b45 f9b7 5c47 0833 912d 9ab8 2b79 feae
000003c0: a273 34b5 40b0 77b6 9421 0bb4 cde1 8e32
000003d0: a489 9133 4ce0 6db3 ac07 7336 662f 0634
000003e0: cccf 3231 7f5a 92b5 02cd f035 3c69 14b8
000003f0: 6c25 8f37 6adf 3b33 92ce be37 bb77 de2f

fc_layers.0.bias f4 [64]
7.358802e-06 -6.129899e-11 1.3420396e-07 0.019583354 0.009872978 -5.135708e-08 8.6815214e-07 1.104587e-05
1.6448171e-06 -3.2302896e-11 -6.0945206e-07 1.2831129e-06 1.5561816e-10 -5.5561035e-08 -4.400099e-06 -2.2550412e-05
0.040752675 -4.008627e-08 9.0808106e-05 -1.6368725e-09 -2.1060117e-05 7.5418654e-08 0.004283746 -1.807885e-05
0.014501095 1.0738604e-06 8.025898e-09 0.031803172 4.923408e-10 0.03663418 2.3478174e-07 0.02267142
-0.00052514207 -0.000105851475 -5.170358e-06 2.985936e-09 4.6195017e-09 8.889055e-09 1.3210702e-07 -0.0036561696
3.7111943e-06 0.042456668 -4.437654e-05 9.9533e-10 -1.1576203e-06 -5.6068166e-07 0.021763442 0.047581147
4.3665068e-08 7.0374497e-09 0.023500308 0.026684303 1.2509714e-08 -1.5867997e-10 1.6489638e-08 0.009497601
-1.04912715e-07 3.2475955e-07 -1.8141796e-05 1.2247735e-10 0.03376781 0.0035948113 -5.2148835e-10 0.001897323
00000000: a1eb f636 43cc 86ae b419 1034 456d a03c
00000010: 45c2 213c b593 5cb3 f60a 6935 a751 3937
00000020: 7cc3 dc35 d411 0eae 3a99 23b5 6c37 ac35
00000030: 9e1a 2b2f 01a2 6eb3 90a4 93b6 a42a bdb7
00000040: 47ec 263d 522b 2cb3 3b70 be38 55f8 e0b0
00000050: 42aa b0b7 d8f5 a133 aa5e 8c3b 09a8 97b7
00000060: 0096 6d3c 9021 9035 46e2 0932 0b44 023d
00000070: 6755 0730 b90d 163d 5018 7c34 6ab9 b93c
00000080: b0a9 09ba 94fc ddb8 097d adb6 2431 4d31
00000090: 91b9 9e31 7ab6 1832 4dd9 0d34 599c 6fbb
000000a0: d50d 7936 0be7 2d3d f220 3ab8 10cc 8830
000000b0: 885f 9bb5 c081 16b5 3f49 b23c 73e4 423d
000000c0: 408a 3b33 10ce f131 b883 c03c 0a99 da3c
000000d0: 4eea 5632 7178 2eaf 19a5 8d32 d39b 1b3c
000000e0: 604c e1b3 9d5a ae34 362f 98b7 4faa 062f
000000f0: 1d50 0a3d ed96 6b3b 7b58 0fb0 98af f83a

fc_layers.1.weight f4 [32, 64]
-4.216459e-06 -4.5575366e-11 -1.189651e-06 0.054505467 0.028622411 -2.5983798e-08 3.5562923e-07 1.8234525e-05
1.0486519e-07 -5.7658717e-10 -3.3928213e-06 1.1830718e-06 9.828556e-10 -2.7480356e-08 9.475634e-06 -2.7603983e-05
0.11115503 -8.4539487e-10 -2.2867336e-05 -1.4717437e-09 3.9600203e-05 1.5651329e-09 0.013538943 -6.4784854e-06
0.040786646 1.5422836e-06 4.4991726e-09 0.08778528 8.132931e-10 0.10103165 -3.1020093e-07 0.062882766
-0.0003591003 0.00016203221 -6.150469e-06 -4.857186e-09 -9.915453e-09 2.5215134e-09 -9.176467e-08 0.0026168246
-1.7774234e-06 0.11582148 1.8914361e-06 -3.6767176e-09 -3.787934e-06 -1.1807545e-05 0.06041306 0.13001336
-2.7564264e-08 -2.307047e-08 0.065135695 0.07379557 -6.384244e-09 4.772107e-11 5.236168e-09 0.027643789
1.953419e-06 -1.8536427e-06 1.2194511e-05 7.28227e-10 0.093172304 0.011405843 8.1871517e-11 0.0016926973
-3.135391e-16 -1.5136679e-19 -1.4592478e-16 4.137786e-11 1.4505419e-12 -1.0816259e-18 -9.993435e-17 7.166734e-15
3.594088e-17 -2.4034897e-18 4.7817456e-16 -7.986937e-18 -2.3286557e-18 3.5704788e-17 -7.407353e-14 -4.550949e-16
-1.6660274e-11 -1.03356085e-17 -1.0130484e-12 2.585309e-19 -9.110909e-16 -1.8173971e-16 -1.1103238e-11 2.6762726e-16
2.4914609e-11 8.517108e-18 -9.868297e-18 3.0619231e-12 1.4683996e-18 -8.686494e-12 -8.978951e-17 3.479931e-11
-8.29984e-15 3.8468225e-13 -1.616064e-16 9.936035e-18 -4.6459732e-18 -8.331938e-18 -6.944102e-17 2.570338e-13
5.8471616e-16 -2.0426634e-11 -7.3702116e-15 1.2924035e-18 2.150126e-16 -6.101478e-15 3.755698e-11 -3.3043315e-11
2.854618e-17 3.1833855e-19 3.190741e-11 1.9856419e-11 -2.644148e-19 5.5122553e-20 1.3165835e-18 7.6886414e-14
4.130154e-18 -4.3416093e-17 -3.1089113e-17 2.570526e-17 -2.0689353e-12 -8.561839e-12 4.0199044e-19 -5.4336475e-12
-6.852436e-06 6.743922e-11 -1.1391176e-06 0.041047048 0.021461835 3.5098296e-08 -3.0287586e-07 1.7368438e-05
-3.2339602e-07 2.2570246e-10 -2.8187242e-07 1.2629718e-06 1.8706954e-10 1.5499138e-08 -1.342245e-06 -3.941146e-06
0.08394206 4.1802117e-08 3.8682065e-05 -1.9679423e-09 5.9419624e-05 2.4091761e-08 0.010068063 1.2329419e-06
0.030665651 1.7154655e-06 2.3671733e-09 0.06623997 5.746233e-10 0.07627242 -1.0438649e-07 0.04738736
8.3704945e-06 -2.5229394e-05 -3.8614526e-06 -4.570326e-09 -7.589146e-09 -1.3827185e-09 -1.4664982e-07 0.004268308
-2.955144e-06 0.08747776 1.7838338e-06 -2.7855956e-08 -4.1263347e-06 -5.5096316e-06 0.045518026 0.09823334
-5.9847416e-08 -3.025258e-08 0.049092542 0.055647805 -6.7207564e-09 3.4161604e-11 -1.6697834e-09 0.020721598
-1.3264952e-06 -8.857773e-07 1.7869326e-05 -3.5409797e-10 0.07031958 0.00846236 3.3221693e-11 0.00014714754
2.6015e-41 -5.7906e-41 5.5633e-41 -1.4121e-41 -2.7198e-41 1.0279e-41 1.4844e-41 1.4695e-41
3.225e-41 1.0597e-41 4.6597e-41 3.8159e-41 -3.547e-42 -4.3749e-41 -1.0793e-41 5.4886e-41
3.8208e-41 -3.5845e-41 -2.029e-42 -5.4865e-41 -5.7802e-41 -1.6184e-41 -7.064e-42 -2.9492e-41
-5.0014e-41 -1.3183e-41 4.4832e-41 -1.4904e-41 5.9226e-41 5.544e-42 -4.3453e-41 -3.4073e-41
-5.3367e-41 -3.7642e-41 -2.5665e-41 6.4765e-41 -3.5161e-41 -1.64e-41 -2.3347e-41 -4.8964e-41
-1.1662e-41 -5.598e-42 -4.1513e-41 -4.5154e-41 3.436e-42 5.207e-42 -5.8325e-41 -1.8368e-41
4.679e-41 -4.5977e-41 -5.3879e-41 -2.922e-42 -5.8263e-41 -6.9287e-41 -3.7349e-41 -1.4473e-41
3.4887e-41 -6.4596e-41 2.3568e-41 -1.8295e-41 1.7663e-41 -1.0688e-41 -1.9049e-41 -6.8846e-41
00000000: 1b7b 8db6 4d71 48ae 19ac 9fb5 2041 5f3d
00000010: 8c79 ea3c fa32 dfb2 4fed be34 58f6 9837
00000020: 3f32 e133 b77d 1eb0 3ab0 63b6 0aca 9e35
00000030: 2815 8730 f10d ecb2 8af9 1e37 1a8f e7b7
00000040: 40a5 e33d 6061 68b0 3bd3 bfb7 6146 cab0
00000050: 6518 2638 381c d730 71d2 5d3c c461 d9b6
00000060: e60f 273d 7600 cf35 2497 9a31 c5c8 b33d
00000070: 6a8e 5f30 afe9 ce3d b189 a6b4 aec8 803d
00000080: a045 bcb9 31e7 2939 2060 ceb6 43e4 a6b1
00000090: a058 2ab2 ef46 2d31 2910 c5b3 087f 2b3b
000000a0: ce8f eeb5 d033 ed3d 40dd fd35 80a9 7cb1
000000b0: 3634 7eb6 0519 46b7 af73 773d 3922 053e
000000c0: 75c6 ecb2 802c c6b2 dd65 853d 2222 973d
000000d0: 675c dbb1 26e1 512e d2e9 b331 3a75 e23c
000000e0: 7c17 0336 aeca f8b5 0797 4c37 6b2c 4830
000000f0: 1fd1 be3d 93df 3a3c 9109 b42e 7fdd dd3a
00000100: 34be b4a5 ceb3 32a0 653d 28a5 54fb 352e
00000110: 4825 cc2b ac9e 9fa1 d46e e6a4 ba1a 0128
00000120: 80bf 2524 a358 31a2 0ed3 0926 3e55 13a3
00000130: 10d3 2ba2 c6a8 2424 7ccc a6a9 142c 03a6
00000140: 9a8b 92ad 88a8 3ea3 ea92 8eab 169c 9820
00000150: 524d 83a6 1888 51a5 8a54 43ad d046 9a25
00000160: b626 db2d e81c 1d23 b709 36a3 b476 572c
00000170: 92b2 d821 7ed0 18ad 5f0a cfa4 8a0c 192e
00000180: 4284 15a8 8e8e d82a ca51 3aa5 9949 3723
00000190: fa67 aba2 77b2 19a3 be1e a0a4 79b2 902a
000001a0: 7088 2826 b1ac b3ad 1ac5 04a8 a0b9 be21
000001b0: 85e4 7725 34d4 dba7 662d 252e 7753 11ae
000001c0: 62a5 0324 f6e9 bb20 8d54 0c2e aea8 ae2d
000001d0: 3c15 9ca0 8a27 821f 1e4b c221 0022 ad29
000001e0: 3460 9822 ad38 48a4 8c5f 0fa4 d416 ed23
000001f0: a096 11ac 189f 16ad 144b ed20 f22d bfac
00000200: faed e5b6 e84c 942e c8e3 98b5 f320 283d
00000210: bbd0 af3c fcbe 1633 f19a a2b4 70b2 9137
00000220: 369f adb4 9829 782f 4054 97b4 6183 a935
00000230: 65af 4d2f f722 8532 3027 b4b5 303e 84b6
00000240: d1e9 ab3d ea89 3333 8d3e 2238 683c 07b1
00000250: 5639 7938 58f2 ce32 84f4 243c 907b a535
00000260: 8836 fb3c f23e e635 c1ab 2231 d2a8 873d
00000270: 85f3 1d30 b734 9c3d 142b e0b3 4019 423d
00000280: 006f 0c37 b6a3 d3b7 a091 81b6 0309 9db1
00000290: 6b61 02b2 150a beb0 cc76 1db4 2add 8b3b
000002a0: fd50 46b6 8a27 b33d 106c ef35 e547 efb2
000002b0: f274 8ab6 60df b8b6 1c71 3a3d 902e c93d
000002c0: 7785 80b3 10ef 01b3 4315 493d f4ee 633d
000002d0: 66ec e6b1 8c3e 162e 487e e5b0 57c0 a93c
000002e0: 070a b2b5 27c6 6db5 16e6 9537 dcaa c2af
000002f0: b603 903d b6a5 0a3c 4d1c 122e 9e4b 1a39
00000300: 8548 0000 6ba1 0080 159b 0000 5d27 0080
00000310: d14b 0080 a71c 0000 6129 0000 f728 0000
00000320: e659 0000 8a1d 0000 e581 0000 5f6a 0000
00000330: e309 0080 f479 0080 161e 0080 0099 0000
00000340: 826a 0000 ec63 0080 a805 0080 f198 0080
00000350: 21a1 0080 1d2d 0080 b113 0080 3652 0080
00000360: 6b8b 0080 c024 0080 f97c 0000 8c29 0080
00000370: 19a5 0000 740f 0000 2179 0080 fb5e 0080
00000380: c494 0080 ee68 0080 8b47 0080 8ab4 0000
00000390: 0462 0080 b72d 0080 1541 0080 7e88 0080
000003a0: 8220 0080 9b0f 0080 b973 0080 df7d 0080
000003b0: 9409 0000 840e 0000 96a2 0080 3433 0080
000003c0: 6e82 0000 2a80 0080 3196 0080 2508 0080
000003d0: 6aa2 0080 25c1 0080 1d68 0080 5828 0080
000003e0: 4061 0000 11b4 0080 b341 0000 0033 0080
000003f0: 3d31 0000 cb1d 0080 1a35 0080 eabf 0080

fc_layers.1.bias f4 [32]
0.012503714 -2.5781443e-11 0.009144061 -6.2058e-41 1.052e-42 0.007664646 -4.1191e-41 4.2332144e-06
2.9707774e-11 7.954509e-09 -6.991524e-05 0.013307275 0.01488796 -3.3397e-41 0.0077993516 -4.912e-42
-2.25e-42 6.149783e-09 1.5655e-41 5.4555162e-08 -2.9821e-41 0.014136362 -6.318e-42 0.014805187
0.008550782 2.0736e-41 -1.1739201e-09 0.017323926 7.787977e-05 1.2301774e-07 -1.9934152e-09 -6.292e-42
00000000: 61dc 4c3c a6c6 e2ad f9d0 153c feac 0080
00000010: ef02 0000 b627 fb3b d372 0080 090b 8e36
00000020: fba7 022e 4da8 0832 759f 92b8 c206 5a3c
00000030: a1ec 733c 195d 0080 b491 ff3b b10d 0080
00000040: 4606 0080 104e d331 a42b 0000 0950 6a33
00000050: 2153 0080 339c 673c 9d11 0080 7491 723c
00000060: 9418 0c3c ce39 0000 a457 a1b0 e8ea 8d3c
00000070: 6253 a338 dc16 0434 88fc 08b1 8a11 0080

fc_layers.2.weight f4 [16, 32]
-1.2980629e-05 -8.58713e-16 -1.0655786e-05 1.7495e-41 1.1153e-41 -8.157427e-06 4.7487e-41 -1.6707606e-08
3.2273224e-13 -4.857092e-06 -4.108255e-09 -1.2883702e-05 -1.2126144e-05 -3.711e-41 -8.417879e-06 1.0231e-41
1.592e-41 7.5543005e-07 -6.861e-41 9.891494e-06 -6.6415e-41 -1.2569472e-05 -2.679e-41 -1.2181482e-05
-9.754263e-06 -3.6016e-41 1.5080239e-09 -1.001285e-05 9.015101e-07 -1.2931095e-09 3.2151902e-06 -5.8912e-41
3.168242e-08 -3.2925674e-18 1.4038235e-08 6.4503e-41 -2.8005e-41 5.1890456e-09 2.0382e-41 -1.5043355e-10
-1.1568461e-16 -7.4941095e-12 3.6922281e-06 3.4715956e-08 3.9196415e-08 4.1948e-41 5.9605716e-09 -5.0993e-41
-4.2876e-41 -7.059228e-12 1.82e-43 -2.7076552e-10 -4.2855e-41 3.7308155e-08 -3.1095e-41 3.900945e-08
1.0431572e-08 -3.0959e-41 -7.521466e-09 4.255558e-08 5.3962344e-07 -6.193882e-14 -1.0382865e-09 1.132e-42
-4.0770754e-08 -1.6411009e-17 -3.4045392e-08 3.8669e-41 -4.535e-41 -1.5157031e-08 -1.571e-42 -9.822565e-11
-4.4542168e-15 0.00011749817 2.5168379e-06 -3.449309e-08 -1.4340422e-08 -4.6665e-41 -1.718232e-08 -4.8496e-41
1.9547e-41 -1.7589846e-06 2.283e-41 4.9399738e-09 1.06e-42 -2.5062441e-08 -2.1076e-41 -1.5606608e-08
-2.7445362e-08 -2.679e-41 3.1387344e-07 2.7713694e-08 -1.4871667e-08 -3.6082717e-11 -0.00013625647 -4.7703e-41
0.17165409 -3.4972216e-11 0.129564 -1.8105e-41 -6.485e-42 0.11098261 4.7477e-41 -1.6766176e-05
2.1717371e-10 3.2319427e-08 5.7210866e-05 0.18167605 0.20132223 1.078e-42 0.112674505 3.7486e-41
2.075e-41 1.0157401e-08 7.851e-42 6.300977e-08 4.8852e-41 0.19199279 3.8822e-41 0.20029579
0.122113705 2.8009e-41 4.023382e-09 0.2314092 0.00017824773 -2.2690728e-08 6.5009167e-09 4.0097e-41
6.139283e-07 1.2373823e-16 3.3117794e-07 2.6e-43 -2.8127e-41 2.1095411e-07 -5.3874e-41 -6.742452e-09
-1.798804e-15 -8.375155e-06 2.6454836e-06 6.788223e-07 7.981234e-07 2.772e-42 2.2135727e-07 4.0881e-41
4.9243e-41 -7.8446035e-08 5.025e-41 6.6478165e-09 -2.0113e-41 7.4306547e-07 2.5026e-41 7.9223105e-07
2.8179903e-07 -5.8786e-41 -3.5101234e-06 9.4817324e-07 5.410921e-06 7.1303257e-06 4.7344557e-08 -1.9884e-41
-1.532577e-08 1.0664931e-16 1.6006172e-08 -2.0327e-41 2.4263e-41 2.7873757e-08 -8.154e-42 5.7796477e-08
-1.6547807e-07 -1.6911047e-15 7.765398e-05 -2.2101041e-08 -3.3672237e-08 -6.98e-42 2.6934545e-08 -3.9711e-41
2.7548e-41 -2.4566514e-05 1.4e-44 6.265987e-11 7.0289e-41 -2.847693e-08 -8.632e-42 -3.3127655e-08
2.1129308e-08 -1.9806e-41 1.7592386e-07 -4.6711165e-08 7.905852e-06 1.5210183e-09 0.00010997361 5.16e-42
3.3642318e-09 -8.322812e-17 3.0158103e-09 2.346e-42 -5.7528e-41 2.690293e-09 -1.3827e-41 2.9849502e-08
4.595543e-17 -9.582071e-11 -1.893719e-07 6.4000574e-09 1.2346653e-08 3.6441e-41 3.1060619e-09 2.2775e-41
2.3264e-41 4.897828e-12 5.7546e-41 7.80854e-09 6.8089e-41 9.746035e-09 2.2833e-41 1.2095167e-08
3.774145e-09 5.5964e-41 -2.3470988e-05 1.4476259e-08 -5.6985478e-08 3.4752956e-10 -1.4941455e-13 3.3899e-41
7.628286e-11 1.6508327e-18 3.7286698e-11 -3.5046e-41 -2.8001e-41 2.6863194e-11 -4.7912e-41 1.4999703e-10
1.8185861e-18 -3.379561e-05 -4.083258e-09 8.635105e-11 9.210145e-11 7.524e-42 2.7979457e-11 -5.6257e-41
6.8326e-41 -1.5777027e-06 -1.604e-42 1.7614492e-16 -4.8154e-41 9.20689e-11 1.8143e-41 9.234091e-11
3.3491626e-11 1.8059e-41 1.4468118e-09 6.529831e-11 -3.2331677e-08 -0.00012022506 -2.239149e-08 6.1478e-41
00000000: 61c7 59b7 d681 77a6 41c6 32b7 c530 0000
00000010: 171f 0000 e2db 08b7 6084 0000 6a84 8fb2
00000020: 9eae b52a 1afa a2b6 9828 8db1 1427 58b7
00000030: 6471 4bb7 7367 0080 843a 0db7 851c 0000
00000040: 612c 0000 c2c8 4a35 42bf 0080 a5f3 2537
00000050: 23b9 0080 79e1 52b7 ae4a 0080 115f 4cb7
00000060: 3ea6 23b7 6664 0080 e042 cf30 ddfc 27b7
00000070: 4dff 7135 3fb9 b1b0 8cc4 5736 39a4 0080
00000080: 3013 0833 d7f2 72a2 cf2c 7132 cfb3 0000
00000090: 114e 0080 544b b231 d138 0000 4867 25af
000000a0: 1260 05a5 78d6 03ad ffc7 7736 991a 1533
000000b0: ea58 2833 ef74 0000 becd cc31 268e 0080
000000c0: 8577 0080 e05f f8ac 8200 0000 dcda 94af
000000d0: 7677 0080 c03c 2033 ae56 0080 588b 2733
000000e0: 8a36 3332 4d56 0080 c237 01b2 5bc6 3633
000000f0: a4da 1035 4c79 8ba9 75b3 8eb0 2803 0000
00000100: eb1b 2fb3 665d 97a3 4e39 12b3 cb6b 0000
00000110: 6b7e 0080 aa32 82b2 6104 0080 2000 d8ae
00000120: e67a a0a7 5a69 f638 f2e6 2836 8e25 14b3
00000130: d85d 76b2 1582 0080 5298 93b2 3087 0080
00000140: 7d36 0000 4016 ecb5 a43f 0000 78bc a931
00000150: f402 0000 e448 d7b2 c03a 0080 4b0f 86b2
00000160: fdc0 ebb2 ae4a 0080 7082 a834 0f0f ee32
00000170: 487e 7fb2 87b1 1eae 11e0 0eb9 fa84 0080
00000180: 17c6 2f3e 37cf 19ae 6dac 043e 7832 0080
00000190: 1412 0080 da4a e33d 5984 0000 17a5 8cb7
000001a0: f7c8 6e2f 96cf 0a33 b3f5 6f38 4909 3a3e
000001b0: 6a27 4e3e 0103 0000 e4c1 e63d 7f68 0000
000001c0: d839 0000 b980 2e32 e315 0000 fd4f 8733
000001d0: 2e88 0000 c299 443e 386c 0000 571a 4d3e
000001e0: c016 fa3d 144e 0000 0b3e 8a31 89f6 6c3e
000001f0: 03e8 3a39 70e9 c2b2 ab5e df31 c66f 0000
00000200: d5cc 2435 14a9 0e25 c0cc b134 ba00 0000
00000210: 684e 0080 a082 6234 2e96 0080 3cab e7b1
00000220: 149e 01a7 0483 0cb7 1089 3136 5038 3635
00000230: 9f3e 5635 ba07 0000 39ae 6d34 f671 0000
00000240: 4589 0000 2a76 a8b3 148c 0000 d06a e431
00000250: 1138 0080 1277 4735 c345 0000 b4a9 5435
00000260: 2a4a 9734 dfa3 0080 768f 6bb6 f885 7e35
00000270: 758f b536 0841 ef36 e457 4b33 6e37 0080
00000280: baa5 83b2 a4ea f524 f27d 8932 aa38 0080
00000290: a343 0000 0a6f ef32 bb16 0080 e63b 7833
000002a0: 44ae 31b4 c0b6 f3a6 2ada a238 b4d8 bdb2
000002b0: 049f 10b3 7513 0080 b15d e732 b36e 0080
000002c0: cb4c 0000 3014 ceb7 0a00 0000 5fca 892e
000002d0: f0c3 0000 6e9d f4b2 1018 0080 3e48 0eb3
000002e0: d77f b532 3637 0080 95e5 3c34 789f 48b3
000002f0: 60a3 0437 130c d130 a2a1 e638 620e 0000
00000300: 3130 6731 36e9 bfa4 b23e 4f31 8a06 0000
00000310: 5da0 0080 23e0 3831 8b26 0080 e033 0033
00000320: 98ee 5324 44b6 d2ae 2756 4bb4 80e7 db31
00000330: 271d 5432 9565 0000 6b72 5531 7d3f 0000
00000340: da40 0000 b653 ac2c 6aa0 0000 5226 0632
00000350: cebd 0000 846f 2732 a63f 0000 1bcb 4f32
00000360: bbad 8131 019c 0000 90e3 c4b7 43b3 7832
00000370: 32c0 74b3 700e bf2f d039 28aa 7f5e 0000
00000380: 6fbf a72e b29e f321 17fd 232e b261 0080
00000390: 0e4e 0080 894a ec2d 8f85 0080 69ec 242f
000003a0: 1f30 0622 c3bf 0db8 b84c 8cb1 52e3 bd2e
000003b0: 8288 ca2e f914 0000 231c f62d d29c 0080
000003c0: 77be 0000 74c1 d3b5 7904 0080 ce14 4b25
000003d0: 3c86 0080 2f76 ca2e 9332 0000 500f cb2e
000003e0: 384c 132e 5732 0000 2ad9 c630 ae97 8f2e
000003f0: 0edd 0ab3 5621 fcb8 6857 c0b2 60ab 0000

fc_layers.2.bias f4 [16]
-1.3122175e-05 4.7409422e-08 -3.192784e-08 0.02492339 8.833498e-07 -4.447255e-08 3.9693646e-08 1.2812706e-11
0.009670911 1.5362604e-08 0.021978823 2.982668e-08 5.9839467e-09 0.025390299 0.009143606 9.966003e-05
00000000: 5027 5cb7 369f 4b33 0821 09b3 232c cc3c
00000010: 561f 6d35 1602 3fb3 a07b 2a33 4c67 612d
00000020: be72 1e3c b9f6 8332 ef0c b43c c81a 0033
00000030: 5a9b cd31 51ff cf3c 10cf 153c 9200 d138
