neural-collaborative-filtering/src/checkpoints/pretrain_neumf_factor8neg4_Epoch85_HR1.0000_NDCG0.8407.model (torch, 579115 bytes, 15 tensors)

embedding_user_mlp.weight f4 [7700, 8]
-8.134865e-11 -4.803209e-12 7.3658186e-05 5.124317e-11 -8.348727e-09 2.2516815e-12 4.2774798e-11 -6.3948586e-12
0.00011916407 0.00012603507 1.10357144e-13 9.267817e-14 2.2998745e-11 5.3226922e-06 -3.2692534e-13 4.1934007e-13
-1.3277381e-06 -7.707299e-06 -4.7650994e-09 -1.3651406e-06 -3.4620803e-05 6.18013e-10 -4.7616257e-05 1.3999876e-06
1.0023317e-05 3.017726e-08 3.1021573e-05 -4.6049936e-05 4.7385878e-05 9.426443e-06 1.5131309e-05 -1.3615334e-05
5.5844657e-06 -1.3380594e-05 -1.0607086e-05 1.3976568e-06 -3.2608634e-06 2.68737e-06 -4.083402e-06 -8.5287775e-07
7.781036e-05 -2.9694165e-05 -4.5880552e-07 -1.9234694e-05 2.263208e-05 1.0188347e-05 -1.587456e-05 5.6101322e-05
-6.987458e-06 -1.9073253e-05 -1.48339395e-05 -1.3233461e-05 -2.0199586e-05 2.9195373e-05 -8.459226e-06 1.7222641e-05
-1.5249136e-05 2.2055603e-05 -4.329385e-05 1.4351193e-05 5.899981e-05 5.178528e-06 1.8484658e-06 3.8987073e-06
1.00867255e-05 -1.0189494e-05 -3.7507358e-05 -1.0604406e-05 -6.4188634e-06 9.2450136e-08 -2.4200162e-06 -4.3065675e-06
3.2200626e-07 8.9725927e-07 6.221165e-05 1.2058142e-06 -7.568602e-06 -9.876374e-06 -1.8431829e-05 1.0369353e-05
-4.4649987e-06 -3.2475255e-05 1.3256852e-05 -3.675667e-05 2.3845705e-06 -2.3603616e-07 -7.449349e-06 -4.755103e-06
9.632015e-06 4.665222e-06 -5.949588e-06 2.87499e-07 3.286077e-07 3.1185873e-06 -1.7021601e-06 5.9165623e-06
-1.910477e-05 -7.1971535e-06 -5.6041345e-06 2.8436752e-06 1.37949555e-05 2.9554121e-06 2.617342e-06 -2.3154707e-06
9.506798e-06 -3.0369949e-05 -7.3789433e-06 -6.2479216e-06 -3.8863086e-06 4.8552795e-07 4.225323e-06 1.23221325e-05
-2.7251795e-06 -6.5640997e-06 -8.671997e-05 -1.88511e-05 1.11042404e-07 1.3420865e-05 -1.9044074e-07 -2.6777528e-08
7.731554e-11 -2.4865175e-12 -1.7609781e-07 -1.2753553e-11 6.503883e-07 1.2270527e-12 -8.8779256e-05 1.4294699e-13
-2.880453e-07 9.636178e-07 -5.59445e-06 1.1179947e-05 -1.6064203e-05 -9.0152225e-06 9.569545e-06 -1.4063644e-06
2.5113788e-05 -4.5642635e-05 1.3162633e-06 -4.684663e-07 -9.113801e-06 -5.084639e-06 -1.4370285e-07 8.12383e-06
-1.3236529e-05 -5.740558e-08 -2.7093936e-06 -3.628771e-07 -2.0184098e-07 1.294533e-06 3.1643714e-05 5.7462334e-05
3.642946e-05 -1.8643309e-06 2.9052986e-05 -8.433986e-06 4.131053e-05 2.3613588e-06 -5.006176e-06 5.1931147e-07
-5.2471165e-08 -1.6317823e-05 6.477105e-06 -7.2300845e-06 2.1485565e-05 -7.287469e-06 5.2053333e-06 3.1184572e-07
5.582977e-06 -1.9818108e-05 -5.291268e-07 -7.91747e-06 -1.1676453e-06 -1.347028e-06 -3.540292e-05 1.4608294e-05
-3.186842e-07 3.9535393e-05 4.7166177e-10 1.4130765e-06 5.5917985e-07 -1.8344828e-05 -1.121589e-05 2.9326168e-07
5.6999925e-06 -1.2931756e-05 -2.1468631e-07 -3.069346e-05 -2.8727698e-06 7.2673814e-05 -3.018802e-05 1.2818176e-05
5.7213e-06 -1.2501969e-05 -1.0056274e-06 -1.497646e-05 -6.149183e-06 6.5809263e-06 -1.2763868e-06 -6.124539e-06
1.0128326e-06 -2.1395223e-05 1.2555438e-05 6.615893e-05 -2.4432811e-05 -7.2752105e-06 1.1489277e-05 4.035639e-06
1.8862853e-05 8.970667e-06 1.5636402e-07 4.4900116e-07 -1.4787636e-06 -4.5300403e-06 8.686203e-06 3.5982794e-06
-2.936049e-07 1.409064e-08 -1.60623e-06 2.7935534e-05 8.6100374e-07 -1.3710023e-06 -1.0084688e-06 -1.5721162e-06
-1.5550883e-10 -3.2333406e-07 1.3174503e-11 -1.3129784e-12 1.4104526e-06 -2.7545089e-13 2.8728695e-09 5.742489e-13
7.9164165e-05 1.6292932e-11 -1.5467965e-06 9.849197e-13 -1.2319478e-11 -1.979212e-12 1.0314966e-09 1.1866383e-07
-3.956112e-06 7.3570743e-07 -1.578504e-06 -4.816558e-06 -9.5036876e-07 9.306412e-06 -9.042658e-06 -3.8329188e-05
-1.3132845e-05 -1.8039718e-07 3.9291576e-06 2.9943183e-06 8.587991e-06 2.4331017e-05 -5.05801e-05 1.0601798e-05
00000000: 38e3 b2ae 76ff a8ac f078 9a38 ae5e 612e
00000010: 176e 0fb2 b072 1e2c 2420 3c2e c4ff e0ac
00000020: b9e7 f938 4828 0439 9080 f829 54b1 d029
00000030: 924c ca2d 9499 b236 e80a b8aa 4611 ec2a
00000040: bc34 b2b5 994e 01b7 42ba a3b1 e039 b7b5
00000050: ce35 11b8 cce0 2930 91b7 47b8 35e7 bb35
00000060: d229 2837 409c 0133 291d 0238 be25 41b8
00000070: 33c0 4638 4426 1e37 7adc 7d37 6a6d 64b7
00000080: 3262 bb36 377d 60b7 16f5 31b7 1f97 bb35
00000090: 35d5 5ab6 aa58 3436 2804 89b6 50f1 64b5
000000a0: 1e2e a338 bc17 f9b7 c051 f6b4 315a a1b7
000000b0: 06da bd37 9eee 2a37 5c2a 85b7 564e 6b38
000000c0: cf75 eab6 80ff 9fb7 49df 78b7 4805 5eb7
000000d0: 4872 a9b7 96e8 f437 19ec 0db7 5779 9037
000000e0: 8ad6 7fb7 0c04 b937 6b96 35b8 e8c5 7037
000000f0: 9076 7738 38c3 ad36 cd18 f835 a4d1 8236
00000100: 283a 2937 8bf3 2ab7 3851 1db8 94e9 31b7
00000110: 9e61 d7b6 0089 c633 9067 22b6 2281 90b6
00000120: 34e0 ac34 30db 7035 a077 8238 76d7 a135
00000130: ccf5 fdb6 b4b2 25b7 0d9e 9ab7 08f8 2d37
00000140: 0cd2 95b6 0a36 08b8 bf69 5e37 2d2b 1ab8
00000150: 9c06 2036 2071 7db4 6cf5 f9b6 068e 9fb6
00000160: 3099 2137 f489 9c36 92a2 c7b6 9059 9a34
00000170: 806b b034 ec48 5136 c775 e4b5 e286 c636
00000180: 2e43 a0b7 147f f1b6 260b bcb6 f8d5 3e36
00000190: e270 6737 9855 4636 98a5 2f36 7c63 1bb6
000001a0: 637f 1f37 f8c2 feb7 a498 f7b6 3da5 d1b6
000001b0: 2367 82b6 3a55 0235 40c7 8d36 28bb 4e37
000001c0: 3ae2 36b6 3041 dcb6 6edd b5b8 6e22 9eb7
000001d0: 3576 ee33 2d2a 6137 f47b 4cb4 6804 e6b2
000001e0: c804 aa2e 1ef9 2eac 6615 3db4 e65c 60ad
000001f0: 5896 2e35 3cb1 ac2b 002f bab8 aaf1 202a
00000200: a5a4 9ab4 a855 8135 f6b7 bbb6 8291 3b37
00000210: 9dc1 86b7 1640 17b7 e28c 2037 50c2 bcb5
00000220: 73ab d237 6870 3fb8 76aa b035 8581 fbb4
00000230: 7ae7 18b7 b79c aab6 bd4c 1ab4 964b 0837
00000240: 7612 5eb7 1a8e 76b3 07d3 35b6 73d1 c2b4
00000250: a0b9 58b4 d1bf ad35 2eb9 0438 b603 7138
00000260: d6cb 1838 ec39 fab5 d0b6 f337 b27f 0db7
00000270: d844 2d38 d677 1e36 b9fa a7b6 d066 0b35
00000280: a85c 61b3 42e2 88b7 e955 d936 f499 f2b6
00000290: e63b b437 e286 f4b6 79a9 ae36 c06b a734
000002a0: 6855 bb36 103f a6b7 5109 0eb5 46d5 04b7
000002b0: fdb7 9cb5 88cb b4b5 997d 14b8 2516 7537
000002c0: 9f17 abb4 ced2 2538 3fa6 0130 f0a8 bd35
000002d0: 8c1a 1635 38e3 99b7 e12b 3cb7 9471 9d34
000002e0: 9042 bf36 78f5 58b7 8684 66b4 dabc 00b8
000002f0: cfc9 40b6 7568 9838 483c fdb7 a60d 5737
00000300: 98f9 bf36 8cbf 51b7 18f9 86b5 6843 7bb7
00000310: 1455 ceb6 bad1 dc36 5150 abb5 6481 cdb6
00000320: aaf0 8735 e479 b3b7 32a5 5237 cebe 8a38
00000330: 10f5 ccb7 951d f4b6 12c2 4037 e069 8736
00000340: ab3b 9e37 b980 1637 04e5 2734 400e f134
00000350: ee79 c6b5 c000 98b6 f5ba 1137 f879 7136
00000360: c0a0 9db4 4a13 7232 a495 d7b5 1a57 ea37
00000370: ba1f 6735 4803 b8b5 b95a 87b5 8001 d3b5
00000380: d8fb 2aaf b296 adb4 b0c4 672d 08c9 b8ab
00000390: c84e bd35 a810 9baa 0e6c 4531 fea2 212b
000003a0: f004 a638 6c50 8f2d 869b cfb5 799d 8a2b
000003b0: ffb9 58ad 5046 0bac 8fc4 8d30 21d4 fe33
000003c0: bebe 84b6 6e7d 4535 fcdc d3b5 eb9d a1b6
000003d0: d81c 7fb5 bc22 1c37 ecb5 17b7 a7c3 20b8
000003e0: 2455 5cb7 33b3 41b4 35d7 8336 fff1 4836
000003f0: 2415 1037 761a cc37 f825 54b8 60de 3137

embedding_item_mlp.weight f4 [8, 1024]
-1.0705364e-06 -3.079818e-05 -2.4575838e-05 -9.621175e-06 1.2953508e-05 1.4763054e-07 3.7582893e-05 2.3129114e-06
9.94002e-07 1.0990205e-05 1.6368462e-05 1.3045865e-05 1.9703457e-05 -3.2931348e-07 -2.5574165e-05 -2.8265604e-05
2.3155948e-05 -4.329012e-06 -1.31739e-05 -4.3941884e-05 -3.841463e-05 -1.41910805e-05 2.0783136e-05 3.902374e-05
-4.6023197e-05 -6.8300164e-06 3.617448e-05 3.3842807e-05 2.2671251e-05 4.0339204e-05 -7.951831e-06 7.6584465e-06
-1.14725935e-05 -5.484935e-07 -3.321888e-05 -2.8331663e-06 3.31936e-05 1.4085092e-05 2.801954e-05 -5.3527356e-07
-2.5691672e-05 2.4184594e-05 4.8153634e-05 4.3212503e-06 5.9534996e-06 4.3309803e-05 -2.189761e-05 1.23942355e-05
4.1619995e-05 -3.9182356e-05 9.358706e-06 -2.9148414e-05 -1.2756998e-05 3.467275e-05 3.450568e-05 -3.0011677e-05
-5.6232975e-06 1.510089e-05 -9.363983e-06 -4.3716325e-05 7.368976e-08 9.138591e-06 1.9000036e-05 -1.3409433e-05
-3.0950992e-05 -1.980452e-05 1.1648954e-05 4.795721e-06 5.231614e-06 -1.5699547e-05 2.3672317e-05 1.1005879e-05
2.7620245e-05 -5.908478e-07 -1.719993e-05 1.0241529e-06 2.906734e-05 -1.9631707e-05 1.5650392e-05 3.6997096e-06
1.7202909e-05 7.2911007e-07 1.7638955e-05 -1.8744535e-05 -2.2490216e-05 1.2117524e-05 1.9299145e-05 -1.8639423e-05
3.539656e-06 1.8487297e-05 -1.7775115e-05 1.3054751e-05 3.4677152e-05 -2.769939e-05 1.3545097e-05 -2.923678e-06
-3.0756166e-06 1.9560543e-05 1.1121765e-05 2.395011e-05 -4.989806e-07 -4.2174295e-05 -1.200651e-05 -4.47804e-05
-1.8518625e-05 -5.3831056e-05 2.873494e-07 -1.02714e-05 -3.0647003e-05 2.0432755e-05 3.3905733e-05 2.8757306e-05
1.5240741e-05 -4.742772e-05 -4.953148e-06 1.4238219e-05 -3.068574e-05 1.621866e-05 -2.3935681e-05 -1.3858344e-06
-3.323349e-05 2.096628e-05 -1.3748813e-06 3.2524815e-05 1.7043938e-05 -1.397757e-07 4.186002e-06 -2.3539558e-05
-1.037998e-05 1.1348061e-05 2.2002374e-05 3.505202e-05 -9.287129e-06 4.0678297e-05 -1.1431985e-06 5.447808e-06
3.6546495e-05 -9.837045e-06 -1.1929486e-05 -5.927088e-06 2.1796954e-05 2.685372e-05 3.1374348e-05 -6.669338e-06
1.1927376e-05 -3.855485e-05 1.5014715e-05 3.0557578e-05 3.117379e-06 1.2805695e-05 -3.0928786e-05 -1.8588642e-05
-4.329696e-06 -1.5187768e-05 -2.8753175e-05 3.2752334e-05 -2.9923101e-05 -1.5077467e-05 2.4625431e-05 -5.8834998e-05
1.1881033e-05 3.5129386e-05 -3.121081e-05 6.166217e-05 2.8803239e-05 -3.394294e-05 6.3471703e-06 2.0810947e-05
-3.264125e-06 -2.5815269e-05 -2.0164875e-05 3.8437724e-05 7.754997e-06 1.16881065e-05 1.2724195e-05 -9.0815465e-06
3.8369344e-05 -1.4588692e-05 -1.4212078e-06 2.0646865e-05 2.197278e-06 1.2802775e-05 1.5704418e-05 1.9201083e-05
2.0467998e-05 -1.973205e-05 -2.6907393e-05 1.8079476e-05 -1.5877757e-05 3.339228e-05 4.9933886e-05 4.560989e-05
-1.6752958e-05 2.94513e-05 2.3074517e-05 2.0323364e-06 6.227142e-07 -1.0820683e-05 5.7650743e-07 -2.2778018e-05
-3.723827e-06 2.2857002e-05 2.8854782e-05 5.649739e-05 7.2790917e-06 3.7681217e-05 7.279575e-06 -7.6101983e-06
-3.2416294e-05 2.041887e-05 2.7075239e-05 2.085305e-05 -4.8419704e-05 -7.703804e-06 1.24180915e-05 -3.7364167e-05
-1.0451591e-05 3.1447733e-05 -1.6454083e-05 -2.2628989e-05 -3.587068e-05 -1.6268211e-07 -1.047792e-05 7.525857e-06
2.9526072e-06 -9.239489e-06 5.0347935e-06 1.5988457e-05 3.2811713e-06 1.0291866e-05 -4.2242966e-05 1.653175e-05
1.5335065e-05 -1.6639413e-05 6.4604596e-05 -7.0467936e-06 2.7545804e-05 5.4502343e-06 -3.0034993e-05 -4.398111e-06
-3.3470304e-05 1.6292644e-05 8.339128e-06 -3.4130622e-05 7.2780267e-06 -9.699419e-06 -4.95305e-06 7.0613737e-06
-4.718515e-06 -1.6140193e-05 -4.5230656e-05 1.576562e-05 4.1485473e-06 -2.74124e-05 -2.3937413e-05 -5.4504773e-05
00000000: 5aaf 8fb5 4b2d 01b8 3628 ceb7 a26a 21b7
00000010: e552 5937 6084 1e34 53a2 1d38 8437 1b36
00000020: a669 8535 9262 3837 014f 8937 90df 5a37
00000030: da48 a537 80cc b0b4 1a88 d6b7 ec1b edb7
00000040: 053f c237 ee41 91b6 7805 5db7 3d4e 38b8
00000050: 651f 21b8 3a16 6eb7 7257 ae37 6cad 2338
00000060: 0809 41b8 652d e5b6 0dba 1738 70f2 0d38
00000070: 242e be37 e431 2938 db68 05b7 c77c 0037
00000080: 6a7a 40b7 303c 13b5 8054 0bb8 6d21 3eb6
00000090: 5b39 0b38 024f 6c37 810b eb37 b8af 0fb5
000000a0: 7284 d7b7 05e0 ca37 92f8 4938 42ff 9036
000000b0: 2cc4 c736 8ca7 3538 c2b0 b7b7 d6f0 4f37
000000c0: 2191 2e38 bc57 24b8 5603 1d37 be83 f4b7
000000d0: e406 56b7 956d 1138 31ba 1038 96c1 fbb7
000000e0: c2af bcb6 d459 7d37 001a 1db7 0c5c 37b8
000000f0: 603f 9e33 f351 1937 4462 9f37 14f9 60b7
00000100: 60d1 01b8 e221 a6b7 e06f 4337 eeea a036
00000110: 398b af36 85b2 83b7 ea93 c637 e4a5 3837
00000120: 06b2 e737 c09a 1eb5 9248 90b7 a075 8935
00000130: a3d5 f337 c5ae a4b7 f648 8337 8748 7836
00000140: f74e 9037 10b8 4335 5ef7 9337 953d 9db7
00000150: 5fa9 bcb7 5f4c 4b37 99e4 a137 db5b 9cb7
00000160: d48a 6d36 2b15 9b37 c51b 95b7 bb05 5b37
00000170: 4f72 1138 fd5b e8b7 c03f 6337 6834 44b6
00000180: b166 4eb6 f215 a437 9e97 3a37 78e8 c837
00000190: b0f1 05b5 4ee4 30b8 916f 49b7 97d2 3bb8
000001a0: 7258 9bb7 a8c8 61b8 0045 9a34 5453 2cb7
000001b0: f88a 00b8 0267 ab37 0136 0e38 d83b f137
000001c0: 7cb2 7f37 20ed 46b8 3833 a6b6 afe0 6e37
000001d0: 90b4 00b8 4f0d 8837 7cc9 c8b7 e800 bab5
000001e0: 3064 0bb8 bee0 af37 9088 b8b5 416b 0838
000001f0: 94f9 8e37 4015 16b4 7c75 8c36 d176 c5b7
00000200: ad25 2eb7 8d63 3e37 bd91 b837 d204 1338
00000210: eacf 1bb7 fd9d 2a38 0070 99b5 50cc b636
00000220: 8049 1938 c909 25b7 c124 48b7 4ce1 c6b6
00000230: 9ad8 b637 ed43 e137 f397 0338 2dc9 dfb6
00000240: b11b 4837 f4b5 21b8 b6e7 7b37 f32a 0038
00000250: 2a34 5136 0bd8 5637 88b9 01b8 ceee 9bb7
00000260: ce47 91b6 f8ce 7eb7 f932 f1b7 8d5f 0938
00000270: 5f03 fbb7 3af5 7cb7 b692 ce37 99c5 76b8
00000280: a654 4737 e457 1338 5ae8 02b8 a050 8138
00000290: 7c9e f137 f45d 0eb8 c7f9 d436 2b93 ae37
000002a0: 3e0d 5bb6 de8d d8b7 bd27 a9b7 3138 2138
000002b0: 751b 0237 0918 4437 007a 5537 f25c 18b7
000002c0: c5ee 2038 f4c1 74b7 54c0 beb5 ce32 ad37
000002d0: f374 1336 80cb 5637 fbbc 8337 0312 a137
000002e0: b1b2 ab37 4186 a5b7 30b7 e1b7 61a9 9737
000002f0: 3931 85b7 b00e 0c38 1a70 5138 3f4d 3f38
00000300: b488 8cb7 2f0e f737 2690 c137 4663 0836
00000310: 9828 2735 7b8a 35b7 4ac1 1a35 6c13 bfb7
00000320: dce6 79b6 0abd bf37 2c0d f237 9cf7 6c38
00000330: ec3e f436 e60b 1e38 1343 f436 1b5b ffb6
00000340: bbf6 07b8 3049 ab37 a21f e337 95ed ae37
00000350: 4316 4bb8 963f 01b7 4c57 5037 78b7 1cb8
00000360: 3e59 2fb7 bfe6 0338 e006 8ab7 62d3 bdb7
00000370: d973 16b8 b8ad 2eb4 53ca 2fb7 9f86 fc36
00000380: 6825 4636 4e03 1bb7 8cf0 a836 f31e 8637
00000390: 1832 5c36 3aab 2c37 0a2e 31b8 aaad 8a37
000003a0: cda3 8037 de94 8bb7 547c 8738 7f73 ecb6
000003b0: 2a12 e737 28e1 b636 a8f3 fbb7 7c93 93b6
000003c0: 7762 0cb8 30ac 8837 48e8 0b37 7a27 0fb8
000003d0: c635 f436 b0ba 22b7 6032 a6b6 bdf0 ec36
000003e0: bc53 9eb6 cd64 87b7 0cb6 3db8 6940 8437
000003f0: c033 8b36 aef3 e5b7 34cd c8b7 0e9c 64b8

embedding_item_mlp.bias f4 [8]
3.180647e-05 7.6073906e-07 -8.6761665e-06 -0.10428049 0.0006001052 1.3213762e-06 -0.00043401157 -2.9070142e-09
00000000: f067 0538 9735 4c35 da8f 11b7 0291 d5bd
00000010: 6150 1d3a 245a b135 0c8c e3b9 bcc4 47b1

embedding_user_mf.weight f4 [7700, 8]
5.441e-41 3.4578e-41 -2.2799e-41 2.8651e-41 2.0233e-41 -3.234e-42 -4.002e-41 -4.9829e-41
-7.172e-42 -1.362e-42 6.279e-41 3.236e-42 -1.61e-43 -4.1617e-41 -1.1233e-41 -3.5283e-41
3.826e-42 -2.2613e-41 7.847594e-13 1.8007e-41 -1.057e-41 1.8001e-41 8.3e-42 -2.6277e-41
1.798e-42 6.2995e-41 2.356e-42 -4.9825e-41 -2.2407e-41 -9.63e-42 4.0899778e-10 -1.2117e-41
2.1588e-41 -1.6258e-41 -1.6818e-41 1.122e-42 -6.8858e-41 4.0254e-41 -5.0754316e-08 -2.503e-42
8.355e-42 4.1606e-41 -7.875e-42 1.4317e-41 1.0284e-41 5.199068e-07 -1.9517974e-09 3.3613e-41
-3.593e-42 7.702e-42 -4.5153e-41 -4.2075e-41 -3.6748e-41 -7.801e-42 -7.2909e-08 3.8876e-41
-5.6181e-41 -1.1481e-41 -2.643e-42 -3.725e-42 2.7757e-41 -1.7093e-41 -1.9771428e-06 8.53e-42
-7.577e-42 4.1072e-41 6.181e-42 -6.4252e-41 -7.512e-42 9.425e-42 -4.1849488e-10 3.0845e-41
9.754e-42 6.4e-43 1.4482e-41 1.3164e-41 1.7237e-41 -6.056e-42 -4.216405e-12 2.2928e-41
6.0462e-41 -4.1008e-41 2.2974e-41 2.6211e-41 5.091e-42 -1.0151e-41 7.283744e-05 -1.7532e-41
5.892e-42 2.7465e-41 -4.9244e-41 4.5135106e-14 -2.1792e-41 -3.6613e-41 2.2953717e-10 1.54e-43
-5.972e-42 -2.651e-42 4.5116e-41 1.484e-42 5.05e-42 6.6178e-41 -2.7108555e-07 -1.2277e-41
-2.842e-42 -4.4934e-41 -2.3106e-41 4.516e-42 -3.887e-42 9.761e-42 1.0582976e-09 -4.4864e-41
-1.3862e-41 9.32e-42 7.67e-43 -1.319e-42 8.981e-42 -1.3164e-41 -9.777899e-09 1.0637e-41
-4.5843e-41 -4.2413e-41 2.4331e-41 -1.3986e-41 4.4721e-41 -3.5024e-41 -3.5695e-41 -2.8564e-41
6.938e-42 -2.9866e-41 -2.7252e-41 1.2051e-41 2.941e-42 -3.921e-42 4.2056807e-09 -2.699e-42
-7.968e-42 -8.02e-42 -2.1277e-41 5.499e-42 -8.682e-42 8.514299e-09 -1.3992129e-08 3.9568e-41
6.253e-42 -2.1906e-41 -3.1507e-41 -2.344e-42 1.1615e-41 5.375e-41 8.6210986e-07 -2.9996e-41
7.52e-43 4.2325e-41 5.171e-41 1.071e-41 -4.1958815e-12 -1.742e-42 1.8959095e-06 7.661e-42
-5.88e-41 4.1747e-41 -2.0952e-41 -4.9935e-41 1.5465e-41 9.91e-43 1.7326081e-09 -6.3056e-41
9.979e-42 -2.327e-41 4.8968e-41 -2.7847e-41 3.1936e-41 3.4895e-41 -6.390139e-06 -1.3773e-41
-4.173e-42 -5.1257e-41 2.9043e-41 5.1617e-41 -5.6146e-41 -3.1588e-41 3.3759268e-10 -4.4159e-41
5.3593e-41 -1.155e-42 -6.411e-42 -7.0614e-41 -3.6984e-41 -7.759e-42 1.3541668e-10 4.0171e-41
2.4828e-41 1.0472e-41 9.173e-42 -9.164e-42 4.3387e-41 4.7742e-41 1.01067626e-10 -4.6627e-41
4.578e-42 1.0504e-41 -6.935e-41 2.7798e-41 -6.163e-42 1.9149e-41 -1.8240917e-05 1.459e-41
1.641e-42 -1.0709e-41 -4.603e-42 -2.273e-41 5.8018e-41 -8.907e-42 -2.235065e-06 -1.72e-41
8.01e-42 -1.6348e-41 -1.0779e-41 -2.1699e-41 -4.617e-41 -5.6419e-41 -3.041637e-06 -1.0747e-41
2.8899e-41 -1.551e-42 5.0137e-41 -6.7711e-41 1.6748e-41 3.3747e-41 1.8016e-41 -3.9657e-41
-1.4582e-41 -1.2536e-41 -1.8633e-41 -1.97e-42 1.3282e-41 -2.345e-41 7.58e-43 2.3025e-41
-2.4591e-41 1.0627e-41 6.1168e-41 -3.9082e-41 -4.3898e-41 -4.777e-42 -1.2935526e-09 1.026e-41
-3.9344e-41 -2.3166e-41 6.2554e-41 -4.0796e-41 3.452e-41 -8.729e-42 -1.2789044e-07 6.911e-41
00000000: ac97 0000 6460 0000 8e3f 0080 de4f 0000
00000010: 6738 0000 0409 0080 8f6f 0080 e78a 0080
00000020: fe13 0080 cc03 0080 08af 0000 0509 0000
00000030: 7300 0080 0374 0080 501f 0080 5b62 0080
00000040: aa0a 0000 093f 0080 e0e3 5c2b 3232 0000
00000050: 771d 0080 2e32 0000 2317 0000 4049 0080
00000060: 0305 0000 9baf 0000 9106 0000 e48a 0080
00000070: 763e 0080 d81a 0080 52d9 e02f c721 0080
00000080: 2e3c 0000 522d 0080 e22e 0080 2103 0000
00000090: f3bf 0080 3670 0000 f6fc 59b3 fa06 0080
000000a0: 4a17 0000 fb73 0000 f415 0080 e927 0000
000000b0: ab1c 0000 b98f 0b35 6220 06b1 b35d 0000
000000c0: 040a 0080 7815 0000 de7d 0080 4a75 0080
000000d0: 7066 0080 bf15 0080 2692 9cb3 5f6c 0000
000000e0: 9c9c 0080 0120 0080 5e07 0080 620a 0080
000000f0: 604d 0000 a62f 0080 0eaf 04b6 c717 0000
00000100: 1f15 0080 7e72 0000 3b11 0000 1cb3 0080
00000110: f114 0080 461a 0000 eb11 e6af fc55 0000
00000120: 311b 0000 c901 0000 5f28 0000 b224 0000
00000130: 0d30 0000 e210 0080 005a 94ac ea3f 0000
00000140: 8ba8 0000 5072 0080 0b40 0000 1149 0000
00000150: 310e 0000 4c1c 0080 4ec0 9838 df30 0080
00000160: 6d10 0000 904c 0000 4689 0080 3c45 4b29
00000170: bf3c 0080 1066 0080 f860 7c2f 6e00 0000
00000180: a610 0080 6407 0080 c47d 0000 2304 0000
00000190: 140e 0000 7ab8 0000 b789 91b4 3922 0080
000001a0: ec07 0080 427d 0080 6940 0080 970c 0000
000001b0: d60a 0080 361b 0000 8973 9130 107d 0080
000001c0: a426 0080 fb19 0000 2302 0000 ad03 0080
000001d0: 0919 0000 b224 0080 a8fb 27b2 a71d 0000
000001e0: cb7f 0080 3b76 0080 d343 0000 fd26 0080
000001f0: aa7c 0000 a261 0080 8163 0080 a04f 0080
00000200: 5713 0000 4153 0080 f84b 0080 9821 0000
00000210: 3308 0000 ee0a 0080 8f81 9031 8607 0080
00000220: 3616 0080 5b16 0080 503b 0080 540f 0000
00000230: 3418 0080 4846 1232 0962 70b2 4d6e 0000
00000240: 6e11 0000 113d 0080 d457 0080 8906 0080
00000250: 6120 0000 d595 0000 bd6b 6735 9e53 0080
00000260: 1902 0000 fc75 0000 2590 0000 db1d 0000
00000270: 24a1 93ac db04 0080 f476 fe35 5b15 0000
00000280: e9a3 0080 6074 0000 683a 0080 338b 0080
00000290: 1c2b 0000 c302 0000 ba20 ee30 c6af 0080
000002a0: d11b 0000 de40 0080 8188 0000 a04d 0080
000002b0: 0659 0000 4661 0000 e06a d6b6 6526 0080
000002c0: a20b 0080 e28e 0080 f650 0000 e38f 0000
000002d0: 839c 0080 0e58 0080 f297 b92f 197b 0080
000002e0: 6595 0000 3803 0080 df11 0080 d8c4 0080
000002f0: 1967 0080 a115 0080 68e4 142f fb6f 0000
00000300: 3645 0000 311d 0000 9219 0000 8c19 0080
00000310: f278 0000 1685 0000 0440 de2e fa81 0080
00000320: c30c 0000 481d 0000 52c1 0080 7d4d 0000
00000330: 2e11 0080 6135 0000 1204 99b7 ac28 0000
00000340: 9304 0000 da1d 0080 d50c 0080 5d3f 0080
00000350: bba1 0000 d418 0080 20fe 15b6 f22f 0080
00000360: 5416 0000 922d 0080 0c1e 0080 7d3c 0080
00000370: b480 0080 469d 0080 ed1e 4cb6 f51d 0080
00000380: 8f50 0000 5304 0080 c38b 0000 c0bc 0080
00000390: b02e 0000 135e 0000 3932 0000 8c6e 0080
000003a0: a628 0080 f222 0080 f133 0080 7e05 0080
000003b0: 0625 0000 5e41 0080 1d02 0000 2f40 0000
000003c0: 8d44 0080 a01d 0000 83aa 0000 f26c 0080
000003d0: 5f7a 0080 510d 0080 d6c8 b1b0 9a1c 0000
000003e0: ad6d 0080 9440 0080 60ae 0000 b971 0080
000003f0: 3a60 0000 5518 0080 4252 09b4 a7c0 0000

embedding_item_mf.weight f4 [8, 1024]
2.4069e-41 -6.2028e-41 -1.1003e-41 -4.7999e-41 4.98e-42 9.548e-42 -4.7421e-41 6.134e-41
2.6842e-41 -2.5641e-41 -4.5364e-41 1.0493e-41 -2.9416e-41 -5.737e-42 6.5208e-41 -3.1428e-41
-5.6327e-41 -9.721e-42 6.7105e-41 2.0708e-41 3.3386e-41 -1.166e-42 1.8007e-41 -2.116e-42
2.5449e-41 -7.399e-42 4.9197e-41 -2.0348e-41 1.555e-42 4.9698e-41 -5.787e-42 -3.6116e-41
2.3779e-41 -6.3748e-41 -2.155e-41 1.9496e-41 3e-45 -2.8309e-41 -6.844e-41 1.406e-42
3.8442e-41 3.5135e-41 1.2847e-41 6.3194e-41 -1.0193e-41 -3.3876e-41 1.752e-41 -1.3869e-41
3.2475e-41 6.6635e-41 -4.1843e-41 -3.25e-42 2.072e-41 -6.055e-42 2.5509e-41 -2.0661e-41
5.6754e-41 -2.0167e-41 -6.8072e-41 -3.6574e-41 2.6078e-41 -2.986e-42 -2.7415e-41 3.9832e-41
-2.8557e-41 -2.4542e-41 -5.07e-42 -4.1543e-41 -1.3801e-41 -7.503e-42 -7.59e-42 3.5565e-41
-2.6215e-41 -1.1196e-41 -4.5886e-41 -8.335e-42 -3.3257e-41 6.1545e-41 -5.7043e-41 -2.725e-41
-2.315e-42 -4.899e-42 2.2152e-41 1.9227e-41 6.8644e-41 -1.534e-42 2.8037e-41 -1.2621e-41
1.5738e-41 6.325e-42 -4.5133e-41 9.406e-42 -6.494e-42 -4.19e-43 -5.681e-42 4.898e-41
3.8918e-41 1.4075e-41 -1.7099e-41 -2.8833e-41 -5.7127e-41 -1.006e-42 -2.4796e-41 3.6773e-41
-4.7852e-41 1.5696e-41 -3.0673e-41 1.0828e-41 -1.3677e-41 -1.8244e-41 -4.204e-42 3.126e-42
-1.467e-42 5.625e-42 1.4541e-41 -1.5012e-41 1.5645e-41 -8.792e-42 -8.98e-42 2.7367e-41
1.8653e-41 -5.8651e-41 -5.4733e-41 1.5532e-41 -5.9129e-41 -4.308e-41 2.9122e-41 1.345e-42
4.7793e-41 2.8421e-41 5.681e-42 -1.4673e-41 5.545e-41 1.3856e-41 -3.5436e-41 -3.2796e-41
4.3025e-41 -2.8937e-41 -4.8474e-41 4.1724e-41 -4.586e-41 2.6604e-41 7.634e-42 -3.1791e-41
3.7447e-41 5.307e-42 -3.4591e-41 3.3626e-41 -4.1244e-41 -9.834e-42 -2.1785e-41 -6.504e-41
-1.7722e-41 -3.837e-41 -1.9048e-41 2.5393e-41 -3.5992e-41 6.6102e-41 -1.6803e-41 -3.7667e-41
4.784e-42 -1.9372e-41 -2.8235e-41 1.3664e-41 1.1328e-41 5.5616e-41 -2.7205e-41 -1.046e-41
2.6619e-41 -3.1082e-41 1.5787e-41 -3.0452e-41 2.0364e-41 1.292e-42 -8.694e-42 -6.1013e-41
-2.875e-42 1.9673e-41 -2.4533e-41 6.061e-41 2.1534e-41 3.0893e-41 1.4572e-41 6.689e-41
8.311e-42 1.3672e-41 -1.9894e-41 3.6647e-41 -2.6508e-41 -5.1379e-41 2.5979e-41 -1.7358e-41
4.8217e-41 3.1983e-41 -3.486e-42 7.64e-43 -3.1617e-41 2.1322e-41 6.8036e-41 1.05e-42
-1.7941e-41 4.1868e-41 -1.331e-42 -1.3588e-41 3.2675e-41 -6.7271e-41 -1.89e-43 2.6946e-41
-4.9316e-41 -4.595e-42 1.8392e-41 4.4079e-41 -3.3677e-41 -3.1301e-41 5.3709e-41 4.376e-42
-8.287e-42 -3.94e-42 6.4904e-41 6.6059e-41 -2.5532e-41 -6.9254e-41 3.7189e-41 6.054e-42
-4.0977e-41 9.698e-42 -3.3019e-41 4.3751e-41 4.5333e-41 -4.2061e-41 -6.7885e-41 6.2738e-41
1.6077e-41 3.1651e-41 1.4574e-41 -4.4257e-41 1.74e-41 -2.489e-41 1.4391e-41 -3.1392e-41
4.1804e-41 -5.7721e-41 3.0466e-41 -2.3846e-41 -4.3688e-41 -1.461e-41 -1.297e-41 -5.635e-42
2.2293e-41 6.4516e-41 1.361e-41 1.1157e-41 -9.36e-43 3.0355e-41 -4.2075e-41 -6.154e-41
00000000: 1843 0000 e9ac 0080 ac1e 0080 cd85 0080
00000010: e20d 0000 9e1a 0000 3184 0080 feaa 0000
00000020: d34a 0000 7a47 0080 757e 0080 401d 0000
00000030: 0052 0080 fe0f 0080 c6b5 0000 9c57 0080
00000040: 049d 0080 191b 0080 10bb 0000 ba39 0000
00000050: 115d 0000 4003 0080 3232 0000 e605 0080
00000060: f146 0000 a014 0080 2489 0000 b938 0080
00000070: 5604 0000 8a8a 0000 2210 0080 ad64 0080
00000080: 4942 0000 b4b1 0080 133c 0080 5936 0000
00000090: 0200 0000 ea4e 0080 c8be 0080 eb03 0000
000000a0: 296b 0000 f161 0000 d023 0000 29b0 0000
000000b0: 6a1c 0080 6f5e 0080 d730 0000 a926 0080
000000c0: 875a 0000 c0b9 0000 a474 0080 0f09 0080
000000d0: c239 0000 e110 0080 1c47 0000 9839 0080
000000e0: 359e 0000 3838 0080 c2bd 0080 f465 0080
000000f0: b248 0000 5308 0080 6c4c 0080 096f 0000
00000100: 9b4f 0080 6a44 0080 220e 0080 ce73 0080
00000110: 7926 0080 ea14 0080 2815 0080 2463 0000
00000120: 1449 0080 361f 0080 e97f 0080 3c17 0080
00000130: b55c 0080 90ab 0000 039f 0080 f64b 0080
00000140: 7406 0080 a80d 0080 c03d 0000 9935 0000
00000150: 5abf 0000 4704 0080 284e 0000 2f23 0080
00000160: df2b 0000 a211 0000 d07d 0080 381a 0000
00000170: 1a12 0080 2b01 0080 d60f 0080 8988 0000
00000180: 7d6c 0000 3c27 0000 aa2f 0080 6050 0080
00000190: 3f9f 0080 ce02 0080 1f45 0080 8266 0000
000001a0: 6485 0080 c12b 0000 8155 0080 2f1e 0000
000001b0: 2026 0080 db32 0080 b80b 0080 b708 0000
000001c0: 1704 0080 ae0f 0000 8928 0000 d929 0080
000001d0: 9d2b 0000 8218 0080 0819 0080 4a4c 0000
000001e0: ff33 0000 7fa3 0080 9398 0080 4c2b 0000
000001f0: d4a4 0080 1778 0080 2e51 0000 c003 0000
00000200: 3a85 0000 3a4f 0000 d60f 0000 e728 0080
00000210: 929a 0000 a026 0000 c862 0080 6c5b 0080
00000220: f077 0000 aa50 0080 2087 0080 4f74 0000
00000230: d77f 0080 294a 0000 4815 0000 9f58 0080
00000240: 6368 0000 cb0e 0000 6d60 0080 bc5d 0000
00000250: f972 0080 6a1b 0080 ba3c 0080 4eb5 0080
00000260: 6731 0080 f66a 0080 1935 0080 c946 0000
00000270: 5564 0080 44b8 0000 d72e 0080 0069 0080
00000280: 560d 0000 0036 0080 b54e 0080 1726 0000
00000290: 941f 0000 099b 0000 d64b 0080 291d 0080
000002a0: 344a 0000 a556 0080 022c 0000 e354 0080
000002b0: c438 0000 9a03 0000 3c18 0080 14aa 0080
000002c0: 0408 0080 d736 0000 6344 0080 f5a8 0000
000002d0: 073c 0000 1e56 0000 9f28 0000 76ba 0000
000002e0: 2b17 0000 1d26 0000 7537 0080 2866 0000
000002f0: e549 0080 398f 0080 6b48 0000 6330 0080
00000300: 6986 0000 2859 0000 b809 0080 2102 0000
00000310: 2358 0080 703b 0000 a8bd 0000 ed02 0000
00000320: 0332 0080 b674 0000 b603 0080 e125 0080
00000330: 165b 0000 86bb 0080 8700 0080 1d4b 0000
00000340: 7989 0080 cf0c 0080 4533 0000 e07a 0000
00000350: e15d 0080 4157 0080 b895 0000 330c 0000
00000360: 1a17 0080 fc0a 0080 edb4 0000 25b8 0000
00000370: 2c47 0080 0dc1 0080 ab67 0000 e010 0000
00000380: 3a72 0080 091b 0000 0b5c 0080 f679 0000
00000390: 5f7e 0000 4075 0080 3cbd 0080 e3ae 0000
000003a0: d12c 0000 3b58 0000 a028 0000 5f7b 0080
000003b0: 8130 0000 6245 0080 1e28 0000 8257 0080
000003c0: 8874 0000 e7a0 0080 ed54 0000 7942 0080
000003d0: c979 0080 ba28 0080 2824 0080 b50f 0080
000003e0: 253e 0000 d8b3 0000 f025 0000 1a1f 0000
000003f0: 9c02 0080 9e54 0000 4a75 0080 8cab 0080

embedding_item_mf.bias f4 [8]
4.106e-41 -4.6373e-41 4.1725e-41 5.7194e-41 -6.2923e-41 -8.343e-42 -7.5821445e-05 -3.3324e-41
00000000: 7572 0000 4581 0080 5074 0000 6f9f 0000
00000010: 67af 0080 4217 0080 5402 9fb8 e55c 0080

fc_layers.0.weight f4 [64, 16]
-0.000118491036 4.611662e-09 -1.1773495e-08 -2.652689e-07 1.5098101e-07 -4.215326e-09 -3.054425e-06 -3.5318315e-09
5.980721e-09 6.993087e-11 -1.4724453e-08 -3.0217839e-06 5.9416425e-07 7.657885e-10 -4.779098e-07 -1.2987923e-12
-2.5345184e-11 -7.030014e-06 -5.6684484e-09 -1.4647471e-10 2.8081145e-11 -0.0001000513 5.8469504e-06 -7.1166023e-06
1.4179763e-11 9.6999015e-14 -8.4517755e-13 1.0697974e-09 3.7976228e-10 5.9590333e-09 1.1868777e-11 -3.597032e-15
8.638993e-05 -7.5970036e-08 -1.1127494e-08 2.1862538e-06 4.2897412e-08 -5.820784e-06 -0.00013023354 -1.2883102e-07
4.3169806e-09 1.4482132e-10 1.8662936e-09 2.4612027e-06 -1.60088e-07 -3.5139663e-10 -3.0852027e-07 -7.7483936e-11
-6.224121e-05 1.9692652e-05 -5.020714e-05 -5.1978423e-06 3.248305e-05 -3.3171826e-05 3.5487552e-05 -2.9198096e-05
5.2207655e-05 1.3025059e-06 -1.40528755e-05 -0.16826537 0.0006143686 2.0691616e-06 -0.00087037764 -5.196858e-09
-4.0380954e-05 -4.1178255e-06 -1.51026825e-05 3.290701e-06 1.6204147e-05 -6.536457e-06 3.0047855e-05 -1.3931005e-05
4.0593928e-05 9.1692135e-07 -9.560573e-06 -0.077293746 -0.00021254088 1.6821858e-06 -0.0007601737 -5.5310374e-09
-7.428952e-08 2.7338638e-06 -0.00011696986 6.9759517e-07 1.5060084e-10 -1.3243136e-06 -2.7428301e-05 -2.113083e-11
-5.219243e-13 4.784005e-15 8.5729145e-13 4.316352e-10 7.117258e-12 1.1755547e-14 -9.177308e-12 -3.9959144e-15
1.4023437e-05 -2.8685343e-05 -7.456877e-05 -1.3417459e-06 -1.31871975e-05 -7.710625e-05 -2.3002522e-06 -7.4486175e-06
1.9177653e-06 1.16744346e-07 -5.3098773e-07 -0.000116951946 3.1319196e-05 9.709261e-09 -3.9424353e-06 -7.881824e-11
-2.756764e-07 9.43782e-11 -4.6293507e-11 -3.519503e-09 -4.390182e-07 2.0767762e-05 -1.0059422e-05 3.778418e-06
-5.1012086e-13 8.291009e-15 -3.78913e-13 3.627311e-10 1.3453844e-10 2.6649307e-14 4.496594e-12 3.2293e-15
5.7097495e-06 -3.421445e-08 -6.408699e-06 2.075617e-07 -3.303712e-07 -1.1358428e-07 -3.251624e-08 1.2737449e-07
4.2909248e-10 -3.7198527e-13 -3.77213e-05 1.9022998e-08 9.3027916e-07 -8.537726e-11 3.828911e-08 -2.5850163e-13
2.5493376e-09 -2.5892572e-07 2.2055102e-10 3.5721752e-07 -3.3676548e-10 2.2610577e-06 1.3960509e-09 2.1793134e-10
3.143491e-09 1.5578643e-11 -6.165183e-09 -1.4509741e-06 1.907167e-06 4.2462797e-10 1.1218722e-06 4.329192e-12
-2.0257683e-06 -9.141769e-07 -6.428733e-08 1.3423355e-06 1.4856647e-07 1.8633738e-06 -6.829327e-07 -8.5500305e-06
2.911484e-07 3.9775387e-09 -9.11677e-08 -0.0001563648 2.8632465e-05 1.0771403e-08 -4.2384845e-06 -1.925106e-06
-1.7392666e-06 -1.16818256e-07 3.0759726e-05 2.0003012e-07 -0.000114130264 -1.0507308e-06 -3.9498906e-07 1.5572e-05
-3.888943e-07 7.786031e-09 -7.073749e-08 -0.00013888413 0.00011572074 7.940358e-09 2.2749496e-06 -6.682571e-13
-0.00013682715 -1.2349538e-08 3.7421987e-08 2.8199434e-09 -6.2004926e-07 2.5323388e-05 1.4702852e-05 8.5634724e-08
-3.6843472e-13 -5.818481e-18 8.9857104e-14 1.8345146e-10 4.702721e-12 -2.6949258e-14 5.1649683e-12 3.57399e-16
5.220494e-06 -8.1565145e-07 4.8285824e-07 -3.351991e-10 -1.1127879e-08 1.8273337e-05 -1.5901045e-05 3.318281e-05
-1.2025369e-12 4.6263537e-14 4.384363e-13 2.778216e-10 -4.4639625e-09 -2.3985219e-14 -4.262699e-11 -2.2229427e-15
-4.2498334e-09 -4.365238e-07 -6.5726994e-07 2.7834648e-07 -2.0867066e-08 -4.1100052e-09 -2.9884608e-05 1.0219767e-06
-1.01831525e-07 6.9953924e-14 -4.4846635e-13 -9.3024494e-10 3.0691186e-11 2.6256663e-13 -4.2878676e-11 -7.9761853e-16
-1.1473179e-07 1.2904472e-06 -6.03025e-09 1.472841e-10 -8.810133e-10 1.7058871e-06 -1.8148563e-05 -4.9551467e-08
-5.200534e-13 -2.1934566e-15 1.1522655e-13 -2.5477256e-11 3.6473855e-11 -1.2556342e-14 4.83046e-12 -2.4335148e-16
00000000: 647e f8b8 9c74 9e31 6144 4ab2 486a 8eb4
00000010: 581d 2234 66d6 90b1 9ffa 4cb6 a3b4 72b1
00000020: fa7e cd31 94c7 992e d4f6 7cb2 dac9 4ab6
00000030: a87e 1f35 937f 5230 b649 00b5 edc9 b6ab
00000040: 48f0 dead 5ce3 ebb6 33c4 c2b1 f70c 21af
00000050: 1e01 f72d a2d2 d1b8 ec30 c436 26cb eeb6
00000060: fa73 792d 206c da29 76e5 6dab 2608 9330
00000070: cac6 d02f 36c0 cc31 38cc 502d c498 81a7
00000080: 3e2c b538 f824 a3b3 3c2b 3fb2 8eb7 1236
00000090: 343e 3833 2750 c3b6 4d8f 08b9 cd54 0ab4
000000a0: 9054 9431 943b 1f2f 2f40 0031 242b 2536
000000b0: a8e4 2bb4 ae2e c1af b4a2 a5b4 9463 aaae
000000c0: 7f87 82b8 a631 a537 8295 52b8 2069 aeb6
000000d0: 693e 0838 fa21 0bb8 78d8 1438 6fee f4b7
000000e0: 8bf9 5a38 c3d1 ae35 a4c4 6bb7 c24d 2cbe
000000f0: 940d 213a eddb 0a36 0e2a 64ba 0c90 b2b1
00000100: b85e 29b8 da2b 8ab6 8761 7db7 d0d5 5c36
00000110: 24ee 8737 bd53 dbb6 470f fc37 36b9 69b7
00000120: 6643 2a38 5b22 7635 5966 20b7 2f4c 9ebd
00000130: 82dd 5eb9 77c7 e135 6546 47ba 850b beb1
00000140: 1889 9fb3 6c77 3736 b74d f5b8 6042 3b35
00000150: 5e96 252f 12bf b1b5 d415 e6b7 66de b9ad
00000160: 9ce8 12ab a85c ac27 5c4e 712b 414b ed2f
00000170: 906a fa2c e4c4 5328 ec72 21ad cef7 8fa7
00000180: 3446 6b37 4ea1 f0b7 ce61 9cb8 0a16 b4b5
00000190: 953e 5db7 1ab4 a1b8 085e 1ab6 23ef f9b6
000001a0: f5b2 0036 e2b4 fa33 3389 0eb5 1944 f5b8
000001b0: bb5c 0338 c8cd 2632 4349 84b6 b952 adae
000001c0: ad00 94b4 348a cf2e db99 4bae c0db 71b1
000001d0: 34b2 ebb4 6e36 ae37 e3c4 28b7 ba90 7d36
000001e0: 1596 0fab 885b 1528 1e4f d5aa dd69 c72f
000001f0: 34ed 132f 1e09 f028 b835 9e2c 12b2 6827
00000200: 6096 bf36 30f3 12b3 4e0a d7b6 20de 5e34
00000210: df5d b1b4 9eeb f3b3 fca7 0bb3 6fc4 0834
00000220: 66e5 eb2f ba68 d1aa f036 1eb8 0468 a332
00000230: 4cb8 7935 20bf bbae 5273 2433 0386 91aa
00000240: 6c30 2f31 7b02 8bb4 987f 722f 9ac7 bf34
00000250: 8723 b9af adbc 1736 2ddf bf30 389e 6f2f
00000260: e104 5831 fc07 892d 86d5 d3b1 17bf c2b5
00000270: c2f9 ff35 1371 e92f 3c93 9635 e551 982c
00000280: 6ff2 07b6 c265 75b5 550e 8ab3 4c2a b435
00000290: a485 1f34 0919 fa35 c752 37b5 1a72 0fb7
000002a0: 224f 9c34 cdaa 8831 f9c7 c3b3 dbf5 23b9
000002b0: c02f f037 220d 3932 4e38 8eb6 1231 01b6
000002c0: bf70 e9b5 84dd fab3 0104 0138 dcc7 5634
000002d0: 3859 efb8 d606 8db5 e20e d4b4 9ea0 8237
000002e0: 3ac9 d0b4 54c3 0532 59e8 97b3 6da1 11b9
000002f0: 19af f238 106a 0832 56ab 1836 0019 3cab
00000300: 4279 0fb9 d829 54b2 e9b9 2033 f8c8 4131
00000310: 7671 26b5 906d d437 45ac 7637 30e6 b733
00000320: 0a69 cfaa 00aa d6a2 1857 ca29 ffb4 492f
00000330: 5876 a52c c2bc f2a8 e6b9 b52c c806 ce25
00000340: b42b af36 24f3 5ab5 c49d 0135 1447 b8af
00000350: ee2c 3fb2 b149 9937 3c63 85b7 c52d 0b38
00000360: f53d a9ab 3a5a 5029 54d1 f62a eabb 982f
00000370: 6e61 99b1 260a d8a8 b979 3bae 0e2e 20a7
00000380: ee05 92b1 605b eab4 3f6f 30b5 a66f 9534
00000390: 2a3f b3b2 fd37 8db1 b5b0 fab7 da2a 8935
000003a0: 79ae dab3 b185 9d29 d076 fcaa 2bb4 7fb0
000003b0: 34fb 062e d7cf 932a 1995 3cae dce5 65a6
000003c0: 7862 f6b3 6e33 ad35 a432 cfb1 caf0 212f
000003d0: cd2b 72b0 d6f5 e435 be3d 98b7 6ad2 54b3
000003e0: cc61 12ab 220e 1ea7 cbbb 012a ae19 e0ad
000003f0: e969 202e e831 62a8 eaf4 a92c 5748 8ca5

fc_layers.0.bias f4 [64]
2.3055604e-06 3.814396e-10 -9.937529e-07 0.02048494 0.009778729 -2.8402972e-10 9.32972e-05 -9.527465e-11
-1.1801786e-07 1.3137146e-06 0.000115620714 0.00016776947 -6.482131e-11 -4.2658516e-10 7.732104e-10 -1.2628331e-11
0.04136882 2.93621e-06 -2.4155975e-09 1.846276e-05 1.2160832e-10 1.8311472e-05 0.0025141696 1.0519298e-10
0.014998813 2.0821407e-09 9.478997e-09 0.032867108 6.219656e-08 0.0377534 -1.5735116e-06 0.023768386
4.5427134e-11 2.4320318e-06 -2.4388068e-08 1.1773035e-09 1.1338232e-08 3.260916e-06 3.248128e-06 2.6843855e-10
7.677772e-09 0.043061122 -2.481341e-11 5.1522292e-08 1.79271e-06 4.295296e-09 0.022821026 0.048291188
6.425081e-09 -3.997002e-11 0.024626225 0.027441049 -4.046282e-10 1.381162e-08 7.588332e-06 0.009328375
0.001165108 2.4664603e-08 1.9688179e-10 0.008219557 0.0348461 0.0016338212 1.0248043e-07 -2.7949854e-11
00000000: 3ab9 1a36 dab2 d12f 1761 85b5 08d0 a73c
00000010: f636 203c a125 9caf 8ea8 c338 dc82 d1ae
00000020: 0171 fdb3 e452 b035 6679 f238 46eb 2f39
00000030: 278b 8eae 8684 eaaf d889 5430 f228 5ead
00000040: 5a72 293d b40b 4536 a4ff 25b1 7ae0 9a37
00000050: b3b5 052f 969b 9937 c4c4 243b 6252 e72e
00000060: 95bd 753c 6815 0f31 12d9 2232 a99f 063d
00000070: ec90 8533 4fa3 1a3d 7231 d3b5 ebb5 c23c
00000080: 68ca 472e fd35 2336 ee7d d1b2 afce a130
00000090: 12ca 4232 1cd6 5a36 6afa 5936 5e93 932f
000000a0: 33e7 0332 dc60 303d d542 daad 5c49 5d33
000000b0: 0c9d f035 d395 9331 29f3 ba3c fbcc 453d
000000c0: 9cc3 dc31 3eca 2fae f0bc c93c 0dcc e03c
000000d0: 5b72 deaf 2648 6d32 479f fe36 0ad6 183c
000000e0: 8ab6 983a 09de d332 4c79 582f 52ab 063c
000000f0: c9ba 0e3d f125 d63a 3613 dc33 7ad9 f5ad

fc_layers.1.weight f4 [32, 64]
5.9036313e-07 1.1745568e-09 -2.4163455e-08 0.05472868 0.025433969 -2.4857547e-10 5.3791948e-05 -1.2797682e-10
1.4888167e-07 4.0427875e-07 4.248957e-05 5.8887083e-05 2.0892106e-10 4.2148388e-10 4.6347232e-10 6.631996e-11
0.11375519 4.290851e-07 2.9270698e-08 5.735799e-06 6.68818e-10 4.9157447e-06 0.0065022884 6.488984e-11
0.039595876 6.398305e-10 4.5848576e-08 0.08975959 1.14422555e-07 0.10340179 1.9478223e-07 0.06370411
1.5624553e-10 8.203875e-07 4.4900084e-09 1.5926209e-09 7.544284e-10 1.136753e-06 1.604513e-06 3.0883424e-10
3.368869e-09 0.11851853 1.8338348e-10 1.3747942e-07 2.949829e-06 1.8039275e-09 0.061072733 0.13296911
5.8820975e-09 2.6025845e-10 0.066084005 0.07520685 -8.952129e-10 3.002388e-08 1.0110466e-07 0.02423935
0.00042398798 3.6273904e-09 1.2052656e-10 0.0038791427 0.095316365 0.0040586437 3.3799168e-08 2.3698227e-11
2.6290956e-09 -3.557326e-18 1.1685726e-13 3.862306e-11 2.1383189e-11 5.0666215e-17 -3.6796545e-11 6.7707044e-09
-1.1928537e-10 2.5383194e-14 -7.1939585e-12 -1.7288042e-09 1.3553816e-08 2.2705935e-05 -3.1754712e-06 4.4769784e-14
5.864417e-11 -3.3420633e-07 -3.0584096e-13 -8.699295e-11 -1.4459587e-08 -8.568495e-06 3.9469344e-12 -8.178385e-14
6.461385e-12 -1.4846465e-15 4.8251435e-15 4.7703955e-11 4.748183e-16 4.717062e-11 7.6939335e-09 3.8087394e-11
1.5653924e-05 4.559409e-16 3.8975903e-09 3.008695e-10 -2.821045e-12 4.4648587e-08 -2.9665398e-10 -1.3914835e-14
-1.477298e-17 6.605952e-11 1.2268566e-17 -1.4728839e-07 -1.0416771e-05 -7.496493e-17 3.8315497e-11 8.3513245e-11
1.0963609e-17 -2.4936708e-06 3.860882e-11 4.523954e-11 -5.923021e-17 -5.9026894e-11 -8.156544e-14 2.477454e-11
2.1229525e-09 -2.1759725e-12 1.0060317e-09 7.9184126e-10 4.597237e-11 2.3129285e-13 -0.00020037255 3.7409627e-09
5.995361e-07 4.5961585e-10 -2.0802424e-06 0.04085707 0.019106222 -1.289709e-10 3.6384157e-05 -2.5315186e-10
2.9343794e-09 8.7871086e-08 1.2325785e-05 2.526111e-05 2.527586e-10 2.0392364e-10 4.528059e-10 1.8880923e-11
0.0847549 4.555123e-07 3.0015368e-08 -1.6401791e-06 5.833751e-10 4.5690795e-06 0.0049559013 8.685154e-11
0.029620754 3.2830488e-10 1.1797713e-08 0.06689905 -2.712678e-08 0.077049226 6.633272e-07 0.047525812
1.2345168e-10 6.218801e-07 7.595586e-09 1.469372e-09 3.6758085e-09 1.0372567e-05 -1.6150952e-07 4.8464413e-11
2.6512814e-09 0.08830088 1.8330357e-10 8.8647454e-08 2.264194e-06 8.9619034e-10 0.045570355 0.09906062
1.1300205e-10 1.0764355e-10 0.049294535 0.05607589 2.902209e-10 2.1360897e-08 1.1639145e-08 0.018218264
0.00017865995 5.645606e-09 -8.771428e-12 0.0026202258 0.07103299 0.0031058039 1.1763229e-08 5.746202e-11
2.6015e-41 -5.7906e-41 5.5633e-41 -1.4121e-41 -2.7198e-41 1.0279e-41 1.4844e-41 1.4695e-41
3.225e-41 1.0597e-41 4.6597e-41 3.8159e-41 -3.547e-42 -4.3749e-41 -1.0793e-41 5.4886e-41
3.8208e-41 -3.5845e-41 -2.029e-42 -5.4865e-41 -5.7802e-41 -1.6184e-41 -7.064e-42 -2.9492e-41
-5.0014e-41 -1.3183e-41 4.4832e-41 -1.4904e-41 5.9226e-41 5.544e-42 -4.3453e-41 -3.4073e-41
-5.3367e-41 -3.7642e-41 -2.5665e-41 6.4765e-41 -3.5161e-41 -1.64e-41 -2.3347e-41 -4.8964e-41
-1.1662e-41 -5.598e-42 -4.1513e-41 -4.5154e-41 3.436e-42 5.207e-42 -5.8325e-41 -1.8368e-41
4.679e-41 -4.5977e-41 -5.3879e-41 -2.922e-42 -5.8263e-41 -6.9287e-41 -3.7349e-41 -1.4473e-41
3.4887e-41 -6.4596e-41 2.3568e-41 -1.8295e-41 1.7663e-41 -1.0688e-41 -1.9049e-41 -6.8846e-41
00000000: 7279 1e35 0b6e a130 0090 cfb2 2e2b 603d
00000010: e65a d03c e3a7 88af aa9e 6138 46b6 0caf
00000020: 48dc 1f34 a60b d934 d436 3238 86fd 7638
00000030: 0db6 652f 95b6 e72f eecb fe2f d2d6 912e
00000040: 7bf8 e83d 025d e634 f26e fb32 2376 c036
00000050: e2d7 3730 edf1 a436 2611 d53b bbb1 8e2e
00000060: 492f 223d 12e0 2f30 0beb 4433 e0d3 b73d
00000070: 77b8 f533 51c4 d33d 5525 5134 4d77 823d
00000080: 35cb 2b2f 9a38 5c35 8846 9a31 5ee3 da30
00000090: 2e60 4f30 8992 9835 a65a d735 8ec8 a92f
000000a0: c581 6731 d8b9 f23d dca1 492f 0e9e 1334
000000b0: adf5 4536 0eee f730 6727 7a3d 0e29 083e
000000c0: 7a1b ca31 1f14 8f2f 0d57 873d 0d06 9a3d
000000d0: 0213 76b0 9bf3 0033 e01e d933 9a91 c63c
000000e0: b44a de39 ba45 7931 3685 042f 3739 7e3b
000000f0: 3a35 c33d 5ffe 843b 942a 1133 aa73 d02d
00000100: 8aab 3431 ff3d 83a2 d091 032a b3dd 292e
00000110: a916 bc2d 1ca8 6924 3ad5 21ae bfa3 e831
00000120: d927 03af a9a1 e428 6b1d fdac e49a edb0
00000130: 50da 6832 a078 be37 2e1a 55b6 0ca0 4929
00000140: bcf5 802e f86c b3b4 542c acaa ad4c bfae
00000150: f069 78b2 68c1 0fb7 d3de 8a2c 2e29 b8a9
00000160: fb56 e32c caf5 d5a6 18d8 ad27 e1cd 512e
00000170: 68db 0826 6675 4f2e 472e 0432 9882 272e
00000180: 8c50 8337 806a 0326 91eb 8531 9e67 a52f
00000190: 6e83 46ac a4c3 3f33 5616 a3af daaa 7aa8
000001a0: b641 88a3 3444 912e aa50 6223 5326 1eb4
000001b0: b1c3 2eb7 7cdb aca4 6a83 282e c7a5 b72e
000001c0: 2e3e 4a23 f058 27b6 abcd 292e 32f7 462e
000001d0: 5893 88a4 30cd 81ae 46ab b7a9 4eeb d92d
000001e0: 60e3 1131 d61e 19ac 9844 8a30 e0a8 5930
000001f0: 4930 4a2e d034 822a 191b 52b9 db89 8031
00000200: cfef 2035 2ead fc2f 4b9a 0bb6 be59 273d
00000210: a784 9c3c 15ce 0daf 319b 1838 f52b 8baf
00000220: 26a6 4931 a4b3 bc33 d8ca 4e37 d2e7 d337
00000230: 9cf4 8a2f 6737 602f c4ee f82f 0f14 a62d
00000240: fa93 ad3d 228d f434 3fea 0033 2024 dcb5
00000250: 605b 2030 1850 9936 1d65 a23b 12fd be2e
00000260: 39a7 f23c ce7c b42f e4ae 4a32 5e02 893d
00000270: 6c04 e9b2 fccb 9d3d 800f 3235 6daa 423d
00000280: 8fbc 072f 46ef 2635 be7d 0232 eef2 c930
00000290: 8299 7c31 d605 2e37 666b 2db4 1426 552e
000002a0: d631 3631 17d7 b43d 5e8b 492f 745e be33
000002b0: 8ff2 1736 ca57 7630 fba7 3a3d 4be0 ca3d
000002c0: 807e f82e eeb5 ec2e 11e9 493d d5af 653d
000002d0: f68c 9f2f 1c7d b732 80f5 4732 783e 953c
000002e0: aa56 3b39 47fb c131 004f 1aad 18b8 2b3b
000002f0: bf79 913d be8a 4b3b 3a17 4a32 7cb8 7c2e
00000300: 8548 0000 6ba1 0080 159b 0000 5d27 0080
00000310: d14b 0080 a71c 0000 6129 0000 f728 0000
00000320: e659 0000 8a1d 0000 e581 0000 5f6a 0000
00000330: e309 0080 f479 0080 161e 0080 0099 0000
00000340: 826a 0000 ec63 0080 a805 0080 f198 0080
00000350: 21a1 0080 1d2d 0080 b113 0080 3652 0080
00000360: 6b8b 0080 c024 0080 f97c 0000 8c29 0080
00000370: 19a5 0000 740f 0000 2179 0080 fb5e 0080
00000380: c494 0080 ee68 0080 8b47 0080 8ab4 0000
00000390: 0462 0080 b72d 0080 1541 0080 7e88 0080
000003a0: 8220 0080 9b0f 0080 b973 0080 df7d 0080
000003b0: 9409 0000 840e 0000 96a2 0080 3433 0080
000003c0: 6e82 0000 2a80 0080 3196 0080 2508 0080
000003d0: 6aa2 0080 25c1 0080 1d68 0080 5828 0080
000003e0: 4061 0000 11b4 0080 b341 0000 0033 0080
000003f0: 3d31 0000 cb1d 0080 1a35 0080 eabf 0080

fc_layers.1.bias f4 [32]
0.012136285 2.7252766e-12 0.008887805 -6.2058e-41 1.052e-42 0.0075052255 -4.1191e-41 -4.3269488e-08
1.7369311e-07 -4.7380942e-07 2.1459752e-07 0.012927007 0.014491019 -3.3397e-41 0.0076294607 -4.912e-42
-2.25e-42 9.7981e-07 1.5655e-41 9.134794e-10 -2.9821e-41 0.013746184 -6.318e-42 0.014408919
0.008328793 2.0736e-41 1.7993004e-08 0.016914202 2.4586069e-09 2.156337e-06 1.3034099e-09 -6.292e-42
00000000: 45d7 463c 38c6 3f2c 289e 113c feac 0080
00000010: ef02 0000 65ee f53b d372 0080 4ed7 39b3
00000020: 6680 3a34 df5f feb4 1e6c 6634 cccb 533c
00000030: bd6b 6d3c 195d 0080 8e00 fa3b b10d 0080
00000040: 4606 0080 0482 8335 a42b 0000 6618 7b30
00000050: 2153 0080 ad37 613c 9d11 0080 6313 6c3c
00000060: 7d75 083c ce39 0000 098f 9a32 a78f 8a3c
00000070: 45f4 2831 96b5 1036 a923 b330 8a11 0080

fc_layers.2.weight f4 [16, 32]
2.7241141e-08 -3.8421973e-08 8.7326804e-08 1.7495e-41 1.1153e-41 -8.911538e-09 4.7487e-41 5.464278e-09
2.0095389e-07 -4.4954437e-08 9.385906e-10 2.1687148e-08 1.8208516e-08 -3.711e-41 4.1669566e-09 1.0231e-41
1.592e-41 -9.072306e-05 -6.861e-41 8.4111605e-14 -6.6415e-41 2.1470662e-08 -2.679e-41 1.8846391e-08
6.199866e-08 -3.6016e-41 5.9864813e-10 -3.9811617e-08 3.4167717e-11 -1.0700361e-09 -8.279683e-10 -5.8912e-41
2.68513e-10 -1.9885736e-17 2.6253064e-10 6.4503e-41 -2.8005e-41 1.3827223e-10 2.0382e-41 -7.2974586e-08
-3.943798e-05 -1.1461231e-10 -1.5422756e-09 2.7202343e-10 2.901819e-10 4.1948e-41 1.5321766e-10 -5.0993e-41
-4.2876e-41 -6.6244274e-07 1.82e-43 -1.7090206e-05 -4.2855e-41 2.8019073e-10 -3.1095e-41 2.8901892e-10
2.2759016e-10 -3.0959e-41 -2.0050966e-10 3.226893e-10 4.953919e-17 3.800299e-05 -2.5431727e-17 1.132e-42
-1.4480427e-06 -3.8409879e-13 -1.8486876e-06 3.8669e-41 -4.535e-41 -1.4321733e-06 -1.571e-42 -1.4370237e-08
4.5558772e-06 -5.477948e-09 1.9288873e-06 -1.2865286e-06 -5.222024e-07 -4.6665e-41 -1.5200917e-06 -4.8496e-41
1.9547e-41 -8.5683016e-05 2.283e-41 1.3463509e-13 1.06e-42 -8.0528196e-07 -2.1076e-41 -5.3531005e-07
-1.9759216e-06 -2.679e-41 -7.531209e-06 -1.9027054e-06 3.658074e-07 -2.387777e-10 8.786506e-05 -4.7703e-41
0.17422046 2.3425967e-10 0.12968275 -1.8105e-41 -6.485e-42 0.10947051 4.7477e-41 7.035012e-08
2.9420616e-07 1.4036551e-06 2.932095e-07 0.18466356 0.20501655 1.078e-42 0.11133131 3.7486e-41
2.075e-41 1.5201435e-06 7.851e-42 2.4665388e-09 4.8852e-41 0.19536899 3.8822e-41 0.20395659
0.121633776 2.8009e-41 6.823694e-08 0.23595747 5.135303e-09 2.1242577e-06 3.1922993e-09 4.0097e-41
2.3952825e-12 6.9013974e-19 1.5151625e-13 2.6e-43 -2.8127e-41 5.9447206e-13 -5.3874e-41 -1.5835269e-08
-3.073631e-11 -3.4773295e-11 1.0777211e-07 2.5802698e-12 2.4342214e-12 2.772e-42 5.562942e-13 4.0881e-41
4.9243e-41 -2.084027e-07 5.025e-41 1.4960609e-05 -2.0113e-41 2.542929e-12 2.5026e-41 2.4463723e-12
2.793912e-13 -5.8786e-41 -4.042954e-11 2.364387e-12 2.0345361e-19 -6.4899e-11 -1.0072182e-18 -1.9884e-41
2.9287217e-10 -9.750549e-12 2.6482316e-10 -2.0327e-41 2.4263e-41 1.7660398e-10 -8.154e-42 -1.1900186e-06
-3.7367427e-12 2.2072345e-07 -9.467298e-10 3.016544e-10 3.2740458e-10 -6.98e-42 1.8593227e-10 -3.9711e-41
2.7548e-41 -1.744829e-09 1.4e-44 1.0609699e-07 7.0289e-41 3.149485e-10 -8.632e-42 3.2602995e-10
2.3507016e-10 -1.9806e-41 -4.7066213e-09 3.7174194e-10 -1.0854313e-09 0.00010985755 7.0460804e-10 5.16e-42
4.91455e-13 -6.397599e-19 2.5887092e-12 2.346e-42 -5.7528e-41 7.336766e-12 -1.3827e-41 -6.162333e-05
-1.04364875e-16 0.00016080325 -4.9691486e-09 1.3203867e-12 2.363387e-12 3.6441e-41 7.132032e-12 2.2775e-41
2.3264e-41 1.4378968e-07 5.7546e-41 6.4221854e-07 6.8089e-41 1.996324e-12 2.2833e-41 2.3351824e-12
5.000568e-12 5.5964e-41 3.8179182e-11 2.2626011e-12 2.0668909e-18 4.7108597e-09 -1.1762669e-18 3.3899e-41
6.043766e-12 -9.245047e-10 2.3679199e-12 -3.5046e-41 -2.8001e-41 2.8862556e-11 -4.7912e-41 1.0133548e-12
3.7571162e-06 -3.662641e-07 -1.5512609e-05 3.3841333e-12 -3.3062212e-12 7.524e-42 2.9223943e-11 -5.6257e-41
6.8326e-41 7.684037e-06 -1.604e-42 -8.031067e-12 -4.8154e-41 -6.427246e-13 1.8143e-41 -3.1588755e-12
1.3022328e-11 1.8059e-41 6.98085e-07 5.0072863e-12 5.188903e-08 -1.4264591e-11 2.1470765e-07 6.1478e-41
00000000: e7ff e932 6805 25b3 6b88 bb33 c530 0000
00000010: 171f 0000 5c19 19b2 6084 0000 4cc0 bb31
00000020: c9c5 5734 ed13 41b3 b9ff 8030 8b4a ba32
00000030: f368 9c32 7367 0080 f02c 8f31 851c 0000
00000040: 612c 0000 9242 beb8 42bf 0080 0a67 bd29
00000050: 23b9 0080 7c6e b832 ae4a 0080 a7e3 a132
00000060: 2024 8533 6664 0080 1e8e 2430 56fd 2ab3
00000070: 6e45 162e 8c10 93b0 1797 63b0 39a4 0080
00000080: d89d 932f de69 b7a3 e753 902f cfb3 0000
00000090: 114e 0080 2c08 182f d138 0000 34b6 9cb3
000000a0: 356a 25b8 ff08 fcae 00f8 d3b0 e58b 952f
000000b0: 7987 9f2f ef74 0000 f076 282f 268e 0080
000000c0: 8577 0080 b8d2 31b5 8200 0000 f05c 8fb7
000000d0: 7677 0080 5709 9a2f ae56 0080 cce3 9e2f
000000e0: ef3c 7a2f 4d56 0080 7476 5caf 7b66 b12f
000000f0: 8d75 6424 6665 1f38 f890 eaa3 2803 0000
00000100: 5e5a c2b5 783a d8aa 6c20 f8b5 cb6b 0000
00000110: 6b7e 0080 1a39 c0b5 6104 0080 f8e0 76b2
00000120: b0de 9836 8a38 bcb1 0872 0136 c9ac acb5
00000130: 7a2d 0cb5 1582 0080 f405 ccb5 3087 0080
00000140: 7d36 0000 b8b0 b3b8 a43f 0000 ec95 172a
00000150: f402 0000 8e2a 58b5 c03a 0080 3ab2 0fb5
00000160: 139a 04b6 ae4a 0080 98b4 fcb6 7660 ffb5
00000170: 3064 c434 f944 83af 3244 b838 fa84 0080
00000180: d966 323e 1ec9 802f 8ecb 043e 7832 0080
00000190: 1412 0080 1332 e03d 5984 0000 6313 9733
000001a0: 63f3 9d34 3965 bc35 686a 9d34 7218 3d3e
000001b0: dcef 513e 0103 0000 ab01 e43d 7f68 0000
000001c0: d839 0000 bc07 cc35 e315 0000 cf7f 2931
000001d0: 2e88 0000 cf0e 483e 386c 0000 ffd9 503e
000001e0: 211b f93d 144e 0000 a889 9233 d69e 713e
000001f0: 9a72 b031 788e 0e36 865f 5b31 c66f 0000
00000200: 938d 282c 7cb1 4b21 9697 2a2a ba00 0000
00000210: 684e 0080 3a54 272b 2e96 0080 2006 88b2
00000220: 022e 07ae 40ef 18ae 5870 e733 0292 352c
00000230: 094b 2b2c ba07 0000 3995 1c2b f671 0000
00000240: 4589 0000 4cc5 5fb4 148c 0000 54ff 7a37
00000250: 1138 0080 56f1 322c c345 0000 ed25 2c2c
00000260: 8448 9d2a dfa3 0080 9ecf 31ae 0261 262c
00000270: 1532 7020 e4b6 8eae a1a3 94a1 6e37 0080
00000280: 1802 a12f 9288 2bad 8c96 912f aa38 0080
00000290: a343 0000 9a2d 422f bb16 0080 bab8 9fb5
000002a0: 9679 83ac 0000 6d34 181e 82b0 15d6 a52f
000002b0: 19fe b32f 7513 0080 486f 4c2f b36e 0080
000002c0: cb4c 0000 b6ce efb0 0a00 0000 70d7 e333
000002d0: f0c3 0000 1025 ad2f 1018 0080 a33c b32f
000002e0: 2f3b 812f 3637 0080 e1b7 a1b1 075e cc2f
000002f0: 382e 95b0 5363 e638 62ae 4130 620e 0000
00000300: 1155 0a2b e4d2 3ca1 0a2a 362c 8a06 0000
00000310: 5da0 0080 db11 012d 8b26 0080 c63b 81b8
00000320: 26a6 f0a4 4b9d 2839 18bd aab1 f2d3 b92b
00000330: ff4e 262c 9565 0000 a2ef fa2c 7d3f 0000
00000340: da40 0000 9b64 1a34 6aa0 0000 ec64 2c35
00000350: cebd 0000 937a 0c2c a63f 0000 e852 242c
00000360: 1df1 af2c 019c 0000 f0e9 272e 6637 1f2c
00000370: 7782 1822 29dd a131 1b96 ada1 7f5e 0000
00000380: 68a5 d42c 3c20 7eb0 a7a0 262c b261 0080
00000390: 0e4e 0080 b3e0 fd2d 8f85 0080 f49d 8e2b
000003a0: c422 7c36 f4a2 c4b4 1321 82b7 2023 6e2c
000003b0: 96a7 68ac f914 0000 3c87 002e d29c 0080
000003c0: 77be 0000 b0ea 0037 7904 0080 b648 0dad
000003d0: 3c86 0080 30e9 34ab 9332 0000 3e49 5eac
000003e0: 5a17 652d 5732 0000 0964 3b35 a02d b02c
000003f0: 98dc 5e33 02f2 7aad 648a 6634 60ab 0000

fc_layers.2.bias f4 [16]
-1.7768757e-08 4.3153348e-10 -1.8206238e-06 0.024185553 -5.238866e-13 3.7011486e-10 7.373402e-12 -4.2323773e-11
0.009075175 1.0694899e-10 0.021240408 3.042192e-06 3.6622533e-10 0.024652377 0.008577597 2.4876572e-09
00000000: e9a1 98b2 f03c ed2f 285c f4b5 c820 c63c
00000010: 0276 13ab 0979 cb2f dab6 012d 5524 3aae
00000020: 0bb0 143c ee2e eb2e 5d00 ae3c 7628 4c36
00000030: a255 c92f c8f3 c93c 0d89 0c3c 54f3 2a31
