neural-collaborative-filtering/src/checkpoints/pretrain_neumf_factor8neg4_Epoch148_HR1.0000_NDCG0.8432.model (torch, 579115 bytes, 15 tensors)

embedding_user_mlp.weight f4 [7700, 8]
000000 d8 f6 ed b2 a1 09 72 a8 39 b7 0b 38 68 75 e1 b6
       -2.7702683e-08 -1.34357865e-14 3.3310822e-05 -6.7191904e-06
000010 fe 23 bd 2d 45 f7 22 39 be 3b 2d ad 6a e2 ca b4
       2.1502796e-11 0.00015541639 -9.847177e-12 -3.779017e-07
000020 b6 f8 36 2b f0 ba 9b af 38 a2 c2 2f f2 f9 53 ac
       6.5004545e-13 -2.8327163e-10 3.5403658e-10 -3.012365e-12
000030 c1 76 24 ad dc a9 35 ac ec 3e 33 b3 44 ef f8 b4
       -9.348689e-12 -2.5815938e-12 -4.1733912e-08 -4.6367688e-07
000040 f8 d2 60 2e fe 5d 4b b4 68 02 06 2b bc 07 ab b4
       5.111908e-11 -1.8940042e-07 4.76097e-13 -3.185686e-07
000050 7f e8 50 ab 16 ef 6c 33 66 d2 2d 37 65 f2 e8 a7
       -7.42191e-13 5.516548e-08 1.0360591e-05 -6.465574e-15
000060 68 3c 09 37 c0 ae 2e 37 60 d3 d3 b6 9a 22 b4 36
       8.179901e-06 1.0411895e-05 -6.3128973e-06 5.368446e-06
000070 8e 37 66 b7 8d 1d a9 b7 5f 56 41 35 fd 68 e2 b5
       -1.3722003e-05 -2.016013e-05 7.202379e-07 -1.6868868e-06
000080 f2 35 96 b8 28 4c 6b b8 34 62 87 b7 f8 12 d3 37
       -7.1626055e-05 -5.6099292e-05 -1.6138983e-05 2.5161993e-05
000090 16 4b 0b b8 52 6a f2 b7 c4 15 28 b8 d8 b1 b1 37
       -3.321011e-05 -2.8898157e-05 -4.0074592e-05 2.118286e-05
0000a0 23 46 bc b7 53 73 03 38 23 ac 40 b7 c8 8b 48 37
       -2.2444006e-05 3.1340238e-05 -1.14841705e-05 1.1953474e-05
0000b0 1e 65 7a 37 c6 7a 0d b8 7d 87 cf 37 5f 04 96 37
       1.4924704e-05 -3.373136e-05 2.4739415e-05 1.7883429e-05
0000c0 ea 39 48 b7 55 98 e9 b6 4b 37 5f b5 8c 45 f9 36
       -1.1934413e-05 -6.961675e-06 -8.3154436e-07 7.4288746e-06
0000d0 4c 22 ce 34 07 e0 0b 37 38 bc 5b b6 d6 74 b7 b6
       3.8395444e-07 8.337206e-06 -3.27431e-06 -5.4674265e-06
0000e0 4c 78 b4 36 e6 25 97 b7 08 66 f0 b7 ac 08 48 37
       5.3784224e-06 -1.801825e-05 -2.8657741e-05 1.1922948e-05
0000f0 6c 41 77 37 ea 77 cb 37 3c 7c b8 37 6f df 40 b7
       1.47375795e-05 2.4255325e-05 2.199236e-05 -1.1496114e-05
000100 c3 4b f0 b6 fe 3e 31 b8 a0 19 3f b8 22 71 0b b8
       -7.161377e-06 -4.2258755e-05 -4.5561814e-05 -3.3245546e-05
000110 9a e9 a4 b7 10 ae ca b4 55 7b 3c b6 9a 79 98 37
       -1.9659103e-05 -3.775208e-07 -2.8085972e-06 1.8176437e-05
000120 17 ce 3c b7 b4 51 6b 35 60 a1 f6 36 69 92 c7 b7
       -1.1253657e-05 8.7663216e-07 7.350158e-06 -2.3790826e-05
000130 9b 5e 46 37 2c 2e ae 36 07 f5 1e b7 c1 d0 cb b5
       1.1823747e-05 5.190979e-06 -9.474584e-06 -1.5185434e-06
000140 00 40 52 b6 b9 c7 a3 b7 d9 ad 1c b6 c0 86 42 34
       -3.1329691e-06 -1.9524117e-05 -2.3347004e-06 1.811668e-07
000150 0c 2f 0e 37 c8 ef 32 36 83 d3 b3 b7 64 98 41 b6
       8.4748135e-06 2.6663638e-06 -2.1436956e-05 -2.8847944e-06
000160 42 22 69 b6 f0 23 e6 37 19 b9 7f b5 9c a6 08 38
       -3.4739646e-06 2.7434871e-05 -9.5264255e-07 3.2580094e-05
000170 33 d4 68 b6 de e2 22 b8 5a 6f 35 37 26 fc c0 35
       -3.469421e-06 -3.8835096e-05 1.0814367e-05 1.43785e-06
000180 b1 ba 42 b7 ce 04 15 b5 15 68 34 36 e8 a0 0d 37
       -1.1606769e-05 -5.551382e-07 2.6882674e-06 8.441719e-06
000190 d4 8d 00 37 b8 87 6c 34 0a 77 59 b5 e8 55 54 33
       7.6624165e-06 2.2028587e-07 -8.1012024e-07 4.9438228e-08
0001a0 7a 2c 83 b7 2e fa c3 b7 96 5d 48 36 df 9b 8d 37
       -1.5637128e-05 -2.336231e-05 2.9856797e-06 1.6881093e-05
0001b0 48 96 8c 37 10 ca ed b5 2c 27 bb 37 52 5a c5 b6
       1.675928e-05 -1.7716684e-06 2.2310378e-05 -5.881572e-06
0001c0 ce f3 ad 33 82 16 ff 36 6e 73 32 b5 1a 61 c4 b4
       8.100288e-08 7.6022125e-06 -6.647814e-07 -3.6578496e-07
0001d0 b2 52 26 b5 d1 1d fd b5 1c 08 33 38 38 bb ba 35
       -6.1960156e-07 -1.8858647e-06 4.2684478e-05 1.3912568e-06
0001e0 e3 5c 0f b1 ba a2 56 32 a2 10 7d b7 64 ec 09 b3
       -2.0862039e-09 1.2493439e-08 -1.5083848e-05 -3.2112794e-08
0001f0 87 87 84 ad db f2 00 33 d2 f6 8e b1 0c aa e3 32
       -1.5066849e-11 3.0023198e-08 -4.160804e-09 2.6503606e-08
000200 32 94 a2 b8 00 3a 18 b7 ce 7d b0 b7 0c ad 19 36
       -7.7523655e-05 -9.07341e-06 -2.1039417e-05 2.2899503e-06
000210 bc d3 33 36 32 5b 9c 38 17 8d cf b8 13 e8 c3 37
       2.6796324e-06 7.455646e-05 -9.896809e-05 2.335388e-05
000220 c6 d3 82 b7 ff 5f 5e 37 57 1c 84 b6 3f ab 63 38
       -1.5595822e-05 1.3254582e-05 -3.9372057e-06 5.4280503e-05
000230 e8 60 d0 36 6c 46 54 36 6c 45 86 37 73 c6 89 33
       6.2101644e-06 3.1631453e-06 1.6006372e-05 6.415657e-08
000240 d8 81 49 35 d8 80 16 b5 1a 3e 00 b7 da 3d 5e b7
       7.506728e-07 -5.6066847e-07 -7.643854e-06 -1.3246632e-05
000250 30 4b 00 36 28 5c d0 b6 c4 5a a7 b5 a3 41 0c b6
       1.9117251e-06 -6.2096115e-06 -1.2468886e-06 -2.0899831e-06
000260 fa ba ee 36 f6 c7 c2 34 da f0 4e 37 f3 a5 22 36
       7.1147197e-06 3.6280807e-07 1.2334634e-05 2.4236476e-06
000270 e6 84 26 b5 d1 8d 20 37 1c ca 68 33 49 ae ac 37
       -6.203321e-07 9.569762e-06 5.4200527e-08 2.0585156e-05
000280 78 bc cc 35 08 ce 51 b6 e5 58 ac 37 54 02 2c b8
       1.5254036e-06 -3.1263353e-06 2.0545393e-05 -4.1010164e-05
000290 08 f4 f0 b6 15 b3 60 37 43 a2 8a 35 e0 11 2c b6
       -7.1809663e-06 1.3393136e-05 1.0329026e-06 -2.5640402e-06
0002a0 44 c9 c8 b4 95 a2 85 36 52 eb 94 35 dc 11 54 37
       -3.7399343e-07 3.982636e-06 1.1095347e-06 1.2640343e-05
0002b0 d8 58 a4 37 00 20 2d b8 59 27 ec 37 f9 b0 1b b5
       1.9591695e-05 -4.1276217e-05 2.8151715e-05 -5.799953e-07
0002c0 9f 4c ba b8 2e 9c 9c b5 2b 9a c8 b6 05 02 a8 37
       -8.883443e-05 -1.166836e-06 -5.978412e-06 2.0028101e-05
0002d0 fc d7 0d b8 f7 4b 83 b6 92 9f 75 36 96 37 9f 35
       -3.381817e-05 -3.9129477e-06 3.6600727e-06 1.1862601e-06
0002e0 67 74 a2 b8 ab 51 18 34 a4 53 79 b7 28 58 3e b4
       -7.7464436e-05 1.4185814e-07 -1.4861031e-05 -1.77272e-07
0002f0 16 e6 21 b7 70 b1 53 b6 a8 fc 1a 37 00 1b e7 33
       -9.649919e-06 -3.1544732e-06 9.237941e-06 1.0761687e-07
000300 c8 fb 33 37 4d d1 78 b7 25 ef 44 b7 71 7c 8d 36
       1.0727854e-05 -1.48306835e-05 -1.1738191e-05 4.2166143e-06
000310 40 96 78 37 12 d1 dc b7 d2 ff b2 b7 e7 b3 21 b7
       1.4816935e-05 -2.63234e-05 -2.133838e-05 -9.638235e-06
000320 d8 f3 1b 38 0c 76 1f 38 80 7d 53 b4 87 14 84 b7
       3.7181977e-05 3.8018494e-05 -1.9696563e-07 -1.5745185e-05
000330 68 fd df 36 de 62 6a b8 22 9e b6 b8 38 6b 52 38
       6.6754183e-06 -5.5882025e-05 -8.707891e-05 5.0167757e-05
000340 00 72 fe b0 8f 04 9c b7 94 c0 6f b6 00 2e d1 36
       -1.8513333e-09 -1.8598772e-05 -3.572587e-06 6.2340405e-06
000350 1b 8d 8b b6 d4 5c 54 b7 70 00 a4 b5 52 93 3f 37
       -4.1589497e-06 -1.2657798e-05 -1.221908e-06 1.1418788e-05
000360 60 46 5a 35 a0 d1 9f b5 6f d2 70 b7 34 b4 13 b6
       8.131374e-07 -1.1907432e-06 -1.435411e-05 -2.20096e-06
000370 11 dd f2 37 66 90 a8 b7 98 6e 77 b5 9c e4 11 b7
       2.895159e-05 -2.0094401e-05 -9.2175605e-07 -8.695901e-06
000380 e4 cd 72 2c c1 9f 26 31 91 e6 d9 b4 02 60 d7 ac
       3.450456e-12 2.4246989e-09 -4.058716e-07 -6.1213265e-12
000390 b6 22 97 2d f4 1b 9a 30 4b 25 90 b2 bc cd 71 34
       1.7182127e-11 1.121292e-09 -1.6780765e-08 2.251972e-07
0003a0 f8 3d 5d ae 0a e8 a3 2d 76 c8 2f 38 c8 a6 81 2b
       -5.030462e-11 1.8634e-11 4.1909945e-05 9.212292e-13
0003b0 77 21 bf 37 fb 6b a8 2b ef 61 ac 2c 70 a5 21 ad
       2.2784558e-05 1.1967089e-12 4.899407e-12 -9.188525e-12
0003c0 b2 b1 53 38 26 2f ae 36 d8 5f c1 b6 de 53 60 b6
       5.0471812e-05 5.191093e-06 -5.763006e-06 -3.3427418e-06
0003d0 ba 13 cc 37 1e 95 d9 34 6d b6 24 b5 52 b9 b1 36
       2.4327881e-05 4.0527897e-07 -6.1360225e-07 5.296585e-06
0003e0 3e cc 91 b7 f4 12 a8 37 50 75 80 b7 d9 c5 ad b6
       -1.7380455e-05 2.0035986e-05 -1.5313417e-05 -5.1788343e-06
0003f0 2c 71 18 38 52 1e 12 b7 6b bf de b6 fb 39 88 b8
       3.6345024e-05 -8.709338e-06 -6.6383996e-06 -6.495785e-05

embedding_item_mlp.weight f4 [8, 1024]
000000 c8 fe 46 ba 7d 26 b1 ba 9c 4c da ba 8a ad a0 39
       -0.0007591066 -0.0013515499 -0.0016654911 0.00030646875
000010 78 33 02 3b 00 45 56 3a 1c 4b a3 ba ce 4d f9 ba
       0.0019867104 0.0008173734 -0.0012458297 -0.001902038
000020 43 7b a4 3a 00 3b bd ba 7a 6b 4d b9 54 5d 2c 3a
       0.0012548942 -0.0014437139 -0.00019590362 0.0006575186
000030 36 1a 60 3b e0 4d 6e 38 b0 8d 4b bb 4c 24 5f 3a
       0.003419531 5.681615e-05 -0.0031059794 0.00085121836
000040 e1 03 32 3b ab 2e 9d ba 3c 78 96 ba e2 70 69 3b
       0.0027162957 -0.0011992058 -0.0011479924 0.0035620262
000050 21 43 05 3b 4a aa c7 ba ee 50 e9 ba cc 3c 2f ba
       0.0020334201 -0.0015233245 -0.0017800608 -0.00066847797
000060 fc 32 dc 3a 5f 89 29 bb a7 9f 1e 3a 3c a1 f7 ba
       0.0016799862 -0.0025869233 0.0006051012 -0.0018892656
000070 0d 77 56 ba 93 c3 5f ba 08 ce 3c ba 7b 1f 0d bb
       -0.0008181192 -0.0008535918 -0.0007202332 -0.0021533656
000080 b0 51 50 ba f4 9e 21 b9 30 6c fa 39 e0 c0 fb b8
       -0.00079467427 -0.00015413371 0.00047764322 -0.000120045384
000090 e6 1a d6 ba d6 f4 19 3b 42 d0 a7 39 0c c4 3c b9
       -0.0016334921 0.002349188 0.00032007886 -0.0001800211
0000a0 12 70 98 ba 5b 6d b8 ba 1e 0e f9 ba fa a2 84 ba
       -0.0011630079 -0.0014070676 -0.00190014 -0.0010119372
0000b0 0f 3f 1c ba c5 66 3f 3b ac 4b b9 39 42 a3 c6 b9
       -0.0005960324 0.0029205543 0.0003534233 -0.0003788714
0000c0 eb 09 8a 3a ff ea 9c b8 2e 4f 5a 39 26 58 1f 3b
       0.001053152 -7.482431e-05 0.00020819597 0.0024314015
0000d0 11 b5 23 ba 10 c4 34 3a 10 6a 3a b9 c2 44 9b b9
       -0.00062449375 0.00068956707 -0.00017777854 -0.00029615132
0000e0 43 14 e7 3a 27 6a 9e b9 76 2a 6b bb 62 53 76 ba
       0.001762994 -0.00030215198 -0.0035883463 -0.000939658
0000f0 15 c5 9e 3a d2 60 f2 3a 84 d7 87 ba c8 33 6c 38
       0.0012113178 0.001849199 -0.0010363911 5.631501e-05
000100 63 48 e3 3a 98 b8 e8 ba 05 f0 da ba 12 61 bb b9
       0.0017340299 -0.0017755209 -0.0016703611 -0.00035739742
000110 55 68 e2 ba a8 1c 49 b9 c7 bb a5 ba ea eb 06 bb
       -0.0017273525 -0.00019179529 -0.0012644463 -0.0020587393
000120 41 4a 13 bb 17 f4 b1 39 12 e7 30 3a ee d7 99 39
       -0.0022474679 0.00033941932 0.00067482993 0.00029343314
000130 0c f6 b1 3a 94 5a f0 b8 3e 43 14 bb 93 72 4d 3a
       0.0013577356 -0.00011460963 -0.0022623087 0.0007837202
000140 3c 20 c2 b9 fc b0 d9 3a 99 09 57 b9 4e 3d 66 ba
       -0.0003702658 0.0016608532 -0.00020507573 -0.0008782939
000150 40 b6 ce b9 23 fd ae ba 5e 85 cc ba 73 e2 3c b9
       -0.0003942717 -0.0013350587 -0.0015603711 -0.00018013436
000160 92 5b 3c 39 80 51 83 ba c1 70 33 ba c5 9a 83 ba
       0.0001796319 -0.0010018796 -0.000684511 -0.0010040632
000170 08 b9 55 b8 bc af 04 3b ce a6 24 3b d4 ec 00 3a
       -5.095548e-05 0.0020246347 0.0025123837 0.00049181026
000180 5b fa da 3a 88 a5 5e 37 4c 7a 95 39 d0 4a 96 ba
       0.0016706692 1.3270772e-05 0.00028510613 -0.0011466388
000190 94 1f f8 39 4e df 0c 3a a8 78 94 3a 5b 5f 83 3a
       0.00047325774 0.0005373851 0.0011327462 0.0010022925
0001a0 8c 6d 07 b9 4e 83 4f ba e8 c4 d7 3a 2a a2 15 bb
       -0.00012915413 -0.0007915989 0.0016461881 -0.0022832253
0001b0 ac 15 ea b8 77 25 c2 3a 9b bc bb 3a dc 5a 22 ba
       -0.00011162026 0.0014812191 0.0014323177 -0.00061933487
0001c0 6a 42 24 39 ab f1 46 3a 6b 76 f4 39 6a 77 ce ba
       0.00015665 0.0007589112 0.00046627535 -0.0015752141
0001d0 de ce 06 b9 0e b0 f3 39 e4 0b 75 38 dc 79 80 bb
       -0.000128563 0.00046479743 5.8423626e-05 -0.003920777
0001e0 d5 17 f3 39 4c 2d 1d ba 00 80 43 b6 f1 5a 0f ba
       0.00046366328 -0.00059958245 -2.913177e-06 -0.00054685684
0001f0 34 32 2f ba 52 72 31 ba 70 76 46 39 b4 e7 17 b9
       -0.0006683201 -0.0006769049 0.00018926873 -0.00014486798
000200 6a f0 fa 38 f0 43 f1 39 ce d8 e7 ba 50 53 02 bb
       0.000119657096 0.0004601772 -0.0017688514 -0.0019886084
000210 51 40 92 3a 46 52 89 ba 7a d0 87 ba b8 fa 2b 3b
       0.0011158084 -0.001047679 -0.0010361813 0.002624197
000220 3d 23 a2 3a 1f 12 3f bb e8 08 33 39 9d f9 5b 3a
       0.0012370121 -0.0029155088 0.00017074088 0.0008391382
000230 60 d9 41 b9 3f ce f0 39 48 87 14 39 f6 20 2d 3b
       -0.00018486893 0.00045930033 0.00014164776 0.0026417351
000240 bc 44 c2 39 b2 e0 92 39 d9 37 a2 ba 24 77 18 3b
       0.00037053775 0.000280147 -0.0012376263 0.0023264373
000250 7a 67 83 bb 32 b3 10 3a ae 10 63 39 39 b7 72 ba
       -0.004010138 0.0005519866 0.0002165462 -0.00092588697
000260 0e ee 42 3a 48 dc b3 39 26 2c a9 ba 42 1f d2 b9
       0.00074359856 0.00034305663 -0.0012906834 -0.0004007761
000270 37 f7 60 ba 41 9e 8a 3a 04 55 33 bb 14 7e 80 ba
       -0.000858176 0.0010575728 -0.0027363906 -0.0009803199
000280 58 07 24 3a 5d 25 be 3a c8 74 b4 39 0c 2e 0b ba
       0.0006257198 0.0014506985 0.00034419284 -0.0005309291
000290 76 37 84 bb c9 bc 53 3b 16 34 c8 b9 14 28 9c 3a
       -0.004034932 0.003230857 -0.0003818578 0.00119138
0002a0 ea 10 2d bb 6c 50 69 3a 7c da b6 ba 34 89 0c b8
       -0.0026407787 0.00089002284 -0.0013950611 -3.350638e-05
0002b0 8d a9 21 3a 0b 53 20 bb 39 c6 f0 39 4c b3 38 39
       0.00061669276 -0.002446356 0.00045924055 0.000176144
0002c0 17 f6 3c bb 5e 92 10 3a 5e 1b 80 ba 00 25 f1 b9
       -0.0028833204 0.00055149745 -0.0009773781 -0.0004599467
0002d0 11 8c 7a 3a 5f 07 3b 3a 1f 07 7f ba ce d0 0b bb
       0.00095576147 0.0007134582 -0.0009728539 -0.0021334174
0002e0 8c f9 3b ba 45 1e aa 39 88 3b 46 39 19 27 b0 ba
       -0.0007170669 0.0003244748 0.00018904929 -0.0013439386
0002f0 1d a5 8a ba 1a b4 39 3a 87 a9 26 3b 5c 0b 08 bb
       -0.0010577772 0.0007084027 0.0025430636 -0.0020758724
000300 20 62 7c 3a 8e 21 ad b9 ba 84 8f b9 cc 43 06 ba
       0.0009627659 -0.00033022132 -0.00027373974 -0.0005121797
000310 c4 35 02 ba f1 0e 5f ba 3e fe 77 39 d4 34 34 3b
       -0.0004967118 -0.00085090013 0.00023650468 0.0027497308
000320 8f 7a bd b9 0d ed f9 3a ce 82 72 3a bc a9 14 ba
       -0.00036140202 0.0019067839 0.0009251059 -0.00056710443
000330 e6 2f 1c b9 50 5e 84 39 06 74 fa b9 b0 8d 58 39
       -0.00014895163 0.0002524727 -0.0004777016 0.00020652148
000340 28 ef ee 39 4c 96 3b bb 61 35 0f 3a 80 55 e9 3a
       0.00045573083 -0.002862352 0.0005462971 0.001780197
000350 0c c2 22 bb f2 2e 28 3a d9 b4 38 3b de 94 7c 3a
       -0.00248349 0.0006415687 0.0028183965 0.000963522
000360 40 c8 10 ba fb 4e ae ba ae d7 1c b9 22 88 9b b7
       -0.00055230036 -0.0013298684 -0.00014957666 -1.8540832e-05
000370 18 79 b9 38 35 37 55 ba b4 52 02 3b 5a d9 87 ba
       8.844043e-05 -0.00081335317 0.001988572 -0.0010364458
000380 f9 1d cd ba 3b 7c b0 3a 39 a4 34 bb d0 5a 77 b9
       -0.0015649191 0.0013464758 -0.0027563705 -0.00023589586
000390 f0 a2 14 3b dd 55 89 39 1b 07 b5 39 1e de f3 ba
       0.0022680126 0.0002619465 0.00034528304 -0.0018605625
0003a0 c3 7b 42 bb 47 13 58 bb 27 5d 46 3a 51 f5 cf b9
       -0.0029675819 -0.0032970475 0.00075669814 -0.00039664892
0003b0 30 85 19 39 87 17 20 3b 30 fd 3e b8 3d 3b bb 3a
       0.00014640833 0.0024428086 -4.553533e-05 0.0014284622
0003c0 f2 0a fc 39 fd 36 ba 3a f8 2b 3a 3b 8b be 02 3a
       0.0004807334 0.0014207062 0.0028407555 0.00049874996
0003d0 b8 72 d1 3a c8 aa 48 3a be 62 3b 3a b9 ed be b9
       0.0015979623 0.0007654843 0.00071481976 -0.0003641674
0003e0 58 cd 32 3a 8a 04 90 3a 40 70 87 36 ee 8d b0 ba
       0.000682076 0.0010987681 4.036381e-06 -0.0013470033
0003f0 d3 97 db 39 9c 7c e8 ba d4 59 2a 3b 7c e6 50 39
       0.00041884053 -0.0017737332 0.0025993483 0.00019922288

embedding_item_mlp.bias f4 [8]
000000 7a 2f b2 39 d2 d1 89 b5 80 40 84 35 53 24 d4 bd
       0.00033986178 -1.0268361e-06 9.853538e-07 -0.10358491
000010 c4 df e7 b9 04 2f 27 b5 41 34 bc b3 10 d0 02 b4
       -0.00044226472 -6.2280765e-07 -8.763937e-08 -1.2182886e-07

embedding_user_mf.weight f4 [7700, 8]
000000 ac 97 00 00 64 60 00 00 8e 3f 00 80 de 4f 00 00
       5.441e-41 3.4578e-41 -2.2799e-41 2.8651e-41
000010 67 38 00 00 04 09 00 80 8f 6f 00 80 e7 8a 00 80
       2.0233e-41 -3.234e-42 -4.002e-41 -4.9829e-41
000020 fe 13 00 80 cc 03 00 80 08 af 00 00 05 09 00 00
       -7.172e-42 -1.362e-42 6.279e-41 3.236e-42
000030 73 00 00 80 03 74 00 80 50 1f 00 80 5b 62 00 80
       -1.61e-43 -4.1617e-41 -1.1233e-41 -3.5283e-41
000040 aa 0a 00 00 09 3f 00 80 f8 6e e3 2b 32 32 00 00
       3.826e-42 -2.2613e-41 1.616012e-12 1.8007e-41
000050 77 1d 00 80 2e 32 00 00 23 17 00 00 40 49 00 80
       -1.057e-41 1.8001e-41 8.3e-42 -2.6277e-41
000060 03 05 00 00 9b af 00 00 91 06 00 00 e4 8a 00 80
       1.798e-42 6.2995e-41 2.356e-42 -4.9825e-41
000070 76 3e 00 80 d8 1a 00 80 1e 70 2d b6 c7 21 00 80
       -2.2407e-41 -9.63e-42 -2.584427e-06 -1.2117e-41
000080 2e 3c 00 00 52 2d 00 80 e2 2e 00 80 21 03 00 00
       2.1588e-41 -1.6258e-41 -1.6818e-41 1.122e-42
000090 f3 bf 00 80 36 70 00 00 98 5b c8 b5 fa 06 00 80
       -6.8858e-41 4.0254e-41 -1.4927818e-06 -2.503e-42
0000a0 4a 17 00 00 fb 73 00 00 f4 15 00 80 e9 27 00 00
       8.355e-42 4.1606e-41 -7.875e-42 1.4317e-41
0000b0 ab 1c 00 00 60 b4 d1 b1 f3 b7 0a b1 b3 5d 00 00
       1.0284e-41 -6.103207e-09 -2.0186206e-09 3.3613e-41
0000c0 04 0a 00 80 78 15 00 00 de 7d 00 80 4a 75 00 80
       -3.593e-42 7.702e-42 -4.5153e-41 -4.2075e-41
0000d0 70 66 00 80 bf 15 00 80 da c7 3c 32 5f 6c 00 00
       -3.6748e-41 -7.801e-42 1.0988481e-08 3.8876e-41
0000e0 9c 9c 00 80 01 20 00 80 5e 07 00 80 62 0a 00 80
       -5.6181e-41 -1.1481e-41 -2.643e-42 -3.725e-42
0000f0 60 4d 00 00 a6 2f 00 80 ea 27 f2 b4 c7 17 00 00
       2.7757e-41 -1.7093e-41 -4.5105054e-07 8.53e-42
000100 1f 15 00 80 7e 72 00 00 3b 11 00 00 1c b3 00 80
       -7.577e-42 4.1072e-41 6.181e-42 -6.4252e-41
000110 f1 14 00 80 46 1a 00 00 74 c2 57 b1 fc 55 00 00
       -7.512e-42 9.425e-42 -3.1397152e-09 3.0845e-41
000120 31 1b 00 00 c9 01 00 00 5f 28 00 00 b2 24 00 00
       9.754e-42 6.4e-43 1.4482e-41 1.3164e-41
000130 0d 30 00 00 e2 10 00 80 f6 30 fc b6 ea 3f 00 00
       1.7237e-41 -6.056e-42 -7.515885e-06 2.2928e-41
000140 8b a8 00 00 50 72 00 80 0b 40 00 00 11 49 00 00
       6.0462e-41 -4.1008e-41 2.2974e-41 2.6211e-41
000150 31 0e 00 00 4c 1c 00 80 8c 15 b4 b2 df 30 00 80
       5.091e-42 -1.0151e-41 -2.0964556e-08 -1.7532e-41
000160 6d 10 00 00 90 4c 00 00 46 89 00 80 2c ad 81 30
       5.892e-42 2.7465e-41 -4.9244e-41 9.435204e-10
000170 bf 3c 00 80 10 66 00 80 1e 0a c6 b5 6e 00 00 00
       -2.1792e-41 -3.6613e-41 -1.4755094e-06 1.54e-43
000180 a6 10 00 80 64 07 00 80 c4 7d 00 00 23 04 00 00
       -5.972e-42 -2.651e-42 4.5116e-41 1.484e-42
000190 14 0e 00 00 7a b8 00 00 1e b5 34 b1 39 22 00 80
       5.05e-42 6.6178e-41 -2.62964e-09 -1.2277e-41
0001a0 ec 07 00 80 42 7d 00 80 69 40 00 80 97 0c 00 00
       -2.842e-42 -4.4934e-41 -2.3106e-41 4.516e-42
0001b0 d6 0a 00 80 36 1b 00 00 de 67 f6 31 10 7d 00 80
       -3.887e-42 9.761e-42 7.1713506e-09 -4.4864e-41
0001c0 a4 26 00 80 fb 19 00 00 23 02 00 00 ad 03 00 80
       -1.3862e-41 9.32e-42 7.67e-43 -1.319e-42
0001d0 09 19 00 00 b2 24 00 80 e7 a6 5e 2f a7 1d 00 00
       8.981e-42 -1.3164e-41 2.0250078e-10 1.0637e-41
0001e0 cb 7f 00 80 3b 76 00 80 d3 43 00 00 fd 26 00 80
       -4.5843e-41 -4.2413e-41 2.4331e-41 -1.3986e-41
0001f0 aa 7c 00 00 a2 61 00 80 81 63 00 80 a0 4f 00 80
       4.4721e-41 -3.5024e-41 -3.5695e-41 -2.8564e-41
000200 57 13 00 00 41 53 00 80 f8 4b 00 80 98 21 00 00
       6.938e-42 -2.9866e-41 -2.7252e-41 1.2051e-41
000210 33 08 00 00 ee 0a 00 80 5c 0a 92 b3 86 07 00 80
       2.941e-42 -3.921e-42 -6.800539e-08 -2.699e-42
000220 36 16 00 80 5b 16 00 80 50 3b 00 80 54 0f 00 00
       -7.968e-42 -8.02e-42 -2.1277e-41 5.499e-42
000230 34 18 00 80 65 f0 a4 ab 96 c5 3b b2 4d 6e 00 00
       -8.682e-42 -1.1719624e-12 -1.0929758e-08 3.9568e-41
000240 6e 11 00 00 11 3d 00 80 d4 57 00 80 89 06 00 80
       6.253e-42 -2.1906e-41 -3.1507e-41 -2.344e-42
000250 61 20 00 00 d5 95 00 00 02 7e cf af 9e 53 00 80
       1.1615e-41 5.375e-41 -3.7742615e-10 -2.9996e-41
000260 19 02 00 00 fc 75 00 00 25 90 00 00 db 1d 00 00
       7.52e-43 4.2325e-41 5.171e-41 1.071e-41
000270 50 cc 17 b6 db 04 00 80 68 83 78 b1 5b 15 00 00
       -2.261968e-06 -1.742e-42 -3.6163446e-09 7.661e-42
000280 e9 a3 00 80 60 74 00 00 68 3a 00 80 33 8b 00 80
       -5.88e-41 4.1747e-41 -2.0952e-41 -4.9935e-41
000290 1c 2b 00 00 c3 02 00 00 34 aa 63 37 c6 af 00 80
       1.5465e-41 9.91e-43 1.3569883e-05 -6.3056e-41
0002a0 d1 1b 00 00 de 40 00 80 81 88 00 00 a0 4d 00 80
       9.979e-42 -2.327e-41 4.8968e-41 -2.7847e-41
0002b0 06 59 00 00 46 61 00 00 4e 30 cc b1 65 26 00 80
       3.1936e-41 3.4895e-41 -5.942673e-09 -1.3773e-41
0002c0 a2 0b 00 80 e2 8e 00 80 f6 50 00 00 e3 8f 00 00
       -4.173e-42 -5.1257e-41 2.9043e-41 5.1617e-41
0002d0 83 9c 00 80 0e 58 00 80 e0 c1 7e b3 19 7b 00 80
       -5.6146e-41 -3.1588e-41 -5.931531e-08 -4.4159e-41
0002e0 65 95 00 00 38 03 00 80 df 11 00 80 d8 c4 00 80
       5.3593e-41 -1.155e-42 -6.411e-42 -7.0614e-41
0002f0 19 67 00 80 a1 15 00 80 e0 79 66 33 fb 6f 00 00
       -3.6984e-41 -7.759e-42 5.3661893e-08 4.0171e-41
000300 36 45 00 00 31 1d 00 00 92 19 00 00 8c 19 00 80
       2.4828e-41 1.0472e-41 9.173e-42 -9.164e-42
000310 f2 78 00 00 16 85 00 00 f0 52 d0 35 fa 81 00 80
       4.3387e-41 4.7742e-41 1.5521346e-06 -4.6627e-41
000320 c3 0c 00 00 48 1d 00 00 52 c1 00 80 7d 4d 00 00
       4.578e-42 1.0504e-41 -6.935e-41 2.7798e-41
000330 2e 11 00 80 61 35 00 00 94 c2 00 b4 ac 28 00 00
       -6.163e-42 1.9149e-41 -1.1991716e-07 1.459e-41
000340 93 04 00 00 da 1d 00 80 d5 0c 00 80 5d 3f 00 80
       1.641e-42 -1.0709e-41 -4.603e-42 -2.273e-41
000350 bb a1 00 00 d4 18 00 80 40 85 22 b4 f2 2f 00 80
       5.8018e-41 -8.907e-42 -1.5135902e-07 -1.72e-41
000360 54 16 00 00 92 2d 00 80 0c 1e 00 80 7d 3c 00 80
       8.01e-42 -1.6348e-41 -1.0779e-41 -2.1699e-41
000370 b4 80 00 80 46 9d 00 80 6f c9 ce af f5 1d 00 80
       -4.617e-41 -5.6419e-41 -3.761431e-10 -1.0747e-41
000380 8f 50 00 00 53 04 00 80 c3 8b 00 00 c0 bc 00 80
       2.8899e-41 -1.551e-42 5.0137e-41 -6.7711e-41
000390 b0 2e 00 00 13 5e 00 00 39 32 00 00 8c 6e 00 80
       1.6748e-41 3.3747e-41 1.8016e-41 -3.9657e-41
0003a0 a6 28 00 80 f2 22 00 80 f1 33 00 80 7e 05 00 80
       -1.4582e-41 -1.2536e-41 -1.8633e-41 -1.97e-42
0003b0 06 25 00 00 5e 41 00 80 1d 02 00 00 2f 40 00 00
       1.3282e-41 -2.345e-41 7.58e-43 2.3025e-41
0003c0 8d 44 00 80 a0 1d 00 00 83 aa 00 00 f2 6c 00 80
       -2.4591e-41 1.0627e-41 6.1168e-41 -3.9082e-41
0003d0 5f 7a 00 80 51 0d 00 80 ce 61 00 b0 9a 1c 00 00
       -4.3898e-41 -4.777e-42 -4.670512e-10 1.026e-41
0003e0 ad 6d 00 80 94 40 00 80 60 ae 00 00 b9 71 00 80
       -3.9344e-41 -2.3166e-41 6.2554e-41 -4.0796e-41
0003f0 3a 60 00 00 55 18 00 80 ec 2b 5d 35 a7 c0 00 00
       3.452e-41 -8.729e-42 8.239283e-07 6.911e-41

embedding_item_mf.weight f4 [8, 1024]
000000 18 43 00 00 e9 ac 00 80 ac 1e 00 80 cd 85 00 80
       2.4069e-41 -6.2028e-41 -1.1003e-41 -4.7999e-41
000010 e2 0d 00 00 9e 1a 00 00 31 84 00 80 fe aa 00 00
       4.98e-42 9.548e-42 -4.7421e-41 6.134e-41
000020 d3 4a 00 00 7a 47 00 80 75 7e 00 80 40 1d 00 00
       2.6842e-41 -2.5641e-41 -4.5364e-41 1.0493e-41
000030 00 52 00 80 fe 0f 00 80 c6 b5 00 00 9c 57 00 80
       -2.9416e-41 -5.737e-42 6.5208e-41 -3.1428e-41
000040 04 9d 00 80 19 1b 00 80 10 bb 00 00 ba 39 00 00
       -5.6327e-41 -9.721e-42 6.7105e-41 2.0708e-41
000050 11 5d 00 00 40 03 00 80 32 32 00 00 e6 05 00 80
       3.3386e-41 -1.166e-42 1.8007e-41 -2.116e-42
000060 f1 46 00 00 a0 14 00 80 24 89 00 00 b9 38 00 80
       2.5449e-41 -7.399e-42 4.9197e-41 -2.0348e-41
000070 56 04 00 00 8a 8a 00 00 22 10 00 80 ad 64 00 80
       1.555e-42 4.9698e-41 -5.787e-42 -3.6116e-41
000080 49 42 00 00 b4 b1 00 80 13 3c 00 80 59 36 00 00
       2.3779e-41 -6.3748e-41 -2.155e-41 1.9496e-41
000090 02 00 00 00 ea 4e 00 80 c8 be 00 80 eb 03 00 00
       3e-45 -2.8309e-41 -6.844e-41 1.406e-42
0000a0 29 6b 00 00 f1 61 00 00 d0 23 00 00 29 b0 00 00
       3.8442e-41 3.5135e-41 1.2847e-41 6.3194e-41
0000b0 6a 1c 00 80 6f 5e 00 80 d7 30 00 00 a9 26 00 80
       -1.0193e-41 -3.3876e-41 1.752e-41 -1.3869e-41
0000c0 87 5a 00 00 c0 b9 00 00 a4 74 00 80 0f 09 00 80
       3.2475e-41 6.6635e-41 -4.1843e-41 -3.25e-42
0000d0 c2 39 00 00 e1 10 00 80 1c 47 00 00 98 39 00 80
       2.072e-41 -6.055e-42 2.5509e-41 -2.0661e-41
0000e0 35 9e 00 00 38 38 00 80 c2 bd 00 80 f4 65 00 80
       5.6754e-41 -2.0167e-41 -6.8072e-41 -3.6574e-41
0000f0 b2 48 00 00 53 08 00 80 6c 4c 00 80 09 6f 00 00
       2.6078e-41 -2.986e-42 -2.7415e-41 3.9832e-41
000100 9b 4f 00 80 6a 44 00 80 22 0e 00 80 ce 73 00 80
       -2.8557e-41 -2.4542e-41 -5.07e-42 -4.1543e-41
000110 79 26 00 80 ea 14 00 80 28 15 00 80 24 63 00 00
       -1.3801e-41 -7.503e-42 -7.59e-42 3.5565e-41
000120 14 49 00 80 36 1f 00 80 e9 7f 00 80 3c 17 00 80
       -2.6215e-41 -1.1196e-41 -4.5886e-41 -8.335e-42
000130 b5 5c 00 80 90 ab 00 00 03 9f 00 80 f6 4b 00 80
       -3.3257e-41 6.1545e-41 -5.7043e-41 -2.725e-41
000140 74 06 00 80 a8 0d 00 80 c0 3d 00 00 99 35 00 00
       -2.315e-42 -4.899e-42 2.2152e-41 1.9227e-41
000150 5a bf 00 00 47 04 00 80 28 4e 00 00 2f 23 00 80
       6.8644e-41 -1.534e-42 2.8037e-41 -1.2621e-41
000160 df 2b 00 00 a2 11 00 00 d0 7d 00 80 38 1a 00 00
       1.5738e-41 6.325e-42 -4.5133e-41 9.406e-42
000170 1a 12 00 80 2b 01 00 80 d6 0f 00 80 89 88 00 00
       -6.494e-42 -4.19e-43 -5.681e-42 4.898e-41
000180 7d 6c 00 00 3c 27 00 00 aa 2f 00 80 60 50 00 80
       3.8918e-41 1.4075e-41 -1.7099e-41 -2.8833e-41
000190 3f 9f 00 80 ce 02 00 80 1f 45 00 80 82 66 00 00
       -5.7127e-41 -1.006e-42 -2.4796e-41 3.6773e-41
0001a0 64 85 00 80 c1 2b 00 00 81 55 00 80 2f 1e 00 00
       -4.7852e-41 1.5696e-41 -3.0673e-41 1.0828e-41
0001b0 20 26 00 80 db 32 00 80 b8 0b 00 80 b7 08 00 00
       -1.3677e-41 -1.8244e-41 -4.204e-42 3.126e-42
0001c0 17 04 00 80 ae 0f 00 00 89 28 00 00 d9 29 00 80
       -1.467e-42 5.625e-42 1.4541e-41 -1.5012e-41
0001d0 9d 2b 00 00 82 18 00 80 08 19 00 80 4a 4c 00 00
       1.5645e-41 -8.792e-42 -8.98e-42 2.7367e-41
0001e0 ff 33 00 00 7f a3 00 80 93 98 00 80 4c 2b 00 00
       1.8653e-41 -5.8651e-41 -5.4733e-41 1.5532e-41
0001f0 d4 a4 00 80 17 78 00 80 2e 51 00 00 c0 03 00 00
       -5.9129e-41 -4.308e-41 2.9122e-41 1.345e-42
000200 3a 85 00 00 3a 4f 00 00 d6 0f 00 00 e7 28 00 80
       4.7793e-41 2.8421e-41 5.681e-42 -1.4673e-41
000210 92 9a 00 00 a0 26 00 00 c8 62 00 80 6c 5b 00 80
       5.545e-41 1.3856e-41 -3.5436e-41 -3.2796e-41
000220 f0 77 00 00 aa 50 00 80 20 87 00 80 4f 74 00 00
       4.3025e-41 -2.8937e-41 -4.8474e-41 4.1724e-41
000230 d7 7f 00 80 29 4a 00 00 48 15 00 00 9f 58 00 80
       -4.586e-41 2.6604e-41 7.634e-42 -3.1791e-41
000240 63 68 00 00 cb 0e 00 00 6d 60 00 80 bc 5d 00 00
       3.7447e-41 5.307e-42 -3.4591e-41 3.3626e-41
000250 f9 72 00 80 6a 1b 00 80 ba 3c 00 80 4e b5 00 80
       -4.1244e-41 -9.834e-42 -2.1785e-41 -6.504e-41
000260 67 31 00 80 f6 6a 00 80 19 35 00 80 c9 46 00 00
       -1.7722e-41 -3.837e-41 -1.9048e-41 2.5393e-41
000270 55 64 00 80 44 b8 00 00 d7 2e 00 80 00 69 00 80
       -3.5992e-41 6.6102e-41 -1.6803e-41 -3.7667e-41
000280 56 0d 00 00 00 36 00 80 b5 4e 00 80 17 26 00 00
       4.784e-42 -1.9372e-41 -2.8235e-41 1.3664e-41
000290 94 1f 00 00 09 9b 00 00 d6 4b 00 80 29 1d 00 80
       1.1328e-41 5.5616e-41 -2.7205e-41 -1.046e-41
0002a0 34 4a 00 00 a5 56 00 80 02 2c 00 00 e3 54 00 80
       2.6619e-41 -3.1082e-41 1.5787e-41 -3.0452e-41
0002b0 c4 38 00 00 9a 03 00 00 3c 18 00 80 14 aa 00 80
       2.0364e-41 1.292e-42 -8.694e-42 -6.1013e-41
0002c0 04 08 00 80 d7 36 00 00 63 44 00 80 f5 a8 00 00
       -2.875e-42 1.9673e-41 -2.4533e-41 6.061e-41
0002d0 07 3c 00 00 1e 56 00 00 9f 28 00 00 76 ba 00 00
       2.1534e-41 3.0893e-41 1.4572e-41 6.689e-41
0002e0 2b 17 00 00 1d 26 00 00 75 37 00 80 28 66 00 00
       8.311e-42 1.3672e-41 -1.9894e-41 3.6647e-41
0002f0 e5 49 00 80 39 8f 00 80 6b 48 00 00 63 30 00 80
       -2.6508e-41 -5.1379e-41 2.5979e-41 -1.7358e-41
000300 69 86 00 00 28 59 00 00 b8 09 00 80 21 02 00 00
       4.8217e-41 3.1983e-41 -3.486e-42 7.64e-43
000310 23 58 00 80 70 3b 00 00 a8 bd 00 00 ed 02 00 00
       -3.1617e-41 2.1322e-41 6.8036e-41 1.05e-42
000320 03 32 00 80 b6 74 00 00 b6 03 00 80 e1 25 00 80
       -1.7941e-41 4.1868e-41 -1.331e-42 -1.3588e-41
000330 16 5b 00 00 86 bb 00 80 87 00 00 80 1d 4b 00 00
       3.2675e-41 -6.7271e-41 -1.89e-43 2.6946e-41
000340 79 89 00 80 cf 0c 00 80 45 33 00 00 e0 7a 00 00
       -4.9316e-41 -4.595e-42 1.8392e-41 4.4079e-41
000350 e1 5d 00 80 41 57 00 80 b8 95 00 00 33 0c 00 00
       -3.3677e-41 -3.1301e-41 5.3709e-41 4.376e-42
000360 1a 17 00 80 fc 0a 00 80 ed b4 00 00 25 b8 00 00
       -8.287e-42 -3.94e-42 6.4904e-41 6.6059e-41
000370 2c 47 00 80 0d c1 00 80 ab 67 00 00 e0 10 00 00
       -2.5532e-41 -6.9254e-41 3.7189e-41 6.054e-42
000380 3a 72 00 80 09 1b 00 00 0b 5c 00 80 f6 79 00 00
       -4.0977e-41 9.698e-42 -3.3019e-41 4.3751e-41
000390 5f 7e 00 00 40 75 00 80 3c bd 00 80 e3 ae 00 00
       4.5333e-41 -4.2061e-41 -6.7885e-41 6.2738e-41
0003a0 d1 2c 00 00 3b 58 00 00 a0 28 00 00 5f 7b 00 80
       1.6077e-41 3.1651e-41 1.4574e-41 -4.4257e-41
0003b0 81 30 00 00 62 45 00 80 1e 28 00 00 82 57 00 80
       1.74e-41 -2.489e-41 1.4391e-41 -3.1392e-41
0003c0 88 74 00 00 e7 a0 00 80 ed 54 00 00 79 42 00 80
       4.1804e-41 -5.7721e-41 3.0466e-41 -2.3846e-41
0003d0 c9 79 00 80 ba 28 00 80 28 24 00 80 b5 0f 00 80
       -4.3688e-41 -1.461e-41 -1.297e-41 -5.635e-42
0003e0 25 3e 00 00 d8 b3 00 00 f0 25 00 00 1a 1f 00 00
       2.2293e-41 6.4516e-41 1.361e-41 1.1157e-41
0003f0 9c 02 00 80 9e 54 00 00 4a 75 00 80 8c ab 00 80
       -9.36e-43 3.0355e-41 -4.2075e-41 -6.154e-41

embedding_item_mf.bias f4 [8]
000000 75 72 00 00 45 81 00 80 50 74 00 00 6f 9f 00 00
       4.106e-41 -4.6373e-41 4.1725e-41 5.7194e-41
000010 67 af 00 80 42 17 00 80 a0 ad 05 b2 e5 5c 00 80
       -6.2923e-41 -8.343e-42 -7.781097e-09 -3.3324e-41

fc_layers.0.weight f4 [64, 16]
000000 f8 67 d8 b5 f2 7c f3 35 96 89 a9 b3 c0 ac c2 35
       -1.6123513e-06 1.8141275e-06 -7.8947025e-08 1.4504403e-06
000010 34 52 51 b6 40 df 11 b2 11 2a 98 b8 54 bc 00 b5
       -3.1191275e-06 -8.490872e-09 -7.25576e-05 -4.795777e-07
000020 b0 92 c1 b8 b7 f5 8e 34 9a 6a 54 b5 d6 bb c0 b8
       -9.23028e-05 2.6628342e-07 -7.913128e-07 -9.1902606e-05
000030 59 e8 cb 39 fd 71 ac 34 15 45 75 33 84 bc 24 b3
       0.0003889229 3.2120434e-07 5.7106337e-08 -3.835568e-08
000040 c6 22 fc b6 e0 97 77 36 1a fd 97 36 75 8f 2e 34
       -7.5142334e-06 3.689427e-06 4.5296156e-06 1.6257202e-07
000050 7c a0 19 b1 fe de 94 32 68 a7 29 b1 b8 49 89 2f
       -2.2355655e-09 1.7330873e-08 -2.4687896e-09 2.4972535e-10
000060 a0 f0 49 af c6 40 ac ac b3 99 db b2 ce 7e 05 31
       -1.836633e-10 -4.8957253e-12 -2.556485e-08 1.9426127e-09
000070 00 ae ba 2f a8 be d4 ab 11 c4 ef ab 08 df 31 38
       3.3956837e-10 -1.5116424e-12 -1.7036391e-12 4.2407803e-05
000080 46 e8 81 37 b2 eb cf 36 2a 6b 9d b5 4a 72 5e 33
       1.548616e-05 6.1965193e-06 -1.17286e-06 5.1792348e-08
000090 d9 9e 2a 35 8e e8 b3 33 0e cb 4c 34 94 61 6a 34
       6.356109e-07 8.3776385e-08 1.9072851e-07 2.1828447e-07
0000a0 60 12 a3 2e 4c c6 27 28 b0 2a 80 2a 90 7a 8c 2f
       7.415646e-11 9.313361e-15 2.2766988e-13 2.5552938e-10
0000b0 1f af 31 af 4e 53 b0 a9 28 34 95 27 43 fd 2a a8
       -1.6160272e-10 -7.830421e-14 4.1412356e-15 -9.491813e-15
0000c0 5f 08 43 38 24 ea bd 36 d8 2d be b6 9e c6 a6 38
       4.649942e-05 5.6598965e-06 -5.667778e-06 7.952492e-05
0000d0 c1 e8 82 38 ca 95 94 38 a2 6b 6b 38 a6 04 75 b8
       6.242237e-05 7.08509e-05 5.6128607e-05 -5.841688e-05
0000e0 f8 9e fa 39 0c 8b 1a b6 70 6a 42 b4 7f 51 a1 bd
       0.00047802157 -2.3028724e-06 -1.810638e-07 -0.07876872
0000f0 fe e6 b3 3a 38 77 02 b6 87 d8 00 b4 e4 69 94 b5
       0.0013725457 -1.9440904e-06 -1.1999701e-07 -1.1057678e-06
000100 0a 4c a0 b4 70 89 cb b3 48 b4 92 b5 5e 51 cd b7
       -2.9857648e-07 -9.477924e-08 -1.0930316e-06 -2.4475794e-05
000110 64 11 7f b5 08 54 46 32 84 25 aa 36 04 5c 01 33
       -9.502021e-07 1.1544223e-08 5.070762e-06 3.011884e-08
000120 be 80 6b 30 98 eb 6f 2d 7d f7 b1 2c 22 5d 6f 32
       8.5675456e-10 1.3637889e-11 5.0581193e-12 1.3932807e-08
000130 d3 41 b2 31 bf f2 e6 ab cc 92 10 aa 1f b9 8b 2b
       5.187965e-09 -1.6409858e-12 -1.28407e-13 9.927925e-13
000140 48 95 27 b7 58 63 b4 b6 3c e4 c8 b2 5d d7 0a b8
       -9.988733e-06 -5.375983e-06 -2.3386853e-08 -3.3102337e-05
000150 d6 fd 75 33 0e 29 bf b7 ac 17 0c 33 88 59 12 b3
       5.727437e-08 -2.2788092e-05 3.261782e-08 -3.4074702e-08
000160 56 20 8d b2 08 18 b2 2c 5b c7 79 ad 85 a9 97 33
       -1.6429265e-08 5.0617323e-12 -1.4198277e-11 7.062321e-08
000170 3e 08 20 33 40 e5 54 2c 9c f5 82 2b 26 c0 34 ac
       3.72604e-08 3.0254271e-12 9.305226e-13 -2.5686202e-12
000180 f1 03 0b b6 30 e3 d4 b1 ac cb 6b b5 eb 6d 48 b6
       -2.0714908e-06 -6.1958403e-09 -8.7840704e-07 -2.9866303e-06
000190 9a 8a 37 b1 b0 c1 3f 34 a8 b0 62 b7 1c 8e d1 b6
       -2.670879e-09 1.7858724e-07 -1.3511781e-05 -6.245229e-06
0001a0 30 38 7c af fb b7 93 2b 79 ed 07 ab f7 6a 1a 31
       -2.2939228e-10 1.0496043e-12 -4.8291194e-13 2.2470752e-09
0001b0 06 6d fc 2f 8e 5a 5e aa 81 43 76 a9 1f 65 a0 a9
       4.5916e-10 -1.9748978e-13 -5.4681523e-14 -7.122969e-14
0001c0 9d 69 c2 b8 04 17 be b7 74 f4 a3 36 ee 61 cd b7
       -9.270313e-05 -2.2660483e-05 4.8862366e-06 -2.4483506e-05
0001d0 aa 3d d0 35 38 14 46 b4 20 e3 19 b7 84 13 4f 37
       1.5515154e-06 -1.8447543e-07 -9.172392e-06 1.2342705e-05
0001e0 6d b9 49 b7 8d 1b 6f 33 fd b7 1f b4 ea a4 e8 38
       -1.2023706e-05 5.567158e-08 -1.4874963e-07 0.0001109334
0001f0 fc 21 64 b7 8e ed 00 33 48 43 20 b2 b6 f4 a1 b1
       -1.3597772e-05 3.0018377e-08 -9.328524e-09 -4.713537e-09
000200 a8 61 46 b4 e4 c0 f5 b4 d4 01 85 b3 88 4a a2 32
       -1.8475714e-07 -4.5775153e-07 -6.193628e-08 1.8893175e-08
000210 1b 35 86 b7 ff 73 1a b9 e4 6d 32 b4 6c 3f d2 b5
       -1.5998774e-05 -0.00014729796 -1.661752e-07 -1.5664677e-06
000220 dc 72 28 ae 3d 38 fb 29 b2 46 ba a9 8e d9 bf 2f
       -3.8300793e-11 1.1156395e-13 -8.272323e-14 3.489728e-10
000230 88 b1 60 2e ce b6 ad 29 7c 75 65 a9 30 df 4f a7
       5.1089383e-11 7.714455e-14 -5.0950116e-14 -2.884801e-15
000240 44 20 9e af d9 87 b2 37 40 ab 36 33 d4 a4 38 b2
       -2.876296e-10 2.1282513e-05 4.2530928e-08 -1.0747687e-08
000250 de 83 7d b6 8a 9f 38 b6 74 34 f1 b3 a0 43 60 32
       -3.7776695e-06 -2.7511e-06 -1.1231978e-07 1.3053892e-08
000260 f8 c5 20 2f 1a 8e d3 2a 48 7c 52 a9 85 d9 9b 2f
       1.4622248e-10 3.7579732e-13 -4.6737164e-14 2.8348893e-10
000270 56 ed 10 af fa 37 4c a9 1c 56 33 a8 53 d0 84 a9
       -1.3181042e-10 -4.534565e-14 -9.955168e-15 -5.898116e-14
000280 de 9e bd b4 40 a0 b4 b4 30 14 75 34 4d 3a a6 b8
       -3.5319584e-07 -3.364421e-07 2.2824747e-07 -7.926356e-05
000290 c0 2e c6 b6 c9 1b e7 33 ea 89 8c b2 c8 06 a7 34
       -5.9063022e-06 1.076183e-07 -1.6360861e-08 3.1111108e-07
0002a0 44 38 36 af 81 0e 02 ab 20 c3 4c 2b c2 11 1f 30
       -1.6572793e-10 -4.6205406e-13 7.274615e-13 5.78691e-10
0002b0 f0 14 9a 2e 1d 73 62 2a 1e 77 54 aa 4c 28 fa a8
       7.0068285e-11 2.011277e-13 -1.887071e-13 -2.7773052e-14
0002c0 6a cc 02 b5 82 22 db b7 9c a2 b1 b3 76 81 90 36
       -4.8726235e-07 -2.6122903e-05 -8.271783e-08 4.3066057e-06
0002d0 38 d4 a1 b2 df 3a 51 31 dc 4e 53 b7 36 0c c3 b4
       -1.8839373e-08 3.0446967e-09 -1.2594941e-05 -3.6330465e-07
0002e0 18 a7 57 ae 55 bc c1 ac b2 b0 84 ab a8 6a 6e 2f
       -4.903375e-11 -5.506299e-12 -9.428207e-13 2.1683866e-10
0002f0 12 92 fa af d4 ec 46 2a 7e d0 9b 29 3c 43 fb 2a
       -4.5578524e-10 1.7668099e-13 6.9195504e-14 4.463321e-13
000300 a6 60 81 31 df 9e 22 38 6c 93 59 b5 80 f0 af b3
       3.765382e-09 3.877177e-05 -8.1053327e-07 -8.192819e-08
000310 00 9f 32 38 ae 72 d6 b2 ee 92 9f b2 cd 23 ec 32
       4.2586587e-05 -2.496503e-08 -1.8576852e-08 2.7490296e-08
000320 49 2d 89 b0 a5 39 4d 2c db 5c 2d 2c f0 e5 48 31
       -9.980933e-10 2.9164251e-12 2.4636324e-12 2.9234535e-09
000330 74 14 0d 31 3b d3 d6 2b a0 a4 b7 ab 0c bd c1 a9
       2.0529827e-09 1.5264243e-12 -1.3048625e-12 -8.603716e-14
000340 39 0d e7 b8 30 cf 90 32 76 f9 14 b2 ec 32 74 32
       -0.00011017401 1.6858024e-08 -8.671455e-09 1.4214248e-08
000350 a6 53 81 37 bc 91 f2 b2 78 ed 70 b5 f8 d5 35 b5
       1.541695e-05 -2.823878e-08 -8.975253e-07 -6.773912e-07
000360 e8 44 ba b6 6c 9e 4d 31 2c 6d 88 b2 db 71 ed 36
       -5.5512537e-06 2.9921479e-09 -1.588213e-08 7.076405e-06
000370 da 4e 3e 37 70 8b b2 36 c8 99 c2 2d 40 e7 b6 b0
       1.1343242e-05 5.321046e-06 2.2123539e-11 -1.3307968e-09
000380 8e 25 25 b6 7a 2e 82 b2 54 4a 40 b6 9e aa 4a b4
       -2.4608776e-06 -1.5155127e-08 -2.8653494e-06 -1.8874786e-07
000390 8b 5b 9a b7 b2 5b 2d 34 48 b0 4e 35 ac 83 6a 37
       -1.8400859e-05 1.6145239e-07 7.6997503e-07 1.3978144e-05
0003a0 60 25 d3 b0 c4 6d 89 2b 51 ec 02 2c 1b f1 a8 b0
       -1.5362893e-09 9.764902e-13 1.8605293e-12 -1.2292135e-09
0003b0 66 9b 73 31 24 9c 0f ac 40 3b 79 28 1a 73 42 ac
       3.5449488e-09 -2.0408198e-12 1.38351245e-14 -2.7632952e-12
0003c0 b8 d0 3b 33 32 f3 47 31 92 0a 06 34 fd 0c 13 32
       4.372916e-08 2.9096552e-09 1.2483568e-07 8.559479e-09
0003d0 f9 a3 de 30 d7 96 22 39 ff f0 a3 33 9b a9 93 b1
       1.619923e-09 0.00015505716 7.634116e-08 -4.297545e-09
0003e0 9d cb a1 b5 4c 2f 2b 30 ae 91 2b b1 88 24 3e b4
       -1.2054694e-06 6.227665e-10 -2.4966584e-09 -1.7708419e-07
0003f0 7a a8 84 36 3a c2 94 30 ae 9a 29 b9 fc 93 eb af
       3.95352e-06 1.082362e-09 -0.00016174719 -4.28514e-10

fc_layers.0.bias f4 [64]
000000 8e b8 3a 38 78 f5 82 2d be 8a 6e af c7 43 19 3c
       4.4517736e-05 1.4888299e-11 -2.1695265e-10 0.009354538
000010 b6 73 1c b2 d2 05 bd 32 58 c0 8c 2f 19 e2 8e 38
       -9.106705e-09 2.2005143e-08 2.560252e-10 6.8132016e-05
000020 6a 43 a9 ae e8 1e 52 af 3d 60 ff 2f d2 e3 48 b0
       -7.6972054e-11 -1.9110369e-10 4.645261e-10 -7.308333e-10
000030 45 96 dd b0 de 73 df 35 25 e7 05 b1 c2 cc 7f 34
       -1.6122575e-09 1.6648517e-06 -1.9485438e-09 2.3823216e-07
000040 49 cc 32 3d 78 e5 70 32 2b 69 78 38 04 83 1f 38
       0.043651853 1.4022014e-08 5.9225753e-05 3.8030572e-05
000050 51 95 5a b3 38 69 1e b0 59 7d d2 38 98 03 02 b6
       -5.0892883e-08 -5.762959e-10 0.00010036928 -1.9373601e-06
000060 53 8b f9 36 65 88 4e 36 94 ce 01 37 4e ac 06 3d
       7.4369977e-06 3.0775784e-06 7.737097e-06 0.032879166
000070 70 be 93 31 f8 d5 1f 3d fb d1 43 35 e0 8b 90 3c
       4.2999133e-09 0.039022416 7.294872e-07 0.017644823
000080 2e f9 16 36 1d 7d 98 b1 5c 60 f4 37 18 19 f1 ba
       2.2496783e-06 -4.438006e-09 2.9131937e-05 -0.0018394319
000090 68 f1 97 35 7d db 2e b8 0f 6c 0b b5 40 80 8d 34
       1.1320635e-06 -4.1689247e-05 -5.193878e-07 2.635661e-07
0000a0 16 26 61 38 b9 21 3b 3d 4a 7a 13 b0 d3 78 db b1
       5.367965e-05 0.045686457 -5.365207e-10 -6.387475e-09
0000b0 7b c3 4d ae c9 e2 41 30 e3 66 7f 3c 13 7b 54 3d
       -4.6785225e-11 7.053527e-10 0.015588495 0.051875185
0000c0 27 65 4b 35 ee c9 e5 ac 7a b8 9e 3c 6a c1 cd 3c
       7.577059e-07 -6.53099e-12 0.019375075 0.025116641
0000d0 90 9e 9f 30 b1 ee bd af bc 38 64 b0 20 2c 3e 2b
       1.1613839e-09 -3.45485e-10 -8.302654e-10 6.7562796e-13
0000e0 9d ee 1a b1 2b 6e 06 39 f3 d3 8a 32 fe 18 b9 31
       -2.2545585e-09 0.00012820277 1.6161698e-08 5.38705e-09
0000f0 46 ae 10 3d b6 a7 02 30 96 62 78 38 96 10 1a b1
       0.03532245 4.7532056e-10 5.9219623e-05 -2.2419377e-09

fc_layers.1.weight f4 [32, 64]
000000 76 4a c9 38 e1 ce fe 2f e8 a3 24 ae f2 2a cd 3c
       9.598296e-05 4.6349327e-10 -3.743486e-11 0.025044892
000010 75 f6 a2 31 14 86 9b 32 e2 cc e1 2f 22 28 ba 37
       4.7428395e-09 1.8105347e-08 4.107284e-10 2.2191616e-05
000020 c3 58 2a af 14 60 be af 8a 89 0a b0 00 f9 04 2d
       -1.5492944e-10 -3.4629066e-10 -5.039956e-10 7.55862e-12
000030 fc aa cc 30 56 80 ec 35 06 64 17 31 aa fa b3 34
       1.489155e-09 1.7620721e-06 2.2030249e-09 3.352373e-07
000040 f6 2f fd 3d 6b 0c 2e 32 1a f8 da 37 cb 43 ce 37
       0.123626634 1.01309565e-08 2.6103156e-05 2.4588682e-05
000050 a6 f5 c0 32 d2 e1 81 30 83 a1 18 38 7b 74 5b 35
       2.246345e-08 9.450167e-10 3.6390044e-05 8.175336e-07
000060 c0 38 61 36 e6 47 88 35 2a 83 3a 36 b3 c9 bc 3d
       3.3560646e-06 1.0153715e-06 2.7792507e-06 0.092181586
000070 72 98 f7 b1 14 4d e2 3d c1 e2 c2 34 d4 48 47 3d
       -7.205977e-09 0.11049858 3.63003e-07 0.04865344
000080 53 54 b1 35 92 ed 22 31 81 7f a6 37 08 0a 8f 3a
       1.3212069e-06 2.3709146e-09 1.9848116e-05 0.0010913024
000090 59 11 71 35 14 b0 10 38 01 f1 19 b4 e8 25 0c 36
       8.980474e-07 3.449626e-05 -1.4336912e-07 2.088369e-06
0000a0 27 2a 62 37 53 98 04 3e af b6 6b 31 1a 9a db 31
       1.3480464e-05 0.12948732 3.4300844e-09 6.391258e-09
0000b0 83 7c ac 2f 84 40 e7 30 04 3f 2f 3d f8 49 16 3e
       3.137509e-10 1.6825799e-09 0.042784706 0.14676654
0000c0 a5 a4 26 35 40 e2 9e 2f a9 78 5b 3d c0 87 8f 3d
       6.207941e-07 2.8900793e-10 0.053581867 0.07008314
0000d0 42 05 83 2f 30 e7 e7 ae ba 26 55 30 57 ef 32 2e
       2.3832497e-10 -1.0545731e-10 7.754398e-10 4.068509e-11
0000e0 46 6f 3d b1 c6 48 7d 38 6b 9a 23 32 d1 71 8d 31
       -2.7566371e-09 6.0387676e-05 9.522959e-09 4.1165795e-09
0000f0 ee 70 cc 3d 60 c1 ff af b9 ec 82 37 da 81 e8 30
       0.09982477 -4.652163e-10 1.560744e-05 1.6917128e-09
000100 17 94 93 2e 0d 06 02 36 1a db ed 26 30 c4 dd b2
       6.711092e-11 1.9375032e-06 1.6504566e-15 -2.5817002e-08
000110 18 83 1c aa b8 3a bb b3 e0 7d 14 25 10 af d5 2e
       -1.3901066e-13 -8.718547e-08 1.2879602e-16 9.717216e-11
000120 b8 95 84 a6 b6 49 4a a7 cc 16 00 26 70 65 19 a8
       -9.199921e-16 -2.807309e-15 4.4439817e-16 -8.515202e-15
000130 44 06 d2 27 84 41 65 33 90 28 80 29 5e 94 6c b1
       5.82935e-15 5.3377804e-08 5.6913784e-14 -3.4426857e-09
000140 3e e6 03 b3 b5 7e 3c 28 d8 3d b8 b6 00 a2 0f 2f
       -3.071022e-08 1.0463572e-14 -5.490827e-06 1.3063328e-10
000150 36 cf 88 29 ee 44 42 34 c4 58 4a b2 80 ed 8d 32
       6.0755586e-14 1.8092734e-07 -1.17781305e-08 1.6522563e-08
000160 f1 52 21 33 78 98 f5 32 4d c7 32 b8 ab 27 50 b3
       3.756117e-08 2.8591089e-08 -4.262412e-05 -4.846485e-08
000170 62 57 12 a9 48 ea 4d b3 e8 99 81 b5 f6 34 16 b3
       -3.2494305e-14 -4.794336e-08 -9.656042e-07 -3.4972764e-08
000180 48 89 a1 b8 7a 6a 32 b8 70 df df 34 fc f3 a6 b0
       -7.702649e-05 -4.253767e-05 4.169956e-07 -1.2147434e-09
000190 02 4e c9 2c 48 48 47 35 13 cb 18 2d 12 f1 9c 2e
       5.721424e-12 7.423846e-07 8.685291e-12 7.1368814e-11
0001a0 a1 a1 05 33 5b 09 bd b2 ba 0f 03 b6 00 e5 91 28
       3.1113476e-08 -2.200675e-08 -1.9529675e-06 1.6197547e-14
0001b0 45 7f 42 36 06 ce ca 33 6a 6f 88 b3 50 08 3d b0
       2.8982333e-06 9.4438334e-08 -6.3532596e-08 -6.876961e-10
0001c0 24 b2 97 32 e3 bf ab a6 fb da 1f b2 77 c5 f3 b1
       1.7659723e-08 -1.191752e-15 -9.3048085e-09 -7.09468e-09
0001d0 60 a3 a1 26 68 93 6a 27 2f 04 3b 36 38 c8 c4 24
       1.1215902e-15 3.2553933e-15 2.7867607e-06 8.5340634e-17
0001e0 12 fc b1 a6 29 73 02 b8 2e 6b 08 28 68 98 01 32
       -1.2350166e-15 -3.1101667e-05 7.5727575e-15 7.543441e-09
0001f0 fa 70 63 b3 02 76 ce b7 f0 b4 36 39 ea f4 6e b3
       -5.2955308e-08 -2.4612065e-05 0.00017424277 -5.563644e-08
000200 4f 34 27 38 7d 1f 81 30 c8 d3 fc 2c 01 e1 58 3c
       3.986462e-05 9.394935e-10 7.1857832e-12 0.013237239
000210 e8 56 aa 31 48 f8 36 31 68 18 f2 2f 36 62 a1 b7
       4.9575313e-09 2.6625617e-09 4.4036885e-10 -1.9238429e-05
000220 92 e7 2b 2f b6 df 22 2f a4 e3 b3 2f ce 82 f5 2f
       1.563463e-10 1.4813292e-10 3.272166e-10 4.4658183e-10
000230 ee a3 67 30 40 4a 82 b5 65 1c b8 2e 34 2f 81 34
       8.427027e-10 -9.707364e-07 8.372395e-11 2.4062467e-07
000240 fa be 8b 3d 78 a9 b1 31 75 b4 a5 b7 f4 f0 2e b6
       0.06823535 5.1706444e-09 -1.9753565e-05 -2.6068274e-06
000250 de e3 46 b1 bf 38 cf 2f f3 e7 e4 b7 f6 8d ac 35
       -2.894232e-09 3.76934e-10 -2.7287728e-05 1.2856315e-06
000260 17 a5 1b 36 e6 80 91 b5 7c f2 26 36 d0 85 4f 3d
       2.3192895e-06 -1.0840856e-06 2.4877072e-06 0.050664723
000270 e6 03 96 31 cd 6f 79 3d df 8e 5f b4 69 fc d7 3c
       4.3660178e-09 0.060897637 -2.082047e-07 0.026365476
000280 6d c6 e9 b4 67 64 14 31 26 07 8c b6 8c d1 e9 38
       -4.3544006e-07 2.1593907e-09 -4.1731573e-06 0.00011149337
000290 ba c2 90 35 27 9a 72 38 2a c0 22 35 99 fc 94 b5
       1.0785509e-06 5.784086e-05 6.062934e-07 -1.1100375e-06
0002a0 3f 1b 87 b7 1d 75 92 3d a2 29 18 b0 da 2e 23 32
       -1.6105942e-05 0.07151244 -5.535644e-10 9.4985015e-09
0002b0 77 c4 f0 2e 35 9f e8 2f f6 2e bd 3c 35 41 a6 3d
       1.09488356e-10 4.2313678e-10 0.023093682 0.08117906
0002c0 45 9e 80 34 d4 ad 45 2f 2f 82 ee 3c 60 fa 1c 3d
       2.3957014e-07 1.7978802e-10 0.02911481 0.038324714
0002d0 ea f7 0a 2f 0b ea 98 2f 33 70 0c 30 db 81 c8 2d
       1.2639104e-10 2.7814936e-10 5.109115e-10 2.2795035e-11
0002e0 1a 7a db 30 72 df 4b 38 76 66 e7 31 e4 49 51 31
       1.596905e-09 4.860707e-05 6.7346333e-09 3.0455505e-09
0002f0 0e 02 61 3d af 69 20 2f 3e 5b 84 b7 f6 a7 00 31
       0.0549336 1.4589462e-10 -1.5778114e-05 1.8721926e-09
000300 85 48 00 00 6b a1 00 80 15 9b 00 00 5d 27 00 80
       2.6015e-41 -5.7906e-41 5.5633e-41 -1.4121e-41
000310 d1 4b 00 80 a7 1c 00 00 61 29 00 00 f7 28 00 00
       -2.7198e-41 1.0279e-41 1.4844e-41 1.4695e-41
000320 e6 59 00 00 8a 1d 00 00 e5 81 00 00 5f 6a 00 00
       3.225e-41 1.0597e-41 4.6597e-41 3.8159e-41
000330 e3 09 00 80 f4 79 00 80 16 1e 00 80 00 99 00 00
       -3.547e-42 -4.3749e-41 -1.0793e-41 5.4886e-41
000340 82 6a 00 00 ec 63 00 80 a8 05 00 80 f1 98 00 80
       3.8208e-41 -3.5845e-41 -2.029e-42 -5.4865e-41
000350 21 a1 00 80 1d 2d 00 80 b1 13 00 80 36 52 00 80
       -5.7802e-41 -1.6184e-41 -7.064e-42 -2.9492e-41
000360 6b 8b 00 80 c0 24 00 80 f9 7c 00 00 8c 29 00 80
       -5.0014e-41 -1.3183e-41 4.4832e-41 -1.4904e-41
000370 19 a5 00 00 74 0f 00 00 21 79 00 80 fb 5e 00 80
       5.9226e-41 5.544e-42 -4.3453e-41 -3.4073e-41
000380 c4 94 00 80 ee 68 00 80 8b 47 00 80 8a b4 00 00
       -5.3367e-41 -3.7642e-41 -2.5665e-41 6.4765e-41
000390 04 62 00 80 b7 2d 00 80 15 41 00 80 7e 88 00 80
       -3.5161e-41 -1.64e-41 -2.3347e-41 -4.8964e-41
0003a0 82 20 00 80 9b 0f 00 80 b9 73 00 80 df 7d 00 80
       -1.1662e-41 -5.598e-42 -4.1513e-41 -4.5154e-41
0003b0 94 09 00 00 84 0e 00 00 96 a2 00 80 34 33 00 80
       3.436e-42 5.207e-42 -5.8325e-41 -1.8368e-41
0003c0 6e 82 00 00 2a 80 00 80 31 96 00 80 25 08 00 80
       4.679e-41 -4.5977e-41 -5.3879e-41 -2.922e-42
0003d0 6a a2 00 80 25 c1 00 80 1d 68 00 80 58 28 00 80
       -5.8263e-41 -6.9287e-41 -3.7349e-41 -1.4473e-41
0003e0 40 61 00 00 11 b4 00 80 b3 41 00 00 00 33 00 80
       3.4887e-41 -6.4596e-41 2.3568e-41 -1.8295e-41
0003f0 3d 31 00 00 cb 1d 00 80 1a 35 00 80 ea bf 00 80
       1.7663e-41 -1.0688e-41 -1.9049e-41 -6.8846e-41

fc_layers.1.bias f4 [32]
000000 00 eb 53 3c 32 f4 e8 32 1e c1 e0 3b fe ac 00 80
       0.012934446 2.7119402e-08 0.006858959 -6.2058e-41
000010 ef 02 00 00 01 76 22 3b d3 72 00 80 78 35 77 35
       1.052e-42 0.0024789574 -4.1191e-41 9.209248e-07
000020 54 17 74 32 15 fa 66 b6 08 c8 cb b1 30 4f 67 3c
       1.42079735e-08 -3.4418238e-06 -5.9308185e-09 0.014118001
000030 be 87 85 3c 19 5d 00 80 c4 3a 45 3b b1 0d 00 80
       0.016300078 -3.3397e-41 0.0030094841 -4.912e-42
000040 46 06 00 80 49 ba 49 32 a4 2b 00 00 a8 68 20 b0
       -2.25e-42 1.1742096e-08 1.5655e-41 -5.8356386e-10
000050 21 53 00 80 33 66 7a 3c 9d 11 00 80 22 a0 84 3c
       -2.9821e-41 0.015283155 -6.318e-42 0.016189639
000060 a5 33 b0 3b ce 39 00 00 6a f6 6d 35 14 01 9f 3c
       0.0053772503 2.0736e-41 8.864796e-07 0.019409694
000070 9b 4f 9e 35 47 b8 32 32 91 47 31 38 8a 11 00 80
       1.1795086e-06 1.04028635e-08 4.226674e-05 -6.292e-42
