neural-collaborative-filtering/src/checkpoints/pretrain_neumf_factor8neg4_Epoch116_HR1.0000_NDCG0.8394.model (torch, 579115 bytes, 15 tensors)

embedding_user_mlp.weight f4 [7700, 8]
00000000: 4043 16b3 65d0 162e 8407 80b0 c6dd 88b1
00000010: d0eb 9cb6 fe71 95ac ba64 a8b3 00f9 26b1
00000020: 2de1 cbb6 e086 caab 4df2 a52b 479d 7b31
00000030: 2a84 822c 0a95 edb4 84cf 1eb4 0af3 97b1
00000040: b6db 482d f61a 19ac 2a7d 89b2 3093 b6b8
00000050: ca25 c638 1068 9f2c f4ca a9b2 75e6 ffad
00000060: 1c74 e2b5 df2b 8a35 18cc 8834 a898 e3b5
00000070: aeef d437 b0c3 63b8 c61e b3b4 6c39 9436
00000080: d46a 66b7 d058 f7b7 20a0 3c38 e032 96b7
00000090: 66e1 9437 c087 a437 4070 7f36 2074 3937
000000a0: cc91 48b8 58fb 1eb5 ebc1 d035 a81c 63b6
000000b0: 2413 bf37 c984 9137 5acb 53b7 eaea b8b7
000000c0: 7b95 0b38 1654 a037 ce07 be37 f7c9 bc37
000000d0: de9a 58b8 66f9 2fb8 88bc 88b7 def5 02b8
000000e0: 16bf edb7 ba8e 1238 a4ee c137 407c 6538
000000f0: 4131 eab6 9cb9 1f37 a8d9 96b6 7c2e 3db7
00000100: 18e8 6bb7 585d bb37 ad6f 12b8 a836 af37
00000110: 4c38 6937 245c 90b7 ac41 80b8 c00a 1db6
00000120: b14c 7835 6cff 7d37 4c8e 26b7 fa83 8d35
00000130: 903b c2b4 45b5 6a38 205c 5336 8bcb abb3
00000140: 82da 1138 74f4 8db7 6db5 8eb8 c726 1838
00000150: 4b21 a3b7 d8ae 9734 5db9 9ab7 8ccf fcb7
00000160: 7a3a e334 134a 9d37 de39 d537 86d9 f8b6
00000170: 6c72 96b6 90c8 61b6 3c06 0db7 22ee d3b6
00000180: 3698 8eb5 10aa 47b8 3a8a ebb6 82bd 4738
00000190: 2d5c 0c38 39cc bcb3 4891 da36 70f2 6338
000001a0: 3ee3 d2b5 6c2b a836 a799 8a36 86bc 88b8
000001b0: 922b 87b6 9cd1 47b3 c4a0 1a38 088b d4b6
000001c0: e48d a537 68a6 aa37 1631 82b6 0315 04b7
000001d0: 5c01 1db8 747b b5b8 3199 7b38 48b2 aeb6
000001e0: 7434 0bac 07d4 9cad bc6e c1b2 fdde e533
000001f0: 6cfb bd2d 9093 aa28 b006 efb7 d00e 1a35
00000200: b336 63b8 4c9c a1b5 fe49 8937 4c15 efb7
00000210: d472 0637 1e51 c8b7 281a f3b7 627f 7737
00000220: 8297 7a38 b854 c736 2845 ea35 20cb 3337
00000230: cf09 34b6 060e 82b8 38d1 23b8 c1d1 3738
00000240: 28eb bd34 ad68 09b7 962c 85b7 ee0e adb6
00000250: b64d f537 decf e536 ca8e 4136 8451 08b7
00000260: e15b 1536 0971 9bb7 ca27 0237 d0e1 0b36
00000270: f352 8337 2deb 2cb8 ba8a 5a36 57d8 7fb6
00000280: 6ecc 1537 f079 d236 f824 33b7 7895 e434
00000290: 0a28 a1b6 d3c7 7038 3fdf 23b7 372a a0b6
000002a0: cc5a 4937 88a7 08b8 3803 7ab7 125d 7eb8
000002b0: 1455 ee37 4e7b 15b4 4c2d 98b7 c4a1 8136
000002c0: 8715 1a38 6a98 8ab5 ec82 f7b6 aed3 e637
000002d0: a0db b9b5 2ff3 2eb7 be49 8436 d2c3 8db7
000002e0: 70d0 3a38 3a39 55b8 271f d0b6 7b10 dbb4
000002f0: 2ce7 be38 103e feb4 9603 3136 d32e 98b7
00000300: f2a8 4cb7 7a7c bfb6 db0c 3937 b280 0637
00000310: eedb 05b7 c104 62b6 38ae 0536 b866 1437
00000320: 56d4 6c37 e0d7 dc36 6820 9137 8e73 86b8
00000330: 23b8 0936 492f 40b5 87b1 9436 170f f4b6
00000340: b8ce d037 a4be 65b6 204e 6cb8 88be 8db5
00000350: 606c 8137 5224 3bb7 d4db a237 22b0 8db7
00000360: 0792 8638 beea b4b5 2287 9837 700d f535
00000370: e8c9 e436 ccf8 1ab6 1604 14b7 b4da 2436
00000380: 8b60 e3ac 74bc 4432 f723 1eb9 3ab2 bf2c
00000390: 5811 83b2 85eb 272e 3215 26ab 1483 b133
000003a0: 8588 1334 429f a4b1 dc03 ebad c04b b72e
000003b0: c3fe 2ab4 1fb2 252a b822 aa2d da2c 60a9
000003c0: 47e4 29b8 07a4 d436 a8f2 6c38 17cb 8d37
000003d0: ec40 c935 846b a237 9aa3 cb36 fab3 3db7
000003e0: dc92 21b7 6c77 2135 b067 9d35 a25f 09b6
000003f0: f821 3138 2e71 bb36 3084 a637 78e5 2136
-3.498576e-08 3.4291143e-11 -9.315362e-10 -3.9833337e-09 -4.6766145e-06 -4.2474904e-12 -7.841432e-08 -2.429772e-09
-6.0760854e-06 -1.4390399e-12 1.1791207e-12 3.661471e-09 3.7094954e-12 -4.425313e-07 -1.479039e-07 -4.4223087e-09
1.1417469e-11 -2.1757574e-12 -1.6005817e-08 -8.705852e-05 9.4484145e-05 4.530605e-12 -1.9766482e-08 -2.9092487e-11
-1.6872104e-06 1.0294569e-06 2.5480472e-07 -1.6957247e-06 2.5383979e-05 -5.4303266e-05 -3.336374e-07 4.4174285e-06
-1.3733941e-05 -2.9486051e-05 4.497182e-05 -1.7905084e-05 1.7747934e-05 1.9613537e-05 3.80633e-06 1.1053897e-05
-4.78195e-05 -5.922534e-07 1.5553645e-06 -3.3842316e-06 2.2777887e-05 1.734718e-05 -1.26239265e-05 -2.20439e-05
3.3279397e-05 1.9112642e-05 2.26534e-05 2.2505394e-05 -5.1642644e-05 -4.195552e-05 -1.6300255e-05 -3.1223397e-05
-2.8341583e-05 3.4942037e-05 2.3118519e-05 5.471357e-05 -6.9794773e-06 9.520354e-06 -4.495687e-06 -1.1276101e-05
-1.406113e-05 2.2335604e-05 -3.491312e-05 2.0887077e-05 1.390099e-05 -1.7209044e-05 -6.115748e-05 -2.340108e-06
9.24988e-07 1.5139445e-05 -9.927502e-06 1.0543729e-06 -3.6178653e-07 5.5958768e-05 3.1495074e-06 -7.999832e-08
3.4774195e-05 -1.6922342e-05 -6.804881e-05 3.627574e-05 -1.9446617e-05 2.8253157e-07 -1.8444547e-05 -3.0137388e-05
4.2324592e-07 1.8750352e-05 2.5418525e-05 -7.416299e-06 -4.483669e-06 -3.3644355e-06 -8.4057065e-06 -6.3160123e-06
-1.0624124e-06 -4.760368e-05 -7.0196375e-06 4.762179e-05 3.3464446e-05 -8.79158e-08 6.5138192e-06 5.4346805e-05
-1.5712355e-06 5.011845e-06 4.130608e-06 -6.5201006e-05 -4.028386e-06 -4.6523937e-08 3.6866186e-05 -6.3342777e-06
1.9735606e-05 2.0343068e-05 -3.8800163e-06 -7.872705e-06 -3.7432983e-05 -8.6537475e-05 5.9985734e-05 -5.2063588e-06
-1.9782205e-12 -1.7829306e-11 -2.2518513e-08 1.0704205e-07 2.1598466e-11 1.8937786e-14 -2.8494134e-05 5.7391026e-07
-5.417196e-05 -1.2040923e-06 1.6366128e-05 -2.8500937e-05 8.013758e-06 -2.3879631e-05 -2.8980037e-05 1.4752006e-05
5.9745747e-05 5.9405247e-06 1.7454486e-06 1.0716525e-05 -2.68278e-06 -6.201495e-05 -3.905708e-05 4.382595e-05
3.5375092e-07 -8.190208e-06 -1.5875597e-05 -5.15754e-06 2.9242463e-05 6.8489308e-06 2.8842355e-06 -8.125211e-06
2.225621e-06 -1.8530076e-05 7.757868e-06 2.0844054e-06 1.5655043e-05 -4.122702e-05 3.256528e-06 -3.8123887e-06
8.92869e-06 6.272683e-06 -1.0677839e-05 4.2577062e-07 -4.802835e-06 5.740656e-05 -9.767536e-06 -4.773286e-06
1.2001674e-05 -3.2580952e-05 -1.4901911e-05 -6.0644998e-05 2.8411429e-05 -1.3921564e-07 -1.8140905e-05 3.8633316e-06
3.673651e-05 -1.032616e-06 -7.376415e-06 2.7516708e-05 -1.3847493e-06 -1.0427829e-05 3.9424913e-06 -1.6899696e-05
4.453998e-05 -5.0836454e-05 -6.2025097e-06 -4.080392e-07 9.102965e-05 -4.7356343e-07 2.6377143e-06 -1.8141616e-05
-1.2198683e-05 -5.7067346e-06 1.1029852e-05 8.016987e-06 -7.978624e-06 -3.3679391e-06 1.9919953e-06 8.8454035e-06
1.41161345e-05 6.581642e-06 1.7300437e-05 -6.411142e-05 2.0521773e-06 -7.159438e-07 4.4314106e-06 -7.2735234e-06
2.4891793e-05 -3.4234627e-06 -5.6339544e-05 -1.056077e-06 1.5428464e-05 -1.1154525e-05 1.941427e-05 -1.6890528e-05
6.4168176e-05 -1.3479364e-06 1.8182738e-05 1.8257833e-06 6.8184345e-06 -2.3092607e-06 -8.822439e-06 2.4565206e-06
-6.4624465e-12 1.1451551e-08 -0.00015081452 5.4483336e-12 -1.5258294e-08 3.8180587e-11 -5.900446e-13 8.266048e-08
1.3740107e-07 -4.7911337e-09 -2.671812e-11 8.3353324e-11 -1.5925166e-07 1.4716742e-13 1.934218e-11 -4.9776894e-14
-4.050534e-05 6.3371876e-06 5.6492776e-05 1.690308e-05 1.4994562e-06 1.936197e-05 6.068917e-06 -1.1307182e-05
-9.630541e-06 6.0150956e-07 1.1727589e-06 -2.0470256e-06 4.2231724e-05 5.58621e-06 1.9850297e-05 2.4124438e-06

embedding_item_mlp.weight f4 [8, 1024]
00000000: 19cf 41b4 6c65 9a34 6623 25b4 3377 3935
00000010: ac7c ef34 e19f e6b4 4ef0 dbb4 ce2f ccb4
00000020: 73b8 5a34 c32b 20b4 69fa ffb3 50e0 2f35
00000030: adc9 17b4 935f 3034 bc9f 8734 c892 9c34
00000040: 46f7 41b5 6cfb 33b4 12df 06b4 9f5f fbb2
00000050: 20ac 6831 e670 0db4 00b0 72b0 7e87 7034
00000060: d998 6d33 1f18 79b4 0e9f 3134 fee6 73b3
00000070: 9bc3 42b2 2f42 38b5 7ece 0b35 e4fe 7d33
00000080: b864 2234 8d76 ce32 fc9a 6b33 26fd bab3
00000090: 3cd7 0eb4 8383 f5b3 083f 87b4 8680 9d34
000000a0: dc3c 72b4 bc21 adb4 ca39 d3b4 5e14 4834
000000b0: 3887 6434 427b 18b3 2a42 2a34 2303 35b4
000000c0: e03c b731 7cb6 f4b2 6d2e afb4 4961 0f34
000000d0: 5574 d833 87a6 a0b4 b9f5 4a34 c8b4 2c33
000000e0: 9ec2 e033 2596 02b5 2b17 4c34 c44c 9c34
000000f0: 3bae 9e32 96c9 d733 a15c e3b4 1bd8 4e34
00000100: 0b1b 8834 8444 adb3 6b45 cdb3 4d62 e1b4
00000110: f633 0eb5 2833 0334 e4f9 2534 b208 1034
00000120: 9a2c b1b3 3208 4f34 60de 0334 06a7 7cb4
00000130: 9fbe 12b5 6fad 2a34 8cb6 e1b2 281f 0633
00000140: 1a7e c3b4 0b24 9db4 9843 0fb4 74dc b834
00000150: 1229 7e34 40a3 bab3 83ad 39b4 d6d6 47b4
00000160: 6a62 b9b4 7530 c434 5941 b834 3693 6333
00000170: c89e 80b4 a2f7 57b4 28e1 79b2 7981 68b3
00000180: 0ad2 1a34 0d47 94b4 5586 3db4 13f2 1cb4
00000190: 85e9 62b4 f9ca a2b4 7c98 87b4 f127 0935
000001a0: 8ef8 3233 1542 0534 3c9f 0ab4 fde9 32b4
000001b0: 9af3 9634 a8b7 d333 a0fe 9fb2 dd13 9cb4
000001c0: 4266 aa34 7ac6 8fb3 e7e6 9fb4 3bd6 f0b4
000001d0: 1f63 6d33 1c19 ce33 eaf9 fe33 8086 deb3
000001e0: 581b 18b4 382a f1b4 19a4 9d32 ef9f 26b4
000001f0: c455 0d32 a2cb 80b3 3a1d 0134 1bc6 0fb4
00000200: fc8a 8f34 d419 6f34 b0bb beb3 3291 9cb4
00000210: c1b4 5a34 a279 a1b2 82dd acb3 420f 3034
00000220: e486 25b4 0920 cd34 f190 b434 5a32 de34
00000230: d712 77b4 a671 a2b4 a6f9 85b3 18d8 03b4
00000240: 679d 9b34 acb6 ab34 5f86 2fb4 fcc4 30b3
00000250: b771 6f34 3c88 99b4 a907 d234 fc4d 6533
00000260: ef6c 1234 ed7e 3234 7d90 5533 fb6f b1b3
00000270: f4fb 9034 c8e4 aa34 f18b ccb4 098f e634
00000280: 0b8d 0f34 1dcd 51b4 4c07 a334 0df1 8633
00000290: d4b2 2fb4 c072 5434 53fd 97b4 e1ca 9cb4
000002a0: 140b 48b4 8839 ba34 41e8 6b34 8c8c 28b4
000002b0: 3c5a 24b4 844f 42b3 0b97 60b5 bb8b c0b4
000002c0: 6c37 b9b4 6b57 a734 2c43 73b4 dccc ab33
000002d0: fb21 b234 2e44 10b4 e9d3 cfb4 c09f c6b3
000002e0: 80aa 2832 8a51 9eb4 f98a 9434 6a10 e4b4
000002f0: 7a60 4db4 27be 55b2 76e8 fcb3 36f4 8cb4
00000300: 2b80 52b4 b46b ddb3 a5b4 30b4 e8c8 8c34
00000310: 4aa5 b133 1d1c 5eb4 12f5 2e34 fabb 9a34
00000320: e0df 2db4 902c 0eb4 73bc 10b5 4869 6eb4
00000330: 3c87 65b4 88a2 c7b4 26a8 ab34 0efe 9c34
00000340: fd29 ab32 6bf5 0834 849d c032 2b84 5834
00000350: b24b b534 40f4 c1b4 3e61 dc34 9a77 4e34
00000360: 6eef e1b2 3113 c034 ee9b e7b4 278a b734
00000370: 46a7 e433 8c5a 0933 a641 90b3 3562 0eb4
00000380: dc18 3eb5 003a 85b0 87b3 36b4 14a6 6fb4
00000390: 6c60 a3b4 2953 eeb4 5001 6734 1455 91b4
000003a0: 34e4 55b4 e4b1 2fb4 ba50 f2b4 7de1 bd33
000003b0: 024a 47b4 b8a3 9434 5800 4434 798f 2a34
000003c0: 7c2c a834 4a97 66b4 7ab1 d3b4 541c c033
000003d0: 40b3 6234 7ec2 a934 5818 ff34 2e84 af34
000003e0: 7ddd 82b4 ee60 d1b4 4c60 6634 1632 45b5
000003f0: a21a 8234 21fc 1535 3a6c cb34 c92c 3c34
-1.8049867e-07 2.875853e-07 -1.53797e-07 6.909133e-07 4.460793e-07 -4.2957166e-07 -4.0966773e-07 -3.8032744e-07
2.0369934e-07 -1.4917082e-07 -1.1919912e-07 6.5519e-07 -1.413634e-07 1.6426047e-07 2.5261932e-07 2.9164062e-07
-7.2257933e-07 -1.6762141e-07 -1.2560875e-07 -2.926373e-08 3.3858285e-09 -1.317272e-07 -8.82892e-10 2.2401034e-07
5.5319877e-08 -2.3198707e-07 1.6542273e-07 -5.6787933e-08 -1.1336762e-08 -6.864165e-07 5.208202e-07 5.9137975e-08
1.5124067e-07 2.4035467e-08 5.485616e-08 -8.7073474e-08 -1.3303082e-07 -1.14326234e-07 -2.519157e-07 2.9337042e-07
-2.2560147e-07 -3.2248306e-07 -3.934386e-07 1.8633861e-07 2.1283347e-07 -3.550236e-08 1.5856554e-07 -1.685808e-07
5.3329217e-09 -2.8488323e-08 -3.263007e-07 1.3353305e-07 1.00794445e-07 -2.9923487e-07 1.890211e-07 4.021129e-08
1.04662135e-07 -4.8647263e-07 1.9007409e-07 2.911312e-07 1.8472852e-08 1.0048386e-07 -4.234944e-07 1.9263864e-07
2.535165e-07 -8.068403e-08 -9.5586834e-08 -4.198104e-07 -5.2974735e-07 1.2218936e-07 1.5457732e-07 1.3414208e-07
-8.250318e-08 1.9281359e-07 1.2281225e-07 -2.3530092e-07 -5.466663e-07 1.5895579e-07 -2.627646e-08 3.1227643e-08
-3.641333e-07 -2.9269754e-07 -1.3342503e-07 3.4433072e-07 2.3670535e-07 -8.690995e-08 -1.7292591e-07 -1.8611476e-07
-3.453054e-07 3.6543102e-07 3.4320217e-07 5.2986444e-08 -2.3957386e-07 -2.0113524e-07 -1.4544902e-08 -5.4134464e-08
1.441878e-07 -2.7618844e-07 -1.7650866e-07 -1.4616698e-07 -2.1132844e-07 -3.0322533e-07 -2.5256656e-07 5.10946e-07
4.1669914e-08 1.2410631e-07 -1.291018e-07 -1.6662666e-07 2.811692e-07 9.85886e-08 -1.8625826e-08 -2.9071717e-07
3.173937e-07 -6.695059e-08 -2.9784061e-07 -4.4859357e-07 5.5271013e-08 9.59719e-08 1.1873256e-07 -1.0362146e-07
-1.4166051e-07 -4.4920466e-07 1.8351829e-08 -1.5518138e-07 8.226781e-09 -5.997505e-08 1.2024694e-07 -1.3389983e-07
2.673695e-07 2.2268006e-07 -8.8817046e-08 -2.9162908e-07 2.036859e-07 -1.8798179e-08 -8.049666e-08 1.6396828e-07
-1.5415895e-07 3.8207534e-07 3.3633071e-07 4.1387358e-07 -2.3010521e-07 -3.0257542e-07 -6.238706e-08 -1.227894e-07
2.8985525e-07 3.1984143e-07 -1.6347029e-07 -4.115735e-08 2.2299979e-07 -2.8597594e-07 3.9121122e-07 5.3389144e-08
1.363694e-07 1.6623717e-07 4.972434e-08 -8.262574e-08 2.700541e-07 3.1831428e-07 -3.8099782e-07 4.294491e-07
1.3369224e-07 -1.9539262e-07 3.0366425e-07 6.283708e-08 -1.6363202e-07 1.9785784e-07 -2.831026e-07 -2.9204878e-07
-1.8630482e-07 3.468706e-07 2.1970574e-07 -1.569735e-07 -1.5306517e-07 -4.5241464e-08 -8.36663e-07 -3.5864454e-07
-3.449926e-07 3.116978e-07 -2.2655576e-07 8.000072e-08 3.3179808e-07 -1.3435849e-07 -3.871094e-07 -9.249152e-08
9.817654e-09 -2.948912e-07 2.7668264e-07 -4.2480252e-07 -1.9127211e-07 -1.2441467e-08 -1.1776949e-07 -2.625472e-07
-1.9604401e-07 -1.03107055e-07 -1.6456995e-07 2.622321e-07 8.272271e-08 -2.0685589e-07 1.6294169e-07 2.8821506e-07
-1.6193326e-07 -1.3240992e-07 -5.391841e-07 -2.2203778e-07 -2.1376485e-07 -3.7184896e-07 3.1973576e-07 2.9242113e-07
1.9926114e-08 1.275527e-07 2.2423372e-08 2.016465e-07 3.3768953e-07 -3.6126767e-07 4.1048946e-07 1.9228756e-07
-2.6302327e-08 3.577675e-07 -4.3140557e-07 3.4186925e-07 1.0647504e-07 3.198015e-08 -6.717464e-08 -1.3260508e-07
-7.081669e-07 -9.693508e-10 -1.7015383e-07 -2.2319028e-07 -3.0431272e-07 -4.4391462e-07 2.1514029e-07 -2.7070257e-07
-1.992019e-07 -1.6362861e-07 -4.513475e-07 8.8420144e-08 -1.8560243e-07 2.768627e-07 1.8254048e-07 1.5884679e-07
3.1324805e-07 -2.1475458e-07 -3.9430944e-07 8.9458496e-08 2.1113101e-07 3.1620215e-07 4.7515164e-07 3.2692463e-07
-2.437554e-07 -3.899981e-07 2.1455452e-07 -7.3461104e-07 2.4233765e-07 5.587372e-07 3.7890442e-07 1.7525157e-07

embedding_item_mlp.bias f4 [8]
00000000: 79ff 2fb4 9d8c 04b0 dcb4 452f d094 d5bd
00000010: a882 98b3 4c4c a1b6 0d50 3036 18a9 1a38
-1.6391085e-07 -4.8221144e-10 1.79813e-10 -0.10428774 -7.101818e-08 -4.807056e-06 2.627264e-06 3.6873942e-05

embedding_user_mf.weight f4 [7700, 8]
00000000: ac97 0000 6460 0000 8e3f 0080 de4f 0000
00000010: 6738 0000 0409 0080 8f6f 0080 e78a 0080
00000020: fe13 0080 cc03 0080 08af 0000 0509 0000
00000030: 7300 0080 0374 0080 501f 0080 5b62 0080
00000040: aa0a 0000 093f 0080 5039 ad34 3232 0000
00000050: 771d 0080 2e32 0000 2317 0000 4049 0080
00000060: 0305 0000 9baf 0000 9106 0000 e48a 0080
00000070: 763e 0080 d81a 0080 044b 0fb0 c721 0080
00000080: 2e3c 0000 522d 0080 e22e 0080 2103 0000
00000090: f3bf 0080 3670 0000 a66f 2830 fa06 0080
000000a0: 4a17 0000 fb73 0000 f415 0080 e927 0000
000000b0: ab1c 0000 ba5d 8cae 54ec beb1 b35d 0000
000000c0: 040a 0080 7815 0000 de7d 0080 4a75 0080
000000d0: 7066 0080 bf15 0080 464c 8432 5f6c 0000
000000e0: 9c9c 0080 0120 0080 5e07 0080 620a 0080
000000f0: 604d 0000 a62f 0080 07c3 02b7 c717 0000
00000100: 1f15 0080 7e72 0000 3b11 0000 1cb3 0080
00000110: f114 0080 461a 0000 5849 58b1 fc55 0000
00000120: 311b 0000 c901 0000 5f28 0000 b224 0000
00000130: 0d30 0000 e210 0080 1ec3 f7b7 ea3f 0000
00000140: 8ba8 0000 5072 0080 0b40 0000 1149 0000
00000150: 310e 0000 4c1c 0080 0aa1 8fb0 df30 0080
00000160: 6d10 0000 904c 0000 4689 0080 ec8a e1ab
00000170: bf3c 0080 1066 0080 029e 9934 6e00 0000
00000180: a610 0080 6407 0080 c47d 0000 2304 0000
00000190: 140e 0000 7ab8 0000 2c61 5932 3922 0080
000001a0: ec07 0080 427d 0080 6940 0080 970c 0000
000001b0: d60a 0080 361b 0000 6ea1 3ab7 107d 0080
000001c0: a426 0080 fb19 0000 2302 0000 ad03 0080
000001d0: 0919 0000 b224 0080 c687 ceb3 a71d 0000
000001e0: cb7f 0080 3b76 0080 d343 0000 fd26 0080
000001f0: aa7c 0000 a261 0080 8163 0080 a04f 0080
00000200: 5713 0000 4153 0080 f84b 0080 9821 0000
00000210: 3308 0000 ee0a 0080 96a1 dab4 8607 0080
00000220: 3616 0080 5b16 0080 503b 0080 540f 0000
00000230: 3418 0080 400c 6ab3 9ac8 7bb1 4d6e 0000
00000240: 6e11 0000 113d 0080 d457 0080 8906 0080
00000250: 6120 0000 d595 0000 bc3f dfb7 9e53 0080
00000260: 1902 0000 fc75 0000 2590 0000 db1d 0000
00000270: 4e18 0dad db04 0080 4645 9531 5b15 0000
00000280: e9a3 0080 6074 0000 683a 0080 338b 0080
00000290: 1c2b 0000 c302 0000 ec91 492f c6af 0080
000002a0: d11b 0000 de40 0080 8188 0000 a04d 0080
000002b0: 0659 0000 4661 0000 2404 0e31 6526 0080
000002c0: a20b 0080 e28e 0080 f650 0000 e38f 0000
000002d0: 839c 0080 0e58 0080 70e1 55b4 197b 0080
000002e0: 6595 0000 3803 0080 df11 0080 d8c4 0080
000002f0: 1967 0080 a115 0080 4972 be2e fb6f 0000
00000300: 3645 0000 311d 0000 9219 0000 8c19 0080
00000310: f278 0000 1685 0000 28ee ac36 fa81 0080
00000320: c30c 0000 481d 0000 52c1 0080 7d4d 0000
00000330: 2e11 0080 6135 0000 d3bd 36b1 ac28 0000
00000340: 9304 0000 da1d 0080 d50c 0080 5d3f 0080
00000350: bba1 0000 d418 0080 6777 632f f22f 0080
00000360: 5416 0000 922d 0080 0c1e 0080 7d3c 0080
00000370: b480 0080 469d 0080 d50c b6b1 f51d 0080
00000380: 8f50 0000 5304 0080 c38b 0000 c0bc 0080
00000390: b02e 0000 135e 0000 3932 0000 8c6e 0080
000003a0: a628 0080 f222 0080 f133 0080 7e05 0080
000003b0: 0625 0000 5e41 0080 1d02 0000 2f40 0000
000003c0: 8d44 0080 a01d 0000 83aa 0000 f26c 0080
000003d0: 5f7a 0080 510d 0080 74c6 9b30 9a1c 0000
000003e0: ad6d 0080 9440 0080 60ae 0000 b971 0080
000003f0: 3a60 0000 5518 0080 587f e0af a7c0 0000
5.441e-41 3.4578e-41 -2.2799e-41 2.8651e-41 2.0233e-41 -3.234e-42 -4.002e-41 -4.9829e-41
-7.172e-42 -1.362e-42 6.279e-41 3.236e-42 -1.61e-43 -4.1617e-41 -1.1233e-41 -3.5283e-41
3.826e-42 -2.2613e-41 3.226546e-07 1.8007e-41 -1.057e-41 1.8001e-41 8.3e-42 -2.6277e-41
1.798e-42 6.2995e-41 2.356e-42 -4.9825e-41 -2.2407e-41 -9.63e-42 -5.21297e-10 -1.2117e-41
2.1588e-41 -1.6258e-41 -1.6818e-41 1.122e-42 -6.8858e-41 4.0254e-41 6.1276706e-10 -2.503e-42
8.355e-42 4.1606e-41 -7.875e-42 1.4317e-41 1.0284e-41 -6.383112e-11 -5.556595e-09 3.3613e-41
-3.593e-42 7.702e-42 -4.5153e-41 -4.2075e-41 -3.6748e-41 -7.801e-42 1.5401508e-08 3.8876e-41
-5.6181e-41 -1.1481e-41 -2.643e-42 -3.725e-42 2.7757e-41 -1.7093e-41 -7.794012e-06 8.53e-42
-7.577e-42 4.1072e-41 6.181e-42 -6.4252e-41 -7.512e-42 9.425e-42 -3.1473828e-09 3.0845e-41
9.754e-42 6.4e-43 1.4482e-41 1.3164e-41 1.7237e-41 -6.056e-42 -2.9535553e-05 2.2928e-41
6.0462e-41 -4.1008e-41 2.2974e-41 2.6211e-41 5.091e-42 -1.0151e-41 -1.0450389e-09 -1.7532e-41
5.892e-42 2.7465e-41 -4.9244e-41 -1.602577e-12 -2.1792e-41 -3.6613e-41 2.8613437e-07 1.54e-43
-5.972e-42 -2.651e-42 4.5116e-41 1.484e-42 5.05e-42 6.6178e-41 1.2653157e-08 -1.2277e-41
-2.842e-42 -4.4934e-41 -2.3106e-41 4.516e-42 -3.887e-42 9.761e-42 -1.112405e-05 -4.4864e-41
-1.3862e-41 9.32e-42 7.67e-43 -1.319e-42 8.981e-42 -1.3164e-41 -9.6173196e-08 1.0637e-41
-4.5843e-41 -4.2413e-41 2.4331e-41 -1.3986e-41 4.4721e-41 -3.5024e-41 -3.5695e-41 -2.8564e-41
6.938e-42 -2.9866e-41 -2.7252e-41 1.2051e-41 2.941e-42 -3.921e-42 -4.0723233e-07 -2.699e-42
-7.968e-42 -8.02e-42 -2.1277e-41 5.499e-42 -8.682e-42 -5.4493512e-08 -3.6639336e-09 3.9568e-41
6.253e-42 -2.1906e-41 -3.1507e-41 -2.344e-42 1.1615e-41 5.375e-41 -2.661335e-05 -2.9996e-41
7.52e-43 4.2325e-41 5.171e-41 1.071e-41 -8.020319e-12 -1.742e-42 4.344346e-09 7.661e-42
-5.88e-41 4.1747e-41 -2.0952e-41 -4.9935e-41 1.5465e-41 9.91e-43 1.8332685e-10 -6.3056e-41
9.979e-42 -2.327e-41 4.8968e-41 -2.7847e-41 3.1936e-41 3.4895e-41 2.0666073e-09 -1.3773e-41
-4.173e-42 -5.1257e-41 2.9043e-41 5.1617e-41 -5.6146e-41 -3.1588e-41 -1.9919185e-07 -4.4159e-41
5.3593e-41 -1.155e-42 -6.411e-42 -7.0614e-41 -3.6984e-41 -7.759e-42 8.660501e-11 4.0171e-41
2.4828e-41 1.0472e-41 9.173e-42 -9.164e-42 4.3387e-41 4.7742e-41 5.1537245e-06 -4.6627e-41
4.578e-42 1.0504e-41 -6.935e-41 2.7798e-41 -6.163e-42 1.9149e-41 -2.6592388e-09 1.459e-41
1.641e-42 -1.0709e-41 -4.603e-42 -2.273e-41 5.8018e-41 -8.907e-42 2.068795e-10 -1.72e-41
8.01e-42 -1.6348e-41 -1.0779e-41 -2.1699e-41 -4.617e-41 -5.6419e-41 -5.298356e-09 -1.0747e-41
2.8899e-41 -1.551e-42 5.0137e-41 -6.7711e-41 1.6748e-41 3.3747e-41 1.8016e-41 -3.9657e-41
-1.4582e-41 -1.2536e-41 -1.8633e-41 -1.97e-42 1.3282e-41 -2.345e-41 7.58e-43 2.3025e-41
-2.4591e-41 1.0627e-41 6.1168e-41 -3.9082e-41 -4.3898e-41 -4.777e-42 1.1334138e-09 1.026e-41
-3.9344e-41 -2.3166e-41 6.2554e-41 -4.0796e-41 3.452e-41 -8.729e-42 -4.0835846e-10 6.911e-41

embedding_item_mf.weight f4 [8, 1024]
00000000: 1843 0000 e9ac 0080 ac1e 0080 cd85 0080
00000010: e20d 0000 9e1a 0000 3184 0080 feaa 0000
00000020: d34a 0000 7a47 0080 757e 0080 401d 0000
00000030: 0052 0080 fe0f 0080 c6b5 0000 9c57 0080
00000040: 049d 0080 191b 0080 10bb 0000 ba39 0000
00000050: 115d 0000 4003 0080 3232 0000 e605 0080
00000060: f146 0000 a014 0080 2489 0000 b938 0080
00000070: 5604 0000 8a8a 0000 2210 0080 ad64 0080
00000080: 4942 0000 b4b1 0080 133c 0080 5936 0000
00000090: 0200 0000 ea4e 0080 c8be 0080 eb03 0000
000000a0: 296b 0000 f161 0000 d023 0000 29b0 0000
000000b0: 6a1c 0080 6f5e 0080 d730 0000 a926 0080
000000c0: 875a 0000 c0b9 0000 a474 0080 0f09 0080
000000d0: c239 0000 e110 0080 1c47 0000 9839 0080
000000e0: 359e 0000 3838 0080 c2bd 0080 f465 0080
000000f0: b248 0000 5308 0080 6c4c 0080 096f 0000
00000100: 9b4f 0080 6a44 0080 220e 0080 ce73 0080
00000110: 7926 0080 ea14 0080 2815 0080 2463 0000
00000120: 1449 0080 361f 0080 e97f 0080 3c17 0080
00000130: b55c 0080 90ab 0000 039f 0080 f64b 0080
00000140: 7406 0080 a80d 0080 c03d 0000 9935 0000
00000150: 5abf 0000 4704 0080 284e 0000 2f23 0080
00000160: df2b 0000 a211 0000 d07d 0080 381a 0000
00000170: 1a12 0080 2b01 0080 d60f 0080 8988 0000
00000180: 7d6c 0000 3c27 0000 aa2f 0080 6050 0080
00000190: 3f9f 0080 ce02 0080 1f45 0080 8266 0000
000001a0: 6485 0080 c12b 0000 8155 0080 2f1e 0000
000001b0: 2026 0080 db32 0080 b80b 0080 b708 0000
000001c0: 1704 0080 ae0f 0000 8928 0000 d929 0080
000001d0: 9d2b 0000 8218 0080 0819 0080 4a4c 0000
000001e0: ff33 0000 7fa3 0080 9398 0080 4c2b 0000
000001f0: d4a4 0080 1778 0080 2e51 0000 c003 0000
00000200: 3a85 0000 3a4f 0000 d60f 0000 e728 0080
00000210: 929a 0000 a026 0000 c862 0080 6c5b 0080
00000220: f077 0000 aa50 0080 2087 0080 4f74 0000
00000230: d77f 0080 294a 0000 4815 0000 9f58 0080
00000240: 6368 0000 cb0e 0000 6d60 0080 bc5d 0000
00000250: f972 0080 6a1b 0080 ba3c 0080 4eb5 0080
00000260: 6731 0080 f66a 0080 1935 0080 c946 0000
00000270: 5564 0080 44b8 0000 d72e 0080 0069 0080
00000280: 560d 0000 0036 0080 b54e 0080 1726 0000
00000290: 941f 0000 099b 0000 d64b 0080 291d 0080
000002a0: 344a 0000 a556 0080 022c 0000 e354 0080
000002b0: c438 0000 9a03 0000 3c18 0080 14aa 0080
000002c0: 0408 0080 d736 0000 6344 0080 f5a8 0000
000002d0: 073c 0000 1e56 0000 9f28 0000 76ba 0000
000002e0: 2b17 0000 1d26 0000 7537 0080 2866 0000
000002f0: e549 0080 398f 0080 6b48 0000 6330 0080
00000300: 6986 0000 2859 0000 b809 0080 2102 0000
00000310: 2358 0080 703b 0000 a8bd 0000 ed02 0000
00000320: 0332 0080 b674 0000 b603 0080 e125 0080
00000330: 165b 0000 86bb 0080 8700 0080 1d4b 0000
00000340: 7989 0080 cf0c 0080 4533 0000 e07a 0000
00000350: e15d 0080 4157 0080 b895 0000 330c 0000
00000360: 1a17 0080 fc0a 0080 edb4 0000 25b8 0000
00000370: 2c47 0080 0dc1 0080 ab67 0000 e010 0000
00000380: 3a72 0080 091b 0000 0b5c 0080 f679 0000
00000390: 5f7e 0000 4075 0080 3cbd 0080 e3ae 0000
000003a0: d12c 0000 3b58 0000 a028 0000 5f7b 0080
000003b0: 8130 0000 6245 0080 1e28 0000 8257 0080
000003c0: 8874 0000 e7a0 0080 ed54 0000 7942 0080
000003d0: c979 0080 ba28 0080 2824 0080 b50f 0080
000003e0: 253e 0000 d8b3 0000 f025 0000 1a1f 0000
000003f0: 9c02 0080 9e54 0000 4a75 0080 8cab 0080
2.4069e-41 -6.2028e-41 -1.1003e-41 -4.7999e-41 4.98e-42 9.548e-42 -4.7421e-41 6.134e-41
2.6842e-41 -2.5641e-41 -4.5364e-41 1.0493e-41 -2.9416e-41 -5.737e-42 6.5208e-41 -3.1428e-41
-5.6327e-41 -9.721e-42 6.7105e-41 2.0708e-41 3.3386e-41 -1.166e-42 1.8007e-41 -2.116e-42
2.5449e-41 -7.399e-42 4.9197e-41 -2.0348e-41 1.555e-42 4.9698e-41 -5.787e-42 -3.6116e-41
2.3779e-41 -6.3748e-41 -2.155e-41 1.9496e-41 3e-45 -2.8309e-41 -6.844e-41 1.406e-42
3.8442e-41 3.5135e-41 1.2847e-41 6.3194e-41 -1.0193e-41 -3.3876e-41 1.752e-41 -1.3869e-41
3.2475e-41 6.6635e-41 -4.1843e-41 -3.25e-42 2.072e-41 -6.055e-42 2.5509e-41 -2.0661e-41
5.6754e-41 -2.0167e-41 -6.8072e-41 -3.6574e-41 2.6078e-41 -2.986e-42 -2.7415e-41 3.9832e-41
-2.8557e-41 -2.4542e-41 -5.07e-42 -4.1543e-41 -1.3801e-41 -7.503e-42 -7.59e-42 3.5565e-41
-2.6215e-41 -1.1196e-41 -4.5886e-41 -8.335e-42 -3.3257e-41 6.1545e-41 -5.7043e-41 -2.725e-41
-2.315e-42 -4.899e-42 2.2152e-41 1.9227e-41 6.8644e-41 -1.534e-42 2.8037e-41 -1.2621e-41
1.5738e-41 6.325e-42 -4.5133e-41 9.406e-42 -6.494e-42 -4.19e-43 -5.681e-42 4.898e-41
3.8918e-41 1.4075e-41 -1.7099e-41 -2.8833e-41 -5.7127e-41 -1.006e-42 -2.4796e-41 3.6773e-41
-4.7852e-41 1.5696e-41 -3.0673e-41 1.0828e-41 -1.3677e-41 -1.8244e-41 -4.204e-42 3.126e-42
-1.467e-42 5.625e-42 1.4541e-41 -1.5012e-41 1.5645e-41 -8.792e-42 -8.98e-42 2.7367e-41
1.8653e-41 -5.8651e-41 -5.4733e-41 1.5532e-41 -5.9129e-41 -4.308e-41 2.9122e-41 1.345e-42
4.7793e-41 2.8421e-41 5.681e-42 -1.4673e-41 5.545e-41 1.3856e-41 -3.5436e-41 -3.2796e-41
4.3025e-41 -2.8937e-41 -4.8474e-41 4.1724e-41 -4.586e-41 2.6604e-41 7.634e-42 -3.1791e-41
3.7447e-41 5.307e-42 -3.4591e-41 3.3626e-41 -4.1244e-41 -9.834e-42 -2.1785e-41 -6.504e-41
-1.7722e-41 -3.837e-41 -1.9048e-41 2.5393e-41 -3.5992e-41 6.6102e-41 -1.6803e-41 -3.7667e-41
4.784e-42 -1.9372e-41 -2.8235e-41 1.3664e-41 1.1328e-41 5.5616e-41 -2.7205e-41 -1.046e-41
2.6619e-41 -3.1082e-41 1.5787e-41 -3.0452e-41 2.0364e-41 1.292e-42 -8.694e-42 -6.1013e-41
-2.875e-42 1.9673e-41 -2.4533e-41 6.061e-41 2.1534e-41 3.0893e-41 1.4572e-41 6.689e-41
8.311e-42 1.3672e-41 -1.9894e-41 3.6647e-41 -2.6508e-41 -5.1379e-41 2.5979e-41 -1.7358e-41
4.8217e-41 3.1983e-41 -3.486e-42 7.64e-43 -3.1617e-41 2.1322e-41 6.8036e-41 1.05e-42
-1.7941e-41 4.1868e-41 -1.331e-42 -1.3588e-41 3.2675e-41 -6.7271e-41 -1.89e-43 2.6946e-41
-4.9316e-41 -4.595e-42 1.8392e-41 4.4079e-41 -3.3677e-41 -3.1301e-41 5.3709e-41 4.376e-42
-8.287e-42 -3.94e-42 6.4904e-41 6.6059e-41 -2.5532e-41 -6.9254e-41 3.7189e-41 6.054e-42
-4.0977e-41 9.698e-42 -3.3019e-41 4.3751e-41 4.5333e-41 -4.2061e-41 -6.7885e-41 6.2738e-41
1.6077e-41 3.1651e-41 1.4574e-41 -4.4257e-41 1.74e-41 -2.489e-41 1.4391e-41 -3.1392e-41
4.1804e-41 -5.7721e-41 3.0466e-41 -2.3846e-41 -4.3688e-41 -1.461e-41 -1.297e-41 -5.635e-42
2.2293e-41 6.4516e-41 1.361e-41 1.1157e-41 -9.36e-43 3.0355e-41 -4.2075e-41 -6.154e-41

embedding_item_mf.bias f4 [8]
00000000: 7572 0000 4581 0080 5074 0000 6f9f 0000
00000010: 67af 0080 4217 0080 d2a4 50b7 e55c 0080
4.106e-41 -4.6373e-41 4.1725e-41 5.7194e-41 -6.2923e-41 -8.343e-42 -1.2436141e-05 -3.3324e-41

fc_layers.0.weight f4 [64, 16]
00000000: 8025 4630 da00 0eb5 6066 f133 1005 7f38
00000010: 8909 ec31 6ab6 6233 a702 4b2f 28e0 8732
00000020: b037 87aa b02b 81a7 32e3 2f27 94d3 b932
00000030: 2981 782c 6458 5a30 30b2 07ac a66b 16b0
00000040: 50a1 04b1 c037 a531 7754 01b5 5cc7 e2b1
00000050: 88b6 2f32 e0b7 9eb1 3611 d3b2 0869 4a37
00000060: 3870 93ae 12fc 902a e2e8 272a 1e40 5533
00000070: 681a c82c 04db 1735 10ce c637 d609 1d33
00000080: e16d 0135 4a07 4333 04f3 53b2 d8fa 64b4
00000090: c4f5 e8ad 0bd3 53b5 04da 8a33 90c7 1db4
000000a0: 9349 6aac 4c84 1532 8062 3f23 71ee f432
000000b0: 5e34 6235 3168 2c2e 1435 18b7 f5a0 51b0
000000c0: 50b6 67b7 ee56 88b8 60cc 58b8 cdd0 87b8
000000d0: f73b 59b7 0cd7 d1b7 3e7e 1138 5c8e cbb8
000000e0: ed4d 04b5 632c 7831 4603 47af a20f 0ebe
000000f0: 7b62 0334 e601 26b9 2a27 1536 cd01 3db9
00000100: 9f39 09ae 5506 7337 7649 69b2 fab5 e032
00000110: a0da 12b6 d73f 9bb8 0a9c 0532 8fa5 02ae
00000120: e8d9 cda6 7098 0ea2 429b e9a2 2e0b 1b2f
00000130: 4c19 2b27 9a48 d0ab 7da5 e528 aa5d 53ac
00000140: 8a60 d6b8 a860 c6b2 88d3 7c36 85ee 2930
00000150: e235 a9b3 fea9 e830 28d4 a0b4 da88 57b5
00000160: d9db c0aa 8a03 0727 42a9 9e26 6036 9331
00000170: 8b42 17a9 691b c6af ee49 b52a 7f9c 0daf
00000180: d6b3 5831 2af5 2d33 19de 4831 cd05 2bb3
00000190: 0816 cdb1 d6a8 412f 405e 24b6 0e98 69af
000001a0: b0bb 66ad 26e9 2429 f204 d730 83c3 dcb3
000001b0: 1424 cb2c c86f c8b7 9c19 c62c 72a1 c1b0
000001c0: abcb 18b3 b2b5 0e38 1c71 7cb8 9cd8 3ab4
000001d0: 14ab 0737 7b39 b533 18c2 af36 ec8b 2f33
000001e0: bc71 1029 ebd8 2627 de02 76a5 1f01 1e30
000001f0: 17dc 41ab 7873 b72e 1647 f0ab 0dd5 112f
00000200: 9ca2 d538 d0ec 17b8 d4a6 ef37 38f4 8fb6
00000210: 9602 8135 0896 f334 f4f5 44b5 0a39 1b36
00000220: e698 1a2a a166 9927 7ce7 36a5 efc5 8631
00000230: 9aa8 b0aa 0081 cd30 ccc9 542c ae72 0eb0
00000240: 162a c432 2af8 c0af ce16 0133 aa90 0b34
00000250: f84c 1130 f411 a4b2 125e 1f32 beb1 5a37
00000260: 56cd 41a9 9a62 e527 b887 4b25 a401 0c32
00000270: dca9 0eaa e29b 362e 9ad5 cf33 8c66 312f
00000280: 25ff 0536 d813 2a33 30d9 f1b6 12ba a633
00000290: 013d 4ead a286 a834 2e9a 26b7 4098 8132
000002a0: 04d1 682a af7f 1cb5 e02a 0ba5 e005 0db0
000002b0: e9d3 d7a8 c8a7 80ad a4dd f72a 9321 f42c
000002c0: 7796 28b7 3d45 1834 acbb f6b3 b912 c2b3
000002d0: 9c36 9134 c3c9 5b38 c4e0 afb5 d590 d0b4
000002e0: deac 8328 d14d 3da5 ad2e d123 0aeb f22c
000002f0: 0d13 35a9 32a4 01ad 12e0 08aa 042c 0d2e
00000300: 06e7 2339 330d 98b0 1437 5a36 3c6f 6838
00000310: 7008 deb2 c392 0bb3 583d aeb1 f630 1c36
00000320: 0986 d3a7 2204 9925 80da 3ca4 1836 c4b0
00000330: 9446 de29 389c 19ac 4c0b 292b aae7 3aae
00000340: be85 b3b7 4249 1331 d998 8832 566b a9b4
00000350: c3ce 97b3 c819 3737 f11e b6b8 dae6 8233
00000360: 6672 d3ad fe39 90b1 19be bd37 ca40 c5b3
00000370: 3c03 ba2c f6b3 2637 6df4 a0b8 b763 2bb1
00000380: 0025 e6b3 44b0 9e34 d0d6 57b4 69a2 4f38
00000390: f0e9 d5b6 c4d5 8935 d976 a9b6 e735 ebb7
000003a0: d543 2933 e3fb 842f 6889 122e 965e ab3a
000003b0: b5d2 33b2 3e80 e236 539f 14b5 4839 0738
000003c0: f26a 91b3 6b26 b1b2 d08e 3333 fad3 c6b7
000003d0: a095 c834 d72c 9b35 64e9 1bb3 c108 f7b7
000003e0: 4c8e a0a7 20e5 49a4 41b0 82a3 eb65 162f
000003f0: b4e3 1aa9 dc61 352e e2ce 16ab be26 562d
7.208527e-10 -5.290036e-07 1.1241059e-07 6.0801452e-05 6.869588e-09 5.278563e-08 1.8463685e-10 1.5818003e-08
-2.4019458e-13 -3.585206e-15 2.4409291e-15 2.163305e-08 3.5314618e-12 7.943355e-10 -1.9283568e-12 -5.472266e-10
-1.9300224e-09 4.80847e-09 -4.817916e-07 -6.60013e-09 1.02278435e-08 -4.6193094e-09 -2.457146e-08 1.2064593e-05
-6.70472e-11 2.5754447e-13 1.4913377e-13 4.965124e-08 5.6872736e-12 5.6570593e-07 2.3699395e-05 3.6563357e-08
4.821614e-07 4.5408605e-08 -1.2337072e-08 -2.1325411e-07 -2.6484488e-11 -7.8910733e-07 6.4657826e-08 -1.4694365e-07
-3.3294242e-12 8.703022e-09 1.0374989e-17 2.851377e-08 8.4267765e-07 3.9200813e-11 -9.072264e-06 -7.626249e-10
-1.3811121e-05 -6.501177e-05 -5.1688752e-05 -6.476194e-05 -1.294817e-05 -2.501488e-05 3.4688266e-05 -9.706311e-05
-4.928723e-07 3.611398e-09 -1.8100108e-10 -0.13873151 1.2236153e-07 -0.00015831701 2.2225527e-06 -0.00018025115
-3.120137e-11 1.4485403e-05 -1.3579088e-08 2.6159785e-08 -2.1882952e-06 -7.402867e-05 7.777098e-09 -2.9705623e-11
-1.4283796e-15 -1.9325288e-18 -6.3319162e-18 1.410114e-10 2.374473e-15 -1.479944e-12 2.5495876e-14 -3.0036897e-12
-0.00010222297 -2.3094188e-08 3.7674054e-06 6.18208e-10 -7.879477e-08 1.6928536e-09 -2.9956686e-07 -8.0292887e-07
-3.42586e-13 1.8736932e-15 1.100933e-15 4.284445e-09 -3.3586452e-14 -3.6035466e-10 3.2203358e-13 -1.2879474e-10
3.1534362e-09 4.0502677e-08 2.9230078e-09 -3.9819316e-08 -5.96879e-09 1.761323e-10 -2.4492765e-06 -2.1245247e-10
-1.3115661e-11 3.661754e-14 1.5644714e-09 -1.0280112e-07 5.7736125e-12 -2.389391e-05 5.6303417e-12 -1.4088484e-09
-3.5575493e-08 3.4024655e-05 -6.0186823e-05 -1.7401402e-07 8.086459e-06 8.438925e-08 5.238002e-06 4.087262e-08
3.2073072e-14 2.315472e-15 -2.133807e-16 5.748166e-10 -6.887281e-13 8.342388e-11 -1.7072756e-12 1.3263364e-10
0.0001018692 -3.6221754e-05 2.8568706e-05 -4.290163e-06 9.612002e-07 4.537144e-07 -7.33736e-07 2.313e-06
1.3730995e-13 4.25773e-15 -1.5864414e-16 3.9224157e-09 -3.138087e-13 1.4952377e-09 3.0239032e-12 -5.182227e-10
2.2836542e-08 -3.5100928e-10 3.0055894e-08 1.2998012e-07 5.286007e-10 -1.9100277e-08 9.276407e-09 1.3035196e-05
-4.303271e-14 6.3667172e-15 1.7653427e-16 8.149446e-09 -1.2671065e-13 4.152046e-11 9.6780425e-08 1.6134488e-10
1.9967058e-06 3.9599257e-08 -7.2076436e-06 7.7638234e-08 -1.172329e-11 3.1390397e-07 -9.930269e-06 1.5086812e-08
2.0678256e-13 -5.830033e-07 -1.2070855e-16 -5.130385e-10 -2.3961696e-14 -1.4626425e-11 4.4029808e-13 6.9386246e-12
-1.0048613e-05 1.4181292e-07 -1.1489405e-07 -9.0372346e-08 2.7048088e-07 5.2401574e-05 -1.3103931e-06 -3.8848398e-07
1.461889e-14 -1.6419502e-16 2.2679593e-17 6.9041483e-12 -4.0206597e-14 -7.36926e-12 -1.2156967e-13 3.2098782e-11
0.00015630954 -1.1063207e-09 3.251659e-06 5.5416705e-05 -2.5848038e-08 -3.249694e-08 -5.0710405e-09 2.327431e-06
-5.8709586e-15 2.654407e-16 -4.095108e-17 -1.4276251e-09 9.871024e-14 -2.1829327e-12 6.005654e-13 -4.2497263e-11
-2.1400741e-05 2.1432958e-09 1.590199e-08 -3.15568e-07 -7.069095e-08 1.0913653e-05 -8.6841996e-05 6.0955884e-08
-2.4038726e-11 -4.1975445e-09 2.2619077e-05 -9.1853124e-08 5.286797e-12 9.936271e-06 -7.6749224e-05 -2.4940456e-09
-1.071694e-07 2.9558043e-07 -2.0101584e-07 4.9503902e-05 -6.3751286e-06 1.0269509e-06 -5.050428e-06 -2.8039283e-05
3.941007e-08 2.4189636e-10 3.3318598e-11 0.0013074453 -1.04670805e-08 6.750254e-06 -5.5366144e-07 3.2239855e-05
-6.771542e-08 -2.0622982e-08 4.1806572e-08 -2.3702149e-05 3.736177e-07 1.156145e-06 -3.6301017e-08 -2.944877e-05
-4.45632e-15 -4.3779004e-17 -1.4169275e-17 1.3678629e-10 -3.439237e-14 4.1241552e-11 -5.3577813e-13 1.2173094e-11

fc_layers.0.bias f4 [64]
00000000: 0e0c 8eb2 d87b 6eb2 346c 08b1 027d 863c
00000010: 046a 9a2e 69c3 6130 006f 8cb1 7be3 75b0
00000020: 7790 ab32 690e 6e31 ac04 022f 5458 592f
00000030: 8a04 58af 4410 e432 4e27 533a 14a0 a4af
00000040: 0903 303d 9152 9831 ac3d a730 6ac5 59af
00000050: 96c6 592f f3f4 222f c9a5 4e34 6208 712e
00000060: 6cc1 bb3b 323e e831 320c 732e 9200 083d
00000070: ec51 942f 2b16 1f3d c216 0c38 0386 ae3c
00000080: fcbf fd34 200d 1b32 c373 2aaf 8616 3c31
00000090: 12db b730 0c7b 3832 d0fa d731 94ed dbb4
000000a0: 18a1 b7ae 57b3 373d 8f0a 1934 965a af30
000000b0: 79fb 7e2f 0b23 952e aaab a33c 2dae 4e3d
000000c0: 642e 77b1 d200 5c33 b46c b73c af5f db3c
000000d0: 1478 3830 5bc8 eb31 f2fc 8b36 dea5 d8af
000000e0: 00b0 a736 6e6c 61af b27f 4232 b928 5aaf
000000f0: 8e7e 113d bb36 0631 66a1 6c32 36b7 0630
-1.6536458e-08 -1.3881582e-08 -1.985211e-09 0.01641703 7.0219414e-11 8.213222e-10 -4.0871555e-09 -8.945375e-10
1.9972715e-08 3.464175e-09 1.1825091e-10 1.9767415e-10 -1.9646698e-10 2.655009e-08 0.0008054868 -2.9945169e-10
0.042971645 4.433169e-09 1.2168377e-09 -1.980617e-10 1.9806587e-10 1.4820838e-10 1.9245557e-07 5.48045e-11
0.005729845 6.7591595e-09 5.5262635e-11 0.03320367 2.6979252e-10 0.0388395 3.3399796e-05 0.021304136
4.726461e-07 9.025172e-09 -1.5502537e-10 2.7370404e-09 1.3377266e-09 1.0738187e-08 6.2858376e-09 -4.096479e-07
-8.3504925e-11 0.044848766 1.4253077e-07 1.2758672e-09 2.3190506e-10 6.7819604e-11 0.019979317 0.050459076
-3.59696e-09 5.1223488e-08 0.0223907 0.026779024 6.710945e-10 6.862178e-09 4.1719695e-06 -3.9408027e-10
4.997477e-06 -2.0502153e-10 1.1321321e-08 -1.9841452e-10 0.035521083 1.9530677e-09 1.3773706e-08 4.9009274e-10

fc_layers.1.weight f4 [32, 64]
00000000: c046 0d30 c489 1234 53ae 6331 0394 3d3d
00000010: 983d ecad 3ad4 4530 344c 4933 0cab ca30
00000020: 0ffe 97b1 f30b 5f30 b4ff 922f 9b8f 552f
00000030: 306f 4a30 1dae 5633 cc2e 54b9 2ce7 6e2f
00000040: 49f6 f63d a545 9231 ee4f a62e 4076 74af
00000050: 54a5 44b0 5a3c b22e 21ef 02b4 3b34 9c2f
00000060: 5d8a 803c cafe 2630 1a1d 032f 3796 be3d
00000070: de51 38b0 db07 df3d 80c1 6ab7 7dec 743d
00000080: 5161 8eb3 714d 8632 3d2d 992f ee8e e131
00000090: 132f 5830 5483 8ab0 28c0 c9af 7ced e5b5
000000a0: b621 05b0 08e7 003e 58d0 4a34 acc9 b231
000000b0: e2bd 572f ab40 50ae 6d7d 653d e81b 113e
000000c0: a3eb dc31 aa89 c3b1 e344 813d 6d05 9a3d
000000d0: bfb2 9e31 3461 5531 b416 d0b5 5a80 7e2f
000000e0: 96ca 9bb4 bae9 7231 3c05 ac31 7aa3 6d2f
000000f0: 34f3 cb3d eaf5 0931 a41b c6b0 2ab3 0630
00000100: dac7 7935 00de 6132 02a8 8db1 ae26 a12f
00000110: ccc0 9b29 008b a4ae 1c56 bb31 a05f 8c2b
00000120: cb9c cc34 e045 9434 1f0f 86af 63b1 a824
00000130: ea41 8d24 c944 ceb2 344d 802d 6826 812f
00000140: e5ab 80b0 5e12 8e37 0268 6fa3 62ee 8935
00000150: 4f05 dd33 ac9d 72b7 6027 17b9 88ae 1eb7
00000160: 4de7 ef2f c058 5bb7 47de 8ba3 d7b0 dbaf
00000170: f0b0 342e 8bf4 46b0 549e 0ab7 d034 742f
00000180: 62a6 a337 f468 d636 ea7a 1f23 f838 65b0
00000190: 323d 5632 8f78 2839 10e8 3d30 5a35 d8b7
000001a0: 76b4 9eaf 0512 8db0 40c9 08b2 84f0 f32e
000001b0: 6a9b 88b2 40a3 32a9 70b5 8f2f fc6a afb0
000001c0: fd41 27b5 3829 5137 1098 432f 80a3 62ad
000001d0: d646 0e33 3274 9236 f85e 422e 9ed7 2b2c
000001e0: e2c2 3632 0416 7424 06b5 2cb4 6dbe aeb7
000001f0: bafd 13b0 e0d3 9eaf ff7c ba30 253e ea24
00000200: 9baa a930 e6cf c1b3 35dd ee30 0687 ff3c
00000210: e087 e3ac 76d9 bf2f 6685 0732 fef8 a12f
00000220: 7403 2bb1 890b 1d30 53f0 892e f2b8 802f
00000230: 7125 2830 c622 c732 746b c0b9 c0d7 21ad
00000240: 99f9 a43d 4efc 8f31 7324 a42e 4ebd bbae
00000250: b64c 4cb0 7405 65af f6d5 9eb2 a825 002e
00000260: 6602 313c 7ae4 0cb0 1525 fb2d 6400 7f3d
00000270: 022a f9af 0710 953d 8e3f 19b7 2483 243d
00000280: a10d 25b4 c660 8632 1c71 be2f 4f82 a531
00000290: 8843 052f 0063 39b1 0448 a5b1 bac9 9135
000002a0: 1319 022f ae2f ac3d d888 1034 d526 8831
000002b0: 661a 342f e88a efae f243 1a3d 3dc0 c13d
000002c0: 6977 0432 f683 1db2 178d 2d3d 946c 4e3d
000002d0: 02f0 5531 3b4a eb30 d621 90b5 d784 e12f
000002e0: c001 bab4 a9b1 3831 a525 8d31 6011 262d
000002f0: 7561 883d ce3c c230 a1bb 00b1 1efd 0f30
00000300: 8548 0000 6ba1 0080 159b 0000 5d27 0080
00000310: d14b 0080 a71c 0000 6129 0000 f728 0000
00000320: e659 0000 8a1d 0000 e581 0000 5f6a 0000
00000330: e309 0080 f479 0080 161e 0080 0099 0000
00000340: 826a 0000 ec63 0080 a805 0080 f198 0080
00000350: 21a1 0080 1d2d 0080 b113 0080 3652 0080
00000360: 6b8b 0080 c024 0080 f97c 0000 8c29 0080
00000370: 19a5 0000 740f 0000 2179 0080 fb5e 0080
00000380: c494 0080 ee68 0080 8b47 0080 8ab4 0000
00000390: 0462 0080 b72d 0080 1541 0080 7e88 0080
000003a0: 8220 0080 9b0f 0080 b973 0080 df7d 0080
000003b0: 9409 0000 840e 0000 96a2 0080 3433 0080
000003c0: 6e82 0000 2a80 0080 3196 0080 2508 0080
000003d0: 6aa2 0080 25c1 0080 1d68 0080 5828 0080
000003e0: 4061 0000 11b4 0080 b341 0000 0033 0080
000003f0: 3d31 0000 cb1d 0080 1a35 0080 eabf 0080
5.1396043e-10 1.3647428e-07 3.313194e-09 0.046283733 -2.6857447e-11 7.1969775e-10 4.6868266e-08 1.4746049e-09
-4.4235615e-09 8.114391e-10 2.6738933e-10 1.9423256e-10 7.364518e-10 4.9984113e-08 -0.00020235329 2.1728103e-10
0.12058694 4.257077e-09 7.5630044e-11 -2.2233682e-10 -7.153933e-10 8.1052234e-11 -1.2194188e-07 2.8413347e-10
0.015690977 6.0752525e-10 1.192472e-10 0.09305995 -6.705515e-10 0.1089017 -1.399254e-05 0.059795845
-6.630092e-08 1.563487e-08 2.7862682e-10 6.564611e-09 7.864724e-10 -1.0078147e-09 -3.6698222e-10 -1.7130947e-06
-4.8433024e-10 0.12588131 1.8888511e-07 5.2034093e-09 1.9621596e-10 -4.735116e-11 0.05602782 0.14170802
6.4296315e-09 -5.6908975e-09 0.06311967 0.07520566 4.6187263e-09 3.1050833e-09 -1.5503815e-06 2.3146765e-10
-2.90184e-07 3.5348493e-09 5.006454e-09 2.1613103e-10 0.09958497 2.007591e-09 -1.4414252e-09 4.9003523e-10
9.305055e-07 1.3147201e-08 -4.1227404e-09 2.9313213e-10 6.916828e-14 -7.482548e-11 5.452206e-09 9.97414e-13
3.8112043e-07 2.761799e-07 -2.4385202e-10 7.315889e-17 6.1260665e-17 -2.4012836e-08 1.45862e-11 2.3492253e-10
-9.362081e-10 1.6936272e-05 -1.29782405e-17 1.0276674e-06 1.029208e-07 -1.4461035e-05 -0.0001441515 -9.45817e-06
4.3638196e-10 -1.3074081e-05 -1.5164548e-17 -3.996152e-10 4.1084414e-11 -7.2379497e-10 -8.262305e-06 2.2210433e-10
1.9508592e-05 6.389915e-06 8.645435e-18 -8.339067e-10 1.2470354e-08 0.0001606664 6.908758e-10 -2.577405e-05
-2.8868258e-10 -1.0264222e-09 -7.962001e-09 1.1093085e-10 -1.5903158e-08 -3.9665536e-14 2.6140468e-10 -1.2763333e-09
-6.2308374e-07 1.2466968e-05 1.778917e-10 -1.2882917e-11 3.3126376e-08 4.364666e-06 4.4194842e-11 2.4420253e-12
1.06381055e-08 5.2927714e-17 -1.6084604e-07 -2.083109e-05 -5.3838856e-10 -2.889058e-10 1.3568807e-09 1.015866e-16
1.2344857e-09 -9.025079e-08 1.737965e-09 0.031192314 -6.466813e-12 3.4897213e-10 7.8883655e-09 2.946265e-10
-2.4885738e-09 5.713266e-10 6.272729e-11 2.3414476e-10 6.117125e-10 2.3182462e-08 -0.00036701153 -9.1996966e-12
0.080554195 4.1905315e-09 7.464331e-11 -8.537403e-11 -7.432378e-10 -2.0829366e-10 -1.8490919e-08 2.9137276e-11
0.0108037945 -5.125639e-10 2.8551864e-11 0.062256232 -4.5322684e-10 0.072784476 -9.134308e-06 0.040164128
-1.537178e-07 1.564366e-08 3.4641168e-10 4.8169464e-09 1.2120271e-10 -2.6977318e-09 -4.8103193e-09 1.0862052e-06
1.1832339e-10 0.08407532 1.3460829e-07 3.9625356e-09 1.6380283e-10 -1.08931364e-10 0.037662454 0.09460495
7.710562e-09 -9.168607e-09 0.042370882 0.050396517 3.1132008e-09 1.7119598e-09 -1.0738684e-06 4.102165e-10
-3.4646473e-07 2.6876512e-09 4.10792e-09 9.4398656e-12 0.066592135 1.413264e-09 -1.8733106e-09 5.23828e-10
2.6015e-41 -5.7906e-41 5.5633e-41 -1.4121e-41 -2.7198e-41 1.0279e-41 1.4844e-41 1.4695e-41
3.225e-41 1.0597e-41 4.6597e-41 3.8159e-41 -3.547e-42 -4.3749e-41 -1.0793e-41 5.4886e-41
3.8208e-41 -3.5845e-41 -2.029e-42 -5.4865e-41 -5.7802e-41 -1.6184e-41 -7.064e-42 -2.9492e-41
-5.0014e-41 -1.3183e-41 4.4832e-41 -1.4904e-41 5.9226e-41 5.544e-42 -4.3453e-41 -3.4073e-41
-5.3367e-41 -3.7642e-41 -2.5665e-41 6.4765e-41 -3.5161e-41 -1.64e-41 -2.3347e-41 -4.8964e-41
-1.1662e-41 -5.598e-42 -4.1513e-41 -4.5154e-41 3.436e-42 5.207e-42 -5.8325e-41 -1.8368e-41
4.679e-41 -4.5977e-41 -5.3879e-41 -2.922e-42 -5.8263e-41 -6.9287e-41 -3.7349e-41 -1.4473e-41
3.4887e-41 -6.4596e-41 2.3568e-41 -1.8295e-41 1.7663e-41 -1.0688e-41 -1.9049e-41 -6.8846e-41

fc_layers.1.bias f4 [32]
00000000: aac4 543c e2cb f6af 81ce 0a3c feac 0080
00000010: ef02 0000 c6ca c73b d372 0080 b8d9 ad2f
00000020: 6ba2 b431 8458 a0b1 5a8e a032 be04 653c
00000030: af03 823c 195d 0080 a785 cf3b b10d 0080
00000040: 4606 0080 123b 83b0 a42b 0000 747f 2735
00000050: 2153 0080 a26c 753c 9d11 0080 3537 813c
00000060: acff f73b ce39 0000 7a29 9330 e8fd 983c
00000070: 10ca cdb9 9c66 7031 70d0 c1b1 8a11 0080
0.0129863415 -4.4892007e-10 0.008472086 -6.2058e-41 1.052e-42 0.0060971705 -4.1191e-41 3.1623215e-10
5.2571543e-09 -4.666676e-09 1.8691185e-08 0.013978181 0.015870897 -3.3397e-41 0.0063330713 -4.912e-42
-2.25e-42 -9.548293e-10 1.5655e-41 6.2397817e-07 -2.9821e-41 0.014979513 -6.318e-42 0.015773395
0.0075683203 2.0736e-41 1.0707446e-09 0.01867576 -0.00039251195 3.4982923e-09 -5.640736e-09 -6.292e-42

fc_layers.2.weight f4 [16, 32]
00000000: 24c9 d3b4 311b 7032 c46c 2eb3 c530 0000
00000010: 171f 0000 e62a 8334 6084 0000 8853 3ab6
00000020: 74cc 3cb6 2c2b e1ae 7852 b037 36ee f4b4
00000030: f646 0eb5 7367 0080 0455 5c34 851c 0000
00000040: 612c 0000 a1fa d2a9 42bf 0080 e241 53b5
00000050: 23b9 0080 77ed 06b5 ae4a 0080 25a4 0db5
00000060: 9c6a f432 6664 0080 c8f2 80b6 53fb 11b5
00000070: c2c3 0737 83a8 d137 c4f5 82b7 39a4 0080
00000080: 86ce 9e31 3899 71a6 d056 cb31 cfb3 0000
00000090: 114e 0080 00e3 852d d138 0000 6210 4bb4
000000a0: c8cd 6a34 85c7 2927 e3ec 80b6 d6fa 5331
000000b0: 8056 59af ef74 0000 8c77 4230 268e 0080
000000c0: 8577 0080 de8b 3830 8200 0000 d60c 0937
000000d0: 7677 0080 34cb bd30 ae56 0080 003e d0ad
000000e0: c664 8e31 4d56 0080 a891 0d36 223d b0b1
000000f0: 9a97 0537 90e0 072e 34f3 ef2e 2803 0000
00000100: 60d9 96ac 5450 6b35 4da6 5eac cb6b 0000
00000110: 6b7e 0080 902c d429 6104 0080 2076 7733
00000120: 9c37 32b0 6251 97b7 e271 5bb2 55c0 9fac
00000130: 82a9 abac 1582 0080 60e3 8aaa 3087 0080
00000140: 7d36 0000 ed69 5233 a43f 0000 148e 9638
00000150: f402 0000 26f7 a7ac c03a 0080 4979 abac
00000160: 7dff 05ac ae4a 0080 1745 9d32 2f62 95ac
00000170: 22a8 3f33 df6d 46b9 a36e 9835 fa84 0080
00000180: ef32 393e 7076 3c30 6ec6 f63d 7832 0080
00000190: 1412 0080 6045 b23d 5984 0000 553f 2133
000001a0: 0a18 3a32 d8a8 69b1 e22a ecb1 1d63 463e
000001b0: 6b4b 5f3e 0103 0000 eb34 b93d 7f68 0000
000001c0: d839 0000 9106 3431 e315 0000 bcc3 dd34
000001d0: 2e88 0000 399a 533e 386c 0000 da04 5e3e
000001e0: 790c dd3d 144e 0000 e1e6 4db0 dcde 813e
000001f0: e6d9 343a da3d 0db1 8caa b1af c66f 0000
00000200: 649b 9dae 873e e6b3 83b3 eaae ba00 0000
00000210: 684e 0080 52d1 08ae 2e96 0080 8c13 17b6
00000220: e250 84a8 6186 0b36 03af 2337 6c5f 73ad
00000230: 82d0 0dae ba07 0000 5f28 34ae f671 0000
00000240: 4589 0000 c618 23b7 148c 0000 3706 9635
00000250: 1138 0080 30e5 87ac c345 0000 1664 f5ad
00000260: 0503 97ae dfa3 0080 0857 b0b7 e4cf 39af
00000270: 42c4 07b1 8452 17ae 8888 5fae 6e37 0080
00000280: 79f1 2a2f 0807 80b2 c0fd c7ac aa38 0080
00000290: a343 0000 b25f 1baf bb16 0080 c591 0c31
000002a0: 16a6 b933 582c 8624 14f7 4eac 28b4 162f
000002b0: 4a2e 862e 7513 0080 13be 0eaf b36e 0080
000002c0: cb4c 0000 ee45 7d34 0a00 0000 1910 a637
000002d0: f0c3 0000 9bcc e32e 1018 0080 3b95 912e
000002e0: f0b6 61ae 3637 0080 8f4c 1625 885c 08af
000002f0: 2252 312f 3a0c 8325 f04c 5f30 620e 0000
00000300: 36cf 52af 4c3c e6b4 8869 cfae 8a06 0000
00000310: 5da0 0080 9a41 612f 8b26 0080 1447 e531
00000320: 6001 1db6 86a9 9e35 c848 8527 be47 75af
00000330: 31bf bdaf 9565 0000 3b8e 3e2f 7d3f 0000
00000340: da40 0000 6e17 1b35 6aa0 0000 f4cd 3bb7
00000350: cebd 0000 7e5e 99af a63f 0000 257c b9af
00000360: 20a8 dcac 019c 0000 e645 0d33 5a89 1bb0
00000370: e06d d5b1 4bf9 afb5 d8a6 8333 7f5e 0000
00000380: dbf6 8735 cbc0 abb8 eeb0 2735 b261 0080
00000390: 0e4e 0080 0052 1d35 8f85 0080 6854 84b5
000003a0: c843 9ab2 08ae 5a2c 35eb 24b6 ec3f 9335
000003b0: 6ca6 9f35 f914 0000 da26 1c35 d29c 0080
000003c0: 77be 0000 28a8 b3b4 7904 0080 f8f9 9734
000003d0: 3c86 0080 ac70 9b35 9332 0000 5c54 9f35
000003e0: 3b8f 1e35 5732 0000 02a3 c3b2 d451 9c35
000003f0: 66a2 c433 a050 01af c7ba 1c33 60ab 0000
-3.9448162e-07 1.3976021e-08 -4.0611454e-08 1.7495e-41 1.1153e-41 2.4431864e-07 4.7487e-41 -2.7764781e-06
-2.813319e-06 -1.0239484e-10 2.1019237e-05 -4.5621863e-07 -5.3002384e-07 -3.711e-41 2.0520025e-07 1.0231e-41
1.592e-41 -9.3693506e-14 -6.861e-41 -7.86995e-07 -6.6415e-41 -5.0264447e-07 -2.679e-41 -5.2765455e-07
2.8453819e-08 -3.6016e-41 -3.8429607e-06 -5.4382434e-07 8.0922055e-06 2.499321e-05 -1.5611651e-05 -5.8912e-41
4.621884e-09 -8.382132e-16 5.917947e-09 6.4503e-41 -2.8005e-41 1.5221158e-11 2.0382e-41 -1.8911808e-07
2.1867811e-07 2.3561621e-15 -3.8422745e-06 3.0847125e-09 -1.9766766e-10 4.1948e-41 7.0746675e-10 -5.0993e-41
-4.2876e-41 6.7137573e-10 1.82e-43 8.168825e-06 -4.2855e-41 1.3809314e-09 -3.1095e-41 -2.3674396e-11
4.1442005e-09 -3.0959e-41 2.109542e-06 -5.129224e-09 7.962715e-06 3.0894898e-11 1.0911663e-10 1.132e-42
-4.28739e-12 8.7661215e-07 -3.1640413e-12 3.8669e-41 -4.535e-41 9.4224216e-14 -1.571e-42 5.7616603e-08
-6.483505e-10 -1.80385e-05 -1.2773372e-08 -4.540405e-12 -4.8789315e-12 -4.6665e-41 -2.4671497e-13 -4.8496e-41
1.9547e-41 4.8990774e-08 2.283e-41 7.1790215e-05 1.06e-42 -4.7738645e-12 -2.1076e-41 -4.8735777e-12
-1.9042261e-12 -2.679e-41 1.8308624e-08 -4.2457353e-12 4.462357e-08 -0.00018923682 1.1357082e-06 -4.7703e-41
0.18085836 6.856231e-10 0.12049566 -1.8105e-41 -6.485e-42 0.087046385 4.7477e-41 3.7543334e-08
1.0832091e-08 -3.400194e-09 -6.873379e-09 0.19373746 0.21806113 1.078e-42 0.090432964 3.7486e-41
2.075e-41 2.619718e-09 7.851e-42 4.1306873e-07 4.8852e-41 0.206643 3.8822e-41 0.21681538
0.107933946 2.8009e-41 -7.4906664e-10 0.2536534 0.00068989245 -2.055336e-09 -3.2317293e-10 4.0097e-41
-7.167136e-11 -1.0721583e-07 -1.0672976e-10 2.6e-43 -2.8127e-41 -3.1108734e-11 -5.3874e-41 -2.2512131e-06
-1.4690021e-14 2.0790833e-06 9.756305e-06 -1.3834139e-11 -3.224488e-11 2.772e-42 -4.096312e-11 4.0881e-41
4.9243e-41 -9.721325e-06 5.025e-41 1.117768e-06 -2.0113e-41 -3.8623757e-12 2.5026e-41 -2.7897722e-11
-6.8672214e-11 -5.8786e-41 -2.1021362e-05 -1.689951e-10 -1.9756645e-09 -3.4406714e-11 -5.0825594e-11 -1.9884e-41
1.5547198e-10 -1.4904359e-08 -5.684092e-12 -2.0327e-41 2.4263e-41 -1.4131166e-10 -8.154e-42 2.0455542e-09
8.644945e-08 5.818836e-17 -2.9411517e-12 1.3706425e-10 6.101837e-11 -6.98e-42 -1.2982353e-10 -3.9711e-41
2.7548e-41 2.3587901e-07 1.4e-44 1.9796238e-05 7.0289e-41 1.035911e-10 -8.632e-42 6.620345e-11
-5.1321558e-11 -1.9806e-41 1.3036365e-16 -1.2402002e-10 1.6127236e-10 2.2733163e-16 8.123626e-10 5.16e-42
-1.9173005e-10 -4.288471e-07 -9.432016e-11 2.346e-42 -5.7528e-41 2.0486937e-10 -1.3827e-41 6.672858e-09
-2.3395623e-06 1.1821255e-06 3.6993825e-15 -2.2308108e-10 -3.451475e-10 3.6441e-41 1.733093e-10 2.2775e-41
2.3264e-41 5.7776094e-07 5.7546e-41 -1.1194021e-05 6.8089e-41 -2.7897679e-10 2.2833e-41 -3.3739514e-10
-6.2714417e-12 5.5964e-41 3.2892693e-08 -5.658386e-10 -6.2116072e-09 -1.311107e-06 6.1305116e-08 3.3899e-41
1.0130128e-06 -8.189826e-05 6.2469815e-07 -3.5046e-41 -2.8001e-41 5.8606383e-07 -4.7912e-41 -9.859332e-07
-1.7958783e-08 3.107627e-12 -2.4574813e-06 1.0970957e-06 1.1894858e-06 7.524e-42 5.8171065e-07 -5.6257e-41
6.8326e-41 -3.3463698e-07 -1.604e-42 2.8307818e-07 -4.8154e-41 1.1581192e-06 1.8143e-41 1.1870975e-06
5.9068014e-07 1.8059e-41 -2.2775115e-08 1.1646721e-06 9.156501e-08 -1.1761125e-10 3.6491453e-08 6.1478e-41

fc_layers.2.bias f4 [16]
00000000: 9a5c 1bb5 ed43 7731 487f 4fad e6df d33c
00000010: e0e6 b62e 6253 fb2f 0875 752e 1288 5735
00000020: 8b23 f83b 1263 9733 eca4 b93c c634 aeb7
00000030: 2f82 03af c3fb d73c 2007 dd3b d620 5f35
-5.787675e-07 3.5981842e-09 -1.179485e-11 0.025863599 8.3174134e-11 4.571588e-10 5.5810495e-11 8.029175e-07
0.0075725964 7.049506e-08 0.022661649 -2.0766991e-05 -1.1960631e-10 0.026365167 0.006745234 8.3121756e-07
