neural-collaborative-filtering/src/checkpoints/pretrain_neumf_factor8neg4_Epoch165_HR1.0000_NDCG0.8428.model (torch, 579115 bytes, 15 tensors)

embedding_user_mlp.weight f4 [7700, 8]
2.315582e-08 -2.4967126e-11 -2.3933569e-11 2.0648324e-08 4.6899595e-11 6.1430443e-09 -3.2599783e-05 -4.1504916e-07
4.431475e-14 1.6564759e-07 1.317332e-09 -2.63796e-11 1.4770616e-05 -9.437131e-10 -2.1857522e-05 -3.3262713e-06
-0.00011603108 9.3555667e-07 -1.7515583e-11 -4.900092e-09 -4.333727e-07 4.2133286e-10 -5.6860405e-11 -1.0194562e-11
-6.55644e-07 1.8042408e-07 -4.435808e-06 4.5675542e-06 6.820052e-05 9.264136e-07 -3.448528e-05 -2.344754e-08
-1.1795662e-05 5.942697e-06 -1.7867891e-05 1.4839501e-06 1.897423e-05 4.3952464e-06 1.9526431e-05 4.2122697e-06
2.2702465e-05 6.4296846e-06 5.9485674e-06 -1.4557371e-05 9.530293e-06 1.6595335e-05 9.576002e-06 8.460716e-06
8.7563485e-06 1.3693276e-05 2.6460125e-06 3.6177216e-06 9.187825e-06 -2.363837e-05 -1.696912e-06 1.0352645e-05
2.4861249e-05 2.3198722e-06 2.5447662e-08 -5.127996e-05 -3.951118e-06 -5.2648193e-06 -2.7512375e-05 -4.081033e-06
1.0421354e-06 1.0335785e-05 -2.8443785e-05 1.2308676e-05 6.5296426e-06 -3.0682468e-06 -2.3261202e-07 -5.8709793e-07
-8.185749e-06 4.444906e-06 -4.254778e-05 4.4904187e-05 -6.762659e-06 3.348152e-06 4.1612493e-06 5.6605086e-06
5.5508485e-06 -4.3250042e-05 4.335161e-06 -1.810347e-05 7.7231525e-06 1.753825e-05 -2.234786e-06 -2.7523224e-06
-1.8911471e-06 3.139622e-06 -2.3013836e-06 -3.5967369e-06 5.283716e-06 -2.0652016e-05 4.947108e-06 1.6546915e-06
6.813564e-07 -1.0358279e-05 7.0948875e-07 4.5124643e-06 -5.1284005e-08 -1.106596e-06 -8.148061e-08 -3.4845284e-06
-1.5241289e-05 -2.4143304e-05 5.1912382e-05 -1.194423e-05 -2.040216e-05 1.3947067e-05 -2.912178e-06 1.0771719e-05
-1.602518e-07 -5.602436e-06 -7.778642e-08 1.7666837e-06 8.608679e-05 -5.1836905e-06 2.2371947e-05 1.7019574e-06
5.5141065e-12 -3.8816086e-12 -3.1628424e-09 -2.5666543e-08 1.5447968e-10 5.228169e-10 -1.9873353e-11 -3.480788e-11
-8.371899e-06 -8.117528e-06 -1.9115982e-06 7.741445e-07 -9.469433e-07 -8.082565e-07 3.5501544e-06 -3.5573717e-06
-1.8506091e-07 -1.8400937e-07 -8.605312e-06 2.1857477e-06 -1.1301856e-07 -1.3520709e-05 -1.11397085e-07 -2.940878e-05
3.9100894e-05 -4.5093572e-07 3.5496327e-05 -9.438962e-06 4.841421e-07 -4.0593324e-07 -7.6087815e-08 2.9600298e-05
1.9784911e-05 -7.4548495e-08 1.6844457e-05 -3.824803e-05 -1.7192839e-05 1.2817804e-06 -1.4170528e-05 -6.9913394e-06
3.7193518e-06 -1.3025605e-06 1.2120339e-05 2.0800794e-06 8.290524e-07 3.1161576e-06 2.463958e-05 9.884191e-06
-2.8816635e-07 1.9928757e-05 -2.92763e-06 1.1749765e-06 -3.355216e-06 2.8534455e-06 -4.014217e-06 1.8544708e-06
2.8713162e-05 -1.48629515e-05 -4.886798e-06 1.856095e-05 -3.979585e-06 -1.0087457e-05 1.4624995e-05 -3.441822e-05
-1.115244e-06 8.275446e-07 -2.2676695e-06 -2.9539906e-06 3.7736254e-07 4.0371087e-06 2.7401115e-06 2.4360484e-06
1.639859e-05 1.0632175e-07 -1.5262124e-06 -6.272936e-06 -7.828923e-06 2.451805e-06 1.2986159e-06 -3.020115e-05
-2.6631874e-06 -1.1718855e-06 -1.481781e-06 4.4777655e-05 3.4925273e-05 1.4394922e-05 1.026095e-05 -6.049848e-06
1.0107063e-05 -2.6298812e-05 -2.6509002e-07 7.1710047e-06 -4.7154276e-06 3.236471e-05 1.958415e-07 -6.0177936e-06
9.691407e-06 -2.471323e-06 4.1504627e-05 6.433197e-05 8.766527e-09 -1.3311644e-06 -7.5910375e-06 -3.293141e-06
1.2430345e-12 -1.7962995e-10 -1.2413452e-09 2.164544e-09 -3.9069192e-11 1.4798617e-06 -1.5244029e-13 4.1906978e-10
5.831645e-12 2.950673e-07 -5.609693e-11 4.453669e-05 8.906488e-08 5.0381175e-09 5.120043e-09 1.158045e-05
-3.9861676e-05 -2.948237e-05 7.8508606e-07 2.4958994e-05 9.760366e-07 2.7692158e-06 -2.5881227e-05 9.942557e-07
-9.206187e-06 6.4710152e-06 -3.2253014e-05 1.8693114e-05 -6.3206326e-06 5.455403e-06 1.6667319e-06 -5.389288e-07
00000000: 30e8 c632 f89c dbad 9b85 d2ad 255e b132
00000010: 4044 4e2e ca12 d331 c0bb 08b8 ecd3 deb4
00000020: 6e93 4729 dddc 3134 800d b530 9409 e8ad
00000030: 50cf 7737 f4b3 81b0 ac5a b7b7 e838 5fb6
00000040: b655 f3b8 f722 7b35 9611 9aad aa5d a8b1
00000050: 4aaa e8b4 54a1 e72f 2013 7aae 3a58 33ad
00000060: 83ff 2fb5 98ba 4134 4dd7 94b6 fe42 9936
00000070: e006 8f38 a8ae 7835 4aa4 10b8 b069 c9b2
00000080: fce5 45b7 6167 c736 01e3 95b7 232c c735
00000090: d92a 9f37 e17a 9336 b1cc a337 1f57 8d36
000000a0: 2c71 be37 92be d736 ce99 c736 6f3b 74b7
000000b0: 4ce4 1f37 3636 8b37 9ea8 2037 80f2 0d37
000000c0: 3be8 1237 2cbc 6537 2692 3136 fcc7 7236
000000d0: 6825 1a37 034b c6b7 74c1 e3b5 46b0 2d37
000000e0: 208d d037 1aaf 1b36 0098 da32 7015 57b8
000000f0: d893 84b6 74a8 b0b6 60ca e6b7 ceef 88b6
00000100: 80df 8b35 dc67 2d37 909a eeb7 5c81 4e37
00000110: 3419 db36 14e8 4db6 e8c3 79b4 1099 1db5
00000120: 8655 09b7 7425 9536 5575 32b8 8157 3c38
00000130: ccea e2b6 d0b0 6036 dca0 8b36 66ef bd36
00000140: 6d41 ba36 6167 35b8 c076 9136 e8dc 97b7
00000150: b092 0137 1b1f 9337 55f9 15b6 8ab4 38b6
00000160: 52d3 fdb5 4cb2 5236 7871 1ab6 785f 71b6
00000170: c64a b136 de3d adb7 56ff a536 c416 de35
00000180: 75e6 3635 78c8 2db7 b273 3e35 c669 9736
00000190: 5c43 5cb3 5986 94b5 70fa aeb3 bed7 69b6
000001a0: d6b4 7fb7 5a87 cab7 7fbc 5938 1464 48b7
000001b0: 4e25 abb7 32fe 6937 d66e 43b6 2eb8 3437
000001c0: ae11 2cb4 8ffc bbb6 890b a7b3 ca1e ed35
000001d0: 7e89 b438 90ef adb6 64ab bb37 d06e e435
000001e0: a802 c22c 6c92 88ac 5059 59b1 5379 dcb2
000001f0: 2ada 292f f8b5 0f30 d0ce aead 3016 19ae
00000200: 0875 0cb7 8430 08b7 0249 00b6 cece 4f35
00000210: 7331 7eb5 f7f6 58b5 303f 6e36 2ebb 6eb6
00000220: 28b5 46b4 1c94 45b4 895f 10b7 dcae 1236
00000230: 9cb4 f2b3 01d7 62b7 3239 efb3 e0b2 f6b7
00000240: 4400 2438 2218 f2b4 e4e1 1438 085c 1eb7
00000250: fef5 0135 0aef d9b4 b865 a3b3 284e f837
00000260: c6f7 a537 7817 a0b3 324d 8d37 826c 20b8
00000270: 5739 90b7 a409 ac35 f4bd 6db7 2697 eab6
00000280: fa99 7936 a3d3 aeb5 7658 4b37 7e97 0b36
00000290: 0c8c 5e35 2e1f 5136 18b1 ce37 47d4 2537
000002a0: 48b5 9ab4 ae2c a737 4d78 44b6 e3b3 9d35
000002b0: 2c2a 61b6 d27d 3f36 ddb1 86b6 22e7 f835
000002c0: 0cdd f037 e45b 79b7 46f9 a3b6 56b3 9b37
000002d0: 6088 85b6 4c3d 29b7 e05d 7537 485c 10b8
000002e0: 7eaf 95b5 6f24 5e35 442e 18b6 2c3d 46b6
000002f0: 5098 ca34 8076 8736 c2e2 3736 fe7a 2336
00000300: b48f 8937 0053 e433 42d8 ccb5 1c7c d2b6
00000310: f858 03b7 b089 2436 1a4c ae35 7a58 fdb7
00000320: 36b9 32b6 ae49 9db5 9ce1 c6b5 a4cf 3b38
00000330: ba7c 1238 b881 7137 7226 2c37 ccff cab6
00000340: 8191 2937 459c dcb7 b251 8eb4 769e f036
00000350: 3739 9eb6 58bf 0738 8048 5234 74ec c9b6
00000360: 4798 2237 01d9 25b6 4115 2e38 f7e9 8638
00000370: 989b 1632 76aa b2b5 84b6 feb6 bbff 5cb6
00000380: 0af1 ae2b 5681 45af f49b aab0 10bf 1431
00000390: 00d4 2bae a99f c635 eca1 2baa d462 e62f
000003a0: ca2e cd2c be69 9e34 87b7 76ae e8cc 3a38
000003b0: f043 bf33 c01b ad31 60ec af31 a749 4237
000003c0: 2631 27b8 e850 f7b7 b4be 5235 085f d137
000003d0: 5d00 8335 c4d6 3936 831b d9b7 5e72 8535
000003e0: 4674 1ab7 9921 d936 6947 07b8 28cf 9c37
000003f0: d215 d4b6 8e0d b736 79b4 df35 e8aa 10b5

embedding_item_mlp.weight f4 [8, 1024]
0.00021017119 -0.00031459742 -5.6524208e-05 -4.2613457e-05 -9.635066e-05 0.00037776987 0.0007282742 0.00032070544
-0.0004654912 -0.00032969547 0.00019406975 0.00011865937 -7.08367e-05 -0.00034193485 -0.00025378168 -0.00036732206
-0.00013930791 1.682929e-05 0.00023834563 -0.0008037568 -0.0005065238 -0.00074081344 0.00073849835 1.2154196e-05
-0.00020009316 -0.00049213954 0.0006586391 5.4202304e-05 9.154928e-05 0.0003434717 0.00019095802 1.379638e-06
-0.00057549484 0.0005442386 0.00018863233 0.000330669 0.0006386591 -0.00036323135 -0.00034472253 0.0005538729
-0.00012237263 -5.332695e-07 -1.3187615e-05 7.805262e-05 -0.00041610288 0.00044583905 0.00024724082 3.684254e-07
0.00073014386 -0.0007409823 0.00030099376 -2.2917957e-05 0.000100526406 -0.00017850642 0.00026459442 -0.00010287504
-0.00012515817 -5.709182e-05 0.0002711793 -3.7272745e-05 -7.0492955e-05 -0.000769319 -0.00017520989 0.00010924397
-0.00011023723 0.00031733036 0.0005789379 0.00041887595 -0.0003857131 0.00029960595 0.00054101873 -0.0003342183
-0.00011942751 0.00018335393 -0.00021642711 -0.0002500645 0.00042720092 0.00015242484 0.00011784499 3.656408e-05
5.7216994e-07 -0.00016408748 -0.00030637966 -4.195534e-05 -0.00045377496 0.00019627053 0.0006437207 -0.0004711667
-0.00030632425 -5.4297823e-05 -0.0002644427 -0.0001822012 5.398634e-05 -0.00086321915 -0.0004255459 -0.000116693875
0.00012439104 -1.6245176e-06 -0.00013538828 4.4376306e-05 -5.8721118e-05 -0.00015786025 0.00013034657 -0.000106263615
0.0002312759 -0.00023581798 -0.0006387143 -0.00011591947 -0.0005400984 0.00017331184 -0.0006349862 -0.00022580539
-0.00042134256 -0.000112042944 0.0003639026 -0.00053849316 0.00015011059 -0.0002452755 0.00044942688 8.577775e-05
-5.553386e-05 0.00016996721 -0.00036725885 0.00021083231 9.8326e-05 0.00013063053 -0.0003116025 4.9928567e-06
0.00011475569 0.00013328486 0.0003022557 0.00043394786 -0.00028244627 0.00011033436 0.00046991074 -0.00023517515
-0.00035249273 0.00020115096 -5.0539402e-05 -9.6634496e-05 0.0002876575 -7.6107965e-05 -0.00040861976 -0.0007187215
-8.29129e-05 5.8687776e-05 0.00040858384 -0.00012303793 0.0006454246 8.993519e-05 -0.000382624 0.00033749934
-8.899359e-05 -0.0003445272 -0.00035535987 0.000509707 9.8052646e-05 -0.0005480447 -7.46834e-05 -0.00059374236
0.00023680228 -0.0002584298 0.000377152 0.00016178054 -0.00018070458 -8.703623e-05 -0.0005753614 -0.0001505918
-0.00010724066 -0.00030665114 -0.00058576645 0.00024632493 0.00027161828 0.00014424973 0.00064973097 0.00045183147
-0.000311918 -0.0006761833 -4.7174086e-05 0.00011929931 -0.00035561385 0.0005773412 -0.00028283522 -6.318469e-05
0.0004946737 0.00015581858 0.0004252878 0.00047268305 0.00047342732 0.00044321315 0.00034833973 0.00055122445
-0.00025339995 -0.00021723713 -0.00076500355 -0.00018711801 -2.0514846e-05 1.9661617e-05 7.038923e-05 -0.00035307335
0.00019577859 0.00011191491 4.8713657e-05 -0.00047866465 -0.0002842501 0.00021281693 -0.00049518974 0.0005077047
-3.5937002e-05 -0.00023893891 -0.0002920892 -0.0002902618 0.000118494325 -0.00026597374 -0.00031023292 0.00043425575
0.00025857115 0.0002794944 0.00026664554 3.798839e-05 -3.884491e-05 -0.00043705123 -0.0004776109 0.0004171974
0.00025932433 4.0350125e-05 7.9505706e-05 0.000312697 -0.0003410437 -0.00028011433 -0.00018234913 -0.00042113508
-0.00037114276 -0.00020137717 7.516748e-05 0.0008122219 -0.0002212292 -0.0005306059 -4.9371796e-05 -0.00016620432
-0.00018618796 0.00022091132 0.00048618586 -0.0005731093 -7.145658e-05 0.00026539684 0.00013574821 0.00036478502
-0.00055851665 -0.00015639218 -0.00012898838 -0.00016527405 -0.00056918943 0.0004057733 -0.00012660935 -0.00013942129
00000000: 6661 5c39 8df0 a4b9 6814 6db8 dabb 32b8
00000010: de0f cab8 6a0f c639 a7e9 3e3a 5b24 a839
00000020: 2c0d f4b9 fada acb9 347f 4b39 c4d8 f838
00000030: 2a8e 94b8 b845 b3b9 000e 85b9 2295 c0b9
00000040: 2f13 12b9 a02c 8d37 6bec 7939 35b3 52ba
00000050: 3dc8 04ba 2633 42ba c997 413a e0e9 4b37
00000060: 19d0 51b9 ed02 01ba 86a8 2c3a 4857 6338
00000070: 25fe bf38 fe13 b439 e73b 4839 002c b935
00000080: cedc 16ba 3cab 0e3a 9bcb 4539 a45d ad39
00000090: b06b 273a 1670 beb9 e0bb b4b9 c831 113a
000000a0: 2751 00b9 0026 0fb5 6040 5db7 2eb0 a338
000000b0: 6228 dab9 81bf e939 1aa0 8139 00cc c534
000000c0: 2067 3f3a 7b3e 42ba b3ce 9d39 f03f c0b7
000000d0: b4d1 d238 742d 3bb9 43b9 8a39 9ebe d7b8
000000e0: e43c 03b9 e075 6fb8 122d 8e39 4e55 1cb8
000000f0: 9ed5 93b8 20ac 49ba 8cb8 37b9 e919 e538
00000100: 2a2f e7b8 5c5f a639 ddc3 173a 949c db39
00000110: 8939 cab9 6e14 9d39 27d3 0d3a 053a afb9
00000120: 2875 fab8 b242 4039 b6f0 62b9 171b 83b9
00000130: f0f9 df39 3bd4 1f39 8c23 f738 625c 1938
00000140: 3897 1935 e60e 2cb9 95a1 a0b9 34f9 2fb8
00000150: a5e8 edb9 f8cd 4d39 5dbf 283a ed06 f7b9
00000160: 259a a0b9 d8bd 63b8 e6a4 8ab9 430d 3fb9
00000170: 646f 6238 a849 62ba ce1b dfb9 8cb9 f4b8
00000180: f76e 0239 000a dab5 04f7 0db9 b220 3a38
00000190: 524b 76b8 4a87 25b9 a4ad 0839 d8d9 deb8
000001a0: a782 7239 e845 77b9 646f 27ba cb19 f3b8
000001b0: 6495 0dba 0bbb 3539 3475 26ba 2cc6 6cb9
000001c0: a4e7 dcb9 99f8 eab8 2eca be39 aa29 0dba
000001d0: 0167 1d39 5298 80b9 0ea1 eb39 94e3 b338
000001e0: 07ed 68b8 3a39 3239 a68c c0b9 de12 5d39
000001f0: 5f34 ce38 def9 0839 945e a3b9 5088 a736
00000200: fea8 f038 62c2 0b39 1378 9e39 7f83 e339
00000210: 4c15 94b9 4f63 e738 5a5e f639 5999 76b9
00000220: c6ce b8b9 0dec 5239 45fa 53b8 40a8 cab8
00000230: bcd0 9639 279c 9fb8 043c d6b9 9568 3cba
00000240: 86e1 adb8 8527 7638 3237 d639 be03 01b9
00000250: b631 293a 969b bc38 ed9a c8b9 65f2 b039
00000260: 12a2 bab8 a8a1 b4b9 984f bab9 dc9d 053a
00000270: 9da1 cd38 a8aa 0fba 589f 9cb8 60a5 1bba
00000280: 214e 7839 dc7d 87b9 7cbc c539 a2a3 2939
00000290: 847b 3db9 3887 b6b8 dad3 16ba 2ee8 1db9
000002a0: 64e6 e0b8 05c6 a0b9 1f8e 19ba 2c25 8139
000002b0: fd67 8e39 be41 1739 b552 2a3a cbe3 ec39
000002c0: ed88 a3b9 e541 31ba cadc 45b8 5430 fa38
000002d0: af71 bab9 b658 173a 8049 94b9 0682 84b8
000002e0: fdac 013a 3b63 2339 2af9 de39 72d2 f739
000002f0: 5736 f839 105f e839 5ea1 b639 0c80 103a
00000300: c4da 84b9 26ca 63b9 858a 48ba 1c35 44b9
00000310: 4c17 acb7 00ef a437 ee9d 9338 b41c b9b9
00000320: ea49 4d39 dcb3 ea38 e451 4c38 48f5 fab9
00000330: 6707 95b9 9c27 5f39 9fcf 01ba 7c17 053a
00000340: 10bb 16b8 ad8b 7ab9 8c23 99b9 482e 98b9
00000350: 2880 f838 6472 8bb9 c2a6 a2b9 d2ac e339
00000360: d590 8739 1a89 9239 8fcc 8b39 b955 1f38
00000370: 68ed 22b8 0624 e5b9 da67 fab9 4abb da39
00000380: ecf5 8739 9e3d 2938 4dbc a638 7bf1 a339
00000390: 1cce b2b9 4fdc 92b9 f934 3fb9 cbcb dcb9
000003a0: f095 c2b9 c628 53b9 3ca3 9d38 4aeb 543a
000003b0: c3f9 67b9 5c18 0bba 9014 4fb8 2247 2eb9
000003c0: 733b 43b9 6ea4 6739 c3e6 fe39 b73c 16ba
000003d0: f6da 95b8 f624 8b39 a257 0e39 9e40 bf39
000003e0: 6b69 12ba 35fd 23b9 0e41 07b9 6a4d 2db9
000003f0: a835 15ba f8bd d439 70c2 04b9 9e31 12b9

embedding_item_mlp.bias f4 [8]
-0.000510954 -1.0139972e-08 1.1516146e-05 -0.102617264 4.8074196e-07 6.733464e-08 -3.1356424e-07 -0.00079268834
00000000: 8bf1 05ba 1234 2eb2 7835 4137 0029 d2bd
00000010: 560c 0135 9c99 9033 f157 a8b4 6acc 4fba

embedding_user_mf.weight f4 [7700, 8]
5.441e-41 3.4578e-41 -2.2799e-41 2.8651e-41 2.0233e-41 -3.234e-42 -4.002e-41 -4.9829e-41
-7.172e-42 -1.362e-42 6.279e-41 3.236e-42 -1.61e-43 -4.1617e-41 -1.1233e-41 -3.5283e-41
3.826e-42 -2.2613e-41 7.601383e-12 1.8007e-41 -1.057e-41 1.8001e-41 8.3e-42 -2.6277e-41
1.798e-42 6.2995e-41 2.356e-42 -4.9825e-41 -2.2407e-41 -9.63e-42 7.05367e-11 -1.2117e-41
2.1588e-41 -1.6258e-41 -1.6818e-41 1.122e-42 -6.8858e-41 4.0254e-41 2.1008634e-07 -2.503e-42
8.355e-42 4.1606e-41 -7.875e-42 1.4317e-41 1.0284e-41 0.00012289119 1.2884215e-05 3.3613e-41
-3.593e-42 7.702e-42 -4.5153e-41 -4.2075e-41 -3.6748e-41 -7.801e-42 -6.469574e-08 3.8876e-41
-5.6181e-41 -1.1481e-41 -2.643e-42 -3.725e-42 2.7757e-41 -1.7093e-41 -1.2975895e-06 8.53e-42
-7.577e-42 4.1072e-41 6.181e-42 -6.4252e-41 -7.512e-42 9.425e-42 -1.7562536e-09 3.0845e-41
9.754e-42 6.4e-43 1.4482e-41 1.3164e-41 1.7237e-41 -6.056e-42 -2.3861653e-06 2.2928e-41
6.0462e-41 -4.1008e-41 2.2974e-41 2.6211e-41 5.091e-42 -1.0151e-41 -1.7336574e-06 -1.7532e-41
5.892e-42 2.7465e-41 -4.9244e-41 1.9625306e-10 -2.1792e-41 -3.6613e-41 -1.0827114e-07 1.54e-43
-5.972e-42 -2.651e-42 4.5116e-41 1.484e-42 5.05e-42 6.6178e-41 -6.403966e-10 -1.2277e-41
-2.842e-42 -4.4934e-41 -2.3106e-41 4.516e-42 -3.887e-42 9.761e-42 -1.0536007e-07 -4.4864e-41
-1.3862e-41 9.32e-42 7.67e-43 -1.319e-42 8.981e-42 -1.3164e-41 1.9729621e-10 1.0637e-41
-4.5843e-41 -4.2413e-41 2.4331e-41 -1.3986e-41 4.4721e-41 -3.5024e-41 -3.5695e-41 -2.8564e-41
6.938e-42 -2.9866e-41 -2.7252e-41 1.2051e-41 2.941e-42 -3.921e-42 3.4656536e-05 -2.699e-42
-7.968e-42 -8.02e-42 -2.1277e-41 5.499e-42 -8.682e-42 9.312464e-10 -4.9564946e-08 3.9568e-41
6.253e-42 -2.1906e-41 -3.1507e-41 -2.344e-42 1.1615e-41 5.375e-41 9.022155e-08 -2.9996e-41
7.52e-43 4.2325e-41 5.171e-41 1.071e-41 -8.710781e-13 -1.742e-42 1.5729312e-07 7.661e-42
-5.88e-41 4.1747e-41 -2.0952e-41 -4.9935e-41 1.5465e-41 9.91e-43 8.9144603e-10 -6.3056e-41
9.979e-42 -2.327e-41 4.8968e-41 -2.7847e-41 3.1936e-41 3.4895e-41 -2.2106006e-09 -1.3773e-41
-4.173e-42 -5.1257e-41 2.9043e-41 5.1617e-41 -5.6146e-41 -3.1588e-41 1.64773e-05 -4.4159e-41
5.3593e-41 -1.155e-42 -6.411e-42 -7.0614e-41 -3.6984e-41 -7.759e-42 2.9689197e-08 4.0171e-41
2.4828e-41 1.0472e-41 9.173e-42 -9.164e-42 4.3387e-41 4.7742e-41 1.2911178e-06 -4.6627e-41
4.578e-42 1.0504e-41 -6.935e-41 2.7798e-41 -6.163e-42 1.9149e-41 -2.7077913e-06 1.459e-41
1.641e-42 -1.0709e-41 -4.603e-42 -2.273e-41 5.8018e-41 -8.907e-42 5.9687386e-07 -1.72e-41
8.01e-42 -1.6348e-41 -1.0779e-41 -2.1699e-41 -4.617e-41 -5.6419e-41 -8.210051e-11 -1.0747e-41
2.8899e-41 -1.551e-42 5.0137e-41 -6.7711e-41 1.6748e-41 3.3747e-41 1.8016e-41 -3.9657e-41
-1.4582e-41 -1.2536e-41 -1.8633e-41 -1.97e-42 1.3282e-41 -2.345e-41 7.58e-43 2.3025e-41
-2.4591e-41 1.0627e-41 6.1168e-41 -3.9082e-41 -4.3898e-41 -4.777e-42 -8.19332e-08 1.026e-41
-3.9344e-41 -2.3166e-41 6.2554e-41 -4.0796e-41 3.452e-41 -8.729e-42 -4.9763923e-05 6.911e-41
00000000: ac97 0000 6460 0000 8e3f 0080 de4f 0000
00000010: 6738 0000 0409 0080 8f6f 0080 e78a 0080
00000020: fe13 0080 cc03 0080 08af 0000 0509 0000
00000030: 7300 0080 0374 0080 501f 0080 5b62 0080
00000040: aa0a 0000 093f 0080 96b9 052d 3232 0000
00000050: 771d 0080 2e32 0000 2317 0000 4049 0080
00000060: 0305 0000 9baf 0000 9106 0000 e48a 0080
00000070: 763e 0080 d81a 0080 a21c 9b2e c721 0080
00000080: 2e3c 0000 522d 0080 e22e 0080 2103 0000
00000090: f3bf 0080 3670 0000 1894 6134 fa06 0080
000000a0: 4a17 0000 fb73 0000 f415 0080 e927 0000
000000b0: ab1c 0000 5adc 0039 4829 5837 b35d 0000
000000c0: 040a 0080 7815 0000 de7d 0080 4a75 0080
000000d0: 7066 0080 bf15 0080 dcee 8ab3 5f6c 0000
000000e0: 9c9c 0080 0120 0080 5e07 0080 620a 0080
000000f0: 604d 0000 a62f 0080 d628 aeb5 c717 0000
00000100: 1f15 0080 7e72 0000 3b11 0000 1cb3 0080
00000110: f114 0080 461a 0000 ae60 f1b0 fc55 0000
00000120: 311b 0000 c901 0000 5f28 0000 b224 0000
00000130: 0d30 0000 e210 0080 0222 20b6 ea3f 0000
00000140: 8ba8 0000 5072 0080 0b40 0000 1149 0000
00000150: 310e 0000 4c1c 0080 04b0 e8b5 df30 0080
00000160: 6d10 0000 904c 0000 4689 0080 53c8 572f
00000170: bf3c 0080 1066 0080 b082 e8b3 6e00 0000
00000180: a610 0080 6407 0080 c47d 0000 2304 0000
00000190: 140e 0000 7ab8 0000 e807 30b0 3922 0080
000001a0: ec07 0080 427d 0080 6940 0080 970c 0000
000001b0: d60a 0080 361b 0000 5042 e2b3 107d 0080
000001c0: a426 0080 fb19 0000 2302 0000 ad03 0080
000001d0: 0919 0000 b224 0080 f2ed 582f a71d 0000
000001e0: cb7f 0080 3b76 0080 d343 0000 fd26 0080
000001f0: aa7c 0000 a261 0080 8163 0080 a04f 0080
00000200: 5713 0000 4153 0080 f84b 0080 9821 0000
00000210: 3308 0000 ee0a 0080 2c5c 1138 8607 0080
00000220: 3616 0080 5b16 0080 503b 0080 540f 0000
00000230: 3418 0080 a4fa 7f30 3ce1 54b3 4d6e 0000
00000240: 6e11 0000 113d 0080 d457 0080 8906 0080
00000250: 6120 0000 d595 0000 d2bf c133 9e53 0080
00000260: 1902 0000 fc75 0000 2590 0000 db1d 0000
00000270: cb2f 75ab db04 0080 67e4 2834 5b15 0000
00000280: e9a3 0080 6074 0000 683a 0080 338b 0080
00000290: 1c2b 0000 c302 0000 f009 7530 c6af 0080
000002a0: d11b 0000 de40 0080 8188 0000 a04d 0080
000002b0: 0659 0000 4661 0000 4ce9 17b1 6526 0080
000002c0: a20b 0080 e28e 0080 f650 0000 e38f 0000
000002d0: 839c 0080 0e58 0080 bb38 8a37 197b 0080
000002e0: 6595 0000 3803 0080 df11 0080 d8c4 0080
000002f0: 1967 0080 a115 0080 3c07 ff32 fb6f 0000
00000300: 3645 0000 311d 0000 9219 0000 8c19 0080
00000310: f278 0000 1685 0000 784a ad35 fa81 0080
00000320: c30c 0000 481d 0000 52c1 0080 7d4d 0000
00000330: 2e11 0080 6135 0000 80b7 35b6 ac28 0000
00000340: 9304 0000 da1d 0080 d50c 0080 5d3f 0080
00000350: bba1 0000 d418 0080 dc38 2035 f22f 0080
00000360: 5416 0000 922d 0080 0c1e 0080 7d3c 0080
00000370: b480 0080 469d 0080 7a8a b4ae f51d 0080
00000380: 8f50 0000 5304 0080 c38b 0000 c0bc 0080
00000390: b02e 0000 135e 0000 3932 0000 8c6e 0080
000003a0: a628 0080 f222 0080 f133 0080 7e05 0080
000003b0: 0625 0000 5e41 0080 1d02 0000 2f40 0000
000003c0: 8d44 0080 a01d 0000 83aa 0000 f26c 0080
000003d0: 5f7a 0080 510d 0080 41f3 afb3 9a1c 0000
000003e0: ad6d 0080 9440 0080 60ae 0000 b971 0080
000003f0: 3a60 0000 5518 0080 9bb9 50b8 a7c0 0000

embedding_item_mf.weight f4 [8, 1024]
2.4069e-41 -6.2028e-41 -1.1003e-41 -4.7999e-41 4.98e-42 9.548e-42 -4.7421e-41 6.134e-41
2.6842e-41 -2.5641e-41 -4.5364e-41 1.0493e-41 -2.9416e-41 -5.737e-42 6.5208e-41 -3.1428e-41
-5.6327e-41 -9.721e-42 6.7105e-41 2.0708e-41 3.3386e-41 -1.166e-42 1.8007e-41 -2.116e-42
2.5449e-41 -7.399e-42 4.9197e-41 -2.0348e-41 1.555e-42 4.9698e-41 -5.787e-42 -3.6116e-41
2.3779e-41 -6.3748e-41 -2.155e-41 1.9496e-41 3e-45 -2.8309e-41 -6.844e-41 1.406e-42
3.8442e-41 3.5135e-41 1.2847e-41 6.3194e-41 -1.0193e-41 -3.3876e-41 1.752e-41 -1.3869e-41
3.2475e-41 6.6635e-41 -4.1843e-41 -3.25e-42 2.072e-41 -6.055e-42 2.5509e-41 -2.0661e-41
5.6754e-41 -2.0167e-41 -6.8072e-41 -3.6574e-41 2.6078e-41 -2.986e-42 -2.7415e-41 3.9832e-41
-2.8557e-41 -2.4542e-41 -5.07e-42 -4.1543e-41 -1.3801e-41 -7.503e-42 -7.59e-42 3.5565e-41
-2.6215e-41 -1.1196e-41 -4.5886e-41 -8.335e-42 -3.3257e-41 6.1545e-41 -5.7043e-41 -2.725e-41
-2.315e-42 -4.899e-42 2.2152e-41 1.9227e-41 6.8644e-41 -1.534e-42 2.8037e-41 -1.2621e-41
1.5738e-41 6.325e-42 -4.5133e-41 9.406e-42 -6.494e-42 -4.19e-43 -5.681e-42 4.898e-41
3.8918e-41 1.4075e-41 -1.7099e-41 -2.8833e-41 -5.7127e-41 -1.006e-42 -2.4796e-41 3.6773e-41
-4.7852e-41 1.5696e-41 -3.0673e-41 1.0828e-41 -1.3677e-41 -1.8244e-41 -4.204e-42 3.126e-42
-1.467e-42 5.625e-42 1.4541e-41 -1.5012e-41 1.5645e-41 -8.792e-42 -8.98e-42 2.7367e-41
1.8653e-41 -5.8651e-41 -5.4733e-41 1.5532e-41 -5.9129e-41 -4.308e-41 2.9122e-41 1.345e-42
4.7793e-41 2.8421e-41 5.681e-42 -1.4673e-41 5.545e-41 1.3856e-41 -3.5436e-41 -3.2796e-41
4.3025e-41 -2.8937e-41 -4.8474e-41 4.1724e-41 -4.586e-41 2.6604e-41 7.634e-42 -3.1791e-41
3.7447e-41 5.307e-42 -3.4591e-41 3.3626e-41 -4.1244e-41 -9.834e-42 -2.1785e-41 -6.504e-41
-1.7722e-41 -3.837e-41 -1.9048e-41 2.5393e-41 -3.5992e-41 6.6102e-41 -1.6803e-41 -3.7667e-41
4.784e-42 -1.9372e-41 -2.8235e-41 1.3664e-41 1.1328e-41 5.5616e-41 -2.7205e-41 -1.046e-41
2.6619e-41 -3.1082e-41 1.5787e-41 -3.0452e-41 2.0364e-41 1.292e-42 -8.694e-42 -6.1013e-41
-2.875e-42 1.9673e-41 -2.4533e-41 6.061e-41 2.1534e-41 3.0893e-41 1.4572e-41 6.689e-41
8.311e-42 1.3672e-41 -1.9894e-41 3.6647e-41 -2.6508e-41 -5.1379e-41 2.5979e-41 -1.7358e-41
4.8217e-41 3.1983e-41 -3.486e-42 7.64e-43 -3.1617e-41 2.1322e-41 6.8036e-41 1.05e-42
-1.7941e-41 4.1868e-41 -1.331e-42 -1.3588e-41 3.2675e-41 -6.7271e-41 -1.89e-43 2.6946e-41
-4.9316e-41 -4.595e-42 1.8392e-41 4.4079e-41 -3.3677e-41 -3.1301e-41 5.3709e-41 4.376e-42
-8.287e-42 -3.94e-42 6.4904e-41 6.6059e-41 -2.5532e-41 -6.9254e-41 3.7189e-41 6.054e-42
-4.0977e-41 9.698e-42 -3.3019e-41 4.3751e-41 4.5333e-41 -4.2061e-41 -6.7885e-41 6.2738e-41
1.6077e-41 3.1651e-41 1.4574e-41 -4.4257e-41 1.74e-41 -2.489e-41 1.4391e-41 -3.1392e-41
4.1804e-41 -5.7721e-41 3.0466e-41 -2.3846e-41 -4.3688e-41 -1.461e-41 -1.297e-41 -5.635e-42
2.2293e-41 6.4516e-41 1.361e-41 1.1157e-41 -9.36e-43 3.0355e-41 -4.2075e-41 -6.154e-41
00000000: 1843 0000 e9ac 0080 ac1e 0080 cd85 0080
00000010: e20d 0000 9e1a 0000 3184 0080 feaa 0000
00000020: d34a 0000 7a47 0080 757e 0080 401d 0000
00000030: 0052 0080 fe0f 0080 c6b5 0000 9c57 0080
00000040: 049d 0080 191b 0080 10bb 0000 ba39 0000
00000050: 115d 0000 4003 0080 3232 0000 e605 0080
00000060: f146 0000 a014 0080 2489 0000 b938 0080
00000070: 5604 0000 8a8a 0000 2210 0080 ad64 0080
00000080: 4942 0000 b4b1 0080 133c 0080 5936 0000
00000090: 0200 0000 ea4e 0080 c8be 0080 eb03 0000
000000a0: 296b 0000 f161 0000 d023 0000 29b0 0000
000000b0: 6a1c 0080 6f5e 0080 d730 0000 a926 0080
000000c0: 875a 0000 c0b9 0000 a474 0080 0f09 0080
000000d0: c239 0000 e110 0080 1c47 0000 9839 0080
000000e0: 359e 0000 3838 0080 c2bd 0080 f465 0080
000000f0: b248 0000 5308 0080 6c4c 0080 096f 0000
00000100: 9b4f 0080 6a44 0080 220e 0080 ce73 0080
00000110: 7926 0080 ea14 0080 2815 0080 2463 0000
00000120: 1449 0080 361f 0080 e97f 0080 3c17 0080
00000130: b55c 0080 90ab 0000 039f 0080 f64b 0080
00000140: 7406 0080 a80d 0080 c03d 0000 9935 0000
00000150: 5abf 0000 4704 0080 284e 0000 2f23 0080
00000160: df2b 0000 a211 0000 d07d 0080 381a 0000
00000170: 1a12 0080 2b01 0080 d60f 0080 8988 0000
00000180: 7d6c 0000 3c27 0000 aa2f 0080 6050 0080
00000190: 3f9f 0080 ce02 0080 1f45 0080 8266 0000
000001a0: 6485 0080 c12b 0000 8155 0080 2f1e 0000
000001b0: 2026 0080 db32 0080 b80b 0080 b708 0000
000001c0: 1704 0080 ae0f 0000 8928 0000 d929 0080
000001d0: 9d2b 0000 8218 0080 0819 0080 4a4c 0000
000001e0: ff33 0000 7fa3 0080 9398 0080 4c2b 0000
000001f0: d4a4 0080 1778 0080 2e51 0000 c003 0000
00000200: 3a85 0000 3a4f 0000 d60f 0000 e728 0080
00000210: 929a 0000 a026 0000 c862 0080 6c5b 0080
00000220: f077 0000 aa50 0080 2087 0080 4f74 0000
00000230: d77f 0080 294a 0000 4815 0000 9f58 0080
00000240: 6368 0000 cb0e 0000 6d60 0080 bc5d 0000
00000250: f972 0080 6a1b 0080 ba3c 0080 4eb5 0080
00000260: 6731 0080 f66a 0080 1935 0080 c946 0000
00000270: 5564 0080 44b8 0000 d72e 0080 0069 0080
00000280: 560d 0000 0036 0080 b54e 0080 1726 0000
00000290: 941f 0000 099b 0000 d64b 0080 291d 0080
000002a0: 344a 0000 a556 0080 022c 0000 e354 0080
000002b0: c438 0000 9a03 0000 3c18 0080 14aa 0080
000002c0: 0408 0080 d736 0000 6344 0080 f5a8 0000
000002d0: 073c 0000 1e56 0000 9f28 0000 76ba 0000
000002e0: 2b17 0000 1d26 0000 7537 0080 2866 0000
000002f0: e549 0080 398f 0080 6b48 0000 6330 0080
00000300: 6986 0000 2859 0000 b809 0080 2102 0000
00000310: 2358 0080 703b 0000 a8bd 0000 ed02 0000
00000320: 0332 0080 b674 0000 b603 0080 e125 0080
00000330: 165b 0000 86bb 0080 8700 0080 1d4b 0000
00000340: 7989 0080 cf0c 0080 4533 0000 e07a 0000
00000350: e15d 0080 4157 0080 b895 0000 330c 0000
00000360: 1a17 0080 fc0a 0080 edb4 0000 25b8 0000
00000370: 2c47 0080 0dc1 0080 ab67 0000 e010 0000
00000380: 3a72 0080 091b 0000 0b5c 0080 f679 0000
00000390: 5f7e 0000 4075 0080 3cbd 0080 e3ae 0000
000003a0: d12c 0000 3b58 0000 a028 0000 5f7b 0080
000003b0: 8130 0000 6245 0080 1e28 0000 8257 0080
000003c0: 8874 0000 e7a0 0080 ed54 0000 7942 0080
000003d0: c979 0080 ba28 0080 2824 0080 b50f 0080
000003e0: 253e 0000 d8b3 0000 f025 0000 1a1f 0000
000003f0: 9c02 0080 9e54 0000 4a75 0080 8cab 0080

embedding_item_mf.bias f4 [8]
4.106e-41 -4.6373e-41 4.1725e-41 5.7194e-41 -6.2923e-41 -8.343e-42 -1.229678e-07 -3.3324e-41
00000000: 7572 0000 4581 0080 5074 0000 6f9f 0000
00000010: 67af 0080 4217 0080 2209 04b4 e55c 0080

fc_layers.0.weight f4 [64, 16]
2.6369516e-06 2.0123659e-07 9.088656e-08 -4.8103316e-06 -5.6772467e-07 -5.418031e-08 1.3576994e-08 1.9310573e-06
-2.3507891e-07 -9.870626e-09 -3.6846247e-06 -8.02046e-05 -2.7719187e-08 7.208059e-09 8.4468425e-08 3.7203165e-05
4.0500007e-07 9.931128e-08 -2.3050092e-07 -4.0699422e-05 -4.628574e-08 4.2520536e-05 -4.69185e-08 -6.681169e-08
-4.6634625e-07 -5.831128e-11 -1.5591517e-08 6.55191e-07 2.0237448e-10 -1.4488755e-10 3.8003703e-10 2.7143255e-07
-8.182946e-06 -1.0661452e-08 2.601788e-08 1.0229121e-06 8.381976e-09 4.9453374e-06 -0.0001302067 -6.1634796e-07
8.581055e-10 -7.464436e-15 -1.0215532e-11 1.5070709e-10 -5.6958724e-14 -1.7133575e-16 3.748914e-14 1.6504285e-10
6.192349e-07 1.9674735e-06 -2.3250957e-05 2.3756671e-05 -5.5645855e-06 -2.3964652e-05 9.861604e-06 2.2004926e-05
0.00014329507 -2.3268122e-08 -1.6727932e-05 -0.02371556 -2.5088178e-07 -2.1765633e-08 1.0591172e-08 0.0003269582
5.344593e-08 -4.7669576e-07 6.8661386e-05 1.5393647e-07 -1.018072e-07 3.4661227e-07 9.2363325e-06 7.381863e-05
7.0996443e-06 3.7376218e-09 -9.115213e-07 4.3892564e-05 1.0173604e-09 -3.4525005e-10 -1.5563446e-08 -2.9684872e-05
7.1725553e-06 -4.0910592e-05 1.4113928e-07 8.8411736e-07 1.3392793e-05 1.1588406e-08 -5.2998996e-07 7.736463e-07
1.5240923e-08 -1.1650404e-12 -4.701229e-10 -9.7556224e-08 -1.1424221e-11 -1.1865081e-12 -8.62711e-12 2.7806133e-09
6.248057e-05 -1.7366698e-07 -3.824392e-05 -6.0689712e-05 -7.0774894e-07 3.127729e-08 3.800755e-08 -2.3749772e-06
-3.9638922e-05 -2.6257485e-08 2.326051e-06 -0.00041714267 -8.371016e-09 7.6069515e-09 -1.0008609e-08 6.8162153e-06
-8.7564075e-08 7.88024e-06 -2.1948495e-08 -6.790886e-07 7.031723e-08 3.5615887e-08 2.3634424e-08 4.4918828e-08
-3.496453e-07 -3.6609674e-07 -3.1291891e-09 2.503309e-07 -6.021975e-11 2.747788e-12 -2.6718423e-11 -2.5479203e-08
-2.149724e-07 9.640605e-10 7.632705e-09 1.7522892e-05 5.5350533e-09 4.8750245e-08 4.3213633e-10 -5.7606164e-10
5.4273964e-11 9.67645e-15 7.270164e-11 1.283025e-10 2.683297e-13 7.752119e-14 3.5959945e-13 -5.264303e-11
8.590347e-06 7.448838e-05 -2.0833235e-07 3.5182575e-07 7.409585e-08 -6.967895e-10 2.6234675e-06 1.2903782e-08
1.8044984e-10 -1.2281018e-15 -4.023114e-12 -2.697264e-10 -1.20319e-14 -3.7508474e-15 5.261306e-15 6.2315875e-11
-7.0158796e-07 1.0584143e-05 6.07249e-07 1.2266117e-06 1.7384306e-08 8.736776e-06 -5.0526157e-08 -3.823072e-06
4.7458652e-08 -3.4795083e-13 1.556669e-09 -4.2399343e-08 -2.0550603e-11 4.5337224e-12 1.145542e-13 -4.527611e-08
3.3215017e-08 -2.5296938e-06 -1.0269587e-05 5.156142e-08 -1.970206e-06 3.936934e-08 2.2878194e-08 1.3103961e-07
-4.3860547e-07 1.3067727e-10 3.307462e-08 -2.6979374e-06 2.190894e-11 6.703544e-11 -9.432526e-10 -1.3511473e-06
1.377221e-08 -1.7279748e-05 6.0372906e-05 -3.931726e-05 -3.1276446e-08 4.332006e-06 -1.7537855e-07 1.2496602e-07
-2.5799104e-06 -3.6231223e-11 1.914977e-08 -7.269784e-06 4.864939e-09 7.75479e-10 -7.848064e-09 -8.045855e-06
-1.0503599e-08 -3.4959266e-05 -4.4750923e-09 -1.224053e-06 -1.3271543e-05 6.259598e-05 1.5976047e-09 1.4628161e-09
-1.3781286e-08 -8.34114e-12 -1.8810182e-09 5.5737765e-08 1.4656457e-11 -9.371524e-12 -3.5419653e-11 -3.3093855e-08
3.626361e-06 -9.29507e-08 3.107554e-08 -1.7812026e-05 -2.7954468e-07 1.5279404e-08 -1.01517e-06 -5.7475813e-06
-3.437163e-09 1.02575764e-13 3.2214106e-11 -8.428703e-09 -1.0732987e-12 -2.3833916e-13 2.0990262e-12 -2.3044173e-09
1.455411e-05 5.7524623e-05 -2.1070551e-07 -7.2963573e-09 2.3524347e-08 -8.5008694e-05 -2.376546e-07 -8.570608e-08
-3.1885605e-11 -4.8806804e-14 3.233407e-11 -2.9155284e-10 1.2176488e-13 -1.870696e-14 -4.8135534e-14 -4.051389e-10
00000000: 7cf6 3036 7e13 5834 6a2d c333 6f68 a1b6
00000010: be65 18b5 e1b3 68b3 4040 6932 5097 0136
00000020: 006a 7cb4 7993 29b2 5f45 77b6 8433 a8b8
00000030: 231b eeb2 c2aa f731 0265 b533 980a 1c38
00000040: c96e d934 f444 d533 9c7f 77b4 acb4 2ab8
00000050: b6cb 46b3 1458 3238 7083 49b3 1d7a 8fb3
00000060: 245e fab4 553a 80ae 1cee 85b2 62e0 2f35
00000070: 5a83 5e2f 384e 1faf 75ed d02f 68b9 9134
00000080: 7c49 09b7 9029 37b2 ec7d df32 fe4a 8935
00000090: 5200 1032 20f0 a536 1888 08b9 1c73 25b5
000000a0: cedf 6b30 a377 06a8 abb6 33ad 46b4 252f
000000b0: 7842 80a9 6389 45a5 09d6 2829 6f77 352f
000000c0: 8039 2635 f008 0436 0d0b c3b7 1049 c737
000000d0: 6db7 bab6 b307 c9b7 4473 2537 3897 b837
000000e0: 7a41 1639 24df c7b2 f652 8cb7 2247 c2bc
000000f0: eeb0 86b4 22f7 bab2 78f4 3532 966b ab39
00000100: 6c8c 6533 91ec ffb4 4dfe 8f38 bc49 2534
00000110: 1aa1 dab3 0716 ba34 bff5 1a37 13cf 9a38
00000120: 7b39 ee36 786c 8031 44af 74b5 4819 3838
00000130: 30d3 8b30 a0cd bdaf 61b0 85b2 c703 f9b7
00000140: c8ab f036 6a97 2bb8 128c 1734 1554 6d35
00000150: 9cb1 6037 5916 4732 a244 0eb5 92ac 4f35
00000160: 25eb 8232 01f7 a3ab f539 01b0 1a80 d1b3
00000170: 1efa 48ad 76fc a6ab 0dc5 17ad 1115 3f31
00000180: 0008 8338 3779 3ab4 1968 20b8 158d 7eb8
00000190: 23fc 3db5 be55 0633 be3d 2333 cc61 1fb6
000001a0: f841 26b8 d28c e1b2 4019 1c36 f1b3 dab9
000001b0: 1ed0 0fb2 baaf 0232 54f2 2bb2 d8b6 e436
000001c0: dc0a bcb3 6035 0437 4089 bcb2 9d4a 36b5
000001d0: 4e01 9733 15f8 1833 a604 cb32 c6ec 4033
000001e0: e2b6 bbb4 f48b c4b4 4709 57b1 3865 8634
000001f0: b56c 84ae c05b 412c 8a04 ebad 5cdd dab2
00000200: 2ad3 66b4 dd7f 8430 fe20 0332 20fe 9237
00000210: d82e be31 7661 5133 c891 ed2f bc58 1eb0
00000220: 0db3 6e2e c050 2e28 63df 9f2e f111 0d2f
00000230: 630e 972a ec8f ae29 be6f ca2a c886 67ae
00000240: 421f 1037 a536 9c38 f6b1 5fb4 90e2 bc34
00000250: a01e 9f33 3488 3fb0 d40e 3036 6faf 5d32
00000260: 1d68 462f f6fc b0a6 fd8c 8dac 9e48 94af
00000270: 58bf 58a8 7623 87a7 fc8e bd27 b808 892e
00000280: c254 3cb5 8c92 3137 d501 2335 0fa2 a435
00000290: 7e54 9532 2b94 1237 1902 59b3 f047 80b6
000002a0: 57d5 4b33 00e1 c3aa 6cf2 d530 921a 36b3
000002b0: d8c3 b4ad 2484 9f2c 00fa 002a 9c75 42b3
000002c0: 4ca8 0e33 cfc3 29b6 8a4b 2cb7 6174 5d33
000002d0: e237 04b6 0c17 2933 ae85 c432 e5b3 0c34
000002e0: 7a79 ebb4 62ae 0f2f ee0d 0e33 360e 35b6
000002f0: 8cb6 c02d 9969 932e c0a3 81b0 1159 b5b5
00000300: d29a 6c32 faf3 90b7 ea38 7d38 96e8 24b8
00000310: d154 06b3 a65b 9136 b04f 3cb4 662e 0634
00000320: 8622 2db6 bb58 1fae ca7e a432 f8ee f3b6
00000330: 7528 a731 7c29 5530 27d4 06b2 affc 06b7
00000340: 5173 34b2 3aa1 12b8 54c3 99b1 244a a4b5
00000350: d8a8 5eb7 f645 8338 b892 db30 440c c930
00000360: bdc2 6cb2 28bd 12ad 3943 01b1 5264 6f33
00000370: 68eb 802d 98dd 24ad fcc6 1bae 1423 0eb3
00000380: 685c 7336 309c c7b3 eb77 0533 096b 95b7
00000390: 5414 96b4 c43f 8332 fa40 88b5 59db c0b6
000003a0: 3633 6cb1 e7fa e629 dcad 0d2e d4cd 10b2
000003b0: a90d 97ab 4b2c 86aa b2b4 132c bd5b 1eb1
000003c0: 6d2d 7437 9846 7138 4a3e 62b4 70b3 fab1
000003d0: 9612 ca32 b246 b2b8 002e 7fb4 6a0d b8b3
000003e0: 003c 0cae 6ace 5ba9 ed34 0e2e 6a48 a0af
000003f0: 5618 092a 507f a8a8 7ec8 58a9 3bba deaf

fc_layers.0.bias f4 [64]
-0.00013104395 1.3683589e-06 2.4786156e-10 0.002718969 -2.1582378e-05 -3.7403524e-08 -9.617603e-05 -2.8473943e-07
-7.996932e-10 -1.0922534e-10 -5.2982003e-08 1.0142667e-06 4.973126e-07 -3.678239e-07 2.2349611e-10 1.9142135e-10
0.043723136 -5.9105387e-09 -4.5248396e-07 -8.8882414e-05 -0.00015508829 -2.456932e-06 -1.5976507e-08 -6.3891246e-05
3.588334e-10 -9.929759e-07 6.660499e-10 0.031551074 -1.1789562e-09 0.038354713 -9.853945e-09 0.014646437
-7.969078e-10 0.00014605955 1.6405679e-06 -4.271335e-07 3.2696054e-05 4.0518879e-07 7.775941e-05 6.0292624e-09
1.0625958e-05 0.046006806 -0.00017808288 -1.565708e-05 8.052411e-06 -1.3971103e-07 0.011974691 0.052366525
0.00021965799 -4.2302577e-08 0.016798222 0.022560256 -0.00014206619 -2.637779e-07 2.1325538e-06 -3.9006906e-08
-3.0514208e-08 -1.7266477e-05 -1.0745593e-07 5.2860792e-05 0.034868557 0.0011165764 -0.00045487614 2.408598e-07
00000000: d868 09b9 74a8 b735 6a43 882f bb30 323b
00000010: ce0b b5b7 9ca5 20b3 1db2 c9b8 4ade 98b4
00000020: 68d1 5bb0 6630 f0ae 548e 63b3 f021 8835
00000030: 107f 0535 5579 c5b4 90bc 752f 5278 522f
00000040: 0817 333d a615 cbb1 ecec f2b4 6266 bab8
00000050: 329f 22b9 c5e1 24b6 b63c 89b2 5afd 85b8
00000060: 5045 c52f 6446 85b5 1815 3730 b33b 013d
00000070: d508 a2b0 d519 1d3d 1c4a 29b2 9cf7 6f3c
00000080: 670d 5bb0 9027 1939 7c31 dc35 c850 e5b4
00000090: 1f23 0938 b988 d934 c412 a338 f429 cf31
000000a0: 2446 3237 a271 3c3d c2bb 3ab9 5357 83b7
000000b0: d818 0737 7a03 16b4 7f31 443c 487e 563d
000000c0: fe53 6639 2db0 35b3 6d9c 893c 49d0 b83c
000000d0: 9af7 14b9 5c9d 8db4 ff1c 0f36 8c88 27b3
000000e0: ba0e 03b3 7ad7 90b7 86c2 e6b3 d8b6 5d38
000000f0: 55d2 0e3d 165a 923a 717c eeb9 854f 8134

fc_layers.1.weight f4 [32, 64]
-0.00016817538 -1.1347407e-06 -9.510423e-11 0.0077261114 -4.9374863e-05 7.372165e-10 -0.00019569581 -4.056328e-07
2.0387939e-10 -1.527249e-10 1.1997489e-07 -1.3880217e-06 -9.510102e-06 -1.681002e-07 -2.4268463e-09 -4.950681e-10
0.12693372 5.752679e-09 -2.3853527e-06 -0.00014961828 0.00024994113 -2.2942936e-06 -1.6087603e-07 -8.537184e-05
-1.6922708e-10 1.7854279e-07 -2.6237582e-10 0.093417436 -3.1825306e-10 0.11307853 -5.0158198e-09 0.04303819
-4.727223e-10 -0.000119861186 -2.179622e-06 3.646749e-06 1.8858682e-05 2.4258372e-07 4.1685602e-05 -1.315078e-08
-0.00016286374 0.13307154 0.00015199016 6.0094862e-05 -2.456423e-06 -3.0270556e-08 0.035209756 0.15104283
0.0007558421 -1.9560197e-08 0.049329862 0.06883503 -0.000192798 -9.587056e-08 1.2288979e-08 -9.458177e-08
-9.65543e-09 -3.655039e-05 3.006323e-08 -2.2160897e-05 0.101697564 -0.0013609007 -4.4606146e-05 1.2664324e-07
-2.107762e-09 -1.04639085e-07 1.0468533e-07 8.573336e-09 -5.4123393e-06 -4.924122e-09 -1.3058153e-09 3.1178343e-12
-5.2196407e-09 -4.2905903e-08 1.1994493e-07 -2.7576043e-08 6.672842e-09 -3.5804353e-09 -2.4112943e-08 4.3022496e-08
2.1890052e-08 -0.00014011117 6.8380496e-07 2.325029e-09 -5.220735e-07 9.700368e-07 -1.5701915e-09 2.3310781e-07
1.7486368e-06 -4.4609037e-06 -2.4068694e-08 -1.7911589e-08 1.9574472e-06 2.6729587e-08 -2.2581162e-08 -3.5950123e-07
-2.60409e-06 -2.704678e-07 9.035148e-08 2.7021506e-05 -1.0525455e-05 8.168342e-07 -1.5848146e-07 2.678401e-07
-8.7073715e-07 1.8618472e-08 1.9865887e-09 -2.8732615e-07 2.2788763e-12 -1.9978068e-09 -3.1682157e-07 4.4614126e-08
-2.5942276e-05 -3.0652476e-08 -2.9917757e-07 -1.5118651e-07 2.9772948e-06 4.9517575e-07 -5.185767e-06 -1.5389039e-09
1.08768687e-13 -4.3406106e-07 -3.261891e-09 3.106195e-05 1.0832586e-08 1.1968069e-08 -6.886149e-05 2.7742163e-07
-6.9007274e-06 -6.504487e-07 -2.1151814e-10 0.003706314 1.7106413e-06 -8.434556e-09 -0.00024356786 1.7250873e-08
-5.9813376e-10 -1.1690725e-10 -1.00460156e-07 -1.2444315e-06 -1.6897311e-06 3.144188e-08 -3.0640632e-09 -2.813299e-10
0.06084978 1.4744785e-09 6.826842e-07 5.343154e-06 -1.7248385e-06 -1.4141613e-06 2.0747823e-08 4.2980424e-05
-3.7339987e-10 -8.198212e-07 4.3919435e-10 0.04468227 -6.2028854e-10 0.054159023 -1.7934342e-08 0.020485489
-6.301458e-10 -6.531549e-05 -6.9450234e-06 -1.572402e-06 -3.269066e-05 -1.9832866e-07 -5.080888e-05 1.2502972e-09
-0.00010729194 0.06381688 -5.266836e-05 -1.8400118e-05 -2.947952e-06 -9.299529e-08 0.01672909 0.07251558
0.0003652832 -5.8052496e-10 0.023503704 0.032863725 0.000107165935 -1.2096662e-07 1.2463744e-07 -1.0751462e-07
-9.604859e-09 3.0346937e-06 -2.3342468e-08 -0.00010568833 0.048671413 1.3444755e-05 -1.6270526e-05 -2.666128e-07
2.6015e-41 -5.7906e-41 5.5633e-41 -1.4121e-41 -2.7198e-41 1.0279e-41 1.4844e-41 1.4695e-41
3.225e-41 1.0597e-41 4.6597e-41 3.8159e-41 -3.547e-42 -4.3749e-41 -1.0793e-41 5.4886e-41
3.8208e-41 -3.5845e-41 -2.029e-42 -5.4865e-41 -5.7802e-41 -1.6184e-41 -7.064e-42 -2.9492e-41
-5.0014e-41 -1.3183e-41 4.4832e-41 -1.4904e-41 5.9226e-41 5.544e-42 -4.3453e-41 -3.4073e-41
-5.3367e-41 -3.7642e-41 -2.5665e-41 6.4765e-41 -3.5161e-41 -1.64e-41 -2.3347e-41 -4.8964e-41
-1.1662e-41 -5.598e-42 -4.1513e-41 -4.5154e-41 3.436e-42 5.207e-42 -5.8325e-41 -1.8368e-41
4.679e-41 -4.5977e-41 -5.3879e-41 -2.922e-42 -5.8263e-41 -6.9287e-41 -3.7349e-41 -1.4473e-41
3.4887e-41 -6.4596e-41 2.3568e-41 -1.8295e-41 1.7663e-41 -1.0688e-41 -1.9049e-41 -6.8846e-41
00000000: 3c58 30b9 654d 98b5 ec22 d1ae 522b fd3b
00000010: db17 4fb8 00a5 4a30 b233 4db9 bfc5 d9b4
00000020: f22a 602f 3dec 27af 72d2 0034 104c bab5
00000030: 948d 1fb7 087f 34b4 88c5 26b1 5215 08b0
00000040: eafa 013e 1aa9 c531 0c14 20b6 dae2 1cb9
00000050: 880a 8339 aaf7 19b6 44bd 2cb4 a809 b3b8
00000060: 3011 3aaf 78b5 3f34 1d3e 90af a451 bf3d
00000070: 23f6 aeaf b795 e73d 9e57 acb1 d048 303d
00000080: e0f0 01b0 fc5d fbb8 9f45 12b6 acba 7436
00000090: b632 9e37 743c 8234 93d7 2e38 beed 61b2
000000a0: 67c6 2ab9 e843 083e 8c5f 1f39 5e0e 7c38
000000b0: 07d9 24b6 d402 02b3 1b38 103d f9aa 1a3e
000000c0: b423 463a 5405 a8b2 1c0e 4a3d 61f9 8c3d
000000d0: d229 4ab9 66e1 cdb3 801f 5332 e11c cbb3
000000e0: 08e1 25b2 af4d 19b8 df1e 0133 2ae6 b9b7
000000f0: d046 d03d 4060 b2ba 7c17 3bb8 6efb 0734
00000100: 24d8 10b1 f2b5 e0b3 5ecf e033 ee49 1332
00000110: a49b b5b6 0931 a9b1 4b78 b3b0 e965 5b2c
00000120: 7258 b3b1 8a47 38b3 36ca 0034 5ce0 ecb2
00000130: f046 e531 af0b 76b1 ec20 cfb2 bcc7 3833
00000140: bc08 bc32 ceea 12b9 b88e 3735 58c6 1f31
00000150: 9e24 0cb5 3632 8235 34ce d7b0 304c 7a34
00000160: b4b2 ea35 dfae 95b6 9ebf ceb2 00dc 99b2
00000170: b05c 0336 fc9a e532 80f8 c1b2 7901 c1b4
00000180: edc1 2eb6 d034 91b4 4007 c233 3eac e237
00000190: 7c96 30b7 6b44 5b35 0d2b 2ab4 aacb 8f34
000001a0: 9abc 69b5 74ee 9f32 7084 0831 ce41 9ab4
000001b0: 965c 202c ca49 09b1 a017 aab4 c09d 3f33
000001c0: 9d9e d9b7 c1a6 03b3 a79e a0b4 d555 22b4
000001d0: 89cd 4736 38ec 0435 6601 aeb6 5e81 d3b0
000001e0: e1ec f429 e608 e9b4 cb27 60b1 8448 0238
000001f0: 381a 3a32 209c 4d32 bb69 90b8 8af0 9434
00000200: cc8c e7b6 7f9a 2eb5 1091 68af a1e5 723b
00000210: 3099 e535 92e7 10b2 4066 7fb9 122f 9432
00000220: ec69 24b0 778a 00af 8ebc d7b3 5706 a7b5
00000230: b8ca e2b5 b60a 0733 928f 52b1 aaa9 9aaf
00000240: 9e3d 793d 9aa6 ca30 b341 3735 5849 b336
00000250: 0081 e7b5 36ce bdb5 f238 b232 e145 3438
00000260: 5c47 cdaf af11 5cb5 1c73 f12f c204 373d
00000270: ed80 2ab0 dad5 5d3d 090e 9ab2 2fd1 a73c
00000280: 9236 2db0 fdf9 88b8 4c09 e9b6 520b d3b5
00000290: 541d 09b8 2bf4 54b4 9f1b 55b8 ecd6 ab30
000002a0: ec01 e1b8 6db2 823d 39e8 5cb8 f459 9ab7
000002b0: 6ed5 45b6 b4b4 c7b3 720b 893c 0c83 943d
000002c0: 7b83 bf39 d092 1fb0 d78a c03c 1d9c 063d
000002d0: 46be e038 0de3 01b4 14d4 0534 cae2 e6b3
000002e0: 9e02 25b2 a4a7 4b36 a182 c8b2 fda4 ddb8
000002f0: ad5b 473d c890 6137 b07c 88b7 fc22 8fb4
00000300: 8548 0000 6ba1 0080 159b 0000 5d27 0080
00000310: d14b 0080 a71c 0000 6129 0000 f728 0000
00000320: e659 0000 8a1d 0000 e581 0000 5f6a 0000
00000330: e309 0080 f479 0080 161e 0080 0099 0000
00000340: 826a 0000 ec63 0080 a805 0080 f198 0080
00000350: 21a1 0080 1d2d 0080 b113 0080 3652 0080
00000360: 6b8b 0080 c024 0080 f97c 0000 8c29 0080
00000370: 19a5 0000 740f 0000 2179 0080 fb5e 0080
00000380: c494 0080 ee68 0080 8b47 0080 8ab4 0000
00000390: 0462 0080 b72d 0080 1541 0080 7e88 0080
000003a0: 8220 0080 9b0f 0080 b973 0080 df7d 0080
000003b0: 9409 0000 840e 0000 96a2 0080 3433 0080
000003c0: 6e82 0000 2a80 0080 3196 0080 2508 0080
000003d0: 6aa2 0080 25c1 0080 1d68 0080 5828 0080
000003e0: 4061 0000 11b4 0080 b341 0000 0033 0080
000003f0: 3d31 0000 cb1d 0080 1a35 0080 eabf 0080

fc_layers.1.bias f4 [32]
0.011575522 1.0964716e-07 0.0039910637 -6.2058e-41 1.052e-42 -2.6422178e-20 -4.1191e-41 1.5130296e-06
5.783985e-06 7.0261067e-06 -0.00025548926 0.012951475 0.01544386 -3.3397e-41 -1.6396098e-07 -4.912e-42
-2.25e-42 2.9477258e-08 1.5655e-41 2.7213935e-07 -2.9821e-41 0.014288879 -6.318e-42 0.0153189525
0.0018021546 2.0736e-41 2.6675815e-07 0.018915258 -1.7203082e-08 8.889728e-09 -9.052966e-09 -6.292e-42
00000000: 42a7 3d3c 2a77 eb33 78c7 823b feac 0080
00000010: ef02 0000 e88c f99e d372 0080 4d13 cb35
00000020: 0e14 c236 ccc1 eb36 30f3 85b9 6c32 543c
00000030: 3e08 7d3c 195d 0080 400d 30b4 b10d 0080
00000040: 4606 0080 2d35 fd32 a42b 0000 8c1a 9234
00000050: 2153 0080 e71b 6a3c 9d11 0080 58fc 7a3c
00000060: 4636 ec3a ce39 0000 f636 8f34 2cf4 9a3c
00000070: fac5 93b2 70b9 1832 5e87 1bb2 8a11 0080

fc_layers.2.weight f4 [16, 32]
-0.00030325053 -2.9592225e-05 -0.00026432102 1.7495e-41 1.1153e-41 4.3184084e-22 4.7487e-41 3.2895622e-07
4.820322e-11 -6.2724166e-07 2.248971e-05 -0.00030072517 -0.00023168128 -3.711e-41 -2.4969643e-07 1.0231e-41
1.592e-41 5.458929e-09 -6.861e-41 5.161204e-06 -6.6415e-41 -0.00027441472 -2.679e-41 -0.00023715312
-0.00019102468 -3.6016e-41 2.207206e-08 -2.2160617e-05 -1.8600274e-11 -7.0473693e-06 4.715507e-10 -5.8912e-41
-8.937171e-05 -2.6890895e-05 -9.0309964e-05 6.4503e-41 -2.8005e-41 -3.5063003e-21 2.0382e-41 -3.041569e-06
-3.0063526e-05 -1.1216121e-06 3.9675775e-05 -6.645252e-05 -5.003722e-05 4.1948e-41 6.643982e-08 -5.0993e-41
-4.2876e-41 -3.5827064e-10 1.82e-43 1.8375518e-05 -4.2855e-41 -5.3458665e-05 -3.1095e-41 -5.0060888e-05
-2.7324757e-05 -3.0959e-41 3.443928e-05 -7.213094e-05 -3.176815e-10 -3.349427e-06 9.497861e-12 1.132e-42
-5.6815375e-10 4.263228e-12 5.342137e-10 3.8669e-41 -4.535e-41 2.9101158e-25 -1.571e-42 1.0271611e-05
1.119804e-09 -1.9049928e-11 7.477379e-08 -5.0951393e-10 -3.2388908e-10 -4.6665e-41 -6.915811e-13 -4.8496e-41
1.9547e-41 -1.5816282e-10 2.283e-41 -2.3302569e-08 1.06e-42 -4.0989626e-10 -2.1076e-41 -3.3242858e-10
-4.543304e-10 -2.679e-41 -3.560703e-06 -3.2637307e-10 2.7882632e-09 -5.4800194e-15 -2.9320827e-08 -4.7703e-41
0.18785869 -2.9061857e-07 0.09006198 -1.8105e-41 -6.485e-42 1.2655421e-20 4.7477e-41 -2.0228435e-06
-6.0750767e-06 -5.42062e-06 0.0012184973 0.2048436 0.23540616 1.078e-42 2.2302756e-05 3.7486e-41
2.075e-41 -1.7127329e-08 7.851e-42 -1.6923624e-07 4.8852e-41 0.22126745 3.8822e-41 0.23387899
0.058509015 2.8009e-41 -1.7451308e-07 0.27778098 3.105675e-08 -1.2831654e-07 2.7454217e-08 4.0097e-41
-9.664252e-09 3.7785627e-05 2.3884668e-08 2.6e-43 -2.8127e-41 9.2049036e-26 -5.3874e-41 6.060228e-12
-7.0399686e-11 -1.1216241e-06 -2.3355875e-05 -9.458686e-09 3.971457e-09 2.772e-42 -8.0492175e-12 4.0881e-41
4.9243e-41 -8.240636e-08 5.025e-41 9.320884e-09 -2.0113e-41 -3.8279193e-09 2.5026e-41 3.0409844e-09
1.6875253e-08 -5.8786e-41 -1.5347604e-10 3.0616878e-08 5.4236473e-11 9.155177e-08 -1.6577292e-08 -1.9884e-41
5.5682885e-06 5.2033784e-07 -5.215716e-06 -2.0327e-41 2.4263e-41 -6.2756254e-21 -8.154e-42 -1.3528098e-06
-1.8959829e-05 8.917141e-08 1.0411509e-07 6.262227e-06 7.695098e-06 -6.98e-42 -4.06043e-09 -3.9711e-41
2.7548e-41 -7.5224115e-12 1.4e-44 -2.0862492e-08 7.0289e-41 7.0129977e-06 -8.632e-42 7.616331e-06
-4.618838e-06 -1.9806e-41 2.7205126e-06 1.091943e-05 1.9182277e-11 -1.9661857e-06 1.6055726e-11 5.16e-42
-2.942713e-09 7.188585e-06 1.0240424e-08 2.346e-42 -5.7528e-41 2.2339652e-22 -1.3827e-41 2.3464067e-11
-4.837807e-06 -2.1968726e-06 -5.3673662e-05 -1.0668173e-09 2.4547933e-09 3.6441e-41 -1.13418094e-11 2.2775e-41
2.3264e-41 3.2648146e-14 5.7546e-41 -3.0105042e-08 6.8089e-41 4.7819004e-10 2.2833e-41 2.2124618e-09
2.7691853e-09 5.5964e-41 -5.407876e-08 7.45766e-09 -8.162722e-06 8.541619e-09 4.808779e-12 3.3899e-41
-5.3505083e-08 1.6429631e-06 3.3138906e-07 -3.5046e-41 -2.8001e-41 8.753933e-22 -4.7912e-41 -6.5026805e-05
-8.5604857e-10 -6.8012405e-09 -8.719793e-07 5.845373e-08 1.9666174e-07 7.524e-42 1.580116e-10 -5.6257e-41
6.8326e-41 5.3019186e-12 -1.604e-42 5.4659577e-06 -4.8154e-41 1.4986897e-07 1.8143e-41 1.9320039e-07
-3.8601226e-07 1.8059e-41 5.547373e-06 1.2599942e-07 -2.3747296e-13 -2.1331874e-07 6.802475e-13 6.1478e-41
00000000: 99fd 9eb9 d23c f8b7 9194 8ab9 c530 0000
00000010: 171f 0000 1184 021c 6084 0000 669b b034
00000020: 0000 542e b85f 28b5 49a8 bc37 a6aa 9db9
00000030: 78ef 72b9 7367 0080 040e 86b4 851c 0000
00000040: 612c 0000 3f91 bb31 42bf 0080 682e ad36
00000050: 23b9 0080 52df 8fb9 ae4a 0080 4eac 78b9
00000060: cc4d 48b9 6664 0080 f998 bd32 90e5 b9b7
00000070: 189c a3ad 7178 ecb6 6e9e 0130 39a4 0080
00000080: 126d bbb8 c293 e1b7 cb64 bdb8 cfb3 0000
00000090: 114e 0080 db76 849d d138 0000 c21d 4cb6
000000a0: ee30 fcb7 4c8a 96b5 8a69 2638 6d5c 8bb8
000000b0: 0edf 51b8 ef74 0000 adad 8e33 268e 0080
000000c0: 8577 0080 1cf6 c4af 8200 0000 2025 9a37
000000d0: 7677 0080 ce38 60b8 ae56 0080 78f8 51b8
000000e0: 7837 e5b7 4d56 0080 e572 1038 0145 97b8
000000f0: b2a5 aeaf b8c6 60b6 9016 272d 2803 0000
00000100: 442c 1cb0 beff 952c f2d7 1230 cb6b 0000
00000110: 6b7e 0080 a020 b416 6104 0080 3c54 2c37
00000120: 9ae7 9930 a090 a7ad 5393 a033 db0d 0cb0
00000130: 560f b2af 1582 0080 aca9 42ab 3087 0080
00000140: 7d36 0000 e0e6 2daf a43f 0000 e42a c8b2
00000150: f402 0000 c557 e1af c03a 0080 2ac1 b6af
00000160: 52c5 f9af ae4a 0080 69f4 6eb6 ed6c b3af
00000170: a59b 3f31 4270 c5a7 2edd fbb2 fa84 0080
00000180: 075e 403e 5006 9cb4 6a72 b83d 7832 0080
00000190: 1412 0080 dc0d 6f1e 5984 0000 30c0 07b6
000001a0: 83d8 cbb6 c5e2 b5b6 fcb5 9f3a 85c2 513e
000001b0: 500e 713e 0103 0000 ce16 bb37 7f68 0000
000001c0: d839 0000 651f 93b2 e315 0000 4eb7 35b4
000001d0: 2e88 0000 ef93 623e 386c 0000 f97d 6f3e
000001e0: 26a7 6f3d 144e 0000 ca61 3bb4 4f39 8e3e
000001f0: 4263 0533 62c7 09b4 76d4 eb32 c66f 0000
00000200: d407 26b2 027c 1e38 f12a cd32 ba00 0000
00000210: 684e 0080 02e7 e315 2e96 0080 ae39 d52c
00000220: 80cf 9aae b68a 96b5 5cec c3b7 be7f 22b2
00000230: 4e75 8831 ba07 0000 749a 0dad f671 0000
00000240: 4589 0000 60f7 b0b3 148c 0000 ae21 2032
00000250: 1138 0080 bc86 83b1 c345 0000 90f9 5031
00000260: 13f5 9032 dfa3 0080 aabf 28af 9d7f 0333
00000270: d788 6e2e 1e9b c433 da65 8eb2 6e37 0080
00000280: 3cd7 ba36 58ad 0b35 a902 afb6 aa38 0080
00000290: a343 0000 2016 ed9d bb16 0080 3192 b5b5
000002a0: ec0b 9fb7 807e bf33 e095 df33 1f20 d236
000002b0: 321a 0137 7513 0080 ec83 8bb1 b36e 0080
000002c0: cb4c 0000 ee55 04ad 0a00 0000 1b35 b3b2
000002d0: f0c3 0000 3151 eb36 1018 0080 c98f ff36
000002e0: 84fb 9ab6 3637 0080 0d92 3636 9832 3737
000002f0: a6ba a82d d0f2 03b6 483a 8d2d 620e 0000
00000300: c138 4ab1 7a35 f136 dced 2f32 8a06 0000
00000310: 5da0 0080 f008 871b 8b26 0080 6264 ce2d
00000320: 7254 a2b6 fc6d 13b6 a81f 61b8 4c9f 92b0
00000330: 2eb1 2831 9565 0000 f886 47ad 7d3f 0000
00000340: da40 0000 c008 1329 6aa0 0000 d84c 01b3
00000350: cebd 0000 a271 0330 a63f 0000 0a0a 1831
00000360: 064c 3e31 019c 0000 3a44 68b3 231f 0032
00000370: a0f2 08b7 70be 1232 a131 a92c 7f5e 0000
00000380: 76cd 65b3 c883 dc35 c4e9 b134 b261 0080
00000390: 0e4e 0080 2349 841c 8f85 0080 005f 88b8
000003a0: 104f 6bb0 58b0 e9b1 f611 6ab5 8e0e 7b33
000003b0: f829 5334 f914 0000 50bc 2d2f d29c 0080
000003c0: 77be 0000 708b ba2c 7904 0080 3868 b736
000003d0: 3c86 0080 abeb 2034 9332 0000 8572 4f34
000003e0: 1f3d cfb4 5732 0000 9223 ba36 754a 0734
000003f0: 76af 85aa 9c0c 65b4 0079 3f2b 60ab 0000

fc_layers.2.bias f4 [16]
-0.0010893992 -0.00018111746 4.3616566e-10 0.025799887 -9.49325e-08 -1.3191649e-05 7.124672e-09 1.10357576e-07
-0.00013828826 -1.1482297e-07 0.022128323 -3.705149e-08 1.13509664e-07 0.026364462 -1.5357778e-14 2.811255e-10
00000000: 2cca 8eba 59ea 3db9 dcc8 ef2f 495a d33c
00000010: b2dd cbb3 b351 5db7 47cd f431 b8fd ec33
00000020: 7901 11b9 9894 f6b3 7546 b53c 8b22 1fb3
00000030: 99c2 f333 49fa d73c a054 8aa8 e68c 9a2f
