neural-collaborative-filtering/src/checkpoints/pretrain_neumf_factor8neg4_Epoch177_HR1.0000_NDCG0.8483.model (torch, 579115 bytes, 15 tensors)

embedding_user_mlp.weight f4 [7700, 8]
0	0xaeaa14ef	-7.7344235e-11
1	0x31900ec6	4.192631e-09
2	0x2e605ec7	5.1015882e-11
3	0x36abad2c	5.116357e-06
4	0xb485e733	-2.49414e-07
5	0x3641e947	2.8895026e-06
6	0x2bcecb57	1.4693619e-12
7	0xb642d388	-2.903138e-06
8	0x311997ab	2.2350644e-09
9	0x2fc97706	3.6646258e-10
10	0xb01f4e88	-5.795546e-10
11	0xb4abd424	-3.2005585e-07
12	0x29887f6e	6.061719e-14
13	0x2fe63ebb	4.188133e-10
14	0x29316448	3.9388875e-14
15	0xac98d764	-4.344013e-12
16	0xb35e45d3	-5.1751908e-08
17	0xb2c55306	-2.2971573e-08
18	0xb143cab6	-2.8491463e-09
19	0xae3505c3	-4.1159753e-11
20	0xb680a700	-3.8341386e-06
21	0x3643d6f4	2.9182384e-06
22	0x29d4dfd9	9.4535226e-14
23	0x334f66ab	4.828932e-08
24	0xb705ee64	-7.982922e-06
25	0x37b0193c	2.0992586e-05
26	0x387def8c	6.0542996e-05
27	0x35ae6270	1.2992659e-06
28	0x37773e14	1.4736801e-05
29	0xb8028dcc	-3.1126474e-05
30	0xb78b8539	-1.6632128e-05
31	0xb72a021a	-1.0133279e-05
32	0xb72448ba	-9.792095e-06
33	0x345d79e8	2.0626578e-07
34	0xb684671c	-3.94591e-06
35	0x3689e530	4.109599e-06
36	0x380d69ae	3.371544e-05
37	0x35d74400	1.6038539e-06
38	0x3846a1e7	4.7357662e-05
39	0x3681d1cc	3.868923e-06
40	0xb50eb410	-5.316115e-07
41	0xb695498c	-4.449108e-06
42	0xb852f336	-5.029441e-05
43	0x3843a498	4.6644913e-05
44	0x36aa1fe4	5.0701074e-06
45	0x359c5be0	1.1649645e-06
46	0xb8a85ebb	-8.028509e-05
47	0xb425958e	-1.542123e-07
48	0xb7b9792c	-2.2110144e-05
49	0xb6113257	-2.1635985e-06
50	0xb78f1a9b	-1.7059318e-05
51	0xb7a7daa1	-2.0009758e-05
52	0x366c30b0	3.519508e-06
53	0x371a49f6	9.196336e-06
54	0x372df4b0	1.0368574e-05
55	0xb62fbff2	-2.618876e-06
56	0xb6c7a600	-5.949987e-06
57	0xb7baf506	-2.2287026e-05
58	0xb7f599a3	-2.9277819e-05
59	0xb7dc4f02	-2.6262835e-05
60	0xb708a9f8	-8.145806e-06
61	0x36c84a70	5.96913e-06
62	0x38aedbf1	8.337934e-05
63	0x36902605	4.2959605e-06
64	0x38bfb094	9.14048e-05
65	0xb707dffd	-8.098778e-06
66	0xb7bc2348	-2.2427776e-05
67	0x38a0af7a	7.6620796e-05
68	0xb79a2fbb	-1.8380457e-05
69	0x35165958	5.6009367e-07
70	0xb8b4521a	-8.5983615e-05
71	0x36b163b4	5.286618e-06
72	0x3722bf4e	9.700494e-06
73	0xb5f7620a	-1.8431467e-06
74	0x35272b3e	6.2275274e-07
75	0xb4cff274	-3.8733162e-07
76	0x377da032	1.51172735e-05
77	0x37ab8eac	2.0451225e-05
78	0xb62f76ed	-2.6146256e-06
79	0xb5d55ea3	-1.589728e-06
80	0xb72774ab	-9.98114e-06
81	0x377a87e4	1.4932801e-05
82	0x386fe946	5.7199293e-05
83	0x37ce29f8	2.4576657e-05
84	0xb8a4bce2	-7.8553116e-05
85	0x3749034a	1.1981299e-05
86	0xb91dbe52	-0.00015043587
87	0xb8d8b078	-0.000103325525
88	0x367dbab0	3.7808604e-06
89	0xb70bc41a	-8.330704e-06
90	0x3713a648	8.800598e-06
91	0x34edae58	4.4271542e-07
92	0xb757a880	-1.2854231e-05
93	0xb77c8f64	-1.5053756e-05
94	0x37bd54b8	2.2570006e-05
95	0x378141e0	1.5408674e-05
96	0x3768fb07	1.3886724e-05
97	0x35c5106a	1.4682421e-06
98	0x357ebbea	9.4895825e-07
99	0x38b39b56	8.564319e-05
100	0x38cd5a28	9.791955e-05
101	0x342c38f4	1.6039468e-07
102	0x375cfc32	1.3171741e-05
103	0x35de450a	1.6560382e-06
104	0xb724bcc8	-9.819116e-06
105	0xb6a17b6d	-4.8125426e-06
106	0xb647c3ff	-2.9767396e-06
107	0x33258540	3.8538246e-08
108	0x3857aae2	5.141914e-05
109	0x381f148e	3.7927697e-05
110	0x3700543c	7.649007e-06
111	0xb48b2bc6	-2.5922617e-07
112	0x3734c5b6	1.0774869e-05
113	0xb6b198b0	-5.292786e-06
114	0xb8112093	-3.460103e-05
115	0xb6a89fec	-5.0254075e-06
116	0x35b1f410	1.3258559e-06
117	0x3851bd82	5.0005976e-05
118	0x3677957c	3.689288e-06
119	0x3516f14c	5.623049e-07
120	0x36412e10	2.8786053e-06
121	0xb32ac342	-3.9758795e-08
122	0x2a672798	2.0530658e-13
123	0xb417a3bb	-1.4122536e-07
124	0xae0200a8	-2.955916e-11
125	0xb41d6f15	-1.4662176e-07
126	0x36718ab2	3.599253e-06
127	0xacd9fc56	-6.195526e-12
128	0x36f33519	7.2481457e-06
129	0x34a891e8	3.13986e-07
130	0xb58d925b	-1.0547914e-06
131	0x363e58ea	2.836396e-06
132	0x388b73f6	6.649636e-05
133	0xb867b3f6	-5.5242293e-05
134	0xb5981a97	-1.1332621e-06
135	0x363ed768	2.843759e-06
136	0xb868f2bb	-5.553917e-05
137	0xb45f934c	-2.082208e-07
138	0x38bceda0	9.0088e-05
139	0x3705ae31	7.967975e-06
140	0xb7688e8f	-1.386147e-05
141	0x378ce664	1.6796585e-05
142	0x3808ad05	3.2586064e-05
143	0x3519a4a0	5.72365e-07
144	0x33deb8de	1.0371308e-07
145	0xb58641bc	-1.0002909e-06
146	0xb5326c62	-6.6467885e-07
147	0x35207cd1	5.9786277e-07
148	0x37ebcf81	2.811081e-05
149	0x36efdfcc	7.1488084e-06
150	0xb7f88330	-2.9624993e-05
151	0xb87c361d	-6.013188e-05
152	0x3546d3ee	7.4069146e-07
153	0x354940fc	7.49729e-07
154	0x37813785	1.5403852e-05
155	0xb7ba8956	-2.223688e-05
156	0xb6f96721	-7.432784e-06
157	0xb67d0a34	-3.7705877e-06
158	0x38201f59	3.8176167e-05
159	0x374bed1e	1.2154951e-05
160	0xb5f1c0aa	-1.8011972e-06
161	0x38133542	3.509713e-05
162	0xb6e5115c	-6.8267527e-06
163	0x38a11849	7.681602e-05
164	0xb73f9b28	-1.1420612e-05
165	0xb6acf760	-5.1547977e-06
166	0x37e88faa	2.7723454e-05
167	0x37d0a53c	2.4872475e-05
168	0xb50f7ecf	-5.345618e-07
169	0x380d8a98	3.3746095e-05
170	0x374f371a	1.2350991e-05
171	0xb71e61fe	-9.4403495e-06
172	0x36a396a2	4.8753145e-06
173	0x35ee0f4c	1.7736834e-06
174	0x37c4f9b0	2.348129e-05
175	0xb807b408	-3.2354175e-05
176	0x37666345	1.3732181e-05
177	0xb653235a	-3.1462027e-06
178	0xb55bae3a	-8.183739e-07
179	0x35514c1a	7.796931e-07
180	0xb5eea3e2	-1.7780078e-06
181	0x38aa58a0	8.1227394e-05
182	0x35ce3046	1.5362245e-06
183	0x35d96a28	1.6198655e-06
184	0x34f37320	4.5346042e-07
185	0xb61323a1	-2.1925446e-06
186	0x3586f730	1.0055719e-06
187	0xb6bba918	-5.5927194e-06
188	0x379901cb	1.8239856e-05
189	0x389a4f9a	7.358119e-05
190	0xb6a9cd42	-5.0604876e-06
191	0xb685c0a8	-3.986137e-06
192	0xb6a01fc3	-4.772069e-06
193	0x36a72848	4.981677e-06
194	0x3783dfb2	1.5720583e-05
195	0xb6c3b382	-5.8323503e-06
196	0x371849ed	9.077118e-06
197	0x35a9d402	1.2653184e-06
198	0xb73a4a40	-1.1103752e-05
199	0xb414fdf0	-1.3875956e-07
200	0xb6e5beb6	-6.8469335e-06
201	0x36cd1f60	6.1131286e-06
202	0xb7a033f4	-1.9097679e-05
203	0x37e130e4	2.6844857e-05
204	0x372acef1	1.0180972e-05
205	0xb7961b53	-1.7894117e-05
206	0x37a19cbd	1.9265683e-05
207	0xb70d8498	-8.435127e-06
208	0x36605ece	3.3433785e-06
209	0x36b6d435	5.448727e-06
210	0xb7cd3881	-2.4464216e-05
211	0xb59f47f0	-1.186736e-06
212	0xb6015951	-1.9274487e-06
213	0x36347564	2.689042e-06
214	0x38a61912	7.9201665e-05
215	0xb6d1efee	-6.256617e-06
216	0xb557e80f	-8.043143e-07
217	0xb81c26aa	-3.7229307e-05
218	0xb5dcdf56	-1.6456277e-06
219	0xb6ad8510	-5.1712923e-06
220	0x36d7218a	6.411404e-06
221	0xb651b46f	-3.1248453e-06
222	0xb814c9d2	-3.547391e-05
223	0xb5c3059c	-1.4530265e-06
224	0x369215bc	4.3536693e-06
225	0x32b23064	2.0743933e-08
226	0xb825721f	-3.944535e-05
227	0x2e6f1cd4	5.4367913e-11
228	0xb34896f2	-4.6703413e-08
229	0x35c52089	1.4687113e-06
230	0x36966a32	4.482711e-06
231	0xab2eb3f0	-6.206693e-13
232	0x313bdc30	2.7337244e-09
233	0xab745f6c	-8.681864e-13
234	0xabda8ba6	-1.5528592e-12
235	0xab2756ae	-5.945061e-13
236	0xae2b6800	-3.897327e-11
237	0xb37e1f5c	-5.9167505e-08
238	0x355674dc	7.9891265e-07
239	0xaade2b6a	-3.9465246e-13
240	0xb768c39f	-1.3873824e-05
241	0xb488ddb8	-2.5493296e-07
242	0x382d739a	4.1354077e-05
243	0x36ce432f	6.1470996e-06
244	0xb5eb4686	-1.7529389e-06
245	0xb718b09b	-9.101025e-06
246	0xb4acdc3b	-3.2197735e-07
247	0xb6d59960	-6.36575e-06
248	0xb77326a8	-1.4492929e-05
249	0xb7319e94	-1.0586944e-05
250	0x33573351	5.010526e-08
251	0x35801919	9.544048e-07
252	0x382b45ba	4.0834515e-05
253	0x35801a71	9.544439e-07
254	0x384f9660	4.9492694e-05
255	0xb7525004	-1.25356055e-05

embedding_item_mlp.weight f4 [8, 1024]
0	0xb31d0e75	-3.656756e-08
1	0x33ae71e8	8.123226e-08
2	0x33475f88	4.6420183e-08
3	0x347cd016	2.354503e-07
4	0x3239e980	1.0821509e-08
5	0xb4b8d7d3	-3.4429704e-07
6	0x34337112	1.6711809e-07
7	0xb3ce988e	-9.620372e-08
8	0xb3981e3e	-7.0835526e-08
9	0xb4b38688	-3.3439233e-07
10	0xb45093fd	-1.9425347e-07
11	0x350645f0	5.002066e-07
12	0x3491cad6	2.7155937e-07
13	0x3402c9e2	1.2180638e-07
14	0xb477e38a	-2.3086446e-07
15	0x34e4797a	4.2556695e-07
16	0x33150bf8	3.470265e-08
17	0xb411f65c	-1.3593802e-07
18	0x3487da41	2.530451e-07
19	0xb3e056a9	-1.0446576e-07
20	0x33a102b9	7.497642e-08
21	0x344b78b4	1.894976e-07
22	0x32bb6f10	2.182017e-08
23	0xb4aab6f0	-3.1798072e-07
24	0x34aa9d6b	3.1779504e-07
25	0x329cdb8a	1.8260625e-08
26	0xb34c5668	-4.7576037e-08
27	0xb404fbdc	-1.2385084e-07
28	0xb4b71279	-3.4099847e-07
29	0xb4233286	-1.5198938e-07
30	0xb2c4d1c4	-2.2912793e-08
31	0xb38f278c	-6.66615e-08
32	0x32a0383a	1.865202e-08
33	0x34bee854	3.55593e-07
34	0x343dfb9a	1.7693529e-07
35	0x34cfa2d0	3.8675216e-07
36	0x3463a85c	2.1202271e-07
37	0xb44a20f4	-1.8824704e-07
38	0xb2cfcaba	-2.4190161e-08
39	0x34e83747	4.3253587e-07
40	0xb4907dfb	-2.6913753e-07
41	0xb3d4d952	-9.9115496e-08
42	0xb48a2cd2	-2.5737114e-07
43	0x318de9dd	4.1302273e-09
44	0x331e077c	3.679405e-08
45	0x348f4440	2.6685484e-07
46	0x3377b91c	5.7677525e-08
47	0xb21ee6a0	-9.2492485e-09
48	0x3469ca86	2.1773494e-07
49	0xb501b4ad	-4.831916e-07
50	0xb4fe977e	-4.7421412e-07
51	0x347c9fd6	2.3527477e-07
52	0x348ff2fa	2.6812614e-07
53	0xb3809e3b	-5.9892464e-08
54	0xb33d5dac	-4.4090186e-08
55	0x3410d531	1.3488604e-07
56	0xb3593f38	-5.0581747e-08
57	0xb48e9b9e	-2.6562788e-07
58	0xb389fd60	-6.425648e-08
59	0x3517916f	5.646352e-07
60	0xb435cade	-1.6930741e-07
61	0xb413f4cd	-1.37795e-07
62	0xb45f3bcb	-2.0790246e-07
63	0x34ef9b98	4.4630428e-07
64	0x3484603c	2.4656936e-07
65	0x345dab9a	2.0644657e-07
66	0xb4a19a62	-3.0100915e-07
67	0xb3f1844e	-1.1246503e-07
68	0xb433095a	-1.6674076e-07
69	0x351438d3	5.5216987e-07
70	0x33da2862	1.0158762e-07
71	0x33625099	5.269303e-08
72	0xb3ccc81e	-9.5358914e-08
73	0x34b2d036	3.3306577e-07
74	0x35352aee	6.7490225e-07
75	0xb2f90e9d	-2.899406e-08
76	0xb46f7438	-2.230089e-07
77	0x34951f9e	2.7776417e-07
78	0xb48feb1a	-2.6806885e-07
79	0x3494f6b0	2.7746637e-07
80	0xb4124744	-1.3623236e-07
81	0xb32fe524	-4.0953765e-08
82	0xb55b7df8	-8.1767166e-07
83	0xb4d8e910	-4.040271e-07
84	0x3480291c	2.387177e-07
85	0xb4de9591	-4.1459546e-07
86	0xb434dd90	-1.684441e-07
87	0xb4940fea	-2.7578727e-07
88	0x342e5d1e	1.6238889e-07
89	0x320da530	8.2448395e-09
90	0x349a83f8	2.8780755e-07
91	0xb442e31f	-1.8150284e-07
92	0xb4906d1f	-2.6901486e-07
93	0xb4fa4190	-4.6613832e-07
94	0xb3bbed06	-8.7509804e-08
95	0xb46db4ac	-2.2138073e-07
96	0xb43d6ed0	-1.764231e-07
97	0xb48b44c0	-2.594079e-07
98	0x34d3dcf8	3.9462589e-07
99	0x3386cbfb	6.276965e-08
100	0xb4add805	-3.2380936e-07
101	0x3327c434	3.9061163e-08
102	0xb34edd9c	-4.8164665e-08
103	0x34ab7a57	3.1940246e-07
104	0x3460952f	2.0915898e-07
105	0xb43de514	-1.7685335e-07
106	0xb4871b43	-2.5165545e-07
107	0xb49dd123	-2.9395696e-07
108	0xb50db7a8	-5.279385e-07
109	0x34cb33cc	3.7849384e-07
110	0xb4c35e42	-3.6390162e-07
111	0xb30d02f4	-3.2831807e-08
112	0x345b41d2	2.041991e-07
113	0xb49603f6	-2.794256e-07
114	0xb4226e0f	-1.5127465e-07
115	0xb4b824fd	-3.4299583e-07
116	0x33a639e8	7.7405105e-08
117	0x3327e098	3.9086984e-08
118	0x34db83e4	4.0887892e-07
119	0xb459dace	-2.02893e-07
120	0xb36f1a53	-5.5670466e-08
121	0xb5269353	-6.2054204e-07
122	0xb4864bab	-2.50145e-07
123	0xb4b885c5	-3.437e-07
124	0xb4ae08e0	-3.2416483e-07
125	0x342dd5fa	1.6189725e-07
126	0x33ae8e6c	8.128413e-08
127	0xb37f7e52	-5.9486702e-08
128	0x32e18ea0	2.6258306e-08
129	0x33cb8b42	9.478255e-08
130	0xb40ed155	-1.3300935e-07
131	0xb3e8bd87	-1.0837817e-07
132	0xb4246686	-1.5310988e-07
133	0xb3c471ab	-9.147637e-08
134	0xb5156f12	-5.5668454e-07
135	0x354d6e54	7.6529e-07
136	0xb47213bb	-2.2545184e-07
137	0x3456bf90	1.9999993e-07
138	0x341f6963	1.4846368e-07
139	0x34864688	2.5010763e-07
140	0xb41bd1aa	-1.4511775e-07
141	0xb501c5bc	-4.8343986e-07
142	0xb49d4f47	-2.930121e-07
143	0xb4d5e878	-3.9843485e-07
144	0x330d114b	3.284485e-08
145	0xb37dec3b	-5.9121003e-08
146	0xb4bead31	-3.551627e-07
147	0x342e642d	1.6241457e-07
148	0xb4c38096	-3.641514e-07
149	0xb509f888	-5.139814e-07
150	0xb23a0b1f	-1.0829154e-08
151	0x350befee	5.213068e-07
152	0x348b482e	2.5943285e-07
153	0xb49ac102	-2.8825167e-07
154	0xb4ae9e89	-3.2525375e-07
155	0xb36287d8	-5.2743275e-08
156	0x34b35c16	3.340835e-07
157	0x34a08b6a	2.990376e-07
158	0xb5285a81	-6.271658e-07
159	0x34f80f45	4.620471e-07
160	0x343792cb	1.7096606e-07
161	0x34b0e3f3	3.294841e-07
162	0x35003bc8	4.777071e-07
163	0x34321664	1.6585687e-07
164	0xb32785bf	-3.900436e-08
165	0x34537abe	1.969556e-07
166	0xb475d0b2	-2.2893326e-07
167	0xb38b6a4d	-6.492028e-08
168	0x340f1a28	1.3327428e-07
169	0x3518494d	5.673108e-07
170	0xb4624fd2	-2.1076929e-07
171	0x34846480	2.466004e-07
172	0xb43dd85a	-1.7680705e-07
173	0xb4dfb42b	-4.1668076e-07
174	0x3367e421	5.399136e-08
175	0xb3187bc0	-3.5502808e-08
176	0xb4bc81f6	-3.5112288e-07
177	0xb4b7bf9e	-3.4225826e-07
178	0xb32c6130	-4.0135262e-08
179	0xb4209f38	-1.4959085e-07
180	0x33d1de65	9.772774e-08
181	0x33912d1c	6.760294e-08
182	0xb3d3e205	-9.866566e-08
183	0x3371b27c	5.6274516e-08
184	0xb3cdd70c	-9.585173e-08
185	0x3484a161	2.4704335e-07
186	0x34d6fa16	4.0042568e-07
187	0xb43306e3	-1.667318e-07
188	0x33fc945a	1.17616494e-07
189	0xb415e4d3	-1.3959952e-07
190	0xb331a080	-4.1356998e-08
191	0xb39519aa	-6.9430214e-08
192	0xb37322d0	-5.6609508e-08
193	0x34849b7b	2.4700043e-07
194	0xb4a2d6fe	-3.033128e-07
195	0x33924bc7	6.8124386e-08
196	0xb2eea522	-2.778194e-08
197	0x33d82760	1.0065446e-07
198	0x351309a0	5.4775774e-07
199	0x34c8530a	3.7313322e-07
200	0xb40907ee	-1.2762004e-07
201	0xb449d733	-1.8797873e-07
202	0xb4d2535f	-3.917621e-07
203	0xb4eaed9f	-4.375879e-07
204	0xb4e4e994	-4.263826e-07
205	0xb4a26652	-3.02493e-07
206	0xb3a0a3e4	-7.480392e-08
207	0x33714e96	5.618366e-08
208	0x34bed182	3.5542695e-07
209	0xb4331d02	-1.6681227e-07
210	0xb376cc6c	-5.746226e-08
211	0x3213d050	8.603891e-09
212	0xb3b52f43	-8.437066e-08
213	0xb4883205	-2.5368368e-07
214	0x348bf080	2.6065754e-07
215	0x35434310	7.274075e-07
216	0x357069c0	8.9560854e-07
217	0xb475c22c	-2.2888042e-07
218	0xb448faa8	-1.871764e-07
219	0x34e4d182	4.2620746e-07
220	0x3332753c	4.155048e-08
221	0xb354ecf2	-4.9575597e-08
222	0xb4247ec4	-1.5319807e-07
223	0x343b4b5e	1.744315e-07
224	0xb4daf897	-4.0786537e-07
225	0x34c165bc	3.6023073e-07
226	0xb4f21b30	-4.5095794e-07
227	0xb437fa6a	-1.7134303e-07
228	0xb3fd4ac6	-1.1794832e-07
229	0xb487280c	-2.5174847e-07
230	0x341ed27e	1.4791473e-07
231	0xb50ac51c	-5.169584e-07
232	0xb4b64e3c	-3.3957065e-07
233	0xb3eef146	-1.1126626e-07
234	0xb14eb3c0	-3.0079121e-09
235	0x344d2cb0	1.910837e-07
236	0xb4e97187	-4.3482234e-07
237	0x348bf7be	2.6071024e-07
238	0x34b010af	3.2794694e-07
239	0x346d1e51	2.2083374e-07
240	0x33b606f4	8.4763e-08
241	0x3456f03d	2.0017701e-07
242	0xb3b5c7d7	-8.46482e-08
243	0x34c5c944	3.684055e-07
244	0xb0639400	-8.279244e-10
245	0xb3a25ad8	-7.560237e-08
246	0x344375a4	1.8203588e-07
247	0x335c9cd8	5.136539e-08
248	0xb4096f68	-1.2799649e-07
249	0xb3d5accb	-9.950016e-08
250	0x34b4dbe0	3.3687593e-07
251	0xb2939d2e	-1.718453e-08
252	0xb4e77dd4	-4.3118655e-07
253	0x3502282d	4.848724e-07
254	0x34fe051e	4.731491e-07
255	0x341a09d0	1.4345937e-07

embedding_item_mlp.bias f4 [8]
0	0xb5267e7e	-6.202389e-07
1	0x3b1f1d62	0.0024278988
2	0x3c00fff3	0.007873523
3	0xbdd3ad7a	-0.103358224
4	0xb9046b39	-0.00012628445
5	0x398b73c3	0.00026598395
6	0xbb3c4945	-0.0028730195
7	0x3808757e	3.253435e-05

embedding_user_mf.weight f4 [7700, 8]
0	0x000097ac	5.441e-41
1	0x00006064	3.4578e-41
2	0x80003f8e	-2.2799e-41
3	0x00004fde	2.8651e-41
4	0x00003867	2.0233e-41
5	0x80000904	-3.234e-42
6	0x80006f8f	-4.002e-41
7	0x80008ae7	-4.9829e-41
8	0x800013fe	-7.172e-42
9	0x800003cc	-1.362e-42
10	0x0000af08	6.279e-41
11	0x00000905	3.236e-42
12	0x80000073	-1.61e-43
13	0x80007403	-4.1617e-41
14	0x80001f50	-1.1233e-41
15	0x8000625b	-3.5283e-41
16	0x00000aaa	3.826e-42
17	0x80003f09	-2.2613e-41
18	0xaf2d8570	-1.5781665e-10
19	0x00003232	1.8007e-41
20	0x80001d77	-1.057e-41
21	0x0000322e	1.8001e-41
22	0x00001723	8.3e-42
23	0x80004940	-2.6277e-41
24	0x00000503	1.798e-42
25	0x0000af9b	6.2995e-41
26	0x00000691	2.356e-42
27	0x80008ae4	-4.9825e-41
28	0x80003e76	-2.2407e-41
29	0x80001ad8	-9.63e-42
30	0xb378bcc2	-5.7913674e-08
31	0x800021c7	-1.2117e-41
32	0x00003c2e	2.1588e-41
33	0x80002d52	-1.6258e-41
34	0x80002ee2	-1.6818e-41
35	0x00000321	1.122e-42
36	0x8000bff3	-6.8858e-41
37	0x00007036	4.0254e-41
38	0x380345f4	3.1297983e-05
39	0x800006fa	-2.503e-42
40	0x0000174a	8.355e-42
41	0x000073fb	4.1606e-41
42	0x800015f4	-7.875e-42
43	0x000027e9	1.4317e-41
44	0x00001cab	1.0284e-41
45	0x2e383489	4.1883417e-11
46	0x34b82b21	3.430405e-07
47	0x00005db3	3.3613e-41
48	0x80000a04	-3.593e-42
49	0x00001578	7.702e-42
50	0x80007dde	-4.5153e-41
51	0x8000754a	-4.2075e-41
52	0x80006670	-3.6748e-41
53	0x800015bf	-7.801e-42
54	0xb4358ba5	-1.6907741e-07
55	0x00006c5f	3.8876e-41
56	0x80009c9c	-5.6181e-41
57	0x80002001	-1.1481e-41
58	0x8000075e	-2.643e-42
59	0x80000a62	-3.725e-42
60	0x00004d60	2.7757e-41
61	0x80002fa6	-1.7093e-41
62	0x360cd672	2.098645e-06
63	0x000017c7	8.53e-42
64	0x8000151f	-7.577e-42
65	0x0000727e	4.1072e-41
66	0x0000113b	6.181e-42
67	0x8000b31c	-6.4252e-41
68	0x800014f1	-7.512e-42
69	0x00001a46	9.425e-42
70	0x330b833e	3.2482824e-08
71	0x000055fc	3.0845e-41
72	0x00001b31	9.754e-42
73	0x000001c9	6.4e-43
74	0x0000285f	1.4482e-41
75	0x000024b2	1.3164e-41
76	0x0000300d	1.7237e-41
77	0x800010e2	-6.056e-42
78	0xb0bd55f4	-1.3775989e-09
79	0x00003fea	2.2928e-41
80	0x0000a88b	6.0462e-41
81	0x80007250	-4.1008e-41
82	0x0000400b	2.2974e-41
83	0x00004911	2.6211e-41
84	0x00000e31	5.091e-42
85	0x80001c4c	-1.0151e-41
86	0xb429fbf8	-1.5831017e-07
87	0x800030df	-1.7532e-41
88	0x0000106d	5.892e-42
89	0x00004c90	2.7465e-41
90	0x80008946	-4.9244e-41
91	0x3116c0c4	2.1937447e-09
92	0x80003cbf	-2.1792e-41
93	0x80006610	-3.6613e-41
94	0xb28486d2	-1.5428132e-08
95	0x0000006e	1.54e-43
96	0x800010a6	-5.972e-42
97	0x80000764	-2.651e-42
98	0x00007dc4	4.5116e-41
99	0x00000423	1.484e-42
100	0x00000e14	5.05e-42
101	0x0000b87a	6.6178e-41
102	0x359312b5	1.0957798e-06
103	0x80002239	-1.2277e-41
104	0x800007ec	-2.842e-42
105	0x80007d42	-4.4934e-41
106	0x80004069	-2.3106e-41
107	0x00000c97	4.516e-42
108	0x80000ad6	-3.887e-42
109	0x00001b36	9.761e-42
110	0x32a1ae36	1.8822089e-08
111	0x80007d10	-4.4864e-41
112	0x800026a4	-1.3862e-41
113	0x000019fb	9.32e-42
114	0x00000223	7.67e-43
115	0x800003ad	-1.319e-42
116	0x00001909	8.981e-42
117	0x800024b2	-1.3164e-41
118	0x3312e767	3.4203733e-08
119	0x00001da7	1.0637e-41
120	0x80007fcb	-4.5843e-41
121	0x8000763b	-4.2413e-41
122	0x000043d3	2.4331e-41
123	0x800026fd	-1.3986e-41
124	0x00007caa	4.4721e-41
125	0x800061a2	-3.5024e-41
126	0x80006381	-3.5695e-41
127	0x80004fa0	-2.8564e-41
128	0x00001357	6.938e-42
129	0x80005341	-2.9866e-41
130	0x80004bf8	-2.7252e-41
131	0x00002198	1.2051e-41
132	0x00000833	2.941e-42
133	0x80000aee	-3.921e-42
134	0xb758e19b	-1.2927131e-05
135	0x80000786	-2.699e-42
136	0x80001636	-7.968e-42
137	0x8000165b	-8.02e-42
138	0x80003b50	-2.1277e-41
139	0x00000f54	5.499e-42
140	0x80001834	-8.682e-42
141	0xb1135dd6	-2.1444655e-09
142	0xb198c596	-4.446245e-09
143	0x00006e4d	3.9568e-41
144	0x0000116e	6.253e-42
145	0x80003d11	-2.1906e-41
146	0x800057d4	-3.1507e-41
147	0x80000689	-2.344e-42
148	0x00002061	1.1615e-41
149	0x000095d5	5.375e-41
150	0xb7dd8694	-2.640792e-05
151	0x8000539e	-2.9996e-41
152	0x00000219	7.52e-43
153	0x000075fc	4.2325e-41
154	0x00009025	5.171e-41
155	0x00001ddb	1.071e-41
156	0xab6bedf0	-8.3818976e-13
157	0x800004db	-1.742e-42
158	0xb3bb4398	-8.720161e-08
159	0x0000155b	7.661e-42
160	0x8000a3e9	-5.88e-41
161	0x00007460	4.1747e-41
162	0x80003a68	-2.0952e-41
163	0x80008b33	-4.9935e-41
164	0x00002b1c	1.5465e-41
165	0x000002c3	9.91e-43
166	0x30843c0d	9.621332e-10
167	0x8000afc6	-6.3056e-41
168	0x00001bd1	9.979e-42
169	0x800040de	-2.327e-41
170	0x00008881	4.8968e-41
171	0x80004da0	-2.7847e-41
172	0x00005906	3.1936e-41
173	0x00006146	3.4895e-41
174	0x348ec0a3	2.6589723e-07
175	0x80002665	-1.3773e-41
176	0x80000ba2	-4.173e-42
177	0x80008ee2	-5.1257e-41
178	0x000050f6	2.9043e-41
179	0x00008fe3	5.1617e-41
180	0x80009c83	-5.6146e-41
181	0x8000580e	-3.1588e-41
182	0xb8115193	-3.4646666e-05
183	0x80007b19	-4.4159e-41
184	0x00009565	5.3593e-41
185	0x80000338	-1.155e-42
186	0x800011df	-6.411e-42
187	0x8000c4d8	-7.0614e-41
188	0x80006719	-3.6984e-41
189	0x800015a1	-7.759e-42
190	0x31e90d2a	6.782689e-09
191	0x00006ffb	4.0171e-41
192	0x00004536	2.4828e-41
193	0x00001d31	1.0472e-41
194	0x00001992	9.173e-42
195	0x8000198c	-9.164e-42
196	0x000078f2	4.3387e-41
197	0x00008516	4.7742e-41
198	0x359f07a8	1.1848651e-06
199	0x800081fa	-4.6627e-41
200	0x00000cc3	4.578e-42
201	0x00001d48	1.0504e-41
202	0x8000c152	-6.935e-41
203	0x00004d7d	2.7798e-41
204	0x8000112e	-6.163e-42
205	0x00003561	1.9149e-41
206	0xb164df9c	-3.3305474e-09
207	0x000028ac	1.459e-41
208	0x00000493	1.641e-42
209	0x80001dda	-1.0709e-41
210	0x80000cd5	-4.603e-42
211	0x80003f5d	-2.273e-41
212	0x0000a1bb	5.8018e-41
213	0x800018d4	-8.907e-42
214	0xb8e0fc9a	-0.00010728203
215	0x80002ff2	-1.72e-41
216	0x00001654	8.01e-42
217	0x80002d92	-1.6348e-41
218	0x80001e0c	-1.0779e-41
219	0x80003c7d	-2.1699e-41
220	0x800080b4	-4.617e-41
221	0x80009d46	-5.6419e-41
222	0xb08b1cd6	-1.0121777e-09
223	0x80001df5	-1.0747e-41
224	0x0000508f	2.8899e-41
225	0x80000453	-1.551e-42
226	0x00008bc3	5.0137e-41
227	0x8000bcc0	-6.7711e-41
228	0x00002eb0	1.6748e-41
229	0x00005e13	3.3747e-41
230	0x00003239	1.8016e-41
231	0x80006e8c	-3.9657e-41
232	0x800028a6	-1.4582e-41
233	0x800022f2	-1.2536e-41
234	0x800033f1	-1.8633e-41
235	0x8000057e	-1.97e-42
236	0x00002506	1.3282e-41
237	0x8000415e	-2.345e-41
238	0x0000021d	7.58e-43
239	0x0000402f	2.3025e-41
240	0x8000448d	-2.4591e-41
241	0x00001da0	1.0627e-41
242	0x0000aa83	6.1168e-41
243	0x80006cf2	-3.9082e-41
244	0x80007a5f	-4.3898e-41
245	0x80000d51	-4.777e-42
246	0xb0adf34e	-1.2656558e-09
247	0x00001c9a	1.026e-41
248	0x80006dad	-3.9344e-41
249	0x80004094	-2.3166e-41
250	0x0000ae60	6.2554e-41
251	0x800071b9	-4.0796e-41
252	0x0000603a	3.452e-41
253	0x80001855	-8.729e-42
254	0xb2222e54	-9.440175e-09
255	0x0000c0a7	6.911e-41

embedding_item_mf.weight f4 [8, 1024]
0	0x00004318	2.4069e-41
1	0x8000ace9	-6.2028e-41
2	0x80001eac	-1.1003e-41
3	0x800085cd	-4.7999e-41
4	0x00000de2	4.98e-42
5	0x00001a9e	9.548e-42
6	0x80008431	-4.7421e-41
7	0x0000aafe	6.134e-41
8	0x00004ad3	2.6842e-41
9	0x8000477a	-2.5641e-41
10	0x80007e75	-4.5364e-41
11	0x00001d40	1.0493e-41
12	0x80005200	-2.9416e-41
13	0x80000ffe	-5.737e-42
14	0x0000b5c6	6.5208e-41
15	0x8000579c	-3.1428e-41
16	0x80009d04	-5.6327e-41
17	0x80001b19	-9.721e-42
18	0x0000bb10	6.7105e-41
19	0x000039ba	2.0708e-41
20	0x00005d11	3.3386e-41
21	0x80000340	-1.166e-42
22	0x00003232	1.8007e-41
23	0x800005e6	-2.116e-42
24	0x000046f1	2.5449e-41
25	0x800014a0	-7.399e-42
26	0x00008924	4.9197e-41
27	0x800038b9	-2.0348e-41
28	0x00000456	1.555e-42
29	0x00008a8a	4.9698e-41
30	0x80001022	-5.787e-42
31	0x800064ad	-3.6116e-41
32	0x00004249	2.3779e-41
33	0x8000b1b4	-6.3748e-41
34	0x80003c13	-2.155e-41
35	0x00003659	1.9496e-41
36	0x00000002	3e-45
37	0x80004eea	-2.8309e-41
38	0x8000bec8	-6.844e-41
39	0x000003eb	1.406e-42
40	0x00006b29	3.8442e-41
41	0x000061f1	3.5135e-41
42	0x000023d0	1.2847e-41
43	0x0000b029	6.3194e-41
44	0x80001c6a	-1.0193e-41
45	0x80005e6f	-3.3876e-41
46	0x000030d7	1.752e-41
47	0x800026a9	-1.3869e-41
48	0x00005a87	3.2475e-41
49	0x0000b9c0	6.6635e-41
50	0x800074a4	-4.1843e-41
51	0x8000090f	-3.25e-42
52	0x000039c2	2.072e-41
53	0x800010e1	-6.055e-42
54	0x0000471c	2.5509e-41
55	0x80003998	-2.0661e-41
56	0x00009e35	5.6754e-41
57	0x80003838	-2.0167e-41
58	0x8000bdc2	-6.8072e-41
59	0x800065f4	-3.6574e-41
60	0x000048b2	2.6078e-41
61	0x80000853	-2.986e-42
62	0x80004c6c	-2.7415e-41
63	0x00006f09	3.9832e-41
64	0x80004f9b	-2.8557e-41
65	0x8000446a	-2.4542e-41
66	0x80000e22	-5.07e-42
67	0x800073ce	-4.1543e-41
68	0x80002679	-1.3801e-41
69	0x800014ea	-7.503e-42
70	0x80001528	-7.59e-42
71	0x00006324	3.5565e-41
72	0x80004914	-2.6215e-41
73	0x80001f36	-1.1196e-41
74	0x80007fe9	-4.5886e-41
75	0x8000173c	-8.335e-42
76	0x80005cb5	-3.3257e-41
77	0x0000ab90	6.1545e-41
78	0x80009f03	-5.7043e-41
79	0x80004bf6	-2.725e-41
80	0x80000674	-2.315e-42
81	0x80000da8	-4.899e-42
82	0x00003dc0	2.2152e-41
83	0x00003599	1.9227e-41
84	0x0000bf5a	6.8644e-41
85	0x80000447	-1.534e-42
86	0x00004e28	2.8037e-41
87	0x8000232f	-1.2621e-41
88	0x00002bdf	1.5738e-41
89	0x000011a2	6.325e-42
90	0x80007dd0	-4.5133e-41
91	0x00001a38	9.406e-42
92	0x8000121a	-6.494e-42
93	0x8000012b	-4.19e-43
94	0x80000fd6	-5.681e-42
95	0x00008889	4.898e-41
96	0x00006c7d	3.8918e-41
97	0x0000273c	1.4075e-41
98	0x80002faa	-1.7099e-41
99	0x80005060	-2.8833e-41
100	0x80009f3f	-5.7127e-41
101	0x800002ce	-1.006e-42
102	0x8000451f	-2.4796e-41
103	0x00006682	3.6773e-41
104	0x80008564	-4.7852e-41
105	0x00002bc1	1.5696e-41
106	0x80005581	-3.0673e-41
107	0x00001e2f	1.0828e-41
108	0x80002620	-1.3677e-41
109	0x800032db	-1.8244e-41
110	0x80000bb8	-4.204e-42
111	0x000008b7	3.126e-42
112	0x80000417	-1.467e-42
113	0x00000fae	5.625e-42
114	0x00002889	1.4541e-41
115	0x800029d9	-1.5012e-41
116	0x00002b9d	1.5645e-41
117	0x80001882	-8.792e-42
118	0x80001908	-8.98e-42
119	0x00004c4a	2.7367e-41
120	0x000033ff	1.8653e-41
121	0x8000a37f	-5.8651e-41
122	0x80009893	-5.4733e-41
123	0x00002b4c	1.5532e-41
124	0x8000a4d4	-5.9129e-41
125	0x80007817	-4.308e-41
126	0x0000512e	2.9122e-41
127	0x000003c0	1.345e-42
128	0x0000853a	4.7793e-41
129	0x00004f3a	2.8421e-41
130	0x00000fd6	5.681e-42
131	0x800028e7	-1.4673e-41
132	0x00009a92	5.545e-41
133	0x000026a0	1.3856e-41
134	0x800062c8	-3.5436e-41
135	0x80005b6c	-3.2796e-41
136	0x000077f0	4.3025e-41
137	0x800050aa	-2.8937e-41
138	0x80008720	-4.8474e-41
139	0x0000744f	4.1724e-41
140	0x80007fd7	-4.586e-41
141	0x00004a29	2.6604e-41
142	0x00001548	7.634e-42
143	0x8000589f	-3.1791e-41
144	0x00006863	3.7447e-41
145	0x00000ecb	5.307e-42
146	0x8000606d	-3.4591e-41
147	0x00005dbc	3.3626e-41
148	0x800072f9	-4.1244e-41
149	0x80001b6a	-9.834e-42
150	0x80003cba	-2.1785e-41
151	0x8000b54e	-6.504e-41
152	0x80003167	-1.7722e-41
153	0x80006af6	-3.837e-41
154	0x80003519	-1.9048e-41
155	0x000046c9	2.5393e-41
156	0x80006455	-3.5992e-41
157	0x0000b844	6.6102e-41
158	0x80002ed7	-1.6803e-41
159	0x80006900	-3.7667e-41
160	0x00000d56	4.784e-42
161	0x80003600	-1.9372e-41
162	0x80004eb5	-2.8235e-41
163	0x00002617	1.3664e-41
164	0x00001f94	1.1328e-41
165	0x00009b09	5.5616e-41
166	0x80004bd6	-2.7205e-41
167	0x80001d29	-1.046e-41
168	0x00004a34	2.6619e-41
169	0x800056a5	-3.1082e-41
170	0x00002c02	1.5787e-41
171	0x800054e3	-3.0452e-41
172	0x000038c4	2.0364e-41
173	0x0000039a	1.292e-42
174	0x8000183c	-8.694e-42
175	0x8000aa14	-6.1013e-41
176	0x80000804	-2.875e-42
177	0x000036d7	1.9673e-41
178	0x80004463	-2.4533e-41
179	0x0000a8f5	6.061e-41
180	0x00003c07	2.1534e-41
181	0x0000561e	3.0893e-41
182	0x0000289f	1.4572e-41
183	0x0000ba76	6.689e-41
184	0x0000172b	8.311e-42
185	0x0000261d	1.3672e-41
186	0x80003775	-1.9894e-41
187	0x00006628	3.6647e-41
188	0x800049e5	-2.6508e-41
189	0x80008f39	-5.1379e-41
190	0x0000486b	2.5979e-41
191	0x80003063	-1.7358e-41
192	0x00008669	4.8217e-41
193	0x00005928	3.1983e-41
194	0x800009b8	-3.486e-42
195	0x00000221	7.64e-43
196	0x80005823	-3.1617e-41
197	0x00003b70	2.1322e-41
198	0x0000bda8	6.8036e-41
199	0x000002ed	1.05e-42
200	0x80003203	-1.7941e-41
201	0x000074b6	4.1868e-41
202	0x800003b6	-1.331e-42
203	0x800025e1	-1.3588e-41
204	0x00005b16	3.2675e-41
205	0x8000bb86	-6.7271e-41
206	0x80000087	-1.89e-43
207	0x00004b1d	2.6946e-41
208	0x80008979	-4.9316e-41
209	0x80000ccf	-4.595e-42
210	0x00003345	1.8392e-41
211	0x00007ae0	4.4079e-41
212	0x80005de1	-3.3677e-41
213	0x80005741	-3.1301e-41
214	0x000095b8	5.3709e-41
215	0x00000c33	4.376e-42
216	0x8000171a	-8.287e-42
217	0x80000afc	-3.94e-42
218	0x0000b4ed	6.4904e-41
219	0x0000b825	6.6059e-41
220	0x8000472c	-2.5532e-41
221	0x8000c10d	-6.9254e-41
222	0x000067ab	3.7189e-41
223	0x000010e0	6.054e-42
224	0x8000723a	-4.0977e-41
225	0x00001b09	9.698e-42
226	0x80005c0b	-3.3019e-41
227	0x000079f6	4.3751e-41
228	0x00007e5f	4.5333e-41
229	0x80007540	-4.2061e-41
230	0x8000bd3c	-6.7885e-41
231	0x0000aee3	6.2738e-41
232	0x00002cd1	1.6077e-41
233	0x0000583b	3.1651e-41
234	0x000028a0	1.4574e-41
235	0x80007b5f	-4.4257e-41
236	0x00003081	1.74e-41
237	0x80004562	-2.489e-41
238	0x0000281e	1.4391e-41
239	0x80005782	-3.1392e-41
240	0x00007488	4.1804e-41
241	0x8000a0e7	-5.7721e-41
242	0x000054ed	3.0466e-41
243	0x80004279	-2.3846e-41
244	0x800079c9	-4.3688e-41
245	0x800028ba	-1.461e-41
246	0x80002428	-1.297e-41
247	0x80000fb5	-5.635e-42
248	0x00003e25	2.2293e-41
249	0x0000b3d8	6.4516e-41
250	0x000025f0	1.361e-41
251	0x00001f1a	1.1157e-41
252	0x8000029c	-9.36e-43
253	0x0000549e	3.0355e-41
254	0x8000754a	-4.2075e-41
255	0x8000ab8c	-6.154e-41

embedding_item_mf.bias f4 [8]
0	0x00007275	4.106e-41
1	0x80008145	-4.6373e-41
2	0x00007450	4.1725e-41
3	0x00009f6f	5.7194e-41
4	0x8000af67	-6.2923e-41
5	0x80001742	-8.343e-42
6	0x3288b898	1.5916427e-08
7	0x80005ce5	-3.3324e-41

fc_layers.0.weight f4 [64, 16]
0	0xb679376c	-3.7136151e-06
1	0x37aab296	2.034874e-05
2	0x3780ed04	1.5369158e-05
3	0xb7964f30	-1.7918268e-05
4	0xb3378e37	-4.273735e-08
5	0xb691be87	-4.343517e-06
6	0xb3235c4c	-3.803534e-08
7	0x36684f74	3.4616942e-06
8	0x327566f0	1.4284282e-08
9	0xb904486e	-0.00012615483
10	0xb990119e	-0.00027478946
11	0xb85eca15	-5.3117128e-05
12	0x34ea8ff6	4.3690642e-07
13	0x33b4afc0	8.413872e-08
14	0xb80f4d0e	-3.416562e-05
15	0xb87f6454	-6.0890176e-05
16	0x30d89a10	1.5759856e-09
17	0x368f107e	4.263652e-06
18	0xb6b6a48b	-5.443178e-06
19	0x34dd9054	4.126947e-07
20	0xb624d1dc	-2.4560059e-06
21	0x36b14324	5.2828273e-06
22	0xb2422c3a	-1.1302342e-08
23	0x3256ef88	1.25109025e-08
24	0xafeeca0c	-4.343551e-10
25	0x352f0a36	6.520744e-07
26	0x3565d86e	8.5624094e-07
27	0xb541aaa6	-7.214643e-07
28	0xb31ad314	-3.6047894e-08
29	0x33a49772	7.664393e-08
30	0xb607eaf8	-2.0253337e-06
31	0xb6040afc	-1.9675927e-06
32	0x338d8400	6.589835e-08
33	0xb1645532	-3.3226795e-09
34	0x339de3ab	7.352295e-08
35	0x375cdae1	1.3163984e-05
36	0xb0efa252	-1.7435673e-09
37	0xb120c3dc	-2.3394398e-09
38	0xb515065e	-5.551609e-07
39	0xb6431b1c	-2.9073044e-06
40	0x2c030d73	1.8623685e-12
41	0xb1392c7c	-2.694633e-09
42	0xb21e570b	-9.216602e-09
43	0x30656135	8.3447854e-10
44	0x2f416ec0	1.7592594e-10
45	0xafb1b755	-3.2326378e-10
46	0x30dbcd19	1.5992639e-09
47	0x3267716d	1.347176e-08
48	0xb0f444c0	-1.7772877e-09
49	0x3009a5a2	5.007569e-10
50	0x34a317cc	3.037843e-07
51	0x3383f66e	6.144988e-08
52	0x321e935a	9.230314e-09
53	0x37adb2bf	2.0706442e-05
54	0xb6185dc0	-2.2704335e-06
55	0x2f2a6ff0	1.5501178e-10
56	0xa4818cc0	-5.618327e-17
57	0x2c0f79e6	2.038919e-12
58	0x2d0f479f	8.144512e-12
59	0xaf11dcb7	-1.3266087e-10
60	0x2c887105	3.8779e-12
61	0x2ad6217a	3.8037265e-13
62	0x2daf37dd	1.9920005e-11
63	0xadecd9ce	-2.6926818e-11
64	0xb916bf86	-0.00014376463
65	0xb8ed1a1e	-0.00011305905
66	0x31e8366c	6.7582757e-09
67	0xb45a8c97	-2.0353978e-07
68	0xb4ebfc36	-4.395567e-07
69	0x372808df	1.0015646e-05
70	0x38e10fb4	0.00010731761
71	0xb842ac69	-4.6413774e-05
72	0x3010716a	5.2548066e-10
73	0x373e0ab4	1.13273745e-05
74	0xb89a3a56	-7.354158e-05
75	0xb4f83c2f	-4.623739e-07
76	0xb37b4102	-5.8499616e-08
77	0xb34b0e90	-4.7277865e-08
78	0x340858a0	1.2698229e-07
79	0x368a04ea	4.1132926e-06
80	0x31576ec2	3.1349576e-09
81	0x3123f708	2.3860043e-09
82	0x318229f3	3.788267e-09
83	0xb412d212	-1.3673733e-07
84	0x382ed9cf	4.1687683e-05
85	0xb0e031ff	-1.6312355e-09
86	0x341703b7	1.4064322e-07
87	0x34ed536d	4.420539e-07
88	0x29661fea	5.109794e-14
89	0xafa51669	-3.0029249e-10
90	0xb06a0241	-8.5131907e-10
91	0x300fea95	5.235646e-10
92	0x2df00d1a	2.729066e-11
93	0xae16cead	-3.4289616e-11
94	0x2f9042a3	2.6240796e-10
95	0xb0218d48	-5.877223e-10
96	0xb0efc781	-1.7446241e-09
97	0x3895b73a	7.139002e-05
98	0x33ab68b4	7.9818534e-08
99	0xb4107da4	-1.3456753e-07
100	0x3117a1fa	2.2065465e-09
101	0xb88feda0	-6.8630325e-05
102	0x345f888c	2.0818169e-07
103	0x30e6d1ca	1.6794328e-09
104	0x2b4d7244	7.2989206e-13
105	0x2e9673e0	6.841794e-11
106	0xafc4e978	-3.5818082e-10
107	0x3129b447	2.4695213e-09
108	0x2e180394	3.4563977e-11
109	0x2d98f546	1.7389323e-11
110	0x2f3c71d8	1.7138946e-10
111	0x2e928038	6.6620875e-11
112	0xb3f2eca0	-1.1312045e-07
113	0xb2922110	-1.7011672e-08
114	0x2d66777a	1.31005155e-11
115	0xae8bb4d0	-6.353107e-11
116	0xb28e5c2e	-1.6572894e-08
117	0x3597f577	1.1321816e-06
118	0x2eb7d964	8.360493e-11
119	0xaed94aee	-9.881328e-11
120	0x31d027d8	6.0581264e-09
121	0x30037a22	4.7831084e-10
122	0xb0963aa5	-1.0930604e-09
123	0x31009f6c	1.8717072e-09
124	0xaf121e1e	-1.3289322e-10
125	0xaf5e24ed	-2.0203901e-10
126	0xb090a80e	-1.0525143e-09
127	0xb1c262b5	-5.657365e-09
128	0x3696891e	4.486311e-06
129	0x376ec14c	1.4230911e-05
130	0x358a282e	1.0293495e-06
131	0xafdc4e97	-4.0073608e-10
132	0xb8a7228e	-7.969617e-05
133	0xb31b2514	-3.6122472e-08
134	0xb00e8115	-5.1842736e-10
135	0xb5c0e51f	-1.4371798e-06
136	0xad97dff9	-1.7266176e-11
137	0x357557c0	9.1397305e-07
138	0xb4be18da	-3.540834e-07
139	0x34d363a0	3.93743e-07
140	0xb3848fda	-6.1728954e-08
141	0xaf6dc330	-2.1624369e-10
142	0x33d97051	1.012528e-07
143	0xb430e4b3	-1.6474478e-07
144	0xb2082e20	-7.9267295e-09
145	0xb2e736a8	-2.6916794e-08
146	0xb0da1305	-1.5866993e-09
147	0xb58dd786	-1.0568044e-06
148	0xb0daaf84	-1.5911472e-09
149	0xb8d54d85	-0.000101710706
150	0x3151e3ee	3.0543066e-09
151	0x34e1a2bd	4.2027924e-07
152	0x2c66e050	3.2809484e-12
153	0x31d20860	6.1127565e-09
154	0xb1fd1600	-7.36577e-09
155	0xb461941d	-2.1008641e-07
156	0xb09af41f	-1.1274358e-09
157	0xb20e08a4	-8.2674525e-09
158	0x33dbb8a8	1.0231571e-07
159	0xb8007b3c	-3.063235e-05
160	0x36030838	1.9525305e-06
161	0xb5a300ad	-1.2144643e-06
162	0x2fbbbdaa	3.4149866e-10
163	0xaf2f0ae8	-1.5920032e-10
164	0x350b0509	5.178886e-07
165	0x331a5250	3.5930782e-08
166	0xb2b3422b	-2.0868432e-08
167	0x3093247e	1.0706029e-09
168	0xaa283ea0	-1.4943125e-13
169	0x2f8e2ddf	2.5862243e-10
170	0x30c9faec	1.4695991e-09
171	0x301107dd	5.2761867e-10
172	0x2af7bd00	4.400716e-13
173	0x2d9aa19e	1.7579545e-11
174	0xae756884	-5.579938e-11
175	0x2f0676c2	1.222942e-10
176	0x37892868	1.6350488e-05
177	0x327f9a80	1.4878083e-08
178	0xb633a50f	-2.6769155e-06
179	0x378cd320	1.6787613e-05
180	0xb793851a	-1.7585746e-05
181	0x336e204c	5.5443067e-08
182	0xb12c9152	-2.51119e-09
183	0xb4070afc	-1.2576851e-07
184	0xa9f5e322	-1.0919587e-13
185	0x2f42999b	1.7698769e-10
186	0x2fcb791d	3.701154e-10
187	0xaf6637c8	-2.0938196e-10
188	0xaddc4b08	-2.5044425e-11
189	0x2c1ad91c	2.2005236e-12
190	0xaf461bc0	-1.8017854e-10
191	0xaf533798	-1.9210089e-10
192	0x3129fa9e	2.4735196e-09
193	0xb2bbc918	-2.1861112e-08
194	0xb14ec042	-3.0086231e-09
195	0x2f8da056	2.5761676e-10
196	0x38733858	5.798819e-05
197	0x390d2d52	0.00013463691
198	0x359437a0	1.1043048e-06
199	0x33d0192c	9.6903335e-08
200	0xabf758ef	-1.757509e-12
201	0xb10a6575	-2.0139315e-09
202	0xb1c691cd	-5.779134e-09
203	0x310f1f19	2.0826916e-09
204	0x2cd6e748	6.107923e-12
205	0xaf5be6b6	-1.9999899e-10
206	0x3110f76a	2.1095397e-09
207	0xb01dd5a8	-5.741989e-10
208	0xb1b27477	-5.1937223e-09
209	0x31ada322	5.0535087e-09
210	0xb13f7fe4	-2.7866855e-09
211	0xb085acdb	-9.726152e-10
212	0x33059fe2	3.1111888e-08
213	0xb01b8a9d	-5.6585653e-10
214	0x35494324	7.497604e-07
215	0x3350e9da	4.864146e-08
216	0xad878a60	-1.5409174e-11
217	0xb70795e8	-8.08153e-06
218	0xb6533a39	-3.147534e-06
219	0x342cce04	1.6093696e-07
220	0xb17acaf0	-3.6495145e-09
221	0xb204c8cc	-7.729067e-09
222	0xb30d3883	-3.2880518e-08
223	0x338c3019	6.528007e-08
224	0x32bdfa21	2.2116241e-08
225	0xb6ad1b8c	-5.1590087e-06
226	0x33bead8f	8.8791346e-08
227	0x326645f7	1.340367e-08
228	0x350da9fd	5.277396e-07
229	0x34e2f8e2	4.2276866e-07
230	0xb68546ec	-3.9719653e-06
231	0xb3a460df	-7.654466e-08
232	0xb8f30590	-0.00011588179
233	0xb31c8773	-3.644477e-08
234	0x34737990	2.2675363e-07
235	0xb51907fc	-5.700856e-07
236	0xb1a350a8	-4.753094e-09
237	0x310579be	1.942325e-09
238	0x3406880a	1.2529213e-07
239	0xb40ff760	-1.3407907e-07
240	0xb3142780	-3.449486e-08
241	0x370ee310	8.516727e-06
242	0x2c211480	2.2890856e-12
243	0xb693be06	-4.403063e-06
244	0xb5ca0298	-1.5050928e-06
245	0xb71168eb	-8.667102e-06
246	0xadc28cc1	-2.2117754e-11
247	0x37dded8c	2.645587e-05
248	0xad84c677	-1.5094799e-11
249	0xb120f701	-2.342347e-09
250	0xb1725078	-3.5261376e-09
251	0xb10f3968	-2.084187e-09
252	0x2e4c45ef	4.6446343e-11
253	0x2f0afad1	1.2640135e-10
254	0xb0fe6162	-1.850861e-09
255	0x312f2ec0	2.5492426e-09

fc_layers.0.bias f4 [64]
0	0x37dbe463	2.6213185e-05
1	0x35b1357b	1.3203093e-06
2	0xb0ddbeec	-1.613413e-09
3	0x2ca8a8ec	4.7936013e-12
4	0xb51cd6dd	-5.8427196e-07
5	0xb02797e5	-6.09701e-10
6	0xb06f0e2c	-8.6967833e-10
7	0xb185a272	-3.8892773e-09
8	0x3458165d	2.0124703e-07
9	0x339b0999	7.219496e-08
10	0xb02575f6	-6.0194283e-10
11	0x2e5f9a28	5.0841248e-11
12	0xb12c650c	-2.5086733e-09
13	0xb3aea930	-8.1332814e-08
14	0x3500e830	4.8021593e-07
15	0x30ef1fe0	1.7398598e-09
16	0x3d383585	0.044972915
17	0xb7795514	-1.4861365e-05
18	0x302ca924	6.28136e-10
19	0xbb05f673	-0.0020441085
20	0x2f9ac382	2.8151353e-10
21	0x34a4dd9a	3.0708617e-07
22	0xb812ec62	-3.502926e-05
23	0x309668d7	1.0943734e-09
24	0xb2c0d20e	-2.2447264e-08
25	0xb51ab528	-5.763309e-07
26	0xb2aced30	-2.0131296e-08
27	0x3d0778ae	0.033074073
28	0xaf9b0490	-2.8197578e-10
29	0x3d24358e	0.040090136
30	0xb5ccf20c	-1.5269629e-06
31	0x3c68471b	0.014177109
32	0x36327d00	2.6596827e-06
33	0xb129cf67	-2.4710631e-09
34	0x39391877	0.00017652089
35	0xb5941db8	-1.1035509e-06
36	0x36c1cff9	5.7760594e-06
37	0xad06f7ea	-7.672066e-12
38	0xb564dd7d	-8.5258927e-07
39	0x351b7bfe	5.792243e-07
40	0x379b9a8c	1.8549406e-05
41	0x3d410a8c	0.0471292
42	0x35794a81	9.2868146e-07
43	0xb07c3317	-9.174967e-10
44	0x39567be0	0.00020454777
45	0x3aeffb19	0.0018309086
46	0x3c31de00	0.010856152
47	0x3d5ab25b	0.05339275
48	0x328a59d2	1.610616e-08
49	0xb33edbdb	-4.443778e-08
50	0x3c88a312	0.01667932
51	0x3cc225a7	0.023699595
52	0x38a35485	7.788189e-05
53	0x3bae1296	0.005312274
54	0x324fabe6	1.2088071e-08
55	0x32982f9b	1.7716777e-08
56	0xb6013c99	-1.925777e-06
57	0x2e852609	6.054896e-11
58	0xb293bd92	-1.7199259e-08
59	0x3554e86c	7.931437e-07
60	0x3d139ab1	0.036036197
61	0x3b08149d	0.002076424
62	0xb517e80c	-5.6589556e-07
63	0x369cb62c	4.67037e-06

fc_layers.1.weight f4 [32, 64]
0	0x3807a725	3.2342174e-05
1	0x354b4ec9	7.573804e-07
2	0xad4e0a71	-1.1712063e-11
3	0x2e97894c	6.891074e-11
4	0xb5799a10	-9.298392e-07
5	0xaf2ef6f6	-1.5912946e-10
6	0x304f8749	7.5498413e-10
7	0xb17573ee	-3.571809e-09
8	0xb4e58ead	-4.2758384e-07
9	0xb3ca29b4	-9.413944e-08
10	0x2ed17c15	9.526261e-11
11	0xb03f2807	-6.954228e-10
12	0x2daa2d53	1.934689e-11
13	0xb30752c0	-3.1507398e-08
14	0x34b68aa1	3.4001008e-07
15	0xb0c11ade	-1.4050234e-09
16	0x3e04291f	0.12906311
17	0xb6ed5b16	-7.073754e-06
18	0x30fcfdcc	1.8407547e-09
19	0x3a806946	0.0009796999
20	0x309318ae	1.0702672e-09
21	0x3586ec1a	1.0052493e-06
22	0xb860f544	-5.3634183e-05
23	0xae19e504	-3.499158e-11
24	0xb32fb166	-4.0906706e-08
25	0x35a4c779	1.2277006e-06
26	0xb2400b56	-1.1178448e-08
27	0x3dc18498	0.094491184
28	0x2e95ad00	6.8064665e-11
29	0x3deb39be	0.11485623
30	0x352c96d8	6.42945e-07
31	0x3d20bbe0	0.03924167
32	0x386a5968	5.5873214e-05
33	0xae02e77c	-2.9764177e-11
34	0x38933f15	7.021256e-05
35	0xb4d01871	-3.8760803e-07
36	0x36d2fd6d	6.2879903e-06
37	0x2dd49c93	2.4171143e-11
38	0xb584e58e	-9.901576e-07
39	0x348117b3	2.4045366e-07
40	0x37da85aa	2.6049867e-05
41	0x3e0a949d	0.13533254
42	0xb43aac18	-1.7385207e-07
43	0x2fa70150	3.0378056e-10
44	0xb9ae1113	-0.00033200587
45	0x3a74cec3	0.0009338671
46	0x3cf1fd61	0.029539766
47	0x3e1d4c81	0.15361215
48	0x32266ef4	9.6876995e-09
49	0x33ab7166	7.983435e-08
50	0x3d3f00aa	0.046631493
51	0x3d8c16e0	0.068403006
52	0x37f9ce50	2.9779185e-05
53	0x3bb9e5fd	0.0056731687
54	0xb1be2fe8	-5.535174e-09
55	0xb3463d96	-4.615648e-08
56	0x356ed644	8.8973707e-07
57	0xaea3fd8d	-7.4574215e-11
58	0x321eed62	9.250785e-09
59	0x348f3285	2.6672583e-07
60	0x3dd327bb	0.10310312
61	0xba7a3c29	-0.0009545708
62	0x34e33b4c	4.232519e-07
63	0x36ba93e5	5.560449e-06
64	0xb555de80	-7.9672463e-07
65	0xb79a4f39	-1.8395122e-05
66	0x2ea2fac2	7.4114506e-11
67	0x27521c44	2.9158677e-15
68	0xaf4e28e0	-1.8750113e-10
69	0xab8dd872	-1.0078728e-12
70	0xb40d8ab4	-1.3182108e-07
71	0x3381f48c	6.0515134e-08
72	0xb0a02990	-1.1653345e-09
73	0x35e554f4	1.7086554e-06
74	0xb6fbca8f	-7.503964e-06
75	0x3737abdf	1.0947667e-05
76	0x2e01feb2	2.955742e-11
77	0x330642a3	3.1259912e-08
78	0xb23e7d50	-1.1087948e-08
79	0xaffc6dd4	-4.591657e-10
80	0x35d3b5d0	1.577364e-06
81	0x371cf828	9.356103e-06
82	0xb6f2a0a6	-7.230864e-06
83	0xb634693c	-2.6883345e-06
84	0x3607fbdd	2.0263171e-06
85	0x390ac434	0.00013233797
86	0xb00919b0	-4.9876814e-10
87	0xb022e17e	-5.92557e-10
88	0x32e8a780	2.7084525e-08
89	0xb49de333	-2.9408838e-07
90	0x2ca1fa7a	4.6037037e-12
91	0x35831418	9.766109e-07
92	0x2ea898bd	7.666887e-11
93	0x35bae63a	1.3925085e-06
94	0xadb56620	-2.062267e-11
95	0x349d0e0a	2.9253744e-07
96	0xb63941d6	-2.760547e-06
97	0xb5188dd8	-5.683082e-07
98	0xb32cf4f2	-4.0269647e-08
99	0xb3b182a2	-8.265967e-08
100	0x2e9e9e74	7.213155e-11
101	0xb4c1a95e	-3.6072282e-07
102	0x335ca7e5	5.137544e-08
103	0xaf4863e8	-1.8225388e-10
104	0x37f0f834	2.8725808e-05
105	0x35db1f6c	1.6325916e-06
106	0x3735bc00	1.0832213e-05
107	0x2fe1d5f4	4.1079284e-10
108	0x35c2f9f2	1.452687e-06
109	0xb5525732	-7.835798e-07
110	0x31660780	3.3473668e-09
111	0x35e9b2f7	1.7411938e-06
112	0xb81c57ac	-3.727495e-05
113	0x36419760	2.8847353e-06
114	0x34e4a87e	4.2590904e-07
115	0x3506f418	5.0274093e-07
116	0xb487e560	-2.5312602e-07
117	0xb2d02e4c	-2.423544e-08
118	0xb064c768	-8.322929e-10
119	0xb8d5a41b	-0.000101871985
120	0xaf63c055	-2.071386e-10
121	0xb6c8dd79	-5.9862473e-06
122	0xaf56de35	-1.954213e-10
123	0x32128c12	8.530167e-09
124	0x359ce98a	1.1690875e-06
125	0x36d78693	6.423166e-06
126	0xb2699849	-1.3597011e-08
127	0x322c29db	1.00212345e-08
128	0x375884c8	1.2905519e-05
129	0xb526b1e5	-6.209869e-07
130	0xade52372	-2.6050027e-11
131	0x2e30631c	4.0105794e-11
132	0x3417fea8	1.4155614e-07
133	0xaf2b8aa0	-1.5601609e-10
134	0x2f23b492	1.4888915e-10
135	0x30e2b461	1.6494931e-09
136	0xb3b1d56b	-8.281025e-08
137	0xb3cfa6f0	-9.6695544e-08
138	0x2e0eedb2	3.2498178e-11
139	0x30131d7b	5.352018e-10
140	0xae86fbd1	-6.138346e-11
141	0xb3a6bbd4	-7.764143e-08
142	0xb4049f9e	-1.2351526e-07
143	0xaf93f693	-2.6914346e-10
144	0x3d5cfb70	0.053950727
145	0xb43d8780	-1.7651291e-07
146	0x30b1b8a6	1.2930925e-09
147	0xba047fd4	-0.0005054448
148	0xaea9a1fe	-7.714006e-11
149	0xb510e0f5	-5.3971536e-07
150	0xb714a430	-8.859715e-06
151	0xaf7d57b1	-2.304137e-10
152	0x33091266	3.191453e-08
153	0x34513f10	1.9487584e-07
154	0x31cabcdf	5.900446e-09
155	0x3d21d631	0.03951091
156	0xafcb5e58	-3.699252e-10
157	0x3d44a36f	0.048007425
158	0x3527076a	6.2223137e-07
159	0x3c884f6c	0.016639434
160	0xb78d119b	-1.6816708e-05
161	0xac2e1cf1	-2.4742953e-12
162	0xb8398b34	-4.423708e-05
163	0x3206e480	7.8517814e-09
164	0x36147d48	2.2126642e-06
165	0x2cbd8314	5.3862557e-12
166	0x35403d98	7.1615204e-07
167	0xb411cff4	-1.357983e-07
168	0x3680c6e8	3.837853e-06
169	0x3d67bd4b	0.05657701
170	0xb5befeba	-1.4230238e-06
171	0xaf6117df	-2.0472112e-10
172	0x3680f760	3.8434955e-06
173	0xba1ba3fb	-0.0005937216
174	0x3c4f2ee7	0.01264546
175	0x3d839314	0.06424537
176	0xb1642505	-3.319941e-09
177	0xb13366ca	-2.6106357e-09
178	0x3ca13dc4	0.019682772
179	0x3ceae962	0.028675739
180	0x381d08eb	3.7440022e-05
181	0xb993620c	-0.00028111076
182	0xb18530ad	-3.8763432e-09
183	0x3310f924	3.3754205e-08
184	0xb5c88b81	-1.4941762e-06
185	0x2dbf9c85	2.1783695e-11
186	0xb21553dc	-8.692009e-09
187	0xb41067fd	-1.3448876e-07
188	0x3d3089e1	0.04310024
189	0x3a726e83	0.0009248035
190	0xb462648e	-2.1084472e-07
191	0xb6b99b3c	-5.5315013e-06
192	0x00004885	2.6015e-41
193	0x8000a16b	-5.7906e-41
194	0x00009b15	5.5633e-41
195	0x8000275d	-1.4121e-41
196	0x80004bd1	-2.7198e-41
197	0x00001ca7	1.0279e-41
198	0x00002961	1.4844e-41
199	0x000028f7	1.4695e-41
200	0x000059e6	3.225e-41
201	0x00001d8a	1.0597e-41
202	0x000081e5	4.6597e-41
203	0x00006a5f	3.8159e-41
204	0x800009e3	-3.547e-42
205	0x800079f4	-4.3749e-41
206	0x80001e16	-1.0793e-41
207	0x00009900	5.4886e-41
208	0x00006a82	3.8208e-41
209	0x800063ec	-3.5845e-41
210	0x800005a8	-2.029e-42
211	0x800098f1	-5.4865e-41
212	0x8000a121	-5.7802e-41
213	0x80002d1d	-1.6184e-41
214	0x800013b1	-7.064e-42
215	0x80005236	-2.9492e-41
216	0x80008b6b	-5.0014e-41
217	0x800024c0	-1.3183e-41
218	0x00007cf9	4.4832e-41
219	0x8000298c	-1.4904e-41
220	0x0000a519	5.9226e-41
221	0x00000f74	5.544e-42
222	0x80007921	-4.3453e-41
223	0x80005efb	-3.4073e-41
224	0x800094c4	-5.3367e-41
225	0x800068ee	-3.7642e-41
226	0x8000478b	-2.5665e-41
227	0x0000b48a	6.4765e-41
228	0x80006204	-3.5161e-41
229	0x80002db7	-1.64e-41
230	0x80004115	-2.3347e-41
231	0x8000887e	-4.8964e-41
232	0x80002082	-1.1662e-41
233	0x80000f9b	-5.598e-42
234	0x800073b9	-4.1513e-41
235	0x80007ddf	-4.5154e-41
236	0x00000994	3.436e-42
237	0x00000e84	5.207e-42
238	0x8000a296	-5.8325e-41
239	0x80003334	-1.8368e-41
240	0x0000826e	4.679e-41
241	0x8000802a	-4.5977e-41
242	0x80009631	-5.3879e-41
243	0x80000825	-2.922e-42
244	0x8000a26a	-5.8263e-41
245	0x8000c125	-6.9287e-41
246	0x8000681d	-3.7349e-41
247	0x80002858	-1.4473e-41
248	0x00006140	3.4887e-41
249	0x8000b411	-6.4596e-41
250	0x000041b3	2.3568e-41
251	0x80003300	-1.8295e-41
252	0x0000313d	1.7663e-41
253	0x80001dcb	-1.0688e-41
254	0x8000351a	-1.9049e-41
255	0x8000bfea	-6.8846e-41

fc_layers.1.bias f4 [32]
0	0x3c74843b	0.014924104
1	0x356ab816	8.7439673e-07
2	0x3bcabfe3	0.0061874255
3	0x8000acfe	-6.2058e-41
4	0x000002ef	1.052e-42
5	0x327cb701	1.4709941e-08
6	0x800072d3	-4.1191e-41
7	0x37a4391c	1.9576917e-05
8	0xb34589c0	-4.599292e-08
9	0x36f7c08a	7.383588e-06
10	0x339f47e4	7.417091e-08
11	0x3c85e605	0.016345033
12	0x3c9aa7db	0.018878868
13	0x80005d19	-3.3397e-41
14	0x324e49d1	1.2007562e-08
15	0x80000db1	-4.912e-42
16	0x80000646	-2.25e-42
17	0x319b3217	4.5167883e-09
18	0x00002ba4	1.5655e-41
19	0x3b6e2600	0.0036338568
20	0x80005321	-2.9821e-41
21	0x3c911485	0.01770998
22	0x8000119d	-6.318e-42
23	0x3c999f93	0.018752849
24	0x3b1ae080	0.0023632348
25	0x000039ce	2.0736e-41
26	0xb42b9c5a	-1.5982496e-07
27	0x3cb72145	0.022354731
28	0x328f786f	1.6702158e-08
29	0x3777e2cc	1.47751525e-05
30	0xb48f6600	-2.671004e-07
31	0x8000118a	-6.292e-42
