neural-collaborative-filtering/src/checkpoints/pretrain_neumf_factor8neg4_Epoch171_HR1.0000_NDCG0.8413.model (torch, 579115 bytes, 15 tensors)

embedding_user_mlp.weight f4 [7700, 8]
000000 26 de 49 b1 92 5d b3 b1 72 80 a8 2e ce c7 49 b6
       -2.9375626e-09 -5.2202234e-09 7.662572e-11 -3.0067636e-06
000010 5f fb 8e b3 ef b1 38 b3 5d bf 38 ad 9c e1 29 34
       -6.6581144e-08 -4.3002668e-08 -1.050168e-11 1.5821428e-07
000020 22 12 fc 2e 0c 49 90 ab dc d7 69 34 30 56 23 b5
       1.1462854e-10 -1.025209e-12 2.1778345e-07 -6.084765e-07
000030 1b 66 a7 ae 84 e5 31 30 9a 7a fb b8 ca 22 06 ab
       -7.612418e-11 6.4718386e-10 -0.00011991449 -4.7654643e-13
000040 a0 5a 80 33 ab dd 36 35 84 bf d4 ad 44 b9 4b ab
       5.976949e-08 6.812285e-07 -2.418666e-11 -7.2377195e-13
000050 75 17 52 b9 6a 02 e5 b2 2b 77 3c b4 34 5b 2d 2d
       -0.00020035899 -2.6660206e-08 -1.7552217e-07 9.854163e-12
000060 a3 8c b9 b7 6d 8a 02 b7 13 22 d5 37 22 fd 68 b7
       -2.2119208e-05 -7.780834e-06 2.5407446e-05 -1.3887215e-05
000070 9e eb 46 36 1b 50 99 b7 4e 17 3e 38 b0 cc 40 b7
       2.9641446e-06 -1.8276323e-05 4.5321234e-05 -1.1491749e-05
000080 e6 58 a8 36 52 e2 21 b6 0c fa 16 37 f0 71 8d 37
       5.0171393e-06 -2.4122605e-06 8.998915e-06 1.6861566e-05
000090 f8 44 5e 35 16 cf 59 b7 a6 a2 37 b6 76 3e 6f b6
       8.280181e-07 -1.2982424e-05 -2.7363799e-06 -3.5650132e-06
0000a0 84 a1 2f 38 b3 2a 43 b7 0c 89 00 38 3e 54 af 37
       4.1873674e-05 -1.1632847e-05 3.0645213e-05 2.0900854e-05
0000b0 54 c4 58 b6 d7 80 9e b7 f8 96 a7 37 6d ac 59 37
       -3.2300786e-06 -1.8895063e-05 1.9978252e-05 1.2974354e-05
0000c0 f0 52 62 35 cf 5b f3 37 10 6c 4a 37 0c 02 a1 b5
       8.431225e-07 2.9010609e-05 1.20652985e-05 -1.199603e-06
0000d0 1c 3e b7 37 ec 9f 96 b7 72 a3 05 b7 70 01 69 36
       2.1844222e-05 -1.7955863e-05 -7.965473e-06 3.4720542e-06
0000e0 a8 9d 9f 36 7a 55 59 37 c6 43 4b 37 ee b9 8a 36
       4.756923e-06 1.29541095e-05 1.2115523e-05 4.1343656e-06
0000f0 fa 30 02 36 54 07 56 38 b6 a8 e7 35 9c a0 d1 37
       1.9400018e-06 5.10284e-05 1.7259943e-06 2.4989531e-05
000100 b4 db ac b7 4e a4 e4 b7 b6 8a ee b7 24 79 e7 36
       -2.0606305e-05 -2.7256228e-05 -2.8436403e-05 6.898439e-06
000110 2f 88 34 36 ee 79 1e 38 60 ea a2 34 03 ae 4a b8
       2.690136e-06 3.778369e-05 3.0345382e-07 -4.8322614e-05
000120 36 61 11 38 9a 73 9b 38 ea 05 92 b5 f0 fe 82 34
       3.466123e-05 7.4125084e-05 -1.0879569e-06 2.4399878e-07
000130 71 ab 09 37 43 87 02 b5 99 5d ce 37 d8 55 b8 b6
       8.205753e-06 -4.8625606e-07 2.4600698e-05 -5.493621e-06
000140 e1 91 a3 b6 c6 f5 42 b7 f2 6c a3 36 be 20 4c 36
       -4.874761e-06 -1.1620525e-05 4.8704615e-06 3.0417427e-06
000150 a4 63 a6 35 f4 da 34 37 4c 52 05 b7 38 a7 6d b7
       1.2396963e-06 1.0779815e-05 -7.946579e-06 -1.41652345e-05
000160 52 b7 0b b7 7e f3 d8 36 42 ba a3 37 b0 69 93 35
       -8.327728e-06 6.465648e-06 1.9517847e-05 1.0983113e-06
000170 22 93 9d 37 31 c9 6a b7 76 8f 02 b8 06 36 8b b5
       1.8784373e-05 -1.399433e-05 -3.1128024e-05 -1.037203e-06
000180 d8 a7 f2 37 32 19 e8 b7 6f 13 0b 35 4c f4 ce b6
       2.8926806e-05 -2.7668288e-05 5.1809815e-07 -6.1677183e-06
000190 90 85 39 b6 18 8b 5b 36 ec 63 6c 36 a2 ad 82 36
       -2.7644892e-06 3.2714506e-06 3.5224903e-06 3.8945154e-06
0001a0 f6 d5 8a 38 24 9b 61 b6 72 96 ae b8 15 0d b9 37
       6.620206e-05 -3.3617916e-06 -8.324989e-05 2.205981e-05
0001b0 5b ad 91 b8 fa f3 77 38 e6 2e 6a 38 6c 01 d9 37
       -6.946429e-05 5.911661e-05 5.5833625e-05 2.5869078e-05
0001c0 ba 69 df 37 1e 13 5a 36 de 08 4d 35 16 9c 3f 35
       2.6632904e-05 3.249566e-06 7.6381355e-07 7.138018e-07
0001d0 05 3f 0d 36 7a 6e 9a 36 f4 1e c6 36 96 12 76 b6
       2.104732e-06 4.602419e-06 5.9044633e-06 -3.6667675e-06
0001e0 f0 7e ec b1 1a 9f 59 2f dc 4e 19 32 23 77 59 b2
       -6.882935e-09 1.9792559e-10 8.923703e-09 -1.2658151e-08
0001f0 81 18 8c b4 76 30 19 b2 d0 e2 c8 32 e0 a1 54 ab
       -2.609486e-07 -8.916791e-09 2.3386207e-08 -7.5542177e-13
000200 de 2e 10 b6 c8 76 8b 37 c4 cd 13 b5 ce ee 92 35
       -2.1484952e-06 1.6625403e-05 -5.5061196e-07 1.0947349e-06
000210 21 29 a3 37 b3 67 bc b5 9b ea 13 35 fa 43 d0 37
       1.9450266e-05 -1.4037272e-06 5.5103163e-07 2.4827186e-05
000220 a9 4f 8a b6 27 3d 37 38 de 61 92 36 45 91 92 36
       -4.121994e-06 4.3687553e-05 4.3625323e-06 4.3680507e-06
000230 a8 b6 5e b7 1c 68 65 b6 cb 9a 04 b8 43 85 82 b6
       -1.3274759e-05 -3.4184259e-06 -3.1615415e-05 -3.8898156e-06
000240 94 da 2c b5 08 10 0a 35 f8 d1 70 b7 f3 27 28 b6
       -6.4393066e-07 5.1432335e-07 -1.4354002e-05 -2.5057204e-06
000250 4a d8 ab 35 82 e1 c4 b7 f9 0f a6 36 cf 0e 5f b4
       1.2803441e-06 -2.3470031e-05 4.949045e-06 -2.0773881e-07
000260 07 db 1a b7 31 4d 5d 36 f8 4d 16 37 c4 72 1d 37
       -9.230112e-06 3.2976498e-06 8.95885e-06 9.38465e-06
000270 ff 84 1c 37 60 3e 41 33 1c 2c 13 b6 90 db 45 b6
       9.32929e-06 4.4993044e-08 -2.1930382e-06 -2.948309e-06
000280 e0 25 5d b4 a3 70 dc 35 40 8d 82 b8 bc a9 69 37
       -2.0596008e-07 1.6424059e-06 -6.225193e-05 1.3927402e-05
000290 f6 d2 da 37 ee 6a 69 37 62 69 1f b6 80 d5 75 b5
       2.6085861e-05 1.3912779e-05 -2.3754187e-06 -9.1580296e-07
0002a0 5a 8f a4 38 49 b4 9e b6 b0 f6 d8 b6 38 33 39 b5
       7.846831e-05 -4.729755e-06 -6.46602e-06 -6.8992404e-07
0002b0 17 57 57 b7 e2 49 99 b6 30 d0 21 b4 c6 18 8d b7
       -1.2835276e-05 -4.5683564e-06 -1.5070032e-07 -1.6820046e-05
0002c0 3e 4c 8a b7 d0 3e 4b 36 e6 d0 13 35 e8 60 e6 34
       -1.6486385e-05 3.028592e-06 5.5065755e-07 4.2911347e-07
0002d0 7e 38 6e b5 4c fd 88 b7 90 7e ad 35 80 fd 7f b4
       -8.8744116e-07 -1.6330414e-05 1.2926339e-06 -2.3840948e-07
0002e0 7f 12 2e 38 2b 11 13 35 e6 c9 98 38 37 27 13 34
       4.150206e-05 5.478675e-07 7.285531e-05 1.3704708e-07
0002f0 d9 1d b6 b6 65 5f a0 b7 60 1c d5 36 43 2b e2 b4
       -5.4274974e-06 -1.9117908e-05 6.351198e-06 -4.2127257e-07
000300 98 03 07 b7 22 f9 3b 36 7a 02 29 37 2c a7 01 b6
       -8.047464e-06 2.8010186e-06 1.0073762e-05 -1.9319805e-06
000310 c2 5b 32 37 f0 9d 14 36 4c 2e 6a b7 04 97 20 36
       1.0630991e-05 2.214565e-06 -1.3958266e-05 2.392976e-06
000320 90 aa 90 36 06 48 b6 b7 44 3f 89 37 15 b6 a7 35
       4.3113905e-06 -2.172963e-05 1.6361133e-05 1.2495462e-06
000330 fa b7 ac b6 d2 dd ce b7 61 3f 0b 38 f4 59 00 38
       -5.147417e-06 -2.4660407e-05 3.319921e-05 3.0601354e-05
000340 4c a6 df 36 30 39 81 b4 3e 05 7a 34 8f 64 ad b4
       6.6652774e-06 -2.4069732e-07 2.3284971e-07 -3.2296927e-07
000350 b2 91 b2 35 68 7d bd 35 76 c0 e1 34 04 95 63 b4
       1.3304436e-06 1.4118095e-06 4.204955e-07 -2.1195234e-07
000360 f9 56 3f 37 be d9 0e b7 04 fb 90 b5 06 f6 5e b5
       1.1404737e-05 -8.514557e-06 -1.0801891e-06 -8.3059456e-07
000370 f4 b6 0a 37 c4 1f 58 33 cd d2 57 35 c0 93 4c b5
       8.268038e-06 5.032031e-08 8.0400497e-07 -7.6210927e-07
000380 f4 04 a5 32 97 e6 c4 b0 c8 84 4c b4 98 9d 31 b1
       1.921078e-08 -1.4326414e-09 -1.9047286e-07 -2.5846472e-09
000390 28 97 ba b1 d9 9d a7 36 e0 7e b6 b3 5a 1b d7 ae
       -5.430497e-09 4.9953637e-06 -8.498114e-08 -9.781927e-11
0003a0 49 27 7e ae 86 bf 21 2e c7 58 1d 2b a8 c4 d3 b8
       -5.7787806e-11 3.677727e-11 5.590081e-13 -0.00010097894
0003b0 94 80 17 34 a0 7b 15 33 56 23 5b 35 70 a6 5c 37
       1.4109747e-07 3.4804202e-08 8.163528e-07 1.3151774e-05
0003c0 50 ad f5 b6 20 55 6b 31 76 1f b7 36 8a 05 cf 36
       -7.321745e-06 3.4245389e-09 5.4574875e-06 6.1697256e-06
0003d0 90 57 98 b6 60 b8 3d 37 59 29 d8 37 96 db 9c 36
       -4.5401466e-06 1.1308206e-05 2.576846e-05 4.6747255e-06
0003e0 f4 86 2f b7 62 df a1 37 00 6c 37 32 7c dd 09 36
       -1.0462234e-05 1.9296716e-05 1.0676558e-08 2.0543512e-06
0003f0 98 a6 ee b6 ae b6 bb 36 36 92 2d b6 12 2e 59 35
       -7.112347e-06 5.594301e-06 -2.5864115e-06 8.090584e-07

embedding_item_mlp.weight f4 [8, 1024]
000000 89 cc 5a b4 a1 e4 75 34 96 93 f5 b3 d6 e1 5e 34
       -2.0377242e-07 2.2900578e-07 -1.1435547e-07 2.075752e-07
000010 ea be 87 33 7a 6e 3c b4 4c 9c 83 b3 22 93 10 b4
       6.3211544e-08 -1.7549056e-07 -6.128593e-08 -1.3464572e-07
000020 49 ad 6c 33 eb ed 6f b4 a8 13 75 b4 9f 37 44 34
       5.5105634e-08 -2.2345164e-07 -2.2824554e-07 1.8274157e-07
000030 b0 5b 12 b4 58 3f e9 33 e7 a4 d6 33 e4 6a cb 33
       -1.3630665e-07 1.086143e-07 9.995147e-08 9.4723674e-08
000040 4a 03 92 b3 f8 76 be 31 14 5b 0c b4 5e 1b bf 32
       -6.799253e-08 5.543253e-09 -1.307165e-07 2.2247772e-08
000050 d3 b1 24 32 c0 8a 6a b2 ee ea 94 b3 5e ce 68 b3
       9.586489e-09 -1.3652141e-08 -6.9345205e-08 -5.42044e-08
000060 5f 47 3e 34 5e f4 8d b3 56 10 2b b3 c4 b6 d9 b3
       1.7721094e-07 -6.610274e-08 -3.9828898e-08 -1.0138095e-07
000070 bd 22 34 b4 a8 c8 37 b3 37 bb 7c 33 cd 73 d8 b3
       -1.6776444e-07 -4.2790504e-08 5.8843593e-08 -1.0079348e-07
000080 57 dd 63 34 2f 2b 3d 34 dc ba 5b b3 a3 2e 5e 34
       2.1221545e-07 1.7617707e-07 -5.115986e-08 2.0692327e-07
000090 93 07 de b2 c2 cf bf 33 c1 f0 69 b3 0d 39 16 b4
       -2.5847646e-08 8.9319215e-08 -5.4468504e-08 -1.3990594e-07
0000a0 28 32 5b 33 fb 86 c0 b4 39 dc e9 b3 52 39 4b 34
       5.1035528e-08 -3.5860998e-07 -1.0889966e-07 1.8926701e-07
0000b0 c8 77 9a 33 87 8d 7b 33 29 b6 dd 33 95 ba 06 b4
       7.192972e-08 5.856921e-08 1.0324249e-07 -1.25476e-07
0000c0 1a 2d c3 b2 68 5d ff 33 c0 89 5a b4 55 bd 4c 34
       -2.2721498e-08 1.1891353e-07 -2.0352945e-07 1.9067859e-07
0000d0 0f 4b 20 33 b0 a7 8e b3 3c 52 95 33 a0 a1 41 34
       3.732117e-08 -6.6428925e-08 6.9533115e-08 1.8033325e-07
0000e0 0d 8c e9 33 de 1a b4 b3 eb 6d 44 34 4b 3d 4f 34
       1.0875383e-07 -8.38679e-08 1.829391e-07 1.9300676e-07
0000f0 ed 44 85 b2 1c 30 ca b3 ec 22 63 b4 c7 ce 41 34
       -1.5514582e-08 -9.415109e-08 -2.1153727e-07 1.8049751e-07
000100 e4 da e7 33 c3 1a ba 33 54 1c c9 33 f8 e7 8c b4
       1.0796592e-07 8.666168e-08 9.364945e-08 -2.6245812e-07
000110 46 80 09 b4 9e 6f 09 34 af e5 8c 33 0a 5b fb 32
       -1.2805785e-07 1.2799725e-07 6.561037e-08 2.9261646e-08
000120 cb 9f 9d b3 3c b3 08 34 2c b1 93 34 a0 41 0d b4
       -7.3399484e-08 1.2731192e-07 2.7509793e-07 -1.3155523e-07
000130 68 8b ac b3 d6 bd 6e 33 08 31 16 32 86 09 e9 33
       -8.034732e-08 5.5586348e-08 8.7422976e-09 1.085164e-07
000140 6a c3 3d b4 e6 b2 5c b4 bb 46 f2 b3 93 eb 2f 33
       -1.7673088e-07 -2.055418e-07 -1.1281869e-07 4.0959616e-08
000150 cc e8 80 34 fc a2 df b3 96 74 dc b3 e7 97 09 33
       2.401124e-07 -1.04138934e-07 -1.0265755e-07 3.2035953e-08
000160 db a0 a0 b3 0d 9c df 32 ba 57 77 34 fa e0 ce 33
       -7.47984e-08 2.603158e-08 2.3035582e-07 9.6335455e-08
000170 7f 50 ae b4 e7 60 09 33 71 39 31 b4 10 86 1c b3
       -3.2468594e-07 3.198593e-08 -1.6505307e-07 -3.644351e-08
000180 d2 b0 6e b3 a6 91 b5 b3 db 37 01 b4 4a 16 50 b3
       -5.557451e-08 -8.4549626e-08 -1.2034381e-07 -4.8449046e-08
000190 1f f1 ea b3 60 82 8c b4 86 9a f0 b2 5c 0c 3b 34
       -1.0940334e-07 -2.6171892e-07 -2.8009946e-08 1.7420228e-07
0001a0 b7 e7 54 b3 57 07 f5 33 44 81 a9 b3 4e b9 c1 b3
       -4.957084e-08 1.1410037e-07 -7.893189e-08 -9.0209696e-08
0001b0 24 15 80 33 32 a0 7d 33 a7 79 21 b4 76 b9 1f 33
       5.96431e-08 5.905185e-08 -1.503855e-07 3.7188748e-08
0001c0 18 e1 ea 33 b4 27 0d b4 92 9d a7 32 fa 5a 4d b4
       1.09374184e-07 -1.3146092e-07 1.9513013e-08 -1.912521e-07
0001d0 26 ec 9f 33 3b 5d 8d 33 1b a3 22 34 d3 a8 2f b4
       7.4469696e-08 6.582783e-08 1.5146763e-07 -1.6359563e-07
0001e0 14 32 92 b2 61 b3 06 b4 ab 41 96 32 fb dc 79 b4
       -1.701941e-08 -1.254498e-07 1.749216e-08 -2.3270324e-07
0001f0 73 79 25 34 e0 18 bf 33 84 ba b3 33 60 f4 ae 33
       1.5411005e-07 8.898655e-08 8.369264e-08 8.146958e-08
000200 69 29 58 34 b8 2b 11 b4 8c 1d 0b b3 1c c4 d2 32
       2.0131633e-07 -1.3520082e-07 -3.2390332e-08 2.4536398e-08
000210 52 31 ad 33 18 2f d8 33 51 69 bb b3 7d 5a 55 34
       8.0649116e-08 1.006685e-07 -8.727023e-08 1.987009e-07
000220 54 27 76 b3 57 c2 e7 33 7a b7 b8 34 c0 6f d4 33
       -5.7312107e-08 1.0792126e-07 3.4406168e-07 9.8923465e-08
000230 1a d5 41 b4 58 12 6e b4 12 9d 70 b3 0e 70 70 b3
       -1.8052052e-07 -2.217215e-07 -5.602221e-08 -5.5981268e-08
000240 5e 41 ed b3 35 ca 05 34 3e 44 83 33 6f f8 ab b3
       -1.1048063e-07 1.2460153e-07 6.112576e-08 -8.007998e-08
000250 b6 49 e9 b3 13 70 40 b4 f4 d1 04 34 12 d4 54 34
       -1.0863316e-07 -1.7922166e-07 1.2369838e-07 1.982119e-07
000260 63 28 1d b3 86 6f a6 33 9e aa d6 b3 a0 bc 09 b4
       -3.6591143e-08 7.7502634e-08 -9.9961866e-08 -1.282774e-07
000270 10 22 28 32 97 08 24 34 3c bf 73 b4 52 10 3c b3
       9.786632e-09 1.5276815e-07 -2.2700709e-07 -4.3787004e-08
000280 a8 74 31 34 de d3 0f b4 c1 fd 31 34 9d d9 b9 b3
       1.6526849e-07 -1.339499e-07 1.6576725e-07 -8.6543174e-08
000290 83 a6 6e b4 76 24 56 33 e6 48 40 b4 c5 2e 12 b4
       -2.2226054e-07 4.985892e-08 -1.7907914e-07 -1.3614324e-07
0002a0 9a d6 3a b1 32 30 43 34 ff 92 c9 b2 43 b8 02 b4
       -2.718855e-09 1.8178324e-07 -2.3466326e-08 -1.2174227e-07
0002b0 56 12 d4 b3 92 52 a6 b3 91 d4 f7 b3 14 57 c0 b3
       -9.8753546e-08 -7.744997e-08 -1.15404994e-07 -8.956536e-08
0002c0 b9 4f 1e b4 f8 5a e3 b0 69 a7 ca 33 f8 1d 9d b1
       -1.47439e-07 -1.6542279e-09 9.43681e-08 -4.5727084e-09
0002d0 3e 21 f3 33 d0 0c 31 34 5f 11 6d b4 0c 98 6e b2
       1.1321616e-07 1.6489071e-07 -2.2078665e-07 -1.3887995e-08
0002e0 cf 98 2a b4 00 7d 49 32 2a ad 41 34 bd 5b a3 b3
       -1.5888075e-07 1.17281616e-08 1.8037522e-07 -7.606966e-08
0002f0 14 02 eb 33 3b 50 da b3 9b d7 30 b4 d4 dc 06 34
       1.0943418e-07 -1.016601e-07 -1.6469714e-07 1.256006e-07
000300 74 bf 41 b4 61 db 18 b4 e4 22 ff b3 1e 86 15 33
       -1.8044176e-07 -1.4235913e-07 -1.18807094e-07 3.4813745e-08
000310 12 43 1c 33 2c f7 96 33 08 12 ed 33 d5 91 18 34
       3.638258e-08 7.0298796e-08 1.10394524e-07 1.4209157e-07
000320 9a bf 5c b4 94 08 9c b4 15 7f 26 b4 28 a0 47 b4
       -2.0558801e-07 -2.9063506e-07 -1.5506187e-07 -1.8591584e-07
000330 cf a0 4c b4 a3 80 ab b3 98 5d 06 b3 66 5b 84 b2
       -1.9057482e-07 -7.986207e-08 -3.128443e-08 -1.5408386e-08
000340 00 68 09 34 e8 d2 cf 33 46 a1 fb 33 9c d5 22 34
       1.2796954e-07 9.677552e-08 1.1717434e-07 1.5165136e-07
000350 e7 45 9b 33 54 31 30 34 ae 8c c7 33 0f 8b 90 34
       7.230465e-08 1.6409223e-07 9.292249e-08 2.692327e-07
000360 af ac db 33 c9 71 45 34 b4 ca 4b b4 5a 9d 7c 34
       1.0229393e-07 1.838845e-07 -1.8979591e-07 2.3526573e-07
000370 4a 7d 07 34 49 aa 60 33 e6 4b 14 b4 31 4a 21 b4
       1.2618435e-07 5.2308938e-08 -1.3811186e-07 -1.5021284e-07
000380 60 ae 09 b4 67 37 38 33 28 58 5f 31 9d c0 17 b4
       -1.2822557e-07 4.2891227e-08 3.2500882e-09 -1.4133043e-07
000390 93 e6 32 b4 c0 e8 50 b4 99 6e 64 34 c2 cd a0 b4
       -1.6661424e-07 -1.9456184e-07 2.127439e-07 -2.995203e-07
0003a0 c3 81 13 33 aa 03 89 b3 fa 5b 38 b4 85 83 97 34
       3.4344122e-08 -6.380226e-08 -1.7169796e-07 2.8221635e-07
0003b0 e3 f2 82 b4 fe db 13 b4 00 c6 11 34 f2 9f 2a b4
       -2.439111e-07 -1.3770475e-07 1.357621e-07 -1.5890672e-07
0003c0 1b 1b 2d 34 fb 2d de 33 15 1b cf 32 c6 39 1c 34
       1.6121741e-07 1.03460444e-07 2.4110287e-08 1.454965e-07
0003d0 30 08 b5 b3 d7 a7 04 33 e2 05 1f 34 60 39 ce 33
       -8.4299586e-08 3.0886294e-08 1.4810169e-07 9.603059e-08
0003e0 0b e4 88 b3 82 27 92 b2 57 d4 0a 34 41 e9 fc b3
       -6.374474e-08 -1.7014603e-08 1.29295e-07 -1.1777093e-07
0003f0 65 94 12 b4 54 d5 a5 34 43 a2 b9 33 5e a0 68 33
       -1.3651295e-07 3.0888862e-07 8.644249e-08 5.4162562e-08

embedding_item_mlp.bias f4 [8]
000000 e5 db 8a b4 d8 de a2 3a 67 8b 34 3b 30 9c d3 bd
       -2.5864497e-07 0.0012426032 0.002754891 -0.10332525
000010 a5 7c bc b9 63 a4 3d 39 38 f5 d3 3a 99 d8 aa 37
       -0.00035951022 0.00018085683 0.0016171103 2.036644e-05

embedding_user_mf.weight f4 [7700, 8]
000000 ac 97 00 00 64 60 00 00 8e 3f 00 80 de 4f 00 00
       5.441e-41 3.4578e-41 -2.2799e-41 2.8651e-41
000010 67 38 00 00 04 09 00 80 8f 6f 00 80 e7 8a 00 80
       2.0233e-41 -3.234e-42 -4.002e-41 -4.9829e-41
000020 fe 13 00 80 cc 03 00 80 08 af 00 00 05 09 00 00
       -7.172e-42 -1.362e-42 6.279e-41 3.236e-42
000030 73 00 00 80 03 74 00 80 50 1f 00 80 5b 62 00 80
       -1.61e-43 -4.1617e-41 -1.1233e-41 -3.5283e-41
000040 aa 0a 00 00 09 3f 00 80 8a 77 e2 ab 32 32 00 00
       3.826e-42 -2.2613e-41 -1.6091445e-12 1.8007e-41
000050 77 1d 00 80 2e 32 00 00 23 17 00 00 40 49 00 80
       -1.057e-41 1.8001e-41 8.3e-42 -2.6277e-41
000060 03 05 00 00 9b af 00 00 91 06 00 00 e4 8a 00 80
       1.798e-42 6.2995e-41 2.356e-42 -4.9825e-41
000070 76 3e 00 80 d8 1a 00 80 74 65 0f b5 c7 21 00 80
       -2.2407e-41 -9.63e-42 -5.3419285e-07 -1.2117e-41
000080 2e 3c 00 00 52 2d 00 80 e2 2e 00 80 21 03 00 00
       2.1588e-41 -1.6258e-41 -1.6818e-41 1.122e-42
000090 f3 bf 00 80 36 70 00 00 e4 e0 09 33 fa 06 00 80
       -6.8858e-41 4.0254e-41 3.2102335e-08 -2.503e-42
0000a0 4a 17 00 00 fb 73 00 00 f4 15 00 80 e9 27 00 00
       8.355e-42 4.1606e-41 -7.875e-42 1.4317e-41
0000b0 ab 1c 00 00 2c 96 67 2b 42 6e b2 32 b3 5d 00 00
       1.0284e-41 8.227609e-13 2.0772067e-08 3.3613e-41
0000c0 04 0a 00 80 78 15 00 00 de 7d 00 80 4a 75 00 80
       -3.593e-42 7.702e-42 -4.5153e-41 -4.2075e-41
0000d0 70 66 00 80 bf 15 00 80 ed b3 0b b8 5f 6c 00 00
       -3.6748e-41 -7.801e-42 -3.330775e-05 3.8876e-41
0000e0 9c 9c 00 80 01 20 00 80 5e 07 00 80 62 0a 00 80
       -5.6181e-41 -1.1481e-41 -2.643e-42 -3.725e-42
0000f0 60 4d 00 00 a6 2f 00 80 f8 6d 2a b3 c7 17 00 00
       2.7757e-41 -1.7093e-41 -3.9681225e-08 8.53e-42
000100 1f 15 00 80 7e 72 00 00 3b 11 00 00 1c b3 00 80
       -7.577e-42 4.1072e-41 6.181e-42 -6.4252e-41
000110 f1 14 00 80 46 1a 00 00 50 4c ef 30 fc 55 00 00
       -7.512e-42 9.425e-42 1.7411228e-09 3.0845e-41
000120 31 1b 00 00 c9 01 00 00 5f 28 00 00 b2 24 00 00
       9.754e-42 6.4e-43 1.4482e-41 1.3164e-41
000130 0d 30 00 00 e2 10 00 80 19 92 07 32 ea 3f 00 00
       1.7237e-41 -6.056e-42 7.891253e-09 2.2928e-41
000140 8b a8 00 00 50 72 00 80 0b 40 00 00 11 49 00 00
       6.0462e-41 -4.1008e-41 2.2974e-41 2.6211e-41
000150 31 0e 00 00 4c 1c 00 80 35 7a 0d b3 df 30 00 80
       5.091e-42 -1.0151e-41 -3.2940267e-08 -1.7532e-41
000160 6d 10 00 00 90 4c 00 00 46 89 00 80 9c 7e 93 34
       5.892e-42 2.7465e-41 -4.9244e-41 2.7473004e-07
000170 bf 3c 00 80 10 66 00 80 c0 bf 1f b2 6e 00 00 00
       -2.1792e-41 -3.6613e-41 -9.298617e-09 1.54e-43
000180 a6 10 00 80 64 07 00 80 c4 7d 00 00 23 04 00 00
       -5.972e-42 -2.651e-42 4.5116e-41 1.484e-42
000190 14 0e 00 00 7a b8 00 00 b4 54 c2 b0 39 22 00 80
       5.05e-42 6.6178e-41 -1.4139432e-09 -1.2277e-41
0001a0 ec 07 00 80 42 7d 00 80 69 40 00 80 97 0c 00 00
       -2.842e-42 -4.4934e-41 -2.3106e-41 4.516e-42
0001b0 d6 0a 00 80 36 1b 00 00 88 ec 74 b8 10 7d 00 80
       -3.887e-42 9.761e-42 -5.839442e-05 -4.4864e-41
0001c0 a4 26 00 80 fb 19 00 00 23 02 00 00 ad 03 00 80
       -1.3862e-41 9.32e-42 7.67e-43 -1.319e-42
0001d0 09 19 00 00 b2 24 00 80 30 d0 22 ae a7 1d 00 00
       8.981e-42 -1.3164e-41 -3.7019443e-11 1.0637e-41
0001e0 cb 7f 00 80 3b 76 00 80 d3 43 00 00 fd 26 00 80
       -4.5843e-41 -4.2413e-41 2.4331e-41 -1.3986e-41
0001f0 aa 7c 00 00 a2 61 00 80 81 63 00 80 a0 4f 00 80
       4.4721e-41 -3.5024e-41 -3.5695e-41 -2.8564e-41
000200 57 13 00 00 41 53 00 80 f8 4b 00 80 98 21 00 00
       6.938e-42 -2.9866e-41 -2.7252e-41 1.2051e-41
000210 33 08 00 00 ee 0a 00 80 36 03 ec 37 86 07 00 80
       2.941e-42 -3.921e-42 2.8134888e-05 -2.699e-42
000220 36 16 00 80 5b 16 00 80 50 3b 00 80 54 0f 00 00
       -7.968e-42 -8.02e-42 -2.1277e-41 5.499e-42
000230 34 18 00 80 f4 8d a1 b1 a8 e8 94 31 4d 6e 00 00
       -8.682e-42 -4.701855e-09 4.333817e-09 3.9568e-41
000240 6e 11 00 00 11 3d 00 80 d4 57 00 80 89 06 00 80
       6.253e-42 -2.1906e-41 -3.1507e-41 -2.344e-42
000250 61 20 00 00 d5 95 00 00 08 51 30 30 9e 53 00 80
       1.1615e-41 5.375e-41 6.414358e-10 -2.9996e-41
000260 19 02 00 00 fc 75 00 00 25 90 00 00 db 1d 00 00
       7.52e-43 4.2325e-41 5.171e-41 1.071e-41
000270 48 2a ed 2b db 04 00 80 22 86 85 2f 5b 15 00 00
       1.6851598e-12 -1.742e-42 2.4287866e-10 7.661e-42
000280 e9 a3 00 80 60 74 00 00 68 3a 00 80 33 8b 00 80
       -5.88e-41 4.1747e-41 -2.0952e-41 -4.9935e-41
000290 1c 2b 00 00 c3 02 00 00 a6 e4 ce b8 c6 af 00 80
       1.5465e-41 9.91e-43 -9.8654345e-05 -6.3056e-41
0002a0 d1 1b 00 00 de 40 00 80 81 88 00 00 a0 4d 00 80
       9.979e-42 -2.327e-41 4.8968e-41 -2.7847e-41
0002b0 06 59 00 00 46 61 00 00 38 62 a5 b8 65 26 00 80
       3.1936e-41 3.4895e-41 -7.886108e-05 -1.3773e-41
0002c0 a2 0b 00 80 e2 8e 00 80 f6 50 00 00 e3 8f 00 00
       -4.173e-42 -5.1257e-41 2.9043e-41 5.1617e-41
0002d0 83 9c 00 80 0e 58 00 80 8c 4f 98 2d 19 7b 00 80
       -5.6146e-41 -3.1588e-41 1.7315725e-11 -4.4159e-41
0002e0 65 95 00 00 38 03 00 80 df 11 00 80 d8 c4 00 80
       5.3593e-41 -1.155e-42 -6.411e-42 -7.0614e-41
0002f0 19 67 00 80 a1 15 00 80 40 6e 66 ad fb 6f 00 00
       -3.6984e-41 -7.759e-42 -1.3098467e-11 4.0171e-41
000300 36 45 00 00 31 1d 00 00 92 19 00 00 8c 19 00 80
       2.4828e-41 1.0472e-41 9.173e-42 -9.164e-42
000310 f2 78 00 00 16 85 00 00 6f 5c 63 32 fa 81 00 80
       4.3387e-41 4.7742e-41 1.3234156e-08 -4.6627e-41
000320 c3 0c 00 00 48 1d 00 00 52 c1 00 80 7d 4d 00 00
       4.578e-42 1.0504e-41 -6.935e-41 2.7798e-41
000330 2e 11 00 80 61 35 00 00 5a a1 93 32 ac 28 00 00
       -6.163e-42 1.9149e-41 1.7186427e-08 1.459e-41
000340 93 04 00 00 da 1d 00 80 d5 0c 00 80 5d 3f 00 80
       1.641e-42 -1.0709e-41 -4.603e-42 -2.273e-41
000350 bb a1 00 00 d4 18 00 80 10 1b 88 b8 f2 2f 00 80
       5.8018e-41 -8.907e-42 -6.490026e-05 -1.72e-41
000360 54 16 00 00 92 2d 00 80 0c 1e 00 80 7d 3c 00 80
       8.01e-42 -1.6348e-41 -1.0779e-41 -2.1699e-41
000370 b4 80 00 80 46 9d 00 80 79 ba 6e b0 f5 1d 00 80
       -4.617e-41 -5.6419e-41 -8.684889e-10 -1.0747e-41
000380 8f 50 00 00 53 04 00 80 c3 8b 00 00 c0 bc 00 80
       2.8899e-41 -1.551e-42 5.0137e-41 -6.7711e-41
000390 b0 2e 00 00 13 5e 00 00 39 32 00 00 8c 6e 00 80
       1.6748e-41 3.3747e-41 1.8016e-41 -3.9657e-41
0003a0 a6 28 00 80 f2 22 00 80 f1 33 00 80 7e 05 00 80
       -1.4582e-41 -1.2536e-41 -1.8633e-41 -1.97e-42
0003b0 06 25 00 00 5e 41 00 80 1d 02 00 00 2f 40 00 00
       1.3282e-41 -2.345e-41 7.58e-43 2.3025e-41
0003c0 8d 44 00 80 a0 1d 00 00 83 aa 00 00 f2 6c 00 80
       -2.4591e-41 1.0627e-41 6.1168e-41 -3.9082e-41
0003d0 5f 7a 00 80 51 0d 00 80 04 90 89 b4 9a 1c 00 00
       -4.3898e-41 -4.777e-42 -2.5623024e-07 1.026e-41
0003e0 ad 6d 00 80 94 40 00 80 60 ae 00 00 b9 71 00 80
       -3.9344e-41 -2.3166e-41 6.2554e-41 -4.0796e-41
0003f0 3a 60 00 00 55 18 00 80 a8 57 5d b0 a7 c0 00 00
       3.452e-41 -8.729e-42 -8.05239e-10 6.911e-41

embedding_item_mf.weight f4 [8, 1024]
000000 18 43 00 00 e9 ac 00 80 ac 1e 00 80 cd 85 00 80
       2.4069e-41 -6.2028e-41 -1.1003e-41 -4.7999e-41
000010 e2 0d 00 00 9e 1a 00 00 31 84 00 80 fe aa 00 00
       4.98e-42 9.548e-42 -4.7421e-41 6.134e-41
000020 d3 4a 00 00 7a 47 00 80 75 7e 00 80 40 1d 00 00
       2.6842e-41 -2.5641e-41 -4.5364e-41 1.0493e-41
000030 00 52 00 80 fe 0f 00 80 c6 b5 00 00 9c 57 00 80
       -2.9416e-41 -5.737e-42 6.5208e-41 -3.1428e-41
000040 04 9d 00 80 19 1b 00 80 10 bb 00 00 ba 39 00 00
       -5.6327e-41 -9.721e-42 6.7105e-41 2.0708e-41
000050 11 5d 00 00 40 03 00 80 32 32 00 00 e6 05 00 80
       3.3386e-41 -1.166e-42 1.8007e-41 -2.116e-42
000060 f1 46 00 00 a0 14 00 80 24 89 00 00 b9 38 00 80
       2.5449e-41 -7.399e-42 4.9197e-41 -2.0348e-41
000070 56 04 00 00 8a 8a 00 00 22 10 00 80 ad 64 00 80
       1.555e-42 4.9698e-41 -5.787e-42 -3.6116e-41
000080 49 42 00 00 b4 b1 00 80 13 3c 00 80 59 36 00 00
       2.3779e-41 -6.3748e-41 -2.155e-41 1.9496e-41
000090 02 00 00 00 ea 4e 00 80 c8 be 00 80 eb 03 00 00
       3e-45 -2.8309e-41 -6.844e-41 1.406e-42
0000a0 29 6b 00 00 f1 61 00 00 d0 23 00 00 29 b0 00 00
       3.8442e-41 3.5135e-41 1.2847e-41 6.3194e-41
0000b0 6a 1c 00 80 6f 5e 00 80 d7 30 00 00 a9 26 00 80
       -1.0193e-41 -3.3876e-41 1.752e-41 -1.3869e-41
0000c0 87 5a 00 00 c0 b9 00 00 a4 74 00 80 0f 09 00 80
       3.2475e-41 6.6635e-41 -4.1843e-41 -3.25e-42
0000d0 c2 39 00 00 e1 10 00 80 1c 47 00 00 98 39 00 80
       2.072e-41 -6.055e-42 2.5509e-41 -2.0661e-41
0000e0 35 9e 00 00 38 38 00 80 c2 bd 00 80 f4 65 00 80
       5.6754e-41 -2.0167e-41 -6.8072e-41 -3.6574e-41
0000f0 b2 48 00 00 53 08 00 80 6c 4c 00 80 09 6f 00 00
       2.6078e-41 -2.986e-42 -2.7415e-41 3.9832e-41
000100 9b 4f 00 80 6a 44 00 80 22 0e 00 80 ce 73 00 80
       -2.8557e-41 -2.4542e-41 -5.07e-42 -4.1543e-41
000110 79 26 00 80 ea 14 00 80 28 15 00 80 24 63 00 00
       -1.3801e-41 -7.503e-42 -7.59e-42 3.5565e-41
000120 14 49 00 80 36 1f 00 80 e9 7f 00 80 3c 17 00 80
       -2.6215e-41 -1.1196e-41 -4.5886e-41 -8.335e-42
000130 b5 5c 00 80 90 ab 00 00 03 9f 00 80 f6 4b 00 80
       -3.3257e-41 6.1545e-41 -5.7043e-41 -2.725e-41
000140 74 06 00 80 a8 0d 00 80 c0 3d 00 00 99 35 00 00
       -2.315e-42 -4.899e-42 2.2152e-41 1.9227e-41
000150 5a bf 00 00 47 04 00 80 28 4e 00 00 2f 23 00 80
       6.8644e-41 -1.534e-42 2.8037e-41 -1.2621e-41
000160 df 2b 00 00 a2 11 00 00 d0 7d 00 80 38 1a 00 00
       1.5738e-41 6.325e-42 -4.5133e-41 9.406e-42
000170 1a 12 00 80 2b 01 00 80 d6 0f 00 80 89 88 00 00
       -6.494e-42 -4.19e-43 -5.681e-42 4.898e-41
000180 7d 6c 00 00 3c 27 00 00 aa 2f 00 80 60 50 00 80
       3.8918e-41 1.4075e-41 -1.7099e-41 -2.8833e-41
000190 3f 9f 00 80 ce 02 00 80 1f 45 00 80 82 66 00 00
       -5.7127e-41 -1.006e-42 -2.4796e-41 3.6773e-41
0001a0 64 85 00 80 c1 2b 00 00 81 55 00 80 2f 1e 00 00
       -4.7852e-41 1.5696e-41 -3.0673e-41 1.0828e-41
0001b0 20 26 00 80 db 32 00 80 b8 0b 00 80 b7 08 00 00
       -1.3677e-41 -1.8244e-41 -4.204e-42 3.126e-42
0001c0 17 04 00 80 ae 0f 00 00 89 28 00 00 d9 29 00 80
       -1.467e-42 5.625e-42 1.4541e-41 -1.5012e-41
0001d0 9d 2b 00 00 82 18 00 80 08 19 00 80 4a 4c 00 00
       1.5645e-41 -8.792e-42 -8.98e-42 2.7367e-41
0001e0 ff 33 00 00 7f a3 00 80 93 98 00 80 4c 2b 00 00
       1.8653e-41 -5.8651e-41 -5.4733e-41 1.5532e-41
0001f0 d4 a4 00 80 17 78 00 80 2e 51 00 00 c0 03 00 00
       -5.9129e-41 -4.308e-41 2.9122e-41 1.345e-42
000200 3a 85 00 00 3a 4f 00 00 d6 0f 00 00 e7 28 00 80
       4.7793e-41 2.8421e-41 5.681e-42 -1.4673e-41
000210 92 9a 00 00 a0 26 00 00 c8 62 00 80 6c 5b 00 80
       5.545e-41 1.3856e-41 -3.5436e-41 -3.2796e-41
000220 f0 77 00 00 aa 50 00 80 20 87 00 80 4f 74 00 00
       4.3025e-41 -2.8937e-41 -4.8474e-41 4.1724e-41
000230 d7 7f 00 80 29 4a 00 00 48 15 00 00 9f 58 00 80
       -4.586e-41 2.6604e-41 7.634e-42 -3.1791e-41
000240 63 68 00 00 cb 0e 00 00 6d 60 00 80 bc 5d 00 00
       3.7447e-41 5.307e-42 -3.4591e-41 3.3626e-41
000250 f9 72 00 80 6a 1b 00 80 ba 3c 00 80 4e b5 00 80
       -4.1244e-41 -9.834e-42 -2.1785e-41 -6.504e-41
000260 67 31 00 80 f6 6a 00 80 19 35 00 80 c9 46 00 00
       -1.7722e-41 -3.837e-41 -1.9048e-41 2.5393e-41
000270 55 64 00 80 44 b8 00 00 d7 2e 00 80 00 69 00 80
       -3.5992e-41 6.6102e-41 -1.6803e-41 -3.7667e-41
000280 56 0d 00 00 00 36 00 80 b5 4e 00 80 17 26 00 00
       4.784e-42 -1.9372e-41 -2.8235e-41 1.3664e-41
000290 94 1f 00 00 09 9b 00 00 d6 4b 00 80 29 1d 00 80
       1.1328e-41 5.5616e-41 -2.7205e-41 -1.046e-41
0002a0 34 4a 00 00 a5 56 00 80 02 2c 00 00 e3 54 00 80
       2.6619e-41 -3.1082e-41 1.5787e-41 -3.0452e-41
0002b0 c4 38 00 00 9a 03 00 00 3c 18 00 80 14 aa 00 80
       2.0364e-41 1.292e-42 -8.694e-42 -6.1013e-41
0002c0 04 08 00 80 d7 36 00 00 63 44 00 80 f5 a8 00 00
       -2.875e-42 1.9673e-41 -2.4533e-41 6.061e-41
0002d0 07 3c 00 00 1e 56 00 00 9f 28 00 00 76 ba 00 00
       2.1534e-41 3.0893e-41 1.4572e-41 6.689e-41
0002e0 2b 17 00 00 1d 26 00 00 75 37 00 80 28 66 00 00
       8.311e-42 1.3672e-41 -1.9894e-41 3.6647e-41
0002f0 e5 49 00 80 39 8f 00 80 6b 48 00 00 63 30 00 80
       -2.6508e-41 -5.1379e-41 2.5979e-41 -1.7358e-41
000300 69 86 00 00 28 59 00 00 b8 09 00 80 21 02 00 00
       4.8217e-41 3.1983e-41 -3.486e-42 7.64e-43
000310 23 58 00 80 70 3b 00 00 a8 bd 00 00 ed 02 00 00
       -3.1617e-41 2.1322e-41 6.8036e-41 1.05e-42
000320 03 32 00 80 b6 74 00 00 b6 03 00 80 e1 25 00 80
       -1.7941e-41 4.1868e-41 -1.331e-42 -1.3588e-41
000330 16 5b 00 00 86 bb 00 80 87 00 00 80 1d 4b 00 00
       3.2675e-41 -6.7271e-41 -1.89e-43 2.6946e-41
000340 79 89 00 80 cf 0c 00 80 45 33 00 00 e0 7a 00 00
       -4.9316e-41 -4.595e-42 1.8392e-41 4.4079e-41
000350 e1 5d 00 80 41 57 00 80 b8 95 00 00 33 0c 00 00
       -3.3677e-41 -3.1301e-41 5.3709e-41 4.376e-42
000360 1a 17 00 80 fc 0a 00 80 ed b4 00 00 25 b8 00 00
       -8.287e-42 -3.94e-42 6.4904e-41 6.6059e-41
000370 2c 47 00 80 0d c1 00 80 ab 67 00 00 e0 10 00 00
       -2.5532e-41 -6.9254e-41 3.7189e-41 6.054e-42
000380 3a 72 00 80 09 1b 00 00 0b 5c 00 80 f6 79 00 00
       -4.0977e-41 9.698e-42 -3.3019e-41 4.3751e-41
000390 5f 7e 00 00 40 75 00 80 3c bd 00 80 e3 ae 00 00
       4.5333e-41 -4.2061e-41 -6.7885e-41 6.2738e-41
0003a0 d1 2c 00 00 3b 58 00 00 a0 28 00 00 5f 7b 00 80
       1.6077e-41 3.1651e-41 1.4574e-41 -4.4257e-41
0003b0 81 30 00 00 62 45 00 80 1e 28 00 00 82 57 00 80
       1.74e-41 -2.489e-41 1.4391e-41 -3.1392e-41
0003c0 88 74 00 00 e7 a0 00 80 ed 54 00 00 79 42 00 80
       4.1804e-41 -5.7721e-41 3.0466e-41 -2.3846e-41
0003d0 c9 79 00 80 ba 28 00 80 28 24 00 80 b5 0f 00 80
       -4.3688e-41 -1.461e-41 -1.297e-41 -5.635e-42
0003e0 25 3e 00 00 d8 b3 00 00 f0 25 00 00 1a 1f 00 00
       2.2293e-41 6.4516e-41 1.361e-41 1.1157e-41
0003f0 9c 02 00 80 9e 54 00 00 4a 75 00 80 8c ab 00 80
       -9.36e-43 3.0355e-41 -4.2075e-41 -6.154e-41

embedding_item_mf.bias f4 [8]
000000 75 72 00 00 45 81 00 80 50 74 00 00 6f 9f 00 00
       4.106e-41 -4.6373e-41 4.1725e-41 5.7194e-41
000010 67 af 00 80 42 17 00 80 64 05 fe 35 e5 5c 00 80
       -6.2923e-41 -8.343e-42 1.8926044e-06 -3.3324e-41

fc_layers.0.weight f4 [64, 16]
000000 96 2c 60 34 4c 85 7b 35 48 70 77 b6 26 22 38 b8
       2.0877846e-07 9.369876e-07 -3.6871224e-06 -4.390082e-05
000010 0c 37 9c b2 a8 e2 60 35 8d e7 4d b4 03 47 7a 37
       -1.8185823e-08 8.377633e-07 -1.917635e-07 1.4917695e-05
000020 3f 8f e1 2e 1e bb 50 37 2e 46 10 38 fe 25 b7 35
       1.0257261e-10 1.2441333e-05 3.4397635e-05 1.364562e-06
000030 47 53 70 33 61 38 0e b3 a7 ad 2e b5 e8 b3 d8 af
       5.5955095e-08 -3.3113228e-08 -6.507275e-07 -3.9418002e-10
000040 d6 46 c9 33 48 45 d7 30 aa a2 90 b4 8a 9c 84 b5
       9.372677e-08 1.5663e-09 -2.6940444e-07 -9.880325e-07
000050 2d aa 43 31 fa 73 11 b1 f4 7f 01 b4 bc f0 38 33
       2.8472968e-09 -2.1166202e-09 -1.206061e-07 4.3059785e-08
000060 85 54 05 ad 34 36 97 b4 44 5c 37 31 d0 37 e4 33
       -7.578942e-12 -2.816538e-07 2.6682452e-09 1.06272296e-07
000070 98 f8 88 b1 64 f8 15 31 9f a4 9b 32 97 a4 01 b0
       -3.986383e-09 2.1823547e-09 1.8119236e-08 -4.7163823e-10
000080 f0 ea 3d b0 e8 0d b3 b8 70 46 e0 37 38 a5 da 36
       -6.9091666e-10 -8.5379754e-05 2.673568e-05 6.5161403e-06
000090 4e 30 52 36 a4 ac 56 b6 96 f8 63 b1 ee 98 18 30
       3.1320556e-06 -3.1988975e-06 -3.3174152e-09 5.5514604e-10
0000a0 98 78 92 38 80 01 ec 33 e8 b1 14 38 34 10 31 36
       6.984285e-05 1.0989879e-07 3.5451638e-05 2.6384487e-06
0000b0 45 d9 78 b4 e0 fa 13 33 b0 ce 8f 34 a8 82 c5 b2
       -2.3175842e-07 3.4454274e-08 2.678621e-07 -2.2993234e-08
0000c0 88 b7 52 b6 ec 70 fb 37 a4 42 68 37 28 4a ba 35
       -3.1399268e-06 2.9974115e-05 1.3843794e-05 1.3879662e-06
0000d0 dc 76 d7 37 72 de 1f b8 2a 58 1e 37 11 db 87 b7
       2.5685345e-05 -3.8115722e-05 9.438061e-06 -1.6195265e-05
0000e0 9b a7 a4 31 a0 7c 98 b9 58 ea 5f 39 82 d7 1e bb
       4.7920827e-09 -0.00029084552 0.00021354237 -0.002423734
0000f0 88 33 67 b6 fb 5d ac b6 b4 34 38 37 5f eb 76 b6
       -3.4451677e-06 -5.13694e-06 1.09795255e-05 -3.679386e-06
000100 52 3a 17 b7 0c fc 5e 36 0e 52 dd b2 74 5f 80 32
       -9.01388e-06 3.3227288e-06 -2.57651e-08 1.4944568e-08
000110 68 aa 2c b9 9e 55 ca 34 e8 8b e6 37 94 4c d9 32
       -0.0001646668 3.7687727e-07 2.7483286e-05 2.5296949e-08
000120 c8 fb d1 2c ee 06 b2 37 80 ec 3d 33 3c 13 51 33
       5.9680906e-12 2.122248e-05 4.4220087e-08 4.8679098e-08
000130 f6 69 fa 31 2b 17 5d b1 00 ab 26 b3 8e 38 bf ae
       7.288004e-09 -3.2172902e-09 -3.880541e-08 -8.6957205e-11
000140 2e 01 42 2f a0 de 3f 30 26 31 24 b1 80 0d 4f 31
       1.7644616e-10 6.9801764e-10 -2.3893079e-09 3.0130138e-09
000150 4c 44 d8 37 ea 7d 26 33 98 30 60 32 e1 01 04 b7
       2.578101e-05 3.8764405e-08 1.3049565e-08 -7.868251e-06
000160 07 c6 8f aa c0 c2 74 b1 30 98 d7 b0 c0 12 40 31
       -2.5539312e-13 -3.5617376e-09 -1.5686563e-09 2.7950335e-09
000170 5a 24 7b af 70 9e e4 ab 22 ef a5 30 ac da 7b 2e
       -2.2841232e-10 -1.624435e-12 1.2073296e-09 5.7265012e-11
000180 9a 92 1b 34 b8 4d 74 34 98 c0 c7 32 a9 70 8c 33
       1.4488833e-07 2.2752545e-07 2.325423e-08 6.539751e-08
000190 3b e7 11 b7 24 8d cd b7 82 a1 02 b4 17 c1 ba b0
       -8.696511e-06 -2.4503628e-05 -1.216595e-07 -1.3588161e-09
0001a0 19 fd 8e ae b3 09 53 36 4c dc e5 b5 d2 dc ea b5
       -6.5023716e-11 3.1447096e-06 -1.7125944e-06 -1.7498626e-06
0001b0 70 e3 71 b2 e8 69 d2 b2 4f d2 0c 34 c0 ee 7f af
       -1.407976e-08 -2.4495378e-08 1.3115026e-07 -2.3276936e-10
0001c0 30 56 7e b7 a0 a8 b5 36 d6 df f1 b7 f8 d3 49 b7
       -1.5159647e-05 5.413851e-06 -2.883367e-05 -1.2029886e-05
0001d0 11 c4 b1 36 b5 ce 9b 36 3a 09 14 b7 90 54 7f 38
       5.297836e-06 4.643424e-06 -8.823636e-06 6.0875493e-05
0001e0 6e 6a e5 35 03 4f ba ba b5 15 2e 3b 6b ee d6 bc
       1.7092805e-06 -0.0014214221 0.0026563231 -0.026236733
0001f0 59 3f 90 3a fc 93 3d bb 84 2c 41 bb 3f e9 69 b7
       0.0011005207 -0.0028927317 -0.0029475996 -1.3942189e-05
000200 e0 f2 74 34 29 e8 03 b6 e4 80 5e b7 f2 6c 43 38
       2.2812628e-07 -1.9655656e-06 -1.3262241e-05 4.6593086e-05
000210 2c 8d 26 b2 4d e3 a1 34 3d 69 b2 b6 64 e9 91 b6
       -9.6945705e-09 3.015397e-07 -5.3170647e-06 -4.348507e-06
000220 6f e6 aa 2e 50 bc 34 b4 d3 4b 96 37 54 5f 04 b7
       7.771638e-11 -1.6832314e-07 1.7916702e-05 -7.890008e-06
000230 fb 08 67 34 cc 8c 22 b4 6e d5 c0 34 49 a4 f2 b1
       2.1516819e-07 -1.5138647e-07 3.5918077e-07 -7.061804e-09
000240 56 8c b9 37 e4 5e 59 37 84 cf 1a b3 5a c2 bd b8
       2.2119068e-05 1.2956301e-05 -3.6044653e-08 -9.048423e-05
000250 c4 b4 e2 b7 dc 0b 00 37 69 7f 87 35 af 2f 7e b5
       -2.7025475e-05 7.632156e-06 1.0095365e-06 -9.469176e-07
000260 12 fb ca b4 fa da 0c b7 b5 8d 34 b9 0e 2d 99 b9
       -3.780811e-07 -8.395635e-06 -0.00017218928 -0.00029216002
000270 c4 3d 93 37 73 eb 45 b6 7e 60 24 b8 dc 40 47 b5
       1.7552527e-05 -2.9492337e-06 -3.9190512e-05 -7.422766e-07
000280 fc e0 dd b0 6c ff 2a 34 0c c8 23 34 2e 2d 64 32
       -1.6143811e-09 1.5925406e-07 1.5253335e-07 1.3281619e-08
000290 23 de d8 b2 bf 99 e8 b5 b5 1a 48 35 95 21 22 b6
       -2.5246726e-08 -1.7330093e-06 7.454467e-07 -2.4159428e-06
0002a0 98 ab 00 38 96 ff 5c 36 3c 3c 9c b6 36 4a 83 b6
       3.0677387e-05 3.2931325e-06 -4.6561745e-06 -3.9127435e-06
0002b0 13 63 32 34 e4 46 96 b3 74 cd 08 35 46 20 ca b1
       1.6613585e-07 -6.997814e-08 5.096292e-07 -5.882643e-09
0002c0 80 0d ff 37 14 f9 10 33 51 76 82 b5 fe 1f c5 b8
       3.0404655e-05 3.3754148e-08 -9.720189e-07 -9.399651e-05
0002d0 4a 2e b2 b8 50 83 01 34 3d 55 80 b5 83 f3 c0 b8
       -8.4963234e-05 1.2061832e-07 -9.561551e-07 -9.200631e-05
0002e0 34 3b db 33 1e fd f2 b9 23 3d e8 ba 84 3a 99 ba
       1.0208751e-07 -0.00046346424 -0.0017718415 -0.0011690413
0002f0 26 fb be 38 73 eb 07 b9 63 b1 91 ba b2 3a eb b4
       9.106686e-05 -0.00012962315 -0.0011115487 -4.3814867e-07
000300 93 7e e2 37 c2 60 6b 34 96 3f 97 35 3d c9 b4 32
       2.700024e-05 2.1921281e-07 1.1268883e-06 2.104627e-08
000310 4a 01 4e b6 31 64 31 b2 71 5f 23 33 dc 2b 68 b1
       -3.0697142e-06 -1.0325537e-08 3.80382e-08 -3.3785374e-09
000320 09 2f 4a b1 d4 94 fe 36 26 01 4f 38 81 02 4f 36
       -2.9421605e-09 7.5871158e-06 4.9353715e-05 3.084686e-06
000330 3c 24 ab b4 21 b0 8a 35 18 ee ef 37 0d 12 5f b2
       -3.1877596e-07 1.0333061e-06 2.8601891e-05 -1.2984413e-08
000340 47 7f ba b6 40 24 fb 30 5a fa 20 37 3c f8 45 34
       -5.558049e-06 1.8272956e-09 9.595033e-06 1.8437362e-07
000350 03 86 0d b2 d2 8a 4e b8 74 f2 e1 32 dc bd 9f 31
       -8.237751e-09 -4.9243514e-05 2.6303702e-08 4.6490936e-09
000360 9a a9 b8 28 6b ef 0c 30 34 7a 58 30 09 63 08 30
       2.0501657e-14 5.1271937e-10 7.8754003e-10 4.961725e-10
000370 28 3b 12 2c de 0e 6e ad d0 42 8a 2d e0 24 26 ab
       2.0780686e-12 -1.3532035e-11 1.5718454e-11 -5.902622e-13
000380 26 25 fb 32 28 5c ac b2 7c 3a 9a 31 0c b0 2c b1
       2.9237139e-08 -2.0065343e-08 4.488639e-09 -2.5129365e-09
000390 56 ff 8b b6 8c c3 81 b1 b6 5f 58 b3 54 60 78 b4
       -4.172248e-06 -3.7766252e-09 -5.0378468e-08 -2.3131844e-07
0003a0 48 6b 3c 30 ec 46 c8 b4 e1 ad 1b b6 df 14 71 b6
       6.854646e-10 -3.7304505e-07 -2.319801e-06 -3.5923947e-06
0003b0 6b 6d c7 34 1c ba 91 b4 ca 24 7f b6 b8 45 88 b2
       3.714625e-07 -2.7143767e-07 -3.8019375e-06 -1.5864188e-08
0003c0 9c 2f 95 b4 c0 42 4b 35 3b f0 d3 36 bc 48 37 36
       -2.7788053e-07 7.5720527e-07 6.3162565e-06 2.7311462e-06
0003d0 2c 7e 62 34 dd d4 60 36 e6 d8 4b b8 90 55 e1 33
       2.1093791e-07 3.3502504e-06 -4.8600974e-05 1.0492943e-07
0003e0 23 41 8d 31 cb 51 be 38 a8 69 e9 b8 94 5c 0e b9
       4.1110453e-09 9.075141e-05 -0.00011129986 -0.00013576663
0003f0 64 82 44 38 c0 38 68 36 a4 7e 5d 38 2c 06 8a b5
       4.6851477e-05 3.4603727e-06 5.280845e-05 -1.0283597e-06

fc_layers.0.bias f4 [64]
000000 8c 01 06 b5 6c 6b 56 33 00 34 c5 b1 66 1e 92 39
       -4.992114e-07 4.9923457e-08 -5.7393663e-09 0.0002786994
000010 c1 5f 9c b3 67 36 36 b1 62 a2 3c 36 3e db 2c 3c
       -7.2817336e-08 -2.651541e-09 2.8108702e-06 0.010550318
000020 34 a7 4c 36 c7 2b 9f b8 56 0b 3b b6 80 75 8d 36
       3.0495694e-06 -7.589865e-05 -2.787177e-06 4.2158063e-06
000030 9e d9 88 36 53 eb 95 af 26 2f 90 b5 bb e7 8d 39
       4.07845e-06 -2.727015e-10 -1.0742558e-06 0.00027066268
000040 b8 7f 36 3d 8d 92 85 33 7c 45 57 31 c0 67 07 b5
       0.044555396 6.2199526e-08 3.1326115e-09 -5.0442395e-07
000050 c3 aa 92 ae 57 78 83 b9 ec b9 e2 36 b8 a4 98 b0
       -6.669645e-11 -0.00025075927 6.756969e-06 -1.1106271e-09
000060 e8 d5 63 37 ae dc 8b b3 09 e3 b7 af 0f 78 06 3d
       1.3580058e-05 -6.512833e-08 -3.3448824e-10 0.03282934
000070 18 20 28 b2 5a e8 22 3d 70 f3 ab 36 f9 71 7d 3c
       -9.786184e-09 0.03977237 5.124537e-06 0.015469068
000080 d0 9d f9 b8 a0 8b d9 34 bb ae 1f b2 c8 d2 fe af
       -0.0001190264 4.052099e-07 -9.294747e-09 -4.63521e-10
000090 17 b3 46 35 00 82 4e b5 43 5a 84 b0 70 2f db b5
       7.402136e-07 -7.6930155e-07 -9.629918e-10 -1.6330578e-06
0000a0 61 23 1f b8 28 5d 3f 3d 51 f9 ea b5 f2 e1 81 b5
       -3.7941503e-05 0.0467197 -1.7506919e-06 -9.677008e-07
0000b0 f8 cd 92 af 98 b4 30 32 51 75 44 3c 0b 15 59 3d
       -2.6703595e-10 1.0285611e-08 0.011990861 0.052998584
0000c0 66 f7 e6 af a0 d2 ae 2f b6 2a 93 3c 34 4e ca 3c
       -4.2012543e-10 3.1800074e-10 0.017964702 0.024695493
0000d0 c3 78 e9 b0 f5 cd 42 33 94 84 86 af ea 5e 23 b8
       -1.6987304e-09 4.535646e-08 -2.446866e-10 -3.8950624e-05
0000e0 25 5e 36 30 a6 72 2f 35 59 73 01 31 a0 27 6a b3
       6.6345e-10 6.5359416e-07 1.8837538e-09 -5.451841e-08
0000f0 49 fa 0d 3d b2 5c 36 b5 c7 e0 19 33 f2 1c 8f 36
       0.03466252 -6.7935173e-07 3.5827522e-08 4.265102e-06

fc_layers.1.weight f4 [32, 64]
000000 26 75 0a 36 0e 77 7e b3 02 a3 9a b5 8b 13 83 3a
       2.0631792e-06 -5.9247263e-08 -1.1521336e-06 0.0010000331
000010 67 d1 c9 33 b0 0f b0 b1 66 46 31 b4 8f 49 43 3c
       9.397882e-08 -5.1240576e-09 -1.651002e-07 0.011919393
000020 28 0e 98 36 3a 26 3b 38 f8 a4 9d b5 49 5c fd 39
       4.531601e-06 4.4619876e-05 -1.1745424e-06 0.00048324678
000030 f9 4c cc b6 f2 94 96 af 5c ef f4 35 da 3f 7d 39
       -6.0886346e-06 -2.7390673e-10 1.8249079e-06 0.00024151747
000040 25 7d 05 3e 24 e7 d3 b2 4f 58 29 b1 89 f8 06 35
       0.1303602 -2.4668743e-08 -2.4642934e-09 5.0280556e-07
000050 a6 ab 85 af 66 fd a1 39 fe 11 c7 b6 64 df 24 31
       -2.4314523e-10 0.0003089711 -5.9327567e-06 2.3992124e-09
000060 fc f4 aa 38 a6 a2 2f 33 d9 fe cb af 09 2e c5 3d
       8.1518636e-05 4.089329e-08 -3.7106565e-10 0.09627921
000070 96 58 12 32 46 38 ee 3d 1a 41 0c b6 04 87 31 3d
       8.518461e-09 0.11631827 -2.089952e-06 0.04334165
000080 56 78 89 3a ed 79 ed b4 27 8b 10 b1 c4 dd 0c b1
       0.0010488133 -4.4233403e-07 -2.1033857e-09 -2.049874e-09
000090 40 bc d5 34 2c 49 2d 35 58 79 97 2e 18 10 a0 36
       3.9811312e-07 6.4554e-07 6.88824e-11 4.770245e-06
0000a0 34 00 9e 36 e1 d8 0b 3e 38 46 21 35 6d ab 18 36
       4.7087906e-06 0.13656951 6.0079356e-07 2.2749548e-06
0000b0 12 fe 8f 2f 4a 68 5f b4 b9 a9 0d 3d 59 6b 1e 3e
       2.6192076e-10 -2.0806434e-07 0.03458569 0.15470637
0000c0 11 18 9a 2f f3 48 eb 31 c9 9b 4d 3d 27 34 91 3d
       2.8029537e-10 6.8476935e-09 0.050197396 0.070900254
0000d0 b6 22 d6 33 f3 49 90 b2 59 9b 90 2e 88 b0 3d 38
       9.9714654e-08 -1.6797435e-08 6.575957e-11 4.522552e-05
0000e0 f9 86 5c 31 98 b3 91 35 e9 a5 12 b1 29 45 d4 34
       3.2090937e-09 1.085561e-06 -2.1340105e-09 3.9538398e-07
0000f0 27 7d d6 3d d6 43 f3 35 84 32 1a b3 93 9c 72 36
       0.1047309 1.8124654e-06 -3.5901863e-08 3.6151948e-06
000100 00 9f ae 2f f2 57 39 b6 d5 0f 56 2d ac f5 b5 2d
       3.1763392e-10 -2.761834e-06 1.2168007e-11 2.0686418e-11
000110 e6 06 00 32 30 ef bb b3 13 77 8e 32 b0 8c 51 31
       7.452149e-09 -8.751374e-08 1.6585124e-08 3.0493474e-09
000120 b4 5c 22 32 83 22 a4 38 3e 29 26 2f e4 54 ed 37
       9.450719e-09 7.826558e-05 1.5112264e-10 2.8292132e-05
000130 68 ae 92 ae fd c0 00 2f 84 34 f2 30 4a 24 8e 31
       -6.670292e-11 1.1710095e-10 1.7622743e-09 4.1368695e-09
000140 30 f5 3b 32 f4 33 bb b8 00 13 3f 2f 94 87 eb 35
       1.0940582e-08 -8.926532e-05 1.7378099e-10 1.7548323e-06
000150 2a a1 d9 ad 90 af 9c b3 19 16 55 b8 40 16 c8 2f
       -2.4741615e-11 -7.296251e-08 -5.0803737e-05 3.6395598e-10
000160 9f da d2 b7 18 0a 87 35 ce 8a 4a 30 06 b9 23 32
       -2.5135754e-05 1.0061221e-06 7.3684425e-10 9.529918e-09
000170 6a 34 b3 30 82 af 32 32 e4 27 6a b1 5c 56 b0 31
       1.3038861e-09 1.04008695e-08 -3.4074157e-09 5.132092e-09
000180 48 0d 77 b3 ce 59 38 b6 00 ed 76 a4 e0 2f 2e b0
       -5.7521248e-08 -2.747041e-06 -5.3543494e-17 -6.3368866e-10
000190 00 2d af a7 17 c4 2c b3 f2 0b d2 35 50 6c 23 31
       -4.8621046e-15 -4.0225213e-08 1.5649696e-06 2.378119e-09
0001a0 fa 1f b5 b8 6c b8 3f 32 c9 6e 11 2d 2b e3 bb ae
       -8.636709e-05 1.1159596e-08 8.266895e-12 -8.5441286e-11
0001b0 10 ab 17 31 72 4d 48 ae ed 87 8a 31 9f 55 49 32
       2.207063e-09 -4.554352e-11 4.0317816e-09 1.1719208e-08
0001c0 fa 41 57 ad 5f 3d 9e 31 3d 35 cd 31 ec 59 08 32
       -1.2235985e-11 4.6053823e-09 5.9723377e-09 7.936688e-09
0001d0 cc 61 94 b0 7f b5 0b 32 c8 e6 19 a4 ea e9 5b 31
       -1.0796213e-09 8.132132e-09 -3.3372066e-17 3.200166e-09
0001e0 0f 51 e0 32 1c 37 77 2f 18 cd fb 35 aa d9 1a 30
       2.6113893e-08 2.2484098e-10 1.8760647e-06 5.6334193e-10
0001f0 d0 37 2a 32 23 0b 9e 2f 36 61 5f 34 d0 01 6b ad
       9.907993e-09 2.8747946e-10 2.0803859e-07 -1.3358606e-11
000200 38 61 f6 34 2d 33 de 32 1b 68 ba 35 eb ba 1c 3a
       4.5891807e-07 2.5867473e-08 1.3888379e-06 0.00059787807
000210 aa 38 73 33 e2 49 64 31 3e d8 a4 35 28 b0 97 3b
       5.6629382e-08 3.3220364e-09 1.2281887e-06 0.0046291538
000220 19 05 30 36 9d c8 91 38 b8 67 91 34 1d 0e 52 39
       2.622901e-06 6.951506e-05 2.708382e-07 0.00020032418
000230 b9 da 11 36 3b 0b 6e 2f 80 ec a0 35 e2 5e 31 b9
       2.1733997e-06 2.1649964e-10 1.198976e-06 -0.00016915382
000240 5b 61 74 3d 23 b8 4d 33 d3 e2 32 30 0d 13 7c 34
       0.059663158 4.7897753e-08 6.507836e-10 2.347626e-07
000250 3e cd 80 af 03 78 f6 38 cf f1 a9 35 cc af 14 b1
       -2.3428898e-10 0.00011752548 1.2661857e-06 -2.1636763e-09
000260 70 f5 23 b8 7f 7f a5 32 6e 5e f7 2f 52 7a 35 3d
       -3.909081e-05 1.9266507e-08 4.4996135e-10 0.044306107
000270 62 bb d8 33 3e 70 5a 3d 45 bc 23 b6 9f 2a a8 3c
       1.00923685e-07 0.0533297 -2.439848e-06 0.020528136
000280 36 8f b9 39 ea 84 81 33 fb 3e ee af 00 54 0c 31
       0.0003539265 6.0312075e-08 -4.3336698e-10 2.042043e-09
000290 b4 6d 55 34 39 b3 01 35 45 00 ca 2f 08 1e 10 b6
       1.987708e-07 4.831705e-07 3.6743777e-10 -2.1475153e-06
0002a0 62 e9 82 b6 6f dc 7f 3d 9e 1d 5a 34 91 71 4a 35
       -3.9014712e-06 0.06246608 2.0313607e-07 7.5416125e-07
0002b0 99 f7 f1 2e 84 e4 82 b4 4f e4 87 3c 04 b7 90 3d
       1.1003393e-10 -2.4380654e-07 0.016588358 0.070661575
0002c0 f2 18 36 2f d8 76 2c 31 6c 62 c1 3c db c1 06 3d
       1.6561666e-10 2.509685e-09 0.023606502 0.03289972
0002d0 a6 48 1a 33 08 a7 65 b3 6e de 6f 2f 91 d2 81 37
       3.5921992e-08 -5.347013e-08 2.1815946e-10 1.5476051e-05
0002e0 a2 18 21 30 36 38 7e b4 7c 59 67 30 5b 04 23 34
       5.8606464e-10 -2.3676043e-07 8.4164475e-10 1.5182142e-07
0002f0 1b 0c 45 3d 42 38 1b 35 88 19 d1 32 c0 c3 39 35
       0.048107248 5.7823866e-07 2.4342413e-08 6.9202724e-07
000300 85 48 00 00 6b a1 00 80 15 9b 00 00 5d 27 00 80
       2.6015e-41 -5.7906e-41 5.5633e-41 -1.4121e-41
000310 d1 4b 00 80 a7 1c 00 00 61 29 00 00 f7 28 00 00
       -2.7198e-41 1.0279e-41 1.4844e-41 1.4695e-41
000320 e6 59 00 00 8a 1d 00 00 e5 81 00 00 5f 6a 00 00
       3.225e-41 1.0597e-41 4.6597e-41 3.8159e-41
000330 e3 09 00 80 f4 79 00 80 16 1e 00 80 00 99 00 00
       -3.547e-42 -4.3749e-41 -1.0793e-41 5.4886e-41
000340 82 6a 00 00 ec 63 00 80 a8 05 00 80 f1 98 00 80
       3.8208e-41 -3.5845e-41 -2.029e-42 -5.4865e-41
000350 21 a1 00 80 1d 2d 00 80 b1 13 00 80 36 52 00 80
       -5.7802e-41 -1.6184e-41 -7.064e-42 -2.9492e-41
000360 6b 8b 00 80 c0 24 00 80 f9 7c 00 00 8c 29 00 80
       -5.0014e-41 -1.3183e-41 4.4832e-41 -1.4904e-41
000370 19 a5 00 00 74 0f 00 00 21 79 00 80 fb 5e 00 80
       5.9226e-41 5.544e-42 -4.3453e-41 -3.4073e-41
000380 c4 94 00 80 ee 68 00 80 8b 47 00 80 8a b4 00 00
       -5.3367e-41 -3.7642e-41 -2.5665e-41 6.4765e-41
000390 04 62 00 80 b7 2d 00 80 15 41 00 80 7e 88 00 80
       -3.5161e-41 -1.64e-41 -2.3347e-41 -4.8964e-41
0003a0 82 20 00 80 9b 0f 00 80 b9 73 00 80 df 7d 00 80
       -1.1662e-41 -5.598e-42 -4.1513e-41 -4.5154e-41
0003b0 94 09 00 00 84 0e 00 00 96 a2 00 80 34 33 00 80
       3.436e-42 5.207e-42 -5.8325e-41 -1.8368e-41
0003c0 6e 82 00 00 2a 80 00 80 31 96 00 80 25 08 00 80
       4.679e-41 -4.5977e-41 -5.3879e-41 -2.922e-42
0003d0 6a a2 00 80 25 c1 00 80 1d 68 00 80 58 28 00 80
       -5.8263e-41 -6.9287e-41 -3.7349e-41 -1.4473e-41
0003e0 40 61 00 00 11 b4 00 80 b3 41 00 00 00 33 00 80
       3.4887e-41 -6.4596e-41 2.3568e-41 -1.8295e-41
0003f0 3d 31 00 00 cb 1d 00 80 1a 35 00 80 ea bf 00 80
       1.7663e-41 -1.0688e-41 -1.9049e-41 -6.8846e-41

fc_layers.1.bias f4 [32]
000000 54 cf 90 3c d8 10 e6 31 12 32 14 3c fe ac 00 80
       0.017676987 6.695796e-09 0.009045141 -6.2058e-41
000010 ef 02 00 00 84 94 4d 32 d3 72 00 80 20 90 4a b1
       1.052e-42 1.1966339e-08 -4.1191e-41 -2.9476794e-09
000020 6c ca 36 30 c0 07 12 b7 32 65 93 31 d7 1a 9c 3c
       6.6498873e-10 -8.704083e-06 4.2897677e-09 0.019055767
000030 74 45 b0 3c 19 5d 00 80 aa d2 a1 ae b1 0d 00 80
       0.021517493 -3.3397e-41 -7.358854e-11 -4.912e-42
000040 46 06 00 80 ec 37 22 b3 a4 2b 00 00 cc b0 40 32
       -2.25e-42 -3.7769425e-08 1.5655e-41 1.121607e-08
000050 21 53 00 80 a9 f5 a6 3c 9d 11 00 80 39 44 af 3c
       -2.9821e-41 0.020380812 -6.318e-42 0.021394836
000060 29 81 b1 3b ce 39 00 00 8c 21 c0 35 5d 19 cc 3c
       0.0054170084 2.0736e-41 1.4314878e-06 0.024914438
000070 f8 b9 4e b9 7e a4 b8 32 20 1c 4a 31 8a 11 00 80
       -0.0001971497 2.1495222e-08 2.9410856e-09 -6.292e-42
