neural-collaborative-filtering/src/checkpoints/pretrain_neumf_factor8neg4_Epoch16_HR1.0000_NDCG0.8406.model (torch, 579115 bytes, 15 tensors)

embedding_user_mlp.weight f4 [7700, 8]
000000 12 de 2d 35 28 2d c5 b5 c4 31 aa b5 66 23 8d ae
       6.4770677e-07 -1.4690786e-06 -1.2680471e-06 -6.418226e-11
000010 13 06 20 39 f0 47 a8 38 3a e9 2e b6 0b 7a 58 36
       0.00015261052 8.024264e-05 -2.6063776e-06 3.2257547e-06
000020 e8 0d 8c 36 de 96 6d b7 a8 a6 1a 36 b8 02 97 2a
       4.173944e-06 -1.4161427e-05 2.3044795e-06 2.6824875e-13
000030 83 8f ad ac e7 ef 88 33 d4 d9 1d 35 28 f2 b5 36
       -4.9328887e-12 6.3766315e-08 5.880404e-07 5.422411e-06
000040 3e 17 5b a9 3a 34 71 2b 94 f8 49 a7 b2 a7 c2 aa
       -4.8647928e-14 8.569288e-13 -2.8029108e-15 -3.4577685e-13
000050 4b e8 9c 34 64 52 dd b4 d0 8e 51 b4 2a fe 41 32
       2.922628e-07 -4.1224405e-07 -1.9516597e-07 1.1291869e-08
000060 d3 a2 14 b5 cb 75 3b 35 33 89 da 34 dc 04 76 36
       -5.5371237e-07 6.983434e-07 4.070549e-07 3.6659685e-06
000070 8c 6f a5 b4 a0 45 41 b6 88 8e fe b4 17 33 97 b5
       -3.0814806e-07 -2.8799768e-06 -4.7414892e-07 -1.1265246e-06
000080 72 d3 ce b6 0e 24 de 36 30 1e a1 35 e8 a2 1f 37
       -6.163894e-06 6.620313e-06 1.200422e-06 9.515068e-06
000090 d8 cc b1 b5 e1 cb 3d b7 e2 a1 84 b6 1e 76 b1 b8
       -1.3247145e-06 -1.1312747e-05 -3.952752e-06 -8.462019e-05
0000a0 d3 93 2a b6 eb ad 2f 36 ad 4e 33 35 df 91 03 37
       -2.541802e-06 2.6178266e-06 6.6797185e-07 7.842172e-06
0000b0 57 30 a0 b5 98 27 24 b7 f9 24 09 b6 75 97 62 b6
       -1.1934998e-06 -9.78438e-06 -2.0436112e-06 -3.3764784e-06
0000c0 90 82 3e 35 42 ec 9a b5 12 50 0e b7 86 54 f9 b7
       7.097051e-07 -1.1542654e-06 -8.482502e-06 -2.9722472e-05
0000d0 d5 12 27 34 32 4a 94 36 2b 3e 50 36 10 21 6d 35
       1.5559938e-07 4.419381e-06 3.1030602e-06 8.833749e-07
0000e0 96 71 0a 37 a0 03 13 b3 03 df 1c 36 ef c9 a4 38
       8.251887e-06 -3.42294e-08 2.3375621e-06 7.8577425e-05
0000f0 0c 19 05 36 89 e8 88 b7 04 7b 7d b6 6e 90 38 be
       1.9833124e-06 -1.6320746e-05 -3.7771542e-06 -0.18023846
000100 71 d4 6d 36 1b 30 dc 35 a9 2a 0d b5 71 60 54 b6
       3.543941e-06 1.6405278e-06 -5.258867e-07 -3.1646598e-06
000110 75 c5 8a b5 48 fc 47 b7 c9 84 51 36 28 b8 ef 35
       -1.0339269e-06 -1.1920063e-05 3.1220718e-06 1.7860484e-06
000120 e0 42 4e b5 68 1e d2 34 6e 6b 26 31 d4 5f d7 35
       -7.6838296e-07 3.9137672e-07 2.4217246e-09 1.6046638e-06
000130 5d 27 15 b2 9d 67 17 b6 06 ed fb b4 3c cf 89 b4
       -8.681892e-09 -2.2561064e-06 -4.692485e-07 -2.566902e-07
000140 e2 50 b4 b5 15 76 76 36 de 87 b1 3a d4 77 65 36
       -1.3434585e-06 3.672559e-06 0.001354452 3.4193408e-06
000150 10 c6 9e b8 51 5f 2c b5 e0 d9 9f b5 da 62 60 b5
       -7.570919e-05 -6.4213697e-07 -1.1909833e-06 -8.359035e-07
000160 34 e5 ff 36 1c 47 76 37 81 97 da b5 47 3e 97 b7
       7.626275e-06 1.4679299e-05 -1.6286359e-06 -1.8029603e-05
000170 0f 92 89 b8 ed 89 0e 37 a8 c1 cc 35 46 aa be bb
       -6.5598746e-05 8.495973e-06 1.5255546e-06 -0.005818638
000180 b6 6d f5 b4 ed 49 02 35 41 09 8c 34 ec b4 fb 35
       -4.571463e-07 4.853635e-07 2.6083765e-07 1.8753612e-06
000190 c3 f9 06 b4 48 a5 23 b6 85 2b c6 b4 39 73 d4 b5
       -1.2570585e-07 -2.43851e-06 -3.691204e-07 -1.5828765e-06
0001a0 e3 b8 57 b4 96 b9 05 34 f8 4b 92 32 25 36 e0 34
       -2.0090697e-07 1.2454106e-07 1.7031184e-08 4.1762647e-07
0001b0 d5 fe e9 b8 da 20 a1 36 1f 02 0e b4 38 27 26 b4
       -0.00011157772 4.8019983e-06 -1.3225552e-07 -1.5474222e-07
0001c0 4e 44 97 b2 3d 66 4e 34 51 23 8f 32 a8 70 20 35
       -1.7609775e-08 1.9222439e-07 1.6663451e-08 5.976858e-07
0001d0 17 c3 32 b4 93 80 54 b5 a4 da 64 b4 30 ec 05 34
       -1.6648515e-07 -7.9163254e-07 -2.1313696e-07 1.2472515e-07
0001e0 b9 3b 48 37 71 5f 9d 36 86 1d e6 ae 0c 51 31 37
       1.1934834e-05 4.6900755e-06 -1.04644335e-10 1.0568892e-05
0001f0 46 d4 0e aa 02 9f 2b 2f 97 8f ad 36 5e 58 32 38
       -1.2685781e-13 1.560885e-10 5.172518e-06 4.2520805e-05
000200 1e db 5b 35 08 d8 00 b5 3c f9 07 b5 24 64 3f b6
       8.1902715e-07 -4.799808e-07 -5.06541e-07 -2.8519507e-06
000210 0d ae be 33 0b 8a 9b 35 2e 7e b6 34 a6 d2 03 35
       8.879224e-08 1.1588576e-06 3.399195e-07 4.9107837e-07
000220 6f b7 9f b3 85 44 b0 33 4a ac 01 33 61 9e 19 34
       -7.437381e-08 8.208102e-08 3.019185e-08 1.4306853e-07
000230 2f 8a 59 b3 8b 8f 5e b4 22 5d 40 b3 d6 ca a6 b3
       -5.0649927e-08 -2.0727582e-07 -4.4788187e-08 -7.766873e-08
000240 cd bc d8 34 5b 94 55 34 10 29 1a 33 ba a9 a1 33
       4.0370506e-07 1.9891142e-07 3.5893265e-08 7.52802e-08
000250 43 ff 0f 33 ac 24 42 35 2f b4 6a 34 59 9d e2 b4
       3.352694e-08 7.2323996e-07 2.1858499e-07 -4.2210266e-07
000260 c3 97 8a b4 6f d3 e2 34 6b 7d c6 33 1f fa 38 35
       -2.5814924e-07 4.2249619e-07 9.242907e-08 6.8909316e-07
000270 b4 aa c5 b4 25 5f 24 b5 d4 63 6f b4 d3 c0 74 b4
       -3.6818312e-07 -6.1233214e-07 -2.2294927e-07 -2.279442e-07
000280 76 0d 86 b3 63 9e 0c 33 4d c0 d7 2f 48 ee 91 32
       -6.24231e-08 3.2740342e-08 3.924491e-10 1.698858e-08
000290 89 83 96 b3 67 86 83 b3 b7 32 15 b4 44 1d 5d b2
       -7.0088454e-08 -6.1246105e-08 -1.3895156e-07 -1.2870547e-08
0002a0 57 e6 8c 34 f8 3d 6e 33 2d dc 48 32 75 c8 6c b3
       2.6244626e-07 5.5470053e-08 1.1691594e-08 -5.5130347e-08
0002b0 34 15 a5 b2 78 bd cc 33 ba 3e 5b 33 39 ff 0c b3
       -1.921817e-08 9.5339544e-08 5.104696e-08 -3.2828414e-08
0002c0 48 5e ab b3 42 de 72 33 5c 62 60 33 7d 33 9e b2
       -7.979958e-08 5.6547158e-08 5.224352e-08 -1.8417035e-08
0002d0 dc 48 8d b3 7c 43 80 b3 c7 31 56 b4 0d ed 98 b1
       -6.579077e-08 -5.97274e-08 -1.9948412e-07 -4.450732e-09
0002e0 4c c5 b7 35 b4 36 96 b5 a5 58 5f b4 ae 7f d8 b5
       1.3691983e-06 -1.1191792e-06 -2.0800742e-07 -1.6130414e-06
0002f0 8a 32 d8 33 8c b5 45 36 89 20 94 35 ae 20 84 b5
       1.0067477e-07 2.9460962e-06 1.1036328e-06 -9.844277e-07
000300 31 a9 71 35 d4 d7 12 3a 47 34 e0 b5 7d 46 24 b6
       9.00257e-07 0.0005601619 -1.6704515e-06 -2.4478934e-06
000310 fa 72 ea b6 b0 5b d0 b6 c5 5f 88 35 27 f4 03 36
       -6.9871285e-06 -6.209557e-06 1.0160662e-06 1.9662637e-06
000320 8f af b4 b4 58 d5 4c 34 06 5f e5 b3 19 4f 00 36
       -3.3655348e-07 1.9076595e-07 -1.0680928e-07 1.9119527e-06
000330 08 fb c6 b7 2e 0f b7 35 66 c2 29 b5 92 4b 23 b5
       -2.3720335e-05 1.363898e-06 -6.3240293e-07 -6.08322e-07
000340 35 db df b2 b2 e7 34 32 dd ea c1 af b9 42 93 b0
       -2.60603e-08 1.053006e-08 -3.5273376e-10 -1.0714621e-09
000350 5b db 48 b2 c2 57 54 30 46 d4 aa b3 7c 9a d9 b1
       -1.1691408e-08 7.724986e-10 -7.954854e-08 -6.333094e-09
000360 d0 fd df b5 c8 9a d2 35 ad 29 78 34 b8 cb 8a 36
       -1.6688664e-06 1.5691267e-06 2.3111961e-07 4.1364365e-06
000370 92 6e 97 b4 0b 90 ba b6 fb 72 8b b5 3e cc bf b5
       -2.8206392e-07 -5.560001e-06 -1.0389771e-06 -1.4290051e-06
000380 00 0d 2a 34 d6 5b 21 b3 5f 1a 36 35 41 68 86 b5
       1.5837213e-07 -3.7569258e-08 6.783866e-07 -1.001412e-06
000390 33 bb 87 38 68 36 9f 36 0c c1 a0 37 be f8 0a b7
       6.47217e-05 4.744903e-06 1.916338e-05 -8.283356e-06
0003a0 dc 5c b5 b6 71 be e4 b7 e0 07 2b b5 ec 7c 21 29
       -5.4050306e-06 -2.72684e-05 -6.3713924e-07 3.5857534e-14
0003b0 3d 84 5b b7 7d e3 13 36 4c 1a 42 33 26 4d 59 33
       -1.3084206e-05 2.2037123e-06 4.519306e-08 5.0594416e-08
0003c0 08 d2 9d b4 b2 9c 43 34 14 e6 52 33 c9 aa 8a b3
       -2.9396347e-07 1.8217796e-07 4.910369e-08 -6.4571914e-08
0003d0 c1 93 81 b4 a3 4c b2 b4 c2 08 b2 b4 94 a3 6f b3
       -2.4135628e-07 -3.3210844e-07 -3.3161456e-07 -5.5795297e-08
0003e0 2e 26 75 b4 d4 3e ac 34 53 b8 27 34 e5 1c 60 35
       -2.2831293e-07 3.208321e-07 1.5620144e-07 8.348855e-07
0003f0 96 04 7a bb 3c 59 cb b4 2e b2 b2 b4 54 27 c5 b4
       -0.0038149706 -3.7876623e-07 -3.3284726e-07 -3.6722724e-07

embedding_item_mlp.weight f4 [8, 1024]
000000 5c 71 7c 3a 3f 75 b4 3a 3d 9f bd 39 a6 b6 c7 39
       0.0009629929 0.0013767852 0.0003616753 0.00038092321
000010 d4 0f a5 39 8a 14 19 38 4a 78 14 b9 78 ac 8f b8
       0.00031483045 3.649717e-05 -0.00014159191 -6.850896e-05
000020 0f f3 3b 3a f7 29 dd ba 20 2e 99 b6 90 5f 63 3a
       0.00071697024 -0.0016873468 -4.565125e-06 0.0008673603
000030 94 bc 90 b7 27 18 90 b9 8c d5 20 3a 0a cc 0e 39
       -1.7253951e-05 -0.00027483815 0.00061353366 0.00013618186
000040 3e fa 8a ba c7 e6 cf b9 91 26 3a 3b b6 28 06 bb
       -0.0010603142 -0.0003965406 0.0028404335 -0.0020471043
000050 a9 30 81 b9 f9 27 9f ba 9a b2 33 ba dd 60 2d 3a
       -0.00024641052 -0.001214265 -0.0006854922 0.000661386
000060 3a 8d dc b9 a8 8b 8a 37 db 6e b9 b8 bc 45 98 39
       -0.00042066892 1.6515914e-05 -8.842136e-05 0.00029043655
000070 16 39 e5 b9 d1 12 1e 38 eb 52 41 ba 0e f5 1f 39
       -0.00043720816 3.768766e-05 -0.00073747215 0.00015254712
000080 bd ea 34 39 9a 51 cd b9 27 82 24 ba 41 cd be b9
       0.00017253585 -0.00039161445 -0.0006275498 -0.0003639255
000090 5f 9c 4b 3a c4 3f 5b ba a1 d6 0f ba a9 25 1a 3a
       0.00077671366 -0.0008363689 -0.0005486999 0.00058802456
0000a0 87 07 14 ba 56 7d bd b9 f6 b3 bc b8 15 64 83 3a
       -0.00056468736 -0.00036142272 -8.998059e-05 0.0010024334
0000b0 21 88 44 ba 79 f2 e6 b9 ac 43 67 3a f0 47 20 ba
       -0.00074970914 -0.00044049675 0.00088220346 -0.0006114235
0000c0 9f e6 5d 3a 4b 66 45 ba 98 aa 79 ba 10 8b 9d b7
       0.0008464846 -0.00075301965 -0.00095240166 -1.8780614e-05
0000d0 57 54 52 3a b9 0b 65 b9 1b eb 09 3a 65 8a a5 38
       0.0008023432 -0.00021843509 0.00052611687 7.893591e-05
0000e0 d0 88 14 b8 35 ae 84 ba 25 09 d6 3a df d7 d7 3a
       -3.5413366e-05 -0.0010122719 0.001632963 0.0016467533
0000f0 ab 9e f8 ba ff 3f 75 ba 40 16 72 ba 40 f8 4d 3a
       -0.0018968185 -0.00093555445 -0.0009234883 0.00078571215
000100 d5 90 8c b9 33 cd 93 b9 c1 08 fb b9 ae 90 93 3a
       -0.0002681079 -0.0002819091 -0.00047880973 0.0011258328
000110 f9 32 a1 38 bf b7 df b7 48 bc 6d 3a dc fe 8d b9
       7.686573e-05 -2.6669235e-05 0.00090688886 -0.000270835
000120 4f 95 94 39 91 25 c2 38 96 2c 93 3a 65 75 fb 39
       0.00028340003 9.257638e-05 0.0011228498 0.00047961916
000130 b2 c1 ed ba bd 17 30 3a b2 c2 ca b8 ae ef 00 3a
       -0.0018139391 0.00067174045 -9.6683754e-05 0.00049185276
000140 a6 07 f7 b9 0b 56 c6 ba 0e c0 88 3a 48 6c 33 3a
       -0.0004711721 -0.0015131844 0.0010433213 0.0006844443
000150 aa 2e 59 b7 ab 0a 43 3a 2a 97 59 3a 81 59 25 ba
       -1.2945073e-05 0.00074402493 0.0008300418 -0.00063075876
000160 e4 90 2d ba 68 01 10 3b d8 c9 be 39 72 de 77 3a
       -0.00066210167 0.0021973494 0.0003639001 0.0009455449
000170 85 8f a9 ba 67 64 3e bb 63 f0 c5 ba 11 bb bd ba
       -0.0012936449 -0.0029051544 -0.0015101548 -0.0014475306
000180 7e 01 0a 3a 0a 9c 5d 3a 89 21 85 ba 41 14 27 ba
       0.00052645046 0.00084537326 -0.0010157089 -0.00063735625
000190 7f 85 7e 39 49 b8 00 3a 6c ee d7 39 52 ca a1 3a
       0.00024273059 0.0004910273 0.00041185634 0.0012343621
0001a0 ff 0a bb b9 3a fa dc ba 0a b5 e9 ba ab 0d 89 3a
       -0.00035675612 -0.0016859241 -0.0017830443 0.0010456344
0001b0 b9 e1 30 3a a8 bc 76 3a 20 a8 ca 35 f0 21 91 ba
       0.00067475025 0.0009412267 1.5099104e-06 -0.0011072736
0001c0 f3 28 69 ba 54 15 20 3a 23 17 c7 38 4f 29 af ba
       -0.00088943465 0.0006106694 9.493369e-05 -0.0013363751
0001d0 60 f8 14 b8 1f e7 a6 b9 2d 28 93 3a 4d d9 72 3a
       -3.5517267e-05 -0.00031834186 0.0011227183 0.0009263948
0001e0 8e ec 03 ba b4 ab 5d 3a ac 73 0d 3a 8b 7e bf b8
       -0.0005032503 0.0008456067 0.00053959596 -9.13116e-05
0001f0 a0 34 7f ba 80 00 3a 3a 41 59 47 3a ab c5 d5 39
       -0.000973532 0.00070954114 0.00076045474 0.000407738
000200 e0 a5 8a ba 25 e1 b9 b9 44 0c a1 38 04 e1 7b 3a
       -0.0010577999 -0.00035453695 7.679363e-05 0.000960842
000210 63 a0 05 ba 2b c0 94 39 5a c1 7a 3a 29 f0 9f ba
       -0.0005097447 0.00028371936 0.0009565555 -0.0012202311
000220 f8 f5 b8 36 77 d5 c9 3a fb 13 86 3a 72 f3 8e 3a
       5.512262e-06 0.00153987 0.0010229343 0.0010906293
000230 45 a2 ae 3a 6d 47 15 ba 42 f0 57 b9 5a e8 da ba
       0.0013323507 -0.0005694542 -0.00020593501 -0.0016701326
000240 b4 8f 5a 3a 0f 03 5c 3a 8c 9e 2b 3a 59 b8 6a b9
       0.00083374535 0.000839279 0.00065467576 -0.00022384654
000250 05 8d 63 3a fc c2 9a b9 75 26 03 3a d9 c0 a6 3a
       0.00086803763 -0.00029518444 0.0005002984 0.0012722268
000260 61 b9 a7 3a eb 92 82 ba e0 85 5b 3a 58 67 5f 3a
       0.0012796336 -0.0009961998 0.0008374136 0.00085221743
000270 2d f4 72 3a 68 06 da b9 df 29 ab 39 ed 49 7b 3a
       0.00092679524 -0.00041584973 0.00032646858 0.0009585906
000280 91 b5 b1 b9 28 ef 59 ba 7e a9 63 3a fe 57 33 ba
       -0.00033895348 -0.000831353 0.0008684619 -0.000684142
000290 88 37 40 3a 27 19 0d b9 58 85 e6 b9 b7 c1 97 ba
       0.00073324936 -0.00013456178 -0.00043968367 -0.0011578117
0002a0 94 8e c7 3a 3a ed 9d b9 cf dc 85 3a 25 bb 4b 3a
       0.0015224987 -0.0003012212 0.0010212901 0.0007771722
0002b0 2c 5a 1d ba ee 11 82 b7 19 6b 28 ba d6 95 76 ba
       -0.00060025114 -1.5505557e-05 -0.000642465 -0.00094064826
0002c0 7e bd ae b9 d4 b6 5b ba a0 6b 2f 3a 1e 73 31 39
       -0.0003332905 -0.00083814305 0.00066917576 0.0001692292
0002d0 97 bc ef 39 2d 8a a8 b9 7f f2 6c b9 15 18 96 ba
       0.00045726143 -0.00032146406 -0.0002259705 -0.0011451269
0002e0 6c 15 f4 3a 35 8d ba b9 5a bc f7 39 82 b3 04 39
       0.0018622107 -0.00035581892 0.00047251844 0.00012655373
0002f0 2b 4a 1c 3a 40 db 02 ba bf fb 6e ba 90 7d 28 3a
       0.00059619796 -0.0004991777 -0.00091164926 0.00064274017
000300 cf 37 9b 3a 15 ae 3e 3a 1b ff 0d bb a5 03 a9 b9
       0.0011842194 0.0007273865 -0.0021666947 -0.00032236907
000310 9b 3c 1b 3a 56 80 69 39 6f 05 a8 b9 4d 9a 59 b9
       0.00059218117 0.0002226842 -0.00032047505 -0.00020752214
000320 ce 94 27 ba 76 a9 b9 39 32 4b b3 ba 6e d2 17 bb
       -0.0006392718 0.00035412208 -0.0013679026 -0.0023166197
000330 ed 4f 10 ba a7 5c b3 38 e5 ea 92 ba 7a e9 dc b8
       -0.0005505074 8.552643e-05 -0.001120892 -0.00010533906
000340 a0 0b 06 b6 6f 8c 80 39 bf fe 8a 3a c5 d7 8a ba
       -1.9974323e-06 0.00024518694 0.0010604485 -0.0010592869
000350 e0 0a 33 3a 4c 9e 5d ba 52 b9 a6 39 5d 75 7b 3a
       0.00068299286 -0.0008454069 0.00031800062 0.00095923786
000360 ce f0 90 b9 22 10 d7 b9 c0 e9 33 b9 35 b9 66 3a
       -0.00027645234 -0.00041020015 -0.00017157849 0.0008801402
000370 e0 0a ae b6 50 6e 1d b9 57 5e 56 bb 1d 35 7b 3a
       -5.18687e-06 -0.00015013781 -0.003271004 0.00095828046
000380 1d d9 ed b9 c3 2c 84 ba 16 68 06 ba a8 fc 71 b9
       -0.00045365925 -0.0010084141 -0.00051272043 -0.00023077673
000390 21 18 0b ba f3 3d d5 b9 f7 e7 18 3a 7d bc 96 b9
       -0.00053060247 -0.00040672682 0.00058329053 -0.00028750664
0003a0 b2 8d 7b 39 c0 a9 52 3a e9 ba ad ba 18 77 93 3a
       0.00023990011 0.0008036159 -0.0013254556 0.0011250703
0003b0 c3 b9 a8 ba 51 55 ad 3a 1e 1c aa 39 5e 90 64 3a
       -0.0012872744 0.0013224279 0.00032445876 0.0008719022
0003c0 6a 59 4b ba a9 1e dd 3a c4 07 86 ba ea 84 02 3a
       -0.0007757159 0.0016870099 -0.0010225703 0.0004978912
0003d0 99 1a cc b9 5e 7b 42 ba f3 7e ae 39 d7 42 01 ba
       -0.0003892973 -0.0007418896 0.0003328245 -0.00049309194
0003e0 08 9e c9 ba b5 a8 88 ba e7 82 87 3a ed e8 42 ba
       -0.001538218 -0.0010426255 0.0010338695 -0.00074352213
0003f0 d1 a2 81 ba 37 a4 4a 3b 1a 25 0a ba 11 9e 17 3a
       -0.0009890442 0.0030920634 -0.0005269811 0.00057837466

embedding_item_mlp.bias f4 [8]
000000 6a b2 6b bb 18 ac 0a 2b 78 01 19 af f0 ae c3 bd
       -0.0035964497 4.9266277e-13 -1.3915791e-10 -0.09554851
000010 3c 88 05 3b 10 5d 13 3d 50 17 89 ba 48 a5 b2 a6
       0.0020375391 0.035977423 -0.0010459218 -1.2396031e-15

embedding_user_mf.weight f4 [7700, 8]
000000 ac 97 00 00 64 60 00 00 8e 3f 00 80 17 a9 38 2b
       5.441e-41 3.4578e-41 -2.2799e-41 6.560459e-13
000010 67 38 00 00 1c 3c d0 36 c4 7a 91 a9 19 2d 09 a8
       2.0233e-41 6.2058807e-06 -6.46059e-14 -7.614807e-15
000020 32 84 f3 b1 cc 03 00 80 2b 88 f3 23 05 09 00 00
       -7.0872597e-09 -1.362e-42 2.6403782e-17 3.236e-42
000030 57 73 33 b6 03 74 00 80 50 1f 00 80 5b 62 00 80
       -2.6740215e-06 -4.1617e-41 -1.1233e-41 -3.5283e-41
000040 4f ac 03 b6 09 3f 00 80 b3 a2 16 00 44 82 e1 2e
       -1.9620818e-06 -2.2613e-41 2.078746e-39 1.0254955e-10
000050 48 46 bb 3b 02 d1 b2 0f 0c 70 c3 ba 6b 90 77 99
       0.0057151653 1.7632662e-29 -0.0014910712 -1.2798766e-23
000060 c1 aa 03 ad 41 5e 9b 2e bf 60 a0 33 3c a3 82 25
       -7.484403e-12 7.065327e-11 7.4681786e-08 2.2662017e-16
000070 64 22 b0 a5 8e 29 b0 3b f2 02 0c b4 28 81 3e 25
       -3.0554437e-16 0.0053760475 -1.3039588e-07 1.6523633e-16
000080 a9 ce 96 ac fc 5c c9 2f 3e b8 25 24 27 19 13 27
       -4.2862003e-12 3.6627756e-10 3.593473e-17 2.0413983e-15
000090 7e 71 74 a5 a2 89 46 2a 62 ab 03 b4 51 8c 8b b3
       -2.1202079e-16 1.7633684e-13 -1.2262674e-07 -6.498215e-08
0000a0 d0 10 fd bc 04 6a 07 33 68 48 1e 3c 65 81 60 26
       -0.030891806 3.1528558e-08 0.009660818 7.7890974e-16
0000b0 75 ca 65 bb e2 09 87 a2 65 72 95 b4 51 68 e9 a4
       -0.00350633 -3.6602287e-18 -2.7836646e-07 -1.0122436e-16
0000c0 d6 2e 1a 2b 98 68 58 b0 80 96 e6 a3 ba f0 2c 26
       5.477679e-13 -7.872898e-10 -2.500039e-17 6.0000733e-16
0000d0 96 c1 38 a4 b9 5a 0f 39 02 39 76 b3 14 90 bf 2a
       -4.0062614e-17 0.0001367134 -5.7328187e-08 3.402839e-13
0000e0 d8 c6 87 ab e6 53 c3 2f 11 62 8e 2d 12 fe 03 39
       -9.647517e-13 3.5529907e-10 1.6187081e-11 0.00012587782
0000f0 e9 b6 eb a5 2c 1c 00 a1 d9 9f 80 b4 9b cb 32 bb
       -4.0889946e-16 -4.340537e-19 -2.3958162e-07 -0.0027282003
000100 20 57 4c 2f 6e 36 db 2e b0 f2 ab a4 e5 a9 66 ab
       1.8584645e-10 9.9686356e-11 -7.457056e-17 -8.194819e-13
000110 fd df 09 a5 94 90 b5 30 86 7e 1c 33 97 b9 cb a5
       -1.1958746e-16 1.3210575e-09 3.6436653e-08 -3.5340647e-16
000120 1c 67 81 ba 24 ae 46 36 7e 6e cf a4 63 37 c8 25
       -0.0009872648 2.9605662e-06 -8.995912e-17 3.4732e-16
000130 ae 1e be a4 62 e0 41 39 10 74 75 30 78 d1 01 a6
       -8.245134e-17 0.00018489503 8.9295416e-10 -4.503975e-16
000140 2b 3e 67 ab 6c d7 83 2e f3 aa 3e 2e 62 f1 92 a5
       -8.215396e-13 5.995457e-11 4.3352832e-11 -2.549053e-16
000150 66 66 39 b9 7f 76 53 3b ef b0 9b b3 dc ab 1e a7
       -0.00017681121 0.0032266674 -7.249934e-08 -2.202007e-15
000160 18 1d 15 ac ce 1f 2e af 3e 99 13 21 8f f3 82 a7
       -2.1190324e-12 -1.5836507e-10 5.000835e-19 -3.6346315e-15
000170 2c 81 be ad b9 75 4a ab d5 63 4d 34 de 74 29 b5
       -2.1657863e-11 -7.192819e-13 1.9128431e-07 -6.312747e-07
000180 ac 2e 00 ab 03 16 2f 38 b8 5e 7a 22 6a b5 23 25
       -4.5539505e-13 4.174375e-05 3.3931462e-18 1.4199462e-16
000190 50 17 93 b9 d9 87 a9 a3 6d 4f 14 b8 78 d4 28 a4
       -0.00028055394 -1.838055e-17 -3.535992e-05 -3.660916e-17
0001a0 b2 c3 52 2b fa 3f 3e 2d d1 6f 94 ab b3 9b f0 31
       7.487857e-13 1.0814455e-11 -1.0547068e-12 7.0026203e-09
0001b0 24 be a7 b4 3d 02 d1 2f 88 58 34 31 cd 7c 76 24
       -3.124452e-07 3.801847e-10 2.6243772e-09 5.3448457e-17
0001c0 fe 60 92 ab ab 35 20 2e 88 1e 8a 22 35 0b 9f a8
       -1.0400845e-12 3.6427455e-11 3.74373e-18 -1.7657406e-14
0001d0 e7 82 64 b9 14 e0 69 3d 1f e7 cc 31 f9 f5 03 25
       -0.0002179254 0.057098463 5.963457e-09 1.1445778e-16
0001e0 83 18 98 a8 3f 7e 93 a8 d3 43 00 00 2a b4 9d 0c
       -1.688602e-14 -1.6375029e-14 2.4331e-41 2.4298112e-31
0001f0 aa 7c 00 00 a2 61 00 80 81 63 00 80 a0 4f 00 80
       4.4721e-41 -3.5024e-41 -3.5695e-41 -2.8564e-41
000200 fa 80 08 b8 49 20 b1 2e fd 11 9f a3 5d 3f af a6
       -3.2545046e-05 8.054763e-11 -1.7246433e-17 -1.2160239e-15
000210 86 ac af b6 06 f6 16 38 2f 9f b4 b9 c6 94 b7 aa
       -5.235491e-06 3.5991914e-05 -0.00034450876 -3.2610562e-13
000220 17 24 31 b2 9c 98 76 3b 8c 3c be 22 c8 03 43 b9
       -1.0310962e-08 0.0037627583 5.156371e-18 -0.00018598058
000230 b4 38 4e b2 c2 df 1f a0 f2 ec 07 b1 b1 c3 0a 25
       -1.2003671e-08 -1.3541859e-19 -1.9779773e-09 1.2035895e-16
000240 a5 e3 45 ba 55 04 0e ae 3b 04 a5 a1 26 3b 75 b5
       -0.00075488753 -3.229091e-11 -1.1181955e-18 -9.1355685e-07
000250 0f b6 a6 a3 16 65 7c 1d 4e 31 b7 b9 1d 33 a6 25
       -1.8074861e-17 3.3404183e-21 -0.00034941215 2.8831045e-16
000260 c0 2f 77 b4 98 02 45 2d 44 be e4 26 6d a6 5a 30
       -2.3021039e-07 1.11987294e-11 1.587225e-15 7.9544443e-10
000270 58 db 5e 24 97 c2 7c 37 58 75 27 b2 9d 23 7b 22
       4.8324368e-17 1.5065677e-05 -9.74736e-09 3.4035697e-18
000280 63 4e 40 29 68 77 1e 2e fa 27 0b a1 52 3b a8 22
       4.2700554e-14 3.6031095e-11 -4.714794e-19 4.55993e-18
000290 ce 47 a6 22 83 44 32 36 79 dd d5 b4 eb 21 91 a6
       4.5070416e-18 2.6563946e-06 -3.9835484e-07 -1.007059e-15
0002a0 d7 4f 94 bb ba 40 54 ae 0f 8d 4e 22 ed 70 1e aa
       -0.004526119 -4.8260708e-11 2.7992882e-18 -1.4072398e-13
0002b0 02 78 19 a4 cd a1 b2 2a 9f f7 05 31 5f bd 9b 22
       -3.3278237e-17 3.1731424e-13 1.9494804e-09 4.221334e-18
0002c0 0c 57 39 b2 8c 2a ee 2c 1e 27 24 27 1f 19 f5 23
       -1.0788209e-08 6.7690905e-12 2.2780777e-15 2.6573592e-17
0002d0 05 60 bf a2 e2 26 d0 1f 75 44 91 b2 5a b8 ed a3
       -5.187232e-18 8.815575e-20 -1.6911352e-08 -2.5773667e-17
0002e0 23 d4 11 ac c4 07 1b 2f ae de a5 39 59 3a 55 a6
       -2.0723499e-12 1.4099927e-10 0.00031637162 -7.3978296e-16
0002f0 58 c7 0b a5 84 df 00 3c c6 8e 87 b3 4c 27 2a 2b
       -1.2123868e-16 0.00786579 -6.312398e-08 6.045067e-13
000300 e5 f5 25 2c 4b 4b fc b0 2d 85 5d 22 bb b7 86 b2
       2.358441e-12 -1.8356813e-09 3.0021588e-18 -1.5683204e-08
000310 56 d7 4f 27 ba b7 9a a1 51 95 c8 33 bd 97 3e a5
       2.8843755e-15 -1.0484078e-18 9.340386e-08 -1.6531284e-16
000320 3a bf 81 b8 48 ec 71 2e 2a 6b 84 22 71 a5 d2 25
       -6.186818e-05 5.5006916e-11 3.5892136e-18 3.65413e-16
000330 6f 79 c8 b3 fe a3 32 a1 63 f6 64 b3 cc 01 5b 25
       -9.3353144e-08 -6.052579e-19 -5.3309474e-08 1.8995831e-16
000340 51 90 bc b4 16 94 05 ae 79 84 a7 38 39 c1 e0 a4
       -3.5122733e-07 -3.0372226e-11 7.9878555e-05 -9.7471847e-17
000350 92 c5 99 24 16 12 0d 9d 27 f4 fd b1 87 3c 09 af
       6.668787e-17 -1.8670545e-21 -7.391026e-09 -1.2481581e-10
000360 86 8c a2 ba 44 0c 5a 2c 1f f4 be 23 3b 9b 56 26
       -0.0012401498 3.0986472e-12 2.070323e-17 7.445654e-16
000370 49 ed ca a4 a9 78 87 20 b4 8b 85 b3 2e a1 46 b1
       -8.800551e-17 2.2949736e-19 -6.218707e-08 -2.8904412e-09
000380 96 ff 86 1c 49 57 8b b3 e7 a8 f2 21 c0 bc 00 80
       8.933444e-22 -6.488569e-08 1.6443266e-18 -6.7711e-41
000390 b0 2e 00 00 d0 ba a9 1d ef be 48 2e 8c 6e 00 80
       1.6748e-41 4.4927087e-21 4.5644318e-11 -3.9657e-41
0003a0 a6 28 00 80 f2 22 00 80 f1 33 00 80 72 f2 c4 b4
       -1.4582e-41 -1.2536e-41 -1.8633e-41 -3.6684247e-07
0003b0 06 25 00 00 d2 dc 60 95 06 ed 05 36 2f 40 00 00
       1.3282e-41 -4.5410636e-26 1.995651e-06 2.3025e-41
0003c0 32 5c 94 28 88 67 88 33 56 3a 32 29 71 99 e5 24
       1.6471284e-14 6.351826e-08 3.9574538e-14 9.957286e-17
0003d0 03 0e 38 23 c6 ae 0c b4 30 32 65 b5 f6 e8 8b bc
       9.977627e-18 -1.3102098e-07 -8.538218e-07 -0.017078858
0003e0 ea 38 3b aa ca 39 f8 2d 62 4f 51 22 a4 06 79 a6
       -1.6628682e-13 2.822e-11 2.8366807e-18 -8.639823e-16
0003f0 6e 9e 06 a4 19 10 02 22 9b f1 98 31 66 7e 51 a4
       -2.9190813e-17 1.7626807e-18 4.4512496e-09 -4.5426714e-17

embedding_item_mf.weight f4 [8, 1024]
000000 42 4b 3b b4 ab ab 21 34 51 a9 90 b3 d9 4d 40 33
       -1.7443111e-07 1.5056746e-07 -6.736321e-08 4.4774286e-08
000010 80 72 d0 32 9c 74 8a b2 5f 9f 26 33 4f ee d4 b3
       2.4266456e-08 -1.6118342e-08 3.8794834e-08 -9.9153674e-08
000020 90 a9 68 33 0a 08 2f b4 59 58 93 b3 76 06 20 33
       5.4170926e-08 -1.630107e-07 -6.861291e-08 3.725878e-08
000030 b2 d6 0c b3 d8 f3 96 33 e6 ab 47 33 45 ad 4c 34
       -3.2791554e-08 7.029274e-08 4.648964e-08 1.9062016e-07
000040 64 6c 1a b2 15 eb f0 b2 ad 74 01 b4 ef 64 52 33
       -8.988625e-09 -2.804658e-08 -1.2056508e-07 4.8986234e-08
000050 2c f9 b2 32 50 54 30 33 de c3 9e 33 1b 4e 25 b4
       2.0835238e-08 4.1054875e-08 7.3930764e-08 -1.5395237e-07
000060 c1 62 15 34 7a 98 4b b3 b8 fd b2 b3 a3 0c 0e b4
       1.3912633e-07 -4.7403297e-08 -8.334922e-08 -1.3229378e-07
000070 3e 7c de b3 9f bd 94 33 14 dd f3 b2 2d 3e ea b3
       -1.036028e-07 6.926279e-08 -2.8389458e-08 -1.0907784e-07
000080 47 f7 f3 33 76 e3 10 34 27 7e 00 b4 d6 34 bb 32
       1.1360549e-07 1.3493795e-07 -1.1966823e-07 2.1793692e-08
000090 da c4 27 b4 bb 10 a2 33 68 8e 96 32 c4 cd 5a 33
       -1.5624701e-07 7.546756e-08 1.7527057e-08 5.0944223e-08
0000a0 de c6 49 33 29 c9 3d b4 5c d4 3a b3 84 71 32 33
       4.6979828e-08 -1.7675178e-07 -4.349964e-08 4.1547096e-08
0000b0 13 b5 63 33 10 ae 21 33 85 4e 54 34 67 2a 11 b3
       5.3017242e-08 3.7644043e-08 1.9772604e-07 -3.3799008e-08
0000c0 30 5f 32 b3 e6 6b f3 33 55 69 67 b4 24 e0 13 34
       -4.1530427e-08 1.1335196e-07 -2.1551871e-07 1.3771984e-07
0000d0 34 cd 89 b3 30 28 4a b3 ce d5 bc b3 21 a5 de 33
       -6.416886e-08 -4.706834e-08 -8.793323e-08 1.0367717e-07
0000e0 89 c9 a1 33 c7 ff ee b2 a6 97 49 33 86 c2 57 34
       7.533806e-08 -2.782316e-08 4.6936883e-08 2.0094203e-07
0000f0 72 89 08 b2 8c d2 b5 b2 f8 8d 01 b4 c8 32 0b 34
       -7.947493e-09 -2.1166919e-08 -1.2065709e-07 1.2963858e-07
000100 6f 3e 45 33 8c 93 c3 b2 b0 e8 22 33 0e b5 06 b4
       4.592442e-08 -2.2768084e-08 3.7930192e-08 -1.254559e-07
000110 d8 36 d6 b3 16 e7 ae 33 f3 34 e4 33 53 e9 35 33
       -9.9751276e-08 8.144541e-08 1.0626709e-07 4.2354554e-08
000120 28 02 b0 b2 c6 1f f6 33 f7 52 4c 34 18 cb 72 b3
       -2.0490077e-08 1.1461047e-07 1.9029163e-07 -5.652973e-08
000130 9e 4a 80 32 2a 97 ca 33 b2 72 6f b1 ba 28 d9 b2
       1.4935093e-08 9.4338546e-08 -3.4844274e-09 -2.5280645e-08
000140 d4 4f b2 b3 36 a3 d3 b3 12 df d5 b3 c6 45 30 b1
       -8.3032916e-08 -9.855141e-08 -9.959162e-08 -2.5651032e-09
000150 b9 f2 f1 33 b7 6d 3d 33 91 5f 27 b4 5a 36 7b b3
       1.1266588e-07 4.4104777e-08 -1.5587854e-07 -5.8489924e-08
000160 14 b6 05 b3 73 75 0b b4 e9 44 bb 33 1e 94 ac b2
       -3.1132075e-08 -1.2988112e-07 8.720401e-08 -2.0090791e-08
000170 32 a7 62 b4 9d 3d 4f 33 02 37 9c b3 a6 28 a1 32
       -2.1108715e-07 4.825198e-08 -7.274322e-08 1.8761352e-08
000180 12 74 68 b3 ad fb 70 b3 8f 4a d2 b3 51 6d 5c b2
       -5.4122275e-08 -5.6108252e-08 -9.792449e-08 -1.2830541e-08
000190 19 00 16 b3 a7 65 33 b3 dc 7b f2 33 00 06 5b 33
       -3.4924685e-08 -4.1769137e-08 1.1291533e-07 5.0995368e-08
0001a0 1c e3 8b b3 31 34 c0 33 b3 ce 04 b2 97 40 d5 32
       -6.514003e-08 8.95019e-08 -7.730409e-09 2.4825836e-08
0001b0 75 1e 81 33 f9 c2 7e b2 94 3a 2b b4 ba ab b6 33
       6.012571e-08 -1.48290775e-08 -1.5946927e-07 8.506272e-08
0001c0 96 22 8c 33 0d a0 04 b4 ba 7f 44 b3 51 99 0a b4
       6.525549e-08 -1.2351684e-07 -4.5750973e-08 -1.2908028e-07
0001d0 8c da 2b b3 84 e3 9c b3 46 59 49 34 9f 37 a7 b3
       -4.0012807e-08 -7.305701e-08 1.8752061e-07 -7.786661e-08
0001e0 38 37 f1 33 c1 2e a6 b3 96 75 89 b3 20 f4 09 b4
       1.1232481e-07 -7.738482e-08 -6.4009484e-08 -1.2847931e-07
0001f0 a0 1b c2 33 06 98 d1 b1 5c a2 9a b2 50 ce 6a 33
       9.038854e-08 -6.0999836e-09 -1.8001792e-08 5.467001e-08
000200 94 9a 52 33 40 b1 0a b3 17 65 09 b4 bc 58 67 32
       4.9035023e-08 -3.2291837e-08 -1.2795896e-07 1.34661455e-08
000210 4a 51 c4 b1 1d 06 a6 33 8a 46 d6 b3 36 09 59 34
       -5.7135923e-09 7.7310894e-08 -9.9779825e-08 2.0213051e-07
000220 bd ed 12 32 5f d2 0f 33 a6 be cb 33 94 d5 a2 b2
       8.552374e-09 3.3486113e-08 9.487603e-08 -1.8956406e-08
000230 f8 58 56 b4 38 11 0e b4 32 30 00 33 47 36 7a 33
       -1.996267e-07 -1.3231045e-07 2.9846156e-08 5.8257026e-08
000240 20 30 10 b4 71 4a a1 32 a2 6e 3b 33 b5 c1 c2 b3
       -1.3428553e-07 1.8776719e-08 4.363995e-08 -9.069064e-08
000250 38 38 fb b3 f4 0c 36 b4 86 fb 26 34 ac 67 94 33
       -1.16983244e-07 -1.6954783e-07 1.5551458e-07 6.910645e-08
000260 9e dc 9a b3 d3 04 15 34 aa 03 7f b3 8a 4d 2e b4
       -7.211314e-08 1.3878461e-07 -5.9375147e-08 -1.6233221e-07
000270 40 cf 5d 33 30 57 f2 33 44 72 d7 b3 4f 52 3c b3
       5.1644065e-08 1.12848625e-07 -1.00325025e-07 -4.384702e-08
000280 2b 96 b2 33 e2 50 d2 b3 11 cd 8c 33 93 b0 10 b4
       8.316086e-08 -9.7935995e-08 6.5565594e-08 -1.3475282e-07
000290 4f 67 df b3 18 62 2e 33 b9 d2 7a b2 11 08 92 b3
       -1.04030384e-07 4.0601748e-08 -1.4599828e-08 -6.800122e-08
0002a0 5b 55 e0 b2 79 40 8f 33 80 bf b3 af da 1f 15 b4
       -2.6115847e-08 6.670684e-08 -3.269598e-10 -1.3888294e-07
0002b0 32 f3 83 b2 c2 b2 51 b3 f9 cb 88 b2 b7 ce b4 b2
       -1.5361e-08 -4.8824184e-08 -1.592524e-08 -2.1048761e-08
0002c0 a2 2e 3d b4 de 96 01 33 be cd 5e b3 91 2d 66 b3
       -1.7618962e-07 3.0172366e-08 -5.1875524e-08 -5.359249e-08
0002d0 ba 3a de b2 d8 e9 14 34 32 ed 27 b4 ea 8b 72 b1
       -2.5870907e-08 1.3868646e-07 -1.5639378e-07 -3.5295167e-09
0002e0 ae 0a ad b3 f9 da 00 34 bf 86 2a 33 0e 9f 4c b3
       -8.057883e-08 1.2000591e-07 3.970376e-08 -4.764211e-08
0002f0 e3 d7 25 34 b4 db 3e b3 2c a4 1c b4 8c b1 6d b3
       1.5445362e-07 -4.443764e-08 -1.4588358e-07 -5.534234e-08
000300 65 32 d3 b2 93 e9 e7 b3 46 4d 30 b4 9c 34 6a 33
       -2.458655e-08 -1.07992626e-07 -1.6419389e-07 5.453022e-08
000310 96 bb bc b3 4a 9f cf 33 57 68 30 33 19 8c f4 33
       -8.788554e-08 9.668163e-08 4.107309e-08 1.1387619e-07
000320 a0 77 59 b3 85 42 47 b4 c6 7f ff b3 14 38 45 b4
       -5.0633048e-08 -1.8557519e-07 -1.1897605e-07 -1.8367456e-07
000330 5b 90 43 b3 83 23 81 b3 6f 27 59 b3 65 61 7f b2
       -4.5533266e-08 -6.01349e-08 -5.0560114e-08 -1.48650985e-08
000340 97 00 bd 33 09 1b 31 b3 9c 40 35 b1 5f 51 ad 33
       8.8011056e-08 -4.1235612e-08 -2.6375693e-09 8.0707416e-08
000350 11 16 7d 33 26 54 a0 33 61 60 d5 33 08 a3 86 33
       5.8926222e-08 7.465887e-08 9.9361166e-08 6.2695165e-08
000360 22 f4 c3 31 b3 5b c1 33 6a be d8 b3 ef 17 52 34
       5.7030016e-09 9.003943e-08 -1.009292e-07 1.9566481e-07
000370 02 9a 39 34 84 be 02 b3 29 97 f2 b1 b3 15 ad b3
       1.7285495e-07 -3.0441257e-08 -7.060312e-09 -8.059887e-08
000380 aa b6 b4 b3 ba 66 8c 33 ea 31 54 b3 01 a3 8f b3
       -8.4151296e-08 6.537944e-08 -4.9405493e-08 -6.688607e-08
000390 d6 03 4f b2 54 a9 e3 b3 01 72 43 34 49 e7 20 b4
       -1.2049858e-08 -1.0601312e-07 1.8202265e-07 -1.4985302e-07
0003a0 3b 3d 88 33 ae 8b b7 b2 2c 4a 6f b3 51 11 17 34
       6.344131e-08 -2.1367523e-08 -5.5713983e-08 1.406927e-07
0003b0 4c c5 81 b4 b2 70 c4 b3 74 d3 2c 33 dc 32 07 b4
       -2.4171675e-07 -9.1474604e-08 4.0239186e-08 -1.2591357e-07
0003c0 50 3d 21 34 d3 80 e9 b3 1c dc cb 32 03 d2 31 34
       1.5016599e-07 -1.0873341e-07 2.3732404e-08 1.6560811e-07
0003d0 2a 37 f3 b2 dc 64 07 33 4a 55 fe 33 a0 6f 9d b3
       -2.8314009e-08 3.1523868e-08 1.1843311e-07 -7.331187e-08
0003e0 a4 09 95 33 00 05 b7 b1 6e 25 a6 33 ea cf 0c b3
       6.940107e-08 -5.3265694e-09 7.736786e-08 -3.2785387e-08
0003f0 30 81 20 b4 a5 99 25 34 bd d1 c5 33 16 f1 1d 34
       -1.494816e-07 1.5422718e-07 9.2116785e-08 1.4709471e-07

embedding_item_mf.bias f4 [8]
000000 83 8b 85 b4 4e 92 5a 36 c2 f5 0d b0 e9 5a 0f 31
       -2.487469e-07 3.2569692e-06 -5.1644744e-10 2.0860915e-09
000010 52 13 5a 31 11 5e 36 af c8 82 23 b9 f8 1e d7 b0
       3.1734158e-09 -1.6586223e-10 -0.00015593611 -1.5652111e-09

fc_layers.0.weight f4 [64, 16]
000000 80 ce 92 b8 0c 0c dd 38 ab 9b 8e 37 1a a7 75 39
       -7.000286e-05 0.00010540345 1.7000208e-05 0.00023427271
000010 7e ff bb 37 13 e5 f5 b9 d8 ec de b8 21 1e 21 b9
       2.241111e-05 -0.00046900715 -0.000106299005 -0.0001536538
000020 33 ae 26 ba ba eb 36 ab e2 52 db 2e 55 23 31 bd
       -0.0006358355 -6.4986525e-13 9.97369e-11 -0.043246586
000030 5a 55 a1 39 9f f2 4b 3c 11 73 cc b8 65 49 4b 27
       0.00030771905 0.012447982 -9.748911e-05 2.8211697e-15
000040 cd 50 af 20 3f f6 d0 20 3e 21 99 a0 35 0f 53 21
       2.9699623e-19 3.5399523e-19 -2.5941206e-19 7.1509707e-19
000050 ed db e2 a0 78 97 e1 a9 09 01 7e a0 2c da a1 20
       -3.8431424e-19 -1.0018283e-13 -2.151498e-19 2.7418835e-19
000060 ab 64 7c a0 be 1b 89 93 ac cd 25 17 d8 c3 b4 a4
       -2.1378539e-19 -3.4611018e-27 5.357397e-25 -7.839433e-17
000070 52 8c 93 a0 39 db f7 23 fb ef c4 20 29 b4 a0 0f
       -2.4995625e-19 2.6872638e-17 3.3362497e-19 1.5846613e-29
000080 4f d2 6a b3 07 2d 77 33 d5 ab 54 32 ea 78 be b3
       -5.4673645e-08 5.755012e-08 1.2379094e-08 -8.8695586e-08
000090 3c eb 68 b2 b1 1f 6b b4 37 a4 84 b3 5a 87 95 b3
       -1.3557663e-08 -2.189761e-07 -6.1765995e-08 -6.9629735e-08
0000a0 46 3f a0 b4 fc 58 d1 a5 4b e9 87 29 04 c4 c2 b7
       -2.984836e-07 -3.631602e-16 6.035674e-14 -2.3217879e-05
0000b0 d1 d7 18 34 28 8c d7 36 11 f0 38 b3 3f fd f8 21
       1.4234617e-07 6.4238156e-06 -4.3059178e-08 1.6872167e-18
0000c0 3d 92 ce b9 69 c0 ea 39 3b bd 1e 38 af da 27 3a
       -0.00039400338 0.00044775315 3.784637e-05 0.0006403131
0000d0 68 d4 2d b9 b9 b6 e0 ba d8 1d d6 b9 0a 26 f8 b9
       -0.00016577693 -0.0017144299 -0.00040839496 -0.00047330587
0000e0 82 bc 6c bb 78 45 2a ad dd 73 9d 30 37 87 38 be
       -0.0036123102 -9.678806e-12 1.1456184e-09 -0.1802033
0000f0 18 6d 00 3b b3 46 66 3d bd 25 7d ba 5e 7e 00 29
       0.0019596275 0.056219768 -0.00096568075 2.8531315e-14
000100 08 bc 99 b9 26 5f c2 39 8e 26 6c 38 08 0e 4c 3a
       -0.00029322528 0.00037073455 5.630269e-05 0.0007784073
000110 d1 55 a4 b8 40 7a a4 ba 2a a2 ac b9 e9 35 12 ba
       -7.836114e-05 -0.001254864 -0.00032927218 -0.0005577491
000120 ed d4 3f bb 0c bf d5 ac cb ec 82 30 f6 1a 1a be
       -0.00292712 -6.0750346e-12 9.526046e-10 -0.15049347
000130 07 70 c4 3a 83 37 3d 3d 75 8f 43 ba 29 f6 21 29
       0.0014987 0.04619552 -0.00074600364 3.596269e-14
000140 e2 c6 08 28 34 4c e5 b3 f0 97 91 27 ff 9a 22 aa
       7.592642e-15 -1.0677505e-07 4.0410316e-15 -1.4442265e-13
000150 83 37 69 28 bd a8 91 2a 05 f5 2c 2d 75 ef 8a 29
       1.2946135e-14 2.587426e-13 9.831473e-12 6.16997e-14
000160 24 74 50 aa 7c 01 6a 25 8c 8c cc 28 8f c3 aa 2c
       -1.8514406e-13 2.0296768e-16 2.2709502e-14 4.853402e-12
000170 f4 aa 0a 2a 1c 12 f6 aa 8d c2 da af ce 5f f1 97
       1.2316173e-13 -4.3710944e-13 -3.9792206e-10 -1.5598444e-24
000180 16 72 6f b8 d4 41 96 37 bb 4d 80 b8 47 34 cd b9
       -5.708829e-05 1.7912047e-05 -6.117994e-05 -0.00039139597
000190 4c fb bc 36 d6 30 b2 b9 ea c2 a9 b8 ca c0 09 b9
       5.6320914e-06 -0.0003398719 -8.0948535e-05 -0.00013137158
0001a0 0c d9 08 ba ce 89 02 ab 49 13 bb 2e b1 65 16 bd
       -0.0005220331 -4.637652e-13 8.507201e-11 -0.036718074
0001b0 a8 fd 81 39 b3 85 2b 3c a8 80 a1 b8 b7 53 21 27
       0.00024793786 0.010468888 -7.701042e-05 2.238862e-15
0001c0 d0 5c 82 9c dc da f5 9c c9 c6 4c 9d 92 41 64 9d
       -8.62667e-22 -1.6269314e-21 -2.7101945e-21 -3.0209448e-21
0001d0 ec e3 58 1c f2 eb 6e 24 f4 32 b9 27 df b5 0a 9d
       7.1762987e-22 5.1807877e-17 5.140306e-15 -1.8358173e-21
0001e0 b0 c8 05 1d 00 28 17 10 14 04 5a 93 20 56 0a 21
       1.7706156e-21 2.9810314e-29 -2.751748e-27 4.6870204e-19
0001f0 a0 b8 73 1c ca a0 cd 9f 4b fe ef 9d 29 87 b4 8b
       8.064058e-22 -8.708688e-20 -6.3525706e-21 -6.9536844e-32
000200 f4 38 d2 27 24 cb 1a a8 67 53 c5 27 b8 17 7b a9
       5.8348457e-15 -8.592766e-15 5.476891e-15 -5.575377e-14
000210 95 7f 89 b2 3d b7 91 b1 04 ca 2d a7 da 17 4b 27
       -1.6006917e-08 -4.240887e-09 -2.4118086e-15 2.818484e-15
000220 32 ae 02 2a b0 0b a3 25 09 67 a4 28 bd 44 87 2c
       1.1606756e-13 2.8283912e-16 1.8252342e-14 3.8445623e-12
000230 a3 86 8f a9 2a c1 a1 ab 52 a0 01 2a 65 a1 3c 96
       -6.3738314e-14 -1.1493352e-12 1.1513124e-13 -1.5237446e-25
000240 32 ca 06 2b 0d 8f 58 b7 10 7a a7 2b ba e2 fc ac
       4.7886966e-13 -1.290791e-05 1.1899943e-12 -7.1874425e-12
000250 18 e5 36 ac bf 7d 13 31 c3 c0 5c 2c 3b 3a d6 2c
       -2.5990928e-12 2.1462794e-09 3.1370885e-12 6.0887107e-12
000260 8c 2a 1b ae 08 3c 5b 1f ab de 0c 26 40 6e 10 2f
       -3.528071e-11 4.642471e-20 4.887403e-16 1.3135892e-10
000270 63 c3 ae 2d 2e 4f d1 2e 25 0c 93 ae 58 1f 51 9b
       1.9868279e-11 9.518285e-11 -6.6869434e-11 -1.7298203e-22
000280 58 bd 01 29 c2 50 40 ab 81 ff 76 29 f1 97 e7 ac
       2.8807984e-14 -6.8324177e-13 5.4844587e-14 -6.5822838e-12
000290 9c 3e 3f 35 e6 91 c0 2a 81 0f 6a 2a 34 3c 45 aa
       7.1244153e-07 3.420729e-13 2.0788754e-13 -1.7518002e-13
0002a0 27 71 b8 ac 78 3a 6e 1e 48 19 15 25 2a 5b b0 2e
       -5.242157e-12 1.2611706e-20 1.2932256e-16 8.0197474e-11
0002b0 f6 7d d9 2c 67 16 f3 2c cf 22 ae ad a6 bb 29 9b
       6.1814954e-12 6.9089626e-12 -1.9796968e-11 -1.4039985e-22
0002c0 b0 db 8f 29 73 57 e7 a9 7a 0a a9 a7 82 99 a3 aa
       6.3885854e-14 -1.0273631e-13 -4.691828e-15 -2.9061134e-13
0002d0 21 11 d6 26 71 f1 08 30 36 78 3e 29 75 28 97 29
       1.4853876e-15 4.981962e-10 4.229274e-14 6.712765e-14
0002e0 a5 5b 31 ad c2 bb ba 26 2f 24 cc 30 f0 ff 21 2d
       -1.0081634e-11 1.2957235e-15 1.4853238e-09 9.20862e-12
0002f0 aa 9d d8 29 74 dc cf ac 29 b5 84 b0 9f 18 94 9a
       9.619677e-14 -5.907769e-12 -9.655753e-10 -6.125114e-23
000300 1c d9 8d 2b 31 fd 95 ac bd af 4e ab 8e e2 b2 b2
       1.0078913e-12 -4.2629446e-12 -7.342979e-13 -2.0824952e-08
000310 40 33 1f ac cd 40 a1 2d 85 90 12 33 ed b7 b3 2c
       -2.2623708e-12 1.8332358e-11 3.4124714e-08 5.107906e-12
000320 ef be 09 ae 1e 3a 24 20 fc 7a 09 2e bb 27 1d 30
       -3.1319777e-11 1.391057e-19 3.1259426e-11 5.717273e-10
000330 06 05 d0 2d ea 22 14 2e c7 03 19 b3 8b b5 46 9e
       2.3649093e-11 3.3682314e-11 -3.5626524e-08 -1.0519575e-20
000340 d6 0b 3e 23 fa 51 f4 a4 32 d7 5b 28 e2 22 1b a5
       1.0302427e-17 -1.05957006e-16 1.2203605e-14 -1.3455926e-16
000350 5d 2d 2b 2e dc 08 b4 25 ec 2e a4 24 b8 b4 c4 24
       3.892119e-11 3.1231026e-16 7.120315e-17 8.53076e-17
000360 a8 e8 f9 a5 73 f5 d5 17 7a 7a 05 26 bc bd fd 27
       -4.3352269e-16 1.3826762e-24 4.630963e-16 7.0427317e-15
000370 d0 16 a8 25 38 2f e5 a5 16 11 85 a6 44 6f a9 93
       2.9158813e-16 -3.9757164e-16 -9.23336e-16 -4.2771314e-27
000380 f4 9c 1a a9 00 28 ce b5 46 7f 47 2a 41 9e e6 ab
       -3.4331004e-14 -1.5359838e-06 1.7718907e-13 -1.6386407e-12
000390 fa e4 a2 aa 1b 99 01 2c 54 53 9e 2a 4b 18 49 2d
       -2.8935865e-13 1.8416993e-12 2.8124259e-13 1.1430921e-11
0003a0 e2 e0 3c ac 6c 96 9d 1d 59 8d 87 a1 42 d8 70 2d
       -2.6841242e-12 4.1713087e-21 -9.18537e-19 1.3690439e-11
0003b0 9c 8c e9 2b 89 dc 01 2d 24 ef 00 ac 03 70 98 99
       1.6594673e-12 7.38177e-12 -1.8322644e-12 -1.5761673e-23
0003c0 9e ba 40 b6 ae 6d 1c 36 fc 50 91 34 38 e9 e8 36
       -2.8718855e-06 2.3309653e-06 2.7067279e-07 6.941289e-06
0003d0 6f 65 56 b5 89 f9 35 b7 9b 6d 39 b6 c4 c7 95 b6
       -7.986882e-07 -1.084654e-05 -2.7630947e-06 -4.463802e-06
0003e0 77 7c 83 b7 44 29 cf a8 6e e3 89 2c 52 b9 98 ba
       -1.5674375e-05 -2.2999513e-14 3.919024e-12 -0.001165191
0003f0 14 29 f4 36 f5 e4 a8 39 6b b7 01 b6 ad 30 5c 24
       7.276549e-06 0.00032214043 -1.9329261e-06 4.7746126e-17

fc_layers.0.bias f4 [64]
000000 da 20 a7 3b 6b ca 00 a4 bf 0a 29 36 7d 93 b3 3c
       0.0051003518 -2.792703e-17 2.5189217e-06 0.021920914
000010 82 1e 95 3c 15 7c 0d 2d f1 44 82 3b 58 1b 1a 20
       0.018203024 8.042474e-12 0.0039755036 1.3053355e-19
000020 63 69 9f 2b ee 82 25 30 ec a3 0f 2f 1d 3a 57 2d
       1.132688e-12 6.021271e-10 1.3064011e-10 1.2234239e-11
000030 bb 8b 7a 30 fe e7 f0 27 f3 dc 55 2e 74 28 03 39
       9.114804e-10 6.686491e-15 4.8626835e-11 0.00012508204
000040 15 a8 15 3d 2b 1b 50 3b 70 5a c1 2d 29 66 04 3c
       0.03653725 0.0031754475 2.1981722e-11 0.0080809975
000050 3b 07 6c 30 70 96 d0 a2 87 e0 8a 3c 67 70 08 3c
       8.5866575e-10 -5.6537795e-18 0.016952766 0.00832758
000060 af db a1 3c 08 9a 91 27 5a a5 a1 a7 ff 64 f3 3c
       0.019758074 4.0412586e-15 -4.486575e-15 0.029711245
000070 8f 84 56 2b f0 02 09 3d 05 ef 92 28 6d cf c0 3c
       7.6212035e-13 0.033450067 1.6312914e-14 0.023536408
000080 5b 12 e2 b0 51 90 c9 2c e2 53 ae b0 fc 81 83 30
       -1.6448881e-09 5.728786e-12 -1.2684007e-09 9.568448e-10
000090 1e 33 8a 28 82 fc d1 a7 6a 07 6a ad 26 76 0b 2a
       1.5343246e-14 -5.8282923e-15 -1.3303006e-11 1.2386671e-13
0000a0 ee b6 d7 a9 81 a4 1b 3d 82 7e b0 2d e9 c5 31 38
       -9.579651e-14 0.03799868 2.0065064e-11 4.2384407e-05
0000b0 b3 f4 07 32 12 22 41 3c 9a e7 bc 3c f1 e5 2e 3d
       7.913672e-09 0.011787908 0.023059655 0.042699758
0000c0 2a 54 9b 24 f5 2e 66 28 98 3a c5 3c 59 3c d5 3c
       6.7363114e-17 1.2777747e-14 0.024075791 0.026029753
0000d0 9a 93 c8 2e cc ca 96 ad 47 c9 c1 a9 53 77 95 3c
       9.121166e-11 -1.7143086e-11 -8.605838e-14 0.018245375
0000e0 e6 04 bf 22 4d f2 06 2a 44 d2 0a 34 ef a8 b6 27
       5.177584e-18 1.1985656e-13 1.2928746e-07 5.0698306e-15
0000f0 f6 6d ff 3c 75 19 8b 3c ae 66 8c 27 a6 c7 ef 3b
       0.031180363 0.016979912 3.896913e-15 0.007317501

fc_layers.1.weight f4 [32, 64]
000000 3d 3c 60 3c 09 3d 91 a4 a6 d5 f3 36 04 d4 6c 3d
       0.013686237 -6.2987124e-17 7.2668363e-06 0.05781938
000010 70 79 45 3d ec fc 86 ac 6a ee 3e 3c a8 fe 17 a1
       0.048211515 -3.836589e-12 0.011653522 -5.1497825e-19
000020 4e 2e 5b ad 91 88 c1 af 10 9d 60 ae 4c a6 b2 ac
       -1.24589904e-11 -3.5203532e-10 -5.1071203e-11 -5.077527e-12
000030 d4 ce 55 af 9c 6c 1e a6 8c 61 0e ae dc ad c2 39
       -1.9445717e-10 -5.4964455e-16 -3.23737e-11 0.000371321
000040 1d 5a c0 3d 36 ea 16 3c 9a 89 b9 ac cf 23 b5 3c
       0.09392188 0.009211114 -5.273293e-12 0.022111801
000050 e7 63 bc af f1 e0 07 a4 5a f5 37 3d 0c 95 b9 3c
       -3.4267986e-10 -2.946399e-17 0.04491172 0.022654079
000060 58 c8 55 3d 41 20 11 a8 3e 65 03 29 f6 95 9d 3d
       0.052193016 -8.056111e-15 2.9175657e-14 0.076946184
000070 8c 67 37 ac 01 b5 b0 3d 89 62 6e ab 90 59 7d 3d
       -2.6063344e-12 0.08628274 -8.469133e-13 0.06185299
000080 f4 5c 1d b3 e1 e8 70 ad a6 df ff b2 ae 75 df b0
       -3.663895e-08 -1.369413e-11 -2.978761e-08 -1.6258832e-09
000090 93 97 25 a7 3d b4 bd 27 f7 59 78 af cf 21 d0 a8
       -2.2980518e-15 5.2653453e-15 -2.258743e-10 -2.3107301e-14
0000a0 a3 c4 ae aa 66 bf c7 3d 45 54 b7 ad 53 22 15 39
       -3.1045053e-13 0.09753303 -2.0842114e-11 0.00014222534
0000b0 a8 b5 62 b2 4a d4 ff 3c 74 d5 78 3d e5 3a df 3d
       -1.3196235e-08 0.031229157 0.06075044 0.10899905
0000c0 42 d3 b9 a2 52 78 c0 a7 2a 6c 81 3d e2 6f 8b 3d
       -5.036803e-18 -5.3421157e-15 0.06319459 0.06808449
0000d0 bf 9f 9f af c7 9d a9 af c3 e5 3c ab 80 c5 44 3d
       -2.9035438e-10 -3.0853028e-10 -6.7109876e-13 0.048039913
0000e0 24 29 5a a3 bc 2c dd a9 30 51 7e b4 0b bd bc a7
       -1.18265155e-17 -9.822132e-14 -2.3685129e-07 -5.2385443e-15
0000f0 39 28 a5 3d bc 5d 36 3d e5 8c 98 a6 68 2b a5 3c
       0.080643125 0.044522986 -1.0585308e-15 0.0201623
000100 6c 7f 0d 3c 6d 1f 51 a4 0f 8f 9a 36 e6 f6 15 3d
       0.008636337 -4.534627e-17 4.606212e-06 0.036612414
000110 59 0b fa 3c d9 ce 39 ac 65 14 f1 3b f3 55 ba a0
       0.03052299 -2.6404905e-12 0.0073571675 -3.1566502e-19
000120 41 b0 f7 ac dc 79 80 af e4 9f 25 ae 16 66 66 ac
       -7.0397303e-12 -2.336965e-10 -3.7658668e-11 -3.2741635e-12
000130 e8 b9 19 af 4f ec 35 a7 d4 be b8 ad d6 7d 75 39
       -1.3981316e-10 -2.52469e-15 -2.1003123e-11 0.00023411898
000140 4b b9 73 3d 40 a5 be 3b 2d 92 7f ac 2b de 64 3c
       0.05950288 0.005818039 -3.6318823e-12 0.013968985
000150 65 1f 84 30 9f c6 71 a3 5d e5 e8 3c 7c 81 6a 3c
       9.613187e-10 -1.3106696e-17 0.028429681 0.014313098
000160 aa 5e 07 3d 6a 16 b8 a7 e6 2e 49 28 f9 a3 47 3d
       0.033049263 -5.109456e-15 1.1167911e-14 0.04874036
000170 95 8e a2 ab 1a e3 5f 3d e5 8c cd aa 3a 66 20 3d
       -1.1550367e-12 0.05465994 -3.651308e-13 0.03915999
000180 de 58 ac b2 92 00 18 ad 9d 70 b2 b2 14 df ae b0
       -2.0063847e-08 -8.640326e-12 -2.0773138e-08 -1.2723569e-09
000190 ac 75 6f 27 ae 2d dd a6 db d7 13 af f0 a2 00 a9
       3.3231703e-15 -1.5347337e-15 -1.344626e-10 -2.8563035e-14
0001a0 7b 5c 00 ab b8 18 7d 3d fb b9 a2 ad 3d 2f bc 38
       -4.560308e-13 0.06179115 -1.849986e-11 8.9733374e-05
0001b0 4e 88 4d b2 ed cf a1 3c c9 95 1d 3d d0 6b 8d 3d
       -1.1963563e-08 0.019752467 0.038472924 0.06905329
0001c0 e6 f6 a3 a2 82 1e 8e a7 8c ee 23 3d de 9f 30 3d
       -4.4442652e-18 -3.9445994e-15 0.040022418 0.04312121
0001d0 6c 05 3a af 67 be bb af b8 9f 98 aa 6b 19 f9 3c
       -1.6918528e-10 -3.415039e-10 -2.711145e-13 0.030407628
0001e0 26 d2 13 a3 f8 fe 8d a9 01 53 0f b4 b0 18 6f a7
       -8.013387e-18 -6.305888e-14 -1.334811e-07 -3.3181296e-15
0001f0 98 3c 51 3d 8d dc e6 3c 1e 26 8a a6 4f a4 50 3c
       0.051083177 0.028181339 -9.586005e-16 0.012734487
000200 9e 8b 41 3c d8 19 6d a4 a0 d8 d3 36 47 a5 4c 3d
       0.0118130725 -5.1413073e-17 6.3135085e-06 0.04996231
000210 ba a9 2a 3d d1 a6 8d ac df cd 24 3c 50 e1 fd a0
       0.04166577 -4.0259814e-12 0.010058849 -4.3008966e-19
000220 68 50 23 ad 86 b1 c4 af 04 b7 37 ae b7 ec 9d ac
       -9.283331e-12 -3.577833e-10 -4.1771933e-11 -4.488489e-12
000230 a0 54 71 af 79 ff 9a a8 6b 73 f9 ad 64 07 a8 39
       -2.1948887e-10 -1.7208228e-14 -2.8359278e-11 0.00032048963
000240 6c 3a a6 3d 1d 42 02 3c 3a 21 b6 ac fa 60 9c 3c
       0.08116612 0.007950333 -5.17644e-12 0.01908921
000250 82 63 42 31 32 fa dc a3 6a f0 1e 3d 07 41 a0 3c
       2.828728e-09 -2.395841e-17 0.038803495 0.019562257
000260 46 bd 38 3d 84 17 ef a7 cc 2f 6c 29 63 2e 88 3d
       0.04510238 -6.636132e-15 5.2443984e-14 0.066494726
000270 86 8b 92 ac ca b6 98 3d a4 bc 4f ab 6c e1 5a 3d
       -4.16506e-12 0.07456739 -7.3802965e-13 0.053437635
000280 cc 3a c9 b2 f0 50 48 ad b1 30 ec b2 68 0a 00 b1
       -2.3426217e-08 -1.13866555e-11 -2.7496158e-08 -1.8632367e-09
000290 c5 05 a1 28 f4 33 62 28 2e cf 23 af 98 78 f6 a8
       1.7877093e-14 1.2556786e-14 -1.4898369e-10 -2.7363786e-14
0002a0 01 5c 55 aa e3 9e ac 3d 86 ce 13 ae 68 9f 01 39
       -1.895012e-13 0.08428743 -3.360736e-11 0.00012361782
0002b0 c9 66 1b b3 69 0b dd 3c 12 0a 57 3d dc e7 c0 3d
       -3.6182232e-08 0.02698298 0.05249984 0.09419224
0002c0 7c ff e7 a2 34 68 ab a7 4c b0 5f 3d 14 fe 70 3d
       -6.288318e-18 -4.757501e-15 0.05461149 0.058836058
0002d0 6b 97 5d af b4 ab 92 af 6a 2e 19 ab 51 02 2a 3d
       -2.0153627e-10 -2.6679248e-10 -5.442093e-13 0.041506115
0002e0 5c 17 45 a3 41 26 c6 a9 27 7a 2e b4 9c aa 5d a7
       -1.0684338e-17 -8.7996023e-14 -1.6249452e-07 -3.0762399e-15
0002f0 65 b9 8e 3d 04 93 1d 3d b3 0c 91 a6 e3 9a 8e 3c
       0.06968955 0.038470283 -1.0064838e-15 0.01740784
000300 5c d1 59 81 6b a1 00 80 fe bc 00 80 30 20 00 00
       -4.0006813e-38 -5.7906e-41 -6.7798e-41 1.1547e-41
000310 14 1b 00 00 a7 1c 00 00 ae 1b 00 80 f7 28 00 00
       9.714e-42 1.0279e-41 -9.93e-42 1.4695e-41
000320 e6 59 00 00 8a 1d 00 00 e5 81 00 00 5f 6a 00 00
       3.225e-41 1.0597e-41 4.6597e-41 3.8159e-41
000330 28 f0 01 80 f4 79 00 80 16 1e 00 80 f6 fc 27 80
       -1.77987e-40 -4.3749e-41 -1.0793e-41 -3.67233e-39
000340 6e 71 e8 80 bf 6b 00 80 a8 05 00 80 1d 89 00 00
       -2.1346526e-38 -3.8652e-41 -2.029e-42 4.9187e-41
000350 21 a1 00 80 1d 2d 00 80 c1 af 81 9b f7 34 00 00
       -5.7802e-41 -1.6184e-41 -2.1454838e-22 1.9e-41
000360 26 30 3f 11 c0 24 00 80 f9 7c 00 00 88 4c 9a 80
       1.508208e-28 -1.3183e-41 4.4832e-41 -1.417012e-38
000370 19 a5 00 00 20 8d 06 81 21 79 00 80 7e 7d 00 00
       5.9226e-41 -2.4713165e-38 -4.3453e-41 4.5018e-41
000380 c4 94 00 80 ee 68 00 80 74 0c 8b 00 8a b4 00 00
       -5.3367e-41 -3.7642e-41 1.2769601e-38 6.4765e-41
000390 04 62 00 80 b7 2d 00 80 03 52 01 80 7e 88 00 80
       -3.5161e-41 -1.64e-41 -1.21256e-40 -4.8964e-41
0003a0 82 20 00 80 6a 6a b9 81 b9 73 00 80 b5 43 00 80
       -1.1662e-41 -6.8110964e-38 -4.1513e-41 -2.4289e-41
0003b0 44 ac bc 06 1b 4f 00 80 6b 47 00 00 58 2e 96 01
       7.097086e-35 -2.8378e-41 2.562e-41 5.51678e-38
0003c0 6e 82 00 00 2a 80 00 80 56 ee 39 a6 dc 6d 00 00
       4.679e-41 -4.5977e-41 -6.4507774e-16 3.941e-41
0003d0 2c c8 8b a5 29 af 03 00 1d 68 00 80 44 50 00 00
       -2.4248298e-16 3.38342e-40 -3.7349e-41 2.8794e-41
0003e0 40 61 00 00 11 b4 00 80 e6 42 62 15 00 33 00 80
       3.4887e-41 -6.4596e-41 4.569311e-26 -1.8295e-41
0003f0 4e e9 54 81 dc b7 00 00 1a 35 00 80 a3 8f 00 80
       -3.9105638e-38 6.5956e-41 -1.9049e-41 -5.1527e-41

fc_layers.1.bias f4 [32]
000000 14 ec 4d 3c 31 3b f5 3b 8d 96 2e 3c 67 2f 41 09
       0.012568492 0.007483863 0.010656011 2.3253818e-33
000010 d1 4a d0 12 aa 47 23 3c 95 c7 05 80 24 d0 00 00
       1.3145089e-27 0.0099658165 -5.30774e-40 7.4667e-41
000020 c2 65 e8 3b 59 0f 39 a5 b1 77 b3 3b 53 db 56 3c
       0.0070922086 -1.6051392e-16 0.005476915 0.013113814
000030 d1 1f 69 3c 6f cc 23 82 69 67 24 3c e9 d9 07 30
       0.014228777 -1.2034018e-37 0.0100344205 4.9422383e-10
000040 29 c0 58 90 52 c1 a7 38 7a 50 0f 2f f2 c4 95 b0
       -4.2746524e-29 7.999189e-05 1.3034365e-10 -1.0897152e-09
000050 7f c4 d5 28 bd e5 60 3c a8 2c 00 00 73 a5 68 3c
       2.3732967e-14 0.013726649 1.602e-41 0.014199602
000060 6e 20 2a 3c e8 75 56 06 d3 da 24 35 83 49 84 3c
       0.010383708 4.033555e-35 6.141319e-07 0.016148334
000070 6b fb f3 29 81 3d 00 80 a6 fb 64 b4 e8 18 a3 2a
       1.0834982e-13 -2.2063e-41 -2.1325704e-07 2.89719e-13
